results/SandingEnvDifficult/ddpg/model/model_parameters_1.pt (torch, 36482 bytes, 22 tensors)

value.0.weight f4 [32, 20]
000000 b1 b1 2a 3d ba 13 2c bc fb cc 4b 3e 60 22 51 3e
       0.041673366 -0.01050275 0.19902413 0.2042327
000010 93 37 20 3e 18 01 da 3d 14 21 b9 3c 93 c3 90 3c
       0.156462 0.1064474 0.02259878 0.017671382
000020 7b 91 16 bd 25 d6 80 3d 82 2e 82 be 59 12 09 3e
       -0.036759835 0.06290845 -0.25426108 0.13385905
000030 7c 41 82 3d 33 8e 3f be 64 e8 60 3e f7 59 05 3e
       0.063601464 -0.18706588 0.2196365 0.130226
000040 c3 d6 f7 bd 65 91 77 be ef a6 a0 3e 28 01 fe bd
       -0.121015094 -0.24176557 0.3137736 -0.12402564
000050 42 94 e1 bd db 66 36 bb 4e 18 ec bc 1f 37 02 3e
       -0.11014606 -0.0027832303 -0.028820183 0.1271634
000060 90 66 6a 3e 0e a0 9f be 6d 05 51 3d 75 91 41 3c
       0.22890687 -0.311768 0.051030565 0.011814465
000070 bb 7b 0c 3d 08 19 96 3b dc 1f c5 3c d1 0a 9f 3c
       0.034297686 0.0045806207 0.024063043 0.019414337
000080 f1 bb a8 bd 26 c3 e1 bd 96 37 90 3d ed 63 03 3e
       -0.08238972 -0.1102355 0.07041852 0.12831087
000090 52 aa dd bd e2 15 bd 3d 25 5d a5 be be e3 13 3f
       -0.10823502 0.092326894 -0.32297626 0.5776938
0000a0 d2 d6 ae bb 39 ad 0d 3d fe 71 b0 bd 3f cd 37 3d
       -0.005335667 0.034589026 -0.08615492 0.044873472
0000b0 5d 5e 5e be 68 ef 31 3e 5e 55 a6 3d 7e 84 4a bd
       -0.21715684 0.17376482 0.08121751 -0.04944276
0000c0 66 7b b4 bd 51 99 95 3e a4 ba 94 3e 5c db 36 3e
       -0.08812599 0.29218534 0.29048645 0.17857116
0000d0 f6 8b 1a be 8c db 94 bc 36 60 94 3d 0b 1e c4 bd
       -0.15092453 -0.018171094 0.07244913 -0.09576043
0000e0 5c b6 22 be 5a e8 5b bd 00 6b 5c be 17 a7 99 3f
       -0.15889877 -0.053688385 -0.21525192 1.2004117
0000f0 d4 15 05 be 13 37 a3 bc 2f 45 64 bd f5 6e 90 3d
       -0.12996608 -0.019923722 -0.05573004 0.070524134
000100 93 2f 8a 3d ff 2e 24 3e 24 66 d2 bd fe 65 23 3c
       0.06747355 0.16033553 -0.10273388 0.009973047
000110 ef 33 29 3e 20 10 f9 3c 06 a3 00 be 9f 1b 1a be
       0.16523717 0.030403197 -0.12562189 -0.15049599
000120 da b8 19 be 56 59 36 be 3b 46 0d be 6b e2 1c 3e
       -0.15011922 -0.17807516 -0.13796322 0.15320747
000130 40 71 37 bc 30 ba 5a 3e 93 09 d2 be 11 10 1c be
       -0.0111964345 0.21360087 -0.4102293 -0.15240504
000140 c7 05 e7 bd b4 95 26 3c 7b 49 94 3e 9d 06 d4 3c
       -0.11280399 0.010167528 0.2896231 0.02588206
000150 01 af 27 3e f6 50 9a 3c aa 38 9a 3d df 6d 89 be
       0.16375352 0.018837433 0.07530339 -0.26841637
000160 60 f3 94 3d 43 3a 0b 3e b9 6d 0b be 2d a5 e1 3d
       0.072729826 0.13596444 -0.13616075 0.11017833
000170 f9 81 4d 3e 6c 23 d4 3d f4 ec 36 be d7 5b 96 bb
       0.20069112 0.10358319 -0.17863828 -0.004588585
000180 85 c9 9b 3c dc c1 cd 3d 75 c4 08 bf 90 2e b5 3e
       0.01901699 0.10046741 -0.5342477 0.35387087
000190 3b b6 07 3d c0 9d 2e bd 4f 72 25 be b3 c2 08 3d
       0.033132773 -0.04263091 -0.16156887 0.033388805
0001a0 9f 58 0b 3c 5c dd 74 3e 6b fa ca bc 4b 18 89 be
       0.008505016 0.23912567 -0.024777612 -0.26776347
0001b0 3a af 2b be 6e 29 93 3e f5 91 d3 3d 2b 2e b6 3d
       -0.16766062 0.28742546 0.103305735 0.088955246
0001c0 d8 22 a3 3d dc 5b 1f be 71 11 70 be e6 2c a1 3d
       0.0796563 -0.15562385 -0.23444153 0.07869892
0001d0 33 7a cb 3d e7 94 09 3e 7e 6e f6 bd 55 11 d1 be
       0.09935417 0.13435708 -0.120327935 -0.40833536
0001e0 df 25 2c ba 7b 4e 17 bd 4c 92 9c 3d 21 70 18 bd
       -0.00065669225 -0.03694008 0.076450914 -0.03721631
0001f0 69 7f e0 3d 30 52 21 bd 77 f6 14 3d eb 01 80 bd
       0.109618016 -0.03938502 0.03636786 -0.06250366
000200 82 d8 bb bc 6c 75 1b be e1 1e 11 3e 90 c6 7d bd
       -0.022930387 -0.15181512 0.14171936 -0.061956942
000210 ce 3d 15 be 80 4a 7c 3d 2a ad fa 3d 7b 14 1f be
       -0.14574358 0.061594486 0.1224006 -0.15535156
000220 37 da 9b bd 13 0a 29 be 50 8e 00 3f 14 e2 65 bf
       -0.076099806 -0.1650775 0.5021715 -0.8979809
000230 84 c6 e7 bd 68 d1 39 3d 51 64 a4 be 5b 81 86 be
       -0.11317161 0.04536572 -0.32107785 -0.26270565
000240 2f cd 9f 3a db 60 13 3e d4 43 a8 bd b3 47 06 be
       0.0012191887 0.14392416 -0.08216062 -0.13113289
000250 16 f1 fa bd 0c ce d6 bb c3 ce 84 be 16 f6 03 be
       -0.12253015 -0.0065553244 -0.25938997 -0.12886843
000260 6b cc 3d 3d 14 bf 80 3c 59 2a 6b be f0 0a 7d be
       0.046337526 0.015716113 -0.22965373 -0.24711204
000270 6f 32 88 bc eb c9 b9 bd 42 9f 2f 3e 0b 9f 39 bf
       -0.016625611 -0.09071716 0.17150596 -0.72508305
000280 7a 64 5b bd b4 a3 7f bb 1a c9 85 3e 11 51 9c 3d
       -0.05356262 -0.0039007487 0.2612999 0.0763265
000290 08 a3 3b 3e 3b d4 63 3d c5 85 75 3e 01 a6 0d be
       0.1832391 0.05562232 0.2397681 -0.13832857
0002a0 7f fa 36 bd b6 8a ae 3e 31 7d 48 3e 63 00 8c 3e
       -0.044672485 0.34090203 0.19579007 0.27344045
0002b0 29 06 31 bd 1e 61 b0 bd 7d a2 9b bd 3a be 15 bc
       -0.043218765 -0.08612274 -0.075993516 -0.009139592
0002c0 8f c3 48 be dc bd 45 bd f8 71 43 bf d9 ba 96 3f
       -0.1960585 -0.048276767 -0.7634578 1.1775771
0002d0 3c 14 d4 bc 96 fa f5 bb 6a e0 61 3e 9c 86 4b 3e
       -0.025888555 -0.007506679 0.22058263 0.19875568
0002e0 f5 87 f2 39 ee 07 21 3e c9 bb ca bd 47 49 52 3d
       0.00046259133 0.15725681 -0.098990984 0.051339414
0002f0 3b 0a 6d be e0 97 12 3e 77 16 99 3d 3b d9 2e 3e
       -0.23148434 0.14315748 0.07474988 0.17075054
000300 88 3f d4 bd 4f 84 92 3d 17 f2 82 bd 6b 2f 09 be
       -0.1036368 0.07154142 -0.06393831 -0.13396995
000310 db 12 65 bd fd f9 3e 3e 33 8d dc bf 8a 6b 19 40
       -0.055926185 0.1865005 -1.723059 2.3971887
000320 12 50 71 bd 52 21 fe 3c e0 65 8e 3d 18 08 28 3e
       -0.05891425 0.031021748 0.06953025 0.16409338
000330 9d 4c f5 bc e8 73 a6 bc 4f 9f 2c 3d 7c 75 bf 3d
       -0.029943759 -0.02031894 0.042144116 0.0934858
000340 6a 4c 53 3e 42 71 02 bf 60 60 ad bd 6f e4 3e 3e
       0.20634618 -0.5095407 -0.08465648 0.18641828
000350 ac 4d 1d 3e ab 79 2d 3d 11 fb 23 be b3 8b 39 be
       0.1536166 0.04235236 -0.16013743 -0.18119697
000360 17 2f 0b be e8 f9 4a 3c 1a c2 9d 3d 28 e5 76 3e
       -0.13592182 0.012388684 0.077030376 0.24110854
000370 39 27 5a bd bc f1 45 3d 09 cd 07 be b5 e3 8a 3e
       -0.053260062 0.04832624 -0.13261808 0.27126852
000380 eb 71 ac bd 34 30 af bc 7c ec f8 bd df 19 3f 3d
       -0.08420166 -0.02138529 -0.12154481 0.046655532
000390 4c 63 98 be f7 11 a4 be 97 df 87 3d 2a 7d 89 3e
       -0.29763258 -0.32044956 0.06634443 0.26853305
0003a0 a6 d4 b8 bc 3f 36 23 be 6f e6 e6 3c 38 07 62 be
       -0.022562336 -0.15938662 0.028186051 -0.22073066
0003b0 b1 2b bf 3d 61 b0 64 3e 01 68 d0 be 21 20 f3 3e
       0.09334505 0.22332908 -0.4070435 0.4748545
0003c0 bc 9a 6a 3c a8 6c 29 bb 54 52 c9 3d 3a 32 57 3e
       0.014319118 -0.0025852118 0.09830156 0.21015254
0003d0 e6 e6 01 3c 74 33 f4 3d 1b 9c 15 3e b7 c3 6d 3e
       0.007928586 0.119238764 0.14610331 0.2321919
0003e0 be 75 de bc 31 ca 23 be 07 7b c7 3d 28 81 b7 bd
       -0.027155753 -0.15995099 0.097402625 -0.089601815
0003f0 98 4e 40 be 6a 25 ca 3d 03 ad da 3d de a9 5e be
       -0.18779981 0.098704174 0.106775306 -0.21744487

value.0.bias f4 [32]
000000 76 b5 fc 3d df 0d 0a bd 56 13 22 bd 45 15 30 3e
       0.123392984 -0.033704635 -0.03956922 0.17195614
000010 4a 54 30 3e 77 98 bb 3d fd 40 32 3e a8 10 a4 3d
       0.17219654 0.0915994 0.17407604 0.080109894
000020 31 ba 99 be 32 06 26 be ec f7 01 be ac b8 4b 3d
       -0.30024865 -0.16213301 -0.12692231 0.049736664
000030 59 e4 42 3e 6d 0d 82 bc 18 08 c2 3c 30 24 4d 3d
       0.1903242 -0.015875543 0.0236855 0.05008334
000040 98 91 05 be bc bb 5e 3e fa 59 96 bd 1f 3b af 3c
       -0.13043821 0.21751302 -0.073413804 0.021390496
000050 54 ba 9f bd 3e 11 80 3d 8c a1 b3 bd 72 19 e3 3d
       -0.07799211 0.06253289 -0.08771047 0.11088838
000060 5a 43 8c 3e 3f 5d 3a bd 09 5c 41 be 37 70 2e be
       0.27395135 -0.045499083 -0.18882765 -0.17034994
000070 53 4a 80 be 4c 21 2d 3c 0f 53 1d be cb 3f eb bd
       -0.25056705 0.010567021 -0.15363716 -0.11486777

value.2.weight f4 [32, 32]
000000 70 5e 0d be ad 7d 2c bc 7d 62 7b 3c 90 5f 08 3e
       -0.13805556 -0.01052801 0.015343306 0.13317704
000010 5a c0 8b bd 10 33 b0 bd 98 72 80 bd ac f6 a3 be
       -0.068237975 -0.086034894 -0.06271857 -0.32024133
000020 cf 09 75 3d 6a 9e 2e 3f f8 40 87 3d 05 5c 19 3e
       0.059823807 0.6821047 0.06604189 0.14976509
000030 99 5e af bc 5d 81 87 be e3 cf 57 bd 2e 43 3e 3e
       -0.021407412 -0.26465884 -0.05268849 0.18580315
000040 90 57 7f be 1f 57 41 3d a5 4f 02 3e 43 b9 07 be
       -0.24935746 0.047202226 0.12725694 -0.13254265
000050 30 80 0b 3e 90 9d 37 3c 2d 3a 08 bd 34 32 43 bc
       0.13623118 0.011206999 -0.033258606 -0.011913825
000060 73 fe 7f be 22 9b c4 3c 0e 44 46 3e c0 c2 16 be
       -0.24999408 0.023999754 0.19361898 -0.14722729
000070 e2 2f 05 bf 7a df 78 3e ea 0f 99 3d d9 57 af be
       -0.5202619 0.24304 0.074737385 -0.3424671
000080 d2 a5 79 3d 30 36 f5 3d f8 4c 63 3b 46 ce e1 3d
       0.060949154 0.11973226 0.0034683328 0.11025672
000090 d9 25 9d 3d 2b c0 85 bd 85 e7 c7 3d 0d b3 f6 bc
       0.076732345 -0.06530794 0.09760956 -0.030114675
0000a0 b9 09 84 3d c9 87 23 3d a1 e2 18 3e 68 8b c5 bc
       0.06447167 0.039924417 0.14930202 -0.024114326
0000b0 a0 28 c6 bd 2f fc 2a 3e d6 70 3b 3d b6 28 14 3e
       -0.09675717 0.16697763 0.045761906 0.14468655
0000c0 57 3b 23 bd b5 47 f0 3c 73 7d 2d bd 42 77 25 bd
       -0.039851513 0.029331068 -0.042355966 -0.040396936
0000d0 64 81 6b bd 4a 1e b8 3c 8e 75 80 3d 02 04 7c bc
       -0.057496443 0.02247538 0.06272422 -0.015381815
0000e0 0f 6f e7 3d 91 a8 03 be c5 89 f9 bc 4f d0 05 be
       0.113004796 -0.12857272 -0.030461201 -0.13067745
0000f0 f2 b3 e4 bd 00 69 20 3e 0c d3 fd bd 46 6b a9 be
       -0.11167134 0.15665054 -0.123937696 -0.33089656
000100 f8 83 11 be 07 a1 98 bd 85 c3 bf bd da 6a e2 3d
       -0.14210498 -0.074525885 -0.09363464 0.110555366
000110 dd 99 1d bc 7a c0 92 3d e7 0c a3 3b 17 6e 05 3e
       -0.009619203 0.07165618 0.0049759033 0.13030277
000120 f0 e1 b1 bd 5b 13 38 3d 25 cd 6c 3e 22 34 01 bd
       -0.08685672 0.044940334 0.23125131 -0.03154386
000130 fb 2b 7b be c5 39 19 be 88 15 37 3e 65 91 6d 3e
       -0.24528496 -0.14963444 0.17879307 0.23199995
000140 fc 57 25 bd f3 ff 43 be 03 2f f7 bd a2 96 58 be
       -0.04036711 -0.19140606 -0.12069514 -0.21151212
000150 20 95 a4 bd a0 ab c6 3d a5 7d 87 bd ac 33 4f be
       -0.08036256 0.097007036 -0.06615762 -0.20234555
000160 d0 c6 a5 3d c6 9c 54 3d 39 27 d3 3d df e5 3b 3e
       0.08094561 0.051907323 0.103102155 0.18349408
000170 d4 f8 83 3d 1c 3c 3c be 37 c1 d1 bd 7e e9 91 3d
       0.064439446 -0.18382305 -0.10241931 0.07124613
000180 59 5a 1f 3c 38 99 e6 bd 0c fe 8b 3c b1 59 f8 3d
       0.00972613 -0.11259693 0.017088912 0.12126482
000190 33 97 66 3e 1e 80 93 bd 55 e0 81 bc 14 10 0d 3e
       0.22518615 -0.07202171 -0.01585404 0.13775665
0001a0 e7 16 c5 be 61 59 da bd 8e 98 b6 be ea aa 34 be
       -0.38494036 -0.10661579 -0.35663265 -0.17643324
0001b0 49 b4 78 3d e7 2d 4a be 2d ce 9f be f3 a1 b7 3d
       0.06071881 -0.19744073 -0.31211987 0.08966436
0001c0 16 b9 1e 3a 42 82 4b ba 48 d9 10 bd e3 87 89 be
       0.00060548016 -0.00077632454 -0.035363466 -0.26861486
0001d0 18 2d b7 3d 98 fb 45 bc be 2d 9b bb 5a c9 ae bd
       0.08944148 -0.01208391 -0.0047356775 -0.085344985
0001e0 11 95 7f 3d 91 2f 1c 3e 15 3b 94 3e 33 fd e1 bc
       0.06239802 0.1525252 0.28951326 -0.027586555
0001f0 ad ec 10 3e e4 32 cb bd b1 cd 59 3e cf 8f 90 3d
       0.14152785 -0.09921816 0.21269871 0.07058679
000200 d1 1e 1f 3e 93 fe 37 bd 31 72 a4 3d ea c4 f7 3c
       0.155391 -0.044920515 0.08029593 0.030245263
000210 f4 9c 7f be 29 73 df bc b6 e1 b9 bd a9 9f 3f 3d
       -0.24962217 -0.027276592 -0.09076254 0.046783123
000220 72 19 c3 bd 0c 3d 84 bc af 87 14 3d 7c d1 90 bd
       -0.09526338 -0.01614239 0.03626221 -0.07071206
000230 e0 61 eb bd 52 b9 ea 3b c7 94 17 bd 2e 78 26 3e
       -0.114932775 0.007163205 -0.03700712 0.16256782
000240 d1 b4 cd 3d 68 3b 7a 3d 5c 01 e4 bd 49 e8 fa 3d
       0.100442536 0.06109181 -0.11133072 0.12251336
000250 e2 cd 5a 3d fd 85 e5 3d 94 24 a2 bd a6 bc ac 3d
       0.053419 0.11207197 -0.07917133 0.08434419
000260 90 53 b6 bd 1e 3c 8a bc 3f de 50 be 93 c7 7e 3d
       -0.08902657 -0.01687437 -0.2039728 0.062202048
000270 4a 46 67 3c 88 78 5d be 8c d2 8a 3d fa b9 00 3d
       0.014115879 -0.2162801 0.0677844 0.03142736
000280 ec ba bd bd 96 92 86 3e 86 a5 ac 3d 34 e8 93 bd
       -0.09264168 0.2628371 0.084300086 -0.072220236
000290 6c 3a 4a 3d 63 5c 03 3e ab 01 13 bc 60 4e 9e bc
       0.04937212 0.12828211 -0.008972566 -0.019324481
0002a0 ca 91 a4 bd 8b 6d 8c be 69 51 14 3d ad 82 bc bc
       -0.080356196 -0.27427325 0.03621045 -0.02301153
0002b0 34 a5 0f be f7 4e fa bd 5d 63 dc 3c e0 4d 98 bd
       -0.14027864 -0.122220926 0.026902849 -0.074367285
0002c0 04 44 5b 3d dc 8b eb bc 6a 38 2e 3e 9f a8 f3 bd
       0.05353166 -0.028753214 0.17013708 -0.11897396
0002d0 29 0e 4c be 25 b2 73 3e c6 b4 ce bc c7 9d 78 be
       -0.19927277 0.23798425 -0.025232684 -0.24278937
0002e0 d7 15 7a be f2 a8 c1 bd e0 cd 5b 3d 18 ef 33 39
       -0.24422394 -0.09456052 0.053663135 0.0001715984
0002f0 cc c5 10 3e 10 21 91 bd b9 ff d2 3d 72 7d b1 3c
       0.14137954 -0.07086384 0.103026815 0.021666262
000300 b5 a8 bd 3c 8a 2f 20 be b6 2c 4b bd 13 2e 53 3d
       0.023151735 -0.15643135 -0.049603187 0.05155761
000310 e8 7f 84 bd 02 7e d3 3d c9 d8 66 3d 26 d7 21 be
       -0.06469709 0.103267685 0.056359086 -0.15804729
000320 39 97 05 3e 99 0e 49 be 78 9c 50 be 3a 3f 06 3e
       0.13045968 -0.19634475 -0.20372188 0.13110057
000330 76 67 d2 3c a4 e4 c6 bc 8e 55 11 be 95 a8 7a 3e
       0.0256841 -0.024278946 -0.14192793 0.24478371
000340 84 0e 20 3d 7b fa 46 be 5d 6c 0d 3e 58 55 46 3d
       0.039076343 -0.19431488 0.13810869 0.048421234
000350 84 da a9 bd cf 60 49 3e 81 a8 7b 3d 7c 4d 18 3d
       -0.08293632 0.19665836 0.061439995 0.03718327
000360 bd f1 0c bd 6b f6 ac 3c 12 71 33 be 1f 7c 02 3e
       -0.034410227 0.021113595 -0.17523602 0.12742661
000370 fa e1 68 3e 7f 50 a6 3e c2 50 b2 3d 0a c2 41 3d
       0.22742453 0.3248329 0.087068096 0.04730419
000380 77 cc 8e 3d a6 9c 51 bc 04 c1 31 be 5e c2 8f 3d
       0.06972592 -0.012793696 -0.17358786 0.070194945
000390 bb 93 85 be 02 7f 3c 3e c9 40 8b 3d 51 c3 29 3d
       -0.26089272 0.18407825 0.06799466 0.041446034
0003a0 65 7a df bc 99 b5 88 be 29 04 18 3d a1 a5 ae 3d
       -0.027280042 -0.26701048 0.037113342 0.08527685
0003b0 9a ea 18 be 40 53 e8 3d 38 2e c3 bc 31 65 25 3e
       -0.14933243 0.11344004 -0.02382575 0.16151883
0003c0 20 bb 2b be 2e 5b 3e 3e 5f a4 2c bd 04 ce a1 bd
       -0.16770601 0.1858947 -0.042148944 -0.079006225
0003d0 f9 2c 96 3c 32 47 04 3e ee dc 1c be f6 5d b7 bd
       0.018331992 0.12917784 -0.15318653 -0.089534685
0003e0 77 42 13 3d d9 50 a3 bd dc 59 09 bf 52 a6 84 bd
       0.035952058 -0.07974405 -0.5365274 -0.064770356
0003f0 39 78 be 3d e6 75 fb bd 6b 42 25 3d 2f 09 4f 3d
       0.093002744 -0.12278347 0.040346544 0.050545868

value.2.bias f4 [32]
000000 a6 be 4b be 0e 19 e7 3c a7 82 d3 bc cb 65 16 bd
       -0.19896945 0.02821019 -0.025819136 -0.03671817
000010 66 67 5d bd 91 1d cd bd 0c 00 15 be b0 ed 23 3d
       -0.054053687 -0.10015405 -0.14550799 0.0400216
000020 42 cc a3 3d b1 55 42 3e 05 64 e3 bc f3 f0 06 bd
       0.079979435 0.18978001 -0.027757654 -0.03294463
000030 fb 15 e7 3d b5 17 52 be 51 f2 09 3d 51 70 01 be
       0.11283489 -0.20516856 0.033678357 -0.12640502
000040 76 f9 e9 bd 84 3f ab 3d e8 d8 00 3d b0 dd ef 3d
       -0.11424534 0.08361724 0.031456858 0.117122054
000050 5d dd 7d bd 42 60 5a be bc 8e 87 bc 46 bd b3 3c
       -0.061978687 -0.21325782 -0.016547553 0.021940839
000060 c4 de 80 be 08 00 8a 3d f8 49 8c 3d 60 47 bd 3d
       -0.25169957 0.06738287 0.06850046 0.09242129
000070 a2 da 83 bd f0 df b8 bd 61 65 0e be 2d d1 2d 3e
       -0.06438185 -0.09027088 -0.1390586 0.16974325

value.4.weight f4 [1, 32]
000000 1f 2c 0e 3e 89 9f e9 bc 29 a4 bb bd 67 19 a0 3d
       0.13884018 -0.028518455 -0.091621704 0.07817345
000010 e7 2f 77 bd e4 68 0c 3e 77 5c 21 bd 64 81 90 3d
       -0.060348418 0.13711888 -0.039394822 0.07055929
000020 bc 88 4c bd 8c 7c 79 bd a7 04 67 bd 5c bf 83 bd
       -0.049935088 -0.060909793 -0.05640092 -0.06432983
000030 41 d8 8d bd 86 6a 83 be 2f 46 d7 bd 20 3a 87 bd
       -0.06926013 -0.25667208 -0.10511433 -0.06602883
000040 00 c2 ac 3d fe 36 f4 3d 07 f1 8c bd 23 eb 74 3d
       0.0843544 0.119245514 -0.0688191 0.059794556
000050 e0 dd 35 bd ad de 37 3d 07 0a ee bd 55 54 a0 3d
       -0.04440105 0.044890095 -0.11623006 0.07828585
000060 20 80 14 be b1 fa f6 bc 8f ee 45 bd 73 13 30 bd
       -0.14502001 -0.030148836 -0.04832321 -0.0429873
000070 06 83 09 bd 3d e8 a2 3d 1d 6f 24 bd 77 5b a0 bd
       -0.03357222 0.07954452 -0.04014503 -0.078299455

value.0.weight f4 [32, 20]
000000 f5 ed 2f 3d 50 9d 22 bc 35 36 4c 3e 9a 8b 51 3e
       0.042951543 -0.009925202 0.19942553 0.2046341
000010 24 c4 1d 3e d1 e2 d9 3d 72 67 b2 3c a8 a5 94 3c
       0.15406853 0.10638965 0.021777842 0.018145397
000020 77 d5 13 bd e8 c3 81 3d be a7 81 be d1 1f 0a 3e
       -0.036092248 0.06336194 -0.2532329 0.134887
000030 32 cc 83 3d e6 2f 40 be 7e 2c 60 3e 11 9e 04 3e
       0.064354315 -0.18768272 0.21891972 0.12950923
000040 74 17 fa bd 85 0a 77 be 68 81 a1 3e d6 67 fe bd
       -0.122115046 -0.24125107 0.31544042 -0.12422149
000050 5e 3a e4 bd a8 64 77 bb 26 63 d1 bc c5 8d 05 3e
       -0.11143945 -0.0037749205 -0.025559973 0.13042362
000060 ee b2 68 3e 02 cc 9f be 95 72 56 3d 70 18 42 3c
       0.22724506 -0.31210333 0.052355368 0.011846647
000070 21 df 08 3d a8 f7 b3 3b c4 79 c8 3c b9 64 a2 3c
       0.033415917 0.0054921694 0.024472125 0.019823419
000080 c1 af a9 bd a5 67 e0 bd 6c 4c 91 3d 60 ee 03 3e
       -0.082854755 -0.109572686 0.070946544 0.12883902
000090 84 72 dc bd 1d 1a bc 3d 2d 8c a6 be 0f 49 13 3f
       -0.107640296 0.09184668 -0.3252882 0.57533354
0000a0 a5 1f e2 bb a9 54 0e 3d 56 8b b0 bd 9c 9a 37 3d
       -0.006900745 0.034748707 -0.08620326 0.04482518
0000b0 dc 35 5e be d5 16 33 3e 3f bd a3 3d 7c ee 46 bd
       -0.21700233 0.17489178 0.0799508 -0.04856728
0000c0 50 b2 b3 bd dc fc 95 3e 5a 7a 94 3e c2 5a 36 3e
       -0.08774245 0.2929448 0.28999597 0.17808059
0000d0 ca 11 1b be 81 fb 93 bc df 2c 95 3d 62 51 c3 bd
       -0.15143505 -0.018064262 0.07283949 -0.09537007
0000e0 91 5d 23 be e2 39 5f bd af 4f 5d be e9 8b 99 3f
       -0.15953662 -0.05449856 -0.21612428 1.1995822
0000f0 14 30 07 be 6f 32 a0 bc 11 8c 6f bd 83 cb 8a 3d
       -0.13201934 -0.019555299 -0.058483187 0.06777098
000100 7b 21 8b 3d e5 ec 23 3e f3 d0 d3 bd 40 a3 27 3c
       0.06793495 0.16008337 -0.10342588 0.010231793
000110 95 14 2a 3e 0f 4d fb 3c b6 9f 01 be 4f 18 1b be
       0.16609414 0.030676393 -0.12658581 -0.15145992
000120 a6 5a 1a be ec 9b 36 be 68 e9 0c be 3e 3f 1d 3e
       -0.15073642 -0.17832917 -0.13760912 0.15356156
000130 9b be 3d bc ea 09 5a 3e 84 54 d1 be b4 11 1c be
       -0.011581088 0.21292844 -0.40884793 -0.15241128
000140 9d 64 e7 bd ba d0 33 3c 17 49 94 3e 39 06 d4 3c
       -0.11298487 0.010975057 0.28962013 0.025881873
000150 b2 87 27 3e 1e e0 a7 3c 5d 62 96 3d d0 75 89 be
       0.16360357 0.02049261 0.0734298 -0.26847696
000160 16 1f 90 3d 9a 99 09 3e be a5 0a be 24 35 e3 3d
       0.07037179 0.134375 -0.13539788 0.1109412
000170 3d e4 4e 3e df 5e d1 3d 38 4f 38 be e4 a4 c2 bb
       0.20204253 0.10223173 -0.1799897 -0.0059400667
000180 db 74 8f 3c ab 5f d0 3d a9 0b 09 bf ad 6e b5 3e
       0.017511776 0.10174497 -0.53533417 0.35436
000190 02 f8 0c 3d 80 c0 29 bd 1d 3d 23 be 7c 97 11 3d
       0.034416206 -0.041443348 -0.15941282 0.035544857
0001a0 ce d5 0b 3c c4 df 71 3e 76 7f be bc 8f a6 89 be
       0.008534862 0.23620516 -0.023254137 -0.26884887
0001b0 9d 5b 2b be a0 18 93 3e 2f 7a d5 3d 65 16 b8 3d
       -0.16734166 0.28729725 0.10423695 0.089886464
0001c0 81 8e a5 3d e7 86 1f be 17 02 71 be 99 4b 9f 3d
       0.08083821 -0.15578805 -0.23535953 0.07778091
0001d0 04 5f cb 3d ac df 0a 3e f8 83 f9 bd bb 9b d0 be
       0.09930232 0.13561887 -0.12183374 -0.40743813
0001e0 27 9e 9e 39 35 1f 17 bd 96 f0 9e 3d 9a b3 13 bd
       0.0003025394 -0.036894996 0.07760732 -0.036059953
0001f0 13 b7 e1 3d 4c ba 1f bd c3 6a 1a 3d ea 5c 81 bd
       0.11021247 -0.038996026 0.037699472 -0.0631655
000200 a8 ba bd bc 29 95 1b be 89 9f 10 3e 07 c4 7f bd
       -0.023160294 -0.15193619 0.14123358 -0.062442806
000210 0d b9 14 be f6 f6 7c 3d 61 0f fa 3d 62 63 1f be
       -0.14523716 0.061758958 0.122099645 -0.15565255
000220 ed 48 9c bd fc b2 28 be e7 2b 00 3f fd 03 65 bf
       -0.07631097 -0.16474527 0.5006699 -0.8945921
000230 e5 32 e8 bd 08 c8 39 3d 01 7d a3 be 0b 9a 85 be
       -0.11337832 0.04535678 -0.31931308 -0.26094088
000240 74 af 50 3b 94 90 10 3e 64 f1 a9 bd cc 7f 05 be
       0.003184286 0.14117652 -0.08297995 -0.13037032
000250 56 96 fa bd fe f8 cb bb ac f6 84 be d8 45 04 be
       -0.122357056 -0.0062247505 -0.25969446 -0.12917268
000260 50 2f 3d 3d 2d 9f 81 3c 32 06 6b be c9 e6 7c be
       0.0461877 0.015822971 -0.22951582 -0.24697413
000270 06 3a 87 bc 77 12 ba bd 24 0a 30 3e 4a 9a 39 bf
       -0.01650716 -0.09085553 0.17191368 -0.7250105
000280 f8 b0 65 bd 40 6b 87 bb e6 23 85 3e 35 bc 99 3d
       -0.056076974 -0.0041326582 0.2600395 0.07506601
000290 84 93 3b 3e b9 81 68 3d fd be 75 3e 19 6f 0d be
       0.18317991 0.05676434 0.23998637 -0.13811912
0002a0 34 2c 30 bd ee 7d af 3e e5 85 47 3e c7 84 8b 3e
       -0.043010905 0.34275764 0.1948467 0.2724974
0002b0 cb 41 34 bd 71 1c b0 bd 1f 66 9a bd 4a db 0b bc
       -0.044008058 -0.08599175 -0.07539009 -0.008536169
0002c0 6d e8 47 be f1 9d 47 bd 4d 6e 43 bf fd 8d 96 3f
       -0.19522257 -0.04873461 -0.7634018 1.1762081
0002d0 b4 e5 e0 bc ed 9b f5 bb 6a e0 61 3e 9c 86 4b 3e
       -0.027453281 -0.0074953944 0.22058263 0.19875568
0002e0 0f f2 2a 3b ac 63 21 3e e8 95 c8 bd 61 e1 5d 3d
       0.002608422 0.15760678 -0.09794217 0.054170016
0002f0 b5 4e 6d be d5 b3 11 3e 2b 5f 99 3d 93 fd 2e 3e
       -0.23174556 0.14228757 0.07488855 0.17088918
000300 ff f0 d3 bd 41 2f 92 3d aa 42 83 bd b0 57 09 be
       -0.10348701 0.07137919 -0.064091995 -0.13412356
000310 15 f9 65 bd 59 1a 3f 3e f1 25 dc bf 32 27 19 40
       -0.056145746 0.18662395 -1.7199079 2.3930173
000320 17 cd 74 bd 20 7e fa 3c e0 65 8e 3d 18 08 28 3e
       -0.0597659 0.03057772 0.06953025 0.16409338
000330 64 d8 fb bc b9 84 a1 bc ad 8a 2c 3d e1 2d bc 3d
       -0.030742832 -0.019716607 0.04212444 0.09188438
000340 66 8f 53 3e 11 b0 02 bf 0d ca ad bd 95 af 3e 3e
       0.20660171 -0.51049906 -0.08485804 0.18621667
000350 f3 4e 1c 3e 5e 74 31 3d 58 fc 22 be fa 8c 38 be
       0.15264492 0.043323867 -0.15916574 -0.18022528
000360 ee 43 0a be 50 b7 3b 3c 7a f3 9e 3d 2e 6e 74 3e
       -0.13502476 0.011457279 0.07761283 0.23870155
000370 c3 b0 55 bd 60 02 46 3d 6d cd 07 be 51 e3 8a 3e
       -0.052170526 0.04834211 -0.13261957 0.27126554
000380 93 46 ab bd 95 ec b5 bc fe ba f8 bd fd f9 3b 3d
       -0.0836307 -0.022207538 -0.12145041 0.045892704
000390 0e 5a 98 be ef 04 a4 be 79 c7 87 3d 25 77 89 3e
       -0.29756206 -0.32035014 0.06629843 0.26848713
0003a0 59 73 b8 bc f5 4f 23 be 4c 63 e6 3c 9a 17 62 be
       -0.02251594 -0.1594847 0.02812352 -0.22079316
0003b0 a2 84 bf 3d 14 da 64 3e 8d cb d0 be cc 14 f3 3e
       0.093514696 0.22348815 -0.40780297 0.47476804
0003c0 29 93 6e 3c d3 84 04 bb 54 52 c9 3d 3a 32 57 3e
       0.014561453 -0.002022077 0.09830156 0.21015254
0003d0 55 69 0d 3c ef c1 f3 3d b4 cf 16 3e 32 4c 6f 3e
       0.00863107 0.11902224 0.1472767 0.2336891
0003e0 2b cc cc bc 9d 1c 24 be 00 1e c8 3d 2f de b6 bd
       -0.024999699 -0.1602654 0.09771347 -0.08929097
0003f0 28 96 3f be 93 41 ca 3d 27 b3 d9 3d d0 26 5f be
       -0.18709624 0.098757885 0.10629874 -0.2179215

value.0.bias f4 [32]
000000 98 3d fb 3d 34 e4 07 bd 17 7a 20 bd 12 72 30 3e
       0.122676075 -0.033176616 -0.039178934 0.17231014
000010 17 f2 2e 3e 38 b7 b9 3d 16 f2 31 3e fe 58 a4 3d
       0.17084537 0.09068149 0.17377505 0.080247864
000020 1d 6b 99 be 77 2e 26 be 43 f9 00 be 1a 77 4b 3d
       -0.29964533 -0.16228662 -0.12595086 0.04967413
000030 6d 67 42 3e 22 9e 82 bc 81 a0 c1 3c 58 a4 4e 3d
       0.18984766 -0.015944544 0.023636105 0.0504497
000040 b3 f5 05 be 5e 70 5e 3e 25 b2 96 bd 3c f3 af 3c
       -0.13082008 0.21722552 -0.07358197 0.021478288
000050 bf 76 9f bd 2a 72 80 3d 93 a4 b2 bd d0 7a e3 3d
       -0.07786321 0.06271775 -0.08722796 0.11107409
000060 a1 43 8c 3e 95 f0 40 bd b9 a3 40 be 60 89 2e be
       0.27395347 -0.047104437 -0.18812455 -0.17044592
000070 fe e5 7f be b2 3a 33 3c 3a 99 1c be bc f5 ea bd
       -0.24990079 0.010939287 -0.15292826 -0.11472651

value.2.weight f4 [32, 32]
000000 1c 75 0b be 46 ff 20 bc ff 5e 74 3c 45 44 07 3e
       -0.13618892 -0.009826487 0.014915227 0.13209637
000010 4a 1f 86 bd 17 fb a5 bd 97 e5 7e bd b9 f3 a1 be
       -0.06548937 -0.08104532 -0.062230673 -0.31631258
000020 cf bb 81 3d f1 c2 2e 3f 38 ff 8e 3d 76 5e 13 3e
       0.0633465 0.68266207 0.06982273 0.14391503
000030 d1 99 af bc b0 17 86 be 59 3f 54 bd d6 01 3c 3e
       -0.02143565 -0.26189947 -0.051818226 0.18360075
000040 c0 a2 80 be f4 35 44 3d a5 74 02 3e ae 57 07 be
       -0.25124168 0.047903016 0.12739809 -0.13217041
000050 1e 96 0d 3e 47 df 2f 3c 56 28 11 bd 32 e5 1d bc
       0.13826796 0.010734386 -0.035438858 -0.009637164
000060 f8 c1 7f be 69 80 ad 3c 4d 5c 48 3e 20 58 17 be
       -0.24976337 0.021179395 0.1956646 -0.14779711
000070 1d 39 06 bf 21 da 7b 3e 91 b5 9b 3d 6d da ae be
       -0.524309 0.24594928 0.076029904 -0.3415102
000080 54 da 79 3d 4c 9c f2 3d e5 eb da 3a a6 fe e4 3d
       0.06099923 0.118462175 0.0016702382 0.11181383
000090 1c fc 9a 3d 85 2f 89 bd 22 66 ca 3d fd 37 ed bc
       0.07567617 -0.06698517 0.098827615 -0.028957361
0000a0 b3 f0 80 3d 80 ad 1f 3d df 32 1a 3e c8 20 9a bc
       0.0629591 0.038983822 0.15058468 -0.01881446
0000b0 92 94 c3 bd e3 4b 2b 3e 2d d0 34 3d 52 b2 14 3e
       -0.09549822 0.16728167 0.044143844 0.14521149
0000c0 7b 76 21 bd 83 70 f1 3c 29 d5 2c bd b8 c0 23 bd
       -0.039419632 0.029472595 -0.042195473 -0.039978713
0000d0 eb d5 6d bd 8e dd b9 3c 6e a7 81 3d 74 a1 78 bc
       -0.058065336 0.022688653 0.06330763 -0.015175212
0000e0 b6 e6 e8 3d ec 2a 02 be e1 1d fd bc e6 ab 05 be
       0.113721296 -0.12711686 -0.030898036 -0.13053855
0000f0 be 9f e5 bd bb 4c 1f 3e 6e bf fd bd 39 a4 a7 be
       -0.11212109 0.15556614 -0.12390028 -0.3274248
000100 3f 01 11 be 60 eb 91 bd 78 71 bf bd f3 0d e7 3d
       -0.14160632 -0.07124972 -0.09347814 0.112819575
000110 9d e1 13 bc d1 28 92 3d 43 4f 9d 3b b8 9b 05 3e
       -0.009025958 0.07136691 0.0048007085 0.13047683
000120 6d 48 b1 bd bb 12 39 3d 0a 71 6f 3e 72 c1 02 bd
       -0.08656392 0.04518388 0.23382965 -0.031922765
000130 42 81 7a be 35 83 19 be 0e ff 38 3e c4 71 6d 3e
       -0.2446337 -0.14991458 0.18066046 0.2318793
000140 d9 44 29 bd 69 32 42 be 00 31 f5 bd df 8a 59 be
       -0.041325424 -0.18964542 -0.11972237 -0.21244381
000150 21 3b a2 bd 92 8c c8 3d ad 7a 87 bd 3e 69 4f be
       -0.07921434 0.09792437 -0.066151954 -0.2025499
000160 31 68 a7 3d ed 26 54 3d b7 c9 d1 3d 0b f8 3b 3e
       0.0817417 0.051794935 0.10243552 0.1835634
000170 91 28 81 3d 15 fd 3a be bf 55 cf bd ab 1d 92 3d
       0.063065656 -0.18260606 -0.10123777 0.07134565
000180 8c 51 2b 3c fd 78 e5 bd 3d 1f 86 3c 9a c8 f6 3d
       0.010456454 -0.11204717 0.016372317 0.120499805
000190 c0 10 67 3e 9e 1f 93 bd 46 44 7b bc 20 0e 0c 3e
       0.22564983 -0.07183765 -0.015336102 0.13677263
0001a0 db e2 c4 be 27 3c d9 bd 27 c6 b6 be 60 a9 32 be
       -0.38454327 -0.10607176 -0.35698053 -0.17447424
0001b0 5c 2f 7a 3d 89 ee 49 be c0 02 a1 be c8 f9 b7 3d
       0.06108032 -0.197199 -0.3144741 0.08983189
0001c0 2c 8d 7e 3a 4a b9 98 ba ee c7 07 bd 10 28 88 be
       0.00097103673 -0.00116519 -0.033149652 -0.26593065
0001d0 60 df b6 3d 47 1e 3a bc aa 9d b7 bb b6 fe ae bd
       0.08929324 -0.011359758 -0.005603512 -0.08544676
0001e0 b0 15 80 3d 45 1c 1b 3e 5e 7a 94 3e 00 19 e2 bc
       0.062541366 0.15147503 0.2899961 -0.027599812
0001f0 74 ea 10 3e 80 ce c9 bd a0 43 5b 3e 2a 43 8f 3d
       0.14151937 -0.0985384 0.21412516 0.069952324
000200 fa f1 1e 3e 3e 1b 3a bd 75 0f a6 3d df cc fa 3c
       0.15521994 -0.045436136 0.08108417 0.030615268
000210 25 41 80 be af 13 e0 bc 92 8c b9 bd 1f ae 3c 3d
       -0.250497 -0.027353136 -0.09060015 0.046064492
000220 2a 12 c4 bd a6 bb 86 bc c2 6f 11 3d 50 1f 90 bd
       -0.09573777 -0.0164469 0.03550697 -0.070372224
000230 14 a7 ed bd 28 11 07 3c 7e b7 13 bd 1b ad 26 3e
       -0.11604133 0.008243836 -0.036063664 0.16276972
000240 e5 7f cd 3d ec 98 79 3d d9 f5 e2 bd 5a ca fc 3d
       0.100341596 0.060936853 -0.11082048 0.12343283
000250 8a d3 5a 3d e1 a8 e4 3d 7f f1 a1 bd 47 d1 ac 3d
       0.053424396 0.111650236 -0.0790739 0.08438354
000260 8c 0a b4 bd 32 06 88 bc 5d dd 4f be 45 fc 7e 3d
       -0.08791074 -0.016604517 -0.20299287 0.0622523
000270 da de 6f 3c 7e a9 5c be cc a2 88 3d 97 50 fa 3c
       0.014640534 -0.21549031 0.06671676 0.030556006
000280 52 a2 bd bd 6c c2 86 3e db 73 a9 3d 34 58 97 bd
       -0.09259476 0.26320207 0.08274051 -0.0738987
000290 3c 69 49 3d d1 28 04 3e 0b 10 0c bc 2b 82 93 bc
       0.049172625 0.12906195 -0.008548747 -0.018006405
0002a0 8b 8e a2 bd 10 f7 8c be f4 e5 16 3d 26 df bb bc
       -0.07937344 -0.27532244 0.036840394 -0.022933554
0002b0 e0 ae 10 be ba 77 f9 bd 79 18 d9 3c 56 e8 98 bd
       -0.1412921 -0.12181039 0.026500927 -0.074661896
0002c0 b0 22 5d 3d be fb ea bc 61 d6 2d 3e 3a a9 f4 bd
       0.05398816 -0.028684493 0.1697631 -0.1194634
0002d0 29 92 47 be 81 2d 74 3e 29 cf d0 bc a1 62 77 be
       -0.1948935 0.23845483 -0.025489407 -0.24158718
0002e0 d3 1f 7b be 34 22 c1 bd a9 bc 61 3d 6d 24 4a 3a
       -0.24523859 -0.09430352 0.05511156 0.00077111163
0002f0 f2 b9 0c 3e fb 19 93 bd f1 64 d4 3d 72 6c b7 3c
       0.13742808 -0.0718269 0.103708155 0.022390578
000300 44 1b be 3c 86 a0 20 be ed 4c 48 bd a2 fb 50 3d
       0.02320636 -0.15686235 -0.048901487 0.051021226
000310 1d 1f 89 bd a5 e5 d4 3d c5 fa 66 3d aa cb 22 be
       -0.066953875 0.10395364 0.056391496 -0.15898004
000320 70 26 04 3e 61 aa 4a be a5 eb 50 be 68 54 06 3e
       0.12905288 -0.19791557 -0.20402391 0.13118136
000330 aa 18 d3 3c e7 1a c9 bc a9 22 14 be 80 c5 7a 3e
       0.025768597 -0.02454896 -0.14466347 0.24489403
000340 84 2f 1f 3d 86 b9 47 be 69 66 0d 3e 12 a3 44 3d
       0.038863674 -0.19504365 0.13808598 0.04800708
000350 ed c6 ac bd e6 98 49 3e 36 bc 77 3d fd 43 12 3d
       -0.084363796 0.19687232 0.060482226 0.03570937
000360 68 ae 09 bd 3e 93 b7 3c b3 ef 33 be 7b 2c 02 3e
       -0.033613592 0.022409078 -0.17571907 0.1271228
000370 ca ac 67 3e 19 d9 a4 3e 72 88 af 3d 7b 4c 41 3d
       0.22624508 0.32196882 0.08570947 0.047192078
000380 85 9e 8d 3d d3 ec 3c bc 6d 4b 33 be 81 91 90 3d
       0.06915001 -0.011531073 -0.17509241 0.07059003
000390 6a 33 84 be b8 63 3a 3e c4 5e 89 3d ba 5f 33 3d
       -0.25820476 0.18202102 0.06707528 0.043792464
0003a0 c8 7c d9 bc 4e be 87 be b4 02 1a 3d d8 d3 ab 3d
       -0.026548758 -0.26512378 0.037600234 0.08390015
0003b0 b4 94 19 be 33 5c e8 3d c8 6f b5 bc 98 9a 25 3e
       -0.14998132 0.113457106 -0.022148028 0.16172254
0003c0 6b 94 2c be 0a 2b 3e 3e 6a 83 2c bd 49 4d a3 bd
       -0.16853492 0.18571106 -0.042117514 -0.07973725
0003d0 6e 39 9d 3c 4d f1 04 3e d4 73 1d be 8a 2b b9 bd
       0.019192424 0.12982674 -0.15376216 -0.090415075
0003e0 e9 c4 12 3d dd ff a3 bd 85 b0 08 bf 51 98 84 bd
       0.03583232 -0.080077864 -0.5339435 -0.064743645
0003f0 61 98 bb 3d f8 f4 f8 bd c6 2b 2c 3d 8b b1 4a 3d
       0.09159923 -0.12156099 0.042033933 0.049485724

value.2.bias f4 [32]
000000 6c 7c 4b be f6 ab e8 3c 2b a1 d0 bc 60 f4 14 bd
       -0.19871682 0.02840231 -0.025467476 -0.036365867
000010 2c aa 5f bd 84 38 cd bd c6 13 16 be d5 35 24 3d
       -0.054605648 -0.10020545 -0.1465598 0.0400904
000020 21 d9 a3 3d b2 34 42 3e c3 57 e3 bc 12 75 08 bd
       0.080003984 0.18965414 -0.027751809 -0.033314772
000030 8e b7 e5 3d b7 6f 51 be f5 32 0a 3d 32 6a 01 be
       0.11216651 -0.20452772 0.033740003 -0.12638167
000040 dd 23 e9 bd eb ad ab 3d 76 47 02 3d 5b 5a f0 3d
       -0.113837935 0.083827816 0.03180643 0.11735984
000050 e1 c0 7b bd 5f 98 5a be 9d e8 86 bc d5 77 b5 3c
       -0.06146324 -0.21347187 -0.01646834 0.022151867
000060 6b e9 80 be 88 ad 89 3d 64 33 8b 3d 59 14 bd 3d
       -0.25178084 0.067225516 0.06796911 0.09232397
000070 51 e3 84 bd a7 56 b7 bd 84 66 0e be 65 53 2d 3e
       -0.0648867 -0.089520745 -0.13906294 0.16926344

value.4.weight f4 [1, 32]
000000 2c 38 11 3e 95 1f e4 bc 29 ec bb bd 8c 40 a0 3d
       0.14181584 -0.02784709 -0.09175903 0.07824811
000010 d3 5e 76 bd 98 5a 0d 3e a6 43 22 bd 52 96 90 3d
       -0.060149025 0.1380409 -0.039615296 0.07059921
000020 9b 65 48 bd 65 e7 7a bd 88 88 65 bd 4f 80 83 bd
       -0.048925024 -0.06125583 -0.05603841 -0.06420957
000030 ae bf 8d bd f8 18 84 be 88 8f d7 bd db d2 84 bd
       -0.069213256 -0.258003 -0.10525423 -0.0648553
000040 b5 ba ad 3d 6b c2 f4 3d db 9a 8b bd 56 1f 75 3d
       0.08482877 0.11951145 -0.06816646 0.059844337
000050 68 1a 35 bd 04 09 37 3d 75 c1 ed bd b2 09 a0 3d
       -0.044214636 0.044686332 -0.116091646 0.07814349
000060 db e2 14 be e9 3c f5 bc fe e1 4b bd 6e 25 2f bd
       -0.14539663 -0.02993627 -0.04977607 -0.042760305
000070 0a 16 0a bd 0e 42 a2 3d 01 f2 25 bd a6 e4 9f bd
       -0.033712424 0.07922755 -0.040513996 -0.07807283

actor.0.weight f4 [32, 18]
000000 95 c2 04 3e a9 8b 63 bd cd 6c 7d be 75 e8 d6 bc
       0.12964852 -0.055553112 -0.24748535 -0.026233891
000010 d2 62 7f 3e da b0 14 be 40 af cb 3a d0 30 83 be
       0.2494004 -0.14520589 0.00155399 -0.25623178
000020 fc 56 89 3d 2f e9 8d 3e b2 ae a5 bd bb ea c4 bd
       0.06706044 0.27716967 -0.08089961 -0.09615084
000030 6e c2 08 be 80 16 9d 3d 56 be 66 3d 21 ef 0e 3d
       -0.13355419 0.07670307 0.056333862 0.03489602
000040 0e 67 13 bd 63 70 3d bd 4b 19 33 3e db 3d 07 be
       -0.035986952 -0.04624976 0.17490117 -0.1320719
000050 3a f2 28 3e a4 f6 80 3e 11 8c 26 be 84 16 58 3e
       0.16498652 0.25188172 -0.16264369 0.21102339
000060 a9 a6 af 3d e0 71 1b be 6f ee 4b 3e 1b 66 43 3e
       0.0857671 -0.15180159 0.19915174 0.19081919
000070 77 7e 5f 3e 08 27 15 be 1a 51 6f 3d fd 4f 44 bc
       0.21825586 -0.1456567 0.058426954 -0.011981961
000080 c3 be 28 be e4 61 6c 3e b0 37 17 be 28 a1 04 be
       -0.1647902 0.23084217 -0.14767337 -0.12952101
000090 e6 11 22 3d cc b1 2d bc 4f be 16 3e 44 5b 6e 3d
       0.03956785 -0.010601472 0.14721034 0.058192506
0000a0 48 7d 40 3e d7 3a 9c 3e 26 84 b1 be 31 9f df 3d
       0.18797791 0.3051364 -0.34671134 0.10919035
0000b0 1a 9d b1 3e 55 a3 95 3e 9a ff 9d 3d 6b 86 58 3d
       0.3469017 0.29226175 0.07714768 0.052862566
0000c0 6e f3 f3 3d 2c a0 69 3e fd 3f d3 bd 7d 1c 11 be
       0.11911665 0.22815007 -0.10314939 -0.14171024
0000d0 da 3b 4a 3c 6c 7c 6b 3d 35 5f 28 3e 56 ed b6 bd
       0.012343371 0.057491705 0.16442569 -0.08931987
0000e0 fa 3e 85 3d 29 15 56 3e 10 b9 4d be d9 cd bb 3d
       0.065061525 0.2090651 -0.20090127 0.09170122
0000f0 66 1e 1a be 14 03 b4 3d 1c 58 8e bd fe 66 aa be
       -0.15050659 0.087896496 -0.06950399 -0.33281702
000100 d3 ea 47 3e ff 25 b8 bd 33 42 07 be e3 f1 2e 3e
       0.19523172 -0.08991622 -0.13208847 0.1708446
000110 41 f1 bb bd a7 3f 6a 3e 60 bb d3 3d 2a 91 df 3d
       -0.09176875 0.22875844 0.10338473 0.1091636
000120 5e 55 b5 3d e5 ea a0 3c f0 83 6f 3d 89 87 bf 3c
       0.08854173 0.019643256 0.058475435 0.023380058
000130 7b 88 90 be da ef 39 3c 14 e5 3d 3d 19 8b 14 be
       -0.28229126 0.011348689 0.046361044 -0.14506187
000140 27 e9 c1 3c eb dd c2 bc 01 94 4e be 98 e4 83 bd
       0.023670746 -0.02378746 -0.20173647 -0.06440085
000150 2f a3 39 be f4 09 2a 3e 92 c6 4e 3d e5 d0 12 3e
       -0.18128656 0.1660536 0.05048234 0.143375
000160 a2 09 28 be af fe 4e 3d 9d ec a4 3d 9b e8 f5 3d
       -0.16409925 0.050535854 0.08052943 0.120072566
000170 8a bb 98 bd 75 40 19 3e 85 1e 50 3a 41 92 a4 be
       -0.07457645 0.14965995 0.0007939118 -0.32142833
000180 7d 82 88 3e 54 76 2d 3e 81 0c 8c 3e 2a 21 15 3e
       0.26662055 0.1693967 0.2735329 0.14563432
000190 91 96 1f be 9f b9 48 3e 70 21 57 bd 39 b3 01 be
       -0.1558478 0.19602059 -0.052522123 -0.12666024
0001a0 80 36 26 3e 6c 31 55 3e 02 4a 66 3e db eb 47 3c
       0.16231728 0.20819634 0.22489169 0.012202228
0001b0 1d 50 6a bc da 15 4b be f0 72 28 3d 41 d5 50 be
       -0.014301327 -0.19832554 0.041125238 -0.2039385
0001c0 59 83 83 3e 14 ac 21 be 29 7e 68 bc eb 5a 80 3d
       0.25686148 -0.15788299 -0.014190235 0.06267341
0001d0 1e 95 24 be ba 5b 42 3e c9 cf 9d 3c 70 c6 08 3e
       -0.16072509 0.18980303 0.019264119 0.13356948
0001e0 42 13 17 be 9e cb 9b 3c e7 a6 50 bd 00 cc 4a 3e
       -0.1475344 0.01901799 -0.05094042 0.19804382
0001f0 99 f3 82 3e fa fc cb 3d 07 9e 2e bd 5e f1 25 be
       0.25576475 0.09960361 -0.042631175 -0.16205356
000200 d9 8f 38 be 77 e3 e6 bc e6 7a 8b bb 25 20 93 3c
       -0.18023624 -0.028184636 -0.004256594 0.017959664
000210 7c 69 32 3e 12 00 6b 3d c2 59 46 3b 1b 35 1b be
       0.17423052 0.057373114 0.0030265902 -0.15156977
000220 f3 f6 9a 3c f8 75 e9 bb 3b 29 04 be 79 f5 d3 bd
       0.018916583 -0.0071246587 -0.12906353 -0.103495546
000230 50 9e 1f bd 0e 2e be 3c e7 7c 68 bc 21 e2 c0 3d
       -0.038969338 0.02321532 -0.014189935 0.09418131
000240 7c c5 85 3c 54 09 7f be c4 bd 36 bc 49 9b cb bc
       0.01632952 -0.24905902 -0.011153642 -0.02485432
000250 7a b7 37 be 0f 83 69 3e d4 c8 8e bd 32 ec 61 be
       -0.17941085 0.22803901 -0.06971899 -0.22062758
000260 27 ea f3 bd e6 0e 32 be dc 24 6e bd e2 ba 69 be
       -0.119098954 -0.17388496 -0.05814062 -0.22825196
000270 1c 55 0f be 7b 0f 5d be e6 e6 bd 3d 65 62 f9 3d
       -0.1399731 -0.21587937 0.09272556 0.121769704
000280 fb c0 45 3e 53 61 20 be 32 27 47 3e f0 da 15 bd
       0.19311897 -0.15662126 0.19448546 -0.03658575
000290 7a 80 04 3e 54 c1 8b bd f1 cd 90 3e 54 68 49 3e
       0.12939635 -0.06823984 0.2828212 0.19668704
0002a0 0d 9c 4b be 93 eb df bd 78 e1 ad bd 31 b5 a2 bd
       -0.19883747 -0.10933604 -0.084902704 -0.07944716
0002b0 14 de 90 be 9c ae 9a 3c b9 f8 d6 bd d7 d3 7d bd
       -0.28294432 0.018882088 -0.10496659 -0.061969604
0002c0 21 b5 1e 3e d9 67 39 be 27 51 1e be 85 89 28 3e
       0.15498783 -0.18106021 -0.15460645 0.1645871
0002d0 e0 03 1c 3a 1b 6e af bb 1a 6a 53 be 5c fb b7 bd
       0.0005951505 -0.0053537018 -0.20645943 -0.0898349
0002e0 be 3d bf bd d5 5d 3a bd c0 1d d5 3d 3e d5 ef bb
       -0.09337948 -0.04549964 0.10406065 -0.0073191216
0002f0 c0 85 ec 3d f2 92 51 3d ab 46 3e 3e c9 5c 9c 3d
       0.11548948 0.05116553 0.18581645 0.07634885
000300 17 cf b8 bd 4a 51 5b 3e 4e bb ac bc 58 b8 05 3d
       -0.09023874 0.21417728 -0.021085408 0.032646507
000310 b0 53 36 3b 3e 1f 8a bd 05 35 e1 3c d9 c2 56 be
       0.0027820878 -0.0674424 0.027491102 -0.20972766
000320 e7 bf 29 be 3e a8 e1 3d 6d 2a f8 bd 77 cb 3d be
       -0.16577111 0.11018418 -0.12117467 -0.18534647
000330 21 25 0d bd ff e2 9f be 88 40 15 3e 79 65 36 3e
       -0.034459237 -0.31227872 0.14575398 0.17812146
000340 86 79 8c bd b8 31 77 be 87 3c b1 3b 68 e0 32 3e
       -0.06859116 -0.2414006 0.0054088267 0.17468417
000350 13 93 9e bd 98 db 93 3e c1 56 26 3d ab f8 ec 3d
       -0.07742896 0.28878474 0.04061008 0.11570867
000360 66 5f 1b be a0 f6 72 be b2 da d6 3d 21 54 78 3e
       -0.1517311 -0.23726892 0.104909316 0.24250843
000370 aa 97 6f bd 25 c8 47 bd c6 a0 8e 3d ac 47 03 be
       -0.058494247 -0.048774857 0.06964259 -0.1282031
000380 8e d1 05 3e 34 77 10 be d5 7f 63 3d ca 72 30 be
       0.1306822 -0.14107972 0.055541832 -0.17231289
000390 69 b6 7e bd 03 4a 0b 3e 1f 3c fd 3d 86 c1 1c 3e
       -0.06218568 0.13602452 0.12364983 0.15308198
0003a0 32 f3 73 3e 34 07 5b bd 81 aa 25 bd da ea 88 be
       0.2382324 -0.053473666 -0.04044581 -0.26741678
0003b0 d7 95 17 bc e1 84 6c be db fb 31 3e ea 10 c9 bd
       -0.009252033 -0.23097564 0.17381231 -0.09817679
0003c0 84 40 48 b8 53 d0 99 bd ec 84 67 bc 88 1c 0f be
       -4.77438e-05 -0.07510438 -0.014130812 -0.13975728
0003d0 cc 2c 57 3e be 70 37 3e 81 67 41 bd 4a 57 86 bc
       0.21013182 0.17914101 -0.04721785 -0.016399045
0003e0 9c e1 1b 3e 0c f8 73 3e d4 91 29 3e 6a 3b e4 bd
       0.15222782 0.23825091 0.16559535 -0.11144145
0003f0 1a 4a 92 3d 22 25 09 be 0b e4 65 3e 4e 1f c8 bd
       0.0714304 -0.13393071 0.22450273 -0.09771596

actor.0.bias f4 [32]
000000 d2 b7 b9 bd 0b 91 62 bc c3 0e 51 3e 41 5a cd bd
       -0.09068264 -0.013828526 0.20415787 -0.1002698
000010 69 21 e4 bd 49 5d 68 3e 8b fe 63 3e 2c 02 46 3e
       -0.11139185 0.22691835 0.22265069 0.19336766
000020 92 f4 eb bd 7c c2 b6 3d dd b4 13 be 5e e5 a7 3e
       -0.115212575 0.08923814 -0.14424463 0.3279218
000030 be 99 57 be 21 b8 17 3c fe cd 2b 3d 94 94 86 3d
       -0.21054742 0.009260208 0.041944496 0.06571308
000040 a5 80 19 3e 5c 41 fd bd 6b 8b 2d be dc 31 9d 3e
       0.1499048 -0.12365982 -0.16947715 0.30702102
000050 0f dc 48 be 05 a5 43 3d 88 be 2a be e5 bd 11 3e
       -0.19615196 0.047764797 -0.16674244 0.14232595
000060 69 ac 85 bd 20 d2 1a 3e 85 a3 18 3e e4 fa 59 3e
       -0.06527025 0.15119219 0.14906128 0.21287113
000070 ef be 59 be a3 2a 82 bd 63 53 25 3e a5 4b 99 bc
       -0.21264242 -0.063557886 0.16145091 -0.018712828

actor.2.weight f4 [32, 32]
000000 fe 63 21 be 15 bb 0a be 83 54 a2 be f1 49 a5 bd
       -0.157608 -0.13547929 -0.31705102 -0.08070744
000010 2e 3c 02 be 62 45 29 be af 6b 22 bd 57 9e 4b 3d
       -0.12718269 -0.16530374 -0.039653476 0.04971155
000020 41 ce 9e bd dd 42 e6 bd c5 95 08 3e 26 b5 68 bd
       -0.077541836 -0.11243222 0.13338383 -0.05681338
000030 39 a8 7c 3c 19 05 bb 3d d6 5a 2b 3d 4a 45 0b 3e
       0.015420967 0.09131832 0.041834675 0.1360065
000040 f9 91 15 3e d2 d5 b7 bb af 6e b2 bd ea 65 98 3b
       0.14606465 -0.005610206 -0.087125175 0.004650821
000050 22 1d 4e bd 47 a2 53 bd 76 c3 6a bd 9e eb a5 bc
       -0.050320752 -0.05166843 -0.057315312 -0.020253953
000060 5e b6 15 3b e1 ce 98 bb 14 41 f7 bc 61 d5 10 3e
       0.0022844295 -0.0046633338 -0.030182399 0.14143898
000070 ba 3f c9 3c 5b e8 f7 bb 51 84 4e bc 29 8f c9 3d
       0.02456652 -0.0075655407 -0.012604789 0.09841759
000080 82 aa cb bc 67 5c 2b 3e 68 36 8e 38 c3 cd 1e be
       -0.024861578 0.16734467 6.7812216e-05 -0.1550818
000090 18 8d 93 3d ff 60 0c be a1 2d 0c 3d 17 8d 01 be
       0.07204646 -0.13708876 0.034223203 -0.12651478
0000a0 76 a8 7e bd 77 4b 84 bd 65 7a 18 bd ce b0 16 be
       -0.062172376 -0.06459706 -0.0372261 -0.14715883
0000b0 5d cf 10 bb b7 41 f0 3c 83 52 d4 3d 88 be ea 3d
       -0.0022096254 0.02932821 0.103673 0.11462122
0000c0 5e ab 48 be a1 3f 08 3e fb 2c 01 be 6a 57 1b be
       -0.19596621 0.13305523 -0.12614815 -0.15170065
0000d0 7f 0d 92 bd 97 d6 76 3b 02 9a d5 3c 50 62 1a be
       -0.071314804 0.0037664527 0.026074413 -0.15076566
0000e0 1b 10 9b 3d a2 04 cc bd 29 89 16 be 97 52 62 ba
       0.07571431 -0.09961821 -0.1470076 -0.00086335227
0000f0 65 3e 14 3e e1 cc 0a 3d a1 c8 cf 3d 6a 4d 1a 3e
       0.14476927 0.033886794 0.10145689 0.15068594
000100 02 1f 2a 3e 3a fe 41 3e 3a b9 9f 3e 47 e6 f0 3d
       0.16613391 0.18944636 0.31196004 0.11762672
000110 f8 67 28 3e 06 20 62 3e 94 ed 62 3e 0e 43 47 3d
       0.16445911 0.22082528 0.22160941 0.048647933
000120 3a ac 46 3d 2c 94 08 3e 6c 30 0a 3e dd b4 32 3e
       0.04850409 0.13337773 0.13495034 0.17451806
000130 9d ea 13 3e a7 05 ea 3c 1a 63 21 bd 2c fc 12 be
       0.14444967 0.028567148 -0.03940115 -0.14354008
000140 f6 33 f8 bc 2e 8b ea bd a1 8b be bb 08 33 83 bd
       -0.030298214 -0.11452328 -0.005814985 -0.06406218
000150 e6 5e 0c 3e 26 36 55 3d cf 24 54 3e 98 5a 4b 3c
       0.13708076 0.052053593 0.20717166 0.012411736
000160 eb 05 df bd ef 50 7b 3e fe 4d f8 bd 03 b1 06 be
       -0.10889801 0.24542592 -0.12124251 -0.13153462
000170 77 12 48 bd 5a da d8 3d ff 02 7e 3d 9e a9 0e 3e
       -0.048845734 0.10588522 0.062014576 0.13931891
000180 70 31 2d be 06 ff 83 3d 24 63 a0 3c b7 ee 16 be
       -0.1691339 0.06445126 0.019578524 -0.147395
000190 2f 49 e2 bd 56 8d 50 be a6 9b d3 3d d7 b9 f8 3d
       -0.11049115 -0.20366415 0.10332422 0.12144821
0001a0 9a 77 fd bc 46 2a 51 bd b7 7a ce 3d e0 5e 4c be
       -0.03094082 -0.051065706 0.10082 -0.19958067
0001b0 dc 33 2d be 8f a7 c7 bc ec 7c 99 3d ce ad ba 3d
       -0.16914314 -0.02437189 0.0749453 0.09115182
0001c0 a9 a1 0a 3c e6 9e 12 be 40 6a d6 bd de b2 d7 3d
       0.008461394 -0.14318427 -0.10469484 0.10532163
0001d0 a7 52 0c bd 93 28 23 be f0 2a 47 be 91 e6 37 bd
       -0.03425851 -0.15933447 -0.19449973 -0.04489762
0001e0 d4 1c 36 3e 93 af 8e be 70 71 35 bd 52 62 7e bd
       0.17784435 -0.27868327 -0.044297636 -0.062105484
0001f0 94 ab 03 3e 5e 50 a3 bd d6 5b 6c 3e ec b0 9a bd
       0.1285842 -0.07974313 0.23081908 -0.075532764
000200 9a ab 09 3e 52 de 04 3e b2 df 22 3e d6 da 6a bd
       0.13444367 0.12975433 0.15905645 -0.057337604
000210 c2 1f 09 bb a5 b6 28 3e 31 f2 bd 3d 45 ef 28 3e
       -0.002092347 0.16475923 0.0927471 0.16497524
000220 c9 34 8f bd 75 99 2f be bd 56 f4 bd 1f e3 f2 bd
       -0.0699249 -0.17148383 -0.119306065 -0.11859726
000230 a9 85 08 be 31 b6 34 be fe 5b 46 bd 6c 41 c3 3d
       -0.13332237 -0.17647626 -0.048427574 0.095339626
000240 93 8c d7 bd f8 c2 7f bd 61 22 33 3c 65 10 01 be
       -0.10524859 -0.062441796 0.01093349 -0.1260391
000250 77 1a bf bd b4 fb c9 bd 4e 2d 2f be 0a a8 1c 3e
       -0.0933122 -0.09862462 -0.17107126 0.15298477
000260 69 f1 13 3e 40 d6 42 bc 73 13 e1 bd f2 bb 9a 3d
       0.1444756 -0.0118919015 -0.10990038 0.07555379
000270 b3 be 0f be 0b cd 29 be 65 cc 9f bd 66 22 21 be
       -0.1403759 -0.16582124 -0.07802657 -0.15735778
000280 38 03 74 be 92 2a 4f be d0 60 93 bb ed 20 c1 3c
       -0.23829353 -0.20231083 -0.004497625 0.02357527
000290 80 28 4a be 48 3c 5f bd 21 8c e3 3c 71 03 e5 3c
       -0.19742012 -0.054500848 0.02777678 0.027955743
0002a0 e0 f4 fc 3d 6e 87 07 be d7 80 0c be d9 1f ff bd
       0.12351394 -0.13235256 -0.13721023 -0.12457246
0002b0 02 a5 2a 3d 3d 59 4b be 6c 64 21 3d f0 8c cc 3d
       0.04166127 -0.1985826 0.03940241 0.09987819
0002c0 d5 49 85 bd 14 36 ba bd ef 70 ed bd 44 52 bf 3d
       -0.06508223 -0.09092346 -0.11593806 0.09341863
0002d0 b5 9e 0a 3e 82 57 1f bd d4 12 93 3d 9f 0e 65 3d
       0.13537104 -0.038901813 0.071813256 0.055922147
0002e0 1f 5c 8c 3d d8 0f e1 bd 9b ae 99 3d 48 5f 12 3d
       0.06853508 -0.1098935 0.075040065 0.0357354
0002f0 cd 25 8c 3d 57 c4 4c be 2e 87 5f 3c bc c1 59 3d
       0.068431474 -0.19996773 0.013643069 0.053163275
000300 46 1a 47 3e 66 1a 17 be 89 3d ac 3b 39 28 3c be
       0.19443616 -0.14756164 0.005256359 -0.18374719
000310 ff 96 1e 3e 1d 7a 37 3e ed 37 03 be e4 51 41 3d
       0.15487288 0.17917676 -0.12814303 0.047197238
000320 a2 b6 06 be 1f 44 0a bd 75 8c f4 bd ab 4f 1d 3e
       -0.13155606 -0.03375637 -0.119408526 0.15362422
000330 cc 99 ff bd bc 47 09 be e1 74 8f bd 5e ee 15 3e
       -0.12480506 -0.1340627 -0.07004715 0.14641711
000340 96 cc 56 3e ea 0d e0 3d 1e ac 9b 3d de f0 15 3e
       0.20976481 0.10940154 0.07601188 0.14642665
000350 bd 42 08 3e 01 13 56 3d da a9 2b 3e c2 77 7b bd
       0.13306709 0.052264217 0.16764012 -0.061393507
000360 fe ab b5 3d df ff 38 3e 3a 35 1c 3e 8f 1e 2d be
       0.088706955 0.18066357 0.1525468 -0.16906188
000370 25 e6 27 3e 27 5f 2a 3d 13 1e 5b bc 9b 1d 07 be
       0.16396387 0.04159465 -0.0133738695 -0.13194887
000380 e8 aa 28 be 1b ba ce bd 49 83 17 bd cb 7c a8 bd
       -0.16471446 -0.100940906 -0.036990438 -0.08226927
000390 46 86 7f be cb 0f 2c be 37 97 77 bd 3c 01 ee bd
       -0.24953565 -0.168029 -0.060446944 -0.11621329
0003a0 ff 5b 9d 3d ba c5 c4 bd f8 ed 82 3d b0 37 cc 3b
       0.076835625 -0.09608026 0.06393045 0.0062322244
0003b0 96 4b 14 3d b2 f0 b5 bd d9 e0 f6 3d 14 99 f7 3c
       0.036204897 -0.088837996 0.12054605 0.03022436
0003c0 80 d1 bd bd 8c b7 80 3d 17 28 69 be 5c 5b 87 bd
       -0.092684746 0.06285009 -0.227692 -0.06609222
0003d0 96 9b 66 3e 50 cf 61 bd d0 a7 d7 3d a7 db c3 3d
       0.22520289 -0.05512935 0.105300546 0.0956338
0003e0 c5 21 00 bd f6 2e 99 be 8d 5e 84 3d 9a 8e db bd
       -0.031282205 -0.2991864 0.06463347 -0.107205585
0003f0 ab 9d 04 3e dc 6d 11 be de 47 d2 bd 22 73 1b be
       0.1295077 -0.14202064 -0.10267614 -0.15180638

actor.2.bias f4 [32]
000000 3e c7 2c be 10 ae 3f be 49 e3 2c 3e 1e ea 61 bc
       -0.1687288 -0.18718743 0.16883577 -0.013788728
000010 d3 91 40 bd fd 4e 88 bd 83 fa 44 3e 51 a7 0d 3e
       -0.04701407 -0.06655691 0.19236188 0.13833357
000020 a7 41 5b 3d 1e f2 de 3d 86 f2 7b bd fa 47 54 bd
       0.053529408 0.10886024 -0.061510585 -0.051826455
000030 fd da 2e 3d 48 21 5c bd 06 d9 88 3d c2 0a 17 be
       0.042689312 -0.053742677 0.06682019 -0.14750198
000040 e3 f8 6f 3d 07 74 00 bc c2 55 41 be 4e 23 09 be
       0.058586966 -0.007840163 -0.1888037 -0.13392374
000050 84 dc 1e be b6 09 ec 3d 29 a4 13 3d 57 84 0e 39
       -0.15513808 0.1152529 0.036045227 0.00013591476
000060 aa b8 95 bd 83 1d 32 bd af a0 41 bd ad 41 eb 3b
       -0.073106125 -0.043485176 -0.04727238 0.00717946
000070 af 75 39 be f8 83 95 3d 0b f5 9e bd be 48 b3 3c
       -0.18111299 0.07300562 -0.07761582 0.021885272
