results/SandingEnvDifficult/ddpg/model/model_parameters_2.pt (torch, 36482 bytes, 22 tensors)

value.0.weight f4 [32, 20]
0	0xbd448f08	-0.047987968
1	0xbdb2d1ac	-0.08731398
2	0xbd9dec96	-0.07711141
3	0x3e2361d3	0.15955286
4	0x3e495fa3	0.19665389
5	0xbe9b1bc0	-0.3029461
6	0x3bf9215b	0.0076028532
7	0x3b67eae7	0.0035387815
8	0x3c7ca776	0.015420785
9	0x3c64521f	0.013935595
10	0x3d5a35fc	0.05327414
11	0x3cd41d35	0.025892833
12	0x3ebde991	0.3709226
13	0xbda5d693	-0.080975674
14	0xbe0c075d	-0.13674684
15	0x3e17e3ed	0.1483304
16	0x3d57a205	0.05264475
17	0x3dc9897c	0.09840676
18	0x3e544448	0.20729172
19	0xc037ceb4	-2.8719912
20	0x3c05e8cd	0.00817318
21	0xbd7ad47e	-0.061237805
22	0x3e15048d	0.14552517
23	0x3d1ee6d4	0.038794354
24	0x3e84cd8b	0.25938067
25	0x3eaee893	0.34161815
26	0xbd1462dc	-0.036227092
27	0x3cc72915	0.024311582
28	0x3d82df17	0.06390207
29	0xbd8fbc5a	-0.07018347
30	0x3e59a383	0.21253781
31	0x3e39e09a	0.18152085
32	0x3e34324c	0.17597312
33	0x3da1b3c1	0.078956135
34	0xbd4f038d	-0.050540496
35	0x3e247dfb	0.16063683
36	0x3e6afc0f	0.22947715
37	0x3e0d2c0e	0.13786337
38	0x3e97c769	0.29644325
39	0x3c732aa4	0.014841709
40	0x3d22cacc	0.039744183
41	0x3da994d5	0.082803406
42	0xbe200b45	-0.15629299
43	0xbd8b9ef8	-0.0681743
44	0xbe074ec9	-0.13213648
45	0x3db5cac4	0.08876565
46	0x3b6ac5a9	0.003582338
47	0xbd7bcbc9	-0.06147364
48	0xbccd9cc8	-0.025099173
49	0x3da03741	0.07823039
50	0xbe2bb45b	-0.16768019
51	0x3e25e271	0.16199662
52	0x3c7042b7	0.014664344
53	0xbcd3656d	-0.0258052
54	0xbe270a56	-0.16312537
55	0x3b79d014	0.003811841
56	0xba8aaf37	-0.0010580783
57	0x3d7b303e	0.061325304
58	0xbe209086	-0.15680131
59	0x3fc9df40	1.5771255
60	0xbdda3a1a	-0.10655613
61	0x3d0eea2c	0.034891292
62	0x3da484a0	0.08033109
63	0xbea5d177	-0.32386371
64	0xbc1224ef	-0.0089199385
65	0x3dac1d44	0.084040195
66	0x3eb6974d	0.35662308
67	0xbe965fb0	-0.2936988
68	0xbb8b79e6	-0.004256475
69	0x3d1b939d	0.037982572
70	0x3da40960	0.08009601
71	0xbd9d3705	-0.0767651
72	0xbca47149	-0.02007355
73	0x3d99474a	0.074843004
74	0xbd501782	-0.05080367
75	0xbc9670de	-0.018364366
76	0x3e2d27a5	0.16909654
77	0x3dfdcaee	0.123922214
78	0xbf595bcb	-0.8490569
79	0xbed222cd	-0.41042176
80	0xbe2f9ade	-0.17148921
81	0x3c98bdb5	0.018645147
82	0xbe263521	-0.16231205
83	0xbd8d7553	-0.069071434
84	0x3d9dcd9b	0.07705232
85	0x3dc4a2d2	0.09601368
86	0x3d825671	0.06364144
87	0x3d428f65	0.047500033
88	0xbe65de54	-0.22448093
89	0xbe97284e	-0.29522938
90	0xbd482f2d	-0.048873115
91	0x3dfb40f0	0.12268245
92	0x3eac61da	0.33668405
93	0xbcd6cb12	-0.026219878
94	0xbdda18c3	-0.10649254
95	0x3d842848	0.064529955
96	0xbddcaf19	-0.10775585
97	0x3e8432d8	0.2582004
98	0xbe549d20	-0.20763063
99	0xbf9b46b9	-1.2130958
100	0xbbe2bc2c	-0.0069194045
101	0x3e70a86a	0.23501745
102	0xbd03d664	-0.03218688
103	0xbe39cd05	-0.18144615
104	0x3cbe04a8	0.02319558
105	0xbb17a07f	-0.0023136435
106	0xbbb4b626	-0.005514878
107	0x3d5180a3	0.05114807
108	0x3d7c0eae	0.061537437
109	0x3b885e30	0.0041616186
110	0xbd6f3880	-0.058403492
111	0xbc8bbb00	-0.017056942
112	0xbd721853	-0.05910523
113	0xbdc757d5	-0.097335495
114	0x3e604105	0.21899803
115	0xbc9389d7	-0.018010063
116	0x3dd22319	0.102606006
117	0xbd906e0b	-0.07052239
118	0xbf5e634c	-0.86870265
119	0xbf9509ba	-1.1643593
120	0x3d53a2b7	0.05166885
121	0xbc9bf117	-0.019035859
122	0xbe237a61	-0.15964653
123	0xbe3784c0	-0.17921734
124	0x3d6788f3	0.05652709
125	0x3dca91fd	0.09891126
126	0xbde0e9c4	-0.10982087
127	0x3d8aa953	0.06770577
128	0xbd8ee547	-0.06977325
129	0x3e2d10a9	0.16900887
130	0x3da7e30b	0.08197602
131	0xbc36c59e	-0.011155514
132	0x3dbf5d8a	0.09344013
133	0x3e838298	0.25685573
134	0x3e4a5499	0.19758834
135	0xbdc400e7	-0.095704846
136	0x3e27154f	0.16316722
137	0xbda00314	-0.07813087
138	0xbf04a0e7	-0.5180802
139	0x3eaf7f7e	0.34276956
140	0x3e34f578	0.17671764
141	0x3cb5863e	0.022158738
142	0x3eae63f3	0.3406063
143	0xbdb77478	-0.089577615
144	0x3e3c4c8f	0.1838858
145	0xbdb8b86e	-0.09019552
146	0x3c7627e5	0.01502416
147	0x3db34536	0.08753435
148	0x3c92b8a7	0.017910315
149	0x3dea39ea	0.114368275
150	0x3e4a38c9	0.19748224
151	0xbce15b3b	-0.027509322
152	0xbe52667c	-0.20546907
153	0x3d74f2f8	0.059802026
154	0x3ca67c0f	0.020322828
155	0xbd31a70a	-0.04337219
156	0xbe1ae908	-0.15127957
157	0xbda17ce6	-0.078851506
158	0x3f3b41d2	0.7314731
159	0x3f1e9f0a	0.61961424
160	0x3b2ed0e1	0.0026674794
161	0x3dcb7a79	0.09935469
162	0xbe539b4a	-0.20664707
163	0xbe5bc7a8	-0.21462882
164	0xbdfa424f	-0.122196786
165	0x3d64d82c	0.05587022
166	0x3e6b45fd	0.22975917
167	0x3d1cac86	0.03825047
168	0xbdbc2c7d	-0.09188173
169	0x3c98711a	0.018608619
170	0x3dac77f1	0.084213145
171	0x3e9caea4	0.3060199
172	0x3e5ad92a	0.21371904
173	0x3c0bc0ab	0.008529822
174	0x3e8cf96d	0.27534047
175	0x3dc53615	0.09629456
176	0xbe3389e5	-0.17533071
177	0x3cbaf9e6	0.022824239
178	0x3f044636	0.51669633
179	0x3f01cb97	0.5070128
180	0x3d2f2c20	0.04276669
181	0xbe7a20cc	-0.24426574
182	0xbe076071	-0.13220383
183	0x3e303c12	0.17210415
184	0x3e24db76	0.16099343
185	0xbe4fc115	-0.20288499
186	0xbc7c435d	-0.01539692
187	0xbd166515	-0.036717493
188	0x3deffcb9	0.11718125
189	0x3c5c522c	0.013447326
190	0xbdc1a0c4	-0.09454492
191	0x3db3774b	0.08762988
192	0x3dd306e5	0.103040494
193	0xbb1e3b55	-0.0024144251
194	0x3e0e2cd1	0.13884284
195	0xbdce70d9	-0.10080118
196	0xbe48ea8f	-0.19620727
197	0x3d4184fa	0.047245957
198	0x3f1cf6fd	0.61314374
199	0x3ebdc28a	0.37062484
200	0xbe2396f9	-0.1597556
201	0xbc8d6827	-0.017261578
202	0x3c2a7a21	0.010405094
203	0x3df3cd73	0.11904421
204	0x3e5c8a4a	0.21537128
205	0xbea99bbb	-0.33126625
206	0xbd93e1e1	-0.07220817
207	0xbe227f02	-0.15868762
208	0xbbbce20a	-0.0057642506
209	0xbd53a2e4	-0.051669016
210	0x3e3f226b	0.18665473
211	0x3e077287	0.13227282
212	0xbcfaf401	-0.030633928
213	0xbe277473	-0.16353016
214	0xbd460478	-0.048344105
215	0x3df1192e	0.11772381
216	0x3dbcdcad	0.09221778
217	0xbe78b2fd	-0.24287029
218	0x3eb15857	0.3463771
219	0x3eaa251e	0.33231443
220	0xbd284dab	-0.041089695
221	0x3bf15eed	0.0073660524
222	0xbd9dc12b	-0.077028595
223	0x3d770c95	0.060314734
224	0xbdcb29e2	-0.09920098
225	0xbd9869d2	-0.074420586
226	0xbd5a9295	-0.053362448
227	0xbdf98783	-0.1218405
228	0xbdc153ce	-0.094398126
229	0x3cd44b19	0.025914716
230	0x3d43e45f	0.047825214
231	0x3dfe12b1	0.12405909
232	0xbe644664	-0.22292477
233	0x3e7c1eb7	0.24621092
234	0xbd6bcda3	-0.057569157
235	0xbd9f4de0	-0.07778525
236	0xbd934271	-0.07190407
237	0x3e0e8f49	0.13921846
238	0x3ea131af	0.31483218
239	0xc016d751	-2.3568919
240	0xbd8c5461	-0.068520315
241	0xbde0132f	-0.10941159
242	0xbe6075cd	-0.21919937
243	0xbced6042	-0.028976563
244	0xbe7deb71	-0.24796845
245	0xbe348722	-0.17629674
246	0x3ca3b61c	0.019984297
247	0x3e1b842a	0.15187135
248	0x3d1294cc	0.035786435
249	0x3ccb4ed9	0.02481787
250	0x3d04ef5a	0.032454826
251	0x3e8ea1e5	0.2785789
252	0x3ebc9ea2	0.36839777
253	0x3df9b097	0.12191885
254	0xbde33c04	-0.110954314
255	0xbe5357c0	-0.20638943

value.0.bias f4 [32]
0	0xbdd2e918	-0.10298365
1	0x3dfeff43	0.12451031
2	0xbd737b8d	-0.059444
3	0xbe450eed	-0.19243975
4	0xbe0720f2	-0.13196161
5	0xbd3ea793	-0.04654653
6	0x3e41b0be	0.18915078
7	0xbe366363	-0.1781135
8	0xbe867896	-0.26263875
9	0x3e22a8e5	0.1588474
10	0xbe19b452	-0.15010193
11	0xbdb280ac	-0.087159485
12	0x3dd82a94	0.10554996
13	0xbe3ffd7f	-0.18749045
14	0x3d4ad72d	0.049521614
15	0xbd8eefab	-0.06979307
16	0x3e187558	0.14888513
17	0xbe7e7d8c	-0.2485258
18	0x3dd0ff83	0.10204985
19	0x3e351d2a	0.17686906
20	0xbe057a34	-0.13034898
21	0xbdbf6b9d	-0.093466975
22	0xbe23dd9c	-0.16002506
23	0x3c27eced	0.010249359
24	0x3e574b40	0.210248
25	0x3dd21913	0.10258689
26	0x3d3f9278	0.046770543
27	0x3cb0527f	0.021523712
28	0xbdf34c3a	-0.118797734
29	0xbe1ab6a3	-0.15108733
30	0x3d628229	0.05529991
31	0x3e78d93c	0.24301618

value.2.weight f4 [32, 32]
0	0x3e6c673e	0.23086259
1	0x3e7cde04	0.24694067
2	0xbed36707	-0.4128954
3	0x3d8c9cb9	0.0686583
4	0x3d98cb7e	0.07460688
5	0xbf11bf4e	-0.5693253
6	0xbf05d34a	-0.52275527
7	0xbf0d4d00	-0.5519562
8	0xbebf4449	-0.37356785
9	0x3e3f2250	0.18665433
10	0x3dd05abd	0.10173557
11	0xbf02f966	-0.511618
12	0x3e2dfdbf	0.16991328
13	0x3d83f40b	0.06443032
14	0x3a568963	0.00081839244
15	0xbead5489	-0.33853558
16	0x3e559919	0.20859183
17	0xbdfee4ca	-0.12445982
18	0xbd32eaee	-0.043681078
19	0xbc895912	-0.016766105
20	0x3d5ffc6e	0.054684095
21	0xbed7d79b	-0.4215668
22	0xbeb18b50	-0.346766
23	0xbe54516a	-0.20734182
24	0x3e15bcc9	0.14622797
25	0xbd886939	-0.06660695
26	0x3da30a2f	0.07960927
27	0xbe87cc1f	-0.2652292
28	0xbdd4a03c	-0.10382125
29	0x3c71ebe9	0.014765718
30	0xbe1daf49	-0.15398897
31	0xbe94acec	-0.2903818
32	0x3e14c3ce	0.14527819
33	0xbdd0344f	-0.10166227
34	0x3d0d439f	0.034488317
35	0x3e3725df	0.1788554
36	0xbe07eaec	-0.1327321
37	0x3bfa66b2	0.0076416368
38	0xbd939286	-0.072056815
39	0x3bcecc75	0.0063109943
40	0x3e149c59	0.14512767
41	0x3d8e73d9	0.0695569
42	0x3e3a8e28	0.18218291
43	0xbe972e40	-0.29527473
44	0xbeecf80e	-0.46283
45	0xbb967dbe	-0.0045926264
46	0xbe9f0f10	-0.3106618
47	0xbd3f49cc	-0.046701238
48	0xbd0596d5	-0.032614548
49	0x3d749e1f	0.05972111
50	0xbe450d6a	-0.19243398
51	0xbca07030	-0.019584745
52	0x3dbf2a1d	0.09334204
53	0xbd75f055	-0.06004365
54	0x3cabfaa0	0.02099353
55	0xbd1d47d7	-0.03839859
56	0x3d5b7428	0.053577572
57	0xbcd22b0f	-0.025655298
58	0xbc0fe456	-0.008782467
59	0xbe513cc9	-0.20433344
60	0xbdbbec94	-0.09175983
61	0xbc0ff60b	-0.008786689
62	0x3d836bcc	0.06417045
63	0xbe139566	-0.1441246
64	0xbdd37d37	-0.10326617
65	0x3dcb0fb8	0.099151075
66	0xbd88f4f0	-0.06687343
67	0xbd071618	-0.032980055
68	0x3e066c09	0.1312715
69	0xbc06c131	-0.008224771
70	0x3d944177	0.07239049
71	0xbddec9f0	-0.1087836
72	0x3c80cdcd	0.015723133
73	0x3d36f85f	0.04467046
74	0x3d50a3a1	0.0509373
75	0x3ccdd587	0.025126232
76	0x3dc653f1	0.09683979
77	0x3d161a53	0.0366462
78	0xbc5a710a	-0.013332615
79	0x3e016a32	0.12638167
80	0x3cbadafe	0.022809502
81	0x3d81a91a	0.06331082
82	0x3dd2d5bb	0.10294672
83	0x3df6f1ed	0.120578624
84	0xbe412527	-0.18861829
85	0xbe37ba7f	-0.17942236
86	0xbd9a3212	-0.075290814
87	0x3d1a1d53	0.037625622
88	0x3e343a98	0.17600477
89	0x3c8108c6	0.015751254
90	0xbdbf9a91	-0.09355653
91	0x3e29fc63	0.16600184
92	0xbdbd25ba	-0.092357114
93	0x3d3f38cc	0.046685025
94	0x3ce2c06d	0.027679646
95	0xb94e79fe	-0.00019691137
96	0xbe85b22f	-0.26112506
97	0xbe2d5eb9	-0.16930665
98	0x3db9e3de	0.09076665
99	0xbe3d59a4	-0.18491226
100	0x3e1c65e8	0.15273249
101	0x3e228c1f	0.15873764
102	0x3d26e11b	0.04074202
103	0x3ce04600	0.027377129
104	0xbe03277d	-0.12808032
105	0x3ea01e38	0.31273055
106	0x3d447838	0.047966212
107	0xbdf224a9	-0.118233986
108	0x3de1c21e	0.11023353
109	0x3e2b852d	0.16750021
110	0x3dcaccb4	0.09902325
111	0xbda5454e	-0.080698594
112	0x3d82491c	0.06361601
113	0x3dc42334	0.09577027
114	0xbdeb91a8	-0.11502391
115	0xbe0f5fe7	-0.14001428
116	0xbd4b3c95	-0.049618322
117	0xbec8df52	-0.3923288
118	0xbda4ca2c	-0.08046374
119	0xbddc2ce4	-0.1075075
120	0xbc9524fe	-0.018206116
121	0xbeeef4be	-0.46671098
122	0x3e09ec21	0.13468982
123	0x3dc71b1d	0.09721968
124	0xbda5ff2b	-0.0810531
125	0xbdbfc49f	-0.09363674
126	0xbd31ab0f	-0.043376025
127	0xbdace87c	-0.084427804
128	0xbe04528e	-0.12922117
129	0x3beb6b8d	0.007184452
130	0x3d10514e	0.03523379
131	0xbe1063e6	-0.14100608
132	0x3db96a54	0.090534836
133	0x3cb691ef	0.022286383
134	0x3df8afd2	0.1214291
135	0xbd0d6ca8	-0.03452745
136	0x3e9947a5	0.29937473
137	0x3b280f35	0.002564383
138	0x3d9f59eb	0.07780822
139	0x3cac9e6f	0.02107164
140	0xbacd162d	-0.0015646868
141	0xbdf37654	-0.11887804
142	0x3d76c5aa	0.0602471
143	0xbcc208a4	-0.02368576
144	0x3dcf5447	0.101234965
145	0xbd58e191	-0.052949492
146	0xbda80f60	-0.082060575
147	0x3d81cab7	0.06337493
148	0x3dc68d27	0.096948914
149	0x3e5e222e	0.21692726
150	0xbda6db71	-0.08147324
151	0xbd0c8850	-0.034309685
152	0xbd8a2a89	-0.06746394
153	0xbcdca83a	-0.026935685
154	0xbd09846e	-0.03357356
155	0x3d0b3c21	0.03399289
156	0x3e21a86e	0.15786907
157	0xbc03d96f	-0.008047446
158	0xbd9ec3b6	-0.07752173
159	0xbd8450ae	-0.06460701
160	0x3e6c3858	0.23068368
161	0x3e3f0dd4	0.18657619
162	0x3d9f1807	0.07768255
163	0x3d8f57e8	0.06999189
164	0xbdf8a05a	-0.1213996
165	0x3e35d90f	0.17758583
166	0x3d4c87d1	0.049934212
167	0x3df77e6e	0.120846614
168	0x3da020a9	0.078187294
169	0xbdb9afe4	-0.090667516
170	0x3e1ef364	0.15522534
171	0xbb236849	-0.0024933985
172	0xbdf30db7	-0.1186785
173	0x3cf04dfb	0.029334059
174	0xbd91988c	-0.07109174
175	0x3e14a9d8	0.14517915
176	0x3cae6c92	0.021292005
177	0x3e84758a	0.25870925
178	0xbdca361f	-0.09873604
179	0x3e353d50	0.1769917
180	0xbd4bcfd7	-0.04975876
181	0xbd6e8a94	-0.058237627
182	0x3d1ffee9	0.03906146
183	0xbda40443	-0.08008625
184	0xbda7f6a4	-0.0820134
185	0x3c4ad002	0.0123786945
186	0xbd3ad93f	-0.04561734
187	0x3c976346	0.018479954
188	0x3e4dfa62	0.20115045
189	0xbdc3e105	-0.095644034
190	0xbdfb6c6e	-0.12276541
191	0xbe215d26	-0.1575819
192	0xbf519e38	-0.8188205
193	0xbfa04548	-1.2521143
194	0x3e0e3b74	0.13889867
195	0xbda53e80	-0.080685616
196	0xbddea557	-0.1087138
197	0xbd079d76	-0.03310915
198	0xbebd1138	-0.369272
199	0x3e6198d7	0.2203096
200	0xbedfc848	-0.4370749
201	0x3dbf2566	0.09333305
202	0x3d48259b	0.04886399
203	0x3dca0be9	0.09865553
204	0xbe5fc1a9	-0.21851219
205	0x3d94f383	0.07273009
206	0x3d37d748	0.044883043
207	0xbdba42e2	-0.09094788
208	0xbdb202f1	-0.08691967
209	0x3d0e3fd5	0.034728844
210	0x3c8202e1	0.015870513
211	0xbf3f85ad	-0.7481335
212	0x3daff84a	0.08592279
213	0x3d9abceb	0.075555645
214	0xbd1b8bb6	-0.037975036
215	0x3d82865c	0.06373283
216	0xbbeed858	-0.007288974
217	0x3e67f8da	0.22653523
218	0x3bf7d153	0.007562795
219	0x3c8030ea	0.015648324
220	0x3d5e60d3	0.054291558
221	0xbd062efa	-0.032759644
222	0x3bea3369	0.007147242
223	0xbda7649e	-0.08173488
224	0x3d7636b7	0.060110774
225	0xbd5ac785	-0.053412933
226	0x3d5bbcaf	0.05364674
227	0x3ca3e106	0.02000476
228	0x3e33ca0f	0.17557548
229	0x3dcb0bdd	0.09914372
230	0xbd5748e6	-0.052559756
231	0x3e13d59e	0.14436957
232	0xbc9e565c	-0.019328289
233	0xbb600dc4	-0.0034187892
234	0x3dc746b7	0.09730285
235	0xbdd3e5dd	-0.10346577
236	0xbcc3717e	-0.023857828
237	0x3defe6cd	0.11713944
238	0xbda93f5c	-0.08264038
239	0x3dd3d76b	0.10343822
240	0x3e3ee01d	0.1864018
241	0x3e567f76	0.2094706
242	0x3c48709e	0.012233881
243	0xbe55c024	-0.20874077
244	0xbe80b68d	-0.25139275
245	0xbe19e9e5	-0.1503063
246	0x3ed70112	0.41993004
247	0x3ddead26	0.10872869
248	0xbd96a249	-0.07355172
249	0xbd6e77c9	-0.058219705
250	0x3e685fd5	0.22692807
251	0x3dd59385	0.10428528
252	0x3de3bf84	0.11120513
253	0xbe10a76f	-0.14126371
254	0x3e1a63bd	0.1507711
255	0xbe4424ce	-0.19154665

value.2.bias f4 [32]
0	0xbe214119	-0.15747489
1	0xbea1ae37	-0.31578228
2	0xbcdd3cb2	-0.02700648
3	0xbcac6e0b	-0.021048566
4	0xbde46ebc	-0.111539334
5	0x3c866421	0.016405167
6	0x3e3270e3	0.17425875
7	0xbe8212fb	-0.25405106
8	0x3c8ccc5b	0.017187288
9	0xbc3fe8aa	-0.011713186
10	0x3e3a51c7	0.18195258
11	0x3b8ea683	0.004353346
12	0xbdc21743	-0.09477093
13	0x3ea49235	0.32142797
14	0xbe5ba092	-0.21447971
15	0xbd5f2b2d	-0.054484535
16	0x3d99339e	0.07480548
17	0xbdacb976	-0.08433811
18	0xbe80bec9	-0.25145558
19	0x3e53c25e	0.20679614
20	0x3e6c8835	0.23098834
21	0xbea43589	-0.32072094
22	0x3d46c891	0.04853112
23	0x3e688626	0.22707424
24	0xbd95c681	-0.07313252
25	0x3eb08ae5	0.34480968
26	0x3ad9a05e	0.0016603579
27	0xbe3d7afe	-0.18503949
28	0xbe85a7ca	-0.26104575
29	0xbe44fde2	-0.19237474
30	0x3befc1db	0.0073168105
31	0xbde4aa2a	-0.11165269

value.4.weight f4 [1, 32]
0	0xbf1661bd	-0.58742887
1	0xbdf1c117	-0.11804407
2	0xbd8ab3d3	-0.0677258
3	0x3dbee7db	0.09321567
4	0xbd82fd4c	-0.06395969
5	0x3d57c261	0.05267561
6	0xbd8fd4bf	-0.07023
7	0xbd7e0bf0	-0.062023103
8	0xbd417375	-0.04722925
9	0x3e04bbd7	0.1296228
10	0x3d3aea0e	0.04563337
11	0x3d9ab6ca	0.075543955
12	0x3d87a0cf	0.06622469
13	0x3d3ee5b9	0.0466058
14	0xbd62e227	-0.055391457
15	0xbed6a5a3	-0.41923246
16	0xbef32e20	-0.47496128
17	0xbd7500af	-0.059815105
18	0xbe5bfa43	-0.21482186
19	0x3da205a6	0.079112336
20	0x3d991b70	0.074759364
21	0xbd9568e9	-0.07295401
22	0xbddb1ab1	-0.1069845
23	0x3dc8b7d4	0.098006874
24	0xbccaed15	-0.024771253
25	0x3da74c0b	0.08168801
26	0x3d396a33	0.045267295
27	0xbd2d5c16	-0.042324148
28	0xbd05b7b2	-0.03264589
29	0xbd3bb5de	-0.04582774
30	0x3dbc551c	0.09195921
31	0xbd42c241	-0.047548536

value.0.weight f4 [32, 20]
0	0xbd4732b9	-0.048632357
1	0xbdb6be4e	-0.089230165
2	0xbd9decfa	-0.07711215
3	0x3e23616f	0.15955137
4	0x3e48e923	0.19620185
5	0xbe9b7853	-0.30365238
6	0x3bf4d901	0.007472158
7	0x3ba529cf	0.0050403844
8	0x3c85693f	0.016285537
9	0x3c747212	0.014919775
10	0x3d560caa	0.05225817
11	0x3ccbca9b	0.024876883
12	0x3ebd2096	0.36938924
13	0xbda2b2a9	-0.07944233
14	0xbe0a1657	-0.13485084
15	0x3e19d4f3	0.1502264
16	0x3d5da4c6	0.05411222
17	0x3dc656d5	0.09684531
18	0x3e5a72be	0.21332833
19	0xc037ef54	-2.8739824
20	0x3bc63eda	0.006049973
21	0xbd7ed757	-0.062217083
22	0x3e150429	0.14552368
23	0x3d1ee670	0.03879398
24	0x3e84fdd8	0.25974917
25	0x3eae3124	0.34021866
26	0xbd1278a9	-0.0357596
27	0x3cdc6dff	0.026907919
28	0x3d80e369	0.06293375
29	0xbd8e5b47	-0.069510035
30	0x3e59ca04	0.21268469
31	0x3e3a071b	0.18166773
32	0x3e347ece	0.17626497
33	0x3da11acb	0.078664385
34	0xbd506e12	-0.05088622
35	0x3e242359	0.16029109
36	0x3e6b4ede	0.22979304
37	0x3e0dc019	0.1384281
38	0x3e989347	0.29799864
39	0x3cb5b012	0.022178683
40	0x3d1bb9d4	0.038019016
41	0x3daa95bf	0.08329343
42	0xbe1eb05f	-0.15496968
43	0xbd88e938	-0.06685108
44	0xbe072291	-0.1319678
45	0x3db660b2	0.08905162
46	0x3b8276cf	0.0039814482
47	0xbd8484e3	-0.06470659
48	0xbcd41dda	-0.02589314
49	0x3d9e90bc	0.0774245
50	0xbe2a60b7	-0.16638456
51	0x3e273615	0.16329224
52	0x3c852151	0.016251238
53	0xbce2795e	-0.027645763
54	0xbe26f3f2	-0.16303995
55	0x3b7f68c0	0.0038972348
56	0xbb104972	-0.0022016433
57	0x3d814390	0.06311715
58	0xbe267e72	-0.16259173
59	0x3fc93fa8	1.5722551
60	0xbddcb833	-0.10777321
61	0x3d119ec6	0.03555181
62	0x3da0e084	0.07855323
63	0xbea6ba7c	-0.3256415
64	0xbc26531e	-0.010151653
65	0x3daf2f7c	0.08553979
66	0x3eb610df	0.35559747
67	0xbe96310b	-0.29334292
68	0xb9781b88	-0.00023661379
69	0x3d26b2e9	0.040697966
70	0x3da36da2	0.07979895
71	0xbd9dd2c3	-0.07706215
72	0xbca9ad9c	-0.020712666
73	0x3d975cf6	0.07390778
74	0xbd4e4e58	-0.050367683
75	0xbc92de96	-0.017928403
76	0x3e2d1500	0.16902542
77	0x3dfd3f50	0.123655915
78	0xbf580cbd	-0.8439444
79	0xbed10126	-0.4082119
80	0xbe2ce8a6	-0.16885623
81	0x3c83fe6c	0.016112529
82	0xbe24cc0c	-0.16093463
83	0xbd8aa329	-0.067694016
84	0x3d9f634b	0.077826105
85	0x3dc882da	0.09790583
86	0x3d843f7f	0.064574234
87	0x3d3b9859	0.045799587
88	0xbe66c12b	-0.22534625
89	0xbe975362	-0.29555804
90	0xbd469dd0	-0.048490345
91	0x3dfc09a2	0.12306525
92	0x3eac35e1	0.33634856
93	0xbcdaa6e1	-0.026690902
94	0xbdd8ef58	-0.10592526
95	0x3d8551b3	0.065097235
96	0xbdde1569	-0.108439274
97	0x3e83f9ec	0.25776613
98	0xbe544c7c	-0.20732301
99	0xbf9bd47e	-1.2174222
100	0xbbc6c69a	-0.0060661556
101	0x3e6e15fa	0.23250571
102	0xbd065584	-0.032796398
103	0xbe3a6ccc	-0.18205565
104	0x3cd7ef20	0.02635914
105	0xba502d78	-0.00079413457
106	0xbba7040e	-0.005096919
107	0x3d51f5ea	0.051259913
108	0x3d804534	0.062631994
109	0x3b9b90fe	0.004747509
110	0xbd6ed326	-0.058306836
111	0xbc8af046	-0.016960274
112	0xbd73c412	-0.05951316
113	0xbdc7b217	-0.09750765
114	0x3e608e43	0.21929269
115	0xbc911fea	-0.017715413
116	0x3dd414cc	0.10355529
117	0xbd903d5c	-0.07042953
118	0xbf5ddf07	-0.8666844
119	0xbf94e26e	-1.1631601
120	0x3d5a0a94	0.053232744
121	0xbc947219	-0.018120812
122	0xbe23f9c9	-0.16013254
123	0xbe380428	-0.17970335
124	0x3d619d83	0.055081856
125	0x3dc663ee	0.09687029
126	0xbde2d69c	-0.1107609
127	0x3d8fd224	0.07022503
128	0xbd931c37	-0.07183116
129	0x3e2d2e0f	0.16912101
130	0x3da8e7cc	0.08247337
131	0xbc2e9fbe	-0.010658203
132	0x3dc1fdae	0.09472214
133	0x3e8325cc	0.25614774
134	0x3e49a0e5	0.19690283
135	0xbdc5684c	-0.09639034
136	0x3e240ebb	0.16021244
137	0xbd9fdbe1	-0.078056104
138	0xbf04ce96	-0.51877725
139	0x3eaeb883	0.34125146
140	0x3e349f48	0.17638886
141	0x3ca73361	0.020410242
142	0x3eadae20	0.3392191
143	0xbdba4bbc	-0.090964764
144	0x3e3ad823	0.18246512
145	0xbdb947a0	-0.090468645
146	0x3c851be6	0.016248655
147	0x3db55d1a	0.08855648
148	0x3c99db02	0.018781189
149	0x3de97942	0.11400081
150	0x3e49e932	0.19717863
151	0xbce3d818	-0.027813002
152	0xbe52ccd1	-0.20585944
153	0x3d756402	0.059909828
154	0x3cabde28	0.020979956
155	0xbd2ef5fa	-0.04271505
156	0xbe1c122b	-0.15241306
157	0xbda35c5b	-0.079766
158	0x3f3a1af3	0.7269737
159	0x3f1e8374	0.6191933
160	0x3ac9d319	0.0015397995
161	0x3dc8140e	0.0976945
162	0xbe526591	-0.20546557
163	0xbe5a91ef	-0.21344732
164	0xbdfb9907	-0.12285047
165	0x3d662b6b	0.05619375
166	0x3e6a6e8a	0.2289373
167	0x3d1b0e8e	0.037855677
168	0xbdb9a9ba	-0.09065576
169	0x3cb57653	0.022151148
170	0x3dae1813	0.085006855
171	0x3e9d16b4	0.30681384
172	0x3e5b24d8	0.21400774
173	0x3c1874c3	0.009305182
174	0x3e8d04fc	0.27542865
175	0x3dc56456	0.09638278
176	0xbe35afc7	-0.17742835
177	0x3cb3233c	0.021867387
178	0x3f04367f	0.51645654
179	0x3f034ffe	0.51293933
180	0x3d26b464	0.040699378
181	0xbe7b35e1	-0.24532272
182	0xbe04b889	-0.1296102
183	0x3e32e3fa	0.17469779
184	0x3e22932c	0.15876454
185	0xbe50f8e2	-0.20407441
186	0xbc5b0dc3	-0.01336998
187	0xbd2302d2	-0.03979761
188	0x3deee5dd	0.11664937
189	0x3c626b5a	0.01381954
190	0xbdc56dd9	-0.096400924
191	0x3dafaa36	0.08577387
192	0x3dcf3c10	0.10118878
193	0xb9d5fbc8	-0.00040814118
194	0x3e0e596b	0.13901298
195	0xbdce179a	-0.100630954
196	0xbe49dc4e	-0.19712946
197	0x3d384d86	0.044995807
198	0x3f1d1b1a	0.6136948
199	0x3ebc0160	0.367198
200	0xbe26eccc	-0.16301268
201	0xbc7e5622	-0.015523465
202	0x3c2bf785	0.010496025
203	0x3df3fd22	0.119135156
204	0x3e5b6cac	0.21428174
205	0xbeaa30a2	-0.3324023
206	0xbd950d07	-0.072778754
207	0xbe20d1c0	-0.15705013
208	0xbbd7ccdb	-0.0065857
209	0xbd5635a7	-0.05229726
210	0x3e3ffe93	0.18749456
211	0x3e084eaf	0.13311265
212	0xbcf36bcf	-0.029714493
213	0xbe25b5f5	-0.16182692
214	0xbd4d79f9	-0.05016515
215	0x3ded5e6a	0.11590274
216	0x3dbf250d	0.09333239
217	0xbe780ce6	-0.2422367
218	0x3eb04072	0.34424168
219	0x3eaa77eb	0.33294615
220	0xbd1df9be	-0.03856825
221	0x3be6803f	0.007034331
222	0xbd9c0df6	-0.0761985
223	0x3d7a72f0	0.06114477
224	0xbdcb8e02	-0.09939195
225	0xbd9562f6	-0.07294266
226	0xbd5c128d	-0.05372863
227	0xbdfe6965	-0.12422446
228	0xbdc08c7b	-0.094017945
229	0x3cd315d2	0.02576724
230	0x3d45a051	0.048248593
231	0x3dfef0b0	0.12448251
232	0xbe64bd85	-0.22337921
233	0x3e7afa0a	0.24509445
234	0xbd6a4352	-0.057193108
235	0xbd9e88ba	-0.07740922
236	0xbd95062a	-0.07276566
237	0x3e0e373d	0.13888259
238	0x3ea222d5	0.316672
239	0xc016ca99	-2.3561156
240	0xbd891206	-0.06692891
241	0xbde12fc4	-0.10995439
242	0xbe5fd981	-0.21860315
243	0xbce87ddd	-0.028380329
244	0xbe7f0c45	-0.24907024
245	0xbe33c18c	-0.17554301
246	0x3ca502a0	0.020142853
247	0x3e1d03cd	0.15333481
248	0x3d15faae	0.03661602
249	0x3cbb46c4	0.022860892
250	0x3d057438	0.032581538
251	0x3e8eb27b	0.27870545
252	0x3ebc9ff6	0.3684079
253	0x3df6ff3c	0.12060401
254	0xbde221a0	-0.1104157
255	0xbe52ca8f	-0.20585082

value.0.bias f4 [32]
0	0xbdcfc53b	-0.101450406
1	0x3dfe664c	0.12421855
2	0xbd7aa2b7	-0.061190333
3	0xbe44e322	-0.1922727
4	0xbe07056d	-0.13185664
5	0xbd3da0ed	-0.04629605
6	0x3e408d3b	0.18803875
7	0xbe3612ee	-0.17780659
8	0xbe867209	-0.26258877
9	0x3e24c242	0.16089728
10	0xbe19d3d5	-0.15022214
11	0xbdb28f49	-0.08718736
12	0x3dd74eaa	0.10513051
13	0xbe41654c	-0.18886298
14	0x3d543dfe	0.051816933
15	0xbd8d4626	-0.068981454
16	0x3e187101	0.14886858
17	0xbe7ea86a	-0.24868932
18	0x3dd44a80	0.10365772
19	0x3e33f690	0.17574525
20	0xbe055af7	-0.13022982
21	0xbdc16f7f	-0.09445094
22	0xbe22ca44	-0.1589747
23	0x3c0dafa1	0.00864783
24	0x3e57baeb	0.21067397
25	0x3dd12555	0.10212199
26	0x3d376342	0.044772394
27	0x3ca4bff0	0.020111054
28	0xbdf49cb7	-0.119439535
29	0xbe19e9ef	-0.15030645
30	0x3d69711b	0.05699263
31	0x3e78d6ea	0.24300733

value.2.weight f4 [32, 32]
0	0x3e6cbdc4	0.23119265
1	0x3e7c3627	0.24630032
2	0xbed2e9f1	-0.41194108
3	0x3d8dee82	0.069302574
4	0x3d9b8e4e	0.07595502
5	0xbf11c85a	-0.5694634
6	0xbf059514	-0.521806
7	0xbf0d1311	-0.5510722
8	0xbebf43e5	-0.37356487
9	0x3e427f71	0.18993928
10	0x3dd6a3e6	0.1048048
11	0xbf020ac7	-0.50797695
12	0x3e3287f4	0.17434675
13	0x3d7ce26f	0.06173938
14	0x3a9ebd33	0.0012110829
15	0xbeab2fc6	-0.33434886
16	0x3e57a70f	0.21059822
17	0xbe024199	-0.12720336
18	0xbd293b6e	-0.041316442
19	0xbc67412a	-0.014114657
20	0x3d63b161	0.055589084
21	0xbed5a2d3	-0.41725788
22	0xbeb18024	-0.34668076
23	0xbe511f25	-0.20422037
24	0x3e1914a8	0.14949286
25	0xbd86cf1d	-0.065824725
26	0x3da30a93	0.07961001
27	0xbe86d720	-0.26336002
28	0xbdcd3bd6	-0.100211784
29	0x3c3ccc71	0.011523352
30	0xbe19a8cd	-0.15005799
31	0xbe9623df	-0.29324242
32	0x3e13f9a2	0.14450696
33	0xbdc5af29	-0.0965255
34	0x3d1bc9b5	0.03803416
35	0x3e37306c	0.17889565
36	0xbe08e3a4	-0.13368088
37	0x3c23811e	0.009979514
38	0xbd944be7	-0.0724104
39	0x3c26da2b	0.010183851
40	0x3e16c3b0	0.14723086
41	0x3d93563f	0.071941845
42	0x3e3bfdd2	0.18358544
43	0xbe96c549	-0.29447392
44	0xbeea52cb	-0.4576629
45	0xbb367e59	-0.0027846305
46	0xbe9fd445	-0.31216636
47	0xbd31bc84	-0.043392673
48	0xbd08f6fd	-0.03343867
49	0x3d81bba5	0.063346185
50	0xbe42924a	-0.19001117
51	0xbc9d34cc	-0.019190215
52	0x3dc28948	0.094988406
53	0xbd7197b3	-0.058982562
54	0x3cb44bc1	0.022008779
55	0xbd11aa93	-0.035563063
56	0x3d5bcd0a	0.053662337
57	0xbcf01d47	-0.029310836
58	0xbc0e4307	-0.008682973
59	0xbe5140d6	-0.20434889
60	0xbdbbf81b	-0.09178182
61	0xbbe267a9	-0.00690933
62	0x3d8544da	0.06507273
63	0xbe1238a3	-0.14279418
64	0xbdcf0592	-0.10108484
65	0x3dcc5874	0.099778086
66	0xbd8b16e4	-0.067914754
67	0xbd069cb3	-0.032864284
68	0x3e05cf75	0.1306742
69	0xbbfcc97e	-0.0077144494
70	0x3d9592b4	0.07303372
71	0xbde07fc5	-0.1096187
72	0x3c8f58fd	0.017498488
73	0x3d36c5a7	0.04462209
74	0x3d53956c	0.05165617
75	0x3cc7bbbc	0.02438151
76	0x3dc601ff	0.096683495
77	0x3d156792	0.036475725
78	0xbc66cdb2	-0.0140871275
79	0x3e00a7c7	0.12564002
80	0x3cb8b836	0.022548776
81	0x3d84daaf	0.06487023
82	0x3dd7428a	0.10510738
83	0x3dfaf26e	0.12253271
84	0xbe3f66ed	-0.18691607
85	0xbe36de84	-0.1785832
86	0xbd94663d	-0.07246063
87	0x3d1d846c	0.038456365
88	0x3e33eb27	0.17570172
89	0x3c75387e	0.014967082
90	0xbdbed1dd	-0.09317372
91	0x3e2b3bd3	0.1672204
92	0xbdbda13a	-0.09259267
93	0x3d3ddd19	0.046353433
94	0x3ce5c8ad	0.028049791
95	0xb85cf6f9	-5.26821e-05
96	0xbe867b2d	-0.2626585
97	0xbe2a66b0	-0.16640735
98	0x3dbdb7a1	0.0926354
99	0xbe3ba474	-0.18324453
100	0x3e1ea1b7	0.15491377
101	0x3e22bea5	0.15893038
102	0x3d22a5b2	0.0397088
103	0x3cefa6a4	0.029254265
104	0xbe05053e	-0.12990281
105	0x3e9f99eb	0.31172118
106	0x3d3ec3a2	0.04657329
107	0xbdf1a117	-0.117983036
108	0x3de0aba1	0.109702356
109	0x3e2b5b82	0.16734126
110	0x3dcbd3e1	0.09952522
111	0xbda55843	-0.08073475
112	0x3d805ca2	0.06267668
113	0x3dc5e605	0.09663013
114	0xbdec8629	-0.115490265
115	0xbe107cb8	-0.14110076
116	0xbd5e7861	-0.05431402
117	0xbec9f254	-0.39442694
118	0xbdab50fe	-0.083650574
119	0xbddf39b2	-0.108996764
120	0xbc9c394d	-0.019070292
121	0xbeef06e4	-0.46684945
122	0x3e07b1d5	0.13251431
123	0x3dc4bd22	0.09606387
124	0xbda73208	-0.081638396
125	0xbdc0f1ad	-0.09421096
126	0xbd2f0fa8	-0.04273954
127	0xbdaa5b37	-0.08318179
128	0xbe0723b0	-0.13197207
129	0x3bd3b496	0.0064607365
130	0x3d121fc0	0.03567481
131	0xbe1104f4	-0.14162046
132	0x3db95d0d	0.09050951
133	0x3caf6c5d	0.021413976
134	0x3df8f7b5	0.12156621
135	0xbd06cc1b	-0.032909494
136	0x3e99e855	0.30060068
137	0x3ad373cb	0.0016132531
138	0x3d9d6633	0.076855086
139	0x3ca745e9	0.020419078
140	0xbb4b7b55	-0.0031048853
141	0xbdf62a2c	-0.120197624
142	0x3d77d356	0.06050428
143	0xbcc80f8b	-0.024421474
144	0x3dcd134b	0.100134455
145	0xbd56eeb0	-0.052473724
146	0xbda8c54b	-0.08240756
147	0x3d841a3f	0.064503185
148	0x3dc2bdae	0.09508835
149	0x3e5f9e51	0.21837737
150	0xbda67a7c	-0.08128831
151	0xbd0a76a5	-0.033804554
152	0xbd8afd64	-0.06786612
153	0xbce5c8b7	-0.02804981
154	0xbd106053	-0.035248112
155	0x3d0b024c	0.033937737
156	0x3e219197	0.15778194
157	0xbbe67321	-0.0070327674
158	0xbd9e9ebf	-0.07745122
159	0xbd87c796	-0.06629865
160	0x3e6e756f	0.23286985
161	0x3e3ddd9c	0.18541569
162	0x3d9eb2a6	0.07748918
163	0x3d8e655f	0.06952929
164	0xbdf9f1b9	-0.12204308
165	0x3e359eb8	0.17736328
166	0x3d462f42	0.048384912
167	0x3df2e3ea	0.118598774
168	0x3da00873	0.078141116
169	0xbdb9b827	-0.090683274
170	0x3e1f2c90	0.15544343
171	0xbb12c3b6	-0.0022394485
172	0xbdf43c7e	-0.119256005
173	0x3cf0be58	0.029387638
174	0xbd93a026	-0.0720828
175	0x3e141f19	0.14464988
176	0x3cafc897	0.021457953
177	0x3e83daf8	0.25752997
178	0xbdcbf892	-0.099595204
179	0x3e34a57c	0.17641252
180	0xbd50f54a	-0.051015176
181	0xbd709c51	-0.058742825
182	0x3d1bb0f3	0.03801055
183	0xbda67b17	-0.08128946
184	0xbda87998	-0.08226317
185	0x3c5ee52d	0.013604444
186	0xbd346755	-0.044043858
187	0x3c9239f4	0.0178499
188	0x3e4e1084	0.20123488
189	0xbdc61d7b	-0.09673592
190	0xbdfed2ed	-0.12442575
191	0xbe229b62	-0.15879586
192	0xbf50646b	-0.81403226
193	0xbf9f9d52	-1.2469885
194	0x3e0f61e7	0.1400219
195	0xbda6a7ac	-0.081374496
196	0xbddd7be8	-0.10814649
197	0xbd091a61	-0.033472423
198	0xbebc9eae	-0.36839813
199	0x3e617aab	0.2201945
200	0xbee1023d	-0.4394702
201	0x3dbf1b97	0.09331434
202	0x3d4abeef	0.049498495
203	0x3dc9b048	0.09848076
204	0xbe609acf	-0.21934055
205	0x3d924cbb	0.071435414
206	0x3d3a86d3	0.045538735
207	0xbdbb1654	-0.09135118
208	0xbdb200a3	-0.08691528
209	0x3d113996	0.03545531
210	0x3c6d3456	0.01447781
211	0xbf3e591c	-0.7435472
212	0x3db69732	0.08915557
213	0x3d988163	0.074465536
214	0xbd156558	-0.036473602
215	0x3d839fb8	0.06426948
216	0xbc084a52	-0.008318501
217	0x3e68c7aa	0.22732416
218	0x3c74e620	0.014947444
219	0x3c737796	0.0148600545
220	0x3d5ce08e	0.05392509
221	0xbd00fa9b	-0.031488996
222	0x3bc662d3	0.0060542612
223	0xbda214b6	-0.079141065
224	0x3d6c5031	0.057693664
225	0xbd5a5c78	-0.05331084
226	0x3d5b0bf6	0.053478204
227	0x3ca14ed5	0.01969091
228	0x3e3360e5	0.17517431
229	0x3dcb010c	0.09912309
230	0xbd5559a7	-0.052087452
231	0x3e14055e	0.14455172
232	0xbc983863	-0.018581575
233	0xbba78453	-0.00511221
234	0x3dc6b83f	0.09703111
235	0xbdd50404	-0.104011565
236	0xbcb97d2f	-0.0226427
237	0x3defcd09	0.11709029
238	0xbda985ab	-0.08277448
239	0x3dd37a40	0.10326052
240	0x3e3e3f62	0.18578866
241	0x3e5750ed	0.21026964
242	0x3c4ce3b2	0.012505459
243	0xbe56bcdd	-0.20970483
244	0xbe7fc176	-0.24976143
245	0xbe1c67c4	-0.15273958
246	0x3ed6c96b	0.41950545
247	0x3dded6bd	0.10880802
248	0xbd972b68	-0.07381326
249	0xbd6ed703	-0.05831052
250	0x3e69ffe2	0.22851518
251	0x3dd6ec31	0.10494269
252	0x3de372ca	0.11105879
253	0xbe105a04	-0.14096838
254	0x3e1abeaf	0.15111803
255	0xbe447314	-0.19184524

value.2.bias f4 [32]
0	0xbe1fceb6	-0.15606198
1	0xbea0e059	-0.31421164
2	0xbcde2714	-0.027118243
3	0xbcad45e1	-0.021151485
4	0xbde5b671	-0.112164386
5	0x3c81ebf3	0.01585958
6	0x3e327bf1	0.17430092
7	0xbe8227cc	-0.25420988
8	0x3c87d2c8	0.01658
9	0xbc3092ec	-0.010777216
10	0x3e3aae29	0.182305
11	0x3b7c82f1	0.0038530196
12	0xbdc1d758	-0.09464902
13	0x3ea48039	0.32129076
14	0xbe5c545b	-0.21516554
15	0xbd5f71d6	-0.05455192
16	0x3d970dbe	0.07375668
17	0xbdae85f5	-0.08521644
18	0xbe80dbda	-0.25167733
19	0x3e5416fc	0.20711893
20	0x3e6d18b9	0.23153962
21	0xbea4579b	-0.32098088
22	0x3d459a64	0.04824294
23	0x3e67e95d	0.22647615
24	0xbd981a04	-0.07426837
25	0x3eb0943c	0.34488094
26	0x3ae576b9	0.0017506696
27	0xbe3da32f	-0.18519281
28	0xbe85d131	-0.26136163
29	0xbe44ce7d	-0.19219394
30	0x3bcc89af	0.006241999
31	0xbde48d4f	-0.11159765

value.4.weight f4 [1, 32]
0	0xbf165e4f	-0.58737653
1	0xbdf3775b	-0.118879996
2	0xbd8b2186	-0.067935035
3	0x3dc152a0	0.094395876
4	0xbd8414e3	-0.06449296
5	0x3d591b53	0.053004574
6	0xbd907ef7	-0.070554666
7	0xbd7de0ea	-0.061982073
8	0xbd3d9cf5	-0.046292264
9	0x3e03c453	0.1286786
10	0x3d3b8e9f	0.04579031
11	0x3d9b8b3a	0.07594915
12	0x3d8c6e38	0.0685696
13	0x3d3eac53	0.04655106
14	0xbd6464a6	-0.05576005
15	0xbed6be8d	-0.41942254
16	0xbef1a750	-0.47197962
17	0xbd749a8c	-0.0597177
18	0xbe5cf370	-0.21577239
19	0x3da263f4	0.07929221
20	0x3d9a1082	0.0752268
21	0xbd95a7a6	-0.07307367
22	0xbdd61077	-0.10452359
23	0x3dc98c92	0.09841265
24	0xbcc7038f	-0.024293689
25	0x3da8219a	0.08209534
26	0x3d393492	0.04521615
27	0xbd30a9c8	-0.043130666
28	0xbd058f47	-0.032607343
29	0xbd3cf72d	-0.046134163
30	0x3db9984d	0.09062252
31	0xbd45686c	-0.048195288

actor.0.weight f4 [32, 18]
0	0x3e0fa896	0.14029154
1	0xbc0833cc	-0.008313131
2	0x3e3d51d1	0.18488242
3	0x3d8b34f8	0.06797212
4	0xbdbd8535	-0.09253923
5	0x3f214c85	0.63007385
6	0x3dab62ee	0.08368479
7	0x3e055c37	0.13023458
8	0x3e3d4177	0.18482004
9	0x3f2d6cb2	0.6774398
10	0xbe7a5c7a	-0.2444934
11	0xbe0aaf7e	-0.13543507
12	0x3dc83773	0.09776201
13	0xbea24f65	-0.31701198
14	0x3dece0f2	0.115663424
15	0xbe614a35	-0.22000964
16	0xbe52588d	-0.20541592
17	0xbe1bc5b0	-0.1521213
18	0xbe28c9e6	-0.16483268
19	0xbd4e0e81	-0.0503068
20	0xbf08a8d3	-0.53382605
21	0xbec3ebf4	-0.38265955
22	0xbd91b9b1	-0.07115496
23	0x3e3e61de	0.18592021
24	0x3e8c269a	0.273732
25	0xbea4a1d8	-0.32154727
26	0x3eb5afa5	0.3548557
27	0x3e1f7ef1	0.15575768
28	0xbe1ab9f8	-0.15110004
29	0x3dc14a52	0.094380036
30	0xbd6bf0ff	-0.05760288
31	0x3e945021	0.28967384
32	0x3d8953a7	0.067054085
33	0x3de91a38	0.11381954
34	0x3e089ebe	0.13341805
35	0x3e1c5fe0	0.15270948
36	0x3e82ee8c	0.25572622
37	0xbe47acf7	-0.19499575
38	0x3ea385e2	0.31938082
39	0x3d1f7372	0.038928457
40	0xbe1cbf8b	-0.15307443
41	0xbe1f3361	-0.15546943
42	0x3d872ee2	0.06600739
43	0xbe2f7b80	-0.17136955
44	0x3e01df20	0.12682772
45	0xbefb247a	-0.49051267
46	0xbe2f4ba1	-0.17118694
47	0xbe611dde	-0.2198405
48	0x3dac9ae4	0.084279805
49	0xbe6fc8d2	-0.2341645
50	0x3d88e743	0.06684735
51	0xbde1fb16	-0.11034219
52	0xbd89aac7	-0.06722026
53	0xbe5cb434	-0.21553117
54	0x3db7bbeb	0.089713894
55	0xbe86d698	-0.26335597
56	0x3c575044	0.013141695
57	0xbe9de0be	-0.30835527
58	0x3eeec28d	0.46632805
59	0xbebc9102	-0.36829382
60	0xbd12a0e3	-0.035797965
61	0xbe5e3399	-0.2169937
62	0x3c97e362	0.018541042
63	0xbdf57d69	-0.11986811
64	0x3e821afb	0.2541121
65	0x3e93d2a7	0.28871652
66	0xbd1c97f7	-0.038230862
67	0xbea2740f	-0.3172917
68	0xbd9fc7f8	-0.07801813
69	0xbd852a54	-0.06502214
70	0xbea8a573	-0.32938728
71	0xbe53dac5	-0.20688923
72	0xbebc62ee	-0.36794227
73	0xbedc2c88	-0.43002725
74	0xbd01d380	-0.031695843
75	0x3bb30d2d	0.005464217
76	0x3e041d24	0.12901741
77	0xbdfe0f83	-0.124053024
78	0xbe277b38	-0.16355598
79	0x3f108c8b	0.5646445
80	0x3dd22f30	0.102629066
81	0xbc095ed8	-0.008384429
82	0xbcf9685d	-0.030445272
83	0xbde22c8e	-0.110436544
84	0xbedacf85	-0.4273645
85	0x3decafad	0.11556945
86	0xbe610a19	-0.21976508
87	0x3c8554b2	0.016275737
88	0x3e56b021	0.20965625
89	0xbd7b5abe	-0.061365835
90	0x3ca71663	0.020396417
91	0xbc61a787	-0.013772852
92	0x3e6d0ac6	0.23148641
93	0x3e85917f	0.26087567
94	0xbebca1f2	-0.36842304
95	0x3e8c1a35	0.27363744
96	0xbdb849b6	-0.08998434
97	0x3d54afc6	0.051925443
98	0xbdc1d10e	-0.09463702
99	0x3e76b69a	0.24093094
100	0xbe8def79	-0.27721766
101	0x3c316ee4	0.010829661
102	0xbeb2365b	-0.34807095
103	0x3df8d273	0.12149515
104	0x3d4bf503	0.04979421
105	0x3dcc5e4f	0.099789254
106	0xbec56fa9	-0.38561752
107	0xbd46745c	-0.048450813
108	0xbdcd38f2	-0.10020627
109	0xbe3db9fb	-0.18527977
110	0x3c30cb98	0.010790728
111	0x3d597adc	0.053095683
112	0x3e05e296	0.13074717
113	0x3cb55d67	0.022139264
114	0x3e19e8e6	0.1503025
115	0xbec19b46	-0.37813777
116	0xbeff3640	-0.49846077
117	0xbde88747	-0.11353927
118	0x3c4cd8ab	0.01250283
119	0xbe31fa26	-0.1738058
120	0xbe806f83	-0.25085077
121	0x3e700162	0.23438028
122	0xbe5fbe4a	-0.21849933
123	0xbe7db3eb	-0.24775665
124	0x3d8bf5bb	0.06833979
125	0x3e143dcb	0.14476697
126	0x3d6655d0	0.05623418
127	0xbd3e3c8c	-0.04644446
128	0x3e87e8f0	0.26544905
129	0xbd28a716	-0.04117497
130	0x3ef786b6	0.48344964
131	0x3d20436c	0.0391268
132	0xbe98f511	-0.2987447
133	0xbe18fc30	-0.14939952
134	0x3e335870	0.17514205
135	0xbea26872	-0.3172031
136	0x3e4889a6	0.19583759
137	0x3e14ea30	0.1454246
138	0x3d554b4b	0.052073758
139	0x3ed34666	0.41264647
140	0x3e0bb2ca	0.13642421
141	0x3de64d5c	0.11245224
142	0x3d5f9e2e	0.05459421
143	0x3e80949a	0.25113374
144	0xbd92d2f3	-0.071691416
145	0x3f28d68a	0.6595236
146	0xbe9f6b01	-0.31136325
147	0xbe9e1b12	-0.30880028
148	0x3db74f4b	0.08950671
149	0xbd4ce62d	-0.0500242
150	0x3dc3bea0	0.09557843
151	0xbe256481	-0.1615162
152	0xbd356d62	-0.04429377
153	0xbe1484aa	-0.14503732
154	0xbe673407	-0.2257844
155	0x3dfcb367	0.12338906
156	0xbe20e0be	-0.15710732
157	0xbc95458a	-0.018221635
158	0xbdee218b	-0.116274916
159	0xbc92333a	-0.017846692
160	0xbe2b47c8	-0.16726601
161	0xbe94527f	-0.2896919
162	0xbebdb00f	-0.37048385
163	0x3e07107c	0.13189882
164	0x3e54da1f	0.20786332
165	0x3cb9b9c2	0.022671584
166	0x3e953575	0.29142347
167	0xbd822f78	-0.0635671
168	0xbe8ae285	-0.27125946
169	0xbc86ad93	-0.016440189
170	0xbd77751a	-0.06041441
171	0xbdbf8389	-0.0935126
172	0x3cad1cc2	0.021131877
173	0xbe4903d2	-0.19630364
174	0xbe154141	-0.14575674
175	0xbe8a78e5	-0.2704536
176	0x3e3a55f3	0.1819685
177	0x3e8e3bfc	0.2778014
178	0x3cf80d48	0.03027977
179	0xbe385cc9	-0.18004145
180	0x3eced089	0.40393475
181	0xbcbc825c	-0.023011379
182	0xbddd9c43	-0.1082082
183	0x3d55e8d5	0.052224
184	0xbe355833	-0.17709427
185	0xbe9414b7	-0.28922054
186	0x3db035f4	0.08604041
187	0xbda48d9a	-0.08034821
188	0xbdcbb3e5	-0.099464215
189	0xbe199a90	-0.15000367
190	0xbe0a3388	-0.1349622
191	0xba1e5ce5	-0.0006041064
192	0xbcafb438	-0.02144824
193	0x3d95f3e9	0.07321913
194	0x3e8f6556	0.28007
195	0x3e84b0c6	0.25916117
196	0x3c927272	0.017876837
197	0x3e5b867b	0.21438019
198	0x3e834196	0.25635976
199	0xbe8a8fea	-0.27062923
200	0xbea9f281	-0.33192828
201	0xbe863b5a	-0.26217157
202	0xbe3ef40c	-0.18647784
203	0x3f016218	0.50540304
204	0x3e82050a	0.2539447
205	0xbdf30782	-0.118666664
206	0x3e10f1f9	0.14154805
207	0x3d010400	0.031497955
208	0xbe73cc6c	-0.2380845
209	0x3dcb6944	0.09932187
210	0x3de97603	0.11399462
211	0x3e6f7df8	0.23387897
212	0x3c10f93c	0.008848485
213	0x3e959bd9	0.29220465
214	0x3ea664f7	0.32498905
215	0x3dad8042	0.08471729
216	0x3d0c627a	0.034273602
217	0x3db40be5	0.08791331
218	0xbba3b8ba	-0.0049963864
219	0xbddaf843	-0.106918834
220	0xbc9b1b95	-0.01893405
221	0xbb07abe6	-0.0020701825
222	0xbe415792	-0.18881062
223	0xbd99220a	-0.074771956
224	0x3e5bd56c	0.21468133
225	0x3ed3c332	0.4135986
226	0xbdde05ac	-0.108409256
227	0x3e62006d	0.22070475
228	0xbe22abe5	-0.15885885
229	0x3c5409b6	0.012941768
230	0x3e593a2b	0.21213596
231	0xbd57ee4e	-0.0527175
232	0x3eb57c5e	0.35446447
233	0x3ddcacce	0.107751474
234	0x3dd5ec03	0.10445406
235	0xbcf0a2b6	-0.029374462
236	0xbe3edc46	-0.18638715
237	0xbea3cba9	-0.31991318
238	0x3e97e020	0.2966318
239	0x3e22e46c	0.15907449
240	0xbecac26c	-0.39601457
241	0xbe76b602	-0.24092868
242	0xbd634618	-0.05548677
243	0xbd693196	-0.056932054
244	0x3e15fe82	0.14647868
245	0x3e10a066	0.14123687
246	0x3df6b3bc	0.12046
247	0x3ea41806	0.32049578
248	0xbd12fa69	-0.03588334
249	0xbe25fedc	-0.16210502
250	0x3d845058	0.06460637
251	0x3e3349ee	0.1750867
252	0xbf098dca	-0.5373198
253	0xbe9f671d	-0.31133357
254	0xbe0427d2	-0.12905815
255	0xbe092151	-0.13391615

actor.0.bias f4 [32]
0	0x3da85248	0.08218819
1	0xbc09b30e	-0.008404506
2	0xbe8d9716	-0.27654332
3	0x3e3e1ce5	0.1856571
4	0x3d70e3cd	0.058810998
5	0x3d944377	0.072394304
6	0x3cc769e4	0.024342485
7	0x3d694319	0.056948755
8	0x3e8df23c	0.27723873
9	0x3e83d004	0.2574464
10	0xbe61ecda	-0.22063008
11	0x3d28aab0	0.041178405
12	0x3d9fb47e	0.07798098
13	0xbd52dd35	-0.05148049
14	0x3d693a81	0.05694056
15	0xbe948b38	-0.29012465
16	0xbc703153	-0.014660197
17	0xbd8309ba	-0.063983396
18	0x3e813996	0.25239247
19	0xbd966a59	-0.07344503
20	0xbd43153d	-0.047627676
21	0xbb4ff92a	-0.0031734207
22	0xbe87879a	-0.26470643
23	0xbdca53db	-0.098792754
24	0x3e523237	0.20526968
25	0x3e65e8cf	0.2245209
26	0xbd857971	-0.06517304
27	0x3e5f6a4c	0.21817893
28	0xbc5f6e26	-0.013637101
29	0x3e124481	0.14283945
30	0xbdf064ed	-0.11738
31	0xbddaf88c	-0.10691938

actor.2.weight f4 [32, 32]
0	0x3d6e6966	0.058205985
1	0xbecf36cb	-0.4047149
2	0x3e8bacb4	0.272802
3	0xbe2a8622	-0.1665273
4	0xbe57693d	-0.21036239
5	0xbcdee20f	-0.027207403
6	0xbcae16f9	-0.021251189
7	0x3d950537	0.07276385
8	0xbcdb9427	-0.026804043
9	0x3cdbbb1a	0.026822615
10	0x3dbf7c63	0.09349897
11	0x3e8e670b	0.2781299
12	0x3e41de37	0.18932424
13	0x3e81bd37	0.25339672
14	0xbec4b61b	-0.38420185
15	0x3e4a4341	0.19752218
16	0xbef7f93f	-0.48432347
17	0x3c9a0120	0.018799365
18	0x3d36c975	0.04462572
19	0xbe158db7	-0.14604841
20	0xbce64115	-0.028107205
21	0xbe10398c	-0.14084452
22	0xbe065dab	-0.13121669
23	0xbee7922d	-0.4522871
24	0x3c9a8fce	0.0188674
25	0x3d440b6d	0.04786246
26	0x3e5d5bbd	0.21617027
27	0x3f081f55	0.5317281
28	0xbeecf564	-0.46280968
29	0x3d817667	0.063214116
30	0xbdc128b9	-0.09431595
31	0x3e8fb0fe	0.28064722
32	0xbe918d94	-0.28428328
33	0xbd4162d9	-0.04721341
34	0xbe4af532	-0.19820097
35	0x3da7e33c	0.081976384
36	0x3eb96ef0	0.3621745
37	0xbee97aa1	-0.4560137
38	0xbd5b9789	-0.053611312
39	0x3e3ed90b	0.18637483
40	0xba806d91	-0.0009798278
41	0x3e4913bd	0.19636436
42	0x3d41c5d6	0.04730781
43	0x3cc5765e	0.024104293
44	0x3e217658	0.15767801
45	0x3e32ff60	0.1748023
46	0x3e12191a	0.14267388
47	0xbe6b4274	-0.22974569
48	0x3e9c910c	0.30579412
49	0x3dd19752	0.1023394
50	0x3e730453	0.23732118
51	0xbe1eba72	-0.1550081
52	0x3e0630c2	0.13104537
53	0x3d11327b	0.035448533
54	0xbecaeb5e	-0.39632696
55	0x3e03a1dc	0.12854713
56	0xbb92873e	-0.0044716885
57	0xbebfa4d5	-0.37430444
58	0xbe960a2f	-0.29304644
59	0xbd2332a5	-0.03984322
60	0x3cd154c2	0.025553111
61	0xbe80c12f	-0.25147387
62	0xbd75223f	-0.059847113
63	0xbecccbfe	-0.39999384
64	0xbd5c2ba1	-0.053752545
65	0x3dff33fb	0.12461086
66	0xbe701549	-0.2344562
67	0xbdd679b3	-0.10472431
68	0x3e2541f2	0.16138437
69	0xbd7c6c22	-0.06162656
70	0x3c73f0d3	0.01488896
71	0xbef4c92a	-0.47809726
72	0x3e851d90	0.25999117
73	0x3e2a52ef	0.16633199
74	0xbd2f0a54	-0.04273446
75	0x3e1b7a5e	0.15183398
76	0xbc9fd8a0	-0.019512475
77	0xbe681eb9	-0.2266797
78	0xbe3189c2	-0.17337707
79	0x3d850897	0.06495779
80	0xbd116043	-0.035492193
81	0xbe514b8e	-0.20438978
82	0xbd63c422	-0.05560697
83	0x3e7d0451	0.24708678
84	0x3e62ea54	0.22159702
85	0x3e2947e7	0.16531335
86	0x3ea079b6	0.31342858
87	0x3cbd5461	0.023111524
88	0xbc58a793	-0.013223547
89	0x3e043a51	0.12912871
90	0xbcba8406	-0.022768032
91	0xbd7e8a36	-0.062143527
92	0x3e1b0428	0.15138304
93	0x3e1051b5	0.14093669
94	0xbe5cf033	-0.21576004
95	0xbca4ae75	-0.020102719
96	0x3e742f65	0.23846205
97	0xbee5c5ba	-0.44877416
98	0x3d7c21e7	0.06155577
99	0xbf570253	-0.8398792
100	0xbe0adb9b	-0.13560335
101	0x3e166bb4	0.14689523
102	0x3dc7d14e	0.097567186
103	0x3e5d26ac	0.21596783
104	0x3d81f9ad	0.0634645
105	0xbe8e40ba	-0.27783757
106	0x3e8c0a16	0.27351445
107	0x3c236768	0.009973384
108	0xbddeb9b4	-0.10875264
109	0xbca1d767	-0.019756032
110	0xbca538a2	-0.020168606
111	0x3e1246fc	0.14284891
112	0x3e7b7793	0.24557333
113	0xbcdf78b1	-0.02727923
114	0x3e06cf1e	0.13164946
115	0xbd72299e	-0.05912172
116	0x3d71e1b1	0.059053127
117	0xbe948253	-0.2900568
118	0x3db61871	0.088913806
119	0xbe64eb19	-0.22355308
120	0x3d778e1f	0.06043827
121	0xba755168	-0.0009358139
122	0x3e221b47	0.15830718
123	0xbe52a234	-0.20569688
124	0xbe3a238d	-0.18177624
125	0x3e88cd35	0.2671906
126	0x3ef72ba7	0.48275492
127	0xbc942520	-0.018084109
128	0x3e9b2045	0.30298057
129	0xbe0baea6	-0.13640842
130	0xbe1266fa	-0.14297095
131	0xbd5e0b17	-0.054209795
132	0xbea1f5aa	-0.3163274
133	0x3e64efb2	0.22357062
134	0x3bbe22a6	0.0058024703
135	0xbc9cb09f	-0.019127188
136	0xbd885abb	-0.066579305
137	0xbe320d02	-0.17387775
138	0x3e5be201	0.21472932
139	0x3cb8093c	0.02246534
140	0x3ea1e398	0.31618953
141	0xbe9d1005	-0.30676284
142	0xbe770403	-0.24122624
143	0xbf6c0a6f	-0.9220342
144	0x3d7a7188	0.061143428
145	0xbd609dfe	-0.054838173
146	0xbe458529	-0.19289078
147	0xbea4c926	-0.32184714
148	0x3e749865	0.23886259
149	0x3e83d18b	0.25745806
150	0xbe107d55	-0.1411031
151	0xbce05b1b	-0.027387192
152	0x3d5598e1	0.05214775
153	0xbebaf05a	-0.365115
154	0xbdde074e	-0.10841237
155	0x3e351daa	0.17687097
156	0xbd9f696c	-0.077837795
157	0x3dba693a	0.091021016
158	0x3e0f2aea	0.13981214
159	0xbc991e14	-0.0186911
160	0xbe10e75b	-0.14150755
161	0x3e6248f4	0.22098142
162	0xbbadb94b	-0.0053016297
163	0x3ea97774	0.33098948
164	0x3e545070	0.2073381
165	0xbe012761	-0.12612678
166	0xbea3a8ea	-0.3196481
167	0x3d5b9daa	0.053617157
168	0xbee131ef	-0.4398341
169	0xbe98d0b0	-0.29846716
170	0x3e966365	0.29372707
171	0x3dc7c650	0.09754622
172	0x3df5c79b	0.12000962
173	0x3e8074b6	0.25089043
174	0x3e207b72	0.1567209
175	0x3e918ffa	0.28430158
176	0xbd072fce	-0.033004574
177	0x3e44648c	0.1917898
178	0xbe24524f	-0.16047023
179	0xbed4b5e1	-0.41545013
180	0xbd6947d1	-0.056953255
181	0x3de8e137	0.11371081
182	0xbdabf168	-0.08395654
183	0xbe81ecc6	-0.25375956
184	0x3e23211c	0.15930599
185	0x3e0b90b8	0.13629425
186	0x3c902275	0.017594555
187	0x3db78d39	0.08962483
188	0x3d6827f4	0.056678727
189	0x3dd7d175	0.10537998
190	0x3de284c4	0.11060479
191	0x3e16435e	0.14674136
192	0xbeb80a0c	-0.35945165
193	0x3e934344	0.28762257
194	0xbe087367	-0.13325273
195	0x3e265ab0	0.16245532
196	0x3e10402c	0.1408698
197	0xbf064aac	-0.5245769
198	0x3e014ec8	0.12627709
199	0x3e4a1935	0.19736178
200	0x3e4b1823	0.19833426
201	0xbe3aa4fd	-0.18227
202	0xbdb44d3c	-0.08803794
203	0x3c856902	0.016285423
204	0xbda92d44	-0.08260587
205	0xbe1a9626	-0.1509634
206	0xbe32b4c7	-0.17451774
207	0xbd2ec42a	-0.042667545
208	0x3dd6f29c	0.10495493
209	0x3c732ccf	0.014842226
210	0x3e5c0e93	0.21489935
211	0xbe6f6ac5	-0.23380573
212	0x3e59af5c	0.212583
213	0xbdc37ade	-0.095449194
214	0xbcd58466	-0.026064109
215	0x3cf5d899	0.030010508
216	0xbec5e347	-0.3864996
217	0xbdbe03ba	-0.092780545
218	0xbe746517	-0.23866688
219	0x3de7feaf	0.11327874
220	0xbd16a888	-0.036781818
221	0xbf39aeca	-0.7253233
222	0x3e953f1e	0.29149717
223	0x3e142954	0.1446889
224	0xbe170305	-0.14747246
225	0xbd992eb4	-0.07479611
226	0x3d8a92a6	0.06766252
227	0x3e319082	0.17340282
228	0x3dd7d8f2	0.10539426
229	0x3de0db4a	0.10979326
230	0xbec25d5c	-0.37961853
231	0x3e25fcb2	0.16209677
232	0xbf1c249e	-0.60993373
233	0xbe3e89f7	-0.18607317
234	0x3d9fd451	0.07804168
235	0x3e2f3961	0.17111732
236	0x3c3f65c1	0.011681975
237	0x3e1d3ac4	0.15354449
238	0xbeacc11c	-0.3374108
239	0xbe228415	-0.15870698
240	0x3b457932	0.0030132052
241	0x3db8bb87	0.09020143
242	0x3e9ca9d7	0.30598328
243	0xbe73ca06	-0.23807535
244	0xbd0ffdb2	-0.035154052
245	0xbc68112e	-0.014164252
246	0x3dce8c9e	0.10085414
247	0x3eb9c276	0.36281174
248	0xbecfe395	-0.4060332
249	0xbe979a25	-0.2960979
250	0x3dc4c81f	0.096084826
251	0xbdef1ecb	-0.11675795
252	0x3e4d3fc6	0.20043859
253	0x3e201060	0.15631247
254	0xbe22f1e5	-0.15912588
255	0xbeab7234	-0.33485568

actor.2.bias f4 [32]
0	0xbda7cbc9	-0.08193166
1	0x3e1395c3	0.14412598
2	0x3e0e738c	0.13911265
3	0x3de5c42b	0.11219057
4	0x3e5b94a9	0.21443428
5	0x3e5a07c9	0.21292032
6	0x3e125625	0.14290674
7	0x3db5bd15	0.08873955
8	0xbe13793b	-0.14401715
9	0x3e05c315	0.13062699
10	0x3d3b748d	0.04576545
11	0xbcaee3b7	-0.021348817
12	0x3ce9863a	0.028506387
13	0x3d51287b	0.051063996
14	0x3bbae628	0.0057037063
15	0xbdba59b3	-0.0909914
16	0xbd99cfa3	-0.07510307
17	0x3e2e59d1	0.1702645
18	0x3e8f1e3a	0.2795275
19	0x3e5a30ec	0.21307725
20	0xbd7b2c4d	-0.061321545
21	0xbdcb6c3d	-0.09932754
22	0x3b0bb6cb	0.002131867
23	0xbd8c6449	-0.068550654
24	0xbe62bdc7	-0.22142707
25	0xbddd6930	-0.108110785
26	0xbdf50fcc	-0.11965904
27	0x3df8f271	0.12155617
28	0xbdc21912	-0.09477438
29	0x3e16043b	0.14650051
30	0x3e49f1ff	0.1972122
31	0x3dd368d9	0.103227325

actor.4.weight f4 [2, 32]
0	0x3e9328cc	0.28742063
1	0x3b8d220b	0.0043070368
2	0xbcc5bdf8	-0.024138436
3	0xbe8af805	-0.2714235
4	0xbdc9bd5a	-0.09850569
5	0x3eec0919	0.4610069
6	0x3e8590f3	0.2608715
7	0x3f55c1fe	0.83499134
8	0xbe3eb62a	-0.18624178
9	0xbd8cc4bb	-0.06873461
10	0x3deb5532	0.11490859
11	0xbf56552c	-0.8372371
12	0xbd036be3	-0.03208531
13	0xbd5dc1b0	-0.054139793
14	0xbd75a265	-0.059969325
15	0x3ef8e074	0.48608744
16	0xbf046b7b	-0.517265
17	0xbdb93c57	-0.09044712
18	0xbe38a4d0	-0.18031621
19	0x3ddcc844	0.10780385
20	0x3f784aad	0.96988946
21	0x3f745b9b	0.9545228
22	0xbd87b12b	-0.06625589
23	0xbddc31e3	-0.10751703
24	0xbf53489e	-0.8253268
25	0x3f82a7d0	1.0207462
26	0x3f165614	0.58725095
27	0x3e109791	0.14120318
28	0xbe911bd6	-0.2834155
29	0xbeffa807	-0.49932882
30	0xbf118e16	-0.5685743
31	0x3e27e3f9	0.16395558
32	0x3ed05bd8	0.4069507
33	0x3ee4ff24	0.44725907
34	0xbe1dda28	-0.15415251
35	0x3e8d1def	0.275619
36	0x3f12ab6d	0.57292825
37	0xbe865b88	-0.26241708
38	0x3f43a22b	0.76419324
39	0x3e4fe7e8	0.20303309
40	0x3ed3abc1	0.41341975
41	0xbea64c25	-0.3247997
42	0x3e9517da	0.2911976
43	0x3d15b88b	0.036552947
44	0x3eae3dbc	0.34031475
45	0xbea84f18	-0.32872844
46	0xbe21619c	-0.15759891
47	0x3e26b34a	0.16279331
48	0xbf225690	-0.63413334
49	0xbebec125	-0.37256733
50	0xbf074515	-0.52839786
51	0xbf6327a0	-0.8873234
52	0xbd709287	-0.05873349
53	0xbec2c4de	-0.38040823
54	0x3e97a924	0.29621232
55	0x3f7f2b5f	0.99675554
56	0x3e238e55	0.15972264
57	0x3e2831fc	0.16425318
58	0xbe572dcc	-0.21013564
59	0x3eed44b4	0.4634148
60	0x3ed7d429	0.42154053
61	0xbf197be2	-0.59954655
62	0xbf0b7563	-0.5447599
63	0xbe4151a6	-0.18878803

actor.4.bias f4 [2]
0	0xbbd856e4	-0.006602155
1	0x3c9b63ec	0.018968545
