results/SandingEnvDifficult/ddpg/model/model_parameters_0.pt (torch, 36482 bytes, 22 tensors)

value.0.weight f4 [32, 20]
00000000: e1b1 803d 4e96 9c3b 489b cebd 6240 8c3d
00000010: 2a30 063c c15e 7ebd 9df4 8dbe 0be7 9fbe
00000020: 44f1 fd3c b8f8 8d3d 5fd7 d73d 7654 69bb
00000030: 970b 243e 03df 47bd eb05 a0bc 304d 283d
00000040: a4a0 b4bd 99a8 aa3e 614f 8d3e 2363 593e
00000050: 33ac 533d 4726 223c 31cf a63d 291b b93c
00000060: 5f02 d63d dff2 633d cd6b aabe cb75 f53d
00000070: ca4c 00be 2ebf c5bd b09a 713d 5763 43be
00000080: 376f c9bd 587f 913d de06 58bd f687 7c3e
00000090: a47e 24be e2a5 1e3e 3cdf 0cbf 273c d93e
000000a0: 6f9a 023b c593 3b3c 300e df3d 5286 1fbe
000000b0: fd9a 1cbe 1b5b 1c3d 7711 e0bd 4abd 09be
000000c0: d326 0d3e 50d5 28be 1cdc 8f3d e217 07bc
000000d0: 3217 21be 92cf 193e f9dc bc3d a116 c63d
000000e0: ce3e fabd 8889 72bd 2bea 97be 907f e73d
000000f0: 4abe 613b 9c7c 283d 0081 d13d 5b9a c4bd
00000100: abfd c1be 20ca 42be a3ac 853d 3cd9 eebc
00000110: 0a89 393d 7396 1bbe 75fc a53d b95a d83d
00000120: 0a56 7c3c 7dff 443d 3516 2dbe 5da1 173d
00000130: 0322 f4bd bbc9 633e 5e12 ca3c dac3 613e
00000140: d24d 2d3d ad16 3cba d04f 713e afc7 5f3d
00000150: 1fa7 733e 182e 69be aef9 3e3e 0012 c0bd
00000160: 4af0 c1bb 2cb3 04bd 254e a7bd e967 2d3d
00000170: b8ae 4dbe 9ffc 16bd 5c32 883d fe62 b9bd
00000180: 9a21 8bbd d876 52be 4760 943e 4683 e3bd
00000190: 012e 37bd e0ab 383c f228 4f3d 5e4c 8fbd
000001a0: 88e2 c13b 45c6 f13d 7ea8 e1bb 3d82 443d
000001b0: 0847 8fbc 65e8 6abe a915 fe3c 9e20 f83d
000001c0: 2108 dbbd 7ed6 0539 6306 4e3e 3732 f7bd
000001d0: f0ed 1cbe f559 2dbe d154 3c3e eab8 5bbd
000001e0: 8d99 afbd 03c0 6cbc 3aa7 343d bbfd bc3d
000001f0: 0cda 1f3e d1ac cdbe 783b f83d b9ed 8abd
00000200: dbb1 953d 52ba 013c 6c4d db3d 4295 bcbc
00000210: 6a09 44bd 8847 87bd 3a9e e8bc a45c 34bd
00000220: 768b 073e 54ec 683e ad79 ab3e 4480 28bf
00000230: 9edc 1f3c 2981 583b 57cb 1f3e a6dc 563e
00000240: 66c9 2c3d dbfb 0abe 6745 683e 3e91 cbbd
00000250: d81a 61bd b7bf d0bd 3c20 02be b2ca 07bd
00000260: f440 4d3d 97ac 053e 1a34 34be 68f2 eb3d
00000270: 1659 1f3e da29 833d 1d94 c93d 2b19 52bf
00000280: 2e03 283d a98a 663c b041 40be 23d6 6abd
00000290: 30d1 eb3d e850 a5bd 75a3 643e d7b7 75bc
000002a0: 8b99 9c3d 00f7 a4bd 58fc 0bbd 41ba 62bd
000002b0: 0f1d fb3d d058 e2bd 9233 743e 4cc2 56bd
000002c0: 01b8 7d3e 3795 d8bd 0ea3 183e 5efd 78be
000002d0: ca35 ca3c 2465 ae3c e58c 993e 2ae9 8d3d
000002e0: d174 86bd b4cf 5bbc 10ca cfbe 8542 7c3e
000002f0: ff97 a83c e36a ee3d 1092 aebc 26fc 833e
00000300: 730e 493e 5c63 113e 5a0d d6bd 4215 9a3d
00000310: b0a1 ecbd 8c7b 41be ba94 1e3d a966 af3e
00000320: 2acc 8a3c 6126 ebbb 653d 8cbd 5b03 0bbe
00000330: b19e 443e c086 4bbe 928c 353e 3a52 293b
00000340: 36a8 59bd 567e 41be 8a90 abbc 2381 cebc
00000350: 97ba 573d cb28 66bd d0e9 84bd ab0d 9d3d
00000360: 950e b43d 01d2 90bd 5997 443e 19c4 0cbe
00000370: 8185 843b bdd2 9a3c 766a c13d 17ad 303e
00000380: c73f 703d 4eba 0b3e 9869 7dbd 09b6 30be
00000390: 85c0 68bc d0a1 023c 08ba aebd 1987 42be
000003a0: 55bd 9abd 7eaa 5fbd 6f1d 9e3d 942a b3bd
000003b0: dabe 6fbe fc9c e43d 05e2 6fbe 6c76 c4bd
000003c0: 0265 ee3d 0b11 02bd f330 07be b7d4 2dbe
000003d0: 7e2b bfbd 5f93 e83d 6a5a d0bd 266a 24be
000003e0: 7313 3ebe 4075 92be d7fd 013e e212 43bd
000003f0: b3fe 943d 79b4 c7bc a294 f3bd 0b36 07be
0.06283928 0.00477866 -0.10088211 0.068482175 0.008190194 -0.062102083 -0.27725688 -0.3123096
0.030998833 0.06932205 0.10539126 -0.003560332 0.16020046 -0.048796665 -0.019534072 0.041089237
-0.08819702 0.33331755 0.27599624 0.21229224 0.051677894 0.009896821 0.081449874 0.022595959
0.10449671 0.05565154 -0.3328537 0.11985358 -0.12529293 -0.09655605 0.058985412 -0.19080864
-0.09835666 0.07104367 -0.052740924 0.2466124 -0.16063935 0.15492967 -0.5502813 0.42428705
0.0019928475 0.011448805 0.10891378 -0.15578583 -0.15293498 0.038172822 -0.10940831 -0.13451114
0.13784342 -0.16487622 0.070244044 -0.00824544 -0.15731505 0.15020588 0.09221835 0.09672285
-0.1221901 -0.05921319 -0.29670843 0.113036275 0.0034445697 0.04113446 0.10229683 -0.095997535
-0.37888846 -0.19022417 0.065270685 -0.02915632 0.045296706 -0.1519411 0.08104793 0.10564179
0.015401373 0.048095215 -0.16903003 0.037019122 -0.1192055 0.22244923 0.024666961 0.22047368
0.042310543 -0.000717501 0.23565602 0.054633792 0.2379422 -0.2277149 0.18649933 -0.09378433
-0.0059185373 -0.032397434 -0.08169202 0.042335425 -0.20086181 -0.036862012 0.0665023 -0.090520844
-0.06793518 -0.20553148 0.28979704 -0.11109023 -0.044721607 0.011271447 0.050576158 -0.06996988
0.005916897 0.11805395 -0.006886541 0.047975767 -0.017489925 -0.22940214 0.031016188 0.12115596
-0.1069491 0.00012763773 0.20119624 -0.120701246 -0.15325141 -0.16928847 0.1839173 -0.053643145
-0.08574209 -0.014450076 0.044104792 0.09228083 0.15610522 -0.4017091 0.12120718 -0.06783623
0.07309314 0.007917957 0.107081264 -0.02302039 -0.04786054 -0.066054404 -0.02839576 -0.04403366
0.13236794 0.22746402 0.3349127 -0.6582072 0.009757189 0.003303597 0.15604912 0.20982608
0.042184256 -0.13572638 0.22682725 -0.09939812 -0.05495724 -0.10192817 -0.12707609 -0.03315229
0.050110772 0.13054119 -0.17598 0.11520845 0.15561327 0.06404467 0.098427035 -0.82069653
0.041018657 0.014071145 -0.18775058 -0.057333123 0.11514509 -0.08072072 0.22327979 -0.014997444
0.076464735 -0.08054924 -0.0341762 -0.055353407 0.12261402 -0.11052096 0.23847798 -0.05243139
0.24777223 -0.105753355 0.1490595 -0.24315402 0.024683852 0.021288462 0.29990306 0.06929238
-0.0656525 -0.0134162195 -0.4058385 0.2463475 0.02058029 0.11641481 -0.021309882 0.25778311
0.19634418 0.14198059 -0.10451765 0.07523586 -0.11554277 -0.18894786 0.038716055 0.3425801
0.016943056 -0.007176206 -0.068476476 -0.13575499 0.19201161 -0.19875622 0.17729405 0.0025836364
-0.053138934 -0.1889585 -0.020942945 -0.025208062 0.05266818 -0.056191247 -0.06489909 0.076686226
0.08791844 -0.07071305 0.1919836 -0.1374668 0.004044235 0.018899316 0.09444134 0.17253529
0.058654573 0.13645288 -0.06186828 -0.17256941 -0.0142060565 0.007973149 -0.085315764 -0.18996848
-0.075556435 -0.054605953 0.07720458 -0.087483555 -0.23412648 0.11162755 -0.23426063 -0.095929
0.116403595 -0.031754535 -0.13202266 -0.16975676 -0.09334467 0.11356234 -0.10173495 -0.16056117
-0.18562107 -0.2860508 0.12694488 -0.04762543 0.072751425 -0.024378048 -0.11893584 -0.1320421

value.0.bias f4 [32]
00000000: d051 843d eac7 6d3e c7c8 143d 0f38 8bbe
00000010: 623f 733d 49a2 383e 3557 54be b14e 0ebe
00000020: b452 0e3e d900 30be 8029 3f3d 2a45 e8bd
00000030: 5843 1f3e 0ff8 563e cd84 2b3e fef4 a6bd
00000040: 256e c4bd de39 f93d e12d 83be 3fb1 17bd
00000050: dab2 96bd dab2 4e3e 4dbd 403e d4bb 80be
00000060: abc3 513e 111c 843c 834b 983b a765 11bc
00000070: 3a67 f53d bb7e 953d ffcb 89bb 22de 9d3a
0.06460917 0.23220792 0.03632429 -0.27191207 0.05938662 0.18030657 -0.20736392 -0.13897206
0.13898736 -0.17187823 0.046670437 -0.11341317 0.15553033 0.20993064 0.16749878 -0.08152197
-0.09591321 0.121692404 -0.2562094 -0.03703427 -0.07358332 0.20185414 0.18822213 -0.251433
0.20484798 0.016126664 0.0046476736 -0.008874333 0.119825795 0.072995625 -0.0042052264 0.001204435

value.2.weight f4 [32, 32]
00000000: be10 50ba e06e 2f3e 606f 8dbd 87d0 38bd
00000010: 8c45 d9bd 30e0 d13d af5d f0bc 5d15 263e
00000020: 2578 c23d f6b2 82bd e7a1 d03d f602 603d
00000030: f2c2 f0bc 8607 0cbd 562c d33d ff72 fc3c
00000040: 0bc6 e83d b841 9e3d 10ef b4bd c6b4 5e3d
00000050: 27db 5bbd 850a 22bd 812c acbd d7a4 50bd
00000060: 1554 12be d0c0 50bc 152f 803d d3a1 143e
00000070: 87f6 413e a446 af3d 13f4 abbb 3410 a83d
00000080: fb41 d6bb 907b bf3d 5739 31be d006 75bd
00000090: 6ec3 4fbe 977a 0cbe 2bfb b3bc ad6e 183d
000000a0: 51ef 14bd a72f 123e f73b 4fbe 4f26 ae3d
000000b0: 8821 513c 5adc 0fbe 5750 b43c 1337 a3bb
000000c0: 9304 193e 2277 263e 113d ad3c c2ad dbbd
000000d0: c310 26be ce64 b63c 3bee c3be d319 58be
000000e0: 1a74 e7bd 1573 01be 042d bdbd 0293 ff3d
000000f0: f720 f53d f6c9 c03d 4c12 203e 3a5c 113e
00000100: 5240 0f3d 9b09 223e cbde b73d 8b3e 74be
00000110: 92e0 a7bb abf9 42bd cf1e e33c 7248 903d
00000120: 58ae f13c af45 993c 2276 c5bd 57fb 963c
00000130: 4820 90be 09bc 233e 2042 c33d 1d8f 24bd
00000140: cee2 a5bd 8e45 8c3d d4d6 d3bd d363 653e
00000150: e211 0e3e c12b f3bd 5d02 63bd 24f7 2a3b
00000160: 89c1 29be 87e4 d33d f6b4 9abd 6124 46be
00000170: 504d acbd 65f8 babc 50f3 823d 866d 44bd
00000180: ece9 173e d0e3 89bd f149 ef3d 8433 383e
00000190: 9097 42bd 6397 073d 79ac 0abe cb1c 92bd
000001a0: 6c56 e1bd 5b5c 4cbd 9897 bc3d eddb 103e
000001b0: 2caf 2ebe 0069 843d ed9a 2a3e b027 f2bc
000001c0: 725a c3bd 9c43 3a3e 6b77 d6bd 72de 013d
000001d0: 6bf7 ae3d 8371 b23c 7415 0b3d e132 62be
000001e0: b71f b93d 9c0e 103e ec7a 313c bd43 8f3d
000001f0: 6d4f b13c 6ecc 8bbd 5a1c 2bbe c655 fbbc
00000200: 4fec 94bc 1243 433d ca64 45be 13b5 5b3d
00000210: e291 1d3e 4377 73bb f1aa f83c b94c 0f3e
00000220: c463 96be f35a debd 32c7 133e 49c7 c13d
00000230: 471f 853d bfaa ffbc 39f2 c33d 3df2 883d
00000240: 260e 82bc 65ca d6bc 1464 123d 7b82 743e
00000250: 2d27 22be 0e3c bebe 5544 34bd 329b 59bd
00000260: 33e6 7a3d 8e43 d5bd 11fa abbd 7430 db3c
00000270: 26c4 da3d 5628 5d3d c9e3 8cbe 4e03 97bd
00000280: 2c65 c9bd 8a22 293d 8423 843d da26 6ebe
00000290: 14bf 063c 4b3d 51be 2a08 e7bc 3799 5abe
000002a0: cef6 c53d 49f1 793e 45f0 26bc 1f80 24bd
000002b0: d515 a43d 46c6 403e bfae 983d 4821 dbbd
000002c0: c9b5 5ebe d14f 75be b73b 22be 63b7 2bbe
000002d0: a108 023d f661 adbd 42bd f0be d6fc b6bc
000002e0: a6e8 523d 50c5 253c 6127 823c 3b71 8b3d
000002f0: 034f ecbe 804d 4f3e b38b 92bd 6b10 afbe
00000300: 92ff 9a3d 51cc 91bd 84b2 fa3b 3962 7f3c
00000310: 8a69 a93d 9908 07be 3188 3a3d ad4a 47bb
00000320: c1d4 9c3d 3d2a d1bd d39d 25be 06dc d13d
00000330: ef48 8bbc 23c5 7e3b 227d 453d 61e8 84be
00000340: e6a3 a0bd 6ff5 863b 5f1c a1be 2347 e2bd
00000350: a953 02be d73d 47be 56f8 433e 1961 0b3e
00000360: 72f7 a8bc a20d aabd b7e9 da3d 414f 123c
00000370: 92c2 003e f3fa 4e3e 437c 073e 4dfc 7e3d
00000380: dcca 69bc 4d3e 5ebc ffaa d13b 549f c1bd
00000390: 266e b03d dfcc 31be b99b 60be e551 d6bd
000003a0: a1ba b63d f6a9 9ebb 6d8a 57be 172d 183e
000003b0: cf62 29bd 9ad2 46be 4c8d 213e 59d1 503e
000003c0: ed76 ae3d cfe9 be3b d794 ccbd 313e d6bc
000003d0: d856 d7bd 0e2f ff3d ee36 ef3c fcb2 c53b
000003e0: ee86 943d c1ad a7bd 0be7 1fbe 2132 213e
000003f0: 7a2a 713c 0d2d 32bc 0086 f53d 5061 2cbe
-0.0007937065 0.17132139 -0.06906009 -0.045120742 -0.10608968 0.102478385 -0.029341547 0.16219087
0.09495572 -0.0638179 0.101871304 0.054690324 -0.029389832 -0.034186862 0.10311191 0.030816553
0.11365899 0.077273786 -0.0883466 0.054371618 -0.053675797 -0.039560813 -0.08406926 -0.050938454
-0.14289887 -0.012741283 0.0625898 0.14514856 0.18941699 0.085583955 -0.005247602 0.082062155
-0.006538627 0.093497396 -0.1730703 -0.05982095 -0.20289394 -0.1371864 -0.021970352 0.037214924
-0.036361042 0.1427599 -0.20237719 0.085034005 0.012764342 -0.14048901 0.022010965 -0.0049809306
0.14943151 0.16256383 0.021147283 -0.10726501 -0.16217332 0.022264864 -0.38267693 -0.21103601
-0.113014415 -0.12641557 -0.09237102 0.124792114 0.11969178 0.09413521 0.1563198 0.14195338
0.03497345 0.15823977 0.08978041 -0.23851983 -0.0051232064 -0.047601383 0.027724652 0.07045068
0.029502079 0.018709986 -0.09641673 0.018430395 -0.2814963 0.15989698 0.09534097 -0.040175546
-0.080999 0.06849204 -0.103437096 0.22401361 0.13874009 -0.1187358 -0.055422176 0.0026087249
-0.16577734 0.103463225 -0.07554047 -0.19349815 -0.08413184 -0.022823522 0.063940644 -0.047956012
0.14835328 -0.06732905 0.11684025 0.17988402 -0.047507823 0.033103358 -0.13542356 -0.07134398
-0.11002812 -0.049892765 0.09208602 0.14146395 -0.1705901 0.0646534 0.16660662 -0.02955994
-0.095387354 0.18189853 -0.10471996 0.03170628 0.08543285 0.021782642 0.033956006 -0.22089721
0.09039252 0.14068073 0.0108325295 0.06995342 0.021644318 -0.06826101 -0.16710034 -0.030680548
-0.018179087 0.047671385 -0.19276729 0.053639483 0.15387681 -0.0037149943 0.030354949 0.13994111
-0.2937299 -0.10857191 0.14431456 0.09461839 0.06500106 -0.031209348 0.09567685 0.06686828
-0.015875887 -0.026219556 0.035739973 0.238779 -0.15835257 -0.37155193 -0.04401048 -0.05312652
0.06125469 -0.10413276 -0.08397306 0.026756503 0.106819436 0.053993545 -0.27517536 -0.07373677
-0.0983375 0.041292705 0.064520866 -0.23257008 0.0082242675 -0.20433538 -0.028202135 -0.2134751
0.09666215 0.24408449 -0.010189121 -0.04016125 0.08011977 0.18825635 0.07455205 -0.10699707
-0.21749033 -0.23956229 -0.15843092 -0.16769175 0.03174651 -0.0846595 -0.47019392 -0.022337358
0.051491402 0.010117844 0.015887918 0.068087064 -0.4615403 0.20244408 -0.07155552 -0.34192213
0.075682774 -0.071190484 0.0076506753 0.015587383 0.08272083 -0.13186873 0.04554004 -0.00304095
0.07657767 -0.102131344 -0.16173486 0.10247044 -0.01700255 0.0038874827 0.04821504 -0.2595854
-0.07843761 0.0041186134 -0.31466958 -0.110487245 -0.12727226 -0.19457184 0.19137701 0.13611259
-0.020625804 -0.083033815 0.10689109 0.008930028 0.12574223 0.20212917 0.13230996 0.06225233
-0.014269557 -0.013564658 0.006398558 -0.094542176 0.08614759 -0.17363308 -0.21934403 -0.10464839
0.089223154 -0.0048420383 -0.21048899 0.1486095 -0.041353997 -0.19416276 0.15776557 0.2039236
0.08518777 0.005826212 -0.099893264 -0.026152702 -0.10514611 0.12460147 0.029200997 0.0060332995
0.07252298 -0.08187438 -0.1561548 0.15741779 0.0147196 -0.010874999 0.11988449 -0.16833997

value.2.bias f4 [32]
00000000: fb29 4e3e 5bbf acbd 4b41 393d e4b5 c33d
00000010: b188 acbe 7060 823d 91d6 313e 66f5 953d
00000020: 0442 52be 7de4 36be e2c5 9cbe a795 773d
00000030: 4fd6 413d b2ab 663e f5c5 443e 0e01 fe3c
00000040: 3af8 303e 8a33 e03d 2cb9 12be 72b6 553e
00000050: 51e0 9fbd 54a8 f7bc 7013 45be b940 56be
00000060: b0b3 543d a7c1 a13d 7753 82bc d050 71bd
00000070: 0af2 5f3e 906d 95bd cab8 c8bb cc69 063e
0.20133202 -0.08434936 0.045228284 0.09556177 -0.33698037 0.0636605 0.17367007 0.07322197
-0.20532995 -0.17860599 -0.30619723 0.060445454 0.04732352 0.22526434 0.1921614 0.031006362
0.17282191 0.1094733 -0.1432845 0.20870379 -0.07806457 -0.030231632 -0.19245696 -0.20923127
0.051929176 0.078982644 -0.01590894 -0.05891496 0.21869674 -0.07296288 -0.006125544 0.13126296

value.4.weight f4 [1, 32]
00000000: a126 d13c bfb2 d0bd 94d4 893d b43b 5dbd
00000010: c4a4 a7bd 8d76 a4bd 1c1b 583d fd73 a93d
00000020: 154e 56bd 0e56 06bd 195b 14bd 14cf d93c
00000030: 3da7 763d b3be 0a3d 17ca e0bd 90e8 783d
00000040: 843b b03d 19d2 6e3d 7f89 98bd 4957 ca3d
00000050: 9645 603d 21e4 36bd 5128 45bd 7720 81bd
00000060: 39de f1bd 6f65 623d ddcf 0ebd 9d97 723d
00000070: 24f2 663d f87c c5be 0447 cc3d ca56 733d
0.025531115 -0.10190343 0.06729999 -0.054012015 -0.081857234 -0.08030424 0.05276023 0.08274076
-0.05232056 -0.032796912 -0.03621969 0.026588 0.060218085 0.03387327 -0.109760456 0.060768664
0.08605102 0.058305833 -0.074481 0.098799296 0.054753862 -0.044651154 -0.04813415 -0.0630502
-0.11809964 0.055272516 -0.034866203 0.05922662 0.056383267 -0.38571906 0.09974483 0.05940894

value.0.weight f4 [32, 20]
00000000: 32d0 773d 31c5 843b 5483 cdbd 5658 8d3d
00000010: fc82 233c 9be2 7fbd b4c0 8dbe 165d 9fbe
00000020: 4614 fc3c 368b 8c3d 0c71 d83d f11f 56bb
00000030: a8c1 243e 97c0 47bd 5bff a1bc 7750 273d
00000040: 9b05 b6bd f8df aa3e f8da 8d3e 9c79 583e
00000050: 3696 523d 1457 273c 83ee a73d 8598 bd3c
00000060: ab1b d23d 3bea 623d bda5 aabe d4e9 f13d
00000070: e039 00be c1f5 c5bd 09b3 713d 425d 43be
00000080: 2ae5 c7bd 1202 933d 2b30 5dbd a43d 7b3e
00000090: 7e7b 23be b484 1f3e 34f5 0cbf 5f19 da3e
000000a0: a02f 493a c399 273c 0902 e33d 678c 1dbe
000000b0: 720a 1cbe 5002 1a3d 19d1 dfbd f684 0abe
000000c0: 4a63 0c3e 77cc 29be 721c 903d 2f15 05bc
000000d0: c910 21be aa2e 1b3e 3113 c03d d94c c93d
000000e0: c3d1 f8bd 708e 73bd 7952 99be 3923 e83d
000000f0: f5ac 803b 4349 203d 0f4d d33d 4cce c2bd
00000100: 4383 c1be 3683 42be 5695 8a3d 732d e3bc
00000110: 0cfe 333d 1e18 1bbe 35c8 a73d 7926 da3d
00000120: defe 833c 926c 423d cdde 2dbe 167f 143d
00000130: 29a0 f5bd 5887 643e c720 ba3c a3bb 613e
00000140: 4ea9 2b3d d7e0 d9ba 6cee 703e 2d42 5e3d
00000150: af1b 733e 4a47 69be 30e7 3f3e d9e7 c1bd
00000160: a810 09bc 9e75 03bd aacd a5bd dd68 303d
00000170: f35c 4dbe 11f1 1ebd 581c 893d 0279 b8bd
00000180: 684c 8abd a9fe 50be 576d 903e 5f1f e6bd
00000190: 0d10 37bd b01b 343c 61d7 473d 28f5 92bd
000001a0: 4e4a ea3b 226e f83d 3d21 03bc 5cc9 403d
000001b0: d47f 93bc 941a 6bbe 14a0 fb3c 3983 f73d
000001c0: eebc dbbd 5489 9bb8 873f 4e3e e7bf f6bd
000001d0: ede0 1ebe 1c75 2ebe 8f33 383e 9cb3 61bd
000001e0: 7d48 acbd 9aa3 56bc 8b07 343d e4ad bc3d
000001f0: 1f3f 213e ea86 cdbe 9aa6 fb3d f0e8 89bd
00000200: de79 963d cc4a 1b3c 2616 de3d 3b72 b1bc
00000210: 1123 41bd 8f57 8bbd d01c efbc ef9b 37bd
00000220: 1932 063e a330 6a3e 8b5f a93e e5fd 27bf
00000230: 38b7 233c 9a50 343b 44d3 1e3e 93e4 553e
00000240: c898 283d 20c6 0abe 283a 683e e8ae cabd
00000250: c3e7 5fbd c7f6 cfbd f159 02be 7fb1 08bd
00000260: 097c 4e3d 7c8a 053e bb8b 35be 1f43 e93d
00000270: 47b8 1e3e 2c5b 833d 8672 c13d d792 51bf
00000280: 15c9 223d 0f07 533c 7923 41be 335d 6ebd
00000290: 0dab ea3d 68e5 a1bd 2e7e 653e 65fc 56bc
000002a0: 01d8 9b3d 71e4 a6bd 7e0e 0ebd 67cc 64bd
000002b0: 17ed fe3d a8a0 ddbd aa9c 713e e31d 61bd
000002c0: c739 803e 6c3d d4bd 0fa9 163e 2e3c 7bbe
000002d0: 7fa2 c23c 4f4b bb3c 2432 983e 047e 883d
000002e0: 4181 84bd 4ead 75bc 67d8 cfbe 8db0 7c3e
000002f0: 581b b33c 2a36 ef3d e6c1 b1bc 2dc9 833e
00000300: 5c97 483e d6e7 113e b222 d5bd eaff 9a3d
00000310: 919b edbd 7a4e 42be 85f5 163d 1353 b03e
00000320: ce39 803c 3ba9 08bc e430 90bd 14fd 0cbe
00000330: 98a5 423e a56a 49be cddb 363e 765f 8a3a
00000340: 4bfb 58bd 2c84 41be 50bd b3bc e9ad d6bc
00000350: bdf7 503d 8e0c 6ebd 4c79 84bd 2f7e 9d3d
00000360: 6852 b53d 9700 92bd c1e6 443e 1d61 0bbe
00000370: c9ec 603b d6ff a63c b8b2 c03d 3a51 303e
00000380: 36ef 6f3d 2ca1 0b3e 1c19 80bd bddd 31be
00000390: c4cb 71bc b044 0b3c 1af9 aebd a4a6 42be
000003a0: b71c 9bbd bbf0 5bbd 891f 9e3d 7a28 b3bd
000003b0: 6f00 6ebe 6bdb e43d 9e2b 70be 3d98 c6bd
000003c0: aa8f f23d abfb fbbc 23ac 05be e74f 2cbe
000003d0: 892f c2bd 959c e83d 8ad8 cfbd c7fe 22be
000003e0: 232c 40be a241 93be 0d30 013e 104a 46bd
000003f0: 52c1 943d 054e bbbc 15d8 ecbd cad7 03be
0.060501285 0.0040518274 -0.100348145 0.06901614 0.00997996 -0.062471967 -0.27686083 -0.31125706
0.030771386 0.0686249 0.10568437 -0.0032672847 0.16089499 -0.048767652 -0.019775083 0.04084822
-0.08887788 0.33374 0.27706122 0.2114014 0.051412784 0.010213632 0.081997894 0.023144016
0.102591835 0.05539916 -0.33329573 0.11812177 -0.12522078 -0.096660145 0.05900863 -0.19078544
-0.097605065 0.07178129 -0.054001015 0.24535233 -0.15965077 0.15577966 -0.5506165 0.42597482
0.0007674638 0.010229531 0.110843726 -0.1538559 -0.1523836 0.03759986 -0.10928554 -0.13527283
0.13709751 -0.16581903 0.070366755 -0.008122726 -0.1572906 0.1515452 0.093786605 0.09829111
-0.12149384 -0.05946201 -0.29945734 0.11334843 0.003926868 0.039132368 0.10317432 -0.09512004
-0.37795457 -0.18995366 0.06766765 -0.027731633 0.04394345 -0.15145919 0.08192483 0.10651869
0.016112741 0.047466822 -0.16979523 0.03625401 -0.11993439 0.22317255 0.022720708 0.22044234
0.04190951 -0.0016622794 0.2352845 0.05426233 0.23741029 -0.22781101 0.18740535 -0.094680496
-0.008365788 -0.03209459 -0.08095868 0.043068755 -0.20054989 -0.038804118 0.06694859 -0.090074554
-0.067528546 -0.20409645 0.2820842 -0.11236452 -0.04469304 0.010992929 0.048789386 -0.07175666
0.007149971 0.12130381 -0.00800353 0.04706703 -0.01800529 -0.22959358 0.03071598 0.120855756
-0.10729395 -7.416555e-05 0.20141421 -0.12048321 -0.1551549 -0.17036861 0.17988418 -0.05510293
-0.084122635 -0.013100529 0.043952506 0.092128545 0.15746735 -0.40141994 0.12287636 -0.067338824
0.07347463 0.009478282 0.10844068 -0.021660915 -0.047152583 -0.0680381 -0.029188544 -0.044826444
0.13105048 0.22870116 0.33080706 -0.6562179 0.009992413 0.0027513863 0.15510279 0.20887975
0.04116133 -0.13552141 0.22678435 -0.09896642 -0.054664385 -0.10154491 -0.12729622 -0.0333724
0.050411258 0.13041109 -0.17729084 0.113897555 0.15499984 0.06413874 0.09445672 -0.81864685
0.039742548 0.012880101 -0.18861188 -0.05819435 0.114584066 -0.07905084 0.22411415 -0.013121699
0.07609559 -0.081490405 -0.03468179 -0.055858996 0.12447565 -0.108216584 0.23594919 -0.054960143
0.2504408 -0.10363278 0.14712928 -0.24534675 0.023759125 0.022863058 0.29725754 0.066646606
-0.06469966 -0.014994932 -0.4059479 0.24676724 0.021863624 0.11680253 -0.021698903 0.25739422
0.19588989 0.14248595 -0.10407008 0.07568343 -0.116019376 -0.18975249 0.03685524 0.3443838
0.015652563 -0.008341129 -0.07040575 -0.13768417 0.19008482 -0.19669588 0.17857285 0.0010557014
-0.052974027 -0.18898076 -0.021940857 -0.026205974 0.05101751 -0.05811744 -0.06468448 0.07690083
0.08853608 -0.07129019 0.1922865 -0.13611265 0.0034320822 0.020385664 0.09409088 0.17218485
0.05857774 0.13635701 -0.06254789 -0.17369743 -0.014758054 0.008500263 -0.08543606 -0.19008881
-0.07573836 -0.053696375 0.077208586 -0.08747955 -0.23242353 0.11174663 -0.23454139 -0.09697006
0.11843808 -0.030759653 -0.13053946 -0.16827355 -0.09481723 0.11357991 -0.101487234 -0.15917502
-0.18766837 -0.2876101 0.12615986 -0.048410475 0.072634354 -0.022864351 -0.11564652 -0.12875286

value.0.bias f4 [32]
00000000: 72f6 823d 0071 6d3e 6899 163d c7af 8bbe
00000010: 79df 6e3d 94de 383e 0ea2 55be 0c92 0ebe
00000020: d15b 0d3e 7985 2fbe 7155 423d 410c e7bd
00000030: 05ff 1f3e f4f1 563e 81ab 2b3e 2b04 aabd
00000040: a9e1 c3bd 5f84 fb3d 613f 83be e1fa 19bd
00000050: 3550 98bd 9afa 4e3e f31b 413e 2106 81be
00000060: 5fa9 523e d0f2 8b3c 8031 a93b 4e55 25bc
00000070: af90 f53d ce2a 953d c96c 60bb 85c6 b73a
0.06394662 0.23187637 0.036767393 -0.27282545 0.05831859 0.18053657 -0.208626 -0.139229
0.13804556 -0.1714076 0.047444765 -0.11281634 0.15624626 0.20990735 0.16764642 -0.08301576
-0.09564526 0.12281107 -0.25634292 -0.037592772 -0.07437173 0.20212784 0.18858318 -0.25199988
0.20572422 0.017083555 0.0051633716 -0.010091139 0.11990487 0.07283555 -0.0034244529 0.0014020955

value.2.weight f4 [32, 32]
00000000: e63b 9aba 3755 2f3e 7192 8dbd 641b 3bbd
00000010: 9fa9 d9bd 9a13 d23d a46f 01bd 45fc 253e
00000020: 4ff1 c23d 0ef4 84bd eb86 d03d 3170 613d
00000030: 5b6a f5bc 670b 0ebd 9d90 d43d d189 fc3c
00000040: 7c68 e73d e20e 9d3d 46fb b4bd a074 5e3d
00000050: ba2c 5cbd fb9b 1ebd 7f0e afbd 3c2d 51bd
00000060: ebd6 10be 0268 45bc 797c 813d 501c 143e
00000070: 6276 423e 8fed af3d f98e acbb 2fc4 a83d
00000080: 83b7 ddbb 79f1 c03d 4282 31be eb2e 78bd
00000090: 5a48 4cbe 52bd 0bbe 9a07 afbc 6b12 143d
000000a0: b538 11bd 324e 133e b091 4ebe 3977 b03d
000000b0: bb7b 4c3c e11b 0fbe f0f1 bc3c 970d b6bb
000000c0: cc39 183e 466b 263e 76c6 c63c caff d7bd
000000d0: 51cc 28be 4e50 aa3c 1fc6 bfbe 0023 57be
000000e0: 1e12 dfbd ebdc 02be d442 bcbd 3b34 ff3d
000000f0: 2cb8 fb3d 8bd1 bd3d 295a 1f3e f507 123e
00000100: 6023 0f3d f752 213e d32c b83d 139c 73be
00000110: ba98 cfbb 28c3 45bd 24e6 d23c f21f 8f3d
00000120: 1f29 ea3c e430 963c 4214 c6bd 38e2 9c3c
00000130: ed52 90be 7054 233e 632a c53d 215c 22bd
00000140: 6bfe a8bd e118 8d3d 7e49 d2bd 8a73 653e
00000150: be3c 0d3e 6064 f3bd c346 64bd b2a4 193b
00000160: 0f6e 2abe 476d d33d e132 9cbd 6cc8 45be
00000170: 6355 acbd c7a0 c0bc 8dca 803d 67be 43bd
00000180: 0eb7 173e 7dc8 88bd db14 ef3d 9af5 383e
00000190: 4b4a 42bd 1231 0b3d 2f73 0abe 9ab8 92bd
000001a0: 9daa e2bd c81d 4abd 05b7 ba3d 4fa9 123e
000001b0: cb28 2ebe 74e4 823d 84f0 293e cb51 ecbc
000001c0: 866a c3bd 2fdb 3a3e a4fd d7bd 97f0 003d
000001d0: f1b7 af3d 49d2 ad3c db2a 093d f73a 61be
000001e0: 98ad b73d 8c43 0f3e 2865 363c 225f 903d
000001f0: 0a29 aa3c 9152 8abd 2528 2bbe 7771 f3bc
00000200: dfa1 9ebc e024 3f3d 74f4 44be c9e0 5c3d
00000210: c19b 1e3e 0eb2 8fbb 560f 043d d839 0f3e
00000220: 6b58 96be e24d debd 91e4 133e decc c13d
00000230: 1c80 843d f190 f7bc 744a c33d 6a1d 8a3d
00000240: 38cd 81bc d671 d8bc 396a 0a3d 0e02 743e
00000250: dab3 21be a271 bebe 1278 31bd 4f3d 5abd
00000260: 4ded 803d e577 d4bd f0a0 acbd 7061 d73c
00000270: 031f da3d b5c3 5a3d 93df 8cbe 0cfc 98bd
00000280: 1e57 cdbd 898b 273d 75b2 833d fd18 70be
00000290: 7ac3 063c 0b76 52be 968f fbbc c393 5abe
000002a0: e7c7 c73d f5cf 773e 5a8b 1bbc cb4d 26bd
000002b0: 7cf3 a33d 124a 413e 6646 973d 958f dcbd
000002c0: 6e7c 61be 4d52 74be 711f 21be 9d43 2ebe
000002d0: 72c4 003d 0579 abbd 0e16 efbe f1e0 aebc
000002e0: 07cd 503d f34b 313c 6c58 833c 4eba 8c3d
000002f0: 3a53 eabe c0e0 4e3e b172 97bd cab4 afbe
00000300: 3101 9a3d df73 93bd 7fba f53b 21c8 833c
00000310: 268b ab3d 0efb 07be 6146 423d 29ab 3bb9
00000320: 8105 a13d 754b d3bd 79c6 22be 672f cf3d
00000330: deaa 91bc 18a0 903b 6901 483d 72b0 84be
00000340: 1cb9 a1bd 1c72 8c3b 5717 a2be f1c6 dfbd
00000350: 7743 02be 0cea 47be aa1c 453e eabf 0a3e
00000360: 65b9 97bc 1da8 a9bd 0e64 d93d 4f44 183c
00000370: 3cfd 023e f410 503e 3032 063e 9f5b 793d
00000380: 7a10 5fbc 3cf3 5fbc 3229 dd3b d929 bfbd
00000390: 6872 ad3d 6cab 32be a352 60be 0113 d3bd
000003a0: 5174 b83d 9312 babb 8656 56be eb45 173e
000003b0: be6f 2bbd a6be 4abe 6cb0 213e 516a 503e
000003c0: 8fa4 b23d 2964 a93b 6543 d0bd cee2 d5bc
000003d0: 99b6 d4bd d285 fd3d a01b f73c 0998 ba3b
000003e0: adda 923d 7a2f a4bd a86a 1fbe ae0f 1f3e
000003f0: f58a 563c 2d97 46bc 9d3c f73d 2173 2cbe
-0.0011767119 0.1712235 -0.06912697 -0.04568042 -0.10628056 0.10257645 -0.03160061 0.16209514
0.09518682 -0.06491862 0.101819836 0.055038635 -0.02995794 -0.034678843 0.10379145 0.030827435
0.11299226 0.07668854 -0.08836989 0.05431044 -0.053753592 -0.038722973 -0.08547687 -0.05106853
-0.14144485 -0.012048723 0.063225694 0.14463925 0.18990472 0.085902326 -0.005266067 0.08240544
-0.006766261 0.09421057 -0.17334846 -0.06059162 -0.19949475 -0.13646439 -0.02136593 0.036150377
-0.03545447 0.14385298 -0.20172763 0.0861649 0.0124806715 -0.13975479 0.023064584 -0.0055558193
0.14865798 0.16251859 0.024264555 -0.10546835 -0.1648419 0.020790245 -0.37455842 -0.21009445
-0.108921275 -0.12779586 -0.09192434 0.12461134 0.12290987 0.09268483 0.15561737 0.14260848
0.034945846 0.15754305 0.089929245 -0.23790006 -0.006335345 -0.04828182 0.025744505 0.06988515
0.028584061 0.01833386 -0.096718326 0.019150838 -0.28188267 0.15950179 0.09627225 -0.039638642
-0.082516514 0.06889511 -0.10267924 0.22407356 0.13792703 -0.118843794 -0.055731546 0.0023444113
-0.16643547 0.103235774 -0.07626892 -0.19314736 -0.08414724 -0.023514165 0.062886335 -0.047789004
0.14815924 -0.06678865 0.116739 0.1806244 -0.047434133 0.033982344 -0.13520502 -0.07164116
-0.11067698 -0.049344808 0.091169395 0.14322399 -0.17007749 0.0639123 0.16595656 -0.028847596
-0.09541802 0.18247674 -0.10546425 0.031479444 0.08580006 0.021218436 0.033488136 -0.2199515
0.08968657 0.13990611 0.011132516 0.07049395 0.020771522 -0.067540295 -0.16714533 -0.02971719
-0.019364296 0.046666026 -0.19233876 0.05392531 0.15489103 -0.0043852394 0.032241188 0.1398691
-0.29364333 -0.10854699 0.1444266 0.094629034 0.064697474 -0.03022048 0.09535685 0.067438915
-0.015844926 -0.026421469 0.033792708 0.23828909 -0.15791264 -0.3719607 -0.0433274 -0.053281125
0.062952615 -0.103744306 -0.08429134 0.026291579 0.10650446 0.053409297 -0.27514324 -0.07469949
-0.10026382 0.040904555 0.06430522 -0.23447032 0.008225316 -0.20552842 -0.030708116 -0.21345429
0.09754925 0.24200423 -0.009493673 -0.040601533 0.08005425 0.18875912 0.07386474 -0.107695736
-0.22020122 -0.2385952 -0.1573465 -0.1701798 0.031437345 -0.08372692 -0.46696514 -0.021347495
0.05097678 0.01082133 0.016033374 0.06871472 -0.45766622 0.20202923 -0.073949225 -0.3431762
0.075197585 -0.07199835 0.0074990387 0.01608664 0.0837615 -0.13279364 0.0474304 -0.00017897472
0.07862378 -0.10317127 -0.15896024 0.10116463 -0.017781671 0.004413616 0.04882947 -0.25915867
-0.07896635 0.004286064 -0.31658432 -0.10926617 -0.12721048 -0.19522876 0.19249216 0.13549772
-0.01852102 -0.08284018 0.10614787 0.00929363 0.12791914 0.20318967 0.13105083 0.060878392
-0.013614768 -0.013668831 0.0067492956 -0.09334154 0.08469087 -0.17448205 -0.21906523 -0.10306359
0.090065606 -0.0056784838 -0.20931444 0.14772765 -0.041854613 -0.19799289 0.15789956 0.20353056
0.08722793 0.0051694107 -0.101691045 -0.026109125 -0.1038639 0.1237904 0.03016454 0.0056943935
0.07170615 -0.08016868 -0.1556803 0.15533325 0.013094653 -0.012121004 0.12072108 -0.16840793

value.2.bias f4 [32]
00000000: dd02 4e3e 019c acbd ac54 373d 1d9b c33d
00000010: 4d29 acbe 57a7 7e3d 0000 323e c32b 983d
00000020: 0919 51be 1c04 36be cb9e 9cbe 5c58 7f3d
00000030: 6bf9 413d 2d4f 663e 5485 443e 1aa4 f53c
00000040: 7020 313e 52ea e03d 47f9 12be 6cc5 543e
00000050: c36c a0bd 7d97 febc baa4 45be 141f 57be
00000060: 873f 563d a76f 9f3d 6056 7ebc c6ad 70bd
00000070: 60a5 5f3e 4fde 95bd 1c0c 92bb edfb 063e
0.2011828 -0.08428193 0.044758484 0.0955107 -0.3362526 0.062171306 0.17382812 0.07430222
-0.20419706 -0.17775005 -0.305899 0.062340125 0.047357004 0.2249114 0.19191486 0.029985476
0.1729753 0.10982193 -0.14352904 0.20778435 -0.07833245 -0.031078095 -0.1930112 -0.21007949
0.05230668 0.07784968 -0.015523523 -0.058759473 0.2184043 -0.073177926 -0.00445701 0.1318204

value.4.weight f4 [1, 32]
00000000: 2f91 d23c 147c cfbd ab36 8a3d 4939 5cbd
00000010: 2bc3 a7bd f781 a4bd bd4c 583d 6eda a53d
00000020: eee2 56bd d660 05bd 87fa 14bd 1371 d83c
00000030: 4b24 713d b445 063d 705c e1bd ede9 7a3d
00000040: bf10 ae3d 5078 713d 779e 99bd d3af c93d
00000050: 8f3e 643d e46e 36bd a4b2 45bd f7e1 80bd
00000060: f162 e9bd 19ff 603d 8011 0ebd f348 703d
00000070: 38f1 653d 4a2d c5be 8e93 ca3d 30dc 6f3d
0.025703995 -0.10131088 0.06748708 -0.05376557 -0.08191522 -0.08032601 0.05280756 0.08098303
-0.05246251 -0.032563053 -0.036371734 0.026421105 0.058872502 0.032781318 -0.11003959 0.061258245
0.08499288 0.05895263 -0.07500928 0.09847989 0.055723723 -0.044539347 -0.048266068 -0.062930994
-0.11395825 0.05493078 -0.034684658 0.05866332 0.056138247 -0.38511115 0.09891425 0.058559597

actor.0.weight f4 [32, 18]
00000000: 404f 32be 102d 9bbc fefe a2be 4a66 e43d
00000010: d9ce 943e 2b0e dcbe 64fe e7be 59e7 dcbd
00000020: e782 b93e d7eb debe 4c99 563e 2b40 d0bd
00000030: 6e91 1abe f3b3 24be 7ee8 a9be 081b e3bd
00000040: ffb7 a0be 846c ba3d 9a42 05be 9709 1c3e
00000050: abe5 503e a032 15be ce0a a93d 4438 1b3e
00000060: b65b 013f 4098 873d a643 bf3d 791e a83d
00000070: 6ce7 ab3b e760 98bd d74e 1abe a363 cbbd
00000080: ff04 c43e 0027 563c 17cc 93be b832 f6be
00000090: ee73 1abd 7faa 54bd 8111 73be 8ba2 f5bd
000000a0: 2ba7 eebe 38ec 093e 8cf9 83bd daff d53d
000000b0: 085d f23e 0a68 3cbe 94da be3d 0195 823e
000000c0: fa23 dabd 36af 16be 28e2 06be 15e1 22be
000000d0: 0b3e 03be d01f 463e 1042 adbd d169 c13d
000000e0: 0c58 86bd 959b 633e a520 7b3e 5075 e3bd
000000f0: 4056 cfbd 0b14 873d a772 babe 94d8 70be
00000100: d0d3 32bd 00d4 d9bd c111 343d 0e0c 8ebd
00000110: fdac 04be a09c 4dbe ff5b 7fbe c0f0 933e
00000120: f161 7ebd 6f8f a53c 2cb9 cd3e 3adc 9c3d
00000130: 6666 223e cd07 eabe d1f7 0ebe d636 5f3d
00000140: 5851 6d3e ac56 2dbf aef6 debd be74 123e
00000150: 08c8 bb3d 8f72 d13e 275e 72bd c379 81bb
00000160: 9d18 ce3c a94b 483d 46af 2e3e 95c5 4abd
00000170: 42bc 4f3e 7d9f ac3d d05f 8cbd 16c7 afbd
00000180: cc28 05bf c8e3 c8be cc77 c03d bdfe 3b3e
00000190: 6783 2b3e 2e46 633e 92cb 343e dcae 55be
000001a0: e92f 56bd f619 6e3d 9aff 16bd 21b8 453e
000001b0: bd1a 24be 382f c53d 90bd af3e b311 c23e
000001c0: 7766 15bc ce62 043f 9f21 31be 6dc0 54bd
000001d0: 6e9d b93c 2ef9 e2be 7c51 1ebe 509c 133d
000001e0: 9d3b bebd 1520 143d 55f9 e9bc 9827 993d
000001f0: 9892 293e 784a f9bd 697e 1bbd 7f72 963d
00000200: da2f 483d 6d30 95be bc3e eb3e ec03 30be
00000210: 8b54 c63e 0199 a83d d0a3 c6be 56a3 73be
00000220: c530 0ebe 0db9 29be 7230 553c f857 46bc
00000230: 8dfa 8cbd 9d0f 08be 829a 8d3e 67a6 89be
00000240: 37c8 06bd 0f6c 363d d9e2 a23e 3cc7 a23e
00000250: 8eed b9bc 10b6 193e 5acb 1dbf 9ffa edbb
00000260: 3bef d13c fe42 86be 3c9e f73d ff7a 2e3e
00000270: 5192 f13c 8338 3b3e 70a5 a73e 55ce ab3d
00000280: 6ec8 8a3e 7db0 14bd 1f09 71bb 8641 37bd
00000290: f206 763e 593a 503e e512 143e 175a 073f
000002a0: 492d 5f3d 145a 34be aa90 1e3e d485 85be
000002b0: 0672 b23e 1028 16bc f688 f439 f057 2a3d
000002c0: df30 aa3d 0385 eb3c 02fc 1d3e 3cb5 3b3e
000002d0: 9886 b43d 44bc 8dbd 0b7c 89bd c9e4 4d3d
000002e0: aa25 94bc 5f7f f5be 8a25 363e f463 c5be
000002f0: 6cef abbc de1a 9cbe 4edc 57bd 7623 9c3e
00000300: 1ce6 88bd 2bd0 2a3e 8195 3f3e 68a6 b3bd
00000310: 7f00 1b3e a047 243e dc9f be3c 88e6 2bbd
00000320: c530 d6be ac52 a0bd 7f6b f83e 0455 583e
00000330: ea88 0cbf ada4 a83e 8fa5 b1bd d309 b03d
00000340: 985e 8a3b 3e5b ee3d 8dd0 e33d a7ca c93d
00000350: 69ec 9bbc 00bf 0f3e f0fb 713d 7097 a1bd
00000360: f4d7 e2bc 07c5 893d 01bf 43be c560 35be
00000370: 86a1 dc3d f89b 85be 0b3b 11be 8d40 71be
00000380: 5eff c73d 9d18 213e 0569 10be 21ba 1ebe
00000390: 08ca 803e 9803 c0bd 5056 7c3e 4c5a 6b3d
000003a0: e2fa c0be 1c29 3a3e c810 a93d 6672 f83c
000003b0: a735 bc3d 8af8 bb3e beea b73d 5561 8cbc
000003c0: c432 fc3e 6e2e e4be fcd6 91bd 4068 81be
000003d0: 9ff7 523e 5a2d b9bd 2f59 5abe 54c4 9b3e
000003e0: 6e93 303e 4b55 883e 7cc3 05be 49dd cbbd
000003f0: d4f1 abbd 1e6b adbd 0a4c 8ebe b388 3cbe
-0.17413044 -0.018942386 -0.3183517 0.111523226 0.29064062 -0.4297956 -0.45311272 -0.107863136
0.36232683 -0.43539307 0.20956916 -0.10168489 -0.1509454 -0.1608427 -0.3318519 -0.1108914
-0.31390378 0.09102729 -0.13013688 0.15238033 0.20400111 -0.14570093 0.08254014 0.15158182
0.50530565 0.06620836 0.09339075 0.08208937 0.0052460935 -0.07440358 -0.15069138 -0.099311136
0.38285062 0.013070822 -0.28866646 -0.4808557 -0.037708215 -0.05192041 -0.23737146 -0.11993893
-0.46611914 0.13469017 -0.06444082 0.104491904 0.47336602 -0.18399063 0.09319034 0.25504306
-0.10651393 -0.14715275 -0.1317221 -0.15906174 -0.12816636 0.19348073 -0.08459866 0.09444011
-0.06559762 0.22227319 0.24524172 -0.1110636 -0.10123873 0.0659562 -0.36415598 -0.23520118
-0.04365903 -0.10636139 0.043962244 -0.06935893 -0.12956615 -0.20079279 -0.24937437 0.28894615
-0.062105123 0.020209996 0.40180337 0.076591924 0.15859374 -0.45709077 -0.13961722 0.054495655
0.23175561 -0.67710376 -0.10886894 0.14302346 0.09169012 0.40907714 -0.059171822 -0.0039512827
0.02515822 0.04890028 0.17059049 -0.049504835 0.20286658 0.084288575 -0.06854212 -0.085828945
-0.52015376 -0.39236283 0.093978494 0.18358894 0.16749345 0.2219474 0.17655781 -0.20867485
-0.052291784 0.058130227 -0.036864854 0.19308521 -0.16025825 0.09628147 0.34324312 0.37904128
-0.009118668 0.51713264 -0.17297982 -0.051941324 0.022658076 -0.44330734 -0.15460771 0.036037743
-0.09288714 0.03616341 -0.028561274 0.07478255 0.16559827 -0.12172407 -0.03796235 0.07346057
0.04887376 -0.29138508 0.459463 -0.17188996 0.38736376 0.08232308 -0.38796854 -0.23792776
-0.13885792 -0.16574498 0.013012039 -0.012105934 -0.06883726 -0.13287206 0.27656943 -0.26884767
-0.032905784 0.044536646 0.31813696 0.3179263 -0.022696283 0.15010858 -0.61638415 -0.0072625424
0.02562677 -0.26222986 0.12090728 0.17039107 0.029488714 0.18283276 0.32743406 0.08388964
0.2710604 -0.036301125 -0.0036779118 -0.044740222 0.24026087 0.20334758 0.14460333 0.5287184
0.054486547 -0.17612487 0.15484872 -0.26078665 0.34852618 -0.009164825 0.0004664135 0.04158777
0.08310103 0.028749948 0.15428165 0.18330854 0.08814734 -0.069206744 -0.067131124 0.050267015
-0.018084366 -0.4794874 0.17787758 -0.3855282 -0.020988189 -0.30489248 -0.052700333 0.30495805
-0.06684515 0.16680972 0.18709375 -0.08771974 0.15136908 0.16042948 0.023269586 -0.0419679
-0.41834083 -0.078282684 0.48519513 0.21126181 -0.54896414 0.32938138 -0.08674156 0.08595624
0.0042227022 0.11638497 0.11123762 0.09853106 -0.019033628 0.14037704 0.059078157 -0.078902125
-0.027690865 0.06727033 -0.19115831 -0.17712696 0.10772996 -0.26095557 -0.1418268 -0.2355978
0.09765504 0.15732045 -0.14102562 -0.1550069 0.25154138 -0.093756855 0.246423 0.05745916
-0.37691408 0.18179744 0.08255154 0.030327987 0.09189921 0.36713058 0.089803204 -0.017136255
0.4925748 -0.44566673 -0.07121083 -0.2527485 0.20602272 -0.09041853 -0.21323083 0.30423224
0.1724374 0.26627573 -0.13062853 -0.09954316 -0.083957344 -0.084676966 -0.27792388 -0.18411522

actor.0.bias f4 [32]
00000000: 6374 a7bd 5923 6a3e f0be 573e 0a9e 2a3d
00000010: 7212 25be 5041 8ebe b1a4 223e ba7f 2d3e
00000020: 0a40 f83d 0da6 cebd dd58 1dbe 3448 26bc
00000030: 74fa 02be bfdd ab3d 3531 0c3d 98d4 ecbd
00000040: 6fa0 8b3d 61e9 3ebd e42e 223e 97b4 acbc
00000050: 8ab8 75bd c2c2 bf3d b75a 7b3e da99 763c
00000060: e5cc 0a3e a1ce 7c3e 79db d8bd a1b3 f4bd
00000070: 8529 84be 84b3 543c 5d98 18bd f2e8 4dbe
-0.08176496 0.22865047 0.2106893 0.041654624 -0.16120318 -0.27784204 0.15883137 0.16943255
0.121215895 -0.100902654 -0.1536593 -0.0101490505 -0.12790853 0.08391904 0.034226615 -0.115639865
0.0681771 -0.046609286 0.158382 -0.021082206 -0.059990443 0.09363319 0.24546324 0.0150513295
0.13554724 0.24688198 -0.10588736 -0.11948324 -0.25812927 0.012982253 -0.03725468 -0.20108393

actor.2.weight f4 [32, 32]
00000000: 4dad abbd 6de1 bdbe b9c3 aa3c d6e5 babe
00000010: 1a61 103e 2098 d3be e0e4 91bd 1655 61be
00000020: b07f fcbe 0b61 6e3d 1d11 3b3f dfd4 88be
00000030: b804 8d3e ba98 673e 895c 1abe 173d 99be
00000040: 7e8a 0cbe 4c5a bebe 1ce9 76be f445 33bf
00000050: 5d8b 6cbd 2424 0b3e 041b bb3d 4661 86be
00000060: 19e3 71be 0e43 803e c8a8 70bc 3c3f 4bbd
00000070: 99ef df3d 00fc 953d 829a 203e e23e 2cbe
00000080: 9193 0abe 0252 1b3c 0e01 793e 8e47 1a3c
00000090: 5f7b 49be e3eb afbe d040 a63c f57d 393e
000000a0: 9310 f3bc f8c8 a73e fa57 92be 20e5 76be
000000b0: 8cc2 403e 266f 2bbd 15a5 0fbd b4e7 a8bc
000000c0: a67e 56be 21df 8b3d 897b 18be 03f2 7b3e
000000d0: adfd e43c ff77 9c3c c442 b83e 2dae 3ebe
000000e0: d54b d23c eefd 6b3d 0367 bebd 6581 efbd
000000f0: eb4a 01bd 7a2c 46be 422a e6be 54d4 44be
00000100: baf8 b63e e8b0 893e de92 e03e 36b4 b9bd
00000110: a781 9f3e f3f3 a93e 65f5 713e 36df 0a3e
00000120: 458d 9fbe 3c0a e93e 6285 a5bb c96c 00be
00000130: e7bc fbbd e026 b73c e63c 85bd 331e 44be
00000140: d4dd 15be 7af2 a43e 3ca8 003c 79a4 293e
00000150: 9e46 373e fda3 a43d 6503 3c3d 2f3e 48be
00000160: a23b c8be 4cb1 f73d c5ae 4abe 6653 ffbd
00000170: a7ae edbd 3b77 483e 0745 153e 071c 69bb
00000180: 9fba 733c b8c6 b33d ab3b bdbd f9fe 0b3a
00000190: 7b58 16bf fd25 ae3e 21d0 0ebf de71 c63d
000001a0: 0cb5 c2bd 43b4 87bd 45a0 953d d781 813d
000001b0: c3f2 1fbd f6db 183e 710d d63d 9789 c53d
000001c0: 502d a63e 599a 9fbe 6130 b73e ab49 2ebc
000001d0: f55a 98be 2f96 1a3e 96b1 82bc 34b5 003e
000001e0: 2c4c 87be 4aa3 f8be f843 cb3c 5d0e e13d
000001f0: 1d7b 1c3e e91f 523e 6201 cbbe ea8a d4be
00000200: 68c6 c4bc 85e1 973e 5e26 643e 2f66 193d
00000210: 0a73 ce3d bba4 58be 64ef ecbc f5c0 6d3e
00000220: 22f0 0fbe 7122 c03e 4174 b23e 6b4b 8cbe
00000230: bca2 5d3d 5ef9 003e d6d7 8d3e a833 663d
00000240: 0e48 9bbe 1dcd 583e 99bc dabd b592 273d
00000250: addf 673e c607 943e 99ae 61be 75a6 bb3e
00000260: aaae 75be 53f5 cfbd 2abc 86be 9163 91be
00000270: a08e c0be 56ae 59be d66a 863e 0aad 9c3e
00000280: 36d2 b6be f1f1 193e 46db ec3d cedb be3e
00000290: 46f4 a6be 1cb4 c8be f378 9dbd 5992 25bd
000002a0: 7fa7 8a3c 4ed7 74be 9b74 7fbe eb33 babe
000002b0: c8c4 423d 3ca9 9c3e 5b39 6ebe 380c 613d
000002c0: 9566 ed3d 390f ee3c 75d6 d13d fc81 623e
000002d0: 2b81 8c3d c0bd b53d 5312 c13d b5a4 eabe
000002e0: 15d9 3bbe 8f7e 0abd 3418 043e 0f97 7b3e
000002f0: 00ef 21bd 31d5 b439 c8fc 763d 2209 f6bd
00000300: a371 1a3e fd55 abbd d122 22be 5ea7 f93d
00000310: e937 92be f39c 4d3c d1ef cb3e eb8c 40bd
00000320: 0273 dd3e d5f0 b1bd 6a1a 9fbe 4d8b 6b3c
00000330: 3f9b 8cbe 80a4 94bc e337 babd c745 e7be
00000340: 0b47 69be dab1 983e e2ae 0b3f 0f32 fd3d
00000350: 3d84 81be 8efd 4a3e edc8 8abe 5d88 24be
00000360: 1c20 12bd a568 0ebf abac 213e 13c1 6b3d
00000370: 6159 1dbe 92cd 033e 40fb 08be b567 dfbd
00000380: 9edf be3e 896a 373d 7f08 aebe 9c83 b93e
00000390: 81f5 6fbb 0f30 5a3d b62e 03be 68ce 8bbd
000003a0: 2074 c1be 27ae a6be 20da 5c3e 618a 353e
000003b0: 7b87 8c3d 8bc1 86be 23cf 45bd af8c 91be
000003c0: 1e78 5abd 507f 163e b030 eb3e 3f3e 2cbd
000003d0: 53e3 d9be 7ced d1be 7409 e5be df81 0cbf
000003e0: e7fd cabd 4dcb 3ebe b480 e83d 62a9 edbd
000003f0: f8d6 4dbe 822f 313d f5f9 873d ce4f ab3e
-0.08382664 -0.3708605 0.020845281 -0.36503476 0.14099541 -0.41327 -0.071237326 -0.22005114
-0.49316168 0.058198016 0.7307299 -0.26724908 0.27542663 0.22616854 -0.15074362 -0.2992942
-0.13724706 -0.37178266 -0.24112362 -0.70028615 -0.057750095 0.13588005 0.09136012 -0.2624609
-0.23621787 0.2505116 -0.014688678 -0.049620852 0.109343715 0.07323456 0.1568394 -0.16820863
-0.13532855 0.009480001 0.24316809 0.009416474 -0.19675969 -0.34359655 0.020294577 0.18114455
-0.02967099 0.32770514 -0.28582746 -0.24110842 0.18824214 -0.041854046 -0.035069544 -0.020618297
-0.2094675 0.06829668 -0.14890875 0.24604039 0.027952993 0.019100187 0.35988438 -0.1862113
0.025670925 0.057615213 -0.09296992 -0.11694602 -0.031565588 -0.19352904 -0.44954115 -0.19221622
0.35736638 0.2689278 0.4386205 -0.09067576 0.31153604 0.3319393 0.23628767 0.1356171
-0.31162468 0.4551562 -0.005051301 -0.12541498 -0.1229189 0.022357404 -0.06505756 -0.19152145
-0.14635402 0.32216245 0.00785261 0.16566648 0.17898032 0.08039091 0.045901675 -0.19554971
-0.39107996 0.120943636 -0.19793232 -0.12467079 -0.11605578 0.19576733 0.14577113 -0.0035569684
0.014876037 0.08778137 -0.092398964 0.0005340423 -0.5872876 0.34013358 -0.5578633 0.09689687
-0.09507188 -0.06626179 0.073059596 0.06323593 -0.039049875 0.14927658 0.104517825 0.09645384
0.32456446 -0.31172445 0.35779098 -0.010637681 -0.29756895 0.15096353 -0.01595382 0.12569124
-0.26425302 -0.4856208 0.024812683 0.10989068 0.15281339 0.20519985 -0.39649493 -0.41512233
-0.024020389 0.29664245 0.22280261 0.037450965 0.10080536 -0.2115659 -0.028922744 0.23218139
-0.14056447 0.37526277 0.3485432 -0.2740129 0.054110274 0.12595126 0.27703732 0.056201607
-0.3032841 0.21171995 -0.106805034 0.040911395 0.2264392 0.2891218 -0.2203926 0.36650434
-0.2399241 -0.10154214 -0.26315433 -0.28396276 -0.37608814 -0.2125791 0.26253384 0.30600768
-0.35707253 0.150337 0.115652606 0.37277073 -0.3260824 -0.39199913 -0.07689085 -0.04042277
0.016925571 -0.23910257 -0.24946825 -0.36367735 0.047550946 0.30597866 -0.23264067 0.054943293
0.115918316 0.029059993 0.102459826 0.22119898 0.06860574 0.088740826 0.09427323 -0.45828786
-0.18344529 -0.033812102 0.12899858 0.24569343 -0.03953457 0.00034491115 0.060299665 -0.12013461
0.15082411 -0.0836601 -0.15833594 0.12190126 -0.2855828 0.012549627 0.39831403 -0.04700939
0.43251806 -0.08688513 -0.3107484 0.014376474 -0.27462193 -0.018144846 -0.09092691 -0.45170423
-0.22781007 0.2982319 0.54563725 0.123630635 -0.25296202 0.19823286 -0.2710642 -0.16067643
-0.035675153 -0.55628425 0.15788524 0.057557177 -0.15366127 0.12871388 -0.13377094 -0.109084524
0.3727998 0.044779334 -0.33990857 0.36233222 -0.0036614838 0.05326849 -0.12810788 -0.06826478
-0.3778391 -0.32554743 0.21567583 0.17728569 0.06861778 -0.26319537 -0.048293244 -0.28427646
-0.05333721 0.14697003 0.45935583 -0.04205155 -0.42556247 -0.410015 -0.44733775 -0.5488567
-0.09911709 -0.1863224 0.11352673 -0.11604573 -0.20101535 0.043258198 0.066394724 0.33459324

actor.2.bias f4 [32]
00000000: 3c95 d93d 8797 233e d7bd c93d ec88 043e
00000010: 11c7 bd3c 9078 4d3e 0072 803e fc1c 9dbe
00000020: f7d3 96bc 9265 3d3e 0f16 05be 2a41 50bd
00000030: d445 bd3d b2c8 e8bd a0e5 403c 77da 703e
00000040: 7daa cbbd a515 d3bd b66c d93d 8b25 dbbd
00000050: 7e56 163e 8b54 073e 7999 a6bd 9eb2 6abe
00000060: eb6f 4abc 148f 5b3d 6fb7 123d f3b5 86bd
00000070: bc32 1cbe f61c fdbd 1fea 96bd 9d5e 423e
0.10624167 0.15975772 0.09850662 0.12942857 0.023166211 0.20065522 0.25086975 -0.30686176
-0.01841162 0.18495777 -0.12996696 -0.050843395 0.09241834 -0.113664046 0.011773497 0.23520838
-0.099446274 -0.10306863 0.10616438 -0.1070052 0.14681432 0.13215844 -0.08134741 -0.229197
-0.012355785 0.053603247 0.035819467 -0.06577673 -0.15253729 -0.123590395 -0.07368874 0.18981405

actor.4.weight f4 [2, 32]
00000000: 0bf4 213f 9029 a93e 482b 173f c832 b2bd
00000010: ca58 933e bc0b 6bbe 2f49 cabe 988c 09bf
00000020: 052a 72bf 4592 4a3e a5b2 af3e 4e0a 09be
00000030: 5ff9 593e b825 503e a3d5 8fbe fce1 a3be
00000040: 54d6 d9be 425d 44bf 38eb f63e 6108 30bf
00000050: 031d f8be b2a2 2a3f 6734 0abf 95ec 79bf
00000060: c6a4 f6bd 245e b1be 3433 693f df88 0bbf
00000070: 528e 02bf e039 d93e 2b6b 233e 4b78 35bf
00000080: 0c1f f8be 9a6e 053e a99f b1bd f45b 5f3f
00000090: d0ce 3dbf 2dba 273f 6e3d 293f 6ad2 3d3f
000000a0: dc9f 87bd c1f3 353e c86e 06bf 6455 2e3e
000000b0: 9d27 0fbf f2f3 0dbf 9986 c8be 7588 fe3e
000000c0: 3482 e33e a82d 453f 6fa6 68be f031 8a3e
000000d0: 20af 2d3e 66b7 d7be c7b3 1ebf 4225 0b3f
000000e0: 6a54 c6be 9019 cbbe 1970 27be f329 6c3d
000000f0: 29cc e23d 2abc 10bf 1516 dbbd fb4f 6d3f
0.63263005 0.33039522 0.59050417 -0.08701092 0.28778678 -0.22953695 -0.3950896 -0.53730154
-0.94595367 0.1978236 0.34315982 -0.13382837 0.21286534 0.20326889 -0.2809268 -0.3200835
-0.42546332 -0.767048 0.48226333 -0.68762785 -0.48459634 0.66654503 -0.5398621 -0.9762662
-0.12043147 -0.34642136 0.91093755 -0.54505724 -0.50998414 0.42426968 0.1595885 -0.7088668
-0.48461187 0.13030472 -0.08673031 0.87249684 -0.74143696 0.65518457 0.6610936 0.7414919
-0.06622288 0.17768766 -0.5251279 0.17024761 -0.5591982 -0.55450356 -0.3916519 0.49713483
0.44435275 0.7702279 -0.2271974 0.26991224 0.16961336 -0.4213211 -0.6199307 0.54353726
-0.38736278 -0.3966794 -0.16351356 0.057657193 0.11074097 -0.56537116 -0.10697571 0.92700166

actor.4.bias f4 [2]
00000000: ed08 a63e a6bb 313e
0.32428685 0.17356738
