results/SandingEnvDifficult/ddpg_extension/model/model_parameters_0.pt (torch, 36482 bytes, 22 tensors)

value.0.weight f4 [32, 20]
00000000: d60e 583e 0358 8bbd 5632 493d 048a c4bb
00000010: ba86 883d a89b 263d f036 f13c f887 d93c
00000020: 1b96 4e3d f91d ca3b 2945 a73c 32cc bfbd
00000030: 902a 413e e3fb acbd 7550 02bc e673 903c
00000040: 3973 8bbd 5792 a23d 33a2 ac3f cd2b 013f
00000050: 64c0 97bd cfc3 d73c 93f5 49be 1fb2 66be
00000060: 5161 42ba 86fd adbb b084 03bc 8d62 2d3c
00000070: 3802 cd3d 2d9c 05bd 56cb b9bb 38ae fcbd
00000080: aac8 323e 0825 723c f4da 993e 6e09 01be
00000090: bfbf 16bd 0bc4 2b3e 82d9 2ebf ece1 b43f
000000a0: d2f9 a4ba fbbf c53d 79da 04be c26c 3a3e
000000b0: bea0 133d a8f0 77bd cae6 19bd 2fd3 adbc
000000c0: b4ef a13b dc69 8a3d 05fc 04be 6f77 0cbe
000000d0: 017f 0e3e 0888 1bbd 2e9b ba3d 9e7e d4bc
000000e0: b22d fbbd 2e71 9fbd 96e1 8c3f 9c51 68bf
000000f0: 1720 203c b91f 833d 3938 9abd ffff 1f3e
00000100: e181 143a 7bbf a73c e0c2 15be df9a 21bc
00000110: df0c 6c3d c681 b23b 4660 24be 456f 8c3d
00000120: ab76 2ebc 972d 25be 5922 cdbc aeb6 7b3d
00000130: a31c 74bd 241f 1bbd 28ae fcbe 01fc ff3e
00000140: 726d 03bd 7c5e e8bc 9a34 20be 6d0c 853e
00000150: a5e8 103d 3067 6b3b 3aec 243d 759d d13c
00000160: 7c89 153d 9642 2fbc fb99 0cbe 0cf2 a73b
00000170: 9c7d 12bd 32e6 22bb f342 cc3d 37a4 34bc
00000180: 3b75 80bd 5b4b d5bc bfeb 663f 68d6 5540
00000190: 1795 e23b 17d8 b0bb 713e 223e d397 383d
000001a0: cf14 1f3d 8a34 4a3c a89f 3abc 0e51 56bd
000001b0: f0cf f13b 3495 603c ab93 7fbb 88fb 3bbe
000001c0: 65bf 54be e290 9ebd 9cee 47be aff1 233e
000001d0: 5911 56be fd50 f03d 152b 8bbe 804a 923e
000001e0: cf05 813d dd07 b8bc c7d2 01be 1374 0e3d
000001f0: dca7 9abd d94a 243d 2f18 40bc abd6 34bd
00000200: a1e1 c53c 91b5 8cbd 5704 f63d 78de abbd
00000210: 0a36 e93d 5437 54bd b01c 35bd bef6 da3d
00000220: b243 6abd 2868 fcbd 526e 5e3f 018f 94bd
00000230: 36f8 12bb 2f2a dfbd 1d8d f63d dc7a 03be
00000240: 22ff 61bd f943 8bbd f78f 0dbd 0cb8 33bd
00000250: 6ea8 31bd 417e fc3d 83e6 283d 67df 6b3d
00000260: b255 bfbd ef90 a0bc 81fc 36bd 72ea 44bd
00000270: 4688 45bd a1a8 e23c 9822 43bf 8d11 833f
00000280: 3761 f83d 0e95 973d 3843 09be 0c49 413b
00000290: 01f9 cd3b fb8f b93c 22cf 8ebc 82ab 7d3b
000002a0: 558c 313d 4c4f 3bbc b453 d23d fddc 61be
000002b0: 30d9 eb3d 332e 65bd 78e7 2a3d b07c 31be
000002c0: b2d4 28be 9a71 ae3d 11f7 323e 9efd f93d
000002d0: 33e1 233e 4173 8b3d a9bc ce3d 0537 a1bd
000002e0: 4ee4 bebc 6f1f 833d 8946 b5bd 1f97 3a3d
000002f0: c827 06be b4c2 ecbc 920b 9e3d efdc 26be
00000300: 4149 113e be37 4b3d 06d1 ca3d 551d 15bb
00000310: 8275 a8bd e5d2 0e3e 88d4 0bbf 039f 633f
00000320: a404 e93d 8887 b4bc 978b 31bd 6cf7 95bd
00000330: d9e8 d8bc 9d6d 0b3d 04ad 49bd 1d53 7cbc
00000340: 1f9f 2d3d 67b0 993d c887 c6bb 3199 113e
00000350: af69 1bbe c56a 553d 2c29 ff3d cc80 683d
00000360: 9bb9 623d dc90 9d3d 6cdf 213f abff f73f
00000370: cf55 38bb 29b4 d13c fcf7 ba3d e4ba 113e
00000380: dd70 33bc 6940 8b3c 7b41 fa3d 22bb 5bbe
00000390: 8062 c1bc 5a0f c33c ff8f 623d 4c2d 32be
000003a0: efb9 cf3c 9ee0 81be 3554 88bd fe2a 783e
000003b0: 1d6f 86bd e3ee c33d b2a9 4a3f 5976 08bf
000003c0: 75fb 1b3e 85aa debd 42f6 2b3e 092b fbbd
000003d0: d3c4 1bbc d58a a8ba f130 d33c cb22 703c
000003e0: e5c1 363d 38d1 5fbb 1d78 373d e83c 67bd
000003f0: 6b47 cfbd f301 c23d c225 4cbd ec7c aebc
0.2109941 -0.06803896 0.04912027 -0.005997898 0.06666322 0.04067579 0.029445142 0.026554093
0.05043612 0.006168124 0.02041872 -0.09365119 0.18863893 -0.08446481 -0.007953753 0.01763339
-0.06809086 0.07938068 1.3486999 0.5045746 -0.074097425 0.026338486 -0.19722585 -0.22528885
-0.0007415014 -0.0053097634 -0.008027241 0.010582578 0.10010189 -0.032619644 -0.0056699915 -0.12337917
0.1745936 0.014779337 0.3004986 -0.12601253 -0.036803957 0.16774003 -0.6830064 1.4131446
-0.0012586659 0.09655758 -0.12973966 0.1820555 0.036041968 -0.060532242 -0.037573613 -0.021218864
0.004941905 0.06758472 -0.12986763 -0.13717435 0.13915636 -0.037971526 0.091116294 -0.025939282
-0.12264575 -0.07785259 1.1006343 -0.90749526 0.009773276 0.06402535 -0.07530255 0.15624999
0.00056651054 0.020477047 -0.1462512 -0.009863584 0.057629462 0.005447599 -0.1605235 0.068571605
-0.01064841 -0.16130672 -0.025040792 0.061453514 -0.059597623 -0.037871495 -0.4935162 0.4999695
-0.032086797 -0.028365366 -0.15645066 0.25986043 0.035378117 0.003591966 0.040264346 0.025587777
0.03650807 -0.010697028 -0.13730614 0.00512529 -0.03576432 -0.0024856445 0.09973707 -0.01102548
-0.0627236 -0.026036909 0.9020347 3.3412113 0.0069147456 -0.0053968537 0.15844132 0.045066666
0.038838204 0.012341628 -0.011390604 -0.052323394 0.0073795244 0.013707448 -0.003899793 -0.1835767
-0.20776136 -0.07742478 -0.19524616 0.16010164 -0.20905055 0.11734197 -0.27181306 0.28572464
0.06299936 -0.022464687 -0.12678061 0.034778666 -0.07551548 0.040110443 -0.011724516 -0.044150036
0.02415544 -0.068705685 0.120125465 -0.08392042 0.1138726 -0.051810578 -0.04421681 0.106915936
-0.057193466 -0.12324554 0.86887085 -0.07253838 -0.0022425777 -0.10896718 0.12038634 -0.12839836
-0.055174954 -0.06800074 -0.034561124 -0.043876693 -0.043373518 0.123287685 0.041235458 0.0575861
-0.09342517 -0.01960036 -0.0446744 -0.048075147 -0.048225664 0.0276683 -0.7622466 1.0239731
0.12127917 0.07401477 -0.13404548 0.0029493002 0.006285787 0.022651663 -0.017432753 0.0038706963
0.04334672 -0.01143248 0.10269871 -0.22056957 0.115160346 -0.055952262 0.041724652 -0.17332721
-0.16487387 0.085177615 0.17477061 0.12206577 0.16003875 0.06809092 0.10094578 -0.07871822
-0.023302224 0.0640248 -0.08851344 0.045554277 -0.13101113 -0.028901435 0.077170506 -0.16295217
0.141881 0.049613707 0.09903149 -0.002275308 -0.08225538 0.13947637 -0.5462117 0.8891451
0.11377838 -0.022037283 -0.043346014 -0.073225826 -0.026478218 0.034040082 -0.049237266 -0.015400675
0.042388078 0.07504349 -0.006058667 0.14218594 -0.15177034 0.052103776 0.12459025 0.056763455
0.05535279 0.07693645 0.6323154 1.9374899 -0.0028127318 0.025598602 0.091293305 0.1423145
-0.010952202 0.016998487 0.12219521 -0.21458104 -0.023606539 0.023811031 0.055313107 -0.17400092
0.025357215 -0.25366682 -0.06656686 0.2423515 -0.06564162 0.095670484 0.79165184 -0.53305584
0.15232642 -0.10872368 0.16793159 -0.12264068 -0.009507376 -0.0012858758 0.025780173 0.014656733
0.044618506 -0.0034151804 0.044792283 -0.05645457 -0.10121044 0.09473028 -0.049840696 -0.021299802

value.0.bias f4 [32]
00000000: 56c7 6cbd 506a c6bd 6e18 69bd 95ad 213e
00000010: faae dbbd 8eaa 01bd b87a 083e 65b6 17be
00000020: 1791 e1bd 58c6 88be 9e07 173e d554 123d
00000030: 9321 113e 386d e33d 3af9 153d 500b 45be
00000040: dde3 f23c caed a03d b9d6 f83c 2cf4 2cbe
00000050: 1fe8 a63d c71d 223d 9b9e 8c3d ecb3 9dbd
00000060: 2102 34be a675 013e e8c7 233e 027b 15be
00000070: 3b5f 3fbe 600f f83c 0ece 4fbc d9ea 383e
-0.05780729 -0.09688246 -0.056908064 0.15788873 -0.107267335 -0.031656794 0.13328063 -0.14815672
-0.11014002 -0.26713824 0.14749 0.035725433 0.14172964 0.11104816 0.036614634 -0.19242597
0.02964967 0.07857855 0.030375825 -0.16890019 0.08149742 0.03957918 0.06866189 -0.07700333
-0.17578937 0.12642536 0.15994227 -0.14597705 -0.18688671 0.030280769 -0.012683405 0.18058337

value.2.weight f4 [32, 32]
00000000: cbbe d4bd 25fc 63bb f7fd fe3d 74a4 40bd
00000010: 20d9 033e 0a91 863d e7e6 ffbc 2455 85bc
00000020: 6c93 1bbd b83b 853c 8547 9e3a 7197 9ebc
00000030: 68ec 8d3d 5f93 80be 5f1d dd3d 4ad3 c53d
00000040: eb5d 11be f43e da3d 2a74 b53d 5233 803d
00000050: d6d3 373e 4879 d6bd 0449 53bf 1d02 cfbc
00000060: 6842 2cbd 74e4 a93d dfb8 27be 3cd7 8fbd
00000070: 0777 88be 90cb d1bd 5b3d 33bc 7adc bf3c
00000080: 2e38 e23d c5f5 b33b 9306 0b3d 0d3b e43d
00000090: 9d5c 803e ffab 21bc aa49 ae3d 3122 693c
000000a0: d478 2cbe 675c 8d3d a82f bc3d 107a fc3c
000000b0: 223f c63d dfeb 4ebe f4b8 4dbd 3d90 4b3d
000000c0: 4c0e b8bc f980 943c fa1e 38bd 221c ccbd
000000d0: 4638 2739 237c c4be c40e 823d bab6 eb3d
000000e0: ae88 363d 1cd2 d03b 36f4 a73b e19e 7f3b
000000f0: 032d b63d 2df9 06be 8c45 cb3c 2b5d 51be
00000100: 46c4 b53d 4f83 09bd ce37 833d 84ff dc3b
00000110: bc04 13be fc78 013d 4774 2c3d 5cf2 ccbd
00000120: a58f bf3c 20af 9d3a 7a99 77bd 6225 e7bb
00000130: 62cc 2b3e 4427 c33d f027 233d 2dc1 203e
00000140: c47f 86bc a3a3 623d 7ca2 473c c03b f33d
00000150: c72e 3dbb 6339 823d 837a 793c af3e 1bbe
00000160: a248 393d f87e de3c 1212 d83d 9f8b cd3d
00000170: 0a93 e3bd ce9f 05be e6b3 bd3d 91d4 81bd
00000180: 011b 8d3d 9668 113e e62b 6abd 3d71 5e3d
00000190: 93c7 603e 00ee f4bd a7f5 963d 43b2 53bc
000001a0: fd2d 23bb 66a2 efbc fb5f 433e b404 6a3e
000001b0: 25b9 0ebe 51e9 073d 10f7 4dbd cb22 25be
000001c0: 964e b33d 266b 20bd 0d1e a6be cab5 aebd
000001d0: e645 a53d bf3a bdbd 5e2b 503d 165c 68be
000001e0: e2bd 9fbc 0933 233e 15de 35bd 7597 77bc
000001f0: 20d9 3d3e ed16 08bc 4b2e 36be 6588 87bc
00000200: f49d abbd 33cd ef3d 6732 d23d f8d2 713d
00000210: b9b1 d83c ae31 a53c 04a6 a63d 8424 cdbd
00000220: 2eb6 fa3d 4b13 fabd c4b5 56bd 82ab acbd
00000230: 7d89 1c3e 39de 133e 05b6 363d fbf2 923d
00000240: bc62 5cbd d972 d23c d97b 373c a993 cb3d
00000250: 493f 8ebb 25be ea3d ebe3 2ebd 9b16 22be
00000260: daec 38bd 023a 553d 8bd4 54bd 98e8 e83d
00000270: a211 31bd 8f2d f4bc c8b3 b53d a670 c23d
00000280: 333b 57bd dd72 0abf 219d 18be 16b6 b83d
00000290: 4bf1 3dbd ee78 793d 028d f2bd f3c7 a23c
000002a0: ecbc 85bc ad41 52bb 2554 0d3e 1079 acbd
000002b0: acc5 7d3c 7ffc e639 c0dc 763c 64a0 2fbc
000002c0: 2642 e53d 38d6 973d 956e 25bc 6367 92bd
000002d0: 7040 12be 2920 6b3d a63d ee3c 90f2 8fbd
000002e0: 5e46 0ebe 3a8f 483d 77f9 14be 5339 a4bd
000002f0: 1adc 8cbe c0c4 343e 399f b4be d2aa 453e
00000300: 3ab3 3c3d 33d9 e3bd c648 bc3d a271 a23d
00000310: a345 603d a9c8 aa3d 80f7 94bb df33 f3bd
00000320: 2da2 da3d ce75 f43c 1bd5 973d fd8e 59bd
00000330: 3863 b5bd 4d0c c1bc a17e 943d 906e 81bd
00000340: 75a9 d6bd 4a11 10bc ce54 903d e2ed 90bd
00000350: c8cb b63d b080 c93d 19a7 1c3e ba85 0c3e
00000360: d85a c93d 0858 aabd 87c3 493d 6027 fe3d
00000370: 947c e2bd c176 e1bd e240 febd 1549 2a3e
00000380: a0bc cdbc e12f 253d 147e e93d 1bde 6bbc
00000390: 0232 723e abbf b83d 9a6b 9cbd e353 00bc
000003a0: 67ee fcbc e675 de3d 3f8d febd 7503 433e
000003b0: 25fc df3a 06d7 3c3b ee3f debd cffb 083e
000003c0: 54d3 693d 4c70 40bd ff55 62be 11dd 97bd
000003d0: 8b2b 46bd 8f58 7d3c 7353 183e ade9 5bbd
000003e0: d6ba 323d 9c91 193e b545 e3bd 453c 5f3d
000003f0: f871 f63b 06c9 143d 1000 0ebe 8b8d 30be
-0.10387953 -0.003478774 0.12450784 -0.047031835 0.12875795 0.06570633 -0.031238033 -0.01627595
-0.03798239 0.016263828 0.0012075758 -0.019359322 0.069298565 -0.25112435 0.10796618 0.09659441
-0.14195983 0.106565386 0.08860047 0.062597886 0.17951903 -0.10472351 -0.8253329 -0.025269562
-0.042055517 0.08295527 -0.16379116 -0.070234746 -0.2665331 -0.102439046 -0.010939921 0.023420561
0.11045872 0.0054919445 0.033941817 0.111440755 0.25070658 -0.009867667 0.08510144 0.014229343
-0.16842967 0.0690239 0.09188777 0.030819923 0.096800104 -0.20207165 -0.050225213 0.049698103
-0.022467755 0.018127905 -0.044951417 -0.099663034 0.00015947325 -0.3837596 0.063504726 0.11509462
0.04456394 0.0063727032 0.0051255478 0.0039004611 0.08895304 -0.1318099 0.024813436 -0.20445697
0.08875327 -0.03357249 0.06407128 0.006744327 -0.14357275 0.03160952 0.04210308 -0.10007164
0.023383925 0.0012030341 -0.0604491 -0.007054017 0.16777185 0.09528974 0.03983301 0.1569869
-0.016418345 0.055331837 0.012184735 0.11876631 -0.0028866993 0.06358602 0.015226963 -0.1516063
0.045235284 0.027160153 0.10550322 0.10036396 -0.1111203 -0.13049242 0.092628285 -0.06339372
0.06889916 0.14200053 -0.05717077 0.05430721 0.21951132 -0.119594574 0.07371073 -0.012920919
-0.0024899237 -0.029252242 0.19079582 0.22853357 -0.13937815 0.033181492 -0.050284445 -0.16126554
0.087552235 -0.039164685 -0.32444802 -0.08530767 0.08069973 -0.092397206 0.05082261 -0.22691378
-0.019499723 0.15937437 -0.044401247 -0.015111794 0.18539858 -0.008306247 -0.17791097 -0.01654453
-0.083797365 0.117090605 0.1026352 0.059039086 0.026451932 0.02016529 0.08137134 -0.100167304
0.12241779 -0.12210711 -0.05241944 -0.0843115 0.15286823 0.1444024 0.04460718 0.07175251
-0.053805098 0.02568953 0.011198961 0.09940273 -0.0043410403 0.114620484 -0.04269783 -0.15828936
-0.045147754 0.052057274 -0.05196051 0.11372489 -0.043229707 -0.02980688 0.08872181 0.09494142
-0.05254669 -0.5408152 -0.1490369 0.09019105 -0.046372693 0.060906343 -0.11843301 0.019870734
-0.016325437 -0.0032082603 0.1380163 -0.08421528 0.015489023 0.00044057143 0.015067279 -0.010719392
0.111942574 0.07413906 -0.010097166 -0.07148626 -0.14282393 0.057403717 0.02908213 -0.07028687
-0.1389403 0.048964716 -0.14548288 -0.08018746 -0.27511674 0.17653179 -0.35277727 0.19303444
0.04606936 -0.11125412 0.09193568 0.0793183 0.05475391 0.08339054 -0.004546106 -0.11875128
0.10675464 0.02984133 0.074136935 -0.05311488 -0.08856815 -0.023565436 0.07250715 -0.06319916
-0.1048154 -0.0087931845 0.07047425 -0.070766225 0.08925587 0.09838998 0.15298118 0.13722888
0.0983178 -0.08317572 0.049258735 0.12409854 -0.11058918 -0.11008979 -0.12414719 0.16629441
-0.025114357 0.040328864 0.114010006 -0.014396216 0.23651889 0.09020933 -0.07637711 -0.0078325
-0.030875398 0.10862331 -0.12429284 0.19044288 0.0017088695 0.0028814687 -0.10852037 0.13377307
0.057086304 -0.046982095 -0.22103117 -0.07415212 -0.04838137 0.015463009 0.14875583 -0.053689647
0.043635212 0.14996952 -0.1109728 0.054500837 0.0075209104 0.036324523 -0.13867211 -0.17241494

value.2.bias f4 [32]
00000000: 1aeb a6bd a618 4dbe c07f 70bd f2de 37bd
00000010: d11d d13d cea3 b0bd f154 b7bd b168 833d
00000020: 91c4 6a3d 06e4 aabd 93b0 a33a 721b 01be
00000030: ec62 0dbd 4582 97bd 5d78 7c3d 492c c3bd
00000040: dc35 a2bd 99ff 0f3e 32a3 d9bc 3cd3 853d
00000050: 1457 3ebd 568f 0d3e 8e70 273e a396 22be
00000060: 8958 f2bd 6ec3 1b3e bfca 01be 3d9c 4abe
00000070: 042f fe3d d0aa f73d 6d53 67bd 2415 a9bd
-0.08150311 -0.20028934 -0.058715582 -0.04489035 0.10210765 -0.08624993 -0.08951748 0.06416453
0.057316367 -0.08344273 0.0012488536 -0.12608126 -0.034518167 -0.07397894 0.061638225 -0.09529931
-0.07920429 0.14062347 -0.026567075 0.065344304 -0.046469763 0.1382421 0.1635153 -0.15877776
-0.11833293 0.1521127 -0.12674998 -0.19786163 0.12411311 0.12093127 -0.056476045 -0.082559854

value.4.weight f4 [1, 32]
00000000: b2aa 993c 81c9 193d 82c5 60bd d41e dbbc
00000010: 0544 763d 64d4 fabc 1a63 a83d 2339 77bc
00000020: 263d 4fbd c3c5 dbbc d52e 9cbc 5432 6d3d
00000030: c058 d8bd e642 323d d2a8 c23c 5e5a acbd
00000040: c166 d6bc 198b 4d3d 8195 8e3d 9f9e 283d
00000050: c224 60bd 55b8 833c 271a f83c cc37 0dbd
00000060: e842 093d f4ba 38bd 0e99 853d 6484 c9bc
00000070: 1193 603d 7354 e63c aa03 40bd cf28 f23c
0.018758152 0.037545685 -0.054875858 -0.026748098 0.060123462 -0.030618854 0.08222027 -0.015089306
-0.050595425 -0.026827699 -0.0190653 0.057909325 -0.10563803 0.04352083 0.02376214 -0.08415674
-0.026172044 0.050181482 0.06962109 0.041166898 -0.054722555 0.016079107 0.030285908 -0.03447704
0.033511072 -0.045100167 0.065233335 -0.024599262 0.054827753 0.02811644 -0.046878494 0.029560475

value.0.weight f4 [32, 20]
00000000: 1fde 583e d439 8ebd 5032 363d 2145 2ebc
00000010: 16a2 833d 6f95 243d 9c8f 003d 7eb4 c33c
00000020: e106 4b3d cf23 4c3b 2084 9d3c 793c c2bd
00000030: 58ea 3f3e 6d4b abbd 0daf e5bb 5830 983c
00000040: a653 89bd 7944 a03d bc9c ac3f 68e0 003f
00000050: a2d6 97bd 6a29 e73c 89e4 47be 15a1 64be
00000060: 4e51 8ebb 2536 bbbb 06db b6bb ccf6 0b3c
00000070: db63 c93d 4e60 03bd 6382 bbbb a7c9 fcbd
00000080: 59e8 323e 8c39 693c 8120 9a3e 5a7e 00be
00000090: 686e 1abd 7ac0 2b3e 6b28 2ebf ffb7 b43f
000000a0: 8cf3 99ba f663 c43d b99f 02be 82a7 3c3e
000000b0: 49bb 143d 2d28 74bd 4f52 20bd 70a7 b7bc
000000c0: 7241 053b 1b98 873d 952f 04be ffaa 0bbe
000000d0: c5e8 0f3e 639a 1bbd f530 bc3d 6227 cebc
000000e0: dbbf fabd 8b67 9cbd fdc8 8c3f 9608 68bf
000000f0: 9ab7 063c 1577 823d 4988 9ebd f8d7 1d3e
00000100: 20f0 8b3a 50f9 be3c 5553 15be 1ef5 7ebc
00000110: 5ca8 6a3d 0c88 d23b e89e 22be fcf1 8f3d
00000120: 3ad6 0fbc 4fc9 26be f524 ccbc 6235 7c3d
00000130: 9add 6ebd 41ca 0dbd ebf6 fabe 72e5 fc3e
00000140: fec3 01bd 5527 f1bc 3d4c 22be 9300 843e
00000150: ea4c 1b3d 3934 663b b4ab 1c3d 4612 bf3c
00000160: 91ff 1c3d 63ef 4bbc 6b14 0ebe cb47 713b
00000170: 9bff 17bd e3e2 15bb 106f cf3d 4743 1bbc
00000180: 3a09 78bd 5255 d9bc 27f7 663f 8187 5540
00000190: 8cc3 083c 2dab 96bb 3ba1 233e d122 3e3d
000001a0: 11b9 233d f0ec 3c3c 9a5c 10bc c868 4fbd
000001b0: 4139 0b3c fcd0 8d3c 7593 2fbb 8abb 3abe
000001c0: 15e7 53be e167 9fbd 81ed 4abe caf2 203e
000001d0: d5b0 57be 1bd3 f03d d139 8cbe 08f5 933e
000001e0: 0510 853d f947 afbc b91c 00be 604c 153d
000001f0: 446d 9abd f6ce 263d 4d8c 2fbc a8bc 2fbd
00000200: d7a6 bc3c 5e32 80bd 0389 f93d cc59 a8bd
00000210: 5078 ec3d 38b0 59bd e5b1 39bd 25ac d83d
00000220: 5e1c 71bd de77 f9bd b3d4 5d3f 9f11 8ebd
00000230: a36b ccba 035d ddbd e127 f43d 7fad 04be
00000240: dbeb 63bd 50c4 8dbd 4de3 12bd 2c95 35bd
00000250: 13a6 34bd 3209 fe3d e074 263d c46d 693d
00000260: 6d04 c0bd d652 9cbc d1d6 34bd c2c4 42bd
00000270: 3d87 3ebd fae0 e33c 58b5 43bf 7775 833f
00000280: 1ae5 f53d f489 933d 2949 09be 0dcd 3f3b
00000290: 3a69 e63b 4c2e b83c bf30 92bc 47d1 053a
000002a0: 6b13 273d 8166 4abc 3254 d33d c05c 61be
000002b0: acda e93d 0179 76bd e13b 253d 90e7 32be
000002c0: c00d 28be c7f3 b03d ccc3 2d3e d72b f33d
000002d0: b442 243e cc21 893d 4639 d23d 68ba 9dbd
000002e0: a188 c4bc e6c5 823d 5f68 b3bd 756e 373d
000002f0: ea3e 05be 3700 d7bc 07da a03d b875 25be
00000300: 4e28 123e 4398 483d c190 c93d 6226 3dbb
00000310: 795c aabd 558c 0f3e 7533 0cbf 0b85 633f
00000320: 8ca7 e73d 7106 b5bc a5fb 29bd 762f 92bd
00000330: d577 e2bc 8814 003d 56be 35bd e5af 78bc
00000340: ac0c 343d ea30 9b3d 9e71 c1bb dcc1 113e
00000350: 57a2 1bbe 82e9 523d d436 003e ba09 6b3d
00000360: fad6 603d ad50 9d3d 0157 213f ebdf f73f
00000370: f57d ceba 6ff3 ca3c 8d0e bb3d 2dc6 113e
00000380: 495a 4fbc 1428 a33c d6fb fb3d 950a 5cbe
00000390: 41cf a9bc a4a9 d13c f72f 643d 46c5 31be
000003a0: b583 cf3c aeaa 81be 2228 88bd 0641 783e
000003b0: b91c 86bd 67a9 c33d 7b0d 4b3f eaba 08bf
000003c0: da0d 1c3e 5d32 dfbd d193 2a3e d9ef fdbd
000003d0: d399 fdbb 48b1 ceba e8ae cb3c 9b4b 603c
000003e0: 5b4d 363d 57e7 8d39 79d9 333d 8cdb 6abd
000003f0: a10c d1bd 96e1 c13d e00a 4bbd 3547 acbc
0.21178482 -0.069446236 0.044481575 -0.010636599 0.064274 0.040181573 0.031386957 0.023889776
0.049567107 0.0031149273 0.019228041 -0.094841905 0.18741739 -0.08363996 -0.007009393 0.01857774
-0.06705408 0.0782556 1.3485332 0.50342417 -0.07413985 0.02821799 -0.19520773 -0.22327073
-0.0043431884 -0.0057132416 -0.005580309 0.008542728 0.09833499 -0.032074265 -0.0057223304 -0.1234315
0.17471446 0.014234912 0.30102924 -0.125482 -0.037702948 0.16772643 -0.6803042 1.4118651
-0.0011745556 0.095893785 -0.12756242 0.18423274 0.03631142 -0.059608627 -0.039140996 -0.022418708
0.0020333198 0.06620809 -0.12908776 -0.13639449 0.14053638 -0.03798903 0.09189025 -0.025165264
-0.12243625 -0.07636937 1.0998837 -0.906381 0.008222485 0.06370369 -0.07740838 0.15414417
0.0010676421 0.02331224 -0.1458257 -0.01556137 0.057289466 0.0064249095 -0.1588093 0.07028577
-0.008779103 -0.1628773 -0.024919966 0.061574347 -0.058316804 -0.034616712 -0.49016508 0.49393803
-0.031681053 -0.0294377 -0.15849395 0.25781688 0.037915148 0.0035126342 0.038249686 0.023324143
0.038329665 -0.012447211 -0.13874976 0.0036816474 -0.037109 -0.002287083 0.10128605 -0.009476489
-0.060555674 -0.026529942 0.90220875 3.3363955 0.008347403 -0.0045980425 0.15979473 0.046419922
0.039971415 0.0115311 -0.00881114 -0.050637037 0.008497537 0.017311566 -0.0026790772 -0.18235603
-0.2069362 -0.07783485 -0.19817163 0.15717617 -0.2106355 0.11759015 -0.2738786 0.28897882
0.06497196 -0.021396624 -0.12510957 0.03644979 -0.07540372 0.040724717 -0.010714603 -0.042904526
0.023028774 -0.06259607 0.12184336 -0.082202524 0.11546385 -0.05314657 -0.04533567 0.10579709
-0.058864944 -0.12181066 0.8665268 -0.06936955 -0.0015596043 -0.10808756 0.11921669 -0.12956809
-0.05564485 -0.06922209 -0.035861302 -0.044331715 -0.044103693 0.124040976 0.040638804 0.056989446
-0.09375844 -0.019082468 -0.044150177 -0.047550924 -0.046515692 0.027817238 -0.76448584 1.0270222
0.12006588 0.07204047 -0.13406815 0.0029266507 0.007031587 0.022483014 -0.01784551 0.0005104732
0.040790003 -0.01235354 0.10318793 -0.22008038 0.114186615 -0.060173992 0.040340308 -0.17471147
-0.16411495 0.08640247 0.16969222 0.11873596 0.1604107 0.06695899 0.1026483 -0.0770157
-0.023990931 0.063854024 -0.087601416 0.044783074 -0.13012281 -0.02624522 0.078540854 -0.16158187
0.14273188 0.048973333 0.09842063 -0.002886199 -0.08318419 0.14018376 -0.5476602 0.8887488
0.11311254 -0.022097798 -0.041499753 -0.07137959 -0.027645031 0.03126958 -0.04437097 -0.015178655
0.043957397 0.07577689 -0.005903437 0.14234108 -0.15198646 0.05149222 0.12520915 0.057382323
0.054892518 0.07681403 0.6302338 1.9365209 -0.0015754091 0.024774281 0.09133635 0.14235754
-0.012655803 0.019916572 0.12303893 -0.21488412 -0.02072871 0.025593586 0.055709805 -0.1736041
0.025331357 -0.2532553 -0.0664828 0.24243554 -0.06548447 0.09553795 0.79317445 -0.5341021
0.15239659 -0.10898278 0.1665795 -0.12399263 -0.0077392845 -0.0015769387 0.024863675 0.013689901
0.044507366 0.00027065977 0.04390857 -0.057338282 -0.10207487 0.09466855 -0.049570918 -0.021030048

value.0.bias f4 [32]
00000000: e545 68bd bff2 c6bd 5d51 6dbd 4d93 1f3e
00000010: 1c9c d9bd 22bd 04bd eded 063e fa4d 17be
00000020: e167 e3bd b92d 89be 5efc 163e f6e9 123d
00000030: ccb4 113e b7e8 e43d 0c8f 193d 285f 44be
00000040: 2f23 ef3c 6a8e a43d de4d 063d 4c86 2ebe
00000050: 3294 a73d bd85 1f3d 87ad 8d3d 8079 9dbd
00000060: 7140 33be 43dc ff3d 6ab4 243e 5406 13be
00000070: f1fc 3ebe 4168 fa3c ef03 3cbc 72e6 383e
-0.05670728 -0.09714269 -0.057938922 0.15583535 -0.106254786 -0.032406934 0.13176699 -0.1477584
-0.11103798 -0.26792696 0.14744708 0.035867654 0.14229125 0.11177199 0.037489936 -0.19176924
0.029191582 0.08034976 0.032789104 -0.17043418 0.08182563 0.038945902 0.06917863 -0.0768919
-0.17505051 0.124931835 0.16084448 -0.14357883 -0.18651177 0.03056729 -0.011475547 0.18056658

value.2.weight f4 [32, 32]
00000000: 866a d6bd 66a7 00bb 7241 fd3d 6d17 40bd
00000010: a63f 043e f8bb 843d f33d 01bd f314 72bc
00000020: f715 16bd 7580 893c 8091 8b3a 4230 a0bc
00000030: 59b0 8e3d 22d1 80be 464c e13d 436a c33d
00000040: 9a37 12be c9c2 da3d cd31 b33d 38f1 823d
00000050: 45a7 363e fc30 d5bd 0786 53bf 612c d4bc
00000060: 495b 26bd 687c ab3d 11d3 26be 89d2 8dbd
00000070: 10af 8abe 3619 d2bd fec3 46bc 2cd3 cd3c
00000080: c06d e13d 9c64 bb3b 2e90 093d 2716 e53d
00000090: b460 803e 9d1c 0dbc b890 ae3d e8c8 5e3c
000000a0: fce4 2abe ad8e 8c3d 634a bc3d 48f1 013d
000000b0: b266 c63d c4e0 4ebe 2fa2 4fbd fd55 4c3d
000000c0: 2985 c6bc 698c 933c 28c6 3bbd ffd1 ccbd
000000d0: b10d 53b9 0e64 c4be 14ab 813d a848 eb3d
000000e0: 9e25 363d 681c c43b 976f bb3b 971a a53b
000000f0: 2863 bb3d 52ec 06be 372c dc3c 7ad9 4ebe
00000100: ca7e b63d f4bf 06bd 32e7 843d bab5 d13b
00000110: c316 12be 6bc2 013d 4fc3 2c3d f332 cdbd
00000120: d636 c43c f1d8 1bb9 0726 79bd 6c8b 04bc
00000130: 178e 2b3e 2f4b c43d da91 253d 8095 1f3e
00000140: f1f0 45bc 2574 643d d207 633c 0bba f23d
00000150: 723e 0cbb 2e59 823d 8443 7e3c 98e4 1abe
00000160: b6d6 373d 9dbc e23c 0477 d83d 2f20 cc3d
00000170: c18b e1bd 82f6 05be 6465 bb3d 663f 80bd
00000180: 4d7a 8c3d 6c45 123e 23be 69bd b46e 5d3d
00000190: 5cd8 603e 52c0 f4bd 6027 973d 2f78 4ebc
000001a0: d55e 26bb 1605 edbc 2f3b 433e 350f 6a3e
000001b0: ab13 0fbe c041 073d dce7 4bbd 9aa1 25be
000001c0: 0666 b73d 085b 1dbd 627c a5be 0bbe aebd
000001d0: cb96 a43d 3a4f bdbd 5e94 533d dfda 68be
000001e0: 4531 a4bc 6a7f 233e ef37 36bd 3ae3 87bc
000001f0: 6fc2 3d3e 4335 05bc 3c43 37be a979 87bc
00000200: 2361 aabd cb44 ef3d fa41 d13d 8ca5 723d
00000210: 43b5 da3c fbaf a83c 906e a63d 3f9f cdbd
00000220: 795f f93d e829 f8bd b099 55bd f2df adbd
00000230: 1f28 1d3e a8b6 133e 5e13 353d ae0b 943d
00000240: d338 66bd 1ffa cb3c 645c 2f3c affe cb3d
00000250: 4620 92bb 88bb ea3d a237 2fbd 4244 21be
00000260: e24e 38bd be8d 523d a6e4 52bd a9ec e93d
00000270: c3ff 31bd 720b f4bc 7d3a b43d e097 c13d
00000280: d06b 57bd c76d 07bf 7b5d 18be de33 b83d
00000290: 13ed 3bbd fc5a 793d b5b1 f4bd 710f a73c
000002a0: 90b2 a5bc cdfb 55bb e645 0d3e c331 adbd
000002b0: 71c5 763c 24e1 253a fd40 7e3c ab25 2fbc
000002c0: 2cb2 ec3d efcb 983d b050 0bbc b347 91bd
000002d0: 1747 13be 971c 6b3d e77d fa3c 75fa 8ebd
000002e0: 2b75 0fbe 13ad 493d ab47 15be 45b7 a5bd
000002f0: 3476 8bbe 9445 343e e067 b6be 9a05 463e
00000300: 962c 3e3d 7a2c e4bd 36d1 bb3d 065d a33d
00000310: 070c 603d ef67 ab3d 2049 95bb 01a1 f3bd
00000320: 42ba da3d 7104 f33c cd73 983d 77c4 59bd
00000330: 1c65 b4bd bf7e c5bc a108 943d f236 7fbd
00000340: bdfe d8bd f1bb 19bc c1fe 8d3d 482a 91bd
00000350: 53e7 b63d 8a5b c93d 896e 1c3e 6fb8 0c3e
00000360: 24b0 c93d 276c aabd 41e0 4b3d 45d4 ff3d
00000370: 3e1c e4bd 826c e1bd c29e fabd 82e8 293e
00000380: cdb6 c5bc a171 243d fcc6 e93d e304 5ebc
00000390: 0f87 733e 4001 ba3d 2398 9cbd ec16 02bc
000003a0: 308a 07bd 3953 df3d 5936 fdbd d1c1 433e
000003b0: 6603 193b 8458 723b c3d5 dbbd 310f 093e
000003c0: ce3c 733d 2faa 35bd 9b3c 5abe 2387 97bd
000003d0: 0e10 44bd 7a35 873c eb89 183e 08cd 5bbd
000003e0: 03f6 303d fcff 193e ab22 e3bd c5f7 5b3d
000003f0: e35f f23b 6c4c 183d 0d76 0fbe dbcc 2dbe
-0.104695365 -0.0019631027 0.12365998 -0.04689734 0.12914905 0.06481165 -0.03155322 -0.0147755025
-0.03664204 0.016784886 0.0010648221 -0.019554261 0.069672294 -0.25159556 0.11000876 0.09541752
-0.14279023 0.106816836 0.08749733 0.06393665 0.17837246 -0.10409734 -0.82626384 -0.025900068
-0.0406144 0.08373338 -0.16291453 -0.06924922 -0.27086687 -0.10258715 -0.012131689 0.025125109
0.11007261 0.0057187807 0.033584766 0.11185866 0.2507378 -0.008612779 0.08523697 0.0135977045
-0.16688913 0.06863151 0.09193876 0.031724244 0.09687556 -0.20202929 -0.05069178 0.049886692
-0.024233418 0.018011289 -0.045843273 -0.10000991 -0.00020127629 -0.38357586 0.06331459 0.114884675
0.04446947 0.0059848316 0.0057200897 0.00503857 0.09149772 -0.13176087 0.026876552 -0.20200148
0.08910902 -0.032897905 0.064894095 0.0063998373 -0.14266495 0.031679552 0.04217845 -0.100194834
0.023951929 -0.00014862769 -0.06082728 -0.008089881 0.16753422 0.09584653 0.040422298 0.15584373
-0.012081371 0.055774827 0.013856845 0.11851891 -0.0021399525 0.06364666 0.015519027 -0.15126264
0.0448825 0.027677828 0.105695754 0.09967076 -0.11012984 -0.13082317 0.09150198 -0.06262092
0.068592645 0.14284295 -0.057066094 0.054060653 0.21957535 -0.11950745 0.07380557 -0.012601896
-0.0025386114 -0.02893309 0.19065545 0.22857364 -0.13972346 0.03302169 -0.049781665 -0.16174927
0.08955006 -0.038416892 -0.3232146 -0.085323416 0.08036574 -0.09243627 0.051655166 -0.22739743
-0.020043025 0.15966573 -0.044486936 -0.016587842 0.18531202 -0.008130374 -0.17896742 -0.016537504
-0.083193086 0.11683043 0.10217662 0.05923991 0.02669776 0.020591727 0.08126557 -0.100401394
0.12176413 -0.12117368 -0.05214852 -0.0848998 0.15347336 0.14425147 0.044207923 0.0722879
-0.056206536 0.02489954 0.01070318 0.099606864 -0.0044594137 0.1146155 -0.042777665 -0.15748695
-0.044997104 0.051404707 -0.051487587 0.114220925 -0.043456804 -0.029790614 0.08800218 0.09452796
-0.052593052 -0.5290188 -0.1487941 0.08994268 -0.04588039 0.060877785 -0.119479574 0.020393105
-0.020226747 -0.0032651306 0.13796195 -0.08456757 0.015061722 0.0006327799 0.015518424 -0.010690133
0.11557421 0.07460772 -0.008503124 -0.07093754 -0.14382587 0.057400312 0.030577613 -0.06981365
-0.1400954 0.049237322 -0.1457812 -0.080915965 -0.2723862 0.17604667 -0.35626125 0.19338074
0.04642924 -0.11141296 0.09170763 0.07976727 0.05469897 0.08369433 -0.0045558363 -0.118959434
0.10680057 0.029665204 0.07443962 -0.05316588 -0.088083476 -0.024108289 0.07228208 -0.06230826
-0.105954625 -0.009383188 0.06933356 -0.07088143 0.0893084 0.09831913 0.15276541 0.13742231
0.09848049 -0.0832141 0.049774412 0.12491659 -0.11138199 -0.11007024 -0.12237312 0.16592601
-0.024135018 0.040147427 0.114149064 -0.01355097 0.2378199 0.0908227 -0.07646205 -0.007940035
-0.03309077 0.10904545 -0.123638816 0.19116904 0.0023347973 0.003697903 -0.10734131 0.13384701
0.05938416 -0.044351753 -0.21312182 -0.07398822 -0.047866873 0.016504992 0.14896362 -0.05366233
0.043203365 0.15039057 -0.11090597 0.05370309 0.0073966845 0.037182257 -0.14009877 -0.16972677

value.2.bias f4 [32]
00000000: 9931 a6bd 9d23 4dbe e946 6fbd 97ad 37bd
00000010: 14dc d03d 0bbc b0bd 6049 b7bd 283d 853d
00000020: 457d 6c3d 4321 aabd d6de 153b 7670 01be
00000030: 5f01 08bd b50e 97bd 21a6 7d3d 7853 c2bd
00000040: a58e a2bd 4326 103e ebb3 d4bc 9d25 843d
00000050: 433c 3ebd 70a3 0d3e 573d 283e 5482 22be
00000060: 9107 f2bd 28db 1b3e e00e 02be 7541 4abe
00000070: 2ed2 fd3d 8872 f73d b347 67bd 76a8 a8bd
-0.08114929 -0.20033117 -0.058417235 -0.044843283 0.101982266 -0.08629616 -0.08949542 0.06505805
0.057736654 -0.083071254 0.0022868416 -0.12640557 -0.033204433 -0.07375852 0.06192601 -0.09488577
-0.079373635 0.14077096 -0.025964698 0.06452487 -0.04644419 0.13831878 0.1642965 -0.15870029
-0.118178494 0.1522032 -0.12700987 -0.19751532 0.12393604 0.12082392 -0.056464862 -0.082352564

value.4.weight f4 [1, 32]
00000000: 1f3f 9b3c 805d 193d b589 5fbd b825 ddbc
00000010: 48e8 753d 690d fcbc 35cb a83d 85c5 7abc
00000020: bb27 4fbd f6a2 debc 4e6c a3bc b627 683d
00000030: 62d9 d9bd 79d8 303d 56bb c13c 7b4d afbd
00000040: 8fc5 ddbc bf9d 4c3d 27e9 8d3d ede0 223d
00000050: 8328 60bd 0781 883c 4d6a fe3c 28b3 0dbd
00000060: 4bbf 093d d571 39bd c3bd 843d a806 c5bc
00000070: 9c38 603d e803 e23c 40fe 3fbd 9302 f13c
0.018950997 0.037442684 -0.054574687 -0.026995525 0.060035974 -0.030768113 0.08241884 -0.015305881
-0.050575 -0.027177315 -0.019949105 0.056678496 -0.106371656 0.043175194 0.023648899 -0.085597
-0.027071742 0.049955126 0.06929236 0.039765287 -0.054726135 0.016663088 0.031056548 -0.034594685
0.033629697 -0.045274574 0.06481507 -0.024051026 0.054741487 0.027589753 -0.04687333 0.029420173

actor.0.weight f4 [32, 18]
00000000: 7886 a7be beec b1be fa87 333e d005 ae38
00000010: 7536 c5bd eeba 113e 05fb 2dbe f454 5dbe
00000020: 3fc4 303e e14b 75be 9e4c afbd 6e8d 83be
00000030: f268 d23d f45c cbbd 6698 2a3d c4f3 273e
00000040: 349f 5cbe 2f4c babd 0252 a7be 0daa 4ebe
00000050: 1133 133d ba0c 8ebe 76ad 52be 5461 083e
00000060: cd57 353e bc72 5b3e 3c9e 8bbe d1e8 cdbd
00000070: 2dff 993d ec43 053e 9d19 87be 9395 cc3c
00000080: 6389 59be 3527 06be 9836 ed3e 68c3 02bd
00000090: 454e afbe ccb7 203f 2b9b e63c 2fec 313e
000000a0: cc22 77be 0d3c 32bc 76d0 09be b66a ed3d
000000b0: e9e8 a0be 9444 3f3e acd5 8b3e 58d7 843c
000000c0: b9a0 77be a8b5 493e 94d1 403e e10c cebd
000000d0: 4651 8c3e 0690 853e 99ab e6bd 8c6f 3abd
000000e0: 8d06 103f af6a a63e bbf0 d23d d950 c2be
000000f0: e5b0 8abe 1032 75bc f510 3c3e ff44 dcbe
00000100: 2a80 1d3e 235c f53d 9121 6a3e 0dd9 4e3e
00000110: eaaa 1cbc 96e7 42be c1f3 0d3f 9a6d 05bb
00000120: 8b5c af3d 5ac8 cc3d 76ab 90bd df9c ab3c
00000130: c336 45be 0d9d 20be 503c 823d 5e3e 45be
00000140: 4382 97be eeda f33d 946b 4abd af19 60be
00000150: 9020 cc3e 957a 123e 5cb3 2a3e 421f 96bd
00000160: 1bf5 f4be 8823 d9bd 0c49 dfbe f7a8 8ebe
00000170: e9c3 7a3e 436d 5c3e 4b3c 893c 7cd0 923e
00000180: 2335 4d3e ca1e d93a 85b0 fa3d ea8e c4bc
00000190: eb1e 5ebe 76e2 7cbe e458 f2be b16c 843d
000001a0: 3ee7 3d3d 88ef e43e 0ad3 2f3e 5d63 983d
000001b0: fb94 21bf 4966 1d3e 50dc f93d b07b cf3b
000001c0: 2637 153e 783e 15be fe07 ce3e 6a62 84bd
000001d0: 1f19 c1be 60b2 073e c736 993c 5cea 50be
000001e0: 961b 913c 9cf1 5fbe 11e7 36be 7d17 e33d
000001f0: 80cb ba3d 5f55 87be f3d7 a83e d199 fc3d
00000200: 4809 bfbd ac09 9b3e 65e2 54be d817 08be
00000210: 71e3 83bc b369 7c3e 0cc1 8fbe 7c30 80be
00000220: df2b 28be f91b c53d 419b ad3e af9a 3e3e
00000230: 5363 243d 8d6e ad3d a6b3 963e 83c7 f3bd
00000240: 807a ba3e 3d6b a93e 4304 4f3e cbaa e63e
00000250: b239 343d 726f 863d fc1e a53e b45d 753e
00000260: 4f90 8ebe d5c7 e83d 5e8b 113d d052 57bd
00000270: e622 323e 4524 913e a4b0 8a3d 02da cb3d
00000280: 0f13 6ebd 7fc9 72bd d86f 043f c67c dd3c
00000290: 4af5 223e 767e fe3c 2df5 8fbd 9126 2d3e
000002a0: 59ed cfbc d225 dcbd bc6c 363e c9db 21be
000002b0: 978d 60be d4a2 bebe 64fa cc3e b794 b23e
000002c0: 276b b9bd 3c76 ec3d 0ba1 1ebe 9099 0e3d
000002d0: f56e 113e 5010 793d ef36 a6be ee28 2bbe
000002e0: 86d4 b93e f4c3 a43e bf54 353e 2a08 043f
000002f0: 92ab 3a3e 1b69 8e3e 8ce4 35be ff78 313e
00000300: b0ad 45be 28b1 463e 365e a73d 3042 77be
00000310: 0e96 6c3e 3534 3cbd 3321 b5bd 74bf 58be
00000320: 4aff 37be c9d0 a6be c8a3 f93e 3554 26be
00000330: 33ce b33d 6e0e aa3e e681 963e 5347 2ebe
00000340: 986d 5abd 8873 8dbe 0a24 1bbd 7897 db3c
00000350: c78e df3e ab75 d33e 8f42 9abd 8726 40be
00000360: 816c 673e 4cf3 0cbf ed41 6d3e 191a c43c
00000370: df6d 2ebd 1804 8d3c 496c fabd f741 903d
00000380: 957a acbe f3a9 d83d c085 e1bb fe22 a13b
00000390: ad6c 833d d841 cb3e dffa 553e 2cfd 413e
000003a0: 028e 773e a06c e53d b8e6 723e 9d26 d4be
000003b0: ca48 253e 5c75 9ebc d58d 543e de81 81bc
000003c0: c378 3cbe a91b 013d b48e 0bbe 7cec 33bc
000003d0: 0eeb 3bbe bf10 08be 17ee 323e 8ad8 053e
000003e0: 7a1f b53d 5845 8a3e 1c47 6dbe 3f2b 85bc
000003f0: 3336 b93d 6db5 323d 69c2 4cbe 2825 a7be
-0.3271978 -0.34750932 0.1753234 8.298049e-05 -0.096295275 0.14231464 -0.16990288 -0.21614438
0.17262362 -0.23954727 -0.085595354 -0.2569384 0.10273923 -0.09929839 0.041649245 0.16401583
-0.21545106 -0.09096562 -0.32679754 -0.20182057 0.035937373 -0.27744085 -0.20573983 0.13318378
0.17709275 0.21430486 -0.2726916 -0.10054172 0.07519374 0.13014191 -0.2638673 0.024973666
-0.21243815 -0.13100894 0.46330714 -0.031924635 -0.34239402 0.6278045 0.028150162 0.17375253
-0.24134368 -0.010878575 -0.13458428 0.11592619 -0.31427696 0.18678504 0.27311456 0.016215965
-0.24182405 0.19698203 0.18829948 -0.1006105 0.27405757 0.26086444 -0.112631984 -0.045516536
0.56259996 0.32503268 0.10299822 -0.37952307 -0.27088085 -0.014965549 0.18365844 -0.4302139
0.15380922 0.11980464 0.22864367 0.20199986 -0.009562233 -0.19033656 0.55450064 -0.0020359517
0.08562573 0.099991515 -0.070639536 0.020948825 -0.19259171 -0.1568491 0.0635916 -0.19262072
-0.2959157 0.11906992 -0.049419 -0.21884798 0.39868593 0.14304574 0.16669983 -0.07330181
-0.4784325 -0.1060248 -0.43610418 -0.27863285 0.24488796 0.21526055 0.016752383 0.28674686
0.20039801 0.0016564962 0.122407 -0.023993928 -0.21691482 -0.24695763 -0.47333443 0.06466044
0.046363108 0.44713998 0.17170349 0.07440827 -0.6311795 0.1537105 0.122002244 0.0063318834
0.14571819 -0.14574611 0.40240473 -0.064640835 -0.37714478 0.13251638 0.018702878 -0.20401901
0.01771335 -0.2186951 -0.17861582 0.110884644 0.09120846 -0.2643232 0.32977256 0.12334026
-0.09327942 0.30280817 -0.20789488 -0.13290346 -0.016099663 0.24649696 -0.2807697 -0.2503699
-0.16422985 0.09624476 0.33907512 0.18613695 0.040133785 0.084683515 0.29433936 -0.11903288
0.36421585 0.3308963 0.2021647 0.4505218 0.044000335 0.06564225 0.32250202 0.23961526
-0.27844474 0.1136624 0.0355333 -0.05256921 0.17396125 0.28347984 0.06771973 0.09953691
-0.058123644 -0.059274193 0.5173316 0.027037036 0.15913883 0.03106616 -0.070291854 0.16909243
-0.02538173 -0.10749401 0.17814916 -0.15806498 -0.21929012 -0.37233603 0.40034783 0.34879085
-0.09053641 0.11545989 -0.1549112 0.034814417 0.14202483 0.060806572 -0.32463786 -0.16714832
0.36294955 0.3218075 0.1770811 0.5157496 0.18229511 0.27814564 -0.17762965 0.17331313
-0.19304538 0.19403517 0.08172266 -0.24146342 0.23104116 -0.045948226 -0.08844223 -0.21166784
-0.17968479 -0.32581165 0.48757768 -0.1624306 0.08779564 0.33214134 0.2939598 -0.17019396
-0.053327173 -0.27627206 -0.037876166 0.026805624 0.43663618 0.4130071 -0.07532226 -0.18764697
0.22599985 -0.5505874 0.2316968 0.023938226 -0.04258525 0.017213866 -0.12227685 0.07043832
-0.33687273 0.1057929 -0.0068823993 0.0049175015 0.06417213 0.39698672 0.20896481 0.18944234
0.24175265 0.11202359 0.23720825 -0.4143571 0.16141048 -0.01934307 0.2075723 -0.015808996
-0.18405442 0.03152052 -0.13628656 -0.010981675 -0.18351385 -0.13287638 0.17473637 0.13070884
0.08843894 0.2700603 -0.23171657 -0.016255973 0.09043541 0.043630052 -0.19996037 -0.32645535

actor.0.bias f4 [32]
00000000: 70ca 89bd 3b3e a83d e919 933e b18e ff3d
00000010: e347 4e3d b611 5a3d 8dc8 853d 8980 9d3d
00000020: 3094 c93d dde1 803d 4b9f 29be 82d9 2a3e
00000030: 4225 1c3e 99fe 99be cd0b 6d3e 15f2 253e
00000040: c794 363e 1d0d 35be cf1c 1c3e 10b0 233e
00000050: f951 2fbd 2f0c 813b c17a 45bd 889e 0b3e
00000060: 99e2 e93d 9b74 16be 9640 853e e208 283e
00000070: f9f6 87bd ca3a 5fbe ec87 583e a3cd 0fbe
-0.06728065 0.082149945 0.28730705 0.12478388 0.050361525 0.053239547 0.06532393 0.07690532
0.09842718 0.0629308 -0.16564672 0.16684535 0.15248588 -0.30077055 0.23149033 0.16205628
0.17830192 -0.17680784 0.15245365 0.15985131 -0.042802785 0.00393822 -0.04821277 0.13634694
0.11420173 -0.14692919 0.26025838 0.16409639 -0.06638903 -0.2179977 0.211456 -0.14043288

actor.2.weight f4 [32, 32]
00000000: f82b 44be db0c 733d 012c 94be dc6b 873b
00000010: 9da3 2dbe e85e be3c 15a9 543e 6610 cebd
00000020: e5be 47bd e424 45be d93c 2e3e 0234 853e
00000030: c571 b7bd e81a 7ebe a948 b5bd b728 71bc
00000040: 40d9 473e ebfa 12be 54eb b5be 8062 cc3d
00000050: b506 6cbe c5c9 d0be cfb6 d93d da96 8bbe
00000060: 0e5b 6d3e 17a1 5a3d b733 bcbe 244f f7be
00000070: cd4b 063c 76c0 47be 9a7e 343d 14cd 7bbd
00000080: 5abc f4bd a5a6 a23e 1dbc 98be 8ed4 d6be
00000090: da56 f9bd 6527 ad3c ef70 3e3e 7080 72bb
000000a0: c6ab 83be 1efc 4fbd db7f 0d3d f2e4 bc3d
000000b0: 7dc4 97be e19a 29be 9a9a 17bd 7bc2 573e
000000c0: 54fe 86be a8c9 353e babb be3d 588a 393d
000000d0: 8a5c 0d3f 1fba 93bd 7b6e 333e 2671 c23d
000000e0: bab9 a33e 09a2 b93d 4496 03bd 8ea4 953e
000000f0: 1fa0 c13d 8cc3 5b3e f31c d4be 92ff bf3d
00000100: 709a 3abe 3649 243d 5f82 a0be 3ccb 0f3e
00000110: 59f9 9d3d 8c8a 653e 9a35 16be 197e 54bd
00000120: 4500 d2be 5dee 303e 4b2c 5dbe 6530 013e
00000130: 58c9 9c3e b6a8 813d 5d67 7dbd 32f2 2f3e
00000140: 1df8 fabc 4d3f 68be ea6d 0b3e 77a5 9cbe
00000150: 6cf3 55bd 2b7f 9fbe 5288 8e3e 7b30 643e
00000160: ba7b 773d 2f86 cc3d 5b3f 7f3e 9a5c 36be
00000170: 565a 363d 7819 c63c 409a 823e b3c8 7d3e
00000180: 82ca cfbe f096 34be d76b 913e 7e0d 323d
00000190: 0ac7 19bf ced3 09bd eb5f fcbe 973f 053e
000001a0: 380d 943e 2b14 d83a 04e0 ad3d 9f77 c63d
000001b0: fbb0 09be e4f1 193e ee56 0c3e fe0f 2a3e
000001c0: 26de d0be fb4b dd3e 2ec3 8f3d 292e f43d
000001d0: 58c9 c3be 26c0 8c3d c6da de3a 3df8 cbbd
000001e0: 32da a93e 473e 9d3d 30c3 e3be 633d 7dbd
000001f0: c342 8e3e 2298 1b3e 7fc1 2c3e 0510 a0be
00000200: d74b 17bd 5a04 9cbe 5f96 c0be 687f 87bb
00000210: 32c1 b3bd 4f19 4abd a4cc e3bc 264b f83c
00000220: 8d41 4a3e 5c24 983e 12b3 a63d 46bf 3d3e
00000230: 1a64 083e 4f20 283e eefa a43d dc3a 823e
00000240: 7471 b5b7 6a38 adbd 5be3 35bf 177f 163f
00000250: 0b2d 66bd 7273 1b3e bf57 1f3e d43b ae3c
00000260: 5c82 e53d 9fd7 a2bd 2ab9 83be c188 123e
00000270: cd2d 843e 5496 ddbb 492b 3b3d e694 19be
00000280: eab7 fa3d 214c 853c 17c1 263e 5439 303d
00000290: 7d28 893e 4b46 0a3e 1da1 9cbe 9efb b8bd
000002a0: 7dba 50bd 9285 95bd 9b73 343e b631 903d
000002b0: 69a7 893c adeb dcbd 0233 8e3e e314 f93d
000002c0: e869 ad3d 2cd8 db3e 56eb e53e c613 4abe
000002d0: 211b 953e 7692 b9bc d8c2 a33e af6a af3d
000002e0: dea7 a3be 5657 17be 5354 31bc d2df 9cbd
000002f0: ac10 d53c c3aa f7bd 9372 b43d 749f e53e
00000300: f5bd 20be 62b4 c4bd 00de 92bd 42a0 10be
00000310: 83b0 3ebb 2afc cabc 3ce5 30bd eb2f b93d
00000320: 70e2 dbbd b23a 64bc e61e c33d d06b 1c3d
00000330: 9a5d 983d abbb 11be c23d 3cbd 2b1c fdbd
00000340: f5cb 1abe 6460 35be 5b72 e83c 44c7 05bd
00000350: d44c 11be aced 93bd f5cb 0bbe f07a 5cbd
00000360: e8d9 763c 6d90 bb3d cee9 fabd 5fb5 463d
00000370: 94cb 0bbe 3144 0ebd 20a3 93bc d4bf 073b
00000380: c921 533e 6cea 193d d45c 203e f895 96bd
00000390: 92fc 923c d0f8 06be bd95 8b3e 5a11 953d
000003a0: 5acd d53c 9fb9 1b3d 9d36 aa3e a65b 8cbd
000003b0: 6e41 81be 4064 d9be b89c 613d a1d7 72be
000003c0: adbe a33e 2006 833e a2ce 043e c757 99be
000003d0: de5c 0c3e 43e5 fc3d 5af8 403e 3ad0 1bbe
000003e0: b63d 023e bcbe 00bf e093 013e 1cd0 5abe
000003f0: e6c4 1d3e 9e57 c1bd 28a2 87be bc91 8e3d
-0.19157398 0.05933843 -0.28939822 0.004132731 -0.16956945 0.023238614 0.20767625 -0.100617215
-0.048766036 -0.19252354 0.17015399 0.2601624 -0.08957247 -0.24814951 -0.088517494 -0.01471918
0.19516468 -0.1435353 -0.35531104 0.09979725 -0.23049434 -0.40778938 0.10630571 -0.27263528
0.23179266 0.053376283 -0.36758205 -0.48302567 0.008196783 -0.19507012 0.04406605 -0.061474875
-0.11949988 0.31767765 -0.2983102 -0.4195904 -0.12174769 0.021136949 0.18597768 -0.0037002824
-0.2571699 -0.050777547 0.03454576 0.09223355 -0.29642096 -0.16562988 -0.037012674 0.21070282
-0.26365912 0.17752707 0.0931315 0.04529795 0.5521933 -0.07213234 0.17522614 0.094942376
0.31977636 0.09064109 -0.032125726 0.29227108 0.09454369 0.21461314 -0.41428337 0.09374918
-0.18222976 0.040108882 -0.31349465 0.14042372 0.07713575 0.22416133 -0.14668885 -0.05187807
-0.4101583 0.17278428 -0.21598928 0.12616117 0.30622363 0.06331007 -0.061866153 0.17182234
-0.030635888 -0.22680397 0.13616148 -0.3059499 -0.0522341 -0.3115171 0.2783838 0.22284119
0.06042073 0.09986531 0.24926512 -0.17808762 0.044519745 0.024182066 0.25508308 0.24783592
-0.4058419 -0.17635703 0.28402588 0.0434699 -0.60069335 -0.03364926 -0.4929193 0.13012539
0.28916335 0.0016485503 0.08489993 0.09690785 -0.13446419 0.1503368 0.13705036 0.16607663
-0.40794486 0.4322203 0.070196494 0.11922867 -0.3823955 0.06872587 0.0017002455 -0.09959457
0.33174282 0.07677894 -0.44484854 -0.06182612 0.2778531 0.15194753 0.16870688 -0.31262222
-0.03693756 -0.3047207 -0.37614724 -0.004135061 -0.087770835 -0.049340542 -0.027807541 0.030309271
0.19751568 0.2971524 0.08139624 0.18529996 0.13319436 0.16418575 0.080556735 0.2543553
-2.1629712e-05 -0.08458026 -0.7105004 0.58787674 -0.0561953 0.15180758 0.15560816 0.021268763
0.11206505 -0.07951283 -0.25727206 0.1430998 0.25816193 -0.0067623053 0.045695577 -0.14998206
0.1224211 0.016271653 0.16284595 0.043023422 0.26788703 0.13503377 -0.3059167 -0.09032367
-0.0509591 -0.07300867 0.17622225 0.070407316 0.01680346 -0.10787139 0.2777329 0.12162187
0.08467466 0.42938364 0.4490611 -0.19734105 0.2912226 -0.022652846 0.3198459 0.0856527
-0.3196401 -0.1477941 -0.010823327 -0.07659878 0.026008926 -0.12093117 0.08810916 0.44848216
-0.15697463 -0.09604718 -0.071712494 -0.14123634 -0.0029096908 -0.024778444 -0.043187365 0.09042343
-0.10736549 -0.01393001 0.09527378 0.038188756 0.07439728 -0.14231746 -0.045957334 -0.12358888
-0.15116866 -0.17712551 0.028374841 -0.032660738 -0.14189464 -0.07223067 -0.13652022 -0.05382818
0.015066601 0.091584064 -0.12251626 0.048512813 -0.13651878 -0.034733 -0.01802212 0.0020713704
0.20618357 0.037577078 0.15660411 -0.07352823 0.0179427 -0.13180852 0.2726268 0.072787
0.026098896 0.03801882 0.33244792 -0.06853418 -0.2524523 -0.42459297 0.0550811 -0.23715068
0.31981412 0.2559061 0.12969449 -0.2994978 0.13707301 0.12348416 0.18844739 -0.15216151
0.12718853 -0.5029104 0.12654066 -0.2136845 0.15407142 -0.0944054 -0.26490903 0.069613904

actor.2.bias f4 [32]
00000000: 8827 3fbe 735c de3d 276c 803d 5ac7 6b3d
00000010: a3bb 9dbd 4297 3f3e 0b20 3fbe 5fa4 80bd
00000020: 7c15 a73d ff9b 6a3d 4805 60be 7366 bf3c
00000030: 2c7b 023d e073 a83d 41aa b63b 179c 593e
00000040: 9c65 23bd a224 493e 6fa2 a6bd 1973 ea3d
00000050: 7036 f13d 76a0 a4bc 364a 70bd 7560 ce3d
00000060: fced 2c3e d685 6f3c aa92 4dbd 407c 83bc
00000070: df1c a2be 4118 0e3e 9134 25bd 85c0 85bd
-0.18667424 0.10857477 0.062706284 0.057563163 -0.077018045 0.18710044 -0.18664567 -0.06281351
0.08158395 0.057277676 -0.21877015 0.023364281 0.031855747 0.082252264 0.005574495 0.2125095
-0.039891824 0.1964288 -0.081364505 0.114477344 0.11777961 -0.020096045 -0.058664523 0.100769915
0.16887659 0.014619311 -0.050188698 -0.016050458 -0.31662652 0.1387644 -0.040333334 -0.06530861

actor.4.weight f4 [2, 32]
00000000: 019e cabe bf14 0d3f 7bf1 c13e 3bc9 e1be
00000010: c6b0 a03e 18c4 babe b3f0 afbd 93b6 b9be
00000020: 52f7 fd3e d972 743f 3c4d 4cbd 1600 833e
00000030: efea 82bd 824a 26be 2204 343f 9528 403f
00000040: 97eb 04bf e6c5 8bbc 3208 3a3d 75c6 96be
00000050: 5b30 d0be fee2 da3e 16aa d13e 8a6d 25bf
00000060: 8a9e b33c 9fba 493f 0e1c cebe 9230 e23d
00000070: 43a3 87bc 0e76 3abe f720 5cbf b3b3 1b3f
00000080: da35 003f 272b b8bd 75d3 25be 34e5 003f
00000090: 7e06 2f3e 10d0 80be ed53 bf3d 5673 173d
000000a0: c963 93bd 88a0 f0be 9ce3 e83e a40a 1a3f
000000b0: ae51 2b3f 5b1e 1ebf 476d 713e 4bab 04bf
000000c0: 76e3 193f a050 1ebf 342e 003f b9a3 16bf
000000d0: 1547 0b3f 8f78 07be df31 bbbe 2391 79be
000000e0: 88b9 15bf 6f45 123e 3b24 133f a52e 71bf
000000f0: f124 143f c9ba 2abf 7288 90be 05f6 bbbe
-0.39573672 0.5510978 0.37879547 -0.4409884 0.31384867 -0.36477733 -0.085908316 -0.36272106
0.49602753 0.95487744 -0.049878344 0.25586003 -0.06392466 -0.1623936 0.70318806 0.75061923
-0.5192198 -0.017062139 0.045417972 -0.29448286 -0.40661892 0.42751306 0.40950078 -0.6462027
0.021926183 0.78800386 -0.4025578 0.1104442 -0.016557341 -0.18209097 -0.859878 0.60821074
0.5008217 -0.08992606 -0.16193946 0.50349736 0.1709232 -0.2515874 0.093421794 0.036975227
-0.07196767 -0.46997476 0.45486152 0.60172486 0.6692151 -0.6176507 0.23576842 -0.5182387
0.601127 -0.61841774 0.500705 -0.5884357 0.5440534 -0.13229583 -0.36561486 -0.24371772
-0.58486223 0.142843 0.5747716 -0.942118 0.5786887 -0.6669126 -0.282291 -0.36711136

actor.4.bias f4 [2]
00000000: 93ae 5bbe 5138 e7bd
-0.21453314 -0.112900384
