results/SandingEnvDifficult/ddpg_extension/model/model_parameters_1.pt (torch, 36482 bytes, 22 tensors)

value.0.weight f4 [32, 20]
00000000: 9dfc 2ebd a4e7 6fbd 4cf3 b5bc 27d3 023e
00000010: d7fa 89bc 6a78 04bc 5a3e 333e 76f2 54bd
00000020: 5154 87be 6cf3 103e da7d 0dbc dcbb 73bc
00000030: 7a5b 18be 88be 2e3d bc4e 15bd 1b09 e9bd
00000040: 26cf 14be 7d25 323e 01ae 9dbf 326a 2bbf
00000050: 97ff a4bd ab83 01bd a2d6 adbd e37f 153e
00000060: df60 a6ba a91a acbb 466c c6bd d84f cc3d
00000070: 46e8 05bc 3259 92bb 10cd c5bd a8b8 e4bd
00000080: eb50 86bd 0c9f 11be 4ce0 b73b 7a86 12be
00000090: 6178 65be 335c 2b3c 7f5f ad3d 46b8 8d3f
000000a0: ab37 083d eaf3 adbd 7ca8 d43d bba0 c6bd
000000b0: 9069 fdbd f8bc 973d 1d2a 32be b779 f7bd
000000c0: 8c97 9abd eff9 063e 713b 623b 58e5 b5bd
000000d0: 6c74 433e fcac b53d 09b1 24be 76d1 0abd
000000e0: 0c86 8e3c 1bd0 603e db24 9d3f 359e aabf
000000f0: 076f c2bd f573 073e ef25 5a3d dcc8 ab3d
00000100: 6968 f83b 8edb dd3d edf1 993c c7f0 da3d
00000110: 7aca 553c 8b27 8bbd 9ef0 2b3e 480d 113e
00000120: e36d 6b3e c6c6 75bd e110 f53c 845e c33d
00000130: 79e3 253e d79f 28be 8ad2 0940 88ea 603f
00000140: e1f4 9c3d 8eb8 6d3e b7c6 9a3d b716 2c3e
00000150: a5fe 22bd d340 5ebd 2d06 fd3d 3704 d43d
00000160: 6acc 5abd a8b4 733d 4dbd 763e 866e 1c3e
00000170: 6451 babd 7839 00be 7a15 e5bd e152 babd
00000180: fd6d 90bc 3373 e03d f20d c73f 1e47 ffbc
00000190: c6d9 ed3c d10c 183e 9e7d 043e 6055 7f3a
000001a0: ec5c 253d 94cb e0bc 68bd fdbb f395 863d
000001b0: 7146 8f3c 79b9 a7bc 86a7 51be c828 63bd
000001c0: 0811 703d cb21 7fbd 53f5 adbc b978 e53d
000001d0: 4fb3 f63c cccb 2ebd 5145 67bf 449a 70bf
000001e0: 0f03 0abe 6bb5 28be 8a5d 193e 00e2 bd3d
000001f0: 6573 9b3c c880 6a3c b588 563d 9d0b db3c
00000200: cee6 70bb 7e0b bfbc 53d1 b43d 5e0e cd3d
00000210: 867c 0fbe a6dc e2bd 30b1 083e d3bc c9bd
00000220: 838a 08bd d952 a53d 97fb 36be 4a0f 21be
00000230: bcf5 abbd 3a7f 91bd 1767 103e 06f6 c8bd
00000240: 611d 013d 06ab 2abd 3056 d63b bde7 81bc
00000250: 0384 763d 37d2 13bd af95 213d 3794 33be
00000260: 6646 0abd 4c56 493b c290 e3bd be54 15be
00000270: bfc7 bc3b 8653 5bbe ce0d 123e 2e91 42bf
00000280: 0094 933c 301c 013d e78a 11be 5be1 633e
00000290: 29e7 b43d 557c 013e 326e 2abd d234 04be
000002a0: c01b 90bc 0068 1abc 404e 0c3e bb5b a6bd
000002b0: 4b66 afbd 572d 2e3d cc0b 99bd 0919 28be
000002c0: f22e 9dbd d91a 80bd 5238 843f b94f 4cbe
000002d0: 177b 4fbd 59f7 cb3c a0f7 2dbe 436e 2a3e
000002e0: 0f84 76bd b997 193d 0f30 af3d 5fa6 623e
000002f0: f76f 753b 87c0 eebc 5f6f 843e 5663 0a3e
00000300: 952e 30be 1346 2e3d 74c7 a23c e148 313e
00000310: d3d6 e7bd 64ac e23d f198 07c0 2110 233e
00000320: 8970 883d 722a 7d3e f10c 2ebd 4356 203d
00000330: 6765 5ebb cca0 12bd 0e34 52bc ff8c 08bd
00000340: 7600 37bc c43b 39bc 7cfa 9f3d e5c8 50bd
00000350: ff14 343d c2e6 f63c b7d6 b6bd 6598 4f3e
00000360: e7d9 a6bc bf81 433e a227 b73f 0ad2 d43e
00000370: 346e e2bd c30c 203e 67af 883e 8316 c23e
00000380: 374b 463d 7d6e a6bd f189 2e3d f1da a9bc
00000390: f206 723d 1ee3 4dbc c959 09be 7526 033c
000003a0: aada 503e 5243 1cbd 6bdd 0f3e 3864 b83d
000003b0: 9d83 47be e68a 81bd 2112 8e3f 9ad3 a9bd
000003c0: b95e df3c ff79 f3bd 8f8d febd a137 15bd
000003d0: f595 af3b bdab a2bc 5ed6 a93c 0da7 b03d
000003e0: 5050 c63c 179e dabc 50dd 2dbe e5a2 81bd
000003f0: 16e4 423e b40b 083e 65a2 dbbd 4726 f9bc
-0.04272138 -0.05857052 -0.02221074 0.1277586 -0.016843243 -0.00808535 0.17504254 -0.05198904
-0.26431516 0.14155358 -0.008635962 -0.014876332 -0.14878646 0.042662174 -0.03645204 -0.1137869
-0.14532146 0.17397113 -1.2318727 -0.66958916 -0.080565624 -0.03161971 -0.084882036 0.14599566
-0.0012693665 -0.0052522016 -0.0968862 0.099761665 -0.008173054 -0.0044661993 -0.09658253 -0.11168033
-0.06558403 -0.14220828 0.005611455 -0.14309111 -0.22409202 0.010458994 0.0846548 1.1071861
0.033256214 -0.084937885 0.10383698 -0.09698626 -0.1237365 0.0740909 -0.17398877 -0.12083762
-0.075484365 0.1318128 0.0034520293 -0.088816345 0.1908738 0.08870885 -0.16083159 -0.033891164
0.017397903 0.21954386 1.2276872 -1.3329531 -0.09493833 0.13227828 0.053258833 0.0838792
0.007580806 0.10832892 0.018792117 0.10690456 0.013048762 -0.067946516 0.16791007 0.14165223
0.22991137 -0.06000402 0.029915275 0.09539512 0.16200055 -0.16467224 2.1534753 0.87857866
0.076638944 0.23214933 0.07557433 0.1680554 -0.03979363 -0.05426104 0.123546936 0.103523664
-0.0534176 0.05949846 0.2409565 0.15276536 -0.09097555 -0.12521923 -0.11185737 -0.09097839
-0.017630571 0.109594725 1.5551131 -0.031161841 0.029034507 0.14848639 0.12938544 0.00097402
0.04037182 -0.027440824 -0.0077435263 0.06571569 0.017489644 -0.020474182 -0.20474061 -0.055458814
0.058609992 -0.062288087 -0.021235144 0.11204667 0.030114798 -0.042674825 -0.90340143 -0.9398539
-0.1347773 -0.16475455 0.14977089 0.09271622 0.018975923 0.01431293 0.052376468 0.026738936
-0.0036758664 -0.02332091 0.08828988 0.10012506 -0.14012346 -0.110772416 0.13348842 -0.098504685
-0.03333522 0.080724426 -0.17869411 -0.15728489 -0.083964795 -0.07104345 0.14101826 -0.0981255
0.03152216 -0.041667007 0.006541036 -0.015857572 0.06018449 -0.03608915 0.03944939 -0.17537008
-0.033758543 0.0030721603 -0.11111595 -0.14583108 0.0057611163 -0.2141858 0.14263079 -0.76002777
0.018014908 0.031521022 -0.14213143 0.22253935 0.08833153 0.12645085 -0.041608997 -0.12910774
-0.017591357 -0.00942421 0.13701725 -0.08122965 -0.08564433 0.04252371 -0.07472953 -0.164158
-0.0767497 -0.06255121 1.0329688 -0.19952287 -0.050654497 0.024898218 -0.16988993 0.16643624
-0.060184535 0.03749821 0.08554088 0.22133778 0.003745077 -0.029144539 0.2586622 0.13514456
-0.1720527 0.042547297 0.019870497 0.17312957 -0.11320271 0.11068037 -2.1187098 0.15924121
0.066620894 0.24723223 -0.04249281 0.039144766 -0.0033934952 -0.03579788 -0.012829794 -0.03333759
-0.0111695435 -0.011305753 0.07811448 -0.050972838 0.043965336 0.03013933 -0.08927672 0.20272978
-0.020367576 0.19092463 1.430897 0.41566497 -0.11056176 0.15629868 0.2669632 0.379078
0.048411574 -0.08126543 0.04261202 -0.020734282 0.059088655 -0.012566356 -0.13413157 0.008004774
0.20395914 -0.03815014 0.14049308 0.0900349 -0.194838 -0.06325321 1.1099283 -0.08292313
0.027266847 -0.11888503 -0.12429344 -0.036430005 0.0053584524 -0.019857282 0.020732101 0.086256124
0.024208218 -0.026686711 -0.16978955 -0.06329898 0.1903232 0.13285714 -0.10724334 -0.03041376

value.0.bias f4 [32]
00000000: 4368 f8bd 1551 24be 4f83 263d effa cabd
00000010: 64b1 843d 1b72 4f3e a28a 52be 4ea5 e7bb
00000020: 76e2 50be 8201 153d 28c6 693e e4eb 42be
00000030: 74ed 2a3e 458a 303e 4a14 063e 4c01 22be
00000040: 36f6 0a3c 00f7 323e 0610 153e 9ef9 203d
00000050: 5021 6cbe 3fbc 85be 688a 0bbe 3206 e13a
00000060: 9daa 7bbe 8d19 debc 557e 6b3e 371e c63b
00000070: 32f1 e23d 4d32 bf3c 0169 313e c72a d3bd
-0.12129261 -0.16046555 0.04065257 -0.09911143 0.06479147 0.20258372 -0.20560697 -0.0070692664
-0.20398888 0.03637839 0.22829497 -0.19035298 0.16692144 0.17240246 0.13093677 -0.15820807
0.008481553 0.17477036 0.14556894 0.039300554 -0.23059583 -0.26120183 -0.13627017 0.0017167984
-0.24576803 -0.027111793 0.2299741 0.0060460824 0.110811606 0.023339415 0.17325212 -0.103108935

value.2.weight f4 [32, 32]
00000000: bc2b 253c 6259 ae3c 02f5 173e b591 6ebd
00000010: 1b56 76bd ee28 d2bd dfb1 9f3d 2435 d1bb
00000020: 1f17 46bd d1aa 5fbe 3698 15bd 0a30 693d
00000030: 74ba 2bbe ad22 503e 51c0 f33d 57da 413d
00000040: d7b1 e3be ab5f 433e 2af7 193c e022 00bc
00000050: f86c 4bbc 1b1b ca3c 4a94 babd 8615 f93a
00000060: ac9d bfbd 1c8b 73be 2afe 113e 56bd 393d
00000070: 6121 2d3e 6c88 783d fafb 053e 6098 0dbe
00000080: 05b3 583d 2363 ae3d 9a2c 043d 09b3 7e3e
00000090: f4b0 9f3d c342 bcbd 8c20 0cbe 3e87 f7bd
000000a0: ea43 133e 4d59 753d 0904 763e fc70 043e
000000b0: bbfb 163e eb56 d33d c5bc a2bd 340c 593d
000000c0: 27e4 c4bf 1ffe 3cbe 83be 16be 9995 253e
000000d0: 12d8 54be af41 193d ebaa b2bd 3f64 3f3d
000000e0: 281e e8bd acde c23d 3085 99be e675 97bd
000000f0: 1764 d2bd 8669 fd3d c21f 1f3e c15d aabd
00000100: c9af 913d b4c5 a33d 8c16 8abd 892e eb3d
00000110: 37dd ccbc e07d 1ebb d576 073e 03ca 2fbe
00000120: 96e1 f03d 664d 223e f542 45bd 26d2 0c3e
00000130: 7240 47bd 72fb b43d aa9a 253d 81fc e73d
00000140: 1e57 a1bc 5ef0 6d3d 2f1b a6bd 3da0 373d
00000150: 7fd1 ba3d 8ec6 a03d 434a 13be 468b 953e
00000160: 8637 303d a72c 813d ffde 883c 292f 38be
00000170: 8364 43bd b1bc 693d 55eb 3ebd d384 17be
00000180: ce37 a73d bfb6 043e 1fc9 5a3e fa52 e23d
00000190: 6bd8 3c3e 3827 843d 5008 2fbd 6323 c43d
000001a0: e4d7 72bc 21e9 b03d 5089 48be f443 893d
000001b0: b0c7 0dbe ebed 5a3d 1868 273b c04c 41be
000001c0: 04b0 3cbd 548e f73d e936 e2bd bf1d b03d
000001d0: dfb5 173d 93ee d83d d9c2 e93d 585e c9bd
000001e0: f917 9e3d 79b8 253d 9c63 70bd 5adb 853d
000001f0: 715c d3bb 292b c7bd f887 c73d fe18 d53c
00000200: d98e d53c ac1b 08bd 1bd6 67be a324 f8bd
00000210: 21bd e83d 4b07 083e 1930 9cbc f2f1 023e
00000220: 1fe3 18be 4fef c43d 98c8 80bc 9e5b 0f3e
00000230: 4ca7 1a3c 4285 0d3c a059 04be 8e26 2d3e
00000240: d7ba febd 6933 9d3d 497f 4abe 31f1 b33c
00000250: 982f fd3d 685f cc3d e310 adbc 216c 333e
00000260: 7dec 453d 0d06 743d b455 bf3d 568d febc
00000270: 5ddc 25be 41ae 8abc 0cc5 2cbe 5af9 3cbd
00000280: f6ab e1bd 8268 0c3e 63d6 4b3d ce02 1a3d
00000290: a901 e2bd f6d4 193e e180 663d f4c8 42bd
000002a0: 099e f23d afbb e33d f6c2 90bc 3aa3 d13d
000002b0: 4fa8 68ba dc97 f83d 328b c23d 8c4a 003e
000002c0: 56bb 90bc e1eb cd3d f3b6 e6bd cfa5 533d
000002d0: dbc0 d73c a2f2 253c 3548 8a3d 055e dabd
000002e0: ebee 98bd 2f8d 673c d08b 333d 855b 7d3d
000002f0: f4ca 2f3e 62a7 d2bc ec46 883c d95a 603c
00000300: d3b8 05be e766 31be 2627 c23c 684e e3be
00000310: 5d5d 913c db3a 633e a7da 69bd 89be e2bd
00000320: 453f 5b3e a33f 893d e27d c6be 4693 a7bd
00000330: 4f93 0f3d a3f8 16bd fd04 a33d 1d7f 4fbd
00000340: ac97 3cbe 5c62 20bd 1ac1 9e3d 757e 99be
00000350: b28f 49be 5318 bf3d fea5 da3c 879a 02be
00000360: 8cd4 eebd 6837 3dbe 287c b43d f2cc f6bd
00000370: 664d 153e 17e9 bd3d a51f 88bd 1e56 ae3d
00000380: 79d9 af3e 41b1 61bf eb11 b6bd 499f 183e
00000390: 5a2a ff3d 7434 87bd fc55 67bf 331b c3bd
000003a0: e675 913d 7711 a33d cf6a c73c 9a47 123e
000003b0: d93d 0e3d 41f0 80bb af9d 9bbe da3e e8bc
000003c0: 8807 bd3e 3aa4 0dbc 0272 a83c fc62 8cbe
000003d0: e800 d13c 79b0 273e 5efe e5bd c5d1 9d3c
000003e0: 64cb aabd aeff d4bd 46b0 d5bf 5149 53be
000003f0: 9267 19be 2799 99bd e191 873c c8b6 eebd
0.010081228 0.021282855 0.14839557 -0.058244426 -0.06014071 -0.10261713 0.07797598 -0.0063845087
-0.048361894 -0.21842505 -0.036522113 0.05693058 -0.16770345 0.20325728 0.11901916 0.047327366
-0.4447162 0.19079463 0.009397307 -0.007820815 -0.012416117 0.024671128 -0.09110315 0.0019003607
-0.093562454 -0.23783535 0.14257112 0.04534658 0.16907264 0.060676977 0.13084403 -0.13827658
0.0529051 0.085150026 0.032269098 0.24872984 0.07797423 -0.09192421 -0.1368429 -0.12086342
0.14381376 0.059899617 0.24024977 0.12933725 0.14744465 0.10319313 -0.07946161 0.052990153
-1.5382127 -0.18456315 -0.14721112 0.16170348 -0.2078555 0.037416156 -0.08724006 0.04672646
-0.11333877 0.095151275 -0.29984426 -0.07395534 -0.10272997 0.123736426 0.15539458 -0.083186634
0.071136065 0.07996693 -0.06742582 0.11483485 -0.025007827 -0.0024183914 0.13228925 -0.17166905
0.11761777 0.15849838 -0.04815956 0.1375204 -0.048645444 0.08837022 0.040430702 0.11327458
-0.019694861 0.05809056 -0.081106536 0.04483055 0.091219895 0.07850371 -0.14383797 0.2920782
0.0430217 0.06307345 0.016707895 -0.1798674 -0.047703277 0.057064716 -0.04661115 -0.14796762
0.08164941 0.12960337 0.21365784 0.11050983 0.18441932 0.06452793 -0.042732537 0.09577062
-0.01482198 0.08638216 -0.1958363 0.06702414 -0.13845706 0.053449553 0.0025544222 -0.18876934
-0.0460663 0.12087694 -0.110456295 0.085994236 0.03703868 0.105923794 0.11414117 -0.09832448
0.07719416 0.04045913 -0.058688745 0.065359786 -0.006450229 -0.09725029 0.09742731 0.026012894
0.026069092 -0.033229515 -0.22640269 -0.12116363 0.113641985 0.13284032 -0.019065903 0.12787607
-0.1493039 0.09615957 -0.01572065 0.13999793 0.009439301 0.008637728 -0.12924814 0.16909239
-0.124379806 0.07675821 -0.19775118 0.021965595 0.123625934 0.09979135 -0.021126216 0.17521717
0.048321236 0.059576083 0.093425184 -0.031073254 -0.16197343 -0.016928794 -0.16872042 -0.046136238
-0.11019127 0.13711742 0.049765002 0.03760033 -0.11035473 0.15022644 0.056275252 -0.047554925
0.11846549 0.11119782 -0.01767109 0.10236211 -0.00088751776 0.1213834 0.09499206 0.12528437
-0.017667454 0.10054756 -0.112653635 0.0516718 0.026337078 0.010128649 0.06752054 -0.10662464
-0.07467445 0.014132782 0.043834507 0.061854858 0.17167264 -0.02571458 0.01663538 0.013693535
-0.13058786 -0.1732441 0.023700308 -0.44395757 0.017744714 0.2219042 -0.05709329 -0.11071498
0.21410854 0.06701591 -0.38767916 -0.08182387 0.035052594 -0.036858212 0.07959936 -0.050658334
-0.18417233 -0.039156303 0.07751675 -0.29979292 -0.19683722 0.09330811 0.02669048 -0.1275426
-0.11661634 -0.18478167 0.088127434 -0.12050809 0.14580306 0.09272974 -0.06646661 0.08512519
0.34345606 -0.88161093 -0.08890136 0.14904512 0.1245925 -0.066018015 -0.90365577 -0.09526672
0.071025655 0.079623155 0.024342922 0.14285126 0.03472695 -0.0039348905 -0.3039374 -0.028350282
0.36919808 -0.008645112 0.020562176 -0.2741927 0.025513127 0.16375913 -0.11230157 0.019265065
-0.08339575 -0.104003295 -1.6694419 -0.20633437 -0.14980915 -0.074999146 0.016549053 -0.116559565

value.2.bias f4 [32]
00000000: ca42 49be 79e4 023d aecc 22be 886f 863b
00000010: 3edc 303d 01c0 df38 bf00 71bd 8730 b8bc
00000020: 3848 09bc ddcd a13d c177 32be 6486 2ebd
00000030: 33c8 93bc 7c0d 443e 3864 4fbd 9eaa 133c
00000040: 5d1f 39be 7ae4 523e c1a6 cbbd 6c4c e03c
00000050: a201 b6bd 5710 77bc 3c76 603e 1a07 2bbd
00000060: ce4a 6dbb 687c 52be b0e8 73bd 0137 bf3b
00000070: a9d3 a23d 5cbf 873e 9159 89bc 1b8f 72be
-0.19654384 0.03195617 -0.15898392 0.004102651 0.04317879 0.00010669232 -0.058838602 -0.022484077
-0.008379035 0.079005934 -0.17428495 -0.042608634 -0.018039798 0.19145769 -0.050632685 0.009012846
-0.1807837 0.2059497 -0.09943915 0.02738019 -0.0888703 -0.015079579 0.21920103 -0.04175482
-0.0036207917 -0.2055527 -0.05954808 0.0058354144 0.07950527 0.26513183 -0.016766341 -0.23687403

value.4.weight f4 [1, 32]
00000000: e69e 8a3c a36f b33d e7aa e53c 31a3 a23c
00000010: c31c 6fbc f9dc fbbd a840 ed3c 3362 9a3d
00000020: 0f23 e7bc 2ac4 8c3d ec80 d23d dded 5b3d
00000030: d720 fb3c e11d 0ebd 8306 88bc 8a3a 193d
00000040: e2e0 923d ed01 dfbc 8380 763d ce63 cabc
00000050: 7b4f 723c 0bc7 bbbc 7b8d dbbc fa23 7c3d
00000060: 9549 a2bd ea42 0d3e 4185 ad3c 9f78 e23c
00000070: b5de de3c b261 e4bc db7c e4bc 5e3f e73c
0.016921472 0.087615274 0.028035594 0.019853206 -0.01459426 -0.122980066 0.028961495 0.07538261
-0.02821496 0.06873353 0.10278496 0.05369364 0.030655308 -0.034696463 -0.016604668 0.037409343
0.07171799 -0.027222598 0.060181152 -0.024705794 0.014789457 -0.02292206 -0.026800862 0.061557747
-0.07924191 0.13795057 0.021181704 0.027645407 0.027205804 -0.027878616 -0.027891567 0.028228458

value.0.weight f4 [32, 20]
00000000: cf4f 2dbd f0ae 75bd d83d cdbc b0d3 ff3d
00000010: ca35 87bc dfa9 0dbc a4e5 303e 3d19 45bd
00000020: 52d4 86be 6157 123e fc45 f5bb fde0 60bc
00000030: 7268 17be e691 273d 8e91 1abd 83aa ebbd
00000040: e902 16be 8e5b 333e ee0b 9ebf b662 2bbf
00000050: 61c4 9ebd 847b 09bd 865b b0bd 733d 143e
00000060: 25b6 39ba a92c e7bb 3091 bfbd c74a c93d
00000070: f0a9 08bc 1926 dfbb cb6e c5bd 635a e4bd
00000080: 7dae 89bd f32b 13be f8ae e33b 0128 11be
00000090: 2569 66be 072d 183c 8474 ae3d 2b24 8d3f
000000a0: 07bb 033d 7e2c abbd ba2e df3d 7d1a bcbd
000000b0: 98e9 fdbd ccd7 9e3d c198 31be 12a3 f4bd
000000c0: 6309 9abd 7fdb 073e 848b 893b 825e b4bd
000000d0: 2519 443e cecf b53d d165 25be cfa4 0dbd
000000e0: 4f3d 8d3c 155a 613e 7686 9c3f 9f17 aabf
000000f0: b65a c3bd 743b 073e 8b25 5a3d 78c8 ab3d
00000100: 6e98 fc3b 609b e03d 2ce2 ad3c 357b e03d
00000110: 1ae6 3a3c 299b 89bd 50a3 2b3e fabf 103e
00000120: 9f06 6b3e f698 75bd ae7a f73c fdf8 c33d
00000130: 8624 263e fbf2 28be b3cd 0940 f9ff 603f
00000140: 58e8 9c3d 7fee 6e3e ebfc 8e3d d431 263e
00000150: 529e 29bd fff6 5ebd cbca fc3d 2b39 d13d
00000160: 5410 57bd 24d0 763d f3b4 753e 2c66 1b3e
00000170: bb06 bebd f3e5 01be 994d e3bd 008b b8bd
00000180: 1f48 89bc cd06 de3d 9d1e c73f d590 f6bc
00000190: 9350 ee3c 4952 183e b182 073e 1e8d 803b
000001a0: bc14 253d 978b ddbc 692c 26bc bdf0 863d
000001b0: c6e9 8b3c 11ff aabc 5fdd 51be 3d00 64bd
000001c0: 7756 6e3d 8907 80bd 2cb6 abbc 8b08 e63d
000001d0: 6aa2 fc3c 78cc 2ebd 9682 66bf 9393 70bf
000001e0: 711a 0abe 7ef6 26be 1c62 1e3e 2aeb c73d
000001f0: 93e2 a63c 97fc 683c 8315 543d b0b2 e53c
00000200: b36e 3cbb b5d0 a7bc 92f1 b53d 9d2e ce3d
00000210: 2eb3 0fbe 71ed e4bd 3017 083e daf0 cabd
00000220: 52d4 05bd 494b a63d ad64 35be f522 21be
00000230: d65f acbd 89cb 93bd 3446 0f3e d537 cbbd
00000240: 4280 fc3c fca4 2bbd b409 683b 497b 8ebc
00000250: 5efd 793d 858c 18bd 4977 233d cf1b 33be
00000260: 306e 08bd 2174 563b 121c e3bd 641a 15be
00000270: 3ab3 c93b 83c4 5abe 6f10 0f3e 1ab5 42bf
00000280: e557 b13c c7a6 ff3c cc60 0fbe 760b 663e
00000290: 9fe3 b23d 2264 013e 1481 24bd 802f 04be
000002a0: 9308 82bc bef0 fcbb 92b6 0c3e 278b a5bd
000002b0: a6b2 aebd df1b 2c3d 3d7c 9bbd 4751 29be
000002c0: 0bdb 9cbd e69b 7dbd 6833 843f 214e 4dbe
000002d0: 5195 4fbd d877 e13c e59f 30be fec5 273e
000002e0: adc2 67bd 7b2b 243d da6a ad3d fff2 623e
000002f0: 4af1 b33a 9d3d 00bd 275a 843e e138 0a3e
00000300: 7d4a 30be 3b6e 2f3d 0554 a23c 6d3a 313e
00000310: c33e e8bd a403 e23d 5945 07c0 866b 243e
00000320: 5635 873d 8dc0 7d3e 82b8 30bd b2aa 1d3d
00000330: 37bd ebb9 52c7 0abd db87 22bc 659b fbbc
00000340: d7a1 47bc 0df4 29bc 898b 9f3d b5a6 51bd
00000350: bbad 323d 1019 f83c a542 b6bd 72e2 4f3e
00000360: df6e a6bc d919 433e e11e b73f 4ef4 d43e
00000370: 37ca e2bd 804c 1f3e 03af 883e 1f16 c23e
00000380: 94e5 413d 37f8 a8bd bc2e 403d 2af1 8dbc
00000390: 7b01 723d c61a 58bc 9b11 09be f3a9 073c
000003a0: a6c3 503e 364a 1ebd 35b8 0f3e d119 b83d
000003b0: c0d4 47be 1898 81bd a40a 8e3f 9fe1 a9bd
000003c0: d2d4 dc3c d305 f5bd faec f8bd 7df6 09bd
000003d0: 19d6 8b3b bf43 a6bc 7463 be3c ad89 b53d
000003e0: 5266 c63c 7d14 e3bc 9f26 2fbe 8935 84bd
000003f0: 9939 423e 707d 093e 919a d9bd f106 f1bc
-0.04231244 -0.059981287 -0.025053903 0.12491548 -0.01650514 -0.008646457 0.17275101 -0.048119772
-0.26333863 0.14291145 -0.0074851494 -0.013725516 -0.14785936 0.040910624 -0.037736468 -0.11507132
-0.14649548 0.17515394 -1.2347391 -0.66947496 -0.077523 -0.03356506 -0.08611207 0.14476566
-0.00070843316 -0.0070548845 -0.09353864 0.09828716 -0.0083412975 -0.0068099615 -0.09640273 -0.111500524
-0.06722734 -0.14372234 0.006948348 -0.14175417 -0.22501047 0.009288079 0.08518317 1.1026663
0.032160785 -0.083580956 0.10897584 -0.0918474 -0.1239807 0.07756004 -0.17343427 -0.11945166
-0.075213216 0.13267325 0.0041975398 -0.088070884 0.19150217 0.08877526 -0.16152121 -0.034581
0.017241148 0.2200702 1.2228534 -1.3288459 -0.09538786 0.13206273 0.05325846 0.08387846
0.0077086007 0.109671354 0.021226011 0.10961 0.0114074 -0.067190476 0.16761518 0.14135733
0.22951744 -0.059960328 0.030209865 0.09568975 0.1622487 -0.1649894 2.15318 0.87890583
0.076615036 0.23333167 0.06981834 0.16229945 -0.04141075 -0.054434773 0.12343367 0.10215982
-0.052505806 0.060257092 0.23994808 0.15175694 -0.092786275 -0.12685375 -0.11098785 -0.09010887
-0.016758023 0.10841141 1.5556217 -0.030098358 0.029091155 0.1487514 0.13233449 0.0039230725
0.040302977 -0.0270441 -0.010142424 0.06588886 0.017079245 -0.020873578 -0.20494603 -0.05566429
0.058187928 -0.06251437 -0.02096089 0.11232098 0.030839164 -0.042675465 -0.9004301 -0.9397518
-0.13486649 -0.16304967 0.15467113 0.09761651 0.02037171 0.014220378 0.051778328 0.028039306
-0.0028752505 -0.020485261 0.088839665 0.100674845 -0.14033195 -0.11178101 0.13290095 -0.0990922
-0.032673188 0.08119828 -0.17714186 -0.15735991 -0.08416717 -0.072165556 0.13991624 -0.099227585
0.030822877 -0.04190539 0.0035406174 -0.017392771 0.061032645 -0.037243385 0.03990868 -0.17491077
-0.033308208 0.0032723027 -0.11089338 -0.14560848 0.0061553987 -0.21364026 0.13971113 -0.7605759
0.021648357 0.031207455 -0.14001769 0.2246531 0.087348215 0.12635854 -0.04016216 -0.12908745
-0.01587323 -0.0077191284 0.1374152 -0.08083182 -0.08530168 0.042018767 -0.07592056 -0.16534911
-0.07658967 -0.061916254 1.0328188 -0.20049335 -0.05067951 0.027522966 -0.17248495 0.16384122
-0.05658214 0.04008053 0.08467646 0.22163008 0.0013728526 -0.03130876 0.2585003 0.1349826
-0.17215915 0.042829733 0.019815454 0.17307444 -0.11340096 0.11035851 -2.1136076 0.16056642
0.0660197 0.24780484 -0.04314471 0.038492866 -0.0004496367 -0.033881493 -0.009920086 -0.030713746
-0.012184582 -0.010373128 0.07790286 -0.051184375 0.043622714 0.030285388 -0.0889943 0.20301226
-0.02031654 0.19052829 1.4306298 0.4159264 -0.11073726 0.15556526 0.26696023 0.37907502
0.047338083 -0.08250468 0.04691957 -0.01732691 0.059083443 -0.013189977 -0.13385622 0.008280265
0.20387134 -0.03864499 0.14035113 0.08989299 -0.19514751 -0.06327838 1.1096997 -0.08294987
0.02695695 -0.119640015 -0.12154575 -0.033682335 0.004267466 -0.020295976 0.023240782 0.0886415
0.024218712 -0.02771973 -0.17104577 -0.064555235 0.18967284 0.13426757 -0.10625184 -0.029422255

value.0.bias f4 [32]
00000000: 46d6 fabd a9cb 23be 50c8 243d d65f cabd
00000010: e3ea 863d a7af 4f3e 62ab 52be bbd5 efbb
00000020: 974a 51be 88ab 153d db11 6a3e 4b00 43be
00000030: f1d5 2b3e 2c30 313e 0414 053e 6920 22be
00000040: caef 0a3c f753 333e 5f55 163e c908 1b3d
00000050: ec2b 6dbe 1cfb 85be 23db 0bbe bc27 433b
00000060: 5386 7bbe 78df eabc 50da 6b3e 7afc e03b
00000070: 0fb3 e33d 1089 b63c eebd 313e e283 d5bd
-0.12247901 -0.15995659 0.040230095 -0.098815605 0.0658777 0.2028185 -0.2057319 -0.00731918
-0.2043861 0.036540538 0.22858374 -0.1904308 0.16780831 0.17303532 0.12995917 -0.15832676
0.008480022 0.17512499 0.14681004 0.037850175 -0.23161286 -0.26168144 -0.13657813 0.0029778322
-0.2456296 -0.028671011 0.23032498 0.006866035 0.11118137 0.022282153 0.17357609 -0.10425545

value.2.weight f4 [32, 32]
00000000: 4494 da3b 6125 b13c ee99 183e e78c 6bbd
00000010: 3042 89bd 51fc d1bd 1f90 993d fd65 e3bb
00000020: c38a 48bd 139b 61be 2b43 14bd d035 673d
00000030: a30e 2bbe 58c1 4e3e 1af6 f33d 314d 3f3d
00000040: 64a3 e4be e7eb 433e f1c8 df3b 9af7 1cbc
00000050: ded6 75bc 6c9f c13c 093b bcbd 6ff3 013b
00000060: 0cb3 c0bd a5e7 75be 7bb6 0f3e 4c96 3a3d
00000070: 944d 2b3e e14f 783d 181b 063e eb68 0ebe
00000080: c8be 4f3d 218c a73d 67d1 0a3d ea74 7f3e
00000090: 3086 9f3d 5a4d bbbd 4e29 0dbe 192c f9bd
000000a0: ca11 123e 9580 763d 4b30 763e 1490 043e
000000b0: b193 173e 216f d33d d0bb a3bd db3f 583d
000000c0: 86d3 c4bf 32f7 3cbe 4053 1bbe da69 253e
000000d0: 04a2 53be 09e0 193d c021 b2bd 36b7 363d
000000e0: 50fe e7bd 89c3 c03d cca9 98be 50f8 98bd
000000f0: 1abf d0bd 075a ff3d 4c29 1f3e 56ba aabd
00000100: 468d 8d3d 07a2 a33d fbff 89bd f8af eb3d
00000110: b9b7 d5bc 6896 1dbb 4e35 063e e371 30be
00000120: 7db4 f03d 1821 223e 5c71 45bd b0cf 0c3e
00000130: 9294 4bbd 61e2 b23d 8103 263d a3c4 e73d
00000140: f020 a5bc 9eb0 6d3d 9455 a8bd f0c6 343d
00000150: 5f52 b93d e1a4 a03d d244 13be f992 953e
00000160: f58b 2f3d 4fea 763d 91e7 7d3c 4d0a 38be
00000170: a7cd 46bd b0b0 673d c5a9 3ebd 4661 18be
00000180: 5596 a73d 842f 043e 2190 5a3e d6da e23d
00000190: c46c 3c3e 0fa1 843d dd8b 2fbd 3bbd c43d
000001a0: 7dc2 71bc e14d b03d 0f35 48be 8b3f 8a3d
000001b0: 98b1 0dbe 7dc6 5c3d a7a4 373b cdfc 40be
000001c0: 7e03 3dbd a1cd f83d e1e1 e0bd be7e b03d
000001d0: cdd8 163d cb7b d93d e7fc e93d 6dda c7bd
000001e0: a866 9e3d 475d 253d 5325 72bd a1e0 863d
000001f0: 4fb9 d8bb 32da c5bd 34c4 c83d c613 d93c
00000200: c526 df3c 0bf6 08bd 8362 64be fcf6 f6bd
00000210: 9a6b e73d b40e 083e 2c20 97bc e41e 033e
00000220: 662d 18be 555d c63d 8e61 7cbc 5a8d 0f3e
00000230: b8bb 1d3c febb 163c bff0 03be bfbf 2d3e
00000240: a69b febd 2faa 9d3d 52ae 4abe af7e b33c
00000250: 30ee fd3d 124b cc3d 0baf aebc 1b89 343e
00000260: 88ae 473d 520d 793d b09f c03d 3b45 f9bc
00000270: 175f 25be 02ce 88bc e521 2cbe ce19 3abd
00000280: c98a e0bd a5d0 0c3e 0f50 4c3d 5915 193d
00000290: cbb9 e1bd 17cc 193e e2eb 673d d72c 42bd
000002a0: b815 f33d 2b3a e43d 1bad 91bc 7960 d13d
000002b0: bec4 2aba f8bd f83d 3a9c c23d 5b71 003e
000002c0: 5896 8bbc 9e91 cd3d 3a7d e6bd 8f5d 533d
000002d0: 86a5 db3c c4e0 223c 2184 8a3d 7e5f d8bd
000002e0: b9c9 98bd 1b4c 6d3c 4290 363d cf74 7c3d
000002f0: 2233 303e 9da4 d1bc b5f2 863c ff52 613c
00000300: 0064 07be d9aa 2ebe 1f34 e43c 23f8 e5be
00000310: 5110 a43c df41 633e 9374 74bd c8ac e2bd
00000320: 2a55 5c3e fb01 843d 614d c6be c7bd a9bd
00000330: e2b4 073d a9df 1ebd af39 a63d 8a70 4ebd
00000340: 232f 41be 5b23 1abd 3a72 a43d af0c 99be
00000350: 3f39 4cbe 029e bc3d 72b1 ee3c 5175 01be
00000360: 3036 f1bd 611d 3fbe f322 b53d 3949 f5bd
00000370: 8783 123e e147 bd3d d5e3 84bd c768 ac3d
00000380: e54f af3e 61a0 5fbf 0541 b9bd a3cb 153e
00000390: a0c5 fe3d 6ecb 87bd b6d1 68bf 752e c4bd
000003a0: e13c 903d 204e a73d d8b4 c63c 7985 113e
000003b0: bcfd 0d3d 1aa2 7dbb 3d74 9bbe 06fb e5bc
000003c0: fd22 bd3e 8bbe 12bc e9ea a33c 9f0f 8bbe
000003d0: f177 d03c f7ba 263e fc21 e6bd 194c 8e3c
000003e0: d11d adbd 8e35 d5bd 62a0 d5bf 646e 53be
000003f0: 6129 1cbe 4ceb 9ebd 69f1 8a3c d181 efbd
0.0066705067 0.021624269 0.1490247 -0.05750742 -0.067020774 -0.10253204 0.07498192 -0.006939648
-0.04896046 -0.22031812 -0.03619687 0.056447804 -0.16704802 0.20190942 0.119121745 0.046704475
-0.44655907 0.19132958 0.006829374 -0.009580517 -0.015004842 0.023635589 -0.091909476 0.0019828936
-0.094091505 -0.24014147 0.14034455 0.04555349 0.16728812 0.060623053 0.13096273 -0.1390721
0.050719053 0.08181024 0.033891108 0.24946943 0.07789266 -0.09145613 -0.13785288 -0.12166614
0.14264598 0.06018122 0.2404186 0.12945586 0.14802434 0.103239305 -0.07994807 0.052795272
-1.5377052 -0.18453673 -0.15168476 0.1615366 -0.20667273 0.037567172 -0.086978436 0.044608317
-0.11327803 0.09412295 -0.29817045 -0.07469237 -0.101927 0.12468343 0.15543097 -0.08336322
0.069117114 0.07989889 -0.067382775 0.11508173 -0.026088582 -0.0024045948 0.13106272 -0.17230944
0.117531754 0.15832937 -0.04820381 0.13751101 -0.049702235 0.087345846 0.040530685 0.11316802
-0.020157307 0.058029763 -0.08219448 0.044135034 0.09048914 0.07843948 -0.14381722 0.29213694
0.042858083 0.060282048 0.015497104 -0.1797268 -0.04853597 0.056564987 -0.046548624 -0.14880857
0.081829704 0.12908751 0.21344043 0.11076896 0.18400866 0.06476032 -0.042857993 0.09606405
-0.014755842 0.08608604 -0.1955149 0.06750401 -0.13837278 0.05390023 0.0028021724 -0.18846436
-0.04614591 0.121485956 -0.10980583 0.08617924 0.03682785 0.10619315 0.114251904 -0.09758458
0.07734424 0.04037216 -0.059117626 0.06585813 -0.0066138874 -0.09660758 0.09803048 0.026498687
0.027240166 -0.03343777 -0.22303204 -0.12058827 0.1129982 0.13286859 -0.018447958 0.12804753
-0.14861068 0.096857704 -0.015404118 0.14018765 0.009627275 0.009200094 -0.12884806 0.16967677
-0.12432031 0.076984756 -0.1979306 0.021910993 0.12398946 0.09975256 -0.021323701 0.17630427
0.04875043 0.06080372 0.09405458 -0.03042852 -0.16149555 -0.016699795 -0.16809805 -0.045434766
-0.10963971 0.13751467 0.049881037 0.037373874 -0.11021765 0.1501926 0.05662144 -0.047406044
0.11869377 0.11143907 -0.017782738 0.10223479 -0.0006514302 0.12145609 0.09502454 0.12543242
-0.017039463 0.1003754 -0.11254354 0.051602896 0.026812326 0.009941284 0.06763483 -0.10565089
-0.074603505 0.014483477 0.04457117 0.061634835 0.17207006 -0.025591189 0.016473154 0.013752698
-0.1322174 -0.1705736 0.027856885 -0.44915876 0.020027312 0.22193097 -0.059681486 -0.11068112
0.21516863 0.0644569 -0.3873091 -0.0828815 0.033131488 -0.038787518 0.08116471 -0.050400294
-0.18865637 -0.037631374 0.080295995 -0.2989249 -0.19943713 0.09209825 0.029137347 -0.12642409
-0.117779136 -0.18663551 0.08844557 -0.11976857 0.14307986 0.092422254 -0.06488768 0.08418422
0.34240642 -0.87354094 -0.090456046 0.14628462 0.12440038 -0.06630598 -0.90944993 -0.095791735
0.07042862 0.08169198 0.024256155 0.14211072 0.034665808 -0.0038701356 -0.3036212 -0.028073799
0.36940756 -0.008956562 0.020009475 -0.27160355 0.025447818 0.16282259 -0.11236951 0.01737027
-0.08452953 -0.10410605 -1.668957 -0.2064758 -0.1525016 -0.07759723 0.016960816 -0.116946824

value.2.bias f4 [32]
00000000: 2abb 49be c1c8 043d 45e0 22be 73cb 8f3b
00000010: 2142 323d 3831 2439 71ac 76bd 25f6 bbbc
00000020: bc36 08bc 0e1e 9f3d d788 32be 5fd0 2ebd
00000030: fe73 91bc 25f4 433e 460b 50bd 931e 163c
00000040: ff00 39be 1fa3 523e 70b7 cabd f8d2 e13c
00000050: db10 b6bd 6c97 73bc bcce 5f3e 8e92 2abd
00000060: 203e 7fbb a478 52be c07d 73bd a671 ba3b
00000070: 3257 a23d bbd0 873e 44dc 87bc 6d74 72be
-0.19700304 0.032418016 -0.15905865 0.0043882667 0.043520097 0.00015658594 -0.060223047 -0.02294452
-0.008313831 0.07769404 -0.17435013 -0.042679187 -0.017755505 0.19136102 -0.050792 0.009162563
-0.18066786 0.20570038 -0.09898269 0.027566418 -0.08889934 -0.014867645 0.21856207 -0.04164367
-0.0038946941 -0.20553833 -0.059446096 0.0056898175 0.079267874 0.26526436 -0.016584523 -0.23677225

value.4.weight f4 [1, 32]
00000000: 88bf 923c 7c15 b63d 1916 e73c 7a85 a43c
00000010: 1d49 6ebc 270a fcbd e452 e73c 40dd 9a3d
00000020: 0571 e7bc 82e1 833d b743 d23d e254 5c3d
00000030: 507c f93c c68d 07bd ba3d 8cbc b899 193d
00000040: 7d34 933d a7e2 ddbc ac04 7c3d 550a cbbc
00000050: b76b 753c 5a46 bdbc 8b52 e6bc da10 7c3d
00000060: bc3a a3bd ae46 0d3e 435d ad3c 3c8d df3c
00000070: 5a35 e13c 1a76 e8bc 1b8e e4bc bde7 e43c
0.017913595 0.088908166 0.02820878 0.020083178 -0.014543799 -0.12306624 0.028237768 0.07561731
-0.028252134 0.064394966 0.10266822 0.053791888 0.030454785 -0.03309419 -0.017119277 0.037500113
0.07187746 -0.027085615 0.061527893 -0.0247852 0.0149792945 -0.023104835 -0.028115531 0.06153951
-0.07970187 0.13796493 0.021162635 0.027289025 0.02749126 -0.028376628 -0.027899792 0.027942533

actor.0.weight f4 [32, 18]
00000000: 1f75 bd3e 09c3 20be befa 9abe e2fb e43d
00000010: c08d a83e e26b 673d 2396 9bbd 6f7c afbd
00000020: c6c0 333e b0c8 87be 4139 60be d1ba 70be
00000030: b895 c6bd 706a 9a3e fd42 5b3e 39ab 1e3e
00000040: a8a6 d2bd 60d0 0dbe 6389 383e c837 b33e
00000050: 4e0d 903e 1608 993d 1a1f e23d 90e9 efbd
00000060: 5c6f e73d f26b 583d 98cb d23b 3f1f 583d
00000070: bd6b a63c daf0 0bbe a738 623d 86c9 b9be
00000080: bc6f 1cbe 6899 afbe 4e49 bc3d c490 3e3e
00000090: c9c6 c7be 60c8 d23e 7f50 c63e ad94 c73e
000000a0: 5679 2abe 6f10 833e b1cd 02be 2289 183e
000000b0: d8d3 dbbd 472e da3d 1de8 753c 7607 b1bd
000000c0: ced9 933d 4fd2 c53d 9ea4 113d 4729 d5bc
000000d0: 5fa9 7d3e 7a0e 84be 66bd 323d f04c d13d
000000e0: 4095 24be f1d5 03bd 10f6 313e a3c9 2bbd
000000f0: cb30 93be 3430 c2be d2ba a5be d934 b0be
00000100: 10a8 8c3e 72e9 4e3e b00f 593e aa34 8f3d
00000110: 0c15 5a3d 3d5d 793d d47c 6cbd a464 4a3e
00000120: a384 4fbe 955c 173e aef7 a13e 9d71 6f3e
00000130: 0c16 82be 2820 233e 173e 0ebf e843 3cbd
00000140: ec99 443e 6ad7 1bbc f505 a13d 073c 873c
00000150: a570 2b3e 4b39 113e 3293 b6be f6aa 02bf
00000160: 5029 c03b 5ff9 e2bd 1dcd 11be 063f dbbe
00000170: 2bde 01be 822e 243e 24ac 3bbe 4b76 da3d
00000180: d609 6abe 9328 f2bd 0ca5 0ebe 8273 c23d
00000190: de47 62bc 1938 153d 1474 35be 0d81 0b3e
000001a0: 182a 9b3e 0c92 933d 9cb4 9a3e 4c08 c53c
000001b0: 9594 d5bc af6f 263e a257 863e 1fc1 2c3e
000001c0: 2843 2e3e ca97 b2be b163 08be ffca 37bd
000001d0: a951 973e d043 1e3f 4332 a1bd e435 01be
000001e0: 6a5b 1cbd 43ce af3e 3ce7 1fbe f25d 91bd
000001f0: 6957 16be 9fb6 dabc e5cb 5c3e 31d2 433e
00000200: 5006 10bf 99f7 e7be aa9b 2a3d 7e4e 13be
00000210: a524 953e 8f14 1b3e 1224 be3e a578 61bd
00000220: 1b62 e7bd 0e2f 4dbe 9445 b03d ca40 99be
00000230: 8e63 e63b 2bb1 9e3e 1503 55be f356 20be
00000240: 8dfa 613d f0e2 0dbe 2aa2 7ebe 9cd6 32be
00000250: bfcf e53e e88a af3d b112 993e 2b73 653d
00000260: aea0 d5bd c930 e1bd 93d6 12be 73a8 1d3e
00000270: e4fc 30be 9e2a d53c 2723 afbd a5c6 b5bd
00000280: 622e ae3e 9612 6a3e e116 d23d ceb1 57be
00000290: ba5c bb3d 7b6a 26be 9c72 9a3e 4156 5ebe
000002a0: b143 98bd bda3 a7bd 7a27 4b3e 144a 633d
000002b0: 4715 0f3e f99b 763d 4144 f63d 3fb3 ae3e
000002c0: 5472 b5be d57d c6be b045 a1be e130 e6bd
000002d0: 22f0 c1be 3260 9ebe fe52 f53d a658 98bd
000002e0: cc08 49be b19c 6b3c 084e 85bd 4742 a93e
000002f0: 04b1 01be 12d2 a4bd 9f76 55bd ae5a 913d
00000300: cb97 88be 334b e23d 3e5d 4abc ae31 763b
00000310: 5ec9 ca3e 9601 f83d 8550 96bd a775 9b3e
00000320: bf1c 13be c20b 0bbe 3a03 67bd 0eba 2d3e
00000330: 65fa 8d3e bd7f 963e 54ce af3e 300d c93e
00000340: 75a4 b9be 2564 84be e932 3a3e 64ca 6bbe
00000350: 87d3 82be 856d ef3d f28a 833d 4e1e ce3d
00000360: 7c83 27be 9945 d0be fba0 b4be fcd7 c03c
00000370: 6f80 563e 7592 20be 0b47 5c3e 7e2e cdbc
00000380: 37fe 71bc 5473 ae3d 014b 02be 1c3d 84be
00000390: ac3d 6d3d d15e a63e f864 57be 6b0f 22be
000003a0: 8413 b33e 4c38 9cbb 6a3b dc3e 6cb2 15bd
000003b0: aab0 4c3e a0cc 28bd fb6a 953d b11f 8b3d
000003c0: 665f 83be 4261 9b3d b5f1 d63c 4973 2fbd
000003d0: 6143 a03b 24df 8f3d 735f f73d 789a b0be
000003e0: 2612 50bc dda1 55be d965 b63e 16f9 4c3e
000003f0: 1825 2b3e fb6e 97bc f519 fe3e f5e5 ad3e
0.3700342 -0.156994 -0.30269426 0.11180855 0.32920647 0.05649937 -0.07596996 -0.08568656
0.17554006 -0.265203 -0.2189684 -0.23508765 -0.09696525 0.3015933 0.21412273 0.15495004
-0.102856934 -0.1384902 0.18021159 0.35003495 0.2813515 0.074722454 0.110410884 -0.117144704
0.11300537 0.05283732 0.0064329617 0.052764174 0.020315045 -0.13666096 0.05522981 -0.36286563
-0.15276998 -0.34296727 0.09193669 0.18609911 -0.3901885 0.411685 0.3873329 0.38980618
-0.16647848 0.25598475 -0.12773778 0.14896062 -0.10733765 0.10653358 0.015008953 -0.08644001
0.07219277 0.09659254 0.03555738 -0.02602066 0.24771641 -0.25792295 0.043637656 0.10219753
-0.1607256 -0.032186452 0.17379022 -0.041940343 -0.28748164 -0.379274 -0.32369095 -0.3441532
0.27471972 0.2020624 0.2119739 0.06992467 0.053242728 0.060879935 -0.057736233 0.19764954
-0.2026544 0.14781411 0.31634277 0.23383184 -0.25407445 0.15930235 -0.5556349 -0.045963198
0.19199342 -0.009511808 0.07862464 0.016508115 0.16742189 0.14182012 -0.35659176 -0.51042116
0.0058643 -0.1108272 -0.14238401 -0.4282152 -0.12682407 0.16033366 -0.18327385 0.10667094
-0.22855315 -0.11824145 -0.13930148 0.094946876 -0.01381108 0.036430452 -0.17720062 0.13623448
0.30305552 0.072055906 0.3021592 0.024051808 -0.026071826 0.16253541 0.26238734 0.16870545
0.17017806 -0.3488143 -0.13319279 -0.044871327 0.2955449 0.61822224 -0.07870915 -0.12618214
-0.038173117 0.34337053 -0.15615553 -0.07097997 -0.14681782 -0.026698409 0.21562155 0.1912315
-0.5625963 -0.4530609 0.04165236 -0.14385411 0.2912952 0.15144561 0.37136894 -0.055046696
-0.11298009 -0.20037481 0.08607021 -0.29932243 0.007030911 0.30994543 -0.20801957 -0.15658168
0.055170584 -0.13856101 -0.24866548 -0.1746468 0.4488506 0.08571416 0.29897073 0.056018036
-0.10431038 -0.10995633 -0.14339666 0.1539629 -0.1728397 0.026021298 -0.08551627 -0.08875779
0.34019762 0.22858652 0.1025827 -0.21063921 0.091485456 -0.16251557 0.30165565 -0.21712591
-0.07434786 -0.081855275 0.19839278 0.05549057 0.1397296 0.06020734 0.12024737 0.3412113
-0.35438788 -0.38767877 -0.3149848 -0.11239792 -0.3787852 -0.30932766 0.1197872 -0.07438783
-0.19632262 0.01438062 -0.06509024 0.33058378 -0.12665182 -0.0804788 -0.05211508 0.07097374
-0.2667831 0.11049499 -0.012351332 0.0037566232 0.39606756 0.121096775 -0.07339577 0.303632
-0.14366435 -0.13578704 -0.05639956 0.16965505 0.27730098 0.29394332 0.34337103 0.39267874
-0.36258283 -0.25857654 0.18183483 -0.23026425 -0.25552008 0.11690811 0.06422986 0.10064374
-0.16358751 -0.406781 -0.35279068 0.02354049 0.20947431 -0.15680869 0.21511476 -0.025046583
-0.014770082 0.08518091 -0.12723924 -0.25827873 0.057920143 0.32494214 -0.2103461 -0.15826194
0.34975827 -0.0047674533 0.4301408 -0.03654711 0.19989267 -0.04121077 0.072957955 0.06793154
-0.2565872 0.0758691 0.026238302 -0.042834554 0.0048908447 0.070249826 0.12078752 -0.3449285
-0.012699639 -0.20862527 0.3562458 0.20016894 0.16713369 -0.018485537 0.4962918 0.33964506

actor.0.bias f4 [32]
00000000: a106 913e ac8c ffbd 0a5d 313e 4877 64be
00000010: 237d a33d 3585 dfbc 39fb 22be a6a4 503e
00000020: 696b 55bd 5ecd a5bd 3104 153e 6f8e 01be
00000030: 80ff fe3d 4e26 bcbd 4f22 2ebe 2624 413e
00000040: d983 64bb ef5b 0abd 389b a43d 5a32 5b3e
00000050: 08c8 1f3c dea2 a73d 65c0 acbd fac4 10be
00000060: ba4e 693c cbe8 283c 8bbb 31be ac86 943e
00000070: 3a78 c6bd 6e65 bf3e c069 1bbe e9f0 fa3d
0.2832537 -0.12478003 0.17320648 -0.22311127 0.07982852 -0.027285198 -0.15916146 0.20375308
-0.052104387 -0.08095811 0.1455238 -0.1265199 0.124510765 -0.091869935 -0.17005275 0.18861446
-0.0034868626 -0.03377908 0.08037418 0.21405926 0.009752281 0.08185361 -0.08435134 -0.1413764
0.014239961 0.010309408 -0.17356698 0.29008996 -0.096909 0.37382072 -0.15177059 0.12252981

actor.2.weight f4 [32, 32]
00000000: 8386 753c 64b5 bfbe 9fe2 e13d 5e26 733e
00000010: 00ad 893e ec3f 5b3e 2090 8ebd 6e7d 64be
00000020: ff5d a73d e5a5 8abe 4b07 f9bd 36d4 edbd
00000030: fada d13d 0822 12bf 8a4e 5f3e e099 243e
00000040: c40e 7fbf c689 4cbe 3c49 d13e c239 543e
00000050: 27aa e4bd 94bb 9abe 02e4 bcbe c335 48bf
00000060: 96ce 6cbd 7815 cfbe e88e 1c3c 1749 71be
00000070: efeb 11bf c02b 303e 78b2 16bf fcd6 35bf
00000080: 9c48 0f3e 863a 553d 2be1 133f 0d87 823e
00000090: 9c4a b63c 633e 3bbd 1b70 be3e 7bca 14bf
000000a0: 6dc9 e0be 6e9b 123f eaf1 0cbf 6df2 95be
000000b0: 38b0 b7bd 6ad2 95be 35ec f93d 05ba afbe
000000c0: b8cd e8be d008 a93c 5d93 6cbd 082c 9ebd
000000d0: f6e0 20be ec68 22bd a9db 2cbd d453 623d
000000e0: 0c0b 5d3e 5de8 e03b fe61 96bd 30c0 033e
000000f0: c85e 983d 0be9 a23b f869 613e 780b adbb
00000100: adab 75be 09e5 8abe 5bb4 edbc f96e 843a
00000110: 6e0b bdbe eb0d 963d 12cf 8dbe 1431 e63d
00000120: 8a4c 4d3e ed82 31be a8d4 0a3e 7864 0a3a
00000130: 00cf a83c 99e0 27b9 e47d 9a3d c918 e1bd
00000140: 5534 623e 8d6b 923c 6738 febe 392d 47be
00000150: 5a09 63bd b59c f5bc 31db 2ebe 36ce 163d
00000160: f696 e63d 4c26 7e3c c26b a8be 1e82 853e
00000170: 805b bd3e aae3 ab3e e936 363e 7cb4 443e
00000180: 840f b33d d14b b5bd 6279 abbc bed2 73bd
00000190: 0da7 bebe 155e 9d3d 51ed 883e 7db2 a53e
000001a0: 3d02 6c3e 2416 fdbe 4bd3 a73d d86d 95bd
000001b0: e779 b3be cb95 7d3c 9846 a83d ad09 fb3d
000001c0: e018 a5bc 96b5 b53d abf7 94be 7192 a03e
000001d0: 3154 163c 5b1d b63e 74c9 a13e b327 e23d
000001e0: d274 a23e de18 423e 088d 443c 1479 3fbe
000001f0: 7314 913e 521f 0ebe a993 1bbf 4551 17be
00000200: 8c51 c2bd 5707 05be 270b ad3e c21c 993d
00000210: 6a47 bb3e d4f2 2e3d 1e98 a73d 7c73 10bf
00000220: 3d08 85be 0713 113f 5572 a5bc a549 c6be
00000230: af71 62be 4592 21be 717d 073e 5898 26be
00000240: b7fb b3be cf7f 64be 2f31 81be 9776 b33e
00000250: 9917 0ebc 27bd b1bd 0e98 58be 600b f63d
00000260: dbe4 8f3d 152b 12be 9ebc af3d cc57 89bb
00000270: c0d8 3abd dc70 37bc d031 0cbe 7101 8f3d
00000280: c16a 49bd 436b 1d3e 85b6 11be 3bbe 773b
00000290: 4fca 8a3e bcb4 41be ae4c 353e 52f7 c43d
000002a0: df7f 96bc 2c98 95bd f4e0 e3bd e2b0 893e
000002b0: 794c d4be 4f34 053e 67c3 8dbe f0ad 00bb
000002c0: b0d4 40bd 4225 2b3d 3e15 753e 77e7 c43d
000002d0: 40ad 053e fc22 c53e 3cba 963d dfe1 94be
000002e0: 071d 73bd 9cb3 8f3e 36d0 083d 967d 9bbe
000002f0: b82c 1fbe 0cf3 d6bd e3ca 9cbe 6d7d e0be
00000300: 2ac7 bb3e 28d7 053f cffe 0ebf 0a46 cb3d
00000310: 1a01 e4bd e4d2 40bd 5cae c23d 6da1 8d3e
00000320: 71c5 ca3d 1d94 31be 9bbb 28be 7f5c 24be
00000330: 0db2 3bbe 234c e83c bb12 713c 8ea1 98bd
00000340: a565 4c3e 1413 69bd 4d04 21be e59b 313e
00000350: ae56 2c3e e9e4 013d 507f abbe 7700 b1be
00000360: 1683 4f3e a1f9 bebe 4d61 d43e 9911 17bf
00000370: 9fc6 413c b62a bcbe f969 0d3e ccbb 903e
00000380: f4b3 cdbd 04d1 783d 02d4 d53d bf72 22bf
00000390: 9d44 b6bd 5b89 08bf b0c8 82be 92bc 293c
000003a0: 4c78 4b3e e283 093e c686 94bd a748 debb
000003b0: 581f 0dbf a9e6 5ebe ceeb 893e 7479 19bc
000003c0: 5e80 363d d445 bf3d 8e88 94bc c53b fe3d
000003d0: bb61 66bd 78d0 d3bd 3d76 103d aa71 24be
000003e0: acf0 453e e9e3 353e 92d6 94be 55ca 78bd
000003f0: 8656 31be a303 ed3d a3ae 9bbe 77bf ba3c
0.014985683 -0.37443078 0.11029553 0.23745105 0.268898 0.21411103 -0.069610834 -0.22313473
0.08172225 -0.27079692 -0.12159594 -0.11612742 0.102468446 -0.5708318 0.21807304 0.16074324
-0.99631906 -0.19974431 0.40876186 0.20725158 -0.111652665 -0.30221236 -0.36892706 -0.78207034
-0.057814203 -0.40446067 0.009555556 -0.23563038 -0.5700063 0.1720419 -0.5886607 -0.71031165
0.13992542 0.052057765 0.57765454 0.2549366 0.022252373 -0.045713793 0.37194905 -0.5812146
-0.43903676 0.57268417 -0.5505663 -0.2928652 -0.08969158 -0.29262096 0.12203256 -0.3432161
-0.4546945 0.020634085 -0.057757724 -0.07723242 -0.15710816 -0.039650843 -0.04220167 0.055255726
0.21586245 0.0068636374 -0.07342909 0.12866282 0.07439953 0.0049716285 0.2201308 -0.005280908
-0.2399127 -0.27127865 -0.029016664 0.0010103873 -0.36922783 0.073268734 -0.27697045 0.1123983
0.20048729 -0.173351 0.13557684 0.0005279253 0.020606518 -0.0001601003 0.07543543 -0.109910555
0.22090276 0.01787355 -0.49652407 -0.19450845 -0.05542884 -0.02998195 -0.17075802 0.03681775
0.11259262 0.01551206 -0.32894713 0.26075834 0.3698387 0.3357213 0.17794384 0.19209474
0.08743194 -0.088523515 -0.020931903 -0.05952715 -0.37236825 0.0768396 0.26743558 0.32362738
0.23047729 -0.49430954 0.08194598 -0.07296342 -0.35053942 0.015477608 0.0821659 0.12257705
-0.020153463 0.088725254 -0.29095206 0.31361726 0.009175346 0.3556927 0.3159901 0.11042728
0.31729752 0.18954799 0.011996515 -0.18698531 0.28335914 -0.13879135 -0.60772187 -0.14777096
-0.0948821 -0.12991081 0.3379757 0.07476188 0.36577922 0.042712048 0.08183311 -0.56426215
-0.25982848 0.5666966 -0.02019612 -0.3872806 -0.2211368 -0.15778454 0.13231446 -0.16269052
-0.3515298 -0.2231438 -0.25232837 0.35051414 -0.008672618 -0.08678656 -0.21151754 0.12013888
0.070260726 -0.14274247 0.08580898 -0.0041913744 -0.045616865 -0.011196341 -0.13690877 0.06982697
-0.049174074 0.15372948 -0.14229782 0.0037802595 0.27107474 -0.18916601 0.17705032 0.09617485
-0.01837152 -0.07304415 -0.11126891 0.26892763 -0.41464594 0.13008235 -0.27688143 -0.0019634925
-0.047077835 0.04178358 0.23933885 0.09614461 0.13054371 0.38503253 0.0735974 -0.29078576
-0.059353855 0.2806672 0.03340169 -0.30369252 -0.15544403 -0.10495576 -0.3062354 -0.43845692
0.36675388 0.5228143 -0.5585756 0.09925468 -0.111330226 -0.04707612 0.09505913 0.2766222
0.0990094 -0.17341657 -0.16477816 -0.1605091 -0.1832964 0.028356617 0.014713938 -0.07452689
0.1996065 -0.05690296 -0.15724297 0.17344625 0.1682994 0.031712446 -0.3349557 -0.34570667
0.20264849 -0.37299827 0.41480485 -0.59011227 0.01182714 -0.36751336 0.13809957 0.28268278
-0.10044089 0.060746208 0.10440828 -0.6345634 -0.08899806 -0.5333459 -0.25543737 0.0103599
0.19870108 0.13429216 -0.072522685 -0.006783563 -0.5512595 -0.21767677 0.26937717 -0.009367336
0.044556014 0.093394905 -0.01813152 0.12413744 -0.056245547 -0.10342497 0.03526901 -0.16058984
0.1933009 0.17762722 -0.29069954 -0.060739834 -0.17318162 0.11572959 -0.30406675 0.022796376

actor.2.bias f4 [32]
00000000: 7cf3 2fbe 5639 4e3e b72b 363e 61aa 1fbd
00000010: 8028 a83d ec5c f7bd 2324 cdbd 26a8 28be
00000020: b7ed b4bd a071 a53d d39e debd 5814 1dbd
00000030: 824f de3d 1ab1 a23c 1775 dbbd a949 453b
00000040: f136 0f3e 0432 593e 4b22 adbd 3f6c 103e
00000050: c88b 283d 9275 d7bc 0388 b83d 78f5 233e
00000060: 22b4 523d 4fe4 373e 9342 90bd 5053 09be
00000070: 557b d53d dcfe 523e 5c26 01be 11a0 1d3e
-0.17182726 0.2013906 0.17790113 -0.038980845 0.0821085 -0.1207827 -0.10016658 -0.16470394
-0.08834403 0.08078313 -0.10870137 -0.03834948 0.10855009 0.01985984 -0.107156925 0.003010372
0.13985802 0.21210486 -0.084538065 0.14103793 0.04114893 -0.02630118 0.09010317 0.16011608
0.05144132 0.17958187 -0.07043948 -0.13410687 0.10423914 0.20605034 -0.12612289 0.15393092

actor.4.weight f4 [2, 32]
00000000: 3e0a 77bf d0e4 b6bc 34a7 90be 33bd 193f
00000010: 9332 83be 1497 f3be 7957 773e 7fed ab3e
00000020: a032 a73e dd76 313f 4c41 d13e 5c62 7e3e
00000030: a65f 0e3f 8943 d0be 20f5 3b3d 66ad 893f
00000040: 374b d23e 9434 843e 50d4 a33e 33f1 94bc
00000050: 3274 0fbf 60a5 3d3d a572 f3be 325d 22be
00000060: d846 8fbe e382 693d a7ce 093c db50 f73e
00000070: 18bb 8ebe 64ea 9c3e 6b2f 95be a5ee 41be
00000080: b82a 83bd 62aa 6d3f 46ba 073e 5b2b 023e
00000090: dcae 573f 361c 0ebf 825a 27bf 73ba 003f
000000a0: b601 043f fe56 863e 2658 043f 74c4 98be
000000b0: c23a 2a3e 29b8 af3d 2962 763e 5831 d63d
000000c0: 4932 2fbf b805 083e 23b2 053f 0d75 893e
000000d0: eff6 c7be 5afd de3e 46aa dabe b8f3 94be
000000e0: 2477 40be f9f5 413f 17b0 c0be 7e55 cabe
000000f0: 0300 7d3e 21e8 bfbe 675f ca3c 2666 c23e
-0.96500003 -0.022325903 -0.28252566 0.6005432 -0.25624523 -0.475762 0.24154462 0.33579633
0.3265581 0.69321996 0.4087013 0.24842209 0.556147 -0.40676525 0.045888066 1.0756042
0.4107301 0.25821364 0.3199792 -0.018181419 -0.56036675 0.046300292 -0.47548404 -0.15855864
-0.27983737 0.05700959 0.008411086 0.48303875 -0.27877116 0.30647576 -0.2913774 -0.18938692
-0.06404632 0.9283811 0.13254651 0.12711851 0.8425119 -0.55511796 -0.6537248 0.502845
0.5156511 0.26238245 0.51697004 -0.29837382 0.16623977 0.08580048 0.24060883 0.1045863
-0.68436104 0.13283432 0.5222494 0.26847115 -0.39055583 0.43552667 -0.42708033 -0.29092193
-0.18795449 0.7576595 -0.37634346 -0.3951835 0.24707036 -0.37481788 0.024703695 0.37968558

actor.4.bias f4 [2]
00000000: ed59 fabd e809 f7bd
-0.12224183 -0.12062436
