results/SandingEnvDifficult/ddpg_extension/model/model_parameters_2.pt (torch, 36482 bytes, 22 tensors)

value.0.weight f4 [32, 20]
0	0x3e52ac0e	0.20573446
1	0x3d2c1e01	0.0420208
2	0x3d4ce988	0.0500274
3	0x3e29bbf6	0.16575608
4	0x3d19dad3	0.037562203
5	0xbb1d9bc2	-0.0024049138
6	0x3d11a857	0.035560932
7	0xbd0e705a	-0.034775116
8	0x3c20db26	0.009817874
9	0x3b6ac1c9	0.0035821071
10	0x3e8faf07	0.28063223
11	0xbd8e8935	-0.06959764
12	0xbdddd493	-0.10831561
13	0xbcab0de9	-0.020880656
14	0xbe01c335	-0.12672122
15	0x3e133cbb	0.14378636
16	0x3e06ce4c	0.13164634
17	0xbda0dbbf	-0.07854413
18	0x3f41d7d6	0.75719965
19	0xbf8227bc	-1.0168376
20	0xbdbb1d6e	-0.09136473
21	0xbda0b20a	-0.07846458
22	0x3e56ad1a	0.2096447
23	0xbe10be38	-0.14135063
24	0xbbea198e	-0.0071441596
25	0x3abecfed	0.0014557816
26	0x3b2951e1	0.0025836157
27	0x3b6eb5a2	0.003642418
28	0xbbfedc86	-0.0077777533
29	0x3bede284	0.007259669
30	0xbe3a7bcb	-0.18211286
31	0x3d6c84c5	0.057743806
32	0x3cf93974	0.030422904
33	0xbd04f3aa	-0.03245894
34	0xbe836ee9	-0.25670555
35	0x3e0d13c2	0.13777068
36	0xbd3f8af3	-0.04676337
37	0xbe092cb5	-0.1339596
38	0xbe40b80f	-0.18820213
39	0x3fb313d2	1.3990424
40	0x3e19e3d4	0.15028316
41	0xbddde7bd	-0.10835216
42	0xbe2e8d75	-0.17046149
43	0x3df95564	0.1217449
44	0x3d39cc70	0.045360982
45	0xbc61839c	-0.013764288
46	0xbb397fc7	-0.002830492
47	0x3cd29134	0.025704004
48	0xbce783f6	-0.028261166
49	0xbd8ec9f8	-0.06972116
50	0x3e46d8ab	0.1941859
51	0x3de26c91	0.11055864
52	0x3e18dd0e	0.14928076
53	0xbe3994fa	-0.18123236
54	0xbb75de94	-0.00375167
55	0x3db2b17d	0.087252595
56	0x3d2beb74	0.041972592
57	0xbd6bfffa	-0.057617165
58	0xbf677aaa	-0.90421546
59	0xbf1ac356	-0.6045431
60	0x3e08bcd2	0.13353279
61	0x3ba8fc2a	0.0051570134
62	0x3d68a490	0.056797564
63	0x3db0c0c8	0.0863052
64	0xbc84f41a	-0.016229678
65	0x3b0e980d	0.002175811
66	0xbe83b4ed	-0.25723973
67	0x3dee45db	0.116344176
68	0xbd2d0382	-0.042239673
69	0xbd2ded93	-0.042462897
70	0x3e802a44	0.25032246
71	0x3e139d81	0.14415552
72	0x3ce93b6a	0.028470714
73	0x3df90950	0.12159979
74	0x3de5f3c4	0.11228135
75	0xbbdbd5e0	-0.0067088455
76	0xbe278538	-0.16359413
77	0x3e88cbb5	0.26717916
78	0x3ed7869d	0.4209489
79	0xbf854fb9	-1.0414954
80	0x3d833fb8	0.06408638
81	0xbe114d50	-0.14189649
82	0xbe529955	-0.20566304
83	0x3e2fd082	0.17169383
84	0xbe7914a7	-0.24324284
85	0xbc94e218	-0.018174216
86	0x3b898f9b	0.0041980273
87	0x3ac5f077	0.0015101571
88	0x3c21fdf2	0.009887205
89	0x3b8a1e9e	0.0042150756
90	0xbdaeead8	-0.08540887
91	0x3e07b12e	0.13251182
92	0xbd7c547a	-0.061604
93	0xbde8e106	-0.11371045
94	0x3dc92121	0.09820772
95	0x3d5e8739	0.054328177
96	0xbe559b98	-0.20860136
97	0x3e856b0c	0.26058233
98	0x3e2359ec	0.15952271
99	0x3f8dab30	1.1067867
100	0x3e949c9e	0.2902574
101	0xbe47f6e2	-0.19527772
102	0xbdb5bd76	-0.088740274
103	0x3e0b8a12	0.13626888
104	0xbd8069e2	-0.062701955
105	0x3e41b2c8	0.18915856
106	0xbb71b034	-0.0036878707
107	0x3d9666e7	0.07343846
108	0xbe142b65	-0.14469679
109	0x3e163711	0.14669444
110	0x3e769ebd	0.24083991
111	0x3e42f515	0.19038804
112	0x3e1770bb	0.14789097
113	0xbe30f9f3	-0.17282848
114	0xbe5387d3	-0.20657282
115	0x3df8d469	0.12149889
116	0xbcb4e3ed	-0.02208134
117	0x3c787221	0.015163929
118	0xbdb3a3bd	-0.08771465
119	0x3f2281b5	0.6347917
120	0x3dae99c6	0.08525424
121	0xbca4c996	-0.020115655
122	0x3d140430	0.036136806
123	0xbd77e8d4	-0.060524777
124	0x3b96dc02	0.0046038637
125	0x3b82e288	0.00399429
126	0x3b64e013	0.0034923598
127	0x39307d18	0.00016831269
128	0xbe9d155f	-0.30680367
129	0xbc78d414	-0.015187282
130	0x3ddc8a9d	0.10768626
131	0x3da9248e	0.082589254
132	0xbdd4ec7c	-0.10396668
133	0xbcebd04a	-0.028785843
134	0xbe1c847f	-0.15284918
135	0x3ba400bc	0.0050049704
136	0x3d84f90d	0.06492815
137	0x3d580492	0.052738734
138	0xbd4096fe	-0.047018997
139	0x3f953e30	1.1659603
140	0x3eb9c177	0.36280414
141	0x3daa854f	0.08326208
142	0x3dae4990	0.08510125
143	0xbd88ed1a	-0.066858485
144	0x3d04737a	0.03233669
145	0xbd4c8d9b	-0.049939733
146	0x3cadf41d	0.021234566
147	0x3bd1b261	0.0063994383
148	0xbe3358d3	-0.17514353
149	0xbc55a305	-0.013039355
150	0x3e840a43	0.2578908
151	0xbce8b3b5	-0.028406003
152	0x3db81d37	0.08989947
153	0x3e09e9c1	0.13468076
154	0xbe04281e	-0.12905928
155	0xbd594cce	-0.053051762
156	0xbcf7c46f	-0.030245034
157	0x3db807bc	0.0898585
158	0x3e21f18f	0.15814804
159	0xbe6bc2f1	-0.23023583
160	0xbc040f73	-0.008060324
161	0xbc7cafe5	-0.015422796
162	0x3df9fc88	0.1220637
163	0xbe45c33c	-0.19312757
164	0x3c5ebbec	0.013594609
165	0x3870ea5a	5.7438716e-05
166	0xbb39fdb3	-0.0028379976
167	0xbbcabef5	-0.0061873146
168	0xbe803601	-0.25041202
169	0x3d94370c	0.07237062
170	0xbdeb91f6	-0.11502449
171	0x3ddc3a7d	0.10753343
172	0x3e67f4fb	0.22652046
173	0xbd61c154	-0.055116013
174	0xbb1959d9	-0.00233995
175	0x3e28d43f	0.16487215
176	0x3d5c877a	0.053840138
177	0x3e524bc1	0.2053671
178	0x3f3967ee	0.7242421
179	0xbfa71369	-1.3052799
180	0x3e9720eb	0.29517302
181	0x3de591a3	0.112094186
182	0x3d4991f8	0.049211472
183	0x3e59d730	0.21273494
184	0xbc834796	-0.016025346
185	0x3be45baf	0.0069689373
186	0x3b9d0376	0.0047916723
187	0x3cac5009	0.021034257
188	0x3bdb543c	0.006693391
189	0xbcb0c0fe	-0.0215764
190	0xbd7abec4	-0.061217085
191	0x3e1b904e	0.15191767
192	0xbd7ede02	-0.062223442
193	0x3d014e67	0.03156891
194	0x3e00e40e	0.12586996
195	0x3dbbcfbb	0.09170481
196	0x3e607de4	0.21923023
197	0x3e1eb730	0.15499568
198	0x3eedf75f	0.46477792
199	0xc004a2f0	-2.072445
200	0xbd9e7f3d	-0.077391125
201	0xbe192aa4	-0.14957672
202	0xbc0b5570	-0.008504257
203	0xbd03dfb4	-0.03219576
204	0xbd30c93c	-0.043160662
205	0x3b369825	0.0027861681
206	0xbd3b1116	-0.04567059
207	0xbc2f93fe	-0.010716436
208	0x3c6ad987	0.014334089
209	0xbc0881a4	-0.00833169
210	0x3bfeb75e	0.007773324
211	0x3e32c217	0.17456852
212	0x3de8672d	0.11347804
213	0xbd9bc151	-0.076052316
214	0x3daa9527	0.0832923
215	0x3e3b935f	0.18317936
216	0xbe012471	-0.12611558
217	0x3ddd0e95	0.10793797
218	0xbd4bb6db	-0.04973493
219	0xbfb30c9b	-1.3988222
220	0x3deb1024	0.11477688
221	0xbaacd2c6	-0.0013185374
222	0x3de31138	0.110872686
223	0xbd537eb4	-0.051634505
224	0x3ca3e6f8	0.020007595
225	0x3c4c1e77	0.012458435
226	0x3c01ee3e	0.0079303365
227	0xba9accdc	-0.001181032
228	0xbe1a9710	-0.15096688
229	0xbe34ba8c	-0.17649287
230	0xbe0209fb	-0.1269912
231	0xbe04212c	-0.12903279
232	0xbd3adfc9	-0.045623574
233	0x3c2e81a5	0.010651027
234	0x3d32a96f	0.043618616
235	0xbe325cd7	-0.17418228
236	0xbe85579d	-0.26043406
237	0x3e2d50c5	0.16925342
238	0x3eddd53b	0.43326744
239	0x3eacd837	0.3375871
240	0xbd1f38d3	-0.03887255
241	0xbd8728ea	-0.065996006
242	0xbdda9214	-0.106723934
243	0x3e4b9e48	0.19884598
244	0xbdbfa768	-0.09358102
245	0xb9bdc4dd	-0.00036195564
246	0x3ca5d4cc	0.020243071
247	0x3c8b376b	0.016994199
248	0x3d9d542f	0.07682072
249	0x3d012042	0.031524904
250	0x3ddd8bd0	0.10817683
251	0xbd264aff	-0.040598866
252	0xbdecf7a4	-0.11570671
253	0xbe79efba	-0.24407855
254	0xbe2ee88d	-0.17080899
255	0xbe03a354	-0.12855273

value.0.bias f4 [32]
0	0xbe0d89e5	-0.13822134
1	0xbe4344cb	-0.19069211
2	0xbe1fe4bc	-0.15614599
3	0x3d7c77ea	0.061637796
4	0x3d95301d	0.072845675
5	0x3e138f18	0.14410055
6	0x3de26eb3	0.110562705
7	0xbdbe2bf7	-0.092857294
8	0x3db03f36	0.086058065
9	0xbdd72692	-0.105054036
10	0x3d00757e	0.03136205
11	0xbda69965	-0.081347264
12	0xbe949baf	-0.29025027
13	0xbe4631dc	-0.19354957
14	0xbe803a7c	-0.2504462
15	0xbdf1c733	-0.11805572
16	0xbe4c45fa	-0.19948569
17	0x3ce5fdff	0.028075216
18	0x3e3173ca	0.17329326
19	0xbe75ecbc	-0.24016088
20	0xbb35dfe5	-0.002775186
21	0xbdef8529	-0.1169532
22	0xbd9d7940	-0.07689142
23	0xbe6ee665	-0.23330076
24	0x3d3d7956	0.046258293
25	0xbded117e	-0.11575602
26	0x3dd517d5	0.10404936
27	0x3e357cbf	0.17723368
28	0xbceb6a41	-0.02873719
29	0x3c53e853	0.012933808
30	0xbe811392	-0.25210243
31	0x3e239b64	0.15977246

value.2.weight f4 [32, 32]
0	0xbdd08540	-0.101816654
1	0xbe30ca6c	-0.17264718
2	0x3df90f65	0.121611394
3	0x3e35b710	0.17745614
4	0xbccc8020	-0.024963439
5	0xbde3bdc8	-0.11120182
6	0x3e3f0b7f	0.18656729
7	0x3e5509db	0.20804541
8	0xbee561fc	-0.4480132
9	0x3cbd7565	0.023127267
10	0xbd9c5020	-0.0763247
11	0x3ddc28be	0.107499585
12	0xbd9721e1	-0.07379509
13	0xbe40851d	-0.18800779
14	0x3c236f39	0.009975248
15	0xbd513719	-0.051077936
16	0xbd30b826	-0.043144368
17	0x3ceef889	0.029171245
18	0x3e5a1e5b	0.21300642
19	0xbd827891	-0.063706525
20	0x3d0509b3	0.032479953
21	0x3c305b22	0.010763915
22	0x3e8411b3	0.25794753
23	0x3b224438	0.00247599
24	0x3c91c9ad	0.017796362
25	0x3e65c246	0.2243739
26	0xbe06d34c	-0.13166541
27	0xbe18a0aa	-0.14905038
28	0xbe098697	-0.13430248
29	0xbb5e2543	-0.0033896721
30	0xbda81d7a	-0.08208747
31	0x3d05a5a9	0.03262869
32	0xbdba339a	-0.090918735
33	0x3d8a5221	0.06753946
34	0x3dc1e256	0.09466998
35	0xbdc18c0d	-0.09450541
36	0xbde186c1	-0.110120304
37	0x3e23ca1a	0.15995064
38	0xbd0f07c9	-0.034919534
39	0xbe2afc47	-0.16697799
40	0x3e26a770	0.1627481
41	0x3e30ba7d	0.1725864
42	0x3d674fe3	0.05647267
43	0xbee17a91	-0.44038823
44	0x3e1a640e	0.1507723
45	0x3ccccdf0	0.025000542
46	0x3d5dfd96	0.054196917
47	0x3bed5de4	0.0072438587
48	0xbc1c383d	-0.009534893
49	0x3db44ea4	0.08804062
50	0xbd99183d	-0.07475326
51	0xbe32471c	-0.17409939
52	0x3db7f02a	0.089813545
53	0xbe8994c4	-0.26871312
54	0x3d1252ff	0.035723682
55	0x3b4ec538	0.0031550657
56	0xbe4aefaa	-0.19817987
57	0xbdd563f5	-0.10419456
58	0xbe079e8a	-0.13244072
59	0xbe9329b7	-0.28742763
60	0xbdd4f740	-0.10398722
61	0xbe265e53	-0.1624692
62	0xbe857d56	-0.26072186
63	0xbcf37d3b	-0.0297228
64	0xbdb2100c	-0.08694467
65	0x3b90299f	0.004399493
66	0xbe0312a9	-0.12800087
67	0xba253ab0	-0.00063029956
68	0x3ea20c3c	0.3164996
69	0xbd81e751	-0.06342948
70	0x3dd169d6	0.10225265
71	0xbe786a9a	-0.24259415
72	0xbe979be4	-0.29611123
73	0xbea4329e	-0.32069868
74	0xbed198e8	-0.4093697
75	0x3c7c26a5	0.015390073
76	0xbf0427cd	-0.5162323
77	0xbe7596d9	-0.23983325
78	0x3de5b6ba	0.11216493
79	0x3db03aa7	0.08604937
80	0x3e238c10	0.15971398
81	0xbe8a2c91	-0.26987126
82	0xbf18c3f2	-0.5967399
83	0xbe2875c7	-0.16451178
84	0x3e9223dc	0.28542984
85	0x3df07106	0.117403075
86	0xbe02edc1	-0.12786008
87	0x3d69f19b	0.05711518
88	0xbe948ccd	-0.29013672
89	0xbe204c8d	-0.15654202
90	0xbec434b5	-0.38321462
91	0xbeca0440	-0.39456367
92	0xbef34fea	-0.47521907
93	0xbe3fada7	-0.18718587
94	0xbe932725	-0.28740802
95	0xbe9ec0d8	-0.31006503
96	0x3e5141f6	0.20435318
97	0x3c30b2dc	0.010784831
98	0xbe0aa6ae	-0.13540146
99	0xbe839ea9	-0.25706986
100	0x3d08640f	0.03329855
101	0x3d905924	0.07048252
102	0xbca6f015	-0.020378152
103	0x3e92092b	0.2852262
104	0xbc497b7e	-0.012297509
105	0x3e0f5d1b	0.1400036
106	0x3bfee4b8	0.0077787302
107	0x3cd23b6f	0.025663106
108	0xbc89f681	-0.016841175
109	0x3e81022f	0.25196978
110	0x3e0a282e	0.1349189
111	0x39ad7c77	0.00033089865
112	0x3d4c5e2b	0.049894493
113	0x3e443ea8	0.19164526
114	0x3e11fd54	0.14256793
115	0x3e48a429	0.19593872
116	0xbc874b7f	-0.016515492
117	0x3e0bbb32	0.13645628
118	0xbe3e26f6	-0.1856955
119	0xbd7a6823	-0.06113447
120	0xbeab97b8	-0.3351419
121	0xbe931582	-0.28727347
122	0x3e2a60e9	0.16638531
123	0x3d6e6d8b	0.058209937
124	0x3c8123b6	0.015764099
125	0xbe36e4d1	-0.17860724
126	0xbd8f57e4	-0.06999186
127	0xbe8b75f9	-0.27238443
128	0xbd95781b	-0.07298299
129	0x3dba9552	0.09110512
130	0xbe00b09e	-0.12567374
131	0x3dc72fa0	0.097258806
132	0xbe224ade	-0.15848872
133	0x3dbec5a4	0.09315041
134	0x3d3d985b	0.046287876
135	0x3e496774	0.1966837
136	0xbdc44732	-0.09583892
137	0xbb846e84	-0.004041495
138	0xbe6739f4	-0.22580701
139	0xbd3dcc0b	-0.04633717
140	0xbabe99e9	-0.0014541718
141	0x3d7733b5	0.060352046
142	0x3d8613cc	0.06546745
143	0xbdb8de24	-0.09026745
144	0x3da30395	0.079596676
145	0xbce11b11	-0.027478727
146	0x3e0354f6	0.12825379
147	0x3dbc76ff	0.09202384
148	0xbdf0007c	-0.117188424
149	0x3d013d19	0.031552408
150	0x3b616a66	0.0034395694
151	0xbd1d1732	-0.0383522
152	0x3e129a5f	0.143167
153	0xbe453f65	-0.19262464
154	0x3d554d3f	0.05207562
155	0x3dfade91	0.122494824
156	0x3db25415	0.087074436
157	0xbdd12d2c	-0.10213694
158	0x3e49be0d	0.19701405
159	0xbd682f3b	-0.056685667
160	0xbd778d85	-0.060437698
161	0x3e263cca	0.16234127
162	0x3da0f540	0.07859278
163	0xbbdcb6f5	-0.0067356774
164	0xbdd5229a	-0.1040699
165	0xbd309be3	-0.043117415
166	0x3ddb23ed	0.10700212
167	0x3d8de0a8	0.069276154
168	0xbd9971a8	-0.07492381
169	0x3c0255bc	0.007955011
170	0x3da0b082	0.07846166
171	0xbdc65e21	-0.096859224
172	0xbe0cbbd5	-0.13743527
173	0xbdbe22e0	-0.09283996
174	0x3e4622b4	0.19349176
175	0x3d8d215b	0.06891128
176	0xbd93bd2c	-0.07213816
177	0x3de3379a	0.110945895
178	0xbba1ada3	-0.004934029
179	0xbd196062	-0.037445433
180	0x3cd0ee47	0.025504244
181	0xbcc86c70	-0.02446577
182	0xbd5dc6c3	-0.054144632
183	0xbc5cfab5	-0.013487508
184	0x3b3d99b6	0.002893073
185	0x3b7abdd5	0.0038260121
186	0xbe0ea229	-0.13929047
187	0x3d138648	0.036016732
188	0x3df14f73	0.11782732
189	0xbdb28071	-0.087159045
190	0x3dfe359b	0.12412568
191	0xbc95fe97	-0.018309874
192	0xbbf255c5	-0.0073954784
193	0x3cccfd36	0.025023084
194	0xbd34a249	-0.04410008
195	0xbe72d772	-0.23714998
196	0x3d2379f2	0.039911218
197	0x3c6f261e	0.01459649
198	0xbe3fd55d	-0.18733735
199	0x3dcff159	0.10153455
200	0x3a0dc384	0.0005407857
201	0xbd8a5108	-0.06753737
202	0x3b8b5ed2	0.004253247
203	0xbe937247	-0.28798124
204	0x3e09f6c1	0.13473035
205	0xbe46e182	-0.19421962
206	0xbd79613b	-0.06088374
207	0x3d97851d	0.07398436
208	0x3e2a9ebe	0.16662118
209	0x3e034716	0.12820086
210	0xbdb13d44	-0.086542636
211	0x3e594c67	0.21220551
212	0xbd292149	-0.04129151
213	0x3d769ffe	0.060211174
214	0xbe80e165	-0.25171962
215	0xbe46c20d	-0.19409962
216	0xbe97af81	-0.29626086
217	0xbe96c96a	-0.29450542
218	0x3df473a3	0.119361185
219	0xbe2556fb	-0.16146462
220	0x3dad6864	0.084671766
221	0xbd6e9a58	-0.058252662
222	0x3d8c2ba3	0.068442605
223	0xbbcbcbf5	-0.006219382
224	0xbe28c2c8	-0.16480553
225	0xbdb3bedb	-0.08776637
226	0x3e1a31ce	0.15058061
227	0x3dcc7ace	0.09984361
228	0x3e1aa68c	0.15102595
229	0x3e9547c2	0.2915631
230	0x3d8fd6f1	0.07023419
231	0xbe8c56bd	-0.27409926
232	0xbe8fb323	-0.28066358
233	0xbe489e53	-0.19591646
234	0xbd8be0b7	-0.0682997
235	0xbd3645f4	-0.044500306
236	0xbd171fc0	-0.036895514
237	0xbe5b53f5	-0.21418746
238	0x3c62fab3	0.013853717
239	0x3e1bef71	0.15228058
240	0x3d68cbc5	0.056834955
241	0x3c86e2a9	0.016465502
242	0x3dc01204	0.09378436
243	0xbcf27d30	-0.02960071
244	0x3eb44219	0.35206679
245	0x3dfb5e5d	0.12273858
246	0x3dfd5cbb	0.123712026
247	0x3c7d7193	0.015468973
248	0xbdc6d430	-0.0970844
249	0x3e83e974	0.25764048
250	0x3d3b3eb0	0.04571408
251	0xbe00c57a	-0.12575331
252	0xbe19c7df	-0.15017651
253	0xbd90e402	-0.07074739
254	0x3bb4dbe2	0.005519376
255	0xbcfca054	-0.03083817

value.2.bias f4 [32]
0	0xbe48c28f	-0.19605468
1	0x3da525ac	0.08063826
2	0xbe1c4178	-0.1525935
3	0xbdb7ce74	-0.08974925
4	0xbe6a0780	-0.22854424
5	0xbd691e45	-0.056913633
6	0x3d882a6e	0.06648718
7	0x3b067a1a	0.0020519556
8	0xbcf66bcc	-0.030080698
9	0xbe1afb76	-0.15134987
10	0xbdb83bd1	-0.08995784
11	0xbd858049	-0.06518609
12	0xbdf920ce	-0.1216446
13	0xbe174b7b	-0.14774887
14	0x3e2fdc4a	0.17173877
15	0xbe2e489b	-0.17019884
16	0xbdb8aa37	-0.09016841
17	0xbdba4a4c	-0.09096202
18	0xbe032ae6	-0.12809333
19	0x3be43093	0.0069637983
20	0x3ba0cd6b	0.0049073
21	0x3d80b7fe	0.06285094
22	0xbd090244	-0.033449426
23	0xbd466588	-0.04843667
24	0xbd46c4b6	-0.048527442
25	0x3e355397	0.17707668
26	0x3df2b3ff	0.11850738
27	0x3d6dd505	0.05806448
28	0x3e202685	0.15639694
29	0xbde985fc	-0.114025086
30	0xbdd5807a	-0.104248956
31	0x3e067896	0.13131937

value.4.weight f4 [1, 32]
0	0x3d8630b3	0.065522574
1	0xbcf527b0	-0.029926151
2	0xbd7543a1	-0.05987895
3	0x3c57c87b	0.013170357
4	0xbbc9a7ac	-0.0061540212
5	0x3d27b5fe	0.040945046
6	0xbd48e72e	-0.049048595
7	0xbd341faf	-0.04397553
8	0x3c366a78	0.011133783
9	0xbd3be0c3	-0.045868646
10	0xbc683e99	-0.014175081
11	0x3d35c407	0.0443764
12	0x3c7af5d1	0.015317396
13	0xbca50524	-0.020144053
14	0xbdc43268	-0.09579927
15	0x3d4bbb3c	0.049739107
16	0x3d36226d	0.044466425
17	0xbd03fbdd	-0.032222617
18	0xbd4a974f	-0.049460705
19	0xbd5ab5de	-0.0533961
20	0x3c6c4087	0.014419681
21	0xbcd15676	-0.025553923
22	0x3dddeb3d	0.10835884
23	0xbcaf4a7f	-0.021397827
24	0x3da81eed	0.082090236
25	0x3ce30fd9	0.027717518
26	0xbd038dd7	-0.03211769
27	0x3d55cf7e	0.052199833
28	0x3d0fc649	0.03510121
29	0xbd7d15d3	-0.06178839
30	0xbd07bd4b	-0.03313951
31	0xbdcf57af	-0.10124146

value.0.weight f4 [32, 20]
0	0x3e570978	0.20999706
1	0x3d1bc77e	0.038032047
2	0x3d4ce988	0.0500274
3	0x3e29bbf6	0.16575608
4	0x3d0b6cfe	0.03403949
5	0xbab61c15	-0.0013893867
6	0x3d0e9bfb	0.034816723
7	0xbd011426	-0.031513356
8	0x3c4871f2	0.012234198
9	0x3c07819e	0.008270649
10	0x3e915bb5	0.2839028
11	0xbd87d656	-0.06632678
12	0xbdd3a635	-0.10334436
13	0xbc716aae	-0.014734907
14	0xbe051cab	-0.12999217
15	0x3e0fe345	0.1405154
16	0x3e0374d5	0.12837537
17	0xbd9a28e1	-0.07527328
18	0x3f42d7ed	0.76110727
19	0xbf82ed1c	-1.022861
20	0xbdbaef12	-0.0912763
21	0xbda02d42	-0.07821132
22	0x3e56ad1a	0.2096447
23	0xbe10be38	-0.14135063
24	0xbb3656ed	-0.0027822808
25	0x3aef71f8	0.0018268218
26	0x3b29fd1a	0.0025938214
27	0x3b45487f	0.0030103025
28	0xbbb328eb	-0.0054675243
29	0x3c03fa1f	0.008055239
30	0xbe3a430f	-0.18189643
31	0x3d6d67df	0.057960387
32	0x3cfae828	0.030628279
33	0xbd06333a	-0.032763697
34	0xbe838ddb	-0.25694165
35	0x3e0cd5da	0.13753453
36	0xbd4082a7	-0.0469996
37	0xbe08eecd	-0.13372345
38	0xbe3ff8c6	-0.18747243
39	0x3fb2d155	1.3970133
40	0x3e18ebe2	0.14933732
41	0xbddf49b4	-0.1090273
42	0xbe2e8d75	-0.17046149
43	0x3df95564	0.1217449
44	0x3d3e5671	0.046469156
45	0xbc6eb53f	-0.01456958
46	0x3aa3232d	0.0012446396
47	0x3ccad02b	0.024757465
48	0xbcee2459	-0.029070066
49	0xbd90d968	-0.07072717
50	0x3e45b7c6	0.19308385
51	0x3de02ac2	0.109456554
52	0x3e1872f2	0.14887598
53	0xbe384bf6	-0.17997727
54	0xbb2da4f1	-0.0026496018
55	0x3db4f34c	0.08835468
56	0x3d306f12	0.043074675
57	0xbd708398	-0.058719248
58	0xbf67b2a5	-0.90506965
59	0xbf1caf57	-0.6120505
60	0x3e08bc6e	0.1335313
61	0x3ba8fc8e	0.00515706
62	0x3d68a490	0.056797564
63	0x3db0c0c8	0.0863052
64	0xbc84f47e	-0.016229864
65	0x3b0e97a9	0.0021757877
66	0xbe83b551	-0.2572427
67	0x3dee463f	0.11634492
68	0xbd2d03e6	-0.042240046
69	0xbd2dedf7	-0.04246327
70	0x3e8029e0	0.25031948
71	0x3e139d1d	0.14415403
72	0x3ce93b06	0.028470527
73	0x3df909b4	0.12160054
74	0x3de5f428	0.1122821
75	0xbbdbd57c	-0.006708799
76	0xbe2784d4	-0.16359264
77	0x3e88cb51	0.26717618
78	0x3ed78639	0.4209459
79	0xbf854f55	-1.0414835
80	0x3d81a252	0.06329788
81	0xbe11b195	-0.14227898
82	0xbe529955	-0.20566304
83	0x3e2fd082	0.17169383
84	0xbe78f445	-0.24311931
85	0xbc90e269	-0.017686086
86	0x3c057817	0.008146307
87	0x3a2d2bce	0.00066059537
88	0x3c0fcf9e	0.008777527
89	0x3b3a5dd3	0.0028437271
90	0xbdb0588c	-0.08610639
91	0x3e06fa5b	0.1318144
92	0xbd7f7da2	-0.062375672
93	0xbde7972a	-0.11308129
94	0x3dca9e88	0.09893519
95	0x3d618202	0.055055626
96	0xbe54dce7	-0.20787393
97	0x3e850bb4	0.2598549
98	0x3e22cfe0	0.1589961
99	0x3f8db505	1.1070868
100	0x3e949c3a	0.2902544
101	0xbe47f746	-0.19527921
102	0xbdb5bd76	-0.088740274
103	0x3e0b8a12	0.13626888
104	0xbd806a46	-0.0627027
105	0x3e41b32c	0.18916005
106	0xbb71b098	-0.003687894
107	0x3d96674b	0.0734392
108	0xbe142bc9	-0.14469828
109	0x3e163775	0.14669593
110	0x3e769e59	0.24083842
111	0x3e42f4b1	0.19038655
112	0x3e177057	0.14788948
113	0xbe30f98f	-0.17282699
114	0xbe53876f	-0.20657133
115	0x3df8d4cd	0.121499635
116	0xbcb4e389	-0.022081153
117	0x3c7871bd	0.015163836
118	0xbdb3a421	-0.087715395
119	0x3f228219	0.63479763
120	0x3dafbe16	0.08581178
121	0xbc9e7ff2	-0.019348118
122	0x3d140430	0.036136806
123	0xbd77e8d4	-0.060524777
124	0x3b6158f3	0.0034385293
125	0x3b8c2c16	0.0042777164
126	0x3b349329	0.0027553535
127	0xba9d998e	-0.0012023912
128	0xbe9cab35	-0.3059937
129	0xbc5689a0	-0.013094336
130	0x3dddd24d	0.10831127
131	0x3daa6c3e	0.08321427
132	0xbdd3d561	-0.10343433
133	0xbcf30cbb	-0.029669156
134	0xbe1d2ca8	-0.15349066
135	0x3b8efb60	0.0043634623
136	0x3d83a8b5	0.06428663
137	0x3d5aa53a	0.05338023
138	0xbd3d82b3	-0.046267223
139	0x3f951cf1	1.1649457
140	0x3eb9c113	0.36280116
141	0x3daa85b3	0.08326282
142	0x3dae4990	0.08510125
143	0xbd88ed1a	-0.066858485
144	0x3d047316	0.032336317
145	0xbd4c8dff	-0.049940106
146	0x3cadf3b9	0.02123438
147	0x3bd1b2c5	0.006399485
148	0xbe335937	-0.17514502
149	0xbc55a369	-0.013039448
150	0x3e8409df	0.2578878
151	0xbce8b419	-0.02840619
152	0x3db81cd3	0.08989873
153	0x3e09ea25	0.13468225
154	0xbe0427ba	-0.1290578
155	0xbd594c6a	-0.05305139
156	0xbcf7c40b	-0.030244848
157	0x3db80758	0.08985776
158	0x3e21f12b	0.15814655
159	0xbe6bc355	-0.23023732
160	0xbc03e1fd	-0.008049485
161	0xbc43fb21	-0.011961729
162	0x3df9fc88	0.1220637
163	0xbe45c33c	-0.19312757
164	0x3c30aecf	0.010783865
165	0xbb3fff3e	-0.0029296423
166	0xbae2b71a	-0.0017297
167	0xbb9dd79d	-0.004816963
168	0xbe7e68c3	-0.24844651
169	0x3d98e6e5	0.07465915
170	0xbdeac70b	-0.11463746
171	0x3ddd0568	0.10792047
172	0x3e6824a2	0.22670224
173	0xbd6312c5	-0.055437822
174	0xbb281df9	-0.002565263
175	0x3e28992e	0.16464683
176	0x3d5b9b3c	0.05361484
177	0x3e5286d2	0.20559242
178	0x3f387125	0.72047645
179	0xbfa6d98c	-1.303514
180	0x3e968af6	0.29402894
181	0x3de28aa4	0.110616
182	0x3d4991f8	0.049211472
183	0x3e59d730	0.21273494
184	0xbc64bf29	-0.013961592
185	0x3c41ae98	0.011821412
186	0x3b6b8758	0.0035938825
187	0x3cb2bc26	0.021818232
188	0x3b8a2591	0.004215904
189	0xbc92e8c9	-0.017933266
190	0xbd7795b3	-0.0604455
191	0x3e1c5a9b	0.15268938
192	0xbd79dfde	-0.061004512
193	0x3d02432b	0.031802338
194	0x3e0018fe	0.12509534
195	0x3dba39a0	0.09093022
196	0x3e5fb2d2	0.21845558
197	0x3e1f8242	0.15577033
198	0x3eee2f70	0.46520567
199	0xc0047d31	-2.070141
200	0xbd9c95c5	-0.07645754
201	0xbe1873d1	-0.1488793
202	0xbc0b5570	-0.008504257
203	0xbd03dfb4	-0.03219576
204	0xbd378c1d	-0.044811357
205	0x3bb018fa	0.005374071
206	0xbd44cb62	-0.048045523
207	0xbc3f4bb5	-0.011675765
208	0x3c28eac7	0.0103098815
209	0xbc0b4a15	-0.008501549
210	0x3c075da9	0.008262076
211	0x3e334232	0.1750572
212	0x3de974f1	0.11399258
213	0xbd9cdba6	-0.07659082
214	0x3da98377	0.08277028
215	0x3e3b0a87	0.18265735
216	0xbe01ad4a	-0.12663761
217	0x3dde2045	0.10845999
218	0xbd4c23a2	-0.04983867
219	0xbfb29213	-1.3950828
220	0x3deca779	0.115553804
221	0x3b5ac531	0.0033381695
222	0x3de31138	0.110872686
223	0xbd537eb4	-0.051634505
224	0x3c8085dc	0.01568883
225	0x3c48e353	0.01226123
226	0x3bf66b9a	0.0075201513
227	0xbb432844	-0.002977864
228	0xbe1952b4	-0.14972955
229	0xbe33f124	-0.17572457
230	0xbe02142b	-0.12703006
231	0xbe042b5d	-0.12907167
232	0xbd385b51	-0.04500896
233	0x3c1080b5	0.008819749
234	0x3d2e7b0d	0.04259782
235	0xbe336870	-0.17520308
236	0xbe85dd6a	-0.26145488
237	0x3e2e5c5e	0.17027423
238	0x3ededf82	0.43529898
239	0x3eabe93d	0.33576384
240	0xbd1c1c22	-0.038112767
241	0xbd851733	-0.064985655
242	0xbdda9214	-0.106723934
243	0x3e4b9e48	0.19884598
244	0xbdb6be6a	-0.08923037
245	0x39ed7508	0.00045291358
246	0x3c9a377b	0.018825283
247	0x3c5822f9	0.013191932
248	0x3da23e45	0.07922033
249	0x3cf7ef04	0.030265339
250	0x3de27056	0.11056583
251	0xbd1c8210	-0.038209975
252	0xbdeb2ce6	-0.11483173
253	0xbe790a60	-0.24320364
254	0xbe2fcdd9	-0.17168368
255	0xbe0488a0	-0.12942743

value.0.bias f4 [32]
0	0xbe10d63e	-0.14144227
1	0xbe4382ba	-0.19092837
2	0xbe1ec6cb	-0.15505521
3	0x3d7c784e	0.06163817
4	0x3d96ad7e	0.0735731
5	0x3e138f7c	0.14410204
6	0x3de11e61	0.109921224
7	0xbdbe2b93	-0.09285655
8	0x3dafc91d	0.08583281
9	0xbdd8bc88	-0.105828345
10	0x3cfca458	0.030840084
11	0xbda8b032	-0.082367316
12	0xbe950d6a	-0.29111797
13	0xbe476574	-0.19472295
14	0xbe7e45d1	-0.2483132
15	0xbdf11ba1	-0.11772848
16	0xbe51e9f6	-0.20499405
17	0x3cf11de5	0.0294332
18	0x3e33607f	0.17517279
19	0xbe751cb2	-0.23936728
20	0xbb77e021	-0.00378228
21	0xbde62561	-0.11237598
22	0xbd9d78dc	-0.07689068
23	0xbe6ea69f	-0.23305748
24	0x3d274968	0.04084149
25	0xbdf3e5fe	-0.11909102
26	0x3dd4d832	0.103927985
27	0x3e357d23	0.17723517
28	0xbd04f49f	-0.03245985
29	0x3c675597	0.014119527
30	0xbe81a8d6	-0.25324124
31	0x3e231a1f	0.15927933

value.2.weight f4 [32, 32]
0	0xbdc30f89	-0.095244475
1	0xbe2f61ff	-0.17127226
2	0x3df8edd1	0.12154735
3	0x3e35b774	0.17745763
4	0xbcc2f6cc	-0.023799323
5	0xbde3bd64	-0.11120108
6	0x3e3f6dff	0.18694304
7	0x3e550977	0.20804392
8	0xbee55f5a	-0.4479931
9	0x3caf677d	0.021411652
10	0xbd96257d	-0.07331369
11	0x3ddc8a4d	0.10768566
12	0xbd9b797e	-0.07591532
13	0xbe40e453	-0.18837099
14	0x3bf5af54	0.0074977074
15	0xbd4d7f6c	-0.050170347
16	0xbd33543f	-0.043781515
17	0x3cef2846	0.029194009
18	0x3e5d872a	0.21633592
19	0xbd7b8567	-0.06140652
20	0x3d15891c	0.03650771
21	0x3c2bde47	0.010490007
22	0x3e841217	0.2579505
23	0x3b4ad968	0.0030952338
24	0x3c840965	0.01611776
25	0x3e6759f9	0.22592916
26	0xbe076d23	-0.13225226
27	0xbe18a046	-0.1490489
28	0xbe03b47c	-0.12861818
29	0xbb218ba1	-0.0024649876
30	0xbdb3c9f1	-0.08778752
31	0x3d17afb4	0.037032798
32	0xbdb6c4b1	-0.08924235
33	0x3d8b14f1	0.06791104
34	0x3dc1e5be	0.09467648
35	0xbdc18c71	-0.09450615
36	0xbdd14bf8	-0.10219568
37	0x3e23ca7e	0.15995213
38	0xbd0b9d3b	-0.034085494
39	0xbe2afcab	-0.16697948
40	0x3e26c330	0.16285396
41	0x3e2c7279	0.16840543
42	0x3d6df8d3	0.058098625
43	0xbee3c1bc	-0.44483745
44	0x3e1a63aa	0.15077081
45	0x3cc7a31b	0.024369767
46	0x3d772160	0.060334563
47	0x3be1e1ab	0.006893357
48	0xbc88eb21	-0.01671368
49	0x3db44e40	0.088039875
50	0xbd8e00e9	-0.06933767
51	0xbe38ae7b	-0.18035309
52	0x3db670b5	0.08908216
53	0xbe89cad4	-0.26912558
54	0x3d125363	0.035724055
55	0xbb1b2110	-0.002367083
56	0xbe52bafc	-0.20579141
57	0xbde9dd2a	-0.11419137
58	0xbe079eee	-0.1324422
59	0xbe932953	-0.28742465
60	0xbdc5207f	-0.09625339
61	0xbe254f30	-0.16143489
62	0xbe89d39c	-0.26919258
63	0xbcfcc834	-0.030857183
64	0xbdb28f6e	-0.08718763
65	0x3be76111	0.0070611318
66	0xbe03130d	-0.12800236
67	0xba253b14	-0.0006303054
68	0x3ea3b260	0.31972027
69	0xbd81e6ed	-0.06342874
70	0x3dd201ee	0.10254274
71	0xbe786afe	-0.24259564
72	0xbe983185	-0.2972528
73	0xbea04869	-0.31305245
74	0xbecf4b47	-0.4048712
75	0x3c80ad65	0.015707681
76	0xbf042769	-0.51622635
77	0xbe74111b	-0.2383465
78	0x3de683d2	0.112556115
79	0x3db1c957	0.08680981
80	0x3e1bf887	0.15231524
81	0xbe89d889	-0.26923016
82	0xbf190811	-0.59777933
83	0xbe281c4f	-0.16417049
84	0x3e911f8b	0.28344378
85	0x3df0eb12	0.11763586
86	0xbe02ee25	-0.12786157
87	0x3d701a5e	0.058618896
88	0xbe95027e	-0.29103464
89	0xbe1e744f	-0.15474056
90	0xbec4225d	-0.38307467
91	0xbeca04a4	-0.39456666
92	0xbef242e5	-0.4731666
93	0xbe3c6614	-0.18398315
94	0xbe917c72	-0.28415257
95	0xbe9f0c28	-0.31063962
96	0x3e513d86	0.20433626
97	0x3c140b84	0.009035949
98	0xbe0c3817	-0.13693272
99	0xbe839e45	-0.25706688
100	0x3ce2bf65	0.027679155
101	0x3d9058c0	0.07048178
102	0xbca7ecc4	-0.02049864
103	0x3e9208c7	0.28522322
104	0xbc33d316	-0.01097562
105	0x3e0c542c	0.13703984
106	0x3b8ec6ac	0.0043571796
107	0x3cc93a55	0.024563948
108	0xbc8bad0f	-0.017050294
109	0x3e8067f5	0.25079313
110	0x3e072f58	0.13201654
111	0x369edc11	4.734386e-06
112	0x3d4ef524	0.050526753
113	0x3e454fb4	0.19268686
114	0x3e110052	0.14160278
115	0x3e49272a	0.19643846
116	0xbc92cdbb	-0.017920366
117	0x3e0bf13f	0.13666247
118	0xbe3e2692	-0.18569401
119	0xbd786c58	-0.0606502
120	0xbea87f2c	-0.32909524
121	0xbe8f9642	-0.28044325
122	0x3e2ae770	0.16689849
123	0x3d6e6def	0.05821031
124	0x3bfd887c	0.0077372175
125	0xbe39c9fe	-0.1814346
126	0xbd93d9c8	-0.07219273
127	0xbe8b1829	-0.2716687
128	0xbd96e520	-0.07367921
129	0x3dbdd2de	0.09268735
130	0xbdfd7bb7	-0.12377112
131	0x3dc72f3c	0.09725806
132	0xbe209de2	-0.15685228
133	0x3dbec608	0.09315115
134	0x3d489c34	0.048977092
135	0x3e4967d8	0.1966852
136	0xbdbe520f	-0.09292995
137	0x3bcd2fa1	0.0062617813
138	0xbe65564e	-0.22396204
139	0xbd3c8d96	-0.046033464
140	0x3a5179e7	0.0007990882
141	0x3d76afdd	0.06022631
142	0x3d8cd799	0.068770595
143	0xbdb8c83e	-0.09022568
144	0x3d9e4408	0.0772782
145	0xbcd6cc21	-0.026220383
146	0x3e0469ce	0.12930986
147	0x3daf6a79	0.0856523
148	0xbdeb2f22	-0.11483599
149	0x3cfd7b7e	0.030942675
150	0x3b616a02	0.003439546
151	0xbd25b8ea	-0.04045955
152	0x3e16e64f	0.14736293
153	0xbe43dd9f	-0.1912751
154	0x3d528968	0.051400572
155	0x3dfadef5	0.12249557
156	0x3db61fcc	0.088927835
157	0xbdcca02d	-0.099914886
158	0x3e4896fe	0.19588849
159	0xbd58973c	-0.052878603
160	0xbd772578	-0.060338467
161	0x3e26091e	0.16214415
162	0x3da15b19	0.078787036
163	0xbbdcb691	-0.006735631
164	0xbdd85ffa	-0.10565181
165	0xbd309c47	-0.043117788
166	0x3ddad9bd	0.106860615
167	0x3d8de044	0.06927541
168	0xbd98aa7f	-0.074543945
169	0x3c1b2e8b	0.009471546
170	0x3d9fb3a4	0.077979356
171	0xbdc5f7ee	-0.096664295
172	0xbe0cbb71	-0.13743378
173	0xbdbe33b8	-0.09287208
174	0x3e45982b	0.19296329
175	0x3d8d48cf	0.06898653
176	0xbd93ea76	-0.07222454
177	0x3de337fe	0.11094664
178	0xbbdb4249	-0.0066912514
179	0xbd147339	-0.036242697
180	0x3cd21dfd	0.025649065
181	0xbcc93c55	-0.024564901
182	0xbd5dc65f	-0.05414426
183	0xbc508698	-0.012727402
184	0x3b67dc7b	0.003537922
185	0x3bb346d2	0.005471089
186	0xbe0ea1c5	-0.13928898
187	0x3d1385e4	0.03601636
188	0x3def9c31	0.11699713
189	0xbdb3a462	-0.08771588
190	0x3dfa11da	0.12210436
191	0xbc89f954	-0.016842522
192	0xbbab60d9	-0.005230051
193	0x3cc71a07	0.024304403
194	0xbd29fed3	-0.041502785
195	0xbe72d7d6	-0.23715147
196	0x3d1e4224	0.038637295
197	0x3c6f25ba	0.014596397
198	0xbe417991	-0.1889403
199	0x3dcff0f5	0.10153381
200	0x3b324c09	0.0027205965
201	0xbd842c29	-0.064537354
202	0x3ac810eb	0.0015263831
203	0xbe962c9e	-0.29330915
204	0x3e09f0e9	0.13470806
205	0xbe45243b	-0.19252102
206	0xbd803f82	-0.06262113
207	0x3d95a879	0.07307524
208	0x3e2bcd7b	0.16777603
209	0x3e03377e	0.12814137
210	0xbdb5686f	-0.0885781
211	0x3e56bcca	0.20970455
212	0xbd2c64b3	-0.04208822
213	0x3d7e1e50	0.062040627
214	0xbe80e1c9	-0.2517226
215	0xbe445e27	-0.19176541
216	0xbe9797ff	-0.2960815
217	0xbe97801e	-0.29589933
218	0x3df38349	0.11890275
219	0xbe255697	-0.16146313
220	0x3da7fadb	0.08202144
221	0xbd731f1b	-0.059355836
222	0x3d8c3b19	0.068472095
223	0xbba4faa6	-0.0050347624
224	0xbe28a693	-0.16469793
225	0xbdb23e83	-0.087033294
226	0x3e1ae79c	0.15127414
227	0x3dcc7a6a	0.09984286
228	0x3e1b6b21	0.15177585
229	0x3e95475e	0.2915601
230	0x3d90da5b	0.07072898
231	0xbe8c5721	-0.27410224
232	0xbe8f17b5	-0.27947775
233	0xbe45da48	-0.19321549
234	0xbd8aa487	-0.06769662
235	0xbd351bd7	-0.044216003
236	0xbd166f08	-0.03672698
237	0xbe5c45bd	-0.21510978
238	0x3c83fba6	0.016111206
239	0x3e1ccc7b	0.15312378
240	0x3d648cd5	0.05579837
241	0x3c85f01a	0.01634984
242	0x3dbad7a8	0.091231644
243	0xbcedca90	-0.029027253
244	0x3eb44541	0.35209087
245	0x3dfbe82e	0.12300144
246	0x3dfd5c57	0.12371128
247	0x3c85228b	0.016251823
248	0xbdcb3e0d	-0.099239446
249	0x3e82e22f	0.2556319
250	0x3d3b5d11	0.045743052
251	0xbe00c516	-0.12575182
252	0xbe16691d	-0.14688535
253	0xbd90bf8b	-0.07067784
254	0x3c31da28	0.010855235
255	0xbd098bdd	-0.03358065

value.2.bias f4 [32]
0	0xbe47ea59	-0.1952299
1	0x3da539e5	0.08067683
2	0xbe1a8322	-0.15089086
3	0xbdb9feae	-0.090817794
4	0xbe6883f4	-0.22706586
5	0xbd6956ce	-0.05696755
6	0x3d885a6c	0.066578716
7	0x3b3eeb4e	0.0029131952
8	0xbcf5a171	-0.029984208
9	0xbe1b0f07	-0.15142451
10	0xbdb739a2	-0.089465395
11	0xbd85de72	-0.06536569
12	0xbdfa7dfe	-0.12231062
13	0xbe169176	-0.14703926
14	0x3e2f493f	0.17117785
15	0xbe2bde29	-0.16783966
16	0xbdb6d7f9	-0.08927912
17	0xbdb9fb78	-0.09081167
18	0xbe03eda5	-0.12883623
19	0x3bc0057b	0.0058600283
20	0x3be2b765	0.006918835
21	0x3d7e4e52	0.06208641
22	0xbd097394	-0.03355749
23	0xbd45aef1	-0.04826254
24	0xbd46e8ff	-0.048562046
25	0x3e34d9d0	0.17661214
26	0x3df2efe3	0.11862161
27	0x3d6aa816	0.057289205
28	0x3e217596	0.15767512
29	0xbdeab8a6	-0.11461
30	0xbdda7b29	-0.10668022
31	0x3e063ef5	0.13109954

value.4.weight f4 [1, 32]
0	0x3d8a4955	0.06752268
1	0xbce9c94e	-0.028538372
2	0xbd75747c	-0.05992554
3	0x3c37ff44	0.011230294
4	0xbc06d02d	-0.008228344
5	0x3d270560	0.04077661
6	0xbd3eca6d	-0.046579767
7	0xbd34fe78	-0.044187993
8	0x3c113c7b	0.008864517
9	0xbd3ac8cc	-0.04560165
10	0xbc68a444	-0.01419932
11	0x3d354b3b	0.0442612
12	0x3c6d0f88	0.014469035
13	0xbcb101ca	-0.021607298
14	0xbdc46d81	-0.09591199
15	0x3d55fc37	0.052242484
16	0x3d32b00e	0.04362493
17	0xbd0422d3	-0.032259773
18	0xbd4cf403	-0.050037395
19	0xbd5b118d	-0.053483535
20	0x3c8070e8	0.015678838
21	0xbcd3a5d9	-0.025835918
22	0x3ddda262	0.10821988
23	0xbcb4ddcc	-0.022078417
24	0x3da7e900	0.08198738
25	0x3ce83ccf	0.028349308
26	0xbd04d7a0	-0.0324322
27	0x3d4dc351	0.050235096
28	0x3d10c7a7	0.035346653
29	0xbd7c8c43	-0.0616572
30	0xbd0c6bd9	-0.03428254
31	0xbdcf8e8c	-0.101346105

actor.0.weight f4 [32, 18]
0	0xbdcd0298	-0.1001026
1	0xbdeb9c6e	-0.11504446
2	0xbe254910	-0.16141152
3	0x3dcf2896	0.10115163
4	0x3de9f824	0.11424282
5	0xbc5a2b73	-0.013316023
6	0xbe7b98c5	-0.24569996
7	0x3d55b435	0.052173812
8	0xbe761d06	-0.24034509
9	0x3e5e6fe9	0.21722378
10	0x3a02072c	0.0004960175
11	0xbe0db275	-0.13837607
12	0xbe58ffc1	-0.21191312
13	0xbd562ac4	-0.05228688
14	0x3ca5d1c1	0.02024162
15	0x3e2c3e60	0.16820669
16	0xbe26381d	-0.16232343
17	0x3e4bc566	0.1989952
18	0xbe02d209	-0.12775435
19	0xbcfe468c	-0.031039499
20	0xbe4765f5	-0.19472487
21	0x3e562b75	0.20915015
22	0x3d5365c6	0.05161073
23	0x3cb8c63a	0.02255546
24	0x3de85546	0.113443896
25	0x3e2a9c0e	0.16661093
26	0x3eb04fe1	0.34435943
27	0xbe574784	-0.21023375
28	0x3cd2965e	0.025706466
29	0x3dc28345	0.09497694
30	0xbe94dc35	-0.29074255
31	0x3e53bed0	0.20678258
32	0xbd70b0b2	-0.05876226
33	0xbd0ae801	-0.033912662
34	0xbe15b84e	-0.14621088
35	0xbe13076f	-0.14358304
36	0xbe26978d	-0.1626875
37	0x3e82190a	0.25409728
38	0x3dcf9aa2	0.10136916
39	0x3e300979	0.17191114
40	0xbd0a9f88	-0.033843547
41	0xbdb13440	-0.08652544
42	0x3e55aeb0	0.20867419
43	0xbe28ccb0	-0.16484332
44	0x3e2c4bc8	0.16825783
45	0xbe463ba8	-0.19358695
46	0x3df8468d	0.121228315
47	0xbe53a5f6	-0.20668778
48	0x3de732f4	0.112890154
49	0x3e013b21	0.12620212
50	0x3e1963a1	0.14979412
51	0xbdc01300	-0.09378624
52	0x3e1fc3c7	0.15602027
53	0xbdbe607c	-0.09295747
54	0x3c995432	0.018716905
55	0x3e28bf9a	0.1647934
56	0x3e45591f	0.19272278
57	0xbddafb40	-0.106924534
58	0x3e1ff3b3	0.15620308
59	0x3e82c2b3	0.2553917
60	0xbea1c171	-0.31592897
61	0xbdadc65d	-0.084851004
62	0xbdd681da	-0.10473986
63	0x3e5a0aea	0.21293226
64	0xbc03a7ec	-0.008035641
65	0xbe3c5fd9	-0.18395938
66	0x3e3d1db6	0.18468365
67	0xbe10c8cf	-0.14139102
68	0x3ba59931	0.005053662
69	0x3c6a711f	0.014309197
70	0xbda7e5db	-0.08198138
71	0xbdb7208f	-0.08941757
72	0x3dcdcc68	0.10048753
73	0x3e375576	0.17903695
74	0xbdffbab0	-0.1248678
75	0x3e31a58d	0.17348309
76	0xbb3fdbd0	-0.0029275306
77	0xbe05b285	-0.13056381
78	0xbda784ba	-0.081796125
79	0x3dac08e8	0.08400136
80	0xbd2c8439	-0.042118285
81	0x3d52b260	0.051439643
82	0x3e55c474	0.20875722
83	0x3e4742c6	0.19459066
84	0x3e556b5a	0.20841733
85	0xbd0111ba	-0.031511046
86	0xbe41a16d	-0.18909235
87	0x3e0a35c2	0.1349707
88	0x3e043022	0.12908986
89	0x3e113335	0.1417969
90	0xbc4fec08	-0.012690552
91	0xbc988a5c	-0.018620662
92	0xbd6bcdd4	-0.05756934
93	0x3e3cff23	0.18456702
94	0xbe481367	-0.19538651
95	0xbdb478ab	-0.08812078
96	0x3e286214	0.16443664
97	0x3cc86142	0.024460439
98	0x3c331c90	0.010932103
99	0xbe1b7df4	-0.15184766
100	0xbe3555a8	-0.17708457
101	0xbe742b35	-0.23844607
102	0xbdd58fbb	-0.10427805
103	0x3e377ea1	0.17919399
104	0x3e4272f6	0.18989167
105	0x3d9e7725	0.07737569
106	0xbd2da3b3	-0.042392444
107	0xbe3bc2dd	-0.18336053
108	0x3da00b2a	0.078146294
109	0xbe9963db	-0.29958996
110	0x3e3fe3b5	0.18739207
111	0xbe3d6310	-0.1849482
112	0xbe2e3c56	-0.17015204
113	0x3e65aa1a	0.2242817
114	0xbcef9964	-0.029247947
115	0x3de2fe9c	0.11083719
116	0xbb7ee6a9	-0.0038894808
117	0x3d2bc9c3	0.04194046
118	0xbd877a21	-0.06615091
119	0xbd18c5b2	-0.037297912
120	0x3c70cc39	0.014697128
121	0x3e16ba91	0.14719607
122	0xbd5f1502	-0.054463394
123	0xbdd7f39c	-0.10544512
124	0xbe1c89f3	-0.15286998
125	0xbe2b9989	-0.16757788
126	0x3d063967	0.032769587
127	0x3e01b11a	0.12665215
128	0xbd7e7eb4	-0.062132552
129	0xbde93163	-0.11386373
130	0xbdb66cf8	-0.08907503
131	0x3db9c097	0.09069937
132	0xbc34f7b0	-0.011045381
133	0x3dfc9f5c	0.12335083
134	0x3d0bd652	0.03413994
135	0x3dd08102	0.10180856
136	0x3da4802d	0.0803226
137	0x3e877cb4	0.26462328
138	0x3e45009e	0.19238517
139	0x3db50400	0.088386536
140	0x3e5e9200	0.21735382
141	0x3e4f746a	0.20259252
142	0x3e2b263c	0.16713804
143	0xbe44f996	-0.19235834
144	0x3e4dd594	0.20101005
145	0x3e89303a	0.26794606
146	0x3e2fc6db	0.17165701
147	0xbdb2f52c	-0.08738169
148	0x3e1b0d3a	0.15141764
149	0xbd8004f4	-0.06250945
150	0xbe27d602	-0.16390231
151	0xbe1e6d8d	-0.15471478
152	0x3dbbd7e9	0.09172041
153	0xbc757bde	-0.0149831455
154	0x3e0a1a1e	0.13486525
155	0x3d197be0	0.037471652
156	0x3e3c4edc	0.18389457
157	0x3e581773	0.21102695
158	0x3d3977bf	0.045280214
159	0xbdfe6850	-0.1242224
160	0xbe145477	-0.14485346
161	0x3e6d05b4	0.23146707
162	0x3e26e001	0.16296388
163	0x3c7b7ee3	0.015350076
164	0x3c91fdc8	0.017821208
165	0xbde18e16	-0.11013429
166	0xbd74d2b6	-0.059771262
167	0x3de62191	0.11236871
168	0x3d6f28da	0.05838857
169	0xbdf840ac	-0.1212171
170	0x3e4ddc82	0.20103648
171	0x3d82b8eb	0.063829266
172	0x3dc7f076	0.09762661
173	0x3e002c57	0.12516914
174	0xbe4fa055	-0.20276006
175	0x3e2cc50e	0.16872045
176	0xbe5ebcfb	-0.21751778
177	0xbdd02a06	-0.10164265
178	0xbe348c75	-0.17631705
179	0x3d82f8d6	0.06395118
180	0xbd3eac08	-0.04655078
181	0xbccc4f18	-0.024940059
182	0xbd99274e	-0.074782
183	0x3b0abfc0	0.002117142
184	0x3d28551b	0.041096788
185	0x3e47b320	0.19501925
186	0x3e5ae866	0.21377715
187	0xbe4a5693	-0.19759588
188	0xbdd5d837	-0.1044163
189	0xbe006168	-0.12537158
190	0xbe6df14f	-0.23236583
191	0xbe6cdd8f	-0.23131393
192	0xbd3fba1b	-0.046808343
193	0xbe2bcd83	-0.16777615
194	0xbe5feb97	-0.21867214
195	0x3b995dd8	0.0046803765
196	0x3e732dc5	0.23747928
197	0x3c10ba00	0.008833408
198	0x3dca4a84	0.09877494
199	0x3e7bc0b5	0.2458523
200	0x3dae3eb6	0.08508055
201	0xbc632cb0	-0.013865635
202	0xbc982278	-0.018571123
203	0xbd61c783	-0.05512191
204	0x3d40cdf9	0.04707143
205	0x3e258792	0.16164997
206	0x3ea6c40d	0.3257145
207	0x3da9109b	0.0825512
208	0xbdfed286	-0.12442498
209	0xbd973f86	-0.07385163
210	0x3e26ba65	0.16282041
211	0x3e244c97	0.16044842
212	0xbe2044cb	-0.15651242
213	0xbe2c1093	-0.16803198
214	0xbd38d89b	-0.045128446
215	0x3d66aaaf	0.05631512
216	0xbdc28a79	-0.09499068
217	0xbd407888	-0.046989948
218	0xbcec0508	-0.028810993
219	0xbe6f4548	-0.23366272
220	0xbdf5fb6a	-0.12010844
221	0xbe8ca0a9	-0.27466324
222	0x3de66ef4	0.112516314
223	0xbdef306e	-0.11679159
224	0xbdd7f3ac	-0.105445236
225	0xbe706492	-0.23475865
226	0xbe8a3abf	-0.26997945
227	0x3e144dbb	0.14482777
228	0x3e40e91e	0.18838927
229	0xbdea425b	-0.114384376
230	0x3dfa3362	0.12216832
231	0x3e45534e	0.1927006
232	0x3e8c6e3b	0.2742785
233	0xbe3486d3	-0.17629556
234	0x3db1c279	0.08679671
235	0xbd2fc6ef	-0.042914327
236	0x3d83ebc2	0.064414516
237	0x3dfba9ae	0.12288223
238	0xbdd5faa9	-0.104482
239	0xbd1f35a0	-0.0388695
240	0xbe98bfee	-0.2983393
241	0x3e2a0329	0.16602768
242	0xbe1c788f	-0.15280364
243	0x3ea67f65	0.3251907
244	0x3d18b424	0.03728117
245	0xbd31cf50	-0.0434106
246	0x3d799106	0.06092932
247	0xbe03d92d	-0.12875815
248	0x3dfda1e8	0.12384397
249	0xbe5075e4	-0.20357472
250	0xbe23f44c	-0.1601116
251	0xbe04fab2	-0.12986258
252	0x3d302fc8	0.043014318
253	0xba3d4eaf	-0.00072215026
254	0x3dd4b116	0.10385339
255	0x3e6d594d	0.23178597

actor.0.bias f4 [32]
0	0x3df163a8	0.11786586
1	0xbd8f972e	-0.07011257
2	0xbe7d1b87	-0.24717532
3	0xbe23ae8f	-0.15984558
4	0xbe54296e	-0.20718929
5	0xbdca9c7a	-0.09893127
6	0x3e6b55d4	0.2298196
7	0x3e20a25f	0.1568694
8	0xbda02618	-0.07819766
9	0x3ccfd925	0.025372097
10	0x3e4ed3d0	0.20197988
11	0x3d5715d4	0.05251105
12	0xbe32ddc2	-0.17467406
13	0x3e134290	0.1438086
14	0xbd704d6f	-0.058667596
15	0x3e87c856	0.26520032
16	0xbe5c4002	-0.21508792
17	0x3e242b03	0.16032033
18	0x3d7bdd6f	0.061490472
19	0x3e3bb307	0.18330012
20	0xbe14ba6c	-0.1452424
21	0x3d70c76f	0.058783945
22	0x3e56ee86	0.20989427
23	0x3e049c7f	0.12950324
24	0x3e836118	0.25660014
25	0xbbbbb536	-0.005728389
26	0xbd8e5811	-0.06950391
27	0x3da40ea2	0.080106035
28	0xbdbf47de	-0.093398795
29	0x3e08e4b9	0.13368501
30	0x3e2ca85d	0.168611
31	0x3e5ff51c	0.21870846

actor.2.weight f4 [32, 32]
0	0x3d3a21d0	0.045442402
1	0x3e0bca44	0.13651377
2	0xb890cb7c	-6.904357e-05
3	0x3d123d05	0.035702724
4	0xbcf1ebe8	-0.029531434
5	0x3d932a83	0.07185843
6	0x3d0a1aad	0.033716846
7	0x3d0eca9c	0.034861192
8	0x3d7d8b50	0.061900437
9	0x3db9deaf	0.09075677
10	0x3df0d395	0.11759106
11	0xbe235d10	-0.1595347
12	0x3df0d6a6	0.11759691
13	0xbc038a8c	-0.008028638
14	0x3b573dd8	0.0032843258
15	0x3da57b52	0.08080162
16	0xbdd87194	-0.10568538
17	0xbdff826b	-0.12476047
18	0xbd0dd5f5	-0.034627873
19	0x3dab0ef3	0.08352461
20	0x3e361185	0.1778012
21	0x3c6f24e0	0.014596194
22	0x3d0b11d9	0.033952568
23	0x3e3089ac	0.17240018
24	0x3d4e50a1	0.050369862
25	0xbe1116ad	-0.14168806
26	0xbe54098d	-0.20706768
27	0x3e3a3ce1	0.18187286
28	0x3e24bb89	0.16087164
29	0x3d9ec6b4	0.07752743
30	0xbd0f18a2	-0.0349356
31	0x3e3c3365	0.1837898
32	0x3db51c42	0.088432804
33	0xbcebd6fb	-0.028789034
34	0x3d85c25c	0.06531212
35	0x3e1bda26	0.15219936
36	0xbd7783fa	-0.060428597
37	0x3e172ea0	0.1476388
38	0xbc00b3e9	-0.007855394
39	0x3d9879bd	0.07445095
40	0xbdb25038	-0.08706707
41	0x3d9d0e2b	0.07668718
42	0xbd3af029	-0.04563919
43	0x3da25170	0.07925689
44	0x3cb7fdb0	0.022459835
45	0x3e48bf54	0.19604236
46	0xbd3dec8e	-0.046368174
47	0x3c90d9cf	0.017681984
48	0xbd86d561	-0.065836675
49	0xbda8e5c0	-0.08246946
50	0xbd8a57e9	-0.06755049
51	0xbdc9df46	-0.09857039
52	0x3de0b931	0.109728225
53	0x3dce6bf5	0.10079185
54	0xbdf34223	-0.11877849
55	0xbb88d9ee	-0.00417637
56	0x3d563a74	0.05230184
57	0x3e43955c	0.19099945
58	0x3ae4334d	0.0017410308
59	0xbe541196	-0.20709834
60	0xbe4442ea	-0.1916615
61	0xbe4369fd	-0.190834
62	0xbc2f6d49	-0.010707208
63	0xbe319da8	-0.17345297
64	0xbdde1ccb	-0.108453356
65	0xbdf1c336	-0.11804812
66	0x3d8009ac	0.06251845
67	0xbcf4b05d	-0.029869253
68	0x3d6856e0	0.056723475
69	0xbcc809cd	-0.024418736
70	0xbd0ba6f8	-0.03409478
71	0xbcf9f466	-0.030512046
72	0xbdc83b53	-0.0977694
73	0x3c1fecae	0.009761019
74	0x3e0a5ad6	0.13511214
75	0xbb7ae20e	-0.0038281712
76	0xbd835e65	-0.06414489
77	0x3c2e5cc2	0.010642232
78	0x3d400c63	0.046886813
79	0x3e34c439	0.17652978
80	0xbdbcffe5	-0.092284955
81	0x3d3b2ab3	0.045695018
82	0x3e1e8d3f	0.15483569
83	0xbe2c59c2	-0.16831115
84	0x3e16d526	0.14729747
85	0x3cd4aea2	0.025962178
86	0x3e145cb8	0.14488494
87	0xbde49679	-0.11161513
88	0x3e018246	0.12647352
89	0x3ea27465	0.31729427
90	0xbdfc6dcd	-0.1232563
91	0xbddae0f3	-0.10687437
92	0xbe62b541	-0.22139455
93	0xbe4914e0	-0.1963687
94	0x3deb55b2	0.114909545
95	0xbd069b35	-0.03286286
96	0xbd36caae	-0.044626884
97	0xbe52b63a	-0.20577326
98	0xbd96921c	-0.07352087
99	0x3df9c5ab	0.12195905
100	0xbe09313d	-0.13397689
101	0xbd8988f2	-0.06715573
102	0xbdce57c0	-0.10075331
103	0x3cecb6bd	0.02889573
104	0xbe6fe6cd	-0.23427887
105	0x3c73a798	0.0148715
106	0x3dd2dde8	0.102962315
107	0x3d3395e9	0.043844137
108	0x3d319bbb	0.043361407
109	0x3e3e7ff4	0.18603498
110	0xbd7abcfa	-0.06121538
111	0x3d63c570	0.055608213
112	0xbda7fe33	-0.082027815
113	0x3df12539	0.11774678
114	0xbe1505ca	-0.1455299
115	0x3d26713c	0.040635332
116	0xbdfde646	-0.12397437
117	0x3df9a8b1	0.121903785
118	0x3e0770a6	0.13226566
119	0xbe3eb88b	-0.18625085
120	0xbca21626	-0.019785952
121	0x3dd80eb3	0.10549679
122	0x3bdfaff3	0.0068263947
123	0x3cf25460	0.029581249
124	0xbce6ab24	-0.028157778
125	0xbe25fd02	-0.16209796
126	0x3e314e49	0.1731502
127	0xbe1df114	-0.15423995
128	0x3e4ff0cd	0.20306702
129	0x3e884375	0.26613966
130	0xbd8010f1	-0.06253231
131	0xbd4a2fb3	-0.049361896
132	0xbdb8f5bb	-0.09031244
133	0x3e480942	0.19534782
134	0x3c989820	0.018627226
135	0xbe01b99d	-0.12668462
136	0x3e3e7d19	0.18602408
137	0xbe0ec650	-0.13942838
138	0xbd7edba7	-0.062221196
139	0xbd7e611c	-0.06210433
140	0x3daac44b	0.08338221
141	0xbaa1b5d4	-0.0012337514
142	0xbe2111e1	-0.15729477
143	0x3e121388	0.14265263
144	0xbdd20078	-0.10253996
145	0x3d521ace	0.051295094
146	0xbdd53604	-0.10410693
147	0x3d8ba1a6	0.06817941
148	0xbdf5a2c6	-0.11993937
149	0x3cd08cfe	0.025457855
150	0x3d7f6847	0.062355306
151	0x3e882754	0.26592505
152	0x3d5a813d	0.053345907
153	0xbe2b4ac5	-0.16727741
154	0x3e171d2e	0.14757225
155	0xbdd191d5	-0.102328934
156	0x3e8db6c2	0.27678496
157	0x3e8374db	0.2567509
158	0x3d9191b5	0.071078695
159	0x3dcd931f	0.10037827
160	0x3c0e2d80	0.00867784
161	0xbe34bc63	-0.17649989
162	0x3dc0dd7d	0.094172455
163	0x3da31009	0.07962043
164	0x3c8365a8	0.016039684
165	0x3c9cf06f	0.019157616
166	0xbe134f1a	-0.14385644
167	0x3d4a7bb8	0.049434394
168	0xbdc46c4c	-0.095909685
169	0x3db4b8c5	0.088243045
170	0xbbac1a89	-0.0052521867
171	0x3d85c38f	0.065314405
172	0xbdcc26b1	-0.09968317
173	0x3e1233cd	0.14277573
174	0xbdcbfd41	-0.09960414
175	0xbe1af24d	-0.15131493
176	0xbe271535	-0.16316684
177	0xbc3d05eb	-0.0115370555
178	0xbe250382	-0.1611462
179	0x3e1ccbca	0.15312114
180	0xbd810190	-0.06299126
181	0xbd9f4354	-0.07776514
182	0xbe2219ae	-0.15830109
183	0x3c5c3415	0.013440152
184	0xbe377a81	-0.17917825
185	0xbdcbc92d	-0.099504806
186	0xbcdb5839	-0.026775466
187	0x3d35c6d9	0.04437909
188	0xbd94148f	-0.07230484
189	0xbe2d60e5	-0.16931494
190	0x3df6baa0	0.12047315
191	0xbd9ed8a2	-0.07756163
192	0x3d8639c4	0.06553987
193	0x3d7eca0e	0.062204413
194	0x3dcecd49	0.10097749
195	0xbd3afc57	-0.045650806
196	0x3d434ed4	0.0476826
197	0xbe357a21	-0.1772237
198	0xbcf1993f	-0.029492019
199	0x3e1a563c	0.15071958
200	0xbe642e08	-0.22283185
201	0x3e030c71	0.12797715
202	0xbd9541a6	-0.07287912
203	0x3d2fd5a2	0.042928346
204	0xbbcc1468	-0.0062280186
205	0x3e2f1fb9	0.17101945
206	0x3c9d60b6	0.019211154
207	0xbda84068	-0.082154095
208	0x3e258536	0.16164097
209	0xbbe1f3c4	-0.006895514
210	0x3d01c2fd	0.031680096
211	0x3db0671a	0.08613415
212	0xbdbfba41	-0.09361697
213	0x3d1d28a5	0.03836884
214	0xbc36a169	-0.011146882
215	0xbe1a4000	-0.15063477
216	0xbdbbe8fd	-0.09175298
217	0x3e0a991d	0.1353497
218	0x3daa1423	0.08304622
219	0xbe7b9af9	-0.24570836
220	0xbe16b8a2	-0.1471887
221	0xbc727178	-0.014797561
222	0x3e22ad5c	0.15886444
223	0xbd78bd94	-0.06072767
224	0x3da911bc	0.08255336
225	0x3bfe5247	0.007761273
226	0xbd83a0a8	-0.06427127
227	0xbe0261df	-0.12732647
228	0x3cb7694a	0.022389073
229	0x3da7d09f	0.08194088
230	0x3e53ed84	0.20696074
231	0xbd3da9bf	-0.04630446
232	0xbdf4d703	-0.11955073
233	0xbe15575e	-0.14584109
234	0xbd381261	-0.044939402
235	0xbca41c4c	-0.020033024
236	0xbd48df73	-0.049041223
237	0x3dac0669	0.0839966
238	0x3e2ca7f0	0.16860938
239	0x3e3f8e0b	0.18706529
240	0x3e15733a	0.14594737
241	0xbc622a46	-0.013804024
242	0x3d55a811	0.052162234
243	0x3d8e45d1	0.0694691
244	0xbdb7e2cd	-0.08978806
245	0x3e1e2fda	0.15447941
246	0x3c89e3ba	0.016832221
247	0x3dcaef1d	0.099088885
248	0xbd3a44b0	-0.04547566
249	0xbc0e67e8	-0.008691765
250	0x3e18c712	0.1491969
251	0x3dcba018	0.09942645
252	0x3d906ae4	0.07051638
253	0x3bc900b2	0.006134116
254	0xbe024685	-0.12722214
255	0x3c005284	0.007832173

actor.2.bias f4 [32]
0	0x3d5a6076	0.05331465
1	0x3c7b3c90	0.015334263
2	0xbe221267	-0.15827332
3	0x3d2bb18b	0.041917365
4	0x3e155ea2	0.14586881
5	0xbd87bbc2	-0.06627609
6	0x3df4e798	0.119582355
7	0x3e4da239	0.20081414
8	0x3d54534f	0.05183726
9	0x3d9feb33	0.078085326
10	0x3d018dde	0.031629436
11	0xbe08456f	-0.13307737
12	0x3d069d48	0.03286484
13	0xbdd5200e	-0.104065046
14	0xbc969bae	-0.01838478
15	0xbd7122ba	-0.05887101
16	0x3e2e51d2	0.170234
17	0x3db82861	0.08992077
18	0xbe3d0d6f	-0.18462156
19	0x3ab3d338	0.0013719564
20	0xbe3f26b0	-0.18667102
21	0x3d054ef2	0.03254599
22	0x3e33fa40	0.17575932
23	0x3dc56d38	0.096399724
24	0x3dd00783	0.10157683
25	0x3d99970d	0.07499514
26	0x3e1f0382	0.15528682
27	0xbdfb79c2	-0.12279083
28	0x3e298767	0.16555558
29	0x3c54e62e	0.012994332
30	0x3ce19ba2	0.027540032
31	0xbda43407	-0.08017736

actor.4.weight f4 [2, 32]
0	0xbe1f7174	-0.15570623
1	0xbe3e03e7	-0.18556176
2	0xbc796b60	-0.015223354
3	0x3cfdb1ed	0.03096863
4	0xbd82a154	-0.06378427
5	0xbd1cc0d8	-0.038269848
6	0xbe468399	-0.19386138
7	0xbe51f546	-0.2050372
8	0x3d8bce1b	0.06826421
9	0xbd2d5ba8	-0.04232374
10	0xbd36dc36	-0.044643603
11	0x3e1bb78b	0.15206735
12	0xbd90d779	-0.07072348
13	0xbe2e6220	-0.17029619
14	0x3d833983	0.06407454
15	0xbe41dee7	-0.18932687
16	0xba8de912	-0.0010826907
17	0x3e190b5f	0.14945744
18	0x3d594085	0.053040046
19	0xbe081d1c	-0.13292354
20	0xbe331024	-0.17486626
21	0xbe2055e5	-0.15657766
22	0xbe07b3c5	-0.1325217
23	0x3d0539ad	0.032525707
24	0xbd1a5d52	-0.037686653
25	0xbe6a53f7	-0.22883593
26	0xbdabbb99	-0.08385391
27	0x3e038601	0.12844087
28	0xbd83887e	-0.06422518
29	0x3d311193	0.04322965
30	0x3cf65606	0.030070316
31	0xbe25ad35	-0.16179354
32	0x3e2ef397	0.1708511
33	0xbd9a2c15	-0.07527939
34	0xbdb40d58	-0.087916076
35	0xbe2c70eb	-0.1683995
36	0x3e9f87e6	0.3115837
37	0xbe014c65	-0.12626798
38	0xbe21e96e	-0.15811703
39	0x3d1ce6b0	0.03830594
40	0xbd9edff4	-0.077575594
41	0x3e5ae134	0.2137497
42	0x3da3f4e6	0.08005695
43	0xbdf66b86	-0.12032227
44	0x3e38f6ea	0.1806294
45	0xbdd168e0	-0.102250814
46	0x3dd1cccc	0.1024414
47	0xbe29813d	-0.16553207
48	0x3ecd0cc3	0.400488
49	0xbe72fef1	-0.23730065
50	0x3e15ec55	0.14640935
51	0x3deb2d07	0.11483198
52	0x3e267d35	0.162587
53	0xbe10677a	-0.14101973
54	0x3def1ade	0.116750464
55	0xbe1be6f8	-0.15224826
56	0xbe39ffe9	-0.18164028
57	0xbeb97058	-0.36218524
58	0xbd6d448d	-0.057926703
59	0x3e782486	0.24232683
60	0x3ed20fd6	0.41027707
61	0xbe28b459	-0.16475047
62	0xbdfc8569	-0.123301335
63	0xbe8d6191	-0.276135

actor.4.bias f4 [2]
0	0xbe0859ed	-0.13315554
1	0x3e37b43a	0.17939845
