results/SandingEnvMiddle/ddpg/model/model_parameters_0.pt (torch, 32386 bytes, 22 tensors)

value.0.weight f4 [32, 12]
-0.08581047 -0.09825896 -0.12800932 -0.05529371 0.15852486 -0.012590818 -0.123108394 0.026499806
-0.054703053 -0.087689616 -0.15471083 1.8382958 0.01524432 -0.13146093 -0.026900109 -0.03351417
0.20806947 0.18377174 0.09076872 -0.22422424 0.03775402 -0.09667119 -0.5216265 -0.9929236
-0.00557838 -0.104509965 0.16617748 0.23096794 0.09934129 -0.04421553 0.14500903 -0.21214916
-0.07972351 0.1594001 0.36546907 -0.09988638 -0.007975909 0.0983293 -0.15523535 -0.20312902
-0.07832025 0.10067136 0.23403832 -0.2458786 -0.13273641 0.116341166 -0.42173895 1.1468995
0.10334569 0.023050668 -0.1583865 -0.01409291 -0.11978268 -0.04239834 0.22466275 0.21766153
-0.0789658 0.05372688 -1.2478225 -0.8528659 -0.2070361 -0.085881576 0.25884342 0.008162529
0.14753969 0.1619568 0.0072456305 -0.124651715 0.30005553 0.048938006 0.80149555 0.7477254
-0.19393271 0.0609401 0.016912978 -0.049712516 -0.08436401 -0.0875842 -0.04010854 0.008231653
0.090122215 0.10535824 0.41002995 2.24883 0.07191389 -0.0046736887 -0.15915236 0.013781548
0.014902388 -0.017091129 0.26103204 -0.18585518 -0.2540604 -0.08446981 0.35971186 1.3596143
-0.16560127 -0.013831929 0.21802336 0.025213458 0.009849797 0.013730453 -0.05630232 0.36723766
0.38015842 0.37447125 0.03963457 0.25170568 -0.036545772 -0.04596499 0.10992225 0.025749385
-0.29306087 -0.031522885 0.021772731 0.14311719 0.1080827 -0.19499937 0.34241614 0.010946933
-0.121352136 -0.16454262 -0.089979954 -0.061187476 -0.0861769 -0.12416112 0.15905121 0.21491376
0.35846633 -0.02573532 -0.019679848 -0.9684426 -0.070721544 -0.010277594 -0.0067394883 0.0030702138
-0.0009268161 -0.0047476757 0.16162649 -0.034069017 -0.15963209 0.17134328 1.231295 2.742571
-0.024398511 -0.012800347 -0.10927996 0.022683896 0.25313422 -0.28556508 0.020194508 0.086043075
-7.024189e-06 0.059349097 0.04136628 -0.21045174 -0.0047147023 -0.14300042 -0.0545059 0.028029095
-0.20877896 -0.07582528 0.022242436 0.14341527 -0.17564312 0.06962554 -0.43584675 -0.68018055
-0.021559188 0.0725681 -0.10186667 0.16337854 -0.10588895 0.15719327 -0.08980261 -0.18928549
0.20356387 0.1261378 0.86924875 0.08149069 0.027396547 0.058029383 0.2618394 -0.17575073
-0.15037815 -0.12627636 -0.15372644 0.16697629 -0.096965164 -0.24185216 -0.030209994 -0.9504668
0.048911605 -0.0705831 -0.21927935 0.27338877 -0.124523364 0.18802135 -0.17337191 0.07748475
-0.26423788 -0.19163728 -0.28287286 0.22175148 -0.00825179 0.051517617 0.26322356 0.08207405
-0.2524622 -0.11709285 -0.18886389 0.18528555 -0.23712821 0.2542863 0.32325473 0.3518785
0.06997016 -0.07625049 0.09342026 -0.08901108 0.0009757064 0.01477675 0.16781336 0.2694416
0.11267781 0.12698899 0.58175933 1.973518 -0.06842065 0.19125158 0.17878176 -0.23341392
0.13002576 0.091758884 0.07045936 -0.07715506 0.33547673 0.12413901 0.5096112 -0.3960916
0.033391688 -0.054188505 0.122125305 -0.3950741 -0.0027431394 -0.011548806 0.04872756 0.12502688
-0.1909299 -0.22957423 0.18244517 -1.3549061 0.08509025 0.08447873 0.06005865 0.15124549
00000000: 66bd afbd fe3b c9bd e014 03be a87b 62bd
00000010: 5754 223e b849 4ebc 4120 fcbd 1f16 d93c
00000020: 4f10 60bd 9d96 b3bd 846c 1ebe 474d eb3f
00000030: 50c3 793c b29d 06be 9e5d dcbc 2846 09bd
00000040: 2a10 553e a92e 3c3e f3e4 b93d 0a9b 65be
00000050: f6a3 1a3d 8bfb c5bd 5089 05bf 3e30 7ebf
00000060: d8ca b6bb 5209 d6bd 6e2a 2a3e dc82 6c3e
00000070: 7273 cb3d 581b 35bd 3f7d 143e a13d 59be
00000080: 1446 a3bd c839 233e c31e bb3e 3b91 ccbd
00000090: 63ad 02bc df60 c93d 04f6 1ebe 0e01 50be
000000a0: 5e66 a0bd c92c ce3d bea7 6f3e 9ac7 7bbe
000000b0: 0eec 07be 4744 ee3d 2bee d7be 9acd 923f
000000c0: e8a6 d33d c1d4 bc3c 1230 22be f3e5 66bc
000000d0: 9f50 f5bd e2a9 2dbd fe0d 663e aae2 5e3e
000000e0: d2b8 a1bd b810 5c3d a6b8 9fbf 6b55 5abf
000000f0: 4501 54be aee2 afbd 2087 843e 21bc 053c
00000100: a514 173e 01d8 253e c16c ed3b 6649 ffbd
00000110: e1a0 993e 3873 483d d02e 4d3f ef6a 3f3f
00000120: 4c96 46be 549c 793d 168d 8a3c 5a9f 4bbd
00000130: 0ac7 acbd 585f b3bd da48 24bd 0ede 063c
00000140: ff91 b83d 10c6 d73d 72ef d13e d5ec 0f40
00000150: 9747 933d be25 99bb d6f8 22be 00cc 613c
00000160: 2529 743c b202 8cbc fea5 853e d250 3ebe
00000170: 3414 82be 82fe acbd 272c b83e d707 ae3f
00000180: 6193 29be 519f 62bc 8441 5f3e 748c ce3c
00000190: 0b61 213c b2f5 603c 439d 66bd 9306 bc3e
000001a0: 20a4 c23e b2ba bf3e dc57 223d 91df 803e
000001b0: 05b1 15bd c945 3cbd eb1e e13d 60f0 d23c
000001c0: 130c 96be 241e 01bd ba5c b23c 508d 123e
000001d0: 765a dd3d eaad 47be 2b51 af3e c45a 333c
000001e0: 7887 f8bd dc7d 28be 6947 b8bd b89f 7abd
000001f0: 847d b0bd 2f48 febd 52de 223e 5a12 5c3e
00000200: e688 b73e e1d2 d2bc a237 a1bc dbeb 77bf
00000210: 75d6 90bd 5b63 28bc edd6 dcbb a435 493b
00000220: 93f5 72ba 6492 9bbb 6a81 253e f48b 0bbd
00000230: 9876 23be 9d74 2f3e 139b 9d3f 4986 2f40
00000240: 63df c7bc 8cb8 51bc 2cce dfbd 94d3 b93c
00000250: cf9a 813e 9635 92be f46e a53c 5a37 b03d
00000260: 53b1 ebb6 0a18 733d b06f 293d a980 57be
00000270: ca7d 9abb b46e 12be 9441 5fbd 469d e53c
00000280: 27ca 55be 494a 9bbd c535 b63c 74db 123e
00000290: cadb 33be d697 8e3d 4e27 dfbe 5020 2ebf
000002a0: e59c b0bc 969e 943d 799f d0bd b44c 273e
000002b0: 4edc d8bd 46f7 203e 6eea b7bd 0ed4 41be
000002c0: 0c73 503e 442a 013e 1687 5e3f 97e4 a63d
000002d0: b96e e03c 38b0 6d3d d00f 863e 00f8 33be
000002e0: bbfc 19be 974e 01be 776a 1dbe d5fb 2a3e
000002f0: ac95 c6bd 18a8 77be f37a f7bc cb51 73bf
00000300: 8957 483d df8d 90bd c48a 60be 9df9 8b3e
00000310: 1b06 ffbd ab88 403e 6888 31be 53b0 9e3d
00000320: 304a 87be 903c 44be b6d4 90be d212 633e
00000330: 8432 07bc 2304 533d 3dc5 863e 7116 a83d
00000340: ba42 81be 60ce efbd 8965 41be 7fbb 3d3e
00000350: bdd1 72be d031 823e a581 a53e 6b29 b43e
00000360: 844c 8f3d 3829 9cbd 1f53 bf3d 714b b6bd
00000370: 8cc6 7f3a 2e1a 723c 44d7 2b3e 40f4 893e
00000380: a0c3 e63d 6709 023e 2eee 143f 3d9c fc3f
00000390: 2020 8cbd 74d7 433e 9112 373e 0f04 6fbe
000003a0: 7925 053e 15ec bb3d ff4c 903d 7903 9ebd
000003b0: 9bc3 ab3e 983c fe3d e175 023f 85cc cabe
000003c0: b9c5 083d c4f4 5dbd d51c fa3d 2747 cabe
000003d0: 3ec6 33bb 3437 3dbc 8d96 473d 0c07 003e
000003e0: 2183 43be 8215 6bbe e8d2 3a3e 906d adbf
000003f0: cc43 ae3d 2f03 ad3d 0f00 763d 19e0 1a3e

value.0.bias f4 [32]
-0.06258401 -0.14729317 0.38083932 -0.6640658 0.0153816305 0.07466879 -0.38724166 -0.036586158
0.023597226 -0.4409435 0.35721067 -0.4510185 -0.14781874 0.07026522 0.10746037 -0.09415413
-0.3314695 0.06643287 0.05540657 -0.11423972 -0.06815286 -0.1894941 -0.26301444 -0.08297397
0.006089904 0.010699803 -0.28416786 0.2713331 0.16658674 0.03198641 0.050233673 0.1531758
00000000: 0c2c 80bd 05d4 16be 5ffd c23e 3700 2abf
00000010: 3c03 7c3c f3eb 983d 8a44 c6be 5edb 15bd
00000020: f84e c13c 59c3 e1be 51e4 b63e e6eb e6be
00000030: cc5d 17be 36e7 8f3d 2f14 dc3d e1d3 c0bd
00000040: 5fb6 a9be f50d 883d 00f2 623d 84f6 e9bd
00000050: ba93 8bbd be0a 42be d4a9 86be 42ee a9bd
00000060: d18d c73b 3a4e 2f3c 737e 91be 2cec 8a3e
00000070: b795 2a3e 2f04 033d d3c1 4d3d 1eda 1c3e

value.2.weight f4 [32, 32]
0.09116514 0.10652984 -0.26962793 0.05906496 0.013101323 -0.13634638 -0.011935063 -0.054738104
0.03748643 -0.14533618 -0.06608926 0.035121962 0.045776233 0.023685474 -0.009122189 0.0369092
-0.12654856 -0.025584308 0.22487606 0.08139976 0.10315968 -0.03544778 0.028949147 -0.065757416
0.12251993 0.08956141 -0.123533376 -0.09240946 -0.19004995 -0.04846318 0.22506939 0.112228274
-0.08950195 -0.017063439 -0.021590957 -0.02177124 -0.29779452 0.06778904 -0.21793781 -0.03362267
-0.018477656 -0.21174999 -0.40034944 -0.09433994 0.016272372 -0.49677512 -0.4584767 -0.3115913
0.08436042 0.17497158 0.18487619 -0.5310509 0.0459618 -0.122128814 -0.07391692 -0.14509778
-0.4739739 -0.16024035 -0.15345742 -0.23010038 0.116885185 -0.28305912 -0.36196944 0.06488745
0.10283447 0.12754714 0.14012171 -0.15503153 -0.31328827 0.06656466 -0.06991675 0.036684792
-0.20186383 -0.057390984 -0.10957571 0.083293706 -0.09421367 0.048534557 -0.084878646 0.086018905
0.08750231 0.060354218 0.6302229 0.116924584 -0.03110095 -0.024756836 0.05578455 -0.0116391685
-0.061975323 0.011383541 -0.15749264 -0.010469197 -0.10715825 0.14140366 -0.1778613 0.08630327
-0.03757677 0.0708513 0.111579634 -0.06325535 -0.10273979 0.11070142 -0.23594661 -0.08331254
0.09893046 0.09571548 -0.16759105 -0.4140863 0.09974679 0.122957766 -0.017941639 -0.055832636
-0.13188916 -0.022504924 -0.102822416 -0.0738775 0.010797634 -0.07035228 0.20031027 0.27189645
-0.038168527 -0.050372016 -0.06938883 -0.1907563 -0.07135987 -0.1164868 -0.10348608 0.19756494
0.18781404 -0.111759484 0.034704227 -0.1943524 0.07168773 -0.08657766 0.08125401 -0.31741536
0.07855571 0.07756629 -0.17865345 0.78868747 -0.117424235 -0.048986077 0.04307989 -0.05079449
-0.0460366 0.021728698 0.17310864 -0.018470105 0.028785452 -0.13276698 0.09310653 0.1473384
0.041723836 0.099536866 -0.4088511 -0.119437076 0.1336908 0.09224039 0.046315722 0.19884983
0.049800113 -0.05322535 0.032281514 -0.092136905 0.010530755 0.07296813 0.022718403 -0.023971176
0.06737903 0.11005253 -0.017529808 -0.3182012 0.043530125 -0.0023829122 0.072443075 0.032013804
0.19328056 0.108052984 -0.03919844 -0.08345094 0.21933576 -0.15666026 -0.107407436 0.0102504175
-0.031615105 -0.034032777 0.14391619 -0.12206771 -0.041983604 0.07711837 -0.005854734 0.077708624
0.045162037 0.10963645 0.08578302 -0.013424311 -0.06086705 -0.08801081 -0.0015587782 0.059470713
0.15411398 -0.12149567 0.15241092 -0.35464877 -0.0046466184 -0.044255335 0.07822013 -0.073077664
0.12016045 0.00065231236 -0.06397324 0.107851036 0.0507728 0.17447947 -0.010416284 0.13000876
-0.06986269 -0.17969231 0.1099631 -0.0016822475 0.17117417 -0.07115223 0.015860695 0.06445574
0.016398612 0.06797798 0.2184079 0.090881996 -0.08997966 -0.08357 -0.16286753 -0.009131317
0.107881576 0.03391132 0.017435035 -0.51793045 -0.04550523 -0.116735056 -0.020133652 0.034004956
0.07015955 -0.057798274 -0.1435447 0.11183262 0.15146947 -0.12906672 0.16253988 -0.22343709
0.09727282 -0.14562586 0.26353648 -0.18595767 0.024850743 0.013674279 -0.077846274 -0.11723554
00000000: cab4 ba3d 512c da3d ac0c 8abe 19ee 713d
00000010: eea6 563c 639e 0bbe 488b 43bc 1035 60bd
00000020: 5f8b 193d 02d3 14be ce59 87bd 0cdc 0f3d
00000030: dc7f 3b3d 0a08 c23c 3c75 15bc 1a2e 173d
00000040: f295 01be 2f96 d1bc e945 663e ebb4 a63d
00000050: 6245 d33d b131 11bd c326 ed3c d3ab 86bd
00000060: bbeb fa3d f96b b73d 11ff fcbd 2c41 bdbd
00000070: 749c 42be 5481 46bd 9778 663e f0d7 e53d
00000080: cc4c b7bd a0c8 8bbc 85df b0bc 9959 b2bc
00000090: 8678 98be fbd4 8a3d 172b 5fbe edb7 09bd
000000a0: 745e 97bc fdd4 58be 9afa ccbe 4c35 c1bd
000000b0: a34d 853c 4f59 febe 75bd eabe e588 9fbe
000000c0: 28c5 ac3d c02b 333e 2f50 3d3e f4f2 07bf
000000d0: 7142 3c3d ac1e fabd c161 97bd 8394 14be
000000e0: b5ac f2be 0c16 24be f123 1dbe 6f9f 6bbe
000000f0: 8061 ef3d 20ed 90be 0f54 b9be b6e3 843d
00000100: e19a d23d b89b 023e 117c 0f3e 96c0 1ebe
00000110: 5267 a0be 0d53 883d 8330 8fbd cb42 163d
00000120: 64b5 4ebe cf12 6bbd 3b69 e0bd e495 aa3d
00000130: 19f3 c0bd 2ccc 463d dbd4 adbd ae2a b03d
00000140: 6934 b33d fc35 773d 4a56 213f 2876 ef3d
00000150: 6bc7 febc d9ce cabc 577e 643d 36b2 3ebc
00000160: d6d9 7dbd 0882 3a3c c045 21be ff86 2bbc
00000170: c975 dbbd 1fcc 103e 4621 36be c5bf b03d
00000180: 19ea 19bd 7d1a 913d dd83 e43d 058c 81bd
00000190: 3d69 d2bd 6db7 e23d fd9b 71be c49f aabd
000001a0: 0e9c ca3d 7a06 c43d fd9c 2bbe 1f03 d4be
000001b0: 0c48 cc3d 48d1 fb3d 58fa 92bc c3b0 64bd
000001c0: f40d 07be 3f5c b8bc 8f94 d2bd 164d 97bd
000001d0: 8fe8 303c db14 90bd 231e 4d3e 0336 8b3e
000001e0: 9a56 1cbd e352 4ebd bb1b 8ebd 9f55 43be
000001f0: 2025 92bd a290 eebd 83f0 d3bd 774e 4a3e
00000200: 5352 403e 28e2 e4bd 0526 0e3d 5104 47be
00000210: 04d1 923d a14f b1bd 8168 a63d 4484 a2be
00000220: d1e1 a03d 13db 9e3d eef0 36be 6ce7 493f
00000230: 1e7c f0bd a0a5 48bd 8a74 303d e20d 50bd
00000240: e090 3cbd 6200 b23c 6443 313e 9e4e 97bc
00000250: 78cf eb3c 11f4 07be a3ae be3d e1df 163e
00000260: 9de6 2a3d fcd9 cb3d ee54 d1be 6d9b f4bd
00000270: 3ee6 083e 88e8 bc3d 8eb5 3d3d 4a9f 4b3e
00000280: 34fb 4b3d d302 5abd 9f39 043d 46b2 bcbd
00000290: 3089 2c3c 5170 953d f21b ba3c 335f c4bc
000002a0: 04fe 893d 3963 e13d ac9a 8fbc 45eb a2be
000002b0: a54c 323d a22a 1cbb 095d 943d e820 033d
000002c0: 57eb 453e e24a dd3d 8b8e 20bd 54e8 aabd
000002d0: 8e99 603e 8c6b 20be 6ef8 dbbd 5ef1 273c
000002e0: d77e 01bd f465 0bbd c45e 133e a3fe f9bd
000002f0: 00f7 2bbd 3cf0 9d3d 12d9 bfbb b325 9f3d
00000300: d4fb 383d 1389 e03d 02af af3d a4f1 5bbc
00000310: ba4f 79bd 033f b4bd eb4f ccba 9097 733d
00000320: 0ed0 1d3e b9d2 f8bd 9c11 1c3e 8694 b5be
00000330: a942 98bb 1545 35bd e031 a03d bea9 95bd
00000340: af16 f63d f1ff 2a3a 6704 83bd 01e1 dc3d
00000350: 24f7 4f3d bfaa 323e 10a9 2abc 0421 053e
00000360: 2c14 8fbd 4301 38be 5534 e13d dc7e dcba
00000370: 4848 2f3e 43b8 91bd 4aee 813c 5f01 843d
00000380: 6256 863c 0a38 8b3d 52a6 5f3e 5720 ba3d
00000390: 4247 b8bd c026 abbd bfc6 26be 859b 15bc
000003a0: 04f1 dc3d 99e6 0a3d ebd3 8e3c 1797 04bf
000003b0: b163 3abd ca12 efbd 54ef a4bc c848 0b3d
000003c0: cfaf 8f3d e2bd 6cbd 62fd 12be 8008 e53d
000003d0: d01a 1b3e 112a 04be db70 263e b1cc 64be
000003e0: f936 c73d f21e 15be 41ee 863e b06b 3ebe
000003f0: c993 cb3c 150a 603c de6d 9fbd 3019 f0bd

value.2.bias f4 [32]
-0.02159313 -0.17059909 0.034664005 0.14004374 -0.24304502 -0.04345728 0.1932224 0.014065341
-0.13220565 -0.22034754 0.1581547 0.014502493 0.05190837 -0.17702147 0.020665895 -0.008457973
0.016760346 0.13708977 -0.32451597 0.06108811 -0.036909156 0.122315064 -0.237738 0.19698492
0.08416628 0.08934627 -0.14297257 0.2767708 0.06821068 0.045763798 0.038906474 0.104799114
00000000: 13e4 b0bc 87b1 2ebe d8fb 0d3d a067 0f3e
00000010: cbe0 78be 4300 32bd 18dc 453e 5172 663c
00000020: eb60 07be c9a2 61be 4ef3 213e dd9b 6d3c
00000030: df9d 543d 1e45 35be 864b a93c 4f93 0abc
00000040: fe4c 893c 4361 0c3e f526 a6be 8737 7a3d
00000050: 0e2e 17bd 5280 fa3d 9771 73be 6ab6 493e
00000060: 5f5f ac3d 2dfb b63d 6767 12be e7b4 8d3e
00000070: 0ab2 8b3d d272 3b3d 655c 1f3d eba0 d63d

value.4.weight f4 [1, 32]
0.026812542 0.19397773 0.07169559 0.074356966 -0.0826405 0.07739514 0.08705616 -0.05615276
-0.035226632 -0.053346887 0.11607341 0.03137053 0.035050273 -0.04919665 -0.013910492 -0.37041435
-0.039616577 -0.058537774 -0.123152114 0.14271182 0.027528046 0.18294172 -0.06956706 0.03727276
-0.103626676 -0.059940916 -0.03758704 0.077022985 -0.06182746 -0.07758535 -0.04572155 0.067127354
00000000: faa5 db3c 19a2 463e 23d5 923d 7748 983d
00000010: 6c3f a9bd 5881 9e3d 804a b23d 7000 66bd
00000020: cd49 10bd 4482 5abd e5b7 ed3d 637e 003d
00000030: e090 0f3d 6d82 49bd d5e8 63bc f3a6 bdbe
00000040: fe44 22bd 4ec5 6fbd 2d37 fcbd 0c23 123e
00000050: 7f82 e13c 1355 3b3e 2d79 8ebd 52ab 183d
00000060: 393a d4bd 9b84 75bd def4 19bd 3abe 9d3d
00000070: ca3e 7dbd 11e5 9ebd 8546 3bbd 117a 893d

value.0.weight f4 [32, 12]
-0.085430145 -0.09906199 -0.1281133 -0.055836007 0.1584243 -0.012726171 -0.1213467 0.028261451
-0.055133846 -0.08812044 -0.15549594 1.8388089 0.014623009 -0.13148074 -0.02686129 -0.034809228
0.20882212 0.18174303 0.089587115 -0.22540563 0.036679666 -0.097745575 -0.5192127 -0.9960612
-0.0050735613 -0.10359794 0.16424891 0.2304711 0.10014838 -0.04500323 0.14728114 -0.20987704
-0.08027794 0.15884566 0.36768776 -0.097157866 -0.008050407 0.098422594 -0.15614542 -0.20299323
-0.078510664 0.101151325 0.23295975 -0.24695718 -0.13326502 0.1158126 -0.42181668 1.1450711
0.10308172 0.022324257 -0.15755992 -0.0130390655 -0.11976045 -0.043380167 0.22538106 0.21837984
-0.08013263 0.05256004 -1.2424799 -0.85208213 -0.20609431 -0.0857429 0.25814912 0.0089499755
0.14611535 0.16216761 0.0059703616 -0.12592697 0.30217445 0.051056933 0.8023523 0.7464257
-0.19426838 0.06073719 0.016126934 -0.051108625 -0.08580364 -0.086509086 -0.04095279 0.0073873755
0.091158904 0.10639493 0.40938294 2.2509675 0.07087929 -0.003734271 -0.15847546 0.014380382
0.014516219 -0.01748496 0.26211277 -0.18477459 -0.25509846 -0.08550765 0.362335 1.352166
-0.16514833 -0.013538556 0.21743672 0.025553357 0.0111826295 0.013473154 -0.056017667 0.3675222
0.38002926 0.37434208 0.04271535 0.25213474 -0.0353182 -0.045320928 0.10967984 0.025725715
-0.2931033 -0.031814493 0.022208042 0.14355253 0.10814749 -0.19493456 0.34289363 0.011697128
-0.11968132 -0.16518661 -0.09017589 -0.060475748 -0.08633314 -0.124980606 0.15912174 0.21498428
0.358673 -0.025528617 -0.013481396 -0.97025007 -0.07206969 -0.011597266 -0.007743254 0.0015811801
-0.00259718 -0.004319172 0.16038685 -0.035308637 -0.15799886 0.17297651 1.233082 2.741058
-0.026306286 -0.01258216 -0.10907353 0.022174198 0.25285998 -0.285514 0.018853016 0.08470153
-0.00033001223 0.05902609 0.045673683 -0.21246104 -0.00452113 -0.14253102 -0.055285607 0.027213179
-0.21000947 -0.075914204 0.021471715 0.1426446 -0.17538007 0.069888614 -0.43547863 -0.6763449
-0.022072174 0.073460676 -0.10211426 0.16416074 -0.10709607 0.1562938 -0.08919492 -0.18867785
0.20267393 0.1252478 0.86950463 0.08117091 0.02785191 0.05956184 0.2609829 -0.17663981
-0.15120384 -0.12743032 -0.15457733 0.1661254 -0.09644652 -0.24133365 -0.0341928 -0.94806653
0.0497988 -0.06922263 -0.21783511 0.27410576 -0.122154266 0.18629198 -0.17435658 0.07650007
-0.26503193 -0.1924312 -0.27799165 0.22598316 -0.0078093903 0.05282775 0.2619297 0.08082623
-0.2515277 -0.118446894 -0.18724293 0.18690652 -0.2380189 0.25339556 0.32309783 0.34991232
0.066904455 -0.07840693 0.09379689 -0.090636194 0.00052315264 0.01386948 0.16643444 0.26806274
0.11405669 0.12836792 0.5791046 1.9767381 -0.070546344 0.18925957 0.17911181 -0.2339016
0.12852398 0.09150465 0.06895369 -0.07866073 0.33666712 0.12532942 0.5037448 -0.40096313
0.033567216 -0.05575255 0.1221446 -0.39504984 -0.003298464 -0.011060173 0.04875299 0.12505229
-0.19027042 -0.22891475 0.17801702 -1.3550879 0.083906375 0.08447485 0.059681483 0.1508414
00000000: 00f6 aebd 03e1 cabd 2230 03be 4cb4 64bd
00000010: fb39 223e 6e81 50bc 9e84 f8bd 8f84 e73c
00000020: 07d4 61bd 7d78 b4bd 543a 1fbe 175e eb3f
00000030: 5895 6f3c e3a2 06be 350c dcbc 1f94 0ebd
00000040: 77d5 553e d81a 3a3e 7379 b73d bcd0 66be
00000050: 6b3d 163d d52e c8bd 20eb 04bf defd 7ebf
00000060: 1e40 a6bb 282b d4bd de30 283e 9e00 6c3e
00000070: 981a cd3d 4f55 38bd ded0 163e 02ea 56be
00000080: c368 a4bd 70a8 223e 9241 bc3e b4fa c6bd
00000090: dbe5 03bc c991 c93d 96e4 1fbe 75dd 4fbe
000000a0: 33ca a0bd 6d28 cf3d 008d 6e3e 58e2 7cbe
000000b0: a076 08be 282f ed3d 5bf8 d7be b191 923f
000000c0: 821c d33d 5ce1 b63c 6357 21be cea1 55bc
000000d0: f844 f5bd 67af 31bd 4bca 663e f79e 5f3e
000000e0: 941c a4bd 3249 573d 9509 9fbf 0e22 5abf
000000f0: 630a 53be f999 afbd 1f2c 843e eba2 123c
00000100: 439f 153e 440f 263e 06a3 c33b 00f3 00be
00000110: 9cb6 9a3e 1321 513d f666 4d3f c115 3f3f
00000120: 4aee 46be 8fc7 783d a21c 843c 4757 51bd
00000130: d2b9 afbd ad2b b1bd 1dbe 27bd cc11 f23b
00000140: 85b1 ba3d 96e5 d93d a49a d13e da0f 1040
00000150: 2929 913d acba 74bb 6447 22be b29b 6b3c
00000160: 6fd5 6d3c 9e3c 8fbc a533 863e 8d35 3dbe
00000170: 449c 82be a31e afbd f983 b93e c713 ad3f
00000180: a51c 29be d2d0 5dbc bba7 5e3e 4655 d13c
00000190: 5937 373c 81be 5c3c c872 65bd df2b bc3e
000001a0: 3293 c23e c4a9 bf3e 4af6 2e3d ce17 813e
000001b0: d1a9 10bd 70a2 39bd d39f e03d bcbe d23c
000001c0: a311 96be ea4f 02bd a4ed b53c 6fff 123e
000001d0: 6e7c dd3d ed9c 47be c18f af3e 50a5 3f3c
000001e0: 7b1b f5bd ae26 29be 23ae b8bd 6bb5 77bd
000001f0: 6ecf b0bd d5f5 ffbd cff0 223e d724 5c3e
00000200: fda3 b73e 6421 d1bc 13e1 5cbc 4f62 78bf
00000210: 4699 93bd 7602 3ebc 1fbb fdbb 9a3f cf3a
00000220: 7335 2abb d787 8dbb 733c 243e ca9f 10bd
00000230: 74ca 21be c120 313e a2d5 9d3f 7f6d 2f40
00000240: 4880 d7bc 6725 4ebc f161 dfbd aaa6 b53c
00000250: dd76 813e e42e 92be a471 9a3c ff77 ad3d
00000260: 7e05 adb9 57c5 713d 5414 3b3d 638f 59be
00000270: fd25 94bb a7f3 11be 2973 62bd 2cee de3c
00000280: b90c 57be e878 9bbd 73e5 af3c 6d11 123e
00000290: d596 33be c321 8f3d 0ef7 debe f024 2dbf
000002a0: b4d0 b4bc 8d72 963d 4821 d1bd c119 283e
000002b0: 2f55 dbbd 7b0b 203e d4ab b6bd c434 41be
000002c0: c189 4f3e f640 003e db97 5e3f ef3c a63d
000002d0: b029 e43c 1ef7 733d 8d9f 853e 11e1 34be
000002e0: 2ed5 1abe 187d 02be 8549 1ebe c71c 2a3e
000002f0: c185 c5bd 2b20 77be c00d 0cbd 7db4 72bf
00000300: d4f9 4b3d 98c4 8dbd 2b10 5fbe 9757 8c3e
00000310: 042c fabd 53c3 3e3e 888a 32be 12ac 9c3d
00000320: 44b2 87be af0c 45be ec54 8ebe 2168 673e
00000330: eae5 ffbb e961 583d a61b 863e 3988 a53d
00000340: 3dc8 80be 4994 f2bd 9cbc 3fbe 6c64 3f3e
00000350: 3abb 73be 10bd 813e 146d a53e b527 b33e
00000360: 3405 893d d093 a0bd 9518 c03d 789f b9bd
00000370: 2e24 093a d13c 633c ca6d 2a3e 853f 893e
00000380: 8e96 e93d e172 033e 3340 143f c105 fd3f
00000390: 9a7a 90bd 43cd 413e 1669 373e e783 6fbe
000003a0: ca9b 033e ca66 bb3d 9837 8d3d e018 a1bd
000003b0: a25f ac3e 5b56 003e 6bf5 003f 0a4b cdbe
000003c0: c77d 093d c95c 64bd f326 fa3d f943 cabe
000003d0: 0b2b 58bb ba35 35bc 37b1 473d b50d 003e
000003e0: 40d6 42be a168 6abe 184a 363e 8573 adbf
000003f0: 1bd7 ab3d 2601 ad3d 9274 743d 2b76 1a3e

value.0.bias f4 [32]
-0.0631757 -0.14750089 0.37947282 -0.6640075 0.014672964 0.076681085 -0.3859119 -0.03756489
0.023468042 -0.4412251 0.35730702 -0.4497791 -0.14785977 0.07201845 0.10650342 -0.0916278
-0.33204672 0.06438705 0.056785356 -0.11304929 -0.06850967 -0.18996917 -0.26373094 -0.085268654
0.005528849 0.010951533 -0.28581882 0.2730313 0.16582316 0.03263906 0.05074515 0.153648
00000000: 4362 81bd 790a 17be 434a c23e 65fc 29bf
00000010: df66 703c f90a 9d3d 3f96 c5be a4dd 19bd
00000020: 0d40 c03c 42e8 e1be f2f0 b63e 7249 e6be
00000030: 8d68 17be 697e 933d 771e da3d 5ba7 bbbd
00000040: 0702 aabe 5cdd 833d c397 683d 6386 e7bd
00000050: cc4e 8cbd 4787 42be be07 87be 55a1 aebd
00000060: 592b b53b 0f6e 333c d856 92be c2ca 8b3e
00000070: 8ccd 293e 89b0 053d 25da 4f3d e755 1d3e

value.2.weight f4 [32, 32]
0.0913972 0.107112706 -0.26797047 0.059017077 0.012594427 -0.13458116 -0.0115973 -0.0545617
0.0390977 -0.14655966 -0.065510735 0.03444661 0.04609943 0.023798639 -0.0074182656 0.03658418
-0.12516019 -0.02708464 0.22222702 0.08128393 0.103187434 -0.035471883 0.028786786 -0.065310664
0.12227381 0.09084064 -0.12391031 -0.09400611 -0.19066405 -0.047878247 0.22573416 0.11264292
-0.0895012 -0.017063253 -0.021590771 -0.021771053 -0.29779154 0.067789786 -0.21793632 -0.0336223
-0.01847747 -0.2117485 -0.40034646 -0.09434068 0.016272558 -0.49677214 -0.4584737 -0.31158832
0.084361166 0.17497009 0.18487768 -0.53104496 0.045962173 -0.12212807 -0.073916174 -0.14509927
-0.47397092 -0.16023886 -0.15345891 -0.23009889 0.11688593 -0.2830621 -0.36196646 0.064888194
0.103603035 0.1279427 0.13877718 -0.1552846 -0.312439 0.066639535 -0.07028168 0.03648933
-0.20246798 -0.057386547 -0.10825258 0.08233966 -0.09462642 0.049620435 -0.084691316 0.08655886
0.0875325 0.060889434 0.6315123 0.116372354 -0.031052792 -0.024968967 0.055423383 -0.012245083
-0.061674204 0.010219309 -0.16010894 -0.010968364 -0.107663326 0.14020635 -0.17625067 0.08674434
-0.037640695 0.070401676 0.111863755 -0.064327136 -0.10454919 0.111270316 -0.23601244 -0.08510354
0.09925417 0.094776176 -0.16763085 -0.41365913 0.09895215 0.12227148 -0.017726658 -0.05581991
-0.13177842 -0.0214204 -0.10419609 -0.07332204 0.009469478 -0.072038606 0.19952223 0.26971966
-0.03796622 -0.05041784 -0.06942803 -0.19277938 -0.07593717 -0.11566812 -0.10340649 0.1974788
0.18832895 -0.111678764 0.033981636 -0.19273816 0.07234428 -0.08674973 0.08224678 -0.31394067
0.078479014 0.07828696 -0.1783957 0.7898266 -0.11708902 -0.049133167 0.042601414 -0.050712697
-0.04503075 0.021825165 0.1739581 -0.018145204 0.03086769 -0.13413155 0.094415195 0.1451119
0.04146716 0.0992345 -0.40761554 -0.12019459 0.13428324 0.09084884 0.04613291 0.19912942
0.04954108 -0.05326046 0.033006564 -0.09167239 0.009949288 0.07278476 0.022111122 -0.024010397
0.067677036 0.10942737 -0.017323084 -0.31971297 0.043037783 -0.002635927 0.07279187 0.031632442
0.19265203 0.108088486 -0.03965053 -0.0833183 0.21873558 -0.15682198 -0.107644826 0.010107209
-0.032020364 -0.03408991 0.14353937 -0.12224225 -0.041934118 0.077157244 -0.0058931266 0.077546924
0.045316152 0.1098989 0.08530983 -0.013212305 -0.061089598 -0.088529624 -0.0014951547 0.059101537
0.15353929 -0.1228019 0.1528113 -0.35520658 -0.0050464324 -0.04410173 0.078262165 -0.07332205
0.12000255 -0.0001636902 -0.068035506 0.108207785 0.050644875 0.17431413 -0.010247609 0.12984107
-0.07090241 -0.18019167 0.10940891 -0.0022437675 0.17055616 -0.07092074 0.016093774 0.06436268
0.017128203 0.06805983 0.21569054 0.09107832 -0.08956334 -0.084358126 -0.16413923 -0.008520972
0.106093 0.03277151 0.016958002 -0.5146453 -0.045670826 -0.11734288 -0.021353114 0.034135595
0.07024065 -0.060660932 -0.14145023 0.1106636 0.15180188 -0.12799816 0.16251382 -0.22262451
0.09721745 -0.14943586 0.26261532 -0.18539953 0.025334286 0.01293997 -0.07882472 -0.11716325
00000000: 752e bb3d e85d db3d 6d33 89be e4bb 713d
00000010: db58 4e3c a5cf 09be 9a02 3ebc 177c 5fbd
00000020: e924 203d bc13 16be 7e2a 86bd e317 0d3d
00000030: c2d2 3c3d 5df5 c23c ec14 f3bb 4bd9 153d
00000040: fe29 00be 9be0 ddbc 7b8f 633e 3078 a63d
00000050: ef53 d33d f74a 11bd 44d2 eb3c 99c1 85bd
00000060: b16a fa3d a80a ba3d b0c4 fdbd 4786 c0bd
00000070: 703d 43be fb1b 44bd db26 673e 55b1 e63d
00000080: 684c b7bd 3cc8 8bbc 21df b0bc 3559 b2bc
00000090: 2278 98be 5fd5 8a3d b32a 5fbe 89b7 09bd
000000a0: 105e 97bc 99d4 58be 36fa ccbe b035 c1bd
000000b0: 074e 853c eb58 febe 11bd eabe 8188 9fbe
000000c0: 8cc5 ac3d 5c2b 333e 9350 3d3e 90f2 07bf
000000d0: d542 3c3d 481e fabd 5d61 97bd e794 14be
000000e0: 51ac f2be a815 24be 5524 1dbe 0b9f 6bbe
000000f0: e461 ef3d 84ed 90be ab53 b9be 1ae4 843d
00000100: d42d d43d 6903 033e 9b1b 0e3e ed02 1fbe
00000110: 01f8 9fbe 4f7a 883d d7ef 8fbd d675 153d
00000120: c453 4fbe 280e 6bbd 87b3 ddbd b2a1 a83d
00000130: 7fcb c1bd cc3e 4b3d a472 adbd c645 b13d
00000140: 3d44 b33d 3367 793d caaa 213f a154 ee3d
00000150: 6d62 febc b88b ccbc a103 633d 9a9f 48bc
00000160: 179e 7cbd e36e 273c 99f3 23be a7b4 33bc
00000170: 977e dcbd 4192 0f3e 0e7b 34be 04a7 b13d
00000180: 212d 1abd c12e 903d d318 e53d f2bd 83bd
00000190: e31d d6bd b1e1 e33d 3fad 71be c44a aebd
000001a0: c545 cb3d 031a c23d 6ca7 2bbe 21cb d3be
000001b0: 6da7 ca3d 7869 fa3d 7f37 91bc 6ba3 64bd
000001c0: ecf0 06be d679 afbc c264 d5bd de29 96bd
000001d0: df25 1b3c fa88 93bd 8e4f 4c3e b218 8a3e
000001e0: 7882 1bbd f082 4ebd 4830 8ebd f567 45be
000001f0: f284 9bbd 68e3 ecbd c8c6 d3bd e237 4a3e
00000200: 4ed9 403e d6b7 e4bd 5430 0b3d 275d 45be
00000210: 3d29 943d d8a9 b1bd 0071 a83d d5bc a0be
00000220: 9bb9 a03d ea54 a03d 5dad 36be 1332 4a3f
00000230: 5ecc efbd dc3f 49bd d27e 2e3d 1eb8 4fbd
00000240: 2a72 38bd b0ca b23c 1222 323e 40a5 94bc
00000250: 3dde fc3c c859 09be c15c c13d 3798 143e
00000260: 78d9 293d 753b cb3d fcb2 d0be 9528 f6bd
00000270: 8c81 093e f50e ba3d ddf5 3c3d 95e8 4b3e
00000280: 96eb 4a3d a427 5abd e431 073d bcbe bbbd
00000290: 5702 233c 2d10 953d 6222 b53c 74b1 c4bc
000002a0: 429a 8a3d 751b e03d 24e9 8dbc 6bb1 a3be
000002b0: 6348 303d 84bf 2cbb e713 953d 0591 013d
000002c0: 9346 453e 7f5d dd3d 9868 22bd c9a2 aabd
000002d0: 38fc 5f3e f195 20be e474 dcbd b598 253c
000002e0: c927 03bd dda1 0bbd fcfb 123e 255a fabd
000002f0: 1cc3 2bbd 9e04 9e3d 211b c1bb ecd0 9e3d
00000300: 6e9d 393d ad12 e13d ecb6 ae3d 6c78 58bc
00000310: 1639 7abd 054f b5bd 11f9 c3ba 7414 723d
00000320: 6739 1d3e 907f fbbd 917a 1c3e a3dd b5be
00000330: 8b5c a5bb 04a4 34bd ea47 a03d df29 96bd
00000340: e6c3 f53d 41a4 2bb9 3356 8bbd 0b9c dd3d
00000350: 0071 4f3d 677f 323e 96e5 27bc 0ff5 043e
00000360: 4835 91bd 2a84 38be c711 e03d 2c0c 13bb
00000370: 46a6 2e3e e53e 91bd 17d7 833c 95d0 833d
00000380: 7250 8c3c f462 8b3d fbdd 5c3e 4587 ba3d
00000390: fc6c b7bd f4c3 acbd 1d14 28be 8c9b 0bbc
000003a0: 4947 d93d 6b3b 063d 82eb 8a3c cbbf 03bf
000003b0: 5511 3bbd 7751 f0bd baec aebc c4d1 0b3d
000003c0: 54da 8f3d 9977 78bd 54d8 10be 99a3 e23d
000003d0: f471 1b3e f311 03be 066a 263e aef7 63be
000003e0: f119 c73d b705 19be 8475 863e 60d9 3dbe
000003f0: d989 cf3c 2b02 543c db6e a1bd 49f3 efbd

value.2.bias f4 [32]
-0.021003842 -0.1705976 0.03475881 0.13948448 -0.24284664 -0.043714955 0.1926864 0.0134893805
-0.13228846 -0.22015706 0.15817252 0.014425418 0.051754314 -0.17649727 0.021269215 -0.007185394
0.016900452 0.13760215 -0.3249085 0.058629338 -0.037081365 0.12359803 -0.23738538 0.19692937
0.08232627 0.08968794 -0.14284775 0.27668685 0.06813101 0.04566158 0.03792958 0.10437232
00000000: 4010 acbc 23b1 2ebe 415f 0e3d 05d5 0e3e
00000010: caac 78be 740e 33bd 954f 453e 9002 5d3c
00000020: a076 07be da70 61be faf7 213e 9758 6c3c
00000030: 55fc 533d b3bb 34be c73c ae3c 7473 ebbb
00000040: d172 8a3c 94e7 0c3e 685a a6be 5125 703d
00000050: a1e2 17bd f720 fd3d 2715 73be daa7 493e
00000060: ad9a a83d 50ae b73d ae46 12be e6a9 8d3e
00000070: 4588 8b3d a307 3b3d 0c5c 1b3d 28c1 d53d

value.4.weight f4 [1, 32]
0.026812121 0.19397922 0.072005175 0.07440675 -0.08312335 0.07705264 0.087540925 -0.056153703
-0.034997422 -0.053559847 0.11606824 0.031518333 0.035017144 -0.04897231 -0.014364288 -0.37146106
-0.039715994 -0.05940597 -0.12273702 0.14287755 0.027617447 0.18343292 -0.06998956 0.03739829
-0.09914532 -0.059521705 -0.03725139 0.07749017 -0.061488006 -0.07707783 -0.046308693 0.06700814
00000000: 18a5 db3c 7da2 463e 7377 933d 9162 983d
00000010: 933c aabd c6cd 9d3d a848 b33d 6d01 66bd
00000020: 7559 0fbd 9261 5bbd 2fb5 ed3d 5e19 013d
00000030: 236e 0f3d 3097 48bd 3158 6bbc 2530 bebe
00000040: 3dad 22bd ad53 73bd 8c5d fbbd 7e4e 123e
00000050: fc3d e23c d7d5 3b3e b056 8fbd f32e 193d
00000060: b40c cbbd 08cd 73bd ea94 18bd 2bb3 9e3d
00000070: d9da 7bbd fbda 9dbd 2fae 3dbd 903b 893d

actor.0.weight f4 [32, 10]
0.026921326 0.09652191 0.019269655 -0.06296274 -0.39684317 -0.21414366 -0.09889566 -0.38301203
0.10351485 0.0006070631 0.118588544 0.4091282 -0.32725888 0.113094926 0.23312642 -0.004508686
0.061033133 -0.0136147635 -0.36878687 -0.35517016 0.13599539 0.0438274 0.24837863 0.3324612
0.09656244 0.20581584 0.04715863 -0.055580344 0.022506008 -0.5025586 -0.22929518 0.07549573
0.20242745 -0.114489876 -0.16092873 0.05982529 0.054912888 0.03298528 0.1136508 -0.06685448
0.15668237 -0.0830229 -0.18515484 -0.21112849 0.015181806 0.18660572 0.028172689 -0.11382689
0.005262776 0.1269002 0.20340212 -0.20780481 0.19475584 0.07421844 0.06357508 -0.055164315
-0.32065517 0.110463075 0.5172442 0.22318697 0.03203081 0.5163219 -0.2398261 -0.09073455
-0.036387373 0.14122675 -0.2427137 0.107850894 0.015232093 0.062483534 0.07764329 -0.033426385
0.26073352 -0.07458115 0.09509607 0.1579462 -0.19489965 0.23705555 0.016353168 0.4471271
-0.07578297 -0.124954775 0.14094308 -0.039926626 0.15957452 0.1508555 0.14902309 -0.15816517
-0.07182511 0.22643383 0.021557072 -0.16855639 0.14431101 0.14488202 -0.07512832 -0.2229846
-0.14756346 0.1441122 -0.34428424 -0.009750955 0.2750429 -0.10689541 -0.38244542 -0.14227422
0.16699165 0.066673495 0.06441006 0.38405776 -0.40898678 -0.3821171 -0.15890488 -0.03765877
0.20610331 0.016215477 -0.3520338 -0.24110885 0.21875499 0.0566666 0.19735819 -0.154721
0.29197106 0.11649812 0.21107073 0.2552219 0.16576542 0.2261412 -0.12945187 0.21222694
0.047962192 0.14726274 -0.18602525 0.010832189 0.38346228 -0.12078842 -0.35006025 -0.049765132
0.17722595 0.025486311 -0.45976236 -0.06812666 0.10622036 0.16019505 0.088398345 0.0024687008
-0.3056346 0.08823331 -0.1484555 -0.24798921 -0.34503537 0.0014593599 0.016391847 -0.07898123
-0.24747336 -0.0062562306 0.18616414 0.12791716 -0.3236248 -0.41384482 -0.0352766 0.1998422
0.1715184 -0.12235945 0.23028022 0.10915734 -0.33618692 -0.12992619 0.42520124 0.3773837
-0.0030117668 -0.32248554 -0.32602128 -0.15805759 -0.084498376 -0.0055465656 0.26896137 0.14285848
0.32653162 -0.14993134 -0.005588413 -0.4006753 -0.105931535 0.123212434 0.018979821 -0.26695332
0.20709158 -0.03894142 -0.29009587 -0.0007469638 -0.08372524 -0.2894587 0.15682723 0.1637077
-0.08260757 -0.026230672 0.49691412 0.31918484 -0.285095 -0.14064635 0.08331003 0.20817256
0.23899099 0.21229744 -0.08033872 -0.36053663 -0.18604377 -0.26818886 0.16419697 0.0075168638
-0.2005527 -0.37519193 0.5274294 -0.10812602 -0.2876359 -0.08340642 -0.0144832535 0.11321205
0.17815137 -0.30060437 0.07672954 -0.21068002 0.24641071 0.023016924 0.11652128 0.14891082
0.10580362 -0.12891762 -0.20099035 -0.111234695 -0.09808315 -0.14240828 -0.17776597 0.036924377
0.23522648 -0.06574984 0.13224395 0.15024406 -0.22167805 -0.28142196 0.48672414 0.2465044
0.13022947 0.19647081 -0.06597563 -0.19189145 0.2974621 0.2758836 0.094180785 0.32383868
0.50645196 0.19625409 -0.35374603 -0.29897794 -0.01180196 0.096129104 0.23059303 0.054617677
00000000: 1d8a dc3c 47ad c53d 65db 9d3c 9cf2 80bd
00000010: 072f cbbe 7a48 5bbe cf89 cabd 271a c4be
00000020: 98ff d33d 5123 1f3a 8dde f23d 4079 d13e
00000030: 7a8e a7be 509e e73d b1b8 6e3e 99bd 93bb
00000040: e1fd 793d 7510 5fbc a2d1 bcbe ddd8 b5be
00000050: 6042 0b3e 5c84 333d f856 7e3e 5b38 aa3e
00000060: 87c2 c53d 63c1 523e 6829 413d 37a8 63bd
00000070: 855e b83c aea7 00bf 5bcc 6abe 819d 9a3d
00000080: 2449 4f3e ab79 eabd 80ca 24be 5d0b 753d
00000090: 56ec 603d 931b 073d c0c1 e83d 00eb 88bd
000000a0: 5871 203e e907 aabd 3b99 3dbe 1132 58be
000000b0: 1cbd 783c 9215 3f3e 69ca e63c 131e e9bd
000000c0: 5d73 ac3b 20f2 013e a548 503e c9ca 54be
000000d0: 136e 473e d6ff 973d a733 823d faf3 61bd
000000e0: ea2c a4be 773a e23d 1e6a 043f 208b 643e
000000f0: bd32 033d ac2d 043f f994 75be 09d3 b9bd
00000100: ed0a 15bd bf9d 103e f189 78be eee0 dc3d
00000110: 0790 793c bcee 7f3d 7203 9f3d 1bea 08bd
00000120: dd7e 853e 01be 98bd bac1 c23d a6bc 213e
00000130: c693 47be b1be 723e 14f7 853c d8ed e43e
00000140: 1a34 9bbd 4ae8 ffbd 6253 103e 1a8a 23bd
00000150: 8167 233e dd79 1a3e 8299 183e 0df6 21be
00000160: 0b19 93bd 45de 673e 7598 b03c 0c9a 2cbe
00000170: 44c6 133e f45b 143e e0dc 99bd 1356 64be
00000180: e01a 17be 2692 133e 0646 b0be 78c2 1fbc
00000190: 6cd2 8c3e fbeb dabd e3cf c3be 55b0 11be
000001a0: dcff 2a3e 1d8c 883d 6ce9 833d 38a3 c43e
000001b0: b766 d1be daa4 c3be f6b7 22be 1540 1abd
000001c0: bf0c 533e 52d6 843c c63d b4be 3de5 76be
000001d0: 4f01 603e 3d1b 683d 4418 4a3e 2f6f 1ebe
000001e0: 3b7d 953e 9196 ee3d ed22 583e 72ac 823e
000001f0: 69be 293e 8f91 673e 088f 04be 0552 593e
00000200: 0174 443d 0bcc 163e 677d 3ebe 7e79 313c
00000210: 2b55 c43e eb5f f7bd 193b b3be 86d6 4bbd
00000220: b87a 353e abc8 d03c f965 ebbe fe85 8bbd
00000230: 0f8a d93d 2c0a 243e 310a b53d edc9 213b
00000240: 237c 9cbe aab3 b43d b804 18be e2f0 7dbe
00000250: 7aa8 b0be fe47 bf3a 3248 863c e9c0 a1bd
00000260: a869 7dbe 1101 cdbb d0a1 3e3e b7fc 023e
00000270: 26b2 a5be 78e3 d3be 327e 10bd 6fa3 4c3e
00000280: 85a2 2f3e 9797 fabd 94ce 6b3e e28d df3d
00000290: b120 acbe 5f0b 05be fab3 d93e 7038 c13e
000002a0: 1061 45bb d31c a5be 43ec a6be d9d9 21be
000002b0: 7c0d adbd f7bf b5bb 4eb5 893e 7e49 123e
000002c0: 272f a73e 9a87 19be 021f b7bb 5025 cdbe
000002d0: a2f2 d8bd cd56 fc3d 927b 9b3c 1bae 88be
000002e0: d10f 543e 0a81 1fbd 7287 94be e4cf 43ba
000002f0: 2378 abbd ee33 94be 5197 203e fea2 273e
00000300: 282e a9bd b5e1 d6bc 876b fe3e 326c a33e
00000310: f9f7 91be 9905 10be 739e aa3d 302b 553e
00000320: 0eba 743e 8064 593e a088 a4bd 4298 b8be
00000330: 4282 3ebe 0d50 89be 4023 283e 0650 f63b
00000340: b05d 4dbe 2819 c0be 9d05 073f 2d71 ddbd
00000350: 0345 93be fcd0 aabd 2b4b 6dbc b8db e73d
00000360: 506d 363e d1e8 99be 6124 9d3d 81bc 57be
00000370: 1753 7c3e fd8d bc3c b5a2 ee3d 147c 183e
00000380: 91af d83d fb02 04be 6ad0 4dbe 04cf e3bd
00000390: d2df c8bd 7ad3 11be 4808 36be 043e 173d
000003a0: 36df 703e daa7 86bd f56a 073e 94d9 193e
000003b0: 92ff 62be 8a16 90be e833 f93e a66b 7c3e
000003c0: e05a 053e a52f 493e 3b1e 87bd 317f 44be
000003d0: f44c 983e 9d40 8d3e dbe1 c03d 2fce a53e
000003e0: d6a6 013f d5f6 483e 331e b5be a313 99be
000003f0: 025d 41bc 56df c43d 9420 6c3e c9b6 5f3d

actor.0.bias f4 [32]
-0.020725988 -0.3579938 -0.102530494 0.05747208 -0.08603422 0.004284969 -0.35922804 0.5387719
-0.17006509 0.06531717 -0.19741182 0.09397646 -0.085284196 -0.24036781 0.2460825 -0.101099476
-0.09396333 -0.41323513 0.29278898 0.11169621 -0.029157136 -0.009517828 0.29612195 0.44240722
-0.2090826 -0.29199636 -0.20871715 0.16847454 -0.07845666 0.0016226806 0.05387404 0.27968624
00000000: 8cc9 a9bc f74a b7be 82fb d1bd d867 6b3d
00000010: b632 b0bd ed68 8c3b bdec b7be f5ec 093f
00000020: 8b25 2ebe 02c5 853d 5326 4abe bb76 c03d
00000030: 7ba9 aebd fb22 76be 0dfd 7b3e 3e0d cfbd
00000040: d96f c0bd 8e93 d3be 70e8 953e fcc0 e43d
00000050: f2da eebc aaf0 1bbc 4c9d 973e 3383 e23e
00000060: c019 56be 8c80 95be f3b9 55be 9784 2c3e
00000070: e3ad a0bd 20b0 d43a 06ab 5c3d 0933 8f3e

actor.2.weight f4 [32, 32]
0.18017271 -0.57085156 0.05848421 -0.06284664 -0.008327487 0.21967569 0.04262139 -0.13008562
-0.22308184 0.029204873 0.20438574 0.10631857 -0.13672599 0.12099521 0.0037215333 -0.09546292
-0.17255977 -0.18488571 -0.013377751 -0.23180248 -0.002826431 0.080567375 -0.068724945 -0.1780028
-0.22113334 -0.22742954 -0.19673671 0.28109744 0.19162968 0.20468242 -0.11039849 0.16731754
-0.04128286 -0.3750226 -0.0361055 0.11219447 0.19984145 -0.20307112 0.04152814 -0.38236976
-0.085730754 -0.051868632 0.31055638 -0.025006048 -0.30802757 0.07804499 0.0726216 -0.2883785
-0.036440104 -0.30441326 -0.22046505 -0.26634115 0.24620333 0.09968574 -0.008858194 -0.18827735
-0.08990957 -0.0027012688 0.06398402 -0.22764109 0.035924125 -0.11921224 0.04249695 0.16567437
0.17868705 0.18042795 0.022364816 0.06072914 0.054393016 -0.123249345 -0.19608633 0.17579114
0.045016 0.037994206 0.13989083 -0.28226122 -0.029373001 0.014163408 0.077259116 0.10027143
-0.28551283 0.027391195 -0.0804955 -0.038174864 -0.20641093 0.11617826 0.030843511 -0.10003225
-0.26847216 0.079367176 0.18180497 -0.0059249466 0.038797494 -0.025021145 -0.13897745 0.09748448
0.2245798 0.20048355 -0.051427484 -0.043078247 -0.015106805 -0.13120967 -0.03078674 -0.5379882
-0.83300257 0.016888691 -0.74929893 -0.015079296 -0.45703518 -0.5517416 -0.009446618 0.19827916
-0.17561606 -0.15080497 0.036302604 0.27693748 -0.021859072 0.21691312 -0.28699464 -0.10240504
-0.061230235 -0.039510783 -0.07521623 0.26020554 -0.30259532 -0.05908734 0.015182103 0.021736216
-0.22712423 0.045233782 0.4642403 -0.04363739 -0.081110075 0.003483409 -0.0144040575 0.5206803
-0.07840557 -0.23565646 -0.05373797 -0.33842525 -0.26545468 -0.22229391 0.17009126 0.04359524
0.17214367 -0.3705542 0.27306747 -0.13364583 -0.048946295 0.18389204 0.0014299109 -0.61562705
0.18990573 -0.40969378 -0.111093156 0.18431917 0.03429069 0.09156445 0.028540105 0.3044849
0.02770886 -0.03158164 -0.16394393 -0.067445606 -0.1825212 -0.05461952 -0.12321388 -0.10419258
-0.05931754 -0.07915464 -0.09592507 -0.046105605 -0.093154006 0.14856069 -0.14422138 6.879114e-05
0.0076245964 0.12649338 -0.15999077 -0.028536174 -0.18690182 -0.027754588 0.020411074 -0.06918092
0.054374393 -0.047328845 0.07346648 -0.1514239 0.04708795 -0.14638293 0.11318059 -0.117695235
-0.1192069 0.047106117 0.12835576 0.06634632 -0.20327342 0.012337764 0.08419573 0.0602805
-0.08189207 0.09504305 0.0245911 0.07640266 0.104995504 0.05269695 -0.078781426 0.09317666
0.017021636 -0.049008932 -0.03738463 0.05868045 0.2572712 -0.20808591 0.13772042 0.09378802
-0.062152345 0.04453295 -0.127975 -0.3651061 0.12355482 0.13317265 -0.3282953 0.09622444
0.06987005 -0.051260218 0.15087484 0.1142027 -0.120664924 -0.06324814 0.020847868 -0.15242329
0.14915061 0.18836065 -0.21014471 -0.30498502 0.040098455 0.1212187 -0.18228848 0.1882968
-0.12502766 -0.123688 0.08597505 0.20946856 0.033376355 0.23972918 -0.044976637 0.11896951
-0.06455693 -0.035140567 0.26515615 -0.40293413 0.13964757 -0.22096547 -0.087514445 -0.13848187
00000000: 327f 383e 5423 12bf 248d 6f3d bdb5 80bd
00000010: 0370 08bc aaf2 603e c493 2e3d 2a35 05be
00000020: 916f 64be 0f3f ef3c 7f4a 513e 8dbd d93d
00000030: e601 0cbe 56cc f73d f8e4 733b 1082 c3bd
00000040: 82b3 30be ae52 3dbe 5b2e 5bbc a15d 6dbe
00000050: a53b 39bb 8200 a53d aabf 8cbd 5e46 36be
00000060: c770 62be 4ae3 68be 5975 49be 01ec 8f3e
00000070: 923a 443e 4598 513e 9b18 e2bd 4a55 2b3e
00000080: 3718 29bd f602 c0be 5ce3 13bd 37c6 e53d
00000090: 3da3 4c3e e0f1 4fbe 6919 2a3d f8c5 c3be
000000a0: 9b93 afbd 3474 54bd 3f01 9f3e 7cd9 ccbc
000000b0: cab5 9dbe 0dd6 9f3d a2ba 943d 59a6 93be
000000c0: 3842 15bd 0edc 9bbe 97c1 61be de5d 88be
000000d0: ba1c 7c3e 0a28 cc3d f521 11bc c7cb 40be
000000e0: 8222 b8bd c507 31bb 0e0a 833d bf1a 69be
000000f0: 2d25 133d 8c25 f4bd 4811 2e3d 8ba6 293e
00000100: bdf9 363e 1bc2 383e 6b36 b73c 1ebf 783d
00000110: 36cb 5e3d 276a fcbd dbca 48be 9802 343e
00000120: b262 383d d09f 1b3d 8b3f 0f3e 8b84 90be
00000130: a69f f0bc a40d 683c 073a 9e3d 1c5b cd3d
00000140: bd2e 92be 8063 e03c d3da a4bd 3f5d 1cbd
00000150: 635d 53be deee ed3d 88ab fc3c b5dd ccbd
00000160: 2f75 89be 428b a23d 152b 3a3e 0e26 c2bb
00000170: 1fea 1e3d 25f9 ccbc 1b50 0ebe f1a5 c73d
00000180: 3ff8 653e 8f4b 4d3e a0a5 52bd d172 30bd
00000190: 8882 77bc d45b 06be 7934 fcbc 98b9 09bf
000001a0: a83f 55bf 275a 8a3c 0ed2 3fbf 270f 77bc
000001b0: 8400 eabe f03e 0dbf fdc5 1abc b109 4b3e
000001c0: b2d4 33be 9e6c 1abe 0ab2 143d c0ca 8d3e
000001d0: cc11 b3bc 791e 5e3e f6f0 92be bcb9 d1bd
000001e0: 8ecc 7abd 0fd6 21bd f70a 9abd a939 853e
000001f0: c6ed 9abe 9105 72bd 5bbe 783c 2610 b23c
00000200: 4193 68be 0f47 393d e8b0 ed3e 1fbd 32bd
00000210: 0a1d a6bd e849 643b fffe 6bbc 4e4b 053f
00000220: 1993 a0bd ed4f 71be 581c 5cbd 1346 adbe
00000230: ade9 87be 04a1 63be 672c 2e3e ec90 323d
00000240: 6e46 303e 48b9 bdbe 80cf 8b3e 74da 08be
00000250: e97b 48bd 324e 3c3e d96b bb3a bc99 1dbf
00000260: a676 423e 62c3 d1be cf84 e3bd 2abe 3c3e
00000270: 6574 0c3d 2486 bb3d f0cc e93c 72e5 9b3e
00000280: b1fd e23c c05b 01bd ebe0 27be ec20 8abd
00000290: d6e6 3abe b8b8 5fbd 8f57 fcbd eb62 d5bd
000002a0: f3f6 72bd d41b a2bd 5d74 c4bd 3bd9 3cbd
000002b0: 87c7 bebd 4b20 183e c5ae 13be f643 9038
000002c0: c0d7 f93b 7b87 013e 9fd4 23be b2c4 e9bc
000002d0: 3163 3fbe 975d e3bc 2035 a73c baae 8dbd
000002e0: afb7 5e3d e4db 41bd 9875 963d de0e 1bbe
000002f0: 4bdf 403d 68e5 15be 3acb e73d 330a f1bd
00000300: bf22 f4bd 58f2 403d b16f 033e 94e0 873d
00000310: e826 50be 5524 4a3c d06e ac3d b0e8 763d
00000320: 08b7 a7bd eea5 c23d 4673 c93c ff78 9c3d
00000330: e207 d73d c2d8 573d 2858 a1bd 68d3 be3d
00000340: f570 8b3c 97bd 48bd a020 19bd e95a 703d
00000350: 0db9 833e 7914 55be 9506 0d3e ef13 c03d
00000360: 7593 7ebd 2f68 363d e10b 03be 30ef babe
00000370: 4f0a fd3d 695e 083e 5216 a8be 5211 c53d
00000380: 0718 8f3d 3cf6 51bd ef7e 1a3e 1be3 e93d
00000390: 2c1f f7bd 3e88 81bd 26c9 aa3c da14 1cbe
000003a0: f0ba 183e 9de1 403e 2d30 57be ff26 9cbe
000003b0: 473e 243d 8341 f83d d5a9 3abe e0d0 403e
000003c0: 4007 00be 2250 fdbd b013 b03d ed7e 563e
000003d0: a5b5 083d 917b 753e 6c39 38bd 49a6 f33d
000003e0: 6c36 84bd 8eef 0fbd 8cc2 873e 624d cebe
000003f0: c6ff 0e3e c644 62be c63a b3bd 31ce 0dbe

actor.2.bias f4 [32]
-0.083826244 -0.092249855 -0.21361703 -0.15262906 -0.046576954 0.07182315 -0.2626831 0.26582238
0.25959733 -0.16120048 -0.14147374 -0.120811045 -0.012817262 -0.3338734 -0.023344986 0.12586607
-0.05445507 0.041443206 -0.16117293 -0.092401154 0.032066856 0.12457176 0.17526977 -0.050570674
-0.02631798 -0.33207902 0.030953323 -0.240202 0.047454894 -0.04226387 -0.2083259 -0.09572014
00000000: 18ad abbd 7eed bcbd 6cbe 5abe cb4a 1cbe
00000010: 7ac7 3ebd 0418 933d 667e 86be df19 883e
00000020: f1e9 843e bd11 25be 7ede 10be c86b f7bd
00000030: 7eff 51bc 74f1 aabe fc3d bfbc 09e3 003e
00000040: 480c 5fbd 5ac0 293d 840a 25be d13c bdbd
00000050: 8958 033d 7b1f ff3d eb79 333e 3223 4fbd
00000060: ce98 d7bc 4306 aabe d391 fd3c 83f7 75be
00000070: 1060 423d e11c 2dbd 6253 55be ec08 c4bd

actor.4.weight f4 [2, 32]
0.08702409 0.31505823 -0.038711455 -0.010034382 -0.5464477 0.11686155 -0.081896715 0.19413741
-0.0011415051 -0.07892321 -0.28833476 -0.10097503 0.009406294 0.519036 0.054397773 0.14062801
1.0244445 0.3564154 -0.16291751 -0.080008484 -0.03437405 0.15732639 0.183308 -0.009856614
0.2135554 -0.085801296 0.017298536 0.27948126 0.24260731 -0.34066087 -0.17002662 -0.0879532
0.02944318 -0.20975816 0.072747394 -0.29114193 0.2743014 0.09353704 0.20588204 -0.2554504
-0.2558973 -0.60746205 0.14378437 -0.13311522 -0.17621318 0.23925464 -0.2180459 0.1146721
0.1647908 0.14351268 0.14089724 0.36109775 -0.5027769 0.102717556 0.14290664 -0.33507884
-0.44854087 0.13037182 -0.4336973 0.26762536 0.59181666 0.13434656 -0.13726103 -0.13561867
00000000: b039 b23d 504f a13e e78f 1ebd 4067 24bc
00000010: ffe3 0bbf 1c55 ef3d 77b9 a7bd f5cb 463e
00000020: 8e9e 95ba 7ea2 a1bd 9da0 93be ffcb cebd
00000030: db1c 1a3c 8bdf 043f 33d0 5e3d ca00 103e
00000040: ff20 833f 147c b63e d9d3 26be 7ddb a3bd
00000050: cecb 0cbd 2b1a 213e 18b5 3b3e a37d 21bc
00000060: 44ae 5a3e 97b8 afbd a9b5 8d3c 2b18 8f3e
00000070: 0d6e 783e 1a6b aebe 751b 2ebe cf20 b4bd
00000080: d332 f13c d8ca 56be 96fc 943d 8e10 95be
00000090: 3c71 8c3e 5990 bf3d bed2 523e 65ca 82be
000000a0: f904 83be a282 1bbf 363c 133e 5b4f 08be
000000b0: 3a71 34be 2bff 743e 6d47 5fbe 35d9 ea3d
000000c0: ebbe 283e fdf4 123e 5e47 103e cee1 b83e
000000d0: fdb5 00bf 955d d23d 1e56 123e 748f abbe
000000e0: 26a7 e5be 3180 053e 930d debe 3106 893e
000000f0: 4c81 173f 2592 093e 288e 0cbe 9fdf 0abe

actor.4.bias f4 [2]
0.1619936 -0.13283439
00000000: a6e1 253e bd05 08be
