results/SandingEnvMiddle/ddpg/model/model_parameters_0.pt (torch, 32386 bytes, 22 tensors)

value.0.weight f4 [32, 12]
000000 6c 72 47 be 0c 55 c0 bb 25 bb c8 3d 8a b4 8e bd
       -0.19477242 -0.0058695134 0.0980132 -0.06968029
000010 c9 45 23 bd f4 22 60 be c7 77 95 be 10 cf 77 bc
       -0.039861474 -0.21888334 -0.29192945 -0.015125051
000020 e3 1a 04 3e 60 57 68 be 61 1f 2c bf d5 5b 9c be
       0.12900881 -0.22689581 -0.6723538 -0.30538812
000030 32 57 4c 3e a1 b4 9d bd 75 90 66 be 8c 8f 66 bd
       0.19955137 -0.07700468 -0.22516043 -0.05628924
000040 c3 ab 18 be 2f 56 f4 bd d1 4f 94 3d e7 18 02 be
       -0.14909272 -0.11930501 0.07241786 -0.12704812
000050 82 5b b6 3e fc 23 de 3d cc 50 06 40 62 e3 e4 be
       0.3561669 0.10846707 2.0986814 -0.4470473
000060 fc f5 88 bd a9 60 c9 bd f0 50 03 be c8 c2 02 3e
       -0.06687543 -0.098328896 -0.12823844 0.12769616
000070 0b 8f 1a 3e f1 4c ee 3d f3 33 a5 bd c1 69 bb be
       0.15093629 0.11635769 -0.08066549 -0.3660412
000080 65 06 6a 3e 50 a4 a7 be 0e 9c d1 bf f0 16 a6 3f
       0.22854002 -0.32742548 -1.6375749 1.297575
000090 b4 ee 45 be 26 03 37 3c 12 48 31 3d 04 c3 9d 3d
       -0.1932934 0.011170184 0.043281622 0.07703212
0000a0 0c 60 00 3e 72 38 8b 3e f4 96 d0 bc 92 dc e4 3d
       0.12536639 0.27191502 -0.025462605 0.11174883
0000b0 41 05 9c 3e ca c7 50 bb 41 7d f7 3e de b7 4d 3b
       0.30472758 -0.0031857365 0.4833775 0.003139011
0000c0 09 08 d2 bd ac 6e 6f be 10 6d 98 bd fc 18 01 bd
       -0.10255439 -0.23382062 -0.07442677 -0.031517968
0000d0 e0 c9 d1 bd 87 ca d8 bc 64 ca 19 bd 3e b7 96 3e
       -0.10243583 -0.02646376 -0.03754653 0.29436678
0000e0 8c 98 61 be e9 e6 72 3e eb 0b 5e 40 79 17 45 3b
       -0.22030848 0.23720898 3.4694774 0.0030073805
0000f0 44 1c 30 3d 4f de 49 be 82 62 a2 3d 35 d7 75 3b
       0.042995706 -0.1971371 0.07928945 0.0037512307
000100 d8 af 4c 3e 76 eb ef 3d 9d 14 7b be 9b 95 75 3e
       0.19988954 0.117148325 -0.24519582 0.23982851
000110 e0 df 01 be bf ee 69 3e 8e de 3b 3f fd 0d 2d bf
       -0.12683058 0.2284498 0.73386467 -0.6759947
000120 38 c3 37 3e 5f 08 55 3c a6 b5 9d 3c 6d b7 37 3c
       0.17945564 0.013002484 0.019251656 0.011213166
000130 5a 69 e6 3c 84 80 51 bd a4 76 ad be ac 58 e8 3c
       0.028126407 -0.051147953 -0.33879578 0.028362595
000140 41 42 58 3e f2 77 63 be d2 22 06 3f 0d 60 32 3f
       0.21119024 -0.22213724 0.5239688 0.6967781
000150 97 3b 3b be 5c 5c 55 3e 21 67 2c 3e c6 d0 24 3d
       -0.1828445 0.20836014 0.16836216 0.040238164
000160 2f a2 e5 3d 3b 1f 35 bc 02 c3 3a 3b b7 3b a2 3e
       0.11212575 -0.011054809 0.0028497581 0.31686184
000170 6b 63 2e 3e ba a9 a0 bd 49 e4 74 3f 99 b5 47 3f
       0.17030112 -0.07844873 0.95660836 0.7801147
000180 34 92 64 3e b6 9a 4f 3d 09 6c c0 bd 5c 69 c1 3c
       0.22321397 0.050684653 -0.09395606 0.02360981
000190 79 0e ca bd a6 88 b8 bd 0f 69 fa 3c 78 6b 1d 3e
       -0.09866042 -0.090104386 0.030567674 0.15373027
0001a0 59 68 60 3e a4 98 6a 3e 2f e2 2a 3e e5 f1 98 3f
       0.21914805 0.2290979 0.16687845 1.194882
0001b0 53 34 3f bd 4f c0 87 bb ba 3c 0b bf f7 bd 98 3e
       -0.04668076 -0.004142798 -0.54389536 0.29832432
0001c0 9b 50 0a 3c 40 90 1b 3e 42 b0 bd 3e c9 94 2d bd
       0.008442069 0.15191746 0.37048537 -0.04237822
0001d0 9a d7 19 3e da 95 7c bd fc 79 3a bd 93 5d 51 3d
       0.15023652 -0.061666347 -0.04552649 0.05111463
0001e0 94 c4 7a 3d fb 26 b4 bd 1a 24 c8 bc 44 c6 8e bc
       0.061222628 -0.087964974 -0.024431277 -0.017428525
0001f0 11 62 e4 3a 44 1d eb 3c a8 07 60 be 0e 35 ba bd
       0.0017424246 0.028700478 -0.2187792 -0.09092151
000200 8b 6b 46 be 1a 12 31 3e 69 52 0a c0 d9 0e 57 3e
       -0.19376962 0.17292061 -2.16128 0.21001758
000210 51 bb 02 be ac 56 24 be eb 5d 81 bb 6d 5f d8 3c
       -0.12766768 -0.16048688 -0.0039479635 0.02641269
000220 bd 6d 13 be 1a 30 e7 bd 68 8a 9e 3d ad fe 64 be
       -0.1439733 -0.112884715 0.07741243 -0.22362776
000230 00 9e 11 be 48 35 11 be cf aa 19 c0 76 42 87 3d
       -0.14220428 -0.14180481 -2.4010503 0.06604473
000240 5e 57 0f be ff 70 0e be 98 50 85 bd e2 f0 40 3e
       -0.13998172 -0.13910292 -0.06509513 0.1884189
000250 10 b3 6d be 59 bf 58 be 38 c8 01 bd e4 3f 99 3e
       -0.23212838 -0.21166743 -0.031685084 0.29931557
000260 35 5d a6 3d de ef 92 3d 6b 9e 6d 3f 17 09 ac 3d
       0.081232466 0.07174657 0.9281985 0.08400171
000270 58 55 90 ba 70 64 12 3e 2e 07 19 bd 40 e8 cd 3c
       -0.0011011763 0.14296126 -0.037360363 0.02513516
000280 1a ed d2 3c 60 cb 8a bb 4a 52 41 be 74 8c 57 be
       0.025747824 -0.00423567 -0.18879047 -0.21049672
000290 64 19 1d bc 21 da 37 be e1 b1 50 bf 6c 97 64 be
       -0.009588573 -0.17954303 -0.8152142 -0.22323388
0002a0 2d 4e d3 bd eb bb 00 3e 06 bd a7 3e dd b5 f5 bd
       -0.10317645 0.12571685 0.327614 -0.11997578
0002b0 74 d2 e0 3d 5c c4 66 3e 3a 97 ef 3d a2 4c 50 3d
       0.10977641 0.22535843 0.11698766 0.050854333
0002c0 75 85 ca bd 2e 6f 6a 3e f3 22 11 3f ee 3b 68 3e
       -0.09888736 0.22893974 0.56693953 0.22679111
0002d0 f6 33 74 bd 0b a9 38 be 8f e1 f0 bd 27 e7 aa bd
       -0.059619866 -0.18033235 -0.11761772 -0.0834487
0002e0 74 c6 47 be 7b 1a 90 3d 38 b1 de 3d 37 52 38 be
       -0.19509298 0.07036301 0.108736455 -0.18000112
0002f0 c2 ee 97 bd 1a d8 44 be dd f3 b2 bf 60 f8 a1 3e
       -0.07418586 -0.19223061 -1.3980671 0.31634808
000300 23 23 2b be 1f ca f4 bc 68 2f 52 bd 73 f5 40 bc
       -0.16712622 -0.029881535 -0.05131474 -0.01177727
000310 18 fb a8 3d e9 15 35 be ca 4d 4d be 10 5c 4f 3e
       0.08251017 -0.1768414 -0.20049205 0.20249963
000320 9b 43 25 3d cb 11 47 3e 7b 2f ad be 54 0e a7 3f
       0.040347677 0.19440381 -0.33825287 1.3051248
000330 a1 41 29 3e e9 21 ee bd e9 15 35 bc cb fc 44 bd
       0.16528942 -0.116275616 -0.011052587 -0.048092645
000340 2e 43 dd 3d fc 09 06 3c aa 6c 8e be 8f 7e 30 3e
       0.10803829 0.008181091 -0.2781728 0.17235778
000350 ca e6 a4 3e 1c 01 90 3c 17 f3 8a 3f 0c 31 6c 3f
       0.32207328 0.017578654 1.0855435 0.9226234
000360 ae 97 d1 3c c7 de c7 bd fc 5c c1 be 56 71 a0 3c
       0.025585022 -0.09759288 -0.37766254 0.019585293
000370 e2 1d 59 bd 29 58 60 bd ad 0c 06 3e a3 8b 91 3e
       -0.053007014 -0.054771576 0.13090773 0.28426847
000380 ac e2 44 be 0f f7 70 be 65 52 c7 3e e0 28 4a bf
       -0.19227093 -0.23531745 0.3893005 -0.7896862
000390 ee 80 03 3d 14 7e f0 3c 3c 83 b9 be dd 68 92 bd
       0.03210538 0.029356994 -0.36232936 -0.07148907
0003a0 d8 35 17 bd 21 bc e1 bc d9 c6 0e 3e 9c 76 f1 bd
       -0.036916584 -0.027555527 0.13943042 -0.11790201
0003b0 7e 93 55 bd 44 b8 94 be 72 9f c4 bf 42 6e 86 3d
       -0.052142613 -0.29046834 -1.5361159 0.06563999
0003c0 f2 52 0f bc f4 7b b3 bd d5 2f 41 be 95 c5 69 bd
       -0.008747803 -0.087638766 -0.18865903 -0.057073195
0003d0 ce 47 37 3e a0 c5 06 be 7b c3 8b bd 2b 94 6b 3d
       0.17898485 -0.13161325 -0.06824394 0.05751435
0003e0 9a 53 84 be e8 5a 44 be 87 06 7f bf 18 05 e9 be
       -0.25845033 -0.19175303 -0.99619335 -0.455117
0003f0 52 7d bb 3b cb 8a 97 bd ba 43 07 be 8d b5 20 be
       0.0057217265 -0.073995195 -0.1320943 -0.15694256

value.0.bias f4 [32]
000000 40 73 3c be a0 f2 01 bf 37 3b a1 3d 0f b6 d6 bd
       -0.1840334 -0.5076084 0.078726225 -0.10483944
000010 8b f2 1e 3e dd d9 21 3d f3 a6 8a 3e f4 2f 89 be
       0.1552221 0.03951441 0.27080497 -0.26794398
000020 76 a3 39 3e d1 85 06 3e b6 4a 4d 3e fc 22 2f 3e
       0.18128762 0.13136984 0.20048031 0.17103189
000030 3c 6d 71 be be 00 8b be a4 06 f1 3d 9d 41 77 3e
       -0.23576826 -0.27149004 0.11768845 0.24146123
000040 9f 04 6e be 8c f2 3e be 7f 01 4d 3d ac 3a 38 3e
       -0.2324395 -0.18647212 0.050050255 0.17991132
000050 64 8b 2d bd b0 1d ed be c7 25 06 3e 0c 2e 65 3e
       -0.04236926 -0.46311712 0.13100348 0.22380847
000060 da f2 e6 3c e0 48 59 3c cb 00 dc 3d 8c 19 22 bd
       0.028191973 0.013262004 0.10742339 -0.039575145
000070 42 4d 0a 3e 97 00 f2 3d 27 31 80 be 0a 06 ca 3d
       0.13506034 0.11816519 -0.250375 0.09864433

value.2.weight f4 [32, 32]
000000 fa c3 a8 3d 5d 75 5c 3e ff e1 b2 3d 57 72 68 bd
       0.082405046 0.21529146 0.087345116 -0.056749668
000010 76 02 70 3d c6 27 16 3e 36 90 13 be e7 3d 54 3d
       0.058596097 0.1466361 -0.14410481 0.051816847
000020 29 ee 6a 3d d6 e0 17 3e c4 4b c9 3d 43 ef 01 be
       0.057356033 0.14831862 0.09828904 -0.12688927
000030 ab 93 23 be 1c 49 1a be 07 0e bd 3d fb 55 82 bd
       -0.159743 -0.15066952 0.09231191 -0.06364056
000040 51 ab c9 bd 5e 42 0a 3e 79 3e 18 3c 6b b4 0d 3e
       -0.09847129 0.1350188 0.009292238 0.13838355
000050 38 0b dc 3d 0e 7d df bd 53 55 18 bf f3 cf d7 3d
       0.10744327 -0.10912524 -0.59505194 0.1053771
000060 ff 51 7f bc 1c f6 5f 3d 5a 1e c5 3d b6 73 10 bf
       -0.015583514 0.054678068 0.0962493 -0.5642656
000070 65 45 14 3e f7 b6 c8 bd db 80 09 be 8e 0a c3 3d
       0.14479597 -0.09800523 -0.1342806 0.095234975
000080 d0 0a 00 be 8d 0a f8 3d 40 41 82 3c 58 6f c3 bd
       -0.12504125 0.121113874 0.015900254 -0.095427215
000090 fe 42 34 3e 4c 35 10 3e 6c 96 6e 3e 36 82 3c bd
       0.1760368 0.14082831 0.23299569 -0.046022616
0000a0 1f fa 5e be 50 98 ae 3d 1a 8b ba be d6 f7 6b be
       -0.21775101 0.08525145 -0.3643425 -0.2304376
0000b0 4a 09 43 bc c4 f4 01 bf fb 77 38 bd 1d ec ae 3d
       -0.01190407 -0.5076411 -0.045036297 0.08541129
0000c0 68 a9 14 be dc ef 7f 3d 66 04 3e 3e 65 6e 8b be
       -0.14517748 0.062484607 0.18556365 -0.27232662
0000d0 d4 e2 e4 3c b5 02 2f be 0c 2e 9f 3d b4 3b 8a 3e
       0.027940191 -0.17090876 0.077724546 0.26998675
0000e0 96 90 cf 3d 5e a9 2a 3e 21 44 a9 be 5b a3 16 be
       0.101349995 0.16666171 -0.3305979 -0.14710753
0000f0 06 ce f2 3d 68 25 23 3d 26 aa a1 be 05 eb 2c 3e
       0.11855702 0.039830595 -0.31575125 0.16886528
000100 95 5b 11 bb ad d2 8b bd cf c4 30 3d da 2b 3d 3e
       -0.0022179831 -0.068272926 0.04315644 0.1847376
000110 cb 1a 67 bc 1c df b6 3d 45 50 b3 3d fd 36 6b bd
       -0.014105509 0.089292735 0.087555446 -0.057425488
000120 71 b3 cd bd 99 2f 6c 3e 66 f5 b7 bc 7c 45 78 3d
       -0.10043991 0.23065032 -0.022455882 0.06061314
000130 8e 57 1e be cd fc 93 bd 09 5a 95 bd 16 ac 86 3d
       -0.15463087 -0.07225952 -0.072925635 0.065757915
000140 bc e2 3a be 42 13 28 3e 05 f6 bc bd 06 62 8f 3b
       -0.18250555 0.16413596 -0.09226612 0.004375699
000150 74 5e 5c bc 5d e2 97 be 5d 80 19 bd cf 4f b6 3c
       -0.013450254 -0.2966489 -0.037475932 0.022254853
000160 bd e6 0b be af fe 61 3e 2f 88 58 be e4 c3 27 be
       -0.13662238 0.2206981 -0.211457 -0.1638332
000170 ad 9e 1c 3e 37 a6 a7 be f7 f3 e1 3c ad f8 1c be
       0.15294905 -0.32744 0.027582152 -0.15329237
000180 71 3f aa bd 02 c1 03 be 6d 51 c0 3d 30 73 87 bc
       -0.08312882 -0.12866595 0.09390531 -0.016534418
000190 c4 b3 7d bd 76 26 d3 bd 56 4e 16 bd 73 45 15 3d
       -0.061939016 -0.1031007 -0.0366958 0.036443185
0001a0 06 5e 1f 3e 2e 5e 59 3d 84 9d 2b be 95 0a b1 3d
       0.15563211 0.053068332 -0.16759306 0.086445965
0001b0 af c1 d8 bd d5 44 fe bd c6 a4 90 ba 5d a2 31 bd
       -0.10583817 -0.124154724 -0.0011035434 -0.043367732
0001c0 52 f3 01 bc fb 6f dd bd d6 6f 00 be 08 e7 7c 3e
       -0.007931547 -0.10812374 -0.12542662 0.24697506
0001d0 34 6a 15 3e 41 12 42 3b e1 e3 45 be 7d 4c 9f 3c
       0.14591295 0.002961293 -0.1932521 0.019445652
0001e0 e6 39 fe bb ac f8 0d 3e 2b 23 2c 3e 97 5a 7e 3e
       -0.007758367 0.13864392 0.1681029 0.24839245
0001f0 24 d3 55 be 6e e3 40 be 07 cc 64 3d 8e 57 ac bb
       -0.20881325 -0.18836758 0.05585864 -0.005259461
000200 f0 3b 0f 3e 8a b0 17 3e 1a c9 be 3c 23 09 08 be
       0.13987708 0.14813438 0.023289252 -0.13284735
000210 88 1f 5a 3c e8 db aa bd da 3a db bd dc 75 15 3d
       0.013313182 -0.08342725 -0.107045844 0.036489353
000220 cb 50 33 3d 45 26 a0 bd 8d 8b fb 3d bf e4 8d bd
       0.043778222 -0.07819799 0.122824766 -0.069283955
000230 c0 78 18 be 2d fb 5a 3d 3a 1e ea bd 87 fb df bd
       -0.14889812 0.053462196 -0.114315465 -0.10936647
000240 0a ba 38 3e 3c 89 1f bd e5 30 4a bc c7 0a 03 bd
       0.18039718 -0.038949236 -0.012340759 -0.0319927
000250 04 9b 86 bd 06 35 46 3d f8 e6 c9 bd 64 79 c9 3d
       -0.06572536 0.04839041 -0.09858507 0.098376065
000260 8f 2d d0 bd 0b 5e 21 3d e0 99 20 be d7 dc ab 3d
       -0.101649396 0.039396327 -0.15683699 0.08391731
000270 53 cd 26 bd c8 60 37 be 32 ec 4d 3d 61 d4 09 bd
       -0.040723156 -0.17908013 0.05027408 -0.033649806
000280 c6 0f 8c 3c 8d a0 15 be 23 5f 24 bb e2 52 87 3d
       0.017097365 -0.14612027 -0.002508112 0.066076055
000290 ef d9 8c 3d 19 73 ff bd 92 23 e3 bd 18 b7 2b 3e
       0.06877505 -0.12473125 -0.11090769 0.16769063
0002a0 e8 f6 92 3e 96 0f 55 3d d1 30 50 3e 32 47 93 3d
       0.28704 0.052016817 0.20331122 0.07191314
0002b0 f3 2a 8f 3d 32 48 75 3c d1 97 19 be 0a 49 4f bd
       0.06990614 0.014970826 -0.1499932 -0.050606765
0002c0 6a 4b 1e 3e 6c bf 09 be 33 3d f7 bc 37 7a ba 3d
       0.15458456 -0.13451928 -0.03018055 0.09105342
0002d0 aa d5 8b 3d 7a 63 19 bd fa 18 95 bd 9a 5e db 3d
       0.068278626 -0.037448384 -0.072801545 0.10711403
0002e0 e4 49 24 be 1e 78 80 b9 b6 89 2d bd 4a 06 fc 3d
       -0.16043812 -0.00024503557 -0.04236766 0.12305887
0002f0 ac d1 c3 bd 02 b5 10 be f0 3b 2e 3e 1b fb 5c 3c
       -0.09561476 -0.14131549 0.17015052 0.013487603
000300 94 b4 ad 3d 9e 03 ca 3d 1b e7 cb be 8b 4c 49 3e
       0.08481708 0.09863971 -0.39824757 0.19658105
000310 51 60 c3 3e ec 6a 9e 3e 81 d2 a2 bd cb b7 40 be
       0.3815942 0.3094095 -0.07950307 -0.18820111
000320 73 42 92 3e 14 39 4e bd 4d 6d 49 be be 33 85 be
       0.28566322 -0.050347403 -0.19670601 -0.2601604
000330 50 fe 3e bd db d4 82 3d 4e c4 11 be c5 63 fe 3c
       -0.04662925 0.06388255 -0.1423504 0.031053433
000340 ed a3 a0 be e6 5c a2 bd 3c 0e 67 3d 0c 08 98 3d
       -0.31375065 -0.07927875 0.05641006 0.0742341
000350 e3 93 e1 3d cb f9 86 be c9 bc 16 3e 11 c7 54 be
       0.11014535 -0.26362452 0.14720453 -0.20779063
000360 bd 9b 8d be c4 ba ee bd fa a8 2d be 5a 9b 85 bd
       -0.2765788 -0.116567165 -0.1695899 -0.065237716
000370 9a 38 0e 3e cb 48 67 bd 35 43 67 be d7 66 48 3e
       0.1388878 -0.056465905 -0.22584231 0.1957048
000380 bb e8 34 3e c5 e0 83 bc fc b9 62 be 5d e3 ce bd
       0.17666905 -0.01609839 -0.2214126 -0.1010196
000390 1b f7 f8 3d 88 e5 da bd 7b e4 de bd 22 74 1b bc
       0.12156507 -0.10688311 -0.10883423 -0.009488137
0003a0 28 c7 c2 3d eb 07 87 3d f9 61 07 bd f1 d2 05 3e
       0.09510642 0.06593307 -0.03305242 0.13068749
0003b0 64 e1 16 3e 04 5c ae 3d b3 1d 0d bc 2d b8 bf bd
       0.14734417 0.08513644 -0.008613038 -0.093613006
0003c0 1c 47 8d 3d 2a bb e3 3d b2 6b 66 3d 1a 61 16 be
       0.06898329 0.11119683 0.05625505 -0.14685479
0003d0 c4 c6 b9 bc ea 6a a6 bc 52 07 55 bd 2b 34 dc 3d
       -0.022677787 -0.020314652 -0.052008934 0.10752138
0003e0 c6 d1 3b 3e 07 f0 81 3d b3 9d 70 bd 65 97 ae 3d
       0.18341741 0.0634461 -0.058744144 0.0852497
0003f0 68 98 65 3d 04 fe dd bb 00 27 4f be 33 f1 5b be
       0.05605355 -0.006774666 -0.20229721 -0.21478729

value.2.bias f4 [32]
000000 7f cd 81 be 5b 3a 76 bd 0e 72 f9 3d bf 50 79 bd
       -0.25352094 -0.060114246 0.12179957 -0.06086802
000010 0b 4e 47 3d ec 83 53 3e cf 97 f5 bd c8 b7 5f 3c
       0.048658412 0.20655793 -0.11991846 0.013654657
000020 26 c3 35 3d e5 86 5e be 3f 84 9d 3d 3d 94 82 ba
       0.04437556 -0.21731146 0.076912396 -0.0009962391
000030 ce d7 b0 bc e3 d6 81 3e 20 9d 00 3c 9a ff 3c be
       -0.021587279 0.25359258 0.0078499615 -0.1845688
000040 50 53 1f 3e 74 76 de bd 08 0a 9c 3d f4 ad 00 3e
       0.15559125 -0.10862437 0.07619101 0.12566358
000050 64 1d 54 be 58 e8 2b 3e 59 0e 5a be 7b 96 f1 3d
       -0.20714337 0.16787851 -0.21294536 0.1179628
000060 ee 78 55 be 7c 66 e0 bd 91 2c 37 bd 32 8b a4 3e
       -0.20846912 -0.10957047 -0.044720236 0.32137448
000070 48 b7 08 be 1c a2 39 3e 26 13 3f be 87 8e b3 3e
       -0.13351166 0.18128246 -0.18659648 0.35069677

value.4.weight f4 [1, 32]
000000 6e 6c 5f bd 0b e9 9e be bf 9f be 3d d4 eb 17 bd
       -0.054546766 -0.31037173 0.09307813 -0.037090138
000010 02 fd 22 bd fd 72 2c 3d 28 9b ba 3e cf c4 65 bd
       -0.03979207 0.04210185 0.364465 -0.056095894
000020 40 3f 12 3d 8d 99 46 bd 11 f5 22 be 5d c5 54 3d
       0.03570485 -0.04848628 -0.15913798 0.051946033
000030 07 91 fb bc 61 59 10 3d 6c a2 60 3d 92 1c f5 bd
       -0.030708803 0.03524149 0.054842398 -0.1196834
000040 a9 21 e4 3d bf 49 58 3d dd 78 38 3d db e5 c8 3c
       0.11139233 0.052804705 0.04503714 0.024523666
000050 91 43 13 3e e2 e3 9b 3c 2f f1 0f 3d 19 f1 57 3e
       0.14381243 0.019029561 0.03514212 0.21088065
000060 3f 20 da 3c 05 ea 64 bd 25 2f 7b 3d 9a f6 a8 3c
       0.026626704 -0.05588724 0.061324257 0.020625401
000070 09 8b 51 bd be 72 a2 3d d8 4e a2 bc c1 bb 3b 3d
       -0.051157985 0.079320416 -0.019812986 0.045833353

value.0.weight f4 [32, 12]
000000 bb 67 47 be 2c b2 c3 bb c0 33 c8 3d 95 d3 8d bd
       -0.19473164 -0.0059721675 0.097754955 -0.06925122
000010 09 39 23 bd 7e 5d 60 be b0 84 95 be 52 6c 79 bc
       -0.039849315 -0.21910664 -0.29202795 -0.0152235795
000020 29 a9 03 3e 1a c9 68 be 19 b1 2c bf 5b 2b 9b be
       0.12857498 -0.22732964 -0.6745773 -0.30306515
000030 93 d3 4c 3e f4 4d a5 bd d0 35 66 be 6b 96 6a bd
       0.20002584 -0.08071509 -0.22481465 -0.057272356
000040 84 93 17 be 48 99 ef bd aa c3 95 3d f6 5e 01 be
       -0.14802366 -0.11699158 0.073127106 -0.12633881
000050 ba 51 b6 3e ba fc dd 3d b1 f4 05 40 8c f5 e2 be
       0.35609227 0.108392194 2.0930598 -0.44327962
000060 a9 17 8b bd 8f cd ca bd 08 26 03 be cc f2 02 3e
       -0.06791622 -0.099024884 -0.12807477 0.12787932
000070 e5 5d 1a 3e 48 92 ef 3d 3c fa a4 bd 55 5b bb be
       0.1507488 0.11697823 -0.08055541 -0.36593118
000080 c4 81 6a 3e a2 66 a7 be e0 3e d1 bf 04 76 a5 3f
       0.22901064 -0.3269549 -1.6347313 1.292664
000090 70 7c 45 be fe db 19 3c 18 b7 32 3d 03 fe 9d 3d
       -0.1928575 0.009390829 0.043631643 0.077144645
0000a0 c7 b6 03 3e 96 a6 8b 3e 64 4f cd bc 79 ae e5 3d
       0.12862693 0.27275532 -0.02506227 0.11214919
0000b0 54 bf 9b 3e 9f be 73 bb fe ba f5 3e 3a 06 18 3c
       0.3041941 -0.0037192476 0.47994226 0.009278828
0000c0 5f bd d2 bd bf 0e 6f be 8e 42 98 bd d5 5d 02 bd
       -0.10290026 -0.23345469 -0.07434569 -0.031827766
0000d0 35 4b d3 bd e1 15 cd bc ab 1e 18 bd af ec 96 3e
       -0.10317079 -0.025034847 -0.037138622 0.2947745
0000e0 e1 d2 61 be 94 ac 72 3e 16 c0 5d 40 fb 19 cc 3b
       -0.220531 0.23698646 3.464849 0.006228683
0000f0 e1 aa 32 3d ba 3d 49 be 8e 66 a1 3d 35 67 66 3b
       0.043619994 -0.19652453 0.07880889 0.003515673
000100 f9 59 4d 3e 2a 25 f2 3d 4a e6 7b be ee c3 74 3e
       0.20053853 0.11823495 -0.24599567 0.23902866
000110 73 db 00 be 2e f3 6a 3e 35 33 3b 3f 94 5b 2c bf
       -0.12583713 0.22944328 0.7312501 -0.6732724
000120 e4 cc 38 3e 87 54 5a 3c 66 a0 a2 3c 5a cf 27 3c
       0.1804691 0.013325817 0.019851875 0.010242308
000130 31 04 e4 3c 89 70 57 bd 1d ce ad be 24 e1 e2 3c
       0.02783403 -0.052597556 -0.33946314 0.027695246
000140 e9 96 58 3e 4a 23 63 be c4 4f 06 3f 38 39 32 3f
       0.21151318 -0.2218143 0.5246546 0.6961856
000150 55 81 3b be ec be 55 3e 51 f1 2d 3e f9 5b 22 3d
       -0.18311055 0.20873612 0.16986586 0.039638493
000160 60 43 e6 3d 9a 0f 28 bc 9a 92 4e 3b 58 63 a2 3e
       0.112433195 -0.010257626 0.0031520487 0.31716418
000170 42 bd 2e 3e 0b f6 9f bd 49 0d 75 3f df 67 46 3f
       0.17064384 -0.07810601 0.95723397 0.77502245
000180 3a 3d 64 3e 43 5f 52 3d 04 8e c0 bd 5e 1c c2 3c
       0.22288981 0.05136038 -0.09402087 0.023695167
000190 54 89 cc bd 8b bb bb bd 3d 4f f2 3c 37 68 1c 3e
       -0.09987131 -0.0916663 0.0295788 0.1527413
0001a0 39 46 60 3e 84 76 6a 3e ae 6f 2a 3e fc cb 97 3f
       0.21901788 0.22896773 0.16644165 1.1859126
0001b0 3d 73 3a bd 10 72 a9 ba 37 3a 0b bf 8a 6b 99 3e
       -0.045520056 -0.001292767 -0.54385704 0.29964858
0001c0 a3 80 0a 3c 23 e7 19 3e 19 f0 bc 3e 0f 96 33 bd
       0.008453521 0.15029578 0.3690193 -0.04384428
0001d0 eb ed 19 3e 81 3c 7c bd 74 13 3a bd f0 dd 40 3d
       0.15032165 -0.06158114 -0.04542871 0.047086656
0001e0 7f d3 7a 3d 4e 73 b3 bd 59 a8 c4 bc ac 2f 8e bc
       0.061236855 -0.08762227 -0.024006056 -0.017356716
0001f0 3b 7e de 3a f0 cf ee 3c bb c6 5f be 2a b3 b9 bd
       0.0016974875 0.029151887 -0.21853153 -0.09067376
000200 e6 8a 46 be bf f2 30 3e 92 2b 0a c0 a0 f9 4f 3e
       -0.19388923 0.172801 -2.1589093 0.20310068
000210 e1 2c 03 be 08 ef 24 be a3 68 9a bb ae 6c da 3c
       -0.12810089 -0.16106808 -0.0047121807 0.02666315
000220 2d cb 12 be db 40 e6 bd 3b 7e 9e 3d c8 04 65 be
       -0.14335318 -0.11242839 0.0773892 -0.22365105
000230 12 1d 11 be 5a b4 10 be 95 78 19 c0 83 2d 84 3d
       -0.14171246 -0.14131299 -2.3979847 0.06453993
000240 8f 89 0e be 58 be 0e be 66 ac 85 bd 01 9d 3f 3e
       -0.13919662 -0.13939798 -0.06527023 0.18712236
000250 71 68 6d be 18 39 57 be 63 aa f5 bc 48 1e 9a 3e
       -0.23184372 -0.21017873 -0.029988473 0.30101228
000260 ba 57 a0 3d 63 ea 8c 3d e9 d4 6f 3f 55 17 b2 3d
       0.078292325 0.06880643 0.9368425 0.086958565
000270 a8 ba 30 3a a6 bd 10 3e 82 34 1d bd ac 8d d3 3c
       0.0006741681 0.14134845 -0.038380153 0.02582439
000280 6e b7 cf 3c ae 53 27 bb 27 94 42 be 51 ce 58 be
       0.02535602 -0.0025532055 -0.19001828 -0.21172453
000290 5b eb 17 bc 41 87 37 be c3 99 4f bf c3 6d 5d be
       -0.009272422 -0.17922689 -0.81093997 -0.21623902
0002a0 cf 5b d2 bd 5b 78 00 3e f7 3f a8 3e b7 53 f7 bd
       -0.10271417 0.12545912 0.328613 -0.12076514
0002b0 2c af df 3d 0d ab 66 3e 8e 45 ed 3d 4c a9 4b 3d
       0.10922083 0.22526188 0.11585532 0.049722
0002c0 17 1d c9 bd 5e 23 6b 3e 4d 8d 11 3f 2c 12 68 3e
       -0.098200016 0.2296271 0.5685623 0.22663182
0002d0 e2 6d 71 bd ca 73 3a be 86 b8 f0 bd c8 01 ac bd
       -0.058942683 -0.18208233 -0.11753945 -0.08398777
0002e0 57 06 49 be 30 06 8e 3d dd b6 de 3d 62 4f 38 be
       -0.19631325 0.06934774 0.10874722 -0.17999032
0002f0 7c 4a 99 bd f6 85 45 be c1 09 b3 bf ce e5 9f 3e
       -0.0748491 -0.19289383 -1.3987352 0.31230015
000300 11 3a 2b be c8 fe f1 bc 15 42 4f bd 9b d1 1a bc
       -0.1672137 -0.029540434 -0.05060013 -0.009449388
000310 c6 c7 a6 3d 53 e7 35 be c4 1a 4c be 16 8f 50 3e
       0.081435725 -0.17764024 -0.19932085 0.20367083
000320 96 0c 24 3d 0b c4 46 3e ea a9 ac be c1 10 a7 3f
       0.040051065 0.19410722 -0.33723384 1.3051988
000330 b9 25 29 3e 84 9f eb bd 77 89 3c bc ec 10 49 bd
       0.16518296 -0.115050346 -0.011507384 -0.049088404
000340 0b ce dc 3d 09 68 02 3c 1a 6d 8e be ab 7d 30 3e
       0.10781487 0.007959374 -0.27817613 0.17235439
000350 c1 8d a4 3e 4e 70 8a 3c de 7f 8a 3f c1 6e 6c 3f
       0.321394 0.016899254 1.0820272 0.923565
000360 ee a5 cc 3c 61 58 c7 bd 11 9c c1 be d5 02 a4 3c
       0.024981465 -0.09733654 -0.37814382 0.020020882
000370 93 64 58 bd 17 db 62 bd b8 42 05 3e 9e 26 91 3e
       -0.05283029 -0.05538472 0.13013732 0.28349775
000380 10 46 44 be 73 5a 70 be c2 2c c7 3e 85 40 49 bf
       -0.19167352 -0.23472004 0.38901335 -0.78614074
000390 bb e9 00 3d de e7 f7 3c 4f 8d b9 be c1 c4 8f bd
       0.031472903 0.03026193 -0.36240622 -0.0701995
0003a0 22 00 14 bd 7a e4 f1 bc 34 06 0e 3e e0 f7 f2 bd
       -0.03613294 -0.029527891 0.13869554 -0.11863685
0003b0 fe f5 52 bd 97 64 94 be 48 77 c4 bf 97 8a 88 3d
       -0.051504128 -0.28982994 -1.5348902 0.06667059
0003c0 94 bb 00 bc 7d 31 b5 bd de 3c 41 be ae 17 6b bd
       -0.007857222 -0.0884733 -0.18870875 -0.05739563
0003d0 16 fe 34 3e 8f 27 09 be b1 8c 8b bd bb 01 6c 3d
       0.17675051 -0.13393997 -0.06813944 0.057618838
0003e0 09 2f 85 be ba 11 46 be a4 94 7e bf b2 60 e9 be
       -0.26012447 -0.193427 -0.9944556 -0.45581585
0003f0 73 48 ab 3b 41 95 96 bd 58 f4 05 be 47 0a 20 be
       0.0052271425 -0.07352687 -0.13081491 -0.1562892

value.0.bias f4 [32]
000000 02 b6 3c be 83 ed 01 bf 62 87 a3 3d 5b ef d7 bd
       -0.18428805 -0.5075304 0.079848066 -0.105437
000010 13 b3 1e 3e ae 95 21 3d 05 a0 8a 3e 83 fe 88 be
       0.15497999 0.039449386 0.2707521 -0.26756677
000020 4c 81 39 3e 26 06 06 3e 66 cf 4d 3e 37 23 2f 3e
       0.18115729 0.13088283 0.20098647 0.17103277
000030 08 a6 74 be 09 11 8b be 98 ec f2 3d 2f f4 75 3e
       -0.23891461 -0.27161434 0.11861533 0.2401893
000040 28 a3 6e be 9c af 3f be 91 dc 50 3d 6f 68 39 3e
       -0.23304427 -0.18719333 0.0509916 0.18106245
000050 2f 8d 31 bd 1a 24 ed be a1 85 04 3e 68 77 65 3e
       -0.043347534 -0.46316606 0.129416 0.22408831
000060 96 fb e6 3c 2d 08 52 3c c9 f8 d9 3d df 4d 26 bd
       0.028196137 0.012819332 0.10643155 -0.040601607
000070 ff 36 09 3e f1 97 f2 3d d4 11 80 be 3c 82 c6 3d
       0.13399886 0.11845387 -0.25013602 0.09692809

value.2.weight f4 [32, 32]
000000 b9 e6 a7 3d 57 8d 5c 3e 65 5f b0 3d 4a 11 6a bd
       0.08198304 0.21538292 0.08611945 -0.057145394
000010 b3 e9 6b 3d 25 11 14 3e f9 82 14 be 39 b4 53 3d
       0.05759592 0.14459665 -0.14503087 0.051685546
000020 cb db 69 3d fc 41 18 3e 1e 75 c6 3d 2a b9 01 be
       0.057094377 0.14868921 0.09690307 -0.1266829
000030 49 1b 24 be d0 0a 1b be e4 52 bb 3d 03 da 82 bd
       -0.16026033 -0.15140843 0.091466695 -0.06389239
000040 df 27 c9 bd 4f 33 0a 3e 00 7a 18 3c 9a e7 0d 3e
       -0.09822058 0.13496135 0.009306431 0.1385788
000050 32 90 da 3d 61 5c de bd 85 6c 18 bf b5 54 d8 3d
       0.10672034 -0.10857464 -0.5954059 0.105630316
000060 89 49 81 bc c3 61 5e 3d b5 1b c4 3d c6 14 11 bf
       -0.015782135 0.05429245 0.09575597 -0.5667232
000070 f6 78 14 3e 5f 6f c7 bd 2e 16 09 be 89 e6 c4 3d
       0.14499268 -0.09738039 -0.13387367 0.096142836
000080 8f 26 00 be 9f 23 f9 3d b5 a1 74 3c 61 6d c5 bd
       -0.12514709 0.12164997 0.014931132 -0.09640003
000090 d4 eb 34 3e 6b 33 10 3e cc d7 6f 3e cc 37 3b bd
       0.17668086 0.14082114 0.23422164 -0.04570751
0000a0 ee 9b 5d be 89 0a aa 3d 98 1c ba be 00 32 6b be
       -0.21641514 0.08302791 -0.3634994 -0.22968292
0000b0 90 c4 59 bc d2 ac 01 bf a8 14 36 bd 1c 38 b1 3d
       -0.013291493 -0.5065433 -0.044453293 0.0865328
0000c0 5d cd 15 be 26 31 81 3d 04 99 3f 3e f9 58 8a be
       -0.14629121 0.063082024 0.18710715 -0.27021006
0000d0 b4 1b 02 3d 5f 7b 2c be b6 81 9d 3d 3e c5 8a 3e
       0.0317647 -0.16843937 0.07690756 0.2710361
0000e0 9e 9d cc 3d 56 ac 29 3e 79 26 a9 be 3d 38 17 be
       0.099910006 0.16569647 -0.33037165 -0.14767547
0000f0 04 8b f5 3d 19 11 14 3d 1e 85 a1 be 12 0e 2a 3e
       0.11989406 0.036149118 -0.31546873 0.1660693
000100 32 e6 06 bb a7 1a 8b bd a9 47 32 3d 21 bf 3d 3e
       -0.0020583984 -0.06792193 0.04352537 0.18529941
000110 99 1a 6f bc bc 71 b8 3d 24 18 b2 3d 7c 69 69 bd
       -0.014593744 0.09006068 0.08696011 -0.056985363
000120 86 ea ca bd 2c 00 6d 3e e9 2b b7 bc 3d 05 75 3d
       -0.09908013 0.23144597 -0.022359805 0.05981945
000130 5a 02 1f be 50 72 92 bd 01 89 93 bd b3 55 84 3d
       -0.15528241 -0.0715071 -0.07203866 0.06461658
000140 d2 09 3b be 03 1c 29 3e 89 3c bd bd 52 19 9a 3b
       -0.18265465 0.16514592 -0.09240062 0.0047027254
000150 62 c3 68 bc ea fc 97 be 9f c4 18 bd 3e 6c b9 3c
       -0.014206739 -0.29685146 -0.037296887 0.022634622
000160 43 82 0b be 17 73 62 3e 36 8f 57 be 09 bb 26 be
       -0.1362391 0.22114216 -0.21050724 -0.16282286
000170 04 8e 1c 3e ea b4 a6 be 86 a1 e4 3c 64 74 1b be
       0.1528855 -0.325599 0.027909052 -0.15181118
000180 bc 2d aa bd a1 b1 03 be 00 f1 c3 3d e1 89 70 bc
       -0.083095044 -0.12860729 0.095674515 -0.01468131
000190 b1 4a 7a bd 27 8b d2 bd 63 ca 17 bd 6d 1d 18 3d
       -0.061106388 -0.102804475 -0.037058245 0.037137438
0001a0 6e 88 1f 3e 45 56 5d 3d f6 bf 2a be f5 34 b4 3d
       0.15579388 0.05403735 -0.1667479 0.08799163
0001b0 06 13 da bd 46 c8 fc bd d2 84 a0 b8 da 9b 2a bd
       -0.1064816 -0.123428866 -7.654134e-05 -0.041652538
0001c0 b9 0c ec bb 25 a3 da bd 9c 25 00 be 3a 51 7d 3e
       -0.007203665 -0.106756486 -0.12514347 0.24738017
0001d0 a6 e4 14 3e 4a 3b 38 3b 79 1e 44 be fc 35 b0 3c
       0.14540347 0.002811151 -0.1915225 0.021510117
0001e0 8b e2 01 bc 9a 0a 0e 3e 96 03 2c 3e 95 ff 7e 3e
       -0.007927547 0.13871232 0.16798243 0.24902184
0001f0 66 e7 53 be 04 59 41 be 9c 23 6b 3d 4d 27 a3 bb
       -0.2069374 -0.18881613 0.057407007 -0.0049790503
000200 d6 fd 0e 3e d3 ec 17 3e 0f 79 b6 3c bb b5 07 be
       0.13964018 0.14836435 0.022274522 -0.13252918
000210 1b 22 22 3c 59 2d ae bd e1 ea dd bd 76 9d 1a 3d
       0.009895827 -0.08504743 -0.10835815 0.037747823
000220 b5 23 36 3d 32 0a 9f bd 86 95 f7 3d 33 e8 8f bd
       0.044467647 -0.077656165 0.12089066 -0.0702671
000230 91 dc 18 be b0 ef 59 3d a9 d3 ea bd 60 29 e3 bd
       -0.1492789 0.0532071 -0.11466152 -0.11091876
000240 9b ec 38 3e 74 0b 22 bd 18 1d 4c bc 14 89 02 bd
       0.18059008 -0.039561704 -0.012458108 -0.03186901
000250 db b3 89 bd cf e7 45 3d 82 44 c9 bd 81 92 ca 3d
       -0.06723758 0.048316773 -0.0982752 0.09891225
000260 43 d7 ca bd bc 05 27 3d 46 c5 1f be 85 b5 a9 3d
       -0.09904339 0.040776953 -0.15602598 0.08286575
000270 13 45 28 bd 82 06 37 be d0 48 49 3d 5a 87 09 bd
       -0.0410815 -0.17873576 0.049141705 -0.033576347
000280 31 0c 8e 3c af ba 15 be f6 42 44 bb 67 38 88 3d
       0.017339798 -0.14621995 -0.0029947138 0.06651383
000290 cc 11 8d 3d 30 4a fd bd 67 c4 e3 bd dd be 2b 3e
       0.0688816 -0.12367666 -0.11121445 0.16772027
0002a0 19 ac 92 3e 40 67 53 3d 62 7c 50 3e 2c 9e 92 3d
       0.28646925 0.05161214 0.20359948 0.07159075
0002b0 6a d1 8f 3d a5 77 72 3c 20 38 18 be 99 36 51 bd
       0.070223644 0.014799033 -0.1486516 -0.05107746
0002c0 bf 27 1e 3e a9 f0 09 be eb 2e f3 bc 05 e6 b9 3d
       0.1544485 -0.13470711 -0.029685458 0.09077076
0002d0 86 5e 8c 3d 09 6d 19 bd 55 7e 95 bd 87 d8 db 3d
       0.068539664 -0.0374575 -0.072994865 0.10734659
0002e0 ee 46 24 be f5 f9 c1 b9 54 2b 2d bd d6 b1 fc 3d
       -0.16042683 -0.0003699806 -0.04227765 0.12338607
0002f0 8e f6 c3 bd f6 95 10 be 9c 0c 2d 3e 55 67 57 3c
       -0.09568511 -0.14119706 0.16899341 0.013147195
000300 97 96 a7 3d f4 d0 cb 3d 81 55 cb be b9 db 48 3e
       0.081830196 0.09951964 -0.39713672 0.19615068
000310 79 57 c2 3e 65 99 9e 3e 3c 58 a2 bd 70 8f 3e be
       0.3795736 0.30976406 -0.079269856 -0.18609405
000320 c3 70 92 3e 9b 9f 4d bd a5 dc 48 be fb 85 86 be
       0.28601655 -0.05020104 -0.19615419 -0.26274094
000330 82 79 38 bd 05 fa 81 3d 0f 4d 12 be aa 16 fe 3c
       -0.045037754 0.063465156 -0.14287208 0.031016666
000340 34 40 a0 be f2 dd a0 bd ea 5d 6b 3d d4 73 99 3d
       -0.31298983 -0.07854833 0.05746261 0.074927956
000350 a7 22 e2 3d 27 18 87 be a2 5b 16 3e 9d df 57 be
       0.11041766 -0.26385614 0.14683393 -0.21081395
000360 11 74 8d be 52 be ef bd 96 a8 2d be cf a8 86 bd
       -0.27627614 -0.117062226 -0.16958842 -0.065751664
000370 5c 82 0c 3e 67 48 67 bd 6c ca 66 be 8c 01 49 3e
       0.13721603 -0.056465533 -0.22538155 0.19629496
000380 8b 69 35 3e e5 75 85 bc 8b ed 62 be 85 0e cd bd
       0.17716043 -0.016291568 -0.22160928 -0.10012535
000390 15 2f f8 3d eb 9c d8 bd 29 00 df bd 58 17 0e bc
       0.12118355 -0.10576805 -0.108887024 -0.008672558
0003a0 2c 89 c1 3d b0 07 84 3d f3 d0 08 bd f2 80 05 3e
       0.094499916 0.06446779 -0.033402395 0.1303747
0003b0 11 da 16 3e 97 48 af 3d 7d 70 ee bb f8 02 c2 bd
       0.14731623 0.08558767 -0.0072765932 -0.094732225
0003c0 40 56 8d 3d ac 80 e1 3d ec 9e 60 3d db 48 17 be
       0.069012165 0.1101087 0.05483906 -0.14773886
0003d0 29 f6 c9 bc 97 1d ad bc ec ef 52 bd 8a 1f dc 3d
       -0.024653511 -0.021132274 -0.05149834 0.10748203
0003e0 ee 70 3b 3e a7 47 83 3d 13 be 70 bd 56 58 b1 3d
       0.18304798 0.06410151 -0.05877502 0.08659427
0003f0 d1 b3 65 3d 49 6a e6 bb d6 92 4d be 17 a9 5c be
       0.05607969 -0.007031713 -0.20075545 -0.21548878

value.2.bias f4 [32]
000000 63 f2 81 be ce bd 76 bd d4 9c fa 3d 08 11 73 bd
       -0.2538024 -0.060239606 0.12236944 -0.059342414
000010 99 73 46 3d 3c 94 53 3e de 7a f6 bd 95 53 5f 3c
       0.048450086 0.20662016 -0.12035154 0.013630767
000020 7b cd 36 3d cb 16 5e be 4e 09 9c 3d d4 18 c8 ba
       0.044629555 -0.21688382 0.07618962 -0.0015266188
000030 47 b8 ab bc 7b b6 81 3e 63 c2 06 3c 19 ed 3d be
       -0.020961894 0.25334534 0.008225056 -0.18547477
000040 0b 79 1f 3e 3f 60 dd bd ca ef 9a 3d ad c9 00 3e
       0.15573518 -0.10809373 0.075652674 0.12576933
000050 0b 2d 53 be 39 f7 2b 3e f1 22 5b be 35 94 f2 3d
       -0.20622651 0.16793527 -0.21400048 0.118446745
000060 27 75 56 be 96 90 e0 bd f6 ca 37 bd fe d1 a4 3e
       -0.20943128 -0.109650776 -0.044871293 0.3219146
000070 96 65 08 be aa 94 39 3e 50 22 3f be ad 94 b3 3e
       -0.13320002 0.18123117 -0.18665433 0.35074368

value.4.weight f4 [1, 32]
000000 ab ba 5f bd 3c 0c 9e be a6 69 bf 3d 74 72 17 bd
       -0.05462138 -0.3086871 0.09346323 -0.036974385
000010 33 d2 23 bd 86 3f 29 3d c5 53 b9 3e 20 d1 66 bd
       -0.039995383 0.041320346 0.36196724 -0.05635178
000020 fb 7e 12 3d 3b 8b 44 bd 6a 53 22 be 67 cb 53 3d
       0.03576563 -0.047984343 -0.15852132 0.05170765
000030 54 02 f7 bc d2 c4 11 3d 78 a8 5f 3d 2f b2 f4 bd
       -0.030152477 0.035588093 0.054604024 -0.11948048
000040 49 1e e5 3d 0b e8 57 3d b8 ba 36 3d 40 4f c7 3c
       0.11187417 0.052711528 0.044611663 0.024329782
000050 a3 7f 14 3e 3b d5 9e 3c ef 16 12 3d 4c 9c 59 3e
       0.14501815 0.019388786 0.035666402 0.21251029
000060 cb bc da 3c 88 56 64 bd bc b2 7c 3d cc d8 af 3c
       0.026701352 -0.055746585 0.061693892 0.021465681
000070 59 7b 51 bd 5c 3c a2 3d 75 ea a3 bc ad 5a 3c 3d
       -0.051143024 0.07921669 -0.020009259 0.045984913

actor.0.weight f4 [32, 10]
000000 15 04 a2 bd 0a 57 bf 3e 39 59 2a 3d 5b de 1f be
       -0.07910935 0.37371093 0.041588996 -0.15612166
000010 8a 48 0b 3e 98 55 8d bc b6 64 8a 3e db 48 c8 3e
       0.1360189 -0.017252728 0.2702996 0.39118084
000020 35 8e 52 be f1 a6 73 3e 21 77 b6 be 0c bd fa 3d
       -0.2056206 0.23794152 -0.35637763 0.12243089
000030 67 6c 67 3e 9c 48 9a 3e 5b ed 00 3f 83 23 9f 3d
       0.22599946 0.30133522 0.50362176 0.07770445
000040 e3 ef 7d be 63 9a a8 3d 1a 96 0a 3e e7 d4 1e be
       -0.24798541 0.08232572 0.13533822 -0.15510903
000050 e2 28 2a be 36 c5 8b 3e 2c 0f 44 3e e8 a4 de bd
       -0.16617158 0.27298898 0.19146413 -0.10871297
000060 64 1f d5 3e 35 21 d1 3e a3 5a 93 bd 95 48 00 be
       0.41625512 0.40845647 -0.07195022 -0.12527688
000070 7b b7 25 3d 95 57 cd 3d 29 65 db be d5 26 09 be
       0.040458184 0.100264706 -0.42850617 -0.1339372
000080 c8 3a e4 3d 69 10 0e bd 34 20 ee bd c0 6e 9c be
       0.11144024 -0.03468362 -0.11627236 -0.30553246
000090 c6 ad da 3d ea ac 86 bd 1e 31 30 bc 12 c6 e7 3e
       0.10677676 -0.065759495 -0.010753898 0.45268303
0000a0 fd 82 64 3e 4e 6a 6a 3e 87 21 c6 3e da 83 f8 3e
       0.22315593 0.22892115 0.38697454 0.48538095
0000b0 4e 85 b0 be 31 71 99 3d e9 98 95 be 04 50 46 be
       -0.34476703 0.07492293 -0.29218224 -0.19366461
0000c0 99 d3 0d be 5f 68 b7 3d c3 47 b1 bd ce 0f 83 3d
       -0.1385025 0.08955454 -0.086562656 0.06399499
0000d0 6b 03 10 3f e0 17 c0 3d d4 88 19 3e 0c 52 fa bd
       0.56255215 0.09379554 0.14993602 -0.122226804
0000e0 9a f6 97 3d 9a 83 55 3e 99 49 a1 3d 7c 56 b8 3d
       0.074200824 0.20850983 0.07875366 0.090008706
0000f0 58 68 bd 3b 98 fe 60 be 8f 52 ba 3d 14 a0 91 be
       0.005780261 -0.2197212 0.09097778 -0.28442442
000100 5c 3f b3 3e f1 08 2d 3e 22 fc 92 3d 71 3a 20 3e
       0.35009277 0.16897942 0.07176997 0.15647294
000110 bf 52 fb 3e 2d fc ca 3e 5d e5 f0 bc fd c1 59 be
       0.49086568 0.3964552 -0.029406244 -0.21265407
000120 15 5f d3 3e 5e e7 98 3e ea bd 1e 3f 80 ee 42 be
       0.4128348 0.2986402 0.62008536 -0.19036293
000130 ef f8 09 be 1f c9 bb bd 7f a2 30 3d 2a 8a 92 3e
       -0.13473867 -0.0916922 0.04312372 0.28621036
000140 d9 52 ac 3d d7 3f 9e be b0 fd d6 3c ff af 21 3e
       0.084142394 -0.3090808 0.026244015 0.15789793
000150 b8 de ea 3e 6b b4 23 3e 0b e4 8f be 29 5f 0f be
       0.45873046 0.15986793 -0.2810367 -0.14001144
000160 cd f2 82 3d 84 9f fa 3e c9 4e ca bd 8c a8 23 be
       0.06393967 0.48949826 -0.09878308 -0.15982264
000170 22 2f c4 be b0 8c 16 be 87 6e 79 3e f7 e3 13 be
       -0.3831721 -0.14702106 0.24358569 -0.1444243
000180 8a df b8 3e f4 ea 36 bd 87 3f 06 bb 8b 26 54 3d
       0.36108047 -0.044657663 -0.0020484643 0.05179457
000190 2a 6e 81 be 2a 35 92 bd ab b4 c1 3e 5c 1a d1 3e
       -0.2527936 -0.071390465 0.3783315 0.40840423
0001a0 26 7f 8d 3e 6d 38 44 3e d2 5b 37 be 8a 5b 4f be
       0.2763607 0.1916215 -0.1790612 -0.20249763
0001b0 eb 94 d3 bd b5 87 85 3e 1d f6 bf be 6d 53 8d be
       -0.10331138 0.260801 -0.37492457 -0.2760271
0001c0 1c 77 93 be 13 c0 11 3e de e1 80 3c 0d 66 9e 3e
       -0.2880181 0.14233427 0.015732702 0.30937234
0001d0 e8 a8 77 be 94 d4 80 3e 43 e5 59 be 53 4b 47 3d
       -0.24185526 0.25162184 -0.21278863 0.04865582
0001e0 34 1e c7 3d 76 c7 94 be 5a 54 c8 3e 4d 74 d9 bd
       0.09722558 -0.29058427 0.39126855 -0.10617886
0001f0 c1 1d a5 3e 70 65 e1 3b 67 86 f3 bd 76 2c df 3d
       0.32249263 0.0068785474 -0.118908696 0.10897152
000200 db 90 f2 be e7 e4 0e bf 6e 13 1c 3e 60 2a 33 3e
       -0.4737614 -0.5581803 0.15241787 0.17496634
000210 46 df e2 be c8 ce 02 3e 87 80 82 3e f6 9d 4b 3e
       -0.4431097 0.12774193 0.25488684 0.19884476
000220 25 ba e0 3d fe 49 b3 be 67 c2 59 be e0 61 90 3e
       0.10973004 -0.3501739 -0.21265565 0.28199673
000230 b5 0d 04 3e d0 aa f8 be f5 e2 da bd 9b 3b f5 ba
       0.12895854 -0.4856782 -0.1068782 -0.001870978
000240 39 68 2d be 41 98 e2 be 10 f7 06 be d8 5a d0 bd
       -0.16934289 -0.44256786 -0.13180184 -0.10173577
000250 4f 6e df 3d b0 d7 82 3c 78 3a 2c be 64 9e 71 bd
       0.109097116 0.015971988 -0.16819179 -0.058988944
000260 af 21 54 be 26 f0 da be 07 c5 8a 3e 1b b0 12 3f
       -0.20715974 -0.42761344 0.27103445 0.57299966
000270 76 cf 1d 3e 4e d8 b0 be bc a0 6e 3d 72 95 97 3e
       0.15411171 -0.34540027 0.058258757 0.29606205
000280 f4 73 85 be e3 68 f6 be e9 c1 b3 3e 45 fd 2e 3e
       -0.26065028 -0.48126897 0.3510888 0.17088802
000290 10 a1 04 be 14 6f 80 be ab f1 9a be 1b 20 7e be
       -0.12952065 -0.25084746 -0.30262503 -0.24816935
0002a0 e7 ad 09 be 2d c7 5e be 90 1a 0e 3d 35 be ef 3d
       -0.13445245 -0.21755667 0.0346933 0.11706201
0002b0 6e 16 ba bd 26 c6 be bd 1c 3d 96 be d8 a2 78 3c
       -0.090863094 -0.093151376 -0.29343498 0.015175544
0002c0 ed cd 16 3e ae a0 ea bd 63 77 0e be 41 39 c9 bd
       0.14726992 -0.114564285 -0.1391273 -0.098253734
0002d0 f0 87 a9 3e cc 36 09 bf 9f 90 b9 3e 55 f1 b9 3d
       0.33111525 -0.5359924 0.3624315 0.090792336
0002e0 d0 77 fa be b0 a6 79 bd a3 fc 95 3c 0e 0d 28 be
       -0.48919535 -0.06094998 0.018308943 -0.1641123
0002f0 81 45 9d bd 06 2a 4f 3e 08 f7 10 3e 41 09 c2 be
       -0.076792724 0.20230874 0.14156735 -0.37897685
000300 82 0e e4 3e 5a fd 7a 3d 70 d9 39 be 2e 12 9d 3e
       0.4454232 0.06127677 -0.18149352 0.30677933
000310 3b dd f1 be c4 28 8b be 8c 6a 19 3e 89 ef 2f be
       -0.47239098 -0.2717954 0.1498205 -0.17181219
000320 64 85 3b 3d 3b 56 68 bc 60 48 97 be f5 60 6a 3d
       0.045781508 -0.014180715 -0.29547405 0.05722137
000330 61 82 8e be a3 eb 2b be bc 53 c6 bc 41 2c 8c 3e
       -0.27833846 -0.16789107 -0.02420985 0.27377513
000340 0c f3 d2 3d 62 0c 1e 3e 82 d1 9d 3e 47 4c 98 3e
       0.10300264 0.15434411 0.30823904 0.29745695
000350 3e a3 7e 3c a9 32 ca bd f2 35 fd 3d 49 55 11 3e
       0.01554185 -0.09872944 0.12363805 0.1419269
000360 39 82 09 be 4a bb 6e be c8 a5 39 3e 45 6d 36 bc
       -0.13428582 -0.23313633 0.18129647 -0.01113445
000370 bf 27 ef 3c b6 30 e5 be ce ce b5 be ef 6a 32 3c
       0.029193757 -0.44763726 -0.35509342 0.010889753
000380 a8 2a 3d 3e 1b 34 82 be 7a 64 0d be 6b e2 5f 3e
       0.18473303 -0.25430378 -0.1380786 0.21863715
000390 a1 66 8d bd c2 4d d3 3e 7b 58 17 3f 7c e5 9b 3e
       -0.069043405 0.41270262 0.59119385 0.3044852
0003a0 3d cf 5e be 2f 55 3b be 31 53 e2 bd 94 b2 29 3e
       -0.21758743 -0.18294214 -0.11051024 0.16572028
0003b0 ac 09 9d be 1d 91 2d bd b9 43 0b be 41 8b 46 be
       -0.30671442 -0.04237472 -0.13600053 -0.19389059
0003c0 d2 00 85 3d 74 8b 28 be ec 8b d1 bb 76 e5 16 be
       0.06494297 -0.16459447 -0.006394854 -0.1473597
0003d0 96 3a c6 bd 43 18 b8 be cf c6 8b 3e e3 cc 08 be
       -0.09679143 -0.3595601 0.27300116 -0.13359408
0003e0 58 ed 4e be bd 41 13 be 59 85 25 be dd e5 9e 3d
       -0.20207727 -0.14380546 -0.1616415 0.07758687
0003f0 f9 5d d3 3e 07 a6 9f be c3 bc 80 bd dc 52 9b 3e
       0.41282633 -0.31181356 -0.062860034 0.30336654

actor.0.bias f4 [32]
000000 e2 87 60 be a8 97 8d be e6 c5 c2 3e 58 fc de 3e
       -0.21926835 -0.27654767 0.3804161 0.43551898
000010 f2 23 a5 3d 61 a0 7e 3e f5 4a f5 3e 3b b9 91 3e
       0.08063497 0.24865867 0.4790875 0.28461632
000020 7e 41 d3 3e a9 e8 8c be 79 3a cf 3d bc 61 44 be
       0.41260904 -0.27521256 0.10118575 -0.19177908
000030 53 6d 76 be 4d 96 da 3e 14 5a 77 be 8e a5 5f 3d
       -0.24065141 0.42692795 -0.24155456 0.054601245
000040 1a 12 f7 38 46 ed f4 bd 97 61 16 bd f3 80 3d 3c
       0.000117812495 -0.11959319 -0.036714163 0.011566388
000050 81 70 86 be 34 57 f7 3c 75 b3 75 3e 27 9f 9d bd
       -0.2625771 0.030192949 0.23994239 -0.076963715
000060 3e 53 c6 bd 70 f0 3c bd 12 94 b9 3e 98 0c 6d 3e
       -0.09683846 -0.046127737 0.3624578 0.23149335
000070 f9 5f ea bd 1b d7 ff 3d c0 7f c1 3e 33 40 3e be
       -0.114440866 0.124922 0.37792778 -0.18579178

actor.2.weight f4 [32, 32]
000000 c5 80 a5 3d 3a d3 f2 bb 90 ae c5 bd 89 a0 f1 3d
       0.080812015 -0.007410434 -0.09652436 0.11798198
000010 c1 6b 89 3d 6f 5e 9c be 2e 1a d3 be c1 54 6c be
       0.067100056 -0.30540797 -0.4123091 -0.23079206
000020 7c af 89 3d d7 01 74 be 65 47 6c 3d dc c6 02 3e
       0.06722924 -0.23828827 0.057685275 0.12771171
000030 1a 26 9e 3e b0 ab a3 be d6 be 59 3e 21 ab b1 bc
       0.30888444 -0.31966925 0.21264204 -0.021688046
000040 e8 1e d4 3d d4 69 24 3c 95 9a 0e 3e b8 55 a0 3d
       0.103574574 0.010034997 0.13926156 0.078288496
000050 25 a7 8f 3d 05 2d 75 be 73 cd 30 3d cc 85 c8 be
       0.07014302 -0.23942955 0.04316468 -0.3916458
000060 e7 ee 06 3e 90 7d a3 3e 3d 81 41 3e 7e be 88 bc
       0.13177072 0.31931734 0.18896957 -0.016692396
000070 bb 43 65 be ea ae 11 3e 9f e6 b1 3d 17 2d c4 be
       -0.22389118 0.1422688 0.086865656 -0.3831565
000080 2b 8b 8d bd 16 6e 3c be 23 e7 fb 3d b6 b3 21 3e
       -0.0691131 -0.1840137 0.12299945 0.1579121
000090 09 07 8e be 8b 6f e1 bd d5 94 52 be d3 4d a3 be
       -0.27739742 -0.11007603 -0.20564587 -0.31895313
0000a0 fa b9 a5 be 78 27 67 3e 84 93 52 bd c4 f4 a9 ba
       -0.3236845 0.2257365 -0.051410213 -0.0012966623
0000b0 d2 c6 83 bf 81 b6 90 bc ad 53 a2 3c 5a 57 60 3e
       -1.029505 -0.01766515 0.01981529 0.21908322
0000c0 bd 51 d8 be 3d 66 62 3e 04 82 0d 3d 77 7b 8a be
       -0.4224986 0.22109313 0.03454782 -0.2704732
0000d0 de 40 c3 3c 1e 2a c9 bd 58 ae 4f 3d ea 5a ae 3d
       0.023834642 -0.09822486 0.050703377 0.08513434
0000e0 79 66 10 3e 5d fc b5 3e 24 16 6a 3e ed 7d 90 3d
       0.1410159 0.355441 0.22860008 0.070552684
0000f0 b4 52 df bd f1 f9 81 3e 3f 60 0f 3e 93 12 9d 3e
       -0.10904446 0.25386003 0.14001559 0.30678234
000100 28 27 12 3e 82 df c4 3d fe df b7 3d 07 46 49 3b
       0.1427275 0.09612943 0.0897827 0.0030711906
000110 96 24 67 3e bc 79 0c 3e cf 7e 68 be 80 f9 74 3d
       0.2257255 0.13718313 -0.22704624 0.059808254
000120 14 d4 fa bd 90 d7 ee 3d 08 a7 a8 3d 20 bb 05 bf
       -0.12247482 0.11662209 0.08234984 -0.52238655
000130 39 5c 1b 3e d0 d6 91 be a0 cd 04 bd 3d 67 e6 bd
       0.15171899 -0.284842 -0.03242266 -0.1125016
000140 b4 b0 9c 3c ad 63 4c bd 35 07 99 bd 44 5e dd bc
       0.019127227 -0.049899746 -0.07472078 -0.027022488
000150 97 ef 55 bd be f5 29 be 1f 92 df 3d 9a 10 4f be
       -0.052230444 -0.1659765 0.10916542 -0.20221177
000160 37 d9 75 3d b2 0d 2f 3e 70 d7 46 3e 91 09 0c be
       0.060021605 0.17095068 0.1941812 -0.13675524
000170 5b 08 e7 be 36 4a 7f 3e 0d 5d 08 bd 01 57 36 be
       -0.45123562 0.24930653 -0.033291865 -0.17806627
000180 0d b3 8a be a2 b1 14 3e c3 03 15 3e 82 d5 14 be
       -0.2708973 0.14520887 0.14552216 -0.14534572
000190 fc 30 c4 be 64 68 b7 3e 7e 96 3a 3d 72 d6 3e 3e
       -0.38318622 0.3582183 0.045553677 0.18636492
0001a0 a8 52 e0 bd d3 f1 08 3d 8a d3 60 3d 7f 43 95 be
       -0.109532654 0.033433747 0.05488924 -0.29153058
0001b0 73 97 80 bd df bf 57 3e 8b ea a4 3d 64 c6 75 be
       -0.06278887 0.21069287 0.08052548 -0.24001461
0001c0 bc ff 88 be 9c da 0d 3d 24 80 d8 3d a5 87 33 be
       -0.2675761 0.03463231 0.10571316 -0.17532213
0001d0 1d 33 80 3d ff 8a ae 3e f5 19 a0 3d 1e 40 22 3e
       0.06259749 0.3409042 0.07817451 0.15844771
0001e0 19 3d 8b bd 27 f2 e0 3b 5d e3 12 be fb d5 b8 3e
       -0.06798763 0.0068648043 -0.14344545 0.36100754
0001f0 f8 bc bc 3d 3b d6 81 bd cf a1 11 be 59 5b de 3e
       0.092157304 -0.06339689 -0.14221881 0.43429068
000200 a1 e0 e3 bc ab 23 9e 3d d1 aa 96 3e 30 24 18 be
       -0.027817072 0.07721647 0.29427198 -0.14857554
000210 aa aa 40 be e7 7b cd 3d da 30 cf 3c 7d 5c 2a be
       -0.18815103 0.10033398 0.025291849 -0.16636844
000220 eb 74 5c be c6 cb 8f bd 53 5b 13 3e fe 25 63 be
       -0.21528976 -0.070212886 0.14390306 -0.22182462
000230 e7 c6 cc bd ad c5 b4 3d dd 53 ea 3d 82 a5 39 3e
       -0.09998875 0.08826766 0.11441777 0.18129542
000240 75 4f 16 be e3 7e 0b 3e 33 b9 09 ba 40 f9 aa be
       -0.14678748 0.13622622 -0.0005253732 -0.33393288
000250 37 34 aa 3d fb 76 5f 3d e7 9a 2b 3e 67 99 41 be
       0.083107404 0.054556828 0.1675831 -0.18906175
000260 92 61 eb 3d 32 0e a5 3e 0e 89 ab bd e5 24 ae 3c
       0.114932194 0.32237393 -0.083757505 0.021257827
000270 67 ab 6b 3e 63 a4 11 be 83 8f cb 3d a8 2b bf bc
       0.23014604 -0.14222865 0.09939482 -0.023336247
000280 b0 dc 07 3d 1c eb b3 bc 4a 69 e2 3d 51 e4 ad 3d
       0.03316945 -0.021962695 0.110552385 0.084908135
000290 af 49 86 3c a6 fd b1 bc be 26 7c be bf ad 09 be
       0.016392557 -0.021727394 -0.24624154 -0.13445185
0002a0 a6 05 69 be 17 13 38 be ef 0f 9f bc bb 81 b3 be
       -0.22756061 -0.17976032 -0.019416777 -0.35059914
0002b0 6f 95 87 3e 84 31 23 bd d7 90 58 3c 55 c1 41 3d
       0.26481196 -0.039842144 0.013218126 0.047303516
0002c0 7e 37 85 3d a9 56 b0 bd 28 45 d4 3d a9 2b f1 3d
       0.06504725 -0.08610279 0.10364753 0.11775906
0002d0 4a 93 d7 bd cf 18 48 bd e5 13 67 bd 57 49 99 3e
       -0.1052614 -0.048851784 -0.056415457 0.29938766
0002e0 0a a0 5a bd 84 bd 8d bd e2 bf b7 3a 3d 09 8b bd
       -0.05337528 -0.06920913 0.0014018978 -0.067888714
0002f0 91 47 3f be 3b d5 0e 3e d6 a9 1a 3e 62 6a 3b be
       -0.18679644 0.13948528 0.1510385 -0.183023
000300 f0 8a 75 3e 36 03 02 3e 02 ad d0 bd 3b 6b 5b bd
       0.23978782 0.12696537 -0.101892486 -0.05356906
000310 8c b7 c5 3c 17 04 37 bf b6 d3 58 bb b1 3c ca 3b
       0.024135374 -0.71490616 -0.0033085174 0.0061717858
000320 9d 57 40 3d 19 39 29 3e a0 15 03 3e c1 ce d9 be
       0.046958555 0.16525687 0.12801218 -0.42540553
000330 b6 10 45 3e ac 30 ed bd 34 70 4f 3d b7 0b 9c bd
       0.19244656 -0.11581549 0.050644115 -0.07619422
000340 9a 49 40 3e 7c 5e 86 be 09 33 83 3d 44 ef 93 3e
       0.18778077 -0.2624396 0.064062186 0.28893483
000350 17 71 86 3e dd 26 36 bc 9b 60 89 bd 21 c3 c4 be
       0.26258156 -0.011117664 -0.06707879 -0.38430122
000360 92 44 53 bf 0c bf 4d 3c 1c 0f 95 3d 54 d2 c0 3e
       -0.82526505 0.012557756 0.072782725 0.37660468
000370 f7 00 63 3e 1b 8f 38 be 4f 93 27 3c e8 f1 41 3d
       0.22168337 -0.1802334 0.010227992 0.04734984
000380 6e 74 0d be c9 2d 85 bf 0a 5f 86 be 7d af 42 be
       -0.13813946 -1.0404598 -0.26244384 -0.19012256
000390 f0 99 59 3e c1 89 ad be d5 12 ac be 3a 6b 9f bd
       0.21250129 -0.3389416 -0.33608118 -0.07784124
0003a0 43 18 0d 3f a8 a3 50 3e 5b 33 04 bf e6 56 94 3e
       0.55115145 0.2037493 -0.5164086 0.28972548
0003b0 7c 74 11 3e 6e ff ad 3e 56 49 8a 3d 1c 15 21 3e
       0.14204592 0.3398394 0.06752269 0.15730709
0003c0 45 6c 86 be 33 b2 ef 3d b2 f0 1d 3e ae 73 09 bf
       -0.26254478 0.11703911 0.15423849 -0.5369214
0003d0 7d 5b 6b bd 54 7c 6e bd 6c 9e 46 3e 93 e3 aa 3b
       -0.057460297 -0.058224037 0.1939637 0.0052151172
0003e0 5a 02 96 be 9a a9 dc 3e 3f c3 3b 3c 83 74 8a 3d
       -0.2929867 0.43098146 0.0114601245 0.06760504
0003f0 f5 17 29 bf 6d c3 d1 bd c1 b0 35 be 8a ce 38 be
       -0.6605218 -0.10242353 -0.17743208 -0.18047538

actor.2.bias f4 [32]
000000 dd 81 cf 3c 3d fe 0e bd c3 a2 17 be 56 24 5a 3c
       0.025330478 -0.03491043 -0.14808182 0.013314327
000010 61 94 88 bd de b3 37 3e a1 de 8d 3c 4c ed fd 3c
       -0.06668926 0.17939708 0.017318072 0.030996941
000020 b0 a6 81 3d ed ba 51 3e 8d 94 41 3e 46 a6 01 bd
       0.06330621 0.20481463 0.18904324 -0.03165271
000030 50 1c 71 be 24 82 c9 3d 65 63 26 3e 49 a3 c3 3c
       -0.23545957 0.098392755 0.16248854 0.023881571
000040 23 0f 7b 3e a1 84 e9 bc d9 b4 3f 3e 3b 3d 33 be
       0.24517493 -0.028505625 0.18721332 -0.17503826
000050 73 b2 28 3e ff 48 a5 bc af e1 77 3e b9 db 1e 3d
       0.16474323 -0.020176409 0.24207185 0.038783763
000060 c5 66 01 be 08 7a 29 bd 03 f1 b2 3e e5 70 27 be
       -0.1263686 -0.041376144 0.34949502 -0.1635166
000070 94 ce 95 bd 15 e6 fd bd a5 4b f6 3d 14 f2 43 3e
       -0.07314792 -0.123974 0.12026147 0.19135314
