results/SandingEnvMiddle/ddpg/model/model_parameters_1.pt (torch, 32386 bytes, 22 tensors)

value.0.weight f4 [32, 12]
00000000: bc82 663d 7e64 93bd de18 1c3e 2b8d 67bd
00000010: 423a 6abe acad 1c3e bb40 8e3e 1259 9b3d
00000020: 1959 2b3e 3b3f 50be 3638 a4bd 5952 ff3e
00000030: a89e 21be eaf3 b2bc 27d6 59bd a368 29bd
00000040: 57fb 11be c1ff 2ebc 9977 623d 752d 723c
00000050: 72f1 83bc 7dc4 66be c861 ebbd 8df6 a2bf
00000060: 9802 bb3d ec26 423d 6a3b 943d 5669 c13d
00000070: ef41 8b3d 40b1 d2ba 2e48 6ebe 9d3a 5ebe
00000080: 7bf3 8c3e dfe5 25be ba56 ec3e d707 6c3f
00000090: 6613 133d 0213 023e 09e7 cbbd 5151 62bd
000000a0: 0bce 2dbe f70a 5ebd e5ca 3f3e 2259 ad3c
000000b0: 865f dbbd cb67 22be 4dc9 e8be e29f 06be
000000c0: 30f0 aebd c1a9 693c 1100 8cbc 972a 893d
000000d0: fd91 803e db36 c3be afa4 a93e 5b58 013e
000000e0: c05e 49be 93e6 30be ed98 54be e5a8 b43f
000000f0: bacd 00bc ce46 a7bd 9e68 9f3c 7495 b33c
00000100: dd40 b13e ebb0 a8be 772a 8b3d 5c77 c03a
00000110: 73fd b33d a17e e93d 3ba8 72bd 3e63 08bf
00000120: 04de 533d aee8 3fbb 2f10 c2bd 321d 05be
00000130: 267d c63d 9026 383e f103 08be 76d2 503d
00000140: 75b7 8b3e e371 2dbe 0d53 033f f80e 0f3e
00000150: 2fc8 0d3e 779d 803c ecc7 183e 6ed4 45bd
00000160: 4e31 5fbe ef29 9e3b d9a4 b23e 436f a33e
00000170: 0c85 e1bc fe41 fdbd ddeb e53f 529f fb3e
00000180: e6af 6bbd 6aa4 1abe c179 1e3e 1cbd 2a3a
00000190: 9b81 5cbd 3848 d3bd 0619 ccbd 2cb0 543e
000001a0: 7cc3 cabc db2d a3bd 7bee 553d 17e0 cabe
000001b0: 977e 60bd 4fff 08bd 3929 5fbc ab32 233d
000001c0: 7e37 de3d 2ee0 063e c976 c2bc d7b3 753d
000001d0: 004e bbbc d022 223e d35d 59be e22f 6d3e
000001e0: aadb 76bd ca96 6c3d a5a4 dfbd db7e 8c3e
000001f0: 8388 15be b3c1 8c3e ea37 8d3d 05da 93bd
00000200: adba 8dbe 30d3 d93c 62c7 a03d 8061 853f
00000210: 7ec0 9abd f620 533a 70c8 a13d f630 fcbe
00000220: 50ae 373d 1979 fb3c c64a 993e e021 893e
00000230: f6c3 113e 9e3a 40bd ac42 a0bd 84f9 b63d
00000240: 2f1d 61be 216c 663e eb5c 17be 2cd8 483e
00000250: 4ff9 453e ce24 303d 7018 5239 1451 ac3b
00000260: 6774 193e 0b3b 06be 2e12 c1be c45a 9ebc
00000270: dff5 af3d a7ce b9bd b47c d1bd 960b d83d
00000280: d4a4 85bd 1873 b03d 3174 0fbc d243 163e
00000290: 4f3e fa3d 525e 833e 7ebb 593e 32d4 32bf
000002a0: ad23 bcbd 03ed cabc 172c fa3d 4d4a 55bc
000002b0: a7dd 82be c407 db3d 2320 163b ab6f a9bd
000002c0: 6db2 23be bc35 b23d 46ab 47be 35d7 5b3e
000002d0: d14f f4bd 5507 223d 68c0 593e 2ae5 41bd
000002e0: d143 0bbd ad31 083e cf6e 2ebe cd14 f1bc
000002f0: 54e6 9b3e e524 953e d216 c93e 662b 293e
00000300: 2cd1 913d bb29 1abc 345d 793c 1aa1 933b
00000310: ef2c 17bd 2dcc 0abe ea99 47be e6b9 d23d
00000320: 306b acbc bf47 35bd 1cc6 0d3f db62 f93c
00000330: 9de1 083c c1a3 c9bd 1064 08be 2a81 96bc
00000340: d07d 62bd 713c 523e 3d95 68be ebb0 0b3d
00000350: f71b 90be 2ab7 f53d e5e4 6b3d 9be3 a03e
00000360: 5858 c6bd a4fe b83c 3ac3 e4bd 38e7 1f3e
00000370: 5a92 a93d f483 a6bd ceac 4dbe c396 44be
00000380: 7405 863e 8d06 33be 17bd 4ebe 0aa8 c43e
00000390: 5111 773d f6c1 223c ed95 8c3d c364 003d
000003a0: dd40 ff3e 6144 223e 9eca 373d 8208 c63d
000003b0: 1ddf 76be 27d3 293e 1f09 d63c 08fa a63e
000003c0: 39b6 173e 0e99 723d 4f83 8ebd 6acf d13c
000003d0: 6d55 ed3c d754 a2bd 54ac fb3d b650 12be
000003e0: 5f34 18be 8e6c 393e 74ad a8bf 7d62 e0bd
000003f0: 3cc2 88bb 4f89 8bbd 273c e2bd 616a 3c3e
0.05627702 -0.07196902 0.15243861 -0.056531113 -0.22873786 0.15300626 0.2778376 0.07585348
0.16733207 -0.2033662 -0.08018534 0.49867514 -0.15783179 -0.021844823 -0.053182747 -0.041359555
-0.14256035 -0.010681094 0.05528984 0.014781346 -0.016106341 -0.22535892 -0.1149326 -1.2731491
0.09131354 0.0474004 0.07237895 0.09443919 0.06799685 -0.0016074553 -0.23269722 -0.21702047
0.2752951 -0.1620097 0.46159917 0.9219946 0.03590717 0.12702563 -0.09956176 -0.05525333
-0.1697313 -0.054209676 0.18729742 0.021160666 -0.10711579 -0.15859906 -0.4546608 -0.13146928
-0.08541906 0.014261664 -0.017089875 0.066975765 0.2511138 -0.3812779 0.33133456 0.12631361
-0.1966505 -0.17275457 -0.20761462 1.4114043 -0.007861549 -0.08167802 0.019459065 0.02192185
0.346198 -0.32947478 0.06795209 0.0014684009 0.08788576 0.11401106 -0.05924247 -0.5327643
0.051725402 -0.0029282975 -0.09475743 -0.12999418 0.09691839 0.1798346 -0.13282754 0.05098196
0.27288404 -0.16937976 0.512986 0.13970554 0.13845895 0.015700085 0.14920014 -0.04829829
-0.21796152 0.004826776 0.34891394 0.31920823 -0.027529262 -0.12366103 1.7962605 0.4914499
-0.057540797 -0.15101781 0.15476133 0.0006513165 -0.05383454 -0.10316509 -0.0996571 0.20770329
-0.024751417 -0.079677306 0.052229386 -0.39624092 -0.054808225 -0.033446606 -0.013620668 0.039843243
0.10850428 0.13171455 -0.023738282 0.05998596 -0.022864342 0.15833592 -0.21227197 0.23162797
-0.06026808 0.05776099 -0.10920075 0.27440533 -0.14602856 0.2749153 0.068954304 -0.07219318
-0.27681485 0.02658996 0.07850529 1.042038 -0.07556246 0.0008053923 0.078995585 -0.49256104
0.04484397 0.030697392 0.2993986 0.26783657 0.1423491 -0.0469309 -0.07825217 0.0893431
-0.21983789 0.22502185 -0.14781539 0.19613713 0.19333385 0.04300385 0.00020036264 0.0052586887
0.1498581 -0.1310846 -0.37709183 -0.01933039 0.08591818 -0.09072619 -0.10228863 0.10549085
-0.06525579 0.086157024 -0.0087557295 0.14674309 0.12218916 0.25657898 0.21262929 -0.69855034
-0.09186492 -0.02477122 0.12215441 -0.013018203 -0.25559732 0.106948406 0.0022907339 -0.08273252
-0.15986033 0.08701655 -0.1949893 0.21468814 -0.11929286 0.039557774 0.21264803 -0.04733769
-0.03400022 0.133002 -0.17034458 -0.029428864 0.30449164 0.2912971 0.39275223 0.16520461
0.071199745 -0.009409363 0.015219975 0.004505289 -0.036908086 -0.1355445 -0.19492307 0.102893636
-0.021047205 -0.044257876 0.55380416 0.030442646 0.008354572 -0.09845687 -0.13319421 -0.018372137
-0.055295765 0.20530869 -0.2271318 0.03410427 -0.28146335 0.119978264 0.057591338 0.3142365
-0.09684819 0.02258236 -0.11170049 0.15615547 0.082798675 -0.08130637 -0.20085451 -0.19198136
0.26176035 -0.17482968 -0.2018932 0.38409454 0.06031925 0.009933939 0.068645336 0.031346094
0.49854174 0.15846397 0.044870965 0.096695915 -0.24108548 0.16584454 0.026127396 0.32612634
0.14815606 0.059227996 -0.06958639 0.025611598 0.028971398 -0.07926338 0.12288728 -0.14288601
-0.14863728 0.18107817 -1.3177934 -0.10956285 -0.004173545 -0.06813299 -0.110466294 0.18399955

value.0.bias f4 [32]
00000000: 4874 683e 4976 003e e6a2 333e ac2f 923e
00000010: 1d50 4d3b 5cec 48be 1f2d 7abc bddc b0bc
00000020: e125 853d c779 8cbe 4fc2 9ebe 9263 3cbd
00000030: 1327 8bbe cc44 973e 0b7c dfbe c5c6 623e
00000040: 5c5e 26bd 5332 873e 43c0 e2bc cff7 0f3c
00000050: 0518 dc3d 032b 7d3e ab2a 1d3f ad41 db3c
00000060: 29b8 883d f8d3 763b 5f2d 8fbe d54e bf3d
00000070: 6cf7 813e e8fb 44be 811a a7bd 7021 6e3e
0.22700608 0.12545122 0.1754261 0.28551996 0.0031328269 -0.19621414 -0.015269547 -0.021589631
0.065013655 -0.2743666 -0.3100762 -0.045993395 -0.2717825 0.29544675 -0.43649325 0.22146137
-0.04061733 0.26405582 -0.027679568 0.0087871095 0.10746769 0.24723439 0.6139323 0.026764715
0.06675751 0.0037662964 -0.27964303 0.09341208 0.2538408 -0.1923672 -0.08159352 0.23254943

value.2.weight f4 [32, 32]
00000000: e07b 0f3e 5ca5 cc3d a2b0 693e 7390 bdba
00000010: 9f79 7dbe 75a4 ce3c 4476 cd3d 829a b13d
00000020: ad95 b9bd 6e47 7cbd 72ad 3f3d ff6c d13d
00000030: 221d b6be 69e1 d4bd c007 b6bd 0e61 94bd
00000040: d564 f6bd 5767 d33d 2bd3 173d b447 f0bb
00000050: 0e4d febc e0ad be3d 2cdf 06bd f19e 64bd
00000060: 32eb 5fbe 5b4f e73d f987 993c 3e32 e8bd
00000070: 9477 42bd 172e 34bd 4272 83bd 8101 563e
00000080: ddab 1bbd b772 2ebd 2e05 b9bd f7e6 19bc
00000090: ea85 17be 6a48 693c 245c f9bd fed1 a9bf
000000a0: 8478 37bf 1289 28be 506f c03c 7c81 2e3d
000000b0: 6a3e e53d f9ad 073d b104 23be 5b62 92bd
000000c0: 40dc f43c 8e33 37bf 3187 15bd 1252 85bd
000000d0: 3477 763e 9768 d6bd a2c8 c8be 7ead 42be
000000e0: ae14 e1bd c2a3 9c3d d61c aebd 9e89 d63a
000000f0: a6bf 2ebe 6199 2abd 1121 853d a9ea 9a3d
00000100: 9eee 023c 3719 60bc ffa6 ed3d e48a ed3d
00000110: c9c5 8cbd 0af9 0fbc 5825 113d 88a4 903b
00000120: 127a 2abe 96ce 08be f67c 7cbe 0730 7c3d
00000130: e9ca 92bd 14d2 fdbd 6084 253e 85da f13d
00000140: 19b4 9d3d 78d5 7c3d cb31 e53d 38c0 b8bd
00000150: 9910 893d cde6 21be 823b 1a3e 983c c8bd
00000160: 7e76 7a3c 94a7 a43c 997f c33d 6f27 74bc
00000170: 71fd 293e 993a 73bc e4f3 9f3d 7de7 533a
00000180: 6eb5 613d 9f42 2abe 4f86 5abd 790e 4fbc
00000190: 4779 863c 4ca6 c2bd a424 3abe 8904 f93d
000001a0: 9e54 fbbb e3ba a1ba 67a1 52be ed32 e4be
000001b0: 0266 303e ea83 47bc 5495 3d3d 270d 0e3e
000001c0: c5e0 10bd 37a4 123e a10b 103e 7f54 133e
000001d0: 5d2e cd3d dc32 a33d ef5d 5abd 5590 efbd
000001e0: 62b2 86be 628a b83d 074c f33d 93b9 9fbc
000001f0: f6fc a8bd 008a dbbc 9427 70bd 3bdb 243e
00000200: e459 00bc ce32 e0bd f636 d73c 0624 5c3d
00000210: 04ab cc3d 5296 22be 2380 183e 7b70 6d3c
00000220: 1748 4fbe 65d7 9c3d b9b1 d9bd 02d8 2fbd
00000230: 50fd 863d f8ac 0cbd 4a78 d7bd 5129 5c3d
00000240: 5001 20be 6d7f 273e 7f4f 11be 3c46 8abd
00000250: d29e b0bd 572b bc3c 661d 11bd 97cb 73bd
00000260: 3a7c 5e3e f921 ed3d 9d99 3e3e cb08 7d3d
00000270: 958e a63d 1ec1 a8bd a838 083e fb1a 9bbd
00000280: 71b9 96bd f5fd 31be 0619 25be fe40 09be
00000290: 0b0d d23d e75d b73d 7443 2b3e c02a 423e
000002a0: 52a9 163c 65bb aa3d c71f 643d 6244 573e
000002b0: 3829 10be 0fb4 c7bd 5b54 f53b 49aa 4fbe
000002c0: 2fec 1ebc 5cbf adbc c5db a53d 9d5c 693d
000002d0: 1b5d e7bd e39d 2cbe e4be 92bd 2226 c13d
000002e0: 240f b2bd 2c99 333e 8dff 883d 8768 563d
000002f0: c07b 01bd 8f76 a8bd 6f5c 61bf e64a 1a3e
00000300: ca38 4c3d c709 0abe 4924 1e3e 6359 7c3e
00000310: 2500 d53d adab cb3d e2f1 95bd 49a2 b4bc
00000320: f4e1 eb3d b1c3 3bbe 90f1 bebd 7168 433d
00000330: d052 c93d 03eb 2cbe 9e08 eb3c 70bf 9c3d
00000340: b2f8 8c3d 4766 733c 2409 3cbd e014 00bc
00000350: e814 95bd 6a21 81bd 13ec a93d 8ae8 0e3e
00000360: 068c 7fbd a47b 20be f4da db3d 54ba d63d
00000370: 4102 7d3d b276 eb3d cc36 3d3d c5af db3c
00000380: 0764 9abd 12c9 993d 34e9 003e c216 243d
00000390: 799a a6bd 4731 983d 0430 14bd 29d8 b7bd
000003a0: d9a0 6a3c f64e 5abc 7962 cc3c df0a 2e3e
000003b0: 8937 833d 5ef2 3b3d 3654 8f3d 7523 9fbd
000003c0: a16a a03d 894c 53bc 5321 8abd fd13 2cbe
000003d0: 1b58 e13d 39bf 12be a012 0e3e a4a7 38be
000003e0: 064e 72bd 1465 133d 952f 4f3e f672 f3bd
000003f0: 8fc3 dc3d 028d 00be c6bb 363e 0575 55bd
0.14012098 0.09992477 0.22821286 -0.0014462605 -0.24753426 0.025224904 0.10032323 0.08672048
-0.090617515 -0.06159156 0.04679627 0.102258675 -0.35569102 -0.10394556 -0.08888197 -0.07245074
-0.12030951 0.10322445 0.03706662 -0.0073327664 -0.031042602 0.09310508 -0.032927677 -0.05581564
-0.21867064 0.11294433 0.018741595 -0.11337708 -0.04747732 -0.043989267 -0.06418277 0.20899011
-0.0380057 -0.04258987 -0.09034191 -0.009393445 -0.14797178 0.014238456 -0.121757776 -1.326721
-0.7166827 -0.16458538 0.023490578 0.042603955 0.11193545 0.033124898 -0.15919758 -0.07147666
0.02989018 -0.7156304 -0.03650588 -0.06509794 0.2406891 -0.10469168 -0.3921557 -0.19011495
-0.109902725 0.07648422 -0.08501594 0.0016367917 -0.17065296 -0.04165018 0.065004475 0.07564289
0.007991461 -0.013677887 0.116041176 0.11598757 -0.06873662 -0.008787403 0.035436004 0.004414145
-0.16648129 -0.13360056 -0.24657044 0.06156924 -0.07167608 -0.12393585 0.16163778 0.118092574
0.077003665 0.061727017 0.11191138 -0.09021038 0.06692619 -0.158107 0.15061763 -0.09777182
0.01528704 0.020099439 0.09545822 -0.01490198 0.16600586 -0.014845514 0.0781019 0.00080835057
0.055104665 -0.16626976 -0.053350743 -0.012637728 0.016415251 -0.09504375 -0.1817804 0.12159068
-0.0076699993 -0.0012339022 -0.20569383 -0.44570103 0.17226413 -0.012177447 0.04628499 0.13872205
-0.035370607 0.14320455 0.14066936 0.14387701 0.10018609 0.07968685 -0.05331224 -0.11697451
-0.2630797 0.090107694 0.118797354 -0.019497668 -0.082513735 -0.026799202 -0.058631495 0.16099255
-0.007833932 -0.1094719 0.026271325 0.053745292 0.09993556 -0.15877655 0.1489263 0.014492149
-0.20242344 0.07658271 -0.10629601 -0.04293061 0.06591284 -0.034344643 -0.1052099 0.05375034
-0.156255 0.16357203 -0.14190482 -0.067516774 -0.086240426 0.022969885 -0.035428427 -0.05952033
0.21727076 0.115787454 0.18613286 0.061775964 0.08132664 -0.08239959 0.13302863 -0.075735055
-0.07359589 -0.17382033 -0.16122827 -0.13403699 0.10256394 0.08953457 0.1672495 0.1896162
0.009195643 0.08336524 0.055694368 0.2102218 -0.14078224 -0.0975114 0.0074868626 -0.20279802
-0.009699865 -0.021209411 0.08098558 0.05697309 -0.11297055 -0.16857104 -0.07165316 0.094311014
-0.08694294 0.17538899 0.066893674 0.05234578 -0.031612158 -0.08225738 -0.8803167 0.15067634
0.049858846 -0.13480292 0.15443529 0.24643473 0.10400418 0.09944854 -0.07321526 -0.02205004
0.115177065 -0.18336369 -0.09323418 0.047707025 0.09830248 -0.16886525 0.028690632 0.07653701
0.06883372 0.014855928 -0.045907155 -0.007817477 -0.07279378 -0.06305201 0.08296981 0.13955894
-0.062389396 -0.15672165 0.10735121 0.10484758 0.061769728 0.11497249 0.046194836 0.026817212
-0.0753861 0.07509054 0.1258896 0.040060766 -0.08134932 0.07431274 -0.036178604 -0.08976776
0.014320576 -0.01332449 0.0249493 0.16996334 0.06407077 0.045885436 0.06998484 -0.07770435
0.07832838 -0.012896665 -0.06744637 -0.168045 0.11003133 -0.14330758 0.13874292 -0.180327
-0.05915644 0.035985067 0.20232995 -0.118871614 0.10779487 -0.1255379 0.17845067 -0.05211355

value.2.bias f4 [32]
00000000: 6741 903e 05d6 babc 7582 29bd d6da 65be
00000010: e7ae 983e f679 99be f79a d83d f580 6ebe
00000020: d05f 3bbe 3154 643e b347 01be f0e0 fdbd
00000030: 45db 913e fba6 d03e a5da 99be 3ee2 cbbd
00000040: c289 963e 196a a93d 094a d4bd b983 613e
00000050: 3a1f 8ebe c317 9a3d 53a2 133d ae25 2b3e
00000060: c126 2ebd 11bc 72be 6685 8d3e 8e7b 1bbe
00000070: b0b0 45be 710c 3bbe 01c0 2cbe 37e3 b33d
0.28174898 -0.02280713 -0.04138418 -0.2244676 0.2982094 -0.2997586 0.10576432 -0.2329138
-0.18298268 0.22297741 -0.12625007 -0.12396419 0.28487602 0.40752396 -0.30049625 -0.09955262
0.29401976 0.0827219 -0.103656836 0.22022904 -0.277582 0.075240634 0.036043476 0.16713592
-0.042517427 -0.23704554 0.27640837 -0.15183851 -0.19305682 -0.18266465 -0.16870119 0.08783572

value.4.weight f4 [1, 32]
00000000: 51cd 393d 8c8b e2be 00ed d5bc c78b b3bd
00000010: f688 b63d 8acc ffbd baec 183d abce 27bd
00000020: fd04 72bd 5b02 343d e32d 61be ed44 95bd
00000030: 1eb4 833d cea9 f63d b0c0 ccbd 645e 863d
00000040: 9d88 3c3d bec1 243d 942b 003d 29c4 9d3d
00000050: d068 86bd 9c70 77bd 6f36 403d 6e84 333d
00000060: b11d aabd 86ba 8fbd 524a 083d 3a51 d1bd
00000070: 2be9 cebc 8d02 eebc 0442 19bd 69ea 923d
0.04536182 -0.4424709 -0.026113987 -0.08766895 0.08912842 -0.124901846 0.037335135 -0.04096858
-0.05908679 0.04394756 -0.2199016 -0.07288537 0.06430839 0.120441064 -0.0999769 0.06560972
0.046028722 0.04022383 0.03129156 0.0770343 -0.0656296 -0.060410127 0.046926912 0.043827467
-0.083064444 -0.070179984 0.033274002 -0.10220571 -0.025257668 -0.02905395 -0.037416473 0.071736164

value.0.weight f4 [32, 12]
00000000: 8592 643d 4538 94bd 36f7 1b3e 1f5e 64bd
00000010: b2a6 69be 5b25 1e3e 883c 8e3e 3448 9b3d
00000020: c6f8 293e 8e9f 51be c008 aabd 4ecc ff3e
00000030: 0ed3 21be a56e bdbc b07a 53bd 3a14 29bd
00000040: 9327 11be 437e 20bc 14b1 5c3d 5f13 5b3c
00000050: d67f 92bc 4c96 68be 94d8 e3bd 6838 a3bf
00000060: 31c1 ba3d cf36 433d 4309 963d 08e1 c23d
00000070: 2ea3 873d 6100 eaba 593a 6dbe c82c 5dbe
00000080: b96b 8c3e 63f5 26be e801 eb3e a41f 6d3f
00000090: d98b 083d b11d 023e de5f d0bd 6d65 69bd
000000a0: b0e3 2dbe 0c19 57bd 8f19 3d3e 62ce 973c
000000b0: be4e dbbd 6b5f 22be b20d e6be c9fe 0bbe
000000c0: 7308 b0bd 1616 5c3c d5ef 85bc 9d0d 893d
000000d0: 3f26 823e c196 c2be 679e a83e a497 fe3d
000000e0: 8dc3 49be 604b 31be 96fc 54be a003 b53f
000000f0: 5383 0fbc e0c5 a7bd eb94 9f3c 4bcf b03c
00000100: fed1 b03e e1f5 a8be a64e 8a3d c483 893a
00000110: 4bef b33d 7970 e93d 50aa 6dbd 2ad8 08bf
00000120: 2e9b 4f3d 8a01 88bb f768 c0bd 7049 05be
00000130: d8d5 c63d 6cae 383e af0e 08be 87a7 503d
00000140: 1807 8c3e aed2 2cbe 4695 023f de2c 103e
00000150: 9f95 0f3e eb99 913c 9d18 183e 4d44 47bd
00000160: 6b78 60be cbec 5c3b bc23 b23e 26ee a23e
00000170: ac45 dbbc 21b2 fbbd c88d e53f dd29 fa3e
00000180: d5cc 64bd 6b7f 1bbe 3307 1e3e d5ff 3db9
00000190: ea56 57bd 8451 d3bd 57bb cbbd 0adf 543e
000001a0: e495 c6bc 7022 a2bd 53a3 643d bf73 c9be
000001b0: b38c 58bd fa35 09bd 7236 60bc b882 253d
000001c0: c4e9 d93d 7f64 083e cd97 bebc 4ca3 773d
000001d0: 9a77 b1bc 985d 233e bc38 58be e526 6d3e
000001e0: 3f5c 6dbd 3175 6b3d bd6a ddbd e3f8 8d3e
000001f0: a7c4 13be 7164 8d3e 62b9 8b3d 8d58 95bd
00000200: bcc1 8cbe 3662 e93c bffd a43d d542 873f
00000210: 8e2f 9dbd 59af 153a e75a a23d 1520 fcbe
00000220: 180f 463d 4376 ff3c 4105 993e 5bdc 883e
00000230: efa6 123e c6ae 3cbd d9fa 98bd f04b b53d
00000240: 1bee 60be f3b1 663e 34ec 17be f22b 483e
00000250: 3f7d 483e bea1 3f3d 71e7 1bbb 2e99 2f3b
00000260: 4ca8 1a3e 2607 05be acd4 c2be def8 ccbc
00000270: 24d0 ae3d 63ee b7bd eb8c d1bd 2a73 d83d
00000280: dfb5 85bd b22b ae3d e6b8 08bc 82af 163e
00000290: c707 fc3d b1d0 833e 9033 573e e602 32bf
000002a0: 2331 bcbd c240 cebc 503c f93d 51bf 65bc
000002b0: 0fbc 82be e6fb db3d 7303 e33a a494 aabd
000002c0: a4fd 24be 479f af3d 542b 46be 533e 5f3e
000002d0: 73bb f3bd 04cf 1c3d f44e 5a3e 1a0a 3fbd
000002e0: a0f2 09bd 3edd 073e a6dc 2ebe 6b83 f4bc
000002f0: 90bd 9b3e 21fc 943e 681d c83e 53bd 2b3e
00000300: 7bc8 923d ff94 04bc 7a8e 853c d0e4 663b
00000310: 9807 1abd 16ca 0abe b0d5 47be 5542 d23d
00000320: 43be 9cbc 4771 2dbd 4c34 0d3f 67d3 e43c
00000330: d952 183c b9bd cbbd e0bd 08be b41f a7bc
00000340: f059 61bd 67d5 513e fb9c 69be e991 073d
00000350: 05ae 8fbe d56e f73d 50c2 593d 4337 a23e
00000360: a605 c5bd beb9 c33c bd6f e3bd 0fe5 1e3e
00000370: dd2c a93d fa3d a7bd e9c8 4fbe deb2 46be
00000380: 3215 863e 08e7 32be 9bc5 4abe 83a8 c33e
00000390: 5674 753d 0182 4e3c b9f6 8c3d ac0a ec3c
000003a0: 3d08 ff3e a9f5 1f3e 4d14 343d 572d c43d
000003b0: 2d4b 79be 1867 273e 6c08 ea3c 6137 a63e
000003c0: 4f22 173e 84c4 703d 42d8 8bbd 36b7 db3c
000003d0: 2d98 f73c 63e3 9ebd 4d3a f93d bb89 13be
000003e0: 1bb1 18be d2ef 383e 89d4 a7bf 8859 e0bd
000003f0: 7cbd 83bb 4a1a 8bbd 397d e1bd f410 3c3e
0.055803794 -0.07237295 0.15231022 -0.055753823 -0.22817495 0.15443937 0.27780557 0.07582131
0.16598806 -0.20471022 -0.0830245 0.4996056 -0.15803167 -0.023124048 -0.051630676 -0.041279055
-0.14175253 -0.009795728 0.053879812 0.013371318 -0.017883223 -0.22713584 -0.111252934 -1.2751589
0.091188796 0.04765969 0.07325985 0.095155776 0.06622921 -0.0017852896 -0.23166789 -0.21599114
0.27425936 -0.16304545 0.45899892 0.92626405 0.033336494 0.12706639 -0.10174535 -0.056981493
-0.16981387 -0.05251412 0.18466781 0.018531028 -0.10708378 -0.15856712 -0.44932324 -0.13671412
-0.085953616 0.013433 -0.016349712 0.0669205 0.25419804 -0.3800564 0.3293335 0.12431267
-0.19703503 -0.1731391 -0.20799479 1.4141731 -0.0087593375 -0.081920385 0.01948019 0.02158322
0.3453521 -0.3300009 0.06753282 0.001049154 0.08785876 0.113984056 -0.05802375 -0.5345484
0.0506851 -0.004150574 -0.093950205 -0.13016295 0.09708756 0.18035287 -0.13286851 0.050941017
0.27349162 -0.16877243 0.51009023 0.14079615 0.1402192 0.01777359 0.14853139 -0.04864912
-0.21920936 0.0033710476 0.34792888 0.31822318 -0.02676662 -0.12289835 1.7933893 0.48860064
-0.055859406 -0.15185325 0.15432434 -0.0001811975 -0.052573122 -0.10318282 -0.099478416 0.20788208
-0.024241395 -0.07916725 0.05581982 -0.3934612 -0.052868556 -0.03349874 -0.013684856 0.040407866
0.106402904 0.13319586 -0.023265744 0.060458466 -0.021663476 0.15953672 -0.21115392 0.23159368
-0.0579493 0.05748481 -0.10811374 0.27728948 -0.14430486 0.27615693 0.06822468 -0.0729228
-0.27491558 0.028489213 0.08056211 1.056727 -0.07675086 0.0005710028 0.079274945 -0.49243227
0.04835424 0.031184321 0.2988682 0.26730618 0.14321493 -0.046065114 -0.074697204 0.088523746
-0.2196583 0.2252882 -0.14836198 0.19548014 0.19579028 0.04678511 -0.0023789073 0.0026794183
0.15103263 -0.12991008 -0.3805288 -0.025021013 0.085357934 -0.089810155 -0.10231956 0.10568841
-0.0652883 0.08504428 -0.0083448645 0.14715388 0.12306171 0.25745156 0.21015763 -0.6953567
-0.091890596 -0.025177363 0.12169707 -0.014022664 -0.25534102 0.10741405 0.0017319754 -0.08329132
-0.16112381 0.085753016 -0.19352466 0.21801119 -0.119009875 0.038283363 0.2131918 -0.046640493
-0.03367865 0.13267991 -0.17076358 -0.029847821 0.30418062 0.2909861 0.39084935 0.1677144
0.07167145 -0.008092164 0.01630329 0.0035231598 -0.0376049 -0.13553652 -0.19515109 0.10266558
-0.019133693 -0.042344358 0.55157924 0.027932836 0.009297096 -0.09948296 -0.13353682 -0.02040086
-0.05501741 0.20491563 -0.2281379 0.033098135 -0.28062454 0.120816864 0.053163826 0.31682786
-0.09620218 0.02389228 -0.11105297 0.15517066 0.0826051 -0.08166118 -0.20291485 -0.1940417
0.26188046 -0.17470944 -0.19801943 0.38214502 0.0599254 0.0126042375 0.06882996 0.028813682
0.49810973 0.15621056 0.043964673 0.095789604 -0.24345084 0.16347921 0.028568469 0.32464126
0.14759181 0.058781162 -0.06828357 0.02682076 0.03022393 -0.07758214 0.12169323 -0.14408009
-0.1491131 0.18060234 -1.3111736 -0.10954577 -0.004020391 -0.067921236 -0.110102125 0.18365842

value.0.bias f4 [32]
00000000: 1d78 683e 290e 023e 11f2 313e 1f6c 933e
00000010: b157 de3b ea83 48be 5ba7 7bbc 98ca a8bc
00000020: 0996 843d cd6e 8cbe 19b8 9ebe 8d37 3abd
00000030: 6778 89be 2cb7 973e 3f53 debe 3c75 623e
00000040: 4172 1bbd 94bb 873e 3927 cebc 8e1e 2a3c
00000050: 553d dd3d c072 7e3e b62b 1d3f 6e96 d73c
00000060: e59c 863d f4d2 7c3b 5c60 8fbe b79c c13d
00000070: 4e58 813e 9d2e 42be 6680 a8bd 3103 6e3e
0.2270207 0.12700714 0.17377497 0.28793427 0.006785356 -0.19581571 -0.015359725 -0.020604417
0.064739294 -0.27428284 -0.3099983 -0.045463134 -0.26849672 0.29631937 -0.43422887 0.22115034
-0.037950758 0.26510298 -0.025165187 0.010383261 0.10802714 0.24848461 0.6139482 0.026316848
0.06572894 0.0038577886 -0.28003204 0.09453719 0.25262684 -0.18963094 -0.08227615 0.23243405

value.2.weight f4 [32, 32]
00000000: 7378 0e3e b899 cc3d 494a 693e d45f cbba
00000010: 8b37 80be 11a9 c43c 7884 cd3d 6d2f b23d
00000020: ae27 babd 4eda 7abd 40d9 3e3d 85ec d03d
00000030: 36b1 b5be cdf5 d6bd ae1c b6bd b157 95bd
00000040: d28e f6bd ee86 d33d a6f7 173d c8c6 e2bb
00000050: 3d3a 03bd 5c05 bd3d ac05 02bd 935e 65bd
00000060: 06bb 5fbe 37c1 e73d fef0 983c 61d6 e8bd
00000070: 0949 43bd 28a6 34bd 0e1d 86bd f23e 543e
00000080: 79ab 1bbd 2e27 32bd 39dc b7bd c6f6 23bc
00000090: 4e86 17be 5590 7b3c 659b fabd fedc a9bf
000000a0: 48c9 37bf ae88 28be 7f57 c33c a30c 293d
000000b0: 35e8 e53d 12ab 0a3d 5902 24be 02ee 91bd
000000c0: 7259 f33c 7262 37bf ccb5 11bd c4ca 84bd
000000d0: d405 763e 97ec d3bd 3ec8 c8be 1244 41be
000000e0: b8b9 e1bd a0a5 9c3d 1568 a7bd 4fdb 103b
000000f0: d093 2ebe 66ab 2ebd da7f 843d 5c63 9a3d
00000100: bc47 043c 0d3d 54bc 1ca1 ed3d f9ee ee3d
00000110: 6e03 8abd aced 0dbc b242 113d 9564 cc3b
00000120: 979b 28be b79e 09be 4c84 7dbe a891 7c3d
00000130: b21d 91bd a6ea febd 50a4 253e 8a17 f23d
00000140: fd11 9f3d c7c2 7b3d 3d81 e43d a2c5 b6bd
00000150: 3464 893d 8333 22be 2169 1a3e e9a4 c4bd
00000160: 5041 733c 35d6 9e3c 1b32 c43d 03ab 6abc
00000170: 53b7 283e 089e 77bc 51d0 a03d 7836 fd3a
00000180: b59b 613d 86a3 29be 5f9a 59bd b0b2 50bc
00000190: f10a 783c 2a14 c3bd 0e4e 39be 52db f73d
000001a0: 6314 ebbb e4ec 0dbb 6860 53be cceb e3be
000001b0: c83a 313e ee31 38bc 7f32 3d3d 62e0 0d3e
000001c0: 5461 0ebd 7d02 133e c87d 103e ab48 133e
000001d0: 0045 d03d 3a29 a33d eb36 5dbd 7537 efbd
000001e0: c7e5 85be 73ad b73d 7fbf f33d e482 a7bc
000001f0: 4225 a7bd 23ff e8bc d3c8 71bd 0f53 253e
00000200: 322a 00bc 4fd5 e1bd 68a5 d43c 96a6 5e3d
00000210: 3be1 d13d 1766 21be 19cf 183e f308 6b3c
00000220: 8a23 4fbe 355a 9e3d 8ef2 d8bd b038 2fbd
00000230: 5547 873d dd4c 12bd 9e4a d8bd aeb2 5b3d
00000240: 7936 1fbe f792 273e 005e 11be 1114 8abd
00000250: b3bb b1bd e5ad bd3c 3465 0ebd 8588 74bd
00000260: ba2e 5f3e 213a ee3d 61ef 3e3e 3627 7d3d
00000270: 5597 a53d 9dfd a4bd e5a0 073e c5fa 98bd
00000280: f5d8 96bd 1b4f 30be 797c 23be 1b79 08be
00000290: 67f2 cc3d a4e8 b73d 4ff1 2b3e 6b74 423e
000002a0: 6f88 1f3c ddc2 a93d 3487 533d fa02 583e
000002b0: 3031 10be e53d c7bd e0ce 1b3c c300 4cbe
000002c0: 8432 2dbc 0cf0 acbc aa67 a73d 3fa4 683d
000002d0: d13e e6bd 9319 2cbe dfce 92bd d559 bf3d
000002e0: 4ba8 b0bd 8b43 343e dadc 883d 73f6 593d
000002f0: 5961 03bd 898a a5bd 6350 60bf f4f7 193e
00000300: d35d 4d3d 232a 0abe ef64 1e3e 7eca 7c3e
00000310: e7cd d43d 5cc9 cb3d 0f94 94bd 1c9f b6bc
00000320: 2713 ea3d 21f9 3abe 7809 bebd 627f 3d3d
00000330: f79e cc3d c04c 2bbe 0170 ea3c 090d 9b3d
00000340: 0983 8c3d 547d 883c 8219 3abd 1695 fabb
00000350: 486c 95bd ef94 80bd fcce aa3d b6ba 0e3e
00000360: bdc5 7dbd 79ee 20be 71bb da3d 698a d83d
00000370: 7afe 823d a943 ed3d d824 3e3d fc35 dd3c
00000380: 995e 98bd c5df 973d 0190 013e fee8 233d
00000390: 3480 a9bd ac4a 973d 1a2c 15bd d3eb b3bd
000003a0: 9f86 7f3c 87ba 60bc 2d0f c93c 8940 2d3e
000003b0: 0802 803d 2ea6 403d 2d49 903d e65d 9ebd
000003c0: e21c a23d ff21 5cbc 2570 8bbd 5bdb 2bbe
000003d0: ccc0 e23d 2e7a 12be 0176 0d3e 78bc 36be
000003e0: eedc 72bd 3ec9 113d 673b 4f3e cba9 f1bd
000003f0: 69a5 dc3d 35ce 02be 0b42 373e 413f 56bd
0.13913135 0.09990257 0.22782244 -0.001551623 -0.25042376 0.024006398 0.10035032 0.08700452
-0.090895995 -0.061243348 0.046593904 0.102013625 -0.35486764 -0.104961015 -0.08892189 -0.072921164
-0.120389596 0.1032847 0.03710141 -0.006920669 -0.032037962 0.09229538 -0.03174369 -0.055998396
-0.21848688 0.1131615 0.018669602 -0.113690145 -0.047677074 -0.04410377 -0.065485105 0.20727137
-0.038005326 -0.043494396 -0.08977551 -0.010007566 -0.14797327 0.015354236 -0.122366704 -1.3270566
-0.71791506 -0.16458389 0.023845432 0.041271817 0.112259306 0.03385455 -0.1601652 -0.071254745
0.029705737 -0.7163459 -0.035573766 -0.06483987 0.24025661 -0.1034786 -0.39215273 -0.18873623
-0.11021751 0.07648778 -0.08174149 0.0022103374 -0.17048573 -0.042643927 0.06469698 0.075384825
0.008073743 -0.012954009 0.11602995 0.11666674 -0.067389354 -0.008662622 0.035463996 0.0062375762
-0.16465603 -0.13439451 -0.24757499 0.061662346 -0.07085742 -0.124470994 0.16175961 0.11820896
0.07767103 0.06146505 0.11157463 -0.08924414 0.06708565 -0.15839963 0.15079166 -0.096017666
0.014847115 0.019389251 0.09579869 -0.014322999 0.16476183 -0.015113361 0.07852233 0.0019318601
0.055080134 -0.16566285 -0.053125735 -0.012737915 0.015139327 -0.0952533 -0.18096182 0.12102379
-0.007174061 -0.002165609 -0.20642245 -0.44515836 0.1730758 -0.011242373 0.046190735 0.13855127
-0.034760788 0.14356418 0.14110482 0.1438319 0.10169411 0.07966848 -0.054007452 -0.116804995
-0.2615187 0.0896863 0.11901759 -0.020448156 -0.08161403 -0.028441971 -0.05902941 0.16144966
-0.00782256 -0.110270135 0.025957778 0.054358087 0.102480374 -0.157616 0.14922751 0.014345395
-0.20228401 0.077320494 -0.10593139 -0.04277867 0.066054024 -0.035717834 -0.10561107 0.0536372
-0.15548123 0.16364656 -0.14196014 -0.067421086 -0.08678379 0.023154208 -0.034764484 -0.059700508
0.21795169 0.11632181 0.18646003 0.061804973 0.08085505 -0.080561854 0.1324497 -0.074697055
-0.073656 -0.17217676 -0.15965451 -0.13327448 0.10007172 0.089799196 0.1679127 0.18989722
0.009737118 0.0828912 0.05164261 0.21094885 -0.14081264 -0.09728602 0.009509772 -0.19922166
-0.010571126 -0.021110557 0.08174069 0.056797262 -0.1124245 -0.16806631 -0.07168364 0.09343306
-0.08625849 0.1760389 0.06682749 0.053213548 -0.03207526 -0.08083064 -0.8762266 0.15035993
0.050138306 -0.13492636 0.1546819 0.2468662 0.10390835 0.09950516 -0.072548024 -0.022292666
0.11429434 -0.18259098 -0.0927915 0.04626406 0.09991258 -0.16728497 0.02861786 0.07570846
0.068609305 0.016661324 -0.045434482 -0.007647167 -0.07296044 -0.06278407 0.083402604 0.13938412
-0.061956156 -0.1571597 0.10680283 0.10573275 0.06396194 0.11585171 0.046421856 0.02700328
-0.07439918 0.074157275 0.1265259 0.04001712 -0.08276406 0.073872894 -0.03641901 -0.08785214
0.015596061 -0.013716347 0.02454337 0.1691915 0.062503874 0.04703348 0.07045207 -0.077327535
0.07915665 -0.01343584 -0.06808499 -0.16782896 0.11071929 -0.1430442 0.13814546 -0.17845333
-0.059292726 0.03559231 0.20237504 -0.117999636 0.10773737 -0.12773974 0.17896287 -0.052306417

value.2.bias f4 [32]
00000000: e3c0 8f3e 5b48 bdbc 1c3f 28bd f549 65be
00000010: 4087 983e 8c02 99be c501 d93d defa 6dbe
00000020: 8cda 3abe c69b 643e e706 02be 3e74 fcbd
00000030: 37bc 913e c7a1 d03e 34d4 99be b9f0 ccbd
00000040: 6748 963e 400f a93d 8b83 d5bd 1f5b 613e
00000050: e6d4 8dbe 9a97 993d 02b8 133d 5e8c 2a3e
00000060: 00dc 2ebd c18e 73be b472 8d3e d00c 1dbe
00000070: fc26 46be f4c4 3abe 02b5 2cbe 2e63 b23d
0.28076848 -0.02310579 -0.04107581 -0.22391494 0.29790688 -0.29884756 0.10596041 -0.2324023
-0.18247432 0.22325048 -0.12697946 -0.12326859 0.2846391 0.40748426 -0.3004471 -0.10006852
0.29352114 0.08254862 -0.104254805 0.22007416 -0.2770149 0.07499619 0.036064155 0.16655108
-0.042690277 -0.23784925 0.27626574 -0.15336919 -0.19350809 -0.18239194 -0.16865924 0.08710323

value.4.weight f4 [1, 32]
00000000: 255e 383d a991 e2be e012 d6bc 30a7 b4bd
00000010: f345 b73d a731 ffbd 23f5 173d 78d9 27bd
00000020: bc95 74bd cec3 343d c128 5ebe a06c 94bd
00000030: 3fa4 843d d0a5 f73d a3e4 ccbd 7a45 853d
00000040: 6185 3a3d 214d 263d b13e 003d 7a5d 9d3d
00000050: 421b 88bd d13b 77bd d09a 403d 7040 353d
00000060: d5d4 a8bd d4e1 8cbd 6047 083d 21e6 d1bd
00000070: cb5e d3bc 40bf eebc 3c8e 18bd add6 913d
0.04501166 -0.44251755 -0.026132047 -0.08820951 0.08948889 -0.12460642 0.037099015 -0.04097888
-0.05971311 0.044132046 -0.21695234 -0.07247281 0.0647664 0.12092173 -0.100045465 0.06507392
0.045537356 0.0406009 0.031309787 0.07683845 -0.06645824 -0.06035978 0.04702264 0.044250906
-0.082437195 -0.06879011 0.033271194 -0.10248972 -0.025802037 -0.02914393 -0.03724502 0.07121024

actor.0.weight f4 [32, 10]
00000000: b067 febe 8440 6dbe 6622 adbe 915f babd
00000010: 99be d83e 581b d7be cbf3 bd3d b1e1 183e
00000020: 5863 f43d 8fd8 f03d da5f c0be 07f4 84be
00000030: 4eee f8bd e6e4 843d 1137 d03c a98a 973e
00000040: 6f76 acbd 1f01 cd3d 3abf ac3e de04 a13d
00000050: 0356 823e bd6a 2abe ad17 aa3e 9483 1e3e
00000060: 3928 8a3e aab2 18bf 1da4 d0bd 1b16 ba3e
00000070: ce77 c1be edd4 babd 11a9 5bbd 8351 e43d
00000080: b29e ecbe 7584 ce3d eda3 013d 4dcf 753c
00000090: 22f3 ed3d d637 f9bd c3cc fe3e 5f03 953d
000000a0: 2ada 0ebe ed52 5cbd 1017 bc3d 58da 90be
000000b0: 203f 5abd 14ac d1be e717 9ebe 6a19 4dbe
000000c0: 6ea9 00be ddb4 3c3e 6799 a6bc f061 0e3e
000000d0: 1602 adbb a8cb 183d a8c6 bfbe 3e59 c73e
000000e0: 4c26 0b3d c6b9 1f3e a4d1 a63e 19ab 013e
000000f0: d126 9a3d 870f c7bd 9804 b0bd 9361 7bbd
00000100: e875 bf3e 504a cf3e e46e c13d e2b3 bf3e
00000110: 4a6b 50bd 42ea 303e 0f6d 7ebe 3ae5 783a
00000120: 6300 10be 8403 ec3d 707f 003f 6e80 ec3e
00000130: db2a f83e 0b0c b33e e58e 73be fdf2 b33d
00000140: 5cbf c53d 440d 94be 28a1 533e 1ff9 413e
00000150: 6023 ecbe 0a60 49be 5310 c53d 7ea3 023f
00000160: 658b 583e d4f5 de3d 9e2f b6bd 1bff 6f3d
00000170: 38c7 9e3d c39e 16bf 1e90 893d 1078 093e
00000180: fc1c 72be bcaa 96bc a2ee 7bbd cada 1fbe
00000190: 28f3 80bc 0176 18be 7a90 aa3d 0c5e abbe
000001a0: 896b 953e cadd c2be d348 cfbe 7f69 9b3d
000001b0: 40bd 853e 73c6 b83e 32aa a2bd ea47 8c3e
000001c0: c8a1 d03d cf52 15be 9c55 0dbe 8b89 debe
000001d0: 86ef f2bd 8bb2 dfbd 56a1 093e 405f 873d
000001e0: 7523 9bbd 33d1 b2be 9324 8cbe 554e 6ebd
000001f0: dcec af3e ae8d 103e a5a3 14bb 319b 76be
00000200: f905 78bd 090c e7bd dc69 c53d 91cb 21bd
00000210: e133 48be 4da0 4cbe 210a d43c 0c52 b63e
00000220: 0ec8 653e 87b8 003e bbfa 92bd 4ccb 863e
00000230: 4058 c9bd ee59 0cbe eb7a 243f 0005 d33e
00000240: 32c5 febd b952 d5bd 27af 7f3d 7adf 103c
00000250: 79f3 a2bd f4bd 2f3d fef2 83be da73 403e
00000260: 312c 673e 687c 4ebe 3a44 21be c945 bfbd
00000270: 7249 9abe d97b 7bbe 4dc8 d1be 9edd efbe
00000280: a1fb c43d 0eb5 59be ce70 0d3f 0a12 bfbd
00000290: 6abe cabd 19b6 9e3d e6df a13e 0f8c 07bd
000002a0: 66da 5abe ea1b dabe 6ea8 2abc 1870 9e3c
000002b0: 1396 d83e 632e f4be 985d 72be 6778 b5bd
000002c0: 0e45 643e fcd3 fa3e a397 94be 0598 b9be
000002d0: 0735 64be f9f2 b73d 5132 b4be ef7a 093f
000002e0: ab74 c0be ce06 663d 79db e9bd 4808 7abe
000002f0: eb81 12be 0e6f 65be 943e 62bc 1011 283e
00000300: 3193 2abe c21e 79bd 3bd5 973e d371 1fbf
00000310: 10cd 3a3e 882a 26bd 1ec5 10bc 63c3 00be
00000320: 31c2 04be ccd4 d0be 8e4a 5abd 97f9 d73b
00000330: 33c9 98be ebec 793e 9fc4 79be 4210 a5be
00000340: 799b 273e e91a 88be d8d1 493d 5e84 46be
00000350: e068 abbe d068 3f3e f835 b5bd 7f66 5b3d
00000360: c12f 4a3e d72d 7abe 4dc5 ecbd a397 cfbd
00000370: 96a3 61be 6190 6abe 77d9 ab3e 9bcd f13c
00000380: 20c9 a93e f006 983e 401d a7be 4057 b9bc
00000390: f82b 713e eb68 7e3e f582 ea3b 72df 2ebe
000003a0: 25e4 a9bd 4004 7bbe a531 88be f01d 71be
000003b0: e3e5 ab3e d6b4 4a3e 8452 e5bd 98bb 8ebd
000003c0: c0db 39bf eabb 903e bf87 21bd 8b87 643d
000003d0: 87c1 453e db32 f93e 5fa2 0d3e dd89 6abe
000003e0: 33c9 0a3e d1fd 803e 9ce9 efbe 1dd6 17bd
000003f0: e4c6 0f3e 0d8a 393e 0e07 5e3e 14d3 4dbe
-0.49688482 -0.23169142 -0.33815306 -0.09100259 0.42332914 -0.4201305 0.092750154 0.14929844
0.11933011 0.11760055 -0.3757313 -0.25967428 -0.12154828 0.064889714 0.025416883 0.29597977
-0.08421027 0.100099795 0.33739644 0.078622565 0.25456247 -0.1664228 0.33221188 0.1547988
0.26983812 -0.5964762 -0.10187552 0.3634499 -0.37786716 -0.091226436 -0.05362803 0.111483596
-0.46214825 0.10083858 0.031650472 0.015003038 0.116186395 -0.12168853 0.49765596 0.072760336
-0.1395041 -0.05379002 0.09184086 -0.28291583 -0.053282857 -0.40951598 -0.3087761 -0.20029226
-0.12564632 0.18428369 -0.02033682 0.13904548 -0.0052797897 0.037303597 -0.3745625 0.38935274
0.03397207 0.1559821 0.32581818 0.12662925 0.07526935 -0.097197585 -0.08594626 -0.06137235
0.37394643 0.40486383 0.09444979 0.37441927 -0.05088357 0.17276862 -0.2484629 0.00094946066
-0.14062648 0.11524108 0.50194454 0.46191734 0.48470196 0.34970126 -0.23784979 0.08786581
0.096556395 -0.2891637 0.20666945 0.18942688 -0.4612074 -0.19665542 0.09622254 0.5103072
0.21146925 0.10886732 -0.08895801 0.058592897 0.07752842 -0.58836 0.06716941 0.13424706
-0.23643869 -0.01839196 -0.061506875 -0.15610805 -0.015740946 -0.14888765 0.08328338 -0.3347019
0.29183605 -0.38059837 -0.40485248 0.07588481 0.2612095 0.36088905 -0.079426184 0.27398616
0.10187107 -0.1458237 -0.13802189 -0.43464312 -0.11862092 -0.10922726 0.13440451 0.06609964
-0.07575122 -0.3492523 -0.27371654 -0.058180172 0.34360397 0.14116547 -0.0022680548 -0.24082638
-0.06055257 -0.112815924 0.09639332 -0.039500777 -0.1955104 -0.19983025 0.025883736 0.35609472
0.22439596 0.12570392 -0.07176729 0.26326978 -0.098312855 -0.1370618 0.6425006 0.41214752
-0.12439956 -0.10416169 0.062422898 0.008842343 -0.07956595 0.042905763 -0.25771326 0.18794194
0.22575451 -0.20164645 -0.15748683 -0.09339482 -0.3013416 -0.24558963 -0.4097313 -0.46848768
0.09618307 -0.21260473 0.5525025 -0.093296126 -0.098996 0.07749576 0.31616133 -0.033092555
-0.21372375 -0.42599422 -0.010416133 0.01934056 0.42301998 -0.4769164 -0.23668516 -0.088608555
0.22291967 0.48989856 -0.2902194 -0.36248794 -0.22285853 0.0898189 -0.35194638 0.53703207
-0.3758901 0.056158833 -0.11418814 -0.24417222 -0.14307372 -0.22405645 -0.013808865 0.16412759
-0.16657712 -0.06082035 0.2965487 -0.62283057 0.18242288 -0.040567905 -0.008836059 -0.12574534
-0.12964703 -0.4078735 -0.053293757 0.0065910327 -0.29841003 0.24406783 -0.24391411 -0.32238966
0.16367902 -0.2658303 0.04927239 -0.19386432 -0.3347845 0.18692327 -0.08848184 0.053564545
0.19744779 -0.24431549 -0.1156107 -0.10136344 -0.2203506 -0.22906639 0.3356435 0.029516986
0.3316126 0.29692793 -0.32639503 -0.022624612 0.23551929 0.2484471 0.0071567246 -0.17077425
-0.08295468 -0.2451334 -0.26600376 -0.23546576 0.33573827 0.19795546 -0.11197379 -0.069693744
-0.72600937 0.28268367 -0.0394361 0.055793326 0.19312106 0.48671612 0.13831471 -0.22904153
0.13553314 0.25193647 -0.46857917 -0.03706943 0.14040715 0.18119068 0.21682379 -0.20100051

actor.0.bias f4 [32]
00000000: eac9 aabc 0c95 c0bd d7f0 b43e 12d1 703e
00000010: 1c8f cd3d 71bb ab3e 60b4 353e cbc3 f7be
00000020: a057 0b3e ae12 c4bd dbbc ba3e 40f3 c0be
00000030: 729a ab3e d218 083f b3ac 04be 8b5f 72be
00000040: 5972 9bbe c910 11be 9aee 573e 0868 223e
00000050: 3d16 92be 9d6b 8bbe 1f23 9d3e 1c83 823e
00000060: fee9 2f3f 3732 0c3d 8e95 7dbe 2032 cb3c
00000070: 0e81 043e dd66 0fbd 5d37 91be f4b6 3b3e
-0.020848233 -0.094034284 0.35339996 0.23517254 0.100370616 0.33541444 0.17744589 -0.48391566
0.13607645 -0.09573875 0.3647221 -0.37685585 0.3351627 0.5316287 -0.12956505 -0.23669259
-0.30360678 -0.1416656 0.21087113 0.15859997 -0.2853259 -0.2723054 0.30690858 0.25490654
0.6871642 0.034227576 -0.24764082 0.024804175 0.12939855 -0.035010207 -0.2836255 0.1833151

actor.2.weight f4 [32, 32]
00000000: 2912 223e 4805 113e c962 103d 8f55 8e3c
00000010: b9e2 213d 73f2 873e 6d6d db3c da1a a83d
00000020: 6cb2 c13c 93a7 0cbe 54f5 a0be d048 40be
00000030: 7b20 e0bd 3ca1 8ebe 8363 eebd 34fa d4bd
00000040: 549b bfbc 122d 39bb d27c b53d aa9c e63e
00000050: d9d2 6c3e fa90 4dbd 982a 42be 5f9e b53e
00000060: 6083 80be c7bc 613e 6281 803e e85f 29bd
00000070: e5f1 5b3d 0342 6f3e d347 c5bd edd6 11bf
00000080: 955c 82bd 2ac4 5ebe 39eb 80bd d09f be3e
00000090: f325 46be b7e4 9b3d 4c8d 043e 66c5 a2be
000000a0: 6274 eebd fa1a 81be a687 7dbd 0743 18be
000000b0: 71c2 0cbe 043d 1d3d 3a3e 413e 0a97 c73d
000000c0: a053 c2be 8aed 22be ff62 c13e cbf6 69be
000000d0: 2de0 6fbd 2e85 963e a590 1f3d df1f ca3d
000000e0: ef83 80bc c563 44be 8486 923e 615a 31be
000000f0: db9c 003e 8021 803e 90be cebc d0ff 35be
00000100: 5805 e53c 6fcc 03bd 8a99 6d3d c5ca 6cbe
00000110: ef64 9abb e893 1d3d 0870 d8bd 2f2d 473d
00000120: cadc 2c3e a5ea 383e 9f4e 123e 6e07 1e3d
00000130: aab7 2a3e 9963 b5bd 5cde 063e 6162 853d
00000140: 622a aa3d 8ee8 873e 72cb 2cbd 0e51 a3be
00000150: b084 253e cf86 733d d58e a83d a05e 97bb
00000160: 1422 c73d 7b19 2fbe 553e 1cbe bd74 aa3e
00000170: 541f 903d 40df d7bd 87ff 8abd cb7c ff3c
00000180: 1acf dfbe df62 003e a21a a3bd 61b6 513e
00000190: 7909 1abc 3da6 9fbc 8baf 043e de83 533e
000001a0: 9ebe b5bd 21ca 1a3d 8153 1bbe 37a4 8c3e
000001b0: ca5a a73d c8d5 913e 73b0 80bd 9166 36be
000001c0: b2b1 98bd 002a 113e afc3 0c3e 8c76 2a3d
000001d0: fa4c 26bd e893 133e cd4d e83d d02c 19bf
000001e0: 1458 2e3e 6d4b b8be 599b 6dbd e197 123e
000001f0: 7ea6 0abd 9ece 8e3e 1f6c b03d 031a 733e
00000200: 4f2e 44be 3ee1 ccbe 515f edbd a930 843d
00000210: ad53 85bd f678 8b3e 7965 0ebe 3a5c 82be
00000220: d0eb a5bc 4363 4dbd 904a bd3c f444 9c3c
00000230: b105 cabe d6de 32bf 5ef6 66bd 4fd8 44bf
00000240: 42ff e93d 2c5a fbbe a0be e33d ff3b 91be
00000250: 9680 073d a191 1f3e 4460 9cbe 92f6 ec3d
00000260: 0fa0 883e f173 173d 012f b53e 31b6 c4bc
00000270: aa39 48bf de66 8b3d 2a2f 8abe 5346 06bd
00000280: e07a 3abf b3e8 b43d 0f3e a1bb 3e93 9f3e
00000290: 32bb 94bd 6b3c babe 98d5 81be e3a2 aabd
000002a0: 1400 403e c465 123e 4ad4 d5be 553d 483e
000002b0: 2f81 81be cd59 033e 1254 d33c 8332 fe3d
000002c0: cd98 32bd 3cf1 513e 0723 08bd 149b 45bf
000002d0: ab13 8abd 7ccf 28bc 3a00 94be afb7 4b3d
000002e0: 4811 b53e 6d39 533e fa42 2dbe 57fc 14bd
000002f0: 8bda 3f3e bceb 0dbe c45f 30bf 22a3 903e
00000300: c852 f7bd eee4 e13d 9255 79be b4b7 b0bc
00000310: 4492 053e 9d0a 833c 9cf3 0e3e 5d68 c33e
00000320: 3598 e7bd 2fc9 433e da44 3a3d 4d54 1d3b
00000330: 3d51 aebd 7d36 13be fc32 063c 2194 123e
00000340: 2011 423e 4b39 d4bd 95ee 313e 0fa1 fc3e
00000350: 3729 4c3c 149b 47be a691 5a3d a8d4 2f3e
00000360: 29e9 053d 661d 653e 242d 0b3f d600 1a3c
00000370: 64bd dd3c 86ea c7be deb2 d03d 1cbb ad3e
00000380: e08b 5dbf 02bc 99bc e4d8 69be 4965 f83d
00000390: d8f2 11bf 0aac b83d 1228 703e 23b0 84be
000003a0: fd70 8a3d 3a33 483d 9476 8abe d3b9 3bbf
000003b0: 2d08 30be 5dca 4a3d ccca 18bd ceb4 bc3d
000003c0: c530 183e d2a1 a43d 041e 753e 4cf8 27bf
000003d0: 4247 d5bc 39b7 6c3e eab3 1d3e 7dcf 99be
000003e0: 7677 303e e3b4 2dbd da83 7a3e c67e d13d
000003f0: e667 c23d 151b 9bbd e58b 30be d1d4 56bd
0.1582724 0.14162171 0.03525046 0.017374782 0.03952286 0.26552162 0.026785577 0.082082465
0.023644648 -0.137358 -0.3143717 -0.18777776 -0.10943695 -0.27857387 -0.11640074 -0.10399285
-0.023389496 -0.0028255624 0.08861698 0.450414 0.23127307 -0.05018709 -0.1896156 0.3547239
-0.2510023 0.22044669 0.2509871 -0.04135123 0.053697485 0.23365025 -0.0963284 -0.56968576
-0.06365315 -0.21754518 -0.06294865 0.37231302 -0.19350414 0.07611983 0.12944525 -0.31791228
-0.11643292 -0.25215894 -0.061896943 -0.14869319 -0.13746049 0.038388267 0.18871394 0.09745605
-0.37954426 -0.15910926 0.3777084 -0.2284805 -0.0585634 0.29398483 0.038956303 0.0986936
-0.01568791 -0.19178684 0.28618252 -0.17319633 0.12559836 0.25025558 -0.025237352 -0.17773366
0.02795665 -0.032177385 0.058007754 -0.23124225 -0.0047117393 0.038471133 -0.10568243 0.048627075
0.168811 0.1805826 0.14287804 0.038581304 0.16671625 -0.08856887 0.13170761 0.06512905
0.08308865 0.26544613 -0.042186208 -0.31897777 0.16163898 0.059454735 0.08230368 -0.0046194345
0.09723297 -0.17099564 -0.15258153 0.3329219 0.07037225 -0.105406284 -0.06787019 0.031187436
-0.43712693 0.12537716 -0.07964064 0.20479728 -0.0094016725 -0.019488448 0.1295759 0.20655772
-0.08874248 0.03779042 -0.15168573 0.27469036 0.081716135 0.28483415 -0.06283655 -0.17812563
-0.07455768 0.14176178 0.13746522 0.04161696 -0.040600754 0.1441189 0.11342964 -0.59834003
0.17025787 -0.35995045 -0.05800948 0.1431575 -0.033850186 0.2789201 0.086143725 0.23740391
-0.1915829 -0.40015596 -0.11590446 0.06454594 -0.065101005 0.27240723 -0.13905896 -0.25460988
-0.020254046 -0.05014349 0.023106843 0.019075848 -0.39457467 -0.6987127 -0.056387298 -0.7689256
0.1142564 -0.49092233 0.11120343 -0.28366086 0.033081613 0.15582897 -0.30542195 0.11570467
0.26684615 0.036975805 0.35387424 -0.024012657 -0.7821299 0.0680673 -0.26989108 -0.03278191
-0.7284374 0.08833446 -0.004920728 0.31167024 -0.07262267 -0.3637422 -0.25358272 -0.083318494
0.1875003 0.14296633 -0.41763526 0.19554646 -0.25293872 0.12827225 0.025796924 0.12411978
-0.043602753 0.2050218 -0.03323653 -0.77189755 -0.067420326 -0.010303374 -0.28906423 0.04973572
0.35364747 0.20627375 -0.16920081 -0.036373463 0.18735711 -0.13859457 -0.68896127 0.2824946
-0.12076336 0.11029993 -0.24349049 -0.021571971 0.13044077 0.015996272 0.13960117 0.3816556
-0.11308328 0.19119714 0.04547582 0.0024006546 -0.08511589 -0.14376254 0.008190867 0.14314319
0.18951845 -0.1036249 0.17376168 0.49341628 0.012460998 -0.19492751 0.053361557 0.17170966
0.032693062 0.22374496 0.54365754 0.009399613 0.027067848 -0.39046115 0.10190366 0.33931816
-0.8654156 -0.018766407 -0.22836643 0.121286936 -0.57011175 0.09017189 0.23452786 -0.25915632
0.06759832 0.04887698 -0.27043593 -0.7333042 -0.17190619 0.049509395 -0.037302777 0.09214173
0.14862354 0.08038677 0.23937231 -0.65613246 -0.026034955 0.23116769 0.15400663 -0.30041113
0.1723307 -0.042408835 0.2446436 0.10229258 0.09492473 -0.07573525 -0.17240866 -0.05244905

actor.2.bias f4 [32]
00000000: 27f0 66bc 547d 44bd c429 c43d 2a2d 4cbe
00000010: 15e0 6cbd 94e9 53be 36c9 2f3d 36e6 c13d
00000020: ea1d 8cbe 8253 2fbe d4e4 053d 0fb9 adbd
00000030: 8c71 52bd 55c0 84bc 9588 e4bd 1615 37bd
00000040: 91e3 01be 9e9b c13c 7b0c 9f3d ad72 f83d
00000050: d42a efbd a0de 3abe 9756 303e a7c5 1b3d
00000060: c074 013e b3b1 9b3d ea32 ce3d 8833 0c3e
00000070: 9e6a 1e3e d79a f43d f34e d03d c787 fa3d
-0.014095343 -0.047971085 0.09578279 -0.19939104 -0.05783089 -0.20694572 0.0429165 0.094677374
-0.27366573 -0.171217 0.03268893 -0.08482563 -0.051377818 -0.016204992 -0.111588635 -0.044697843
-0.12684466 0.023633774 0.07766052 0.12131248 -0.11678091 -0.18248987 0.17220531 0.038030293
0.12642193 0.07602253 0.10068305 0.13691533 0.15470359 0.11943596 0.10171308 0.12232929

actor.4.weight f4 [2, 32]
00000000: b2cd 063e b9d9 07bf 70d0 85bd 91ae 1ebe
00000010: c9cb 14be 2fe7 dc3d 4a7c 523e c060 b6be
00000020: 24df 003f 1e2c 4a3f 4043 75be 8a03 8abf
00000030: 6122 edbe 2f2e f43e 8c90 d8be 850b 073f
00000040: 7813 2d3f 31c3 3d3f 83a2 383f 5b44 b2be
00000050: e392 17bf e125 2b3f 2282 763c dc69 15bf
00000060: a334 01bf 6ecb 85bf a15d db3d 385c fbbd
00000070: 262d e6be a6b7 f33e 5ebd b3be 3411 81be
00000080: 9ea8 f6be 81d6 533e fe43 f13d 8e67 793e
00000090: 969f 22bf 67f1 31bf 24c8 0abc f250 ac3e
000000a0: 490e c9be 0a06 7c3e 4c2d 11be 1d14 36bf
000000b0: bbf7 563e 6c3a 85be 67e9 703e 9d6f 043a
000000c0: fc68 f23d 7900 40bd cc5d af3d 4361 393e
000000d0: 5e4c 43bf 6a33 0dbc 49a3 78be e6a4 07bf
000000e0: 1e5f b73e 4dbd 75be b2f9 80bd 1f43 03bf
000000f0: 77ee 6abe dc3c d3be 5268 0c3f d52a 25bf
0.13164404 -0.53066593 -0.06533897 -0.1549628 -0.14530863 0.10786282 0.20555225 -0.3562069
0.50340486 0.7897357 -0.23951435 -1.078233 -0.46315292 0.47691485 -0.4229778 0.5275195
0.6760783 0.74125963 0.72122973 -0.34817776 -0.59208506 0.66854674 0.0150456745 -0.58364654
-0.5047094 -1.0452707 0.10711218 -0.12273449 -0.4495632 0.4760105 -0.35105413 -0.25208437
-0.4817552 0.20687295 0.117805466 0.24355909 -0.6352476 -0.69508976 -0.008470569 0.33655506
-0.3926871 0.24611679 -0.14177436 -0.7112444 0.20992939 -0.26021135 0.23526536 0.0005052032
0.118364304 -0.04687545 0.08562812 0.18103509 -0.762884 -0.008618215 -0.24281038 -0.5298599
0.35814756 -0.23997994 -0.062976256 -0.51274294 -0.2294253 -0.4125737 0.5484668 -0.6451848

actor.4.bias f4 [2]
00000000: bfbb 353d eb15 4abe
0.0443685 -0.19734924
