results/SandingEnvMiddle/ddpg/model/model_parameters_1.pt (torch, 32386 bytes, 22 tensors)

value.0.weight f4 [32, 12]
0.13132563 -0.12516463 -0.1708637 0.09994666 -0.17645821 0.2714575 0.36332512 0.26405424
-0.004460763 0.029983822 0.8842981 -1.2557082 0.03183721 0.074477896 0.092705145 -0.0603178
-0.0745916 -0.247014 0.030670445 -0.14079832 0.0320262 -0.050137926 0.13977544 0.153685
-0.011281453 -0.16504805 -0.033340067 0.2225562 0.01008337 -0.16608228 0.13413991 0.13141146
-0.0034238123 0.3286596 -0.42789873 -1.5693792 0.09251493 -0.025317037 -0.014096214 -0.2841892
0.19319437 -0.035137236 0.057539668 -0.13331267 0.10395315 -0.19107273 0.17793994 -0.9686599
-0.0021220457 -0.042576768 0.054962397 -0.03150012 0.1538467 -0.15829366 0.22714968 -0.024210421
-0.1617833 -0.09158839 0.67676556 -1.6260225 0.064494655 -0.1395449 -0.26481125 0.010312262
0.0007232736 0.0104531925 -0.10764904 0.27597612 0.039645113 -0.31680408 0.48048848 0.30770373
-0.1482693 0.24666686 0.008942359 0.097160295 -0.28182086 0.02971603 -0.18085551 0.30752125
-0.359653 0.11041611 0.09940697 1.1383555 0.10180483 0.082032345 -0.039792947 -0.19523302
0.01920593 0.18175328 -0.07288929 0.1468984 -0.1202449 0.15762635 -0.5560318 0.63501805
0.23424336 0.24059916 -0.053090822 0.19508655 0.124858625 -0.14232637 -0.04916739 -0.047012508
-0.07318283 -0.06496474 -0.9096544 1.8991174 -0.06936296 -0.115256004 -0.076025106 -0.18156455
-0.015615162 -0.14200465 -0.17840376 0.35535622 0.21219662 -0.11435971 -0.43662795 -0.020438597
-0.13608012 -0.108664155 -0.25975132 0.13016464 -0.1449647 0.12308918 0.20789409 0.3687628
0.05203588 -0.15435998 -1.7583548 -0.21553722 0.1393886 0.13663112 -0.10130661 -0.081743106
0.050657418 -0.012619107 0.04180626 -0.028026748 -0.019358328 0.20321248 0.0762053 0.35408095
0.23137563 0.007029403 0.06255312 0.14451012 -0.031220822 -0.15024987 0.38025233 -0.14264154
0.2721965 -0.1035993 -0.039080445 1.0539039 -0.041401908 0.2043057 0.07036492 0.14517474
-0.013044586 -0.105208084 0.06347894 -0.027006283 0.110637665 0.20401683 0.35683224 -1.073869
-0.116882205 -0.06521209 -0.007645836 0.019260027 0.14776604 -0.10959894 -0.17085959 -0.116071306
0.13183592 -0.24810816 -0.50174135 -0.06425667 0.26635048 0.081412345 0.10041192 0.15126951
-0.07004305 0.042718124 -0.036870807 0.15066162 0.019729843 0.32735875 0.37563598 -1.3568594
0.09640964 -0.08594556 0.13395801 0.26682132 0.3442225 0.06539743 0.24181879 0.20275012
0.31916505 -0.019031078 -0.13748737 0.1569813 -0.11382224 -0.1273925 -0.2574007 0.030728657
-0.17506288 0.067158304 0.15131013 -0.009594135 -0.112357534 -0.18641 -0.08891946 -0.71478677
0.108387426 -0.16306375 -0.048897058 0.16003922 -0.036959596 0.023608938 -0.17934072 -0.1248943
0.057636417 0.2650738 0.17465223 0.38289115 0.03103089 0.23312151 0.060972065 0.08329844
0.2525049 0.22336201 -0.07650919 0.043306936 0.037753336 -0.091431335 -1.0255816 0.45441866
0.12669139 -0.20555629 -0.008254432 -0.0021860912 -0.09063808 -0.12203014 -0.16085312 0.26810744
0.08415492 0.019411882 1.3826424 0.8790146 0.033590905 -0.000368529 0.098621555 0.32997993
00000000: 3a7a 063e 282b 00be e5f6 2ebe d6b0 cc3d
00000010: 76b1 34be 7afc 8a3e c005 ba3e 1e32 873e
00000020: 982b 92bb a2a0 f53c 5c61 623f 0cbb a0bf
00000030: bc67 023d de87 983d 32dc bd3d cc0f 77bd
00000040: 7bc3 98bd 3df1 7cbe 9640 fb3c 6f2d 10be
00000050: e82d 033d 6d5d 4dbd 4b21 0f3e 9a5f 1d3e
00000060: d8d5 38bc 5b02 29be 988f 08bd c6e5 633e
00000070: b834 253c 7911 2abe f95b 093e ba90 063e
00000080: 0a62 60bb 1246 a83e 8b15 dbbe 6be1 c8bf
00000090: 7878 bd3d ad65 cfbc cff3 66bc 3f81 91be
000000a0: bfd4 453e 10ec 0fbd b7ae 6b3d 1e83 08be
000000b0: 64e5 d43d 92a8 43be e335 363e 18fa 77bf
000000c0: 0512 0bbb fa64 2ebd 4020 613d 4506 01bd
000000d0: fd89 1d3e bc17 22be ed99 683e ef54 c6bc
000000e0: 85aa 25be b292 bbbd 8240 2d3f 8121 d0bf
000000f0: c615 843d dce4 0ebe 5795 87be c3f4 283c
00000100: 129a 3d3a de43 2b3c 1a77 dcbd be4c 8d3e
00000110: ea62 223d 2534 a2be 9602 f63e 588b 9d3e
00000120: e8d3 17be 3d96 7c3e f982 123c fafb c63d
00000130: d34a 90be 086f f33c 3032 39be 6d73 9d3e
00000140: 7024 b8be d721 e23d e295 cb3d a2b5 913f
00000150: 0d7f d03d 9300 a83d eefd 22bd 2aeb 47be
00000160: c155 9d3c 881d 3a3e fb46 95bd 896c 163e
00000170: f542 f6bd cd68 213e 1a58 0ebf 8b90 223f
00000180: 7edd 6f3e a05f 763e c375 59bd c5c4 473e
00000190: e1b5 ff3d 01be 11be bf63 49bd 3090 40bd
000001a0: e1e0 95bd 3c0c 85bd 1cdf 68bf 4716 f33f
000001b0: 2b0e 8ebd 570b ecbd 0db3 9bbd 0fec 39be
000001c0: bdd6 7fbc ab69 11be 7aaf 36be 40f1 b53e
000001d0: 124a 593e 6c35 eabd b38d dfbe d86e a7bc
000001e0: 9658 0bbe 508b debd 20fe 84be e149 053e
000001f0: a071 14be 2e16 fc3d 30e2 543e 7ace bc3e
00000200: 9323 553d 8b10 1ebe c511 e1bf cab5 5cbe
00000210: e3bb 0e3e 07e9 0b3e d779 cfbd ee68 a7bd
00000220: 277e 4f3d 5fc0 4ebc 0a3d 2b3d 5a98 e5bc
00000230: 5b95 9ebc ef16 503e 8611 9c3d 194a b53e
00000240: bced 6c3e e856 e63b da1b 803d 76fa 133e
00000250: cfc2 ffbc 1adb 19be 6fb0 c23e a010 12be
00000260: 575d 8b3e df2b d4bd d112 20bd 53e6 863f
00000270: 0c95 29bd 8335 513e 7c1b 903d b0a8 143e
00000280: f6b8 55bc 5677 d7bd 3f01 823d 483c ddbc
00000290: 0096 e23d cae9 503e b7b2 b63e 8a74 89bf
000002a0: f05f efbd eb8d 85bd ec89 fabb 34c7 9d3c
000002b0: fb4f 173e 6975 e0bd d1f5 2ebe cbb6 edbd
000002c0: ffff 063e 1110 7ebe 1f72 00bf 0099 83bd
000002d0: 175f 883e 84bb a63d c4a4 cd3d 65e6 1a3e
000002e0: bb72 8fbd 33f9 2e3d d805 17bd 0a47 1a3e
000002f0: 7ba0 a13c 919b a73e 5c53 c03e 92ad adbf
00000300: 6b72 c53d 3a04 b0bd 4a2c 093e ce9c 883e
00000310: ee3d b03e 16ef 853d 589f 773e ba9d 4f3e
00000320: 9a69 a33e 10e7 9bbc 7dc9 0cbe b5bf 203e
00000330: a21b e9bd 2e73 02be 06ca 83be aaba fb3c
00000340: af43 33be 4b8a 893d 0bf1 1a3e b830 1dbc
00000350: b51b e6bd 43e2 3ebe 681b b6bd 44fc 36bf
00000360: 3afa dd3d 2ffa 26be 4848 48bd 52e1 233e
00000370: f262 17bd 8867 c13c 18a5 37be 95c8 ffbd
00000380: 2a14 6c3d c1b7 873e 09d8 323e 4f0a c43e
00000390: 7e34 fe3c 68b7 6e3e d8bd 793d 5f98 aa3d
000003a0: 5248 813e 03b9 643e dab0 9cbd 9d62 313d
000003b0: 3ea3 1a3d 5a40 bbbd 4246 83bf 90a9 e83e
000003c0: 63bb 013e 597d 52be 993d 07bc 8644 0fbb
000003d0: 75a0 b9bd f0ea f9bd aeb6 24be 6145 893e
000003e0: 6a59 ac3d ab05 9f3c 6dfa b03f 1a07 613f
000003f0: 9e96 093d 2037 c1b9 19fa c93d 21f3 a83e

value.0.bias f4 [32]
-0.09232725 -0.47785732 -0.14548089 0.21999714 0.3018064 -0.30796495 -0.27773288 -0.31739765
0.20669958 0.3809181 0.06136362 -0.528615 -0.30510667 0.29771784 0.5825467 0.1829465
0.09170155 -0.14986846 -0.12777843 0.2935151 0.54225934 -0.0010720168 -0.29560363 0.5760842
-0.014959429 0.021723442 0.3941564 -0.009373202 0.05624007 0.35608205 0.058792107 0.07557493
00000000: 1216 bdbd b7a9 f4be f1f8 14be ee46 613e
00000010: 5e86 9a3e 95ad 9dbe 0133 8ebe f281 a2be
00000020: 0ea9 533e b207 c33e 6b58 7b3d 5053 07bf
00000030: f136 9cbe 796e 983e c821 153f 5456 3b3e
00000040: 06ce bb3d 1e77 19be 59d8 02be 9c47 963e
00000050: 82d1 0a3f ea82 8cba 5c59 97be 417a 133f
00000060: 6518 75bc 5cf5 b13c dece c93e 0f92 19bc
00000070: fd5b 663d 6350 b63e fecf 703d 07c7 9a3d

value.2.weight f4 [32, 32]
0.2859096 -0.088406295 0.15144409 -0.119452745 0.20846272 0.01233565 0.038156755 0.060318563
0.06489395 0.08765251 0.00986651 0.1163665 0.008614104 -0.14068504 0.024794856 -0.18890832
0.26264802 0.06191906 -0.29976058 0.1742198 0.030349059 0.044892937 -0.39273766 -0.20145781
-0.090488054 0.043453448 -0.20921864 -0.054143704 0.020163197 0.047843076 -0.08926985 0.14202937
0.031078713 -0.030839821 0.19552258 0.08336572 0.07477186 -0.0486817 -0.059379414 -0.28099632
0.121043265 0.041546125 -0.13202868 -0.13142821 -0.10723111 0.05932873 0.08242245 0.02458139
0.0011129658 -0.068107896 -0.006035884 -0.17760263 0.08238283 -0.1709532 0.25369322 -0.077915385
-0.102589495 0.0004904837 -0.04448779 -0.22827043 -0.056937102 0.18986006 -0.07746307 0.10954591
-0.038495425 0.09528435 0.07138789 0.029622449 0.013568058 0.13927467 -0.11453861 0.09035476
-0.0064138747 0.071274705 0.17970268 -0.0103392005 0.016790284 -0.026414726 0.13356207 -0.086074695
0.004618471 -0.09217899 -0.043194108 -0.020685958 -0.028698675 0.024533456 0.035334397 0.0048466786
0.012020935 -0.061693624 -0.13157283 0.028331598 -0.24569346 0.049655475 -0.029883847 0.21003228
0.1472962 -0.04444598 -0.11550162 0.06479431 -0.27188534 -0.08522649 -0.045015078 -0.09087697
-0.2951298 0.14796698 -0.04433223 -0.12975001 -0.11680364 -0.08496427 -0.079401284 -0.025616737
0.11647989 0.053897053 -0.011043333 0.06487304 0.08850285 -0.373315 0.14486285 0.02302067
0.2050114 0.12304318 -0.18321466 0.057669684 0.041819375 -0.089149475 0.10605972 -0.08868162
-0.07339185 -0.32218808 -0.19445607 0.043469537 -0.10526977 0.012113022 0.0010993353 -0.1481976
0.10501209 -0.07376833 0.12438879 -0.103051305 -0.24646151 -0.35616916 -0.17648064 -0.064803846
0.200187 0.07050273 -0.08598017 -0.3630018 0.06915779 0.012860188 -0.23428573 -0.28354976
-0.10739182 0.03039717 0.13945013 0.18551722 0.23732515 0.027427414 0.07165985 -0.07465523
-0.07386809 -0.06605502 -0.09177062 0.22783376 -0.030600326 0.11578399 0.05078472 0.041133065
0.033339165 -0.04157914 -0.0004933879 0.013243721 0.06977011 0.15006462 0.03386468 0.17594877
-0.045479424 0.056432147 0.20816866 0.043272506 -0.16599333 0.017168824 -0.10722122 -0.06666369
0.086827055 -0.09787416 -0.051013093 -0.097912624 -0.15570351 -0.024865847 -0.104890265 -0.09359008
0.12140538 -0.15194112 -0.16507837 -0.01740764 -0.10695591 -0.083623454 -0.06119737 0.03236337
0.06897612 -0.117515296 0.09002806 -0.08421111 0.023038164 -0.06703355 0.106793925 -0.11979483
-0.17095488 -0.09958314 -0.04512307 -0.12990533 -0.032580793 -0.12293254 -0.055892475 -0.0330725
-0.078623705 -0.11374602 -0.0541555 -0.13234277 0.09981887 0.09811981 -0.095685884 -0.11218682
0.06211015 -0.06923303 0.00453967 -0.06037318 -0.032690354 -0.02075117 0.3085088 0.03163754
-0.113861784 -0.0755076 -0.12902582 0.034692734 -0.014760319 -0.0059467005 0.088719584 -0.090907715
0.12007943 0.12166227 -0.019907808 0.17784159 -0.04040598 -0.010697919 0.1406013 0.163889
0.080510035 0.04786308 -0.25346854 0.07348424 0.15601183 -0.18575957 0.023892839 0.07571662
00000000: be62 923e 5c0e b5bd 2914 1b3e a4a3 f4bd
00000010: 4077 553e 771b 4a3c 424a 1c3d 9910 773d
00000020: 1fe7 843d 2983 b33d 24a7 213c 8f51 ee3d
00000030: 2c22 0d3c bd0f 10be 951e cb3c 2f71 41be
00000040: cd79 863e d79e 7d3d 387a 99be ad66 323e
00000050: 979e f83c a8e1 373d e914 c9be f54a 4ebe
00000060: cd51 b9bd 3efc 313d 693d 56be cac5 5dbd
00000070: 4a2d a53c 1af7 433d 1cd3 b6bd 2670 113e
00000080: c998 fe3c cba3 fcbc 1237 483e a6bb aa3d
00000090: fd21 993d 7666 47bd d437 73bd c0de 8fbe
000000a0: 88e5 f73d 452c 2a3d 8732 07be 1e95 06be
000000b0: fc9b dbbd af02 733d 1acd a83d e95e c93c
000000c0: efe0 913a 277c 8bbd aac8 c5bb 77dd 35be
000000d0: 54b8 a83d 5b0e 2fbe 14e4 813e 1a92 9fbd
000000e0: 711a d2bd ce93 003a d438 36bd b9bf 69be
000000f0: e136 69bd ad6a 423e f5a4 9ebd 9b59 e03d
00000100: 61ad 1dbd 7124 c33d d033 923d c7aa f23c
00000110: 8f4c 5e3c 059e 0e3e 3893 eabd eb0b b93d
00000120: 7b2b d2bb 79f8 913d fb03 383e c065 29bc
00000130: c78b 893c b263 d8bc 7fc4 083e ee47 b0bd
00000140: 8b56 973b 57c8 bcbd 4eec 30bd 9975 a9bc
00000150: 7c19 ebbc 63fa c83c cdba 103d e3d0 9e3b
00000160: 75f3 443c 74b2 7cbd 07bb 06be ab17 e83c
00000170: 1197 7bbe 8a63 4b3d f8ce f4bc b412 573e
00000180: d1d4 163e fd0c 36bd 1d8c ecbd e1b2 843d
00000190: 8e34 8bbe 3a8b aebd bb61 38bd b41d babd
000001a0: 411b 97be a884 173e b695 35bd 30dd 04be
000001b0: bf36 efbd bf01 aebd 249d a2bd 31da d1bc
000001c0: 028d ee3d 28c3 5c3d 19ef 34bc 28dc 843d
000001d0: fb40 b53d 2523 bfbe ed56 143e d895 bc3c
000001e0: 82ee 513e 10fe fb3d a09c 3bbe 0c37 6c3d
000001f0: cb4a 2b3d 0094 b6bd d735 d93d b69e b5bd
00000200: 774e 96bd d6f5 a4be 7e1f 47be 1d0d 323d
00000210: ad97 d7bd b275 463c 9217 903a 1dc1 17be
00000220: 9410 d73d da13 97bd 8dbf fe3d 900c d3bd
00000230: 6860 7cbe ce5b b6be 57b7 34be e1b7 84bd
00000240: d2fd 4c3e bc63 903d 5f16 b0bd 5fdb b9be
00000250: 99a2 8d3d 8ab3 523c 99e8 6fbe 6f2d 91be
00000260: 3ef0 dbbd 7c03 f93c 04cc 0e3e 3af8 3d3e
00000270: 5d05 733e 75af e03c 66c2 923d d7e4 98bd
00000280: 2748 97bd db47 87bd 3cf2 bbbd 414d 693e
00000290: 89ad fabc 2820 ed3d a303 503d 257b 283d
000002a0: a68e 083d e34e 2abd b456 01ba 31fc 583c
000002b0: a2e3 8e3d 8aaa 193e b1b5 0a3d ea2b 343e
000002c0: a248 3abd 6525 673d 2a2a 553e 833e 313d
000002d0: 28fa 29be a2a5 8c3c cd96 dbbd f986 88bd
000002e0: 62d2 b13d 3f72 c8bd 1bf3 50bd 6a86 c8bd
000002f0: be70 1fbe 76b3 cbbc b5d0 d6bd 28ac bfbd
00000300: 62a3 f83d 7496 1bbe 4e0a 29be 789a 8ebc
00000310: b30b dbbd c642 abbd 18aa 7abd 748f 043d
00000320: 5a43 8d3d dcab f0bd a260 b83d e076 acbd
00000330: 88ba bc3c e348 89bd c6b6 da3d fe56 f5bd
00000340: cc0e 2fbe 3ff2 cbbd f8d2 38bd e705 05be
00000350: 7073 05bd 0ec4 fbbd 82ef 64bd 0877 07bd
00000360: 7705 a1bd acf3 e8bd 28d2 5dbd dd84 07be
00000370: d66d cc3d 0af3 c83d f6f6 c3bd 34c2 e5bd
00000380: 3667 7e3d 0cca 8dbd 83c1 943b de49 77bd
00000390: 52e6 05bd 5cfe a9bc def4 9d3e 5d96 013d
000003a0: 5e30 e9bd bba3 9abd 581f 04be f819 0e3d
000003b0: 44d5 71bc 8adc c2bb 9db2 b53d d32d babd
000003c0: 34ec f53d 112a f93d b315 a3bc 1b1c 363e
000003d0: be80 25bd 5346 2fbc caf9 0f3e 85d2 273e
000003e0: 72e2 a43d 140c 443d a1c6 81be e87e 963d
000003f0: 91c1 1f3e c237 3ebe eaba c33c 5111 9b3d

value.2.bias f4 [32]
-0.29484385 0.64006776 -0.56883985 -0.3702335 -0.32034078 -0.4173597 0.00021125376 0.08070337
0.035897873 -0.07887543 0.34927556 -0.44335473 0.6128387 0.080295056 0.115317225 0.08972739
-0.037737425 0.37069234 0.19123258 0.34263048 -0.43481764 0.38424355 0.40084195 -0.37760812
0.47152603 -0.110402286 -0.5559648 -0.5286208 -0.31557912 -0.10928694 -0.23624331 0.18023552
00000000: c6f5 96be 7bdb 233f 7d9f 11bf 3f8f bdbe
00000010: b503 a4be 2cb0 d5be 0084 5d39 cf47 a53d
00000020: a609 133d 7189 a1bd 3fd4 b23e 64ff e2be
00000030: ffe2 1c3f bc71 a43d 702b ec3d fec2 b73d
00000040: 8f92 1abd 63cb bd3e 79d2 433e 436d af3e
00000050: 6ba0 debe 92bb c43e 283b cd3e da55 c1be
00000060: dc6b f13e 981a e2bd b653 0ebf b153 07bf
00000070: 9693 a1be d5d1 dfbd c4e9 71be a98f 383e

value.4.weight f4 [1, 32]
-0.06785248 0.13105798 -0.0776001 -0.054601748 -0.06953933 -0.08866982 0.0019023567 0.12729272
0.1311553 0.089982726 0.06662598 -0.073754035 0.06469251 0.047530506 0.09964386 0.06533493
0.07524635 0.06330594 -0.43063965 0.08018044 -0.10057099 0.06633267 0.08758001 -0.08773644
0.08836597 0.056395218 -0.080376334 -0.07319901 -0.03656134 -0.11362284 -0.076704055 -0.079515524
00000000: 3ef6 8abd 1034 063e cdec 9ebd 15a6 5fbd
00000010: a36a 8ebd 8698 b5bd 8058 f93a 0659 023e
00000020: 934d 063e dd48 b83d 3473 883d 5b0c 97bd
00000030: 827d 843d 59af 423d 1412 cc3d 52ce 853d
00000040: c21a 9a3d 8ba6 813d cd7c dcbe a435 a43d
00000050: 2af8 cdbd 6cd9 873d 265d b33d 2aaf b3bd
00000060: 38f9 b43d acfe 663d 599c a4bd 5de9 95bd
00000070: 58c1 15bd 17b3 e8bd 0417 9dbd 09d9 a2bd

value.0.weight f4 [32, 12]
0.13163215 -0.1241517 -0.17286699 0.09831134 -0.17505938 0.27040166 0.36361933 0.26434845
-0.004505126 0.029939461 0.8827746 -1.2588388 0.033166327 0.07478844 0.09261972 -0.06058567
-0.07479804 -0.2467564 0.030752027 -0.14071673 0.03185416 -0.050309964 0.14279677 0.15460116
-0.010364122 -0.16320208 -0.032747846 0.22285827 0.009287011 -0.16392796 0.13453779 0.13180934
-0.0044758767 0.32760745 -0.4245216 -1.5646852 0.093505986 -0.026122727 -0.014074646 -0.28399974
0.1933259 -0.035387386 0.056016967 -0.13483526 0.10304293 -0.191983 0.18023703 -0.96916133
-0.0031841544 -0.044171117 0.055002198 -0.032871857 0.15459281 -0.15829651 0.2258286 -0.025531579
-0.16110438 -0.09090951 0.67596346 -1.6255021 0.06453244 -0.14019188 -0.2647015 0.011241039
0.001973594 0.010531477 -0.10802838 0.27559674 0.03866122 -0.31778803 0.4826508 0.3084136
-0.14652242 0.2442372 0.009699629 0.098960996 -0.28156957 0.029816346 -0.18087433 0.3075027
-0.3598802 0.11018874 0.097152725 1.1322043 0.10026241 0.0818295 -0.040753786 -0.19617046
0.019641135 0.18024836 -0.07311595 0.14667171 -0.121922664 0.15594876 -0.55328196 0.6358304
0.23523146 0.24070323 -0.05288985 0.19382529 0.12658 -0.14210969 -0.049419302 -0.04726442
-0.07382592 -0.06560783 -0.91230047 1.9032772 -0.07045495 -0.11538113 -0.073726624 -0.18137978
-0.016529024 -0.14258352 -0.17815155 0.35560846 0.21416104 -0.11239544 -0.43252292 -0.015444441
-0.13731803 -0.10964904 -0.26024163 0.13040745 -0.1463323 0.12337188 0.20607926 0.3669477
0.051984273 -0.15441154 -1.7602577 -0.21840695 0.1379209 0.13874677 -0.10227157 -0.08243757
0.049623575 -0.012924188 0.04229837 -0.02753467 -0.021489166 0.2010817 0.07533613 0.35132962
0.23147893 0.005323432 0.061583884 0.14572012 -0.03152823 -0.1496727 0.38153884 -0.14135489
0.2720376 -0.10375824 -0.044987578 1.051208 -0.041144703 0.20553109 0.07037978 0.14398348
-0.013162631 -0.10465409 0.062818386 -0.027666856 0.11166181 0.20504102 0.35563675 -1.073684
-0.115462705 -0.06632098 -0.0067627965 0.0195412 0.14769828 -0.10954934 -0.16936089 -0.11457264
0.13227482 -0.24766926 -0.500507 -0.06436855 0.26523346 0.080588534 0.10310497 0.15140992
-0.07009391 0.042684637 -0.03717897 0.15035343 0.019471372 0.32709998 0.3756403 -1.3589929
0.10040791 -0.08617759 0.13274513 0.2684428 0.34677038 0.06792792 0.24110872 0.20204005
0.31950253 -0.018693633 -0.13666154 0.15553105 -0.113594405 -0.12672822 -0.25810003 0.030734334
-0.1744935 0.06684479 0.15208967 -0.008814574 -0.11194726 -0.1859996 -0.08674112 -0.71312
0.10708097 -0.16249883 -0.04875201 0.16031185 -0.037072606 0.022928515 -0.1791353 -0.124688864
0.058278706 0.26571608 0.17275913 0.3833589 0.03060257 0.23164023 0.057932675 0.08406705
0.25036722 0.22461401 -0.07587214 0.043944 0.03262905 -0.09655564 -1.023559 0.4585081
0.12636268 -0.20364101 -0.0073322183 -0.003117072 -0.092033744 -0.1225972 -0.16151957 0.2674409
0.08613026 0.021387251 1.3779473 0.88005614 0.032564204 -0.00029464776 0.09853359 0.32959163
00000000: 94ca 063e 3f43 febd 0b04 31be 7557 c93d
00000010: c442 33be 1672 8a3e 502c ba3e ae58 873e
00000020: bc9f 93bb 9a43 f53c 84fd 613f a121 a1bf
00000030: 6ad9 073d ae2a 993d 68af bd3d ae28 78bd
00000040: b72f 99bd b6ad 7cbe adeb fb3c 0c18 10be
00000050: 8279 023d d211 4ebd 5139 123e c44f 1e3e
00000060: 47ce 29bc 721e 27be 9b22 06bd f534 643e
00000070: 8c28 183c bbdc 27be 46c4 093e 07f9 063e
00000080: 60aa 92bb 2abc a73e e55a d9be 9b47 c8bf
00000090: 1180 bf3d 54ff d5bc 5899 66bc 6a68 91be
000000a0: 3af7 453e 5df2 10bd 0c72 653d 4112 0abe
000000b0: 2c08 d33d 3197 44be 0e90 383e f51a 78bf
000000c0: 3fad 50bb c6ec 34bd fc49 613d a4a4 06bd
000000d0: 944d 1e3e 7b18 22be 9d3f 673e 9a27 d1bc
000000e0: 8cf8 24be c42e babd f10b 2d3f 7410 d0bf
000000f0: 9529 843d 768e 0fbe f486 87be 562c 383c
00000100: 6a57 013b 378c 2c3c fc3d ddbd 041b 8d3e
00000110: 3a5b 1e3d 1db5 a2be 011e f73e 63e8 9d3e
00000120: f909 16be 5119 7a3e 31eb 1e3c 10ac ca3d
00000130: e329 90be 6941 f43c 1f37 39be fe70 9d3e
00000140: 3842 b8be a2aa e13d 02f8 c63d 12ec 903f
00000150: 6156 cd3d 3a96 a73d 71ed 26bd e9e0 48be
00000160: 72e6 a03c 0793 383e d1bd 95bd 1c31 163e
00000170: 97b2 f9bd 08b1 1f3e e3a3 0dbf c8c5 223f
00000180: 84e0 703e e87a 763e 07a3 58bd 237a 463e
00000190: 309e 013e 3485 11be e56b 4abd 5698 41bd
000001a0: 0b32 97bd 665d 86bd 868c 69bf 969e f33f
000001b0: af4a 90bd f14c ecbd fcfd 96bd 9fbb 39be
000001c0: e067 87bc 6a01 12be 5c6d 36be 5012 b63e
000001d0: 084d 5b3e 952f e6bd a573 ddbe ae0a 7dbc
000001e0: 199d 0cbe ad8f e0bd 643e 85be 8889 053e
000001f0: 22d8 15be 65aa fc3d 7106 533e 92e0 bb3e
00000200: 76ed 543d 0f1e 1ebe 2050 e1bf 12a6 5fbe
00000210: 233b 0d3e a213 0e3e c273 d1bd 07d5 a8bd
00000220: 1742 4b3d f9bf 53bc 0e41 2d3d 6390 e1bc
00000230: 0c0a b0bc 5ce8 4d3e d449 9a3d 7ae1 b33e
00000240: d008 6d3e 2f70 ae3b 623f 7c3d a837 153e
00000250: bf23 01bd cd43 19be 0f59 c33e 56bf 10be
00000260: 8348 8b3e 337f d4bd e544 38bd fc8d 863f
00000270: 5987 28bd be76 523e 4623 903d 6870 133e
00000280: 13a8 57bc e254 d6bd eda6 803d 9aa5 e2bc
00000290: f2ae e43d 46f6 513e 0516 b63e 7a6e 89bf
000002a0: b677 ecbd 4bd3 87bd 739a ddbb de14 a03c
000002b0: 383e 173e 685b e0bd f16c 2dbe 0fa5 eabd
000002c0: 0d73 073e 039d 7dbe 3a21 00bf a9d3 83bd
000002d0: aecc 873e 9a0b a53d b328 d33d 340b 1b3e
000002e0: 658d 8fbd 16d6 2e3d fa48 18bd 40f6 193e
000002f0: 6d82 9f3c a679 a73e ed53 c03e 7bf3 adbf
00000300: aaa2 cd3d e07d b0bd 57ee 073e 5671 893e
00000310: e38b b13e cb1d 8b3d 34e5 763e 96e3 4e3e
00000320: d695 a33e 6423 99bc 01f1 0bbe 8843 1f3e
00000330: 2fa4 e8bd 0bc5 01be b025 84be 92c6 fb3c
00000340: 6dae 32be ece5 883d 65bd 1b3e 016b 10bc
00000350: 9b44 e5bd ae76 3ebe 54a5 b1bd 088f 36bf
00000360: 454d db3d 1866 26be 30b0 47bd ca28 243e
00000370: 72d9 17bd 95d4 bb3c 3e6f 37be e05c ffbd
00000380: a7b5 6e3d f00b 883e c5e7 303e 9e47 c43e
00000390: 3eb2 fa3c 1933 6d3e d04a 6d3d 582b ac3d
000003a0: 2230 803e 3701 663e da62 9bbd a0fe 333d
000003b0: 0aa6 053d f7be c5bd fb03 83bf 93c1 ea3e
000003c0: 3865 013e 4587 50be 1b43 f0bb ca47 4cbb
000003d0: 307c bcbd 3e14 fbbd 6365 25be 03ee 883e
000003e0: 1065 b03d 5134 af3c 9460 b03f 5c4b 613f
000003f0: 0b62 053d f47a 9ab9 fbcb c93d 3cc0 a83e

value.0.bias f4 [32]
-0.09262148 -0.47706276 -0.14629121 0.21972425 0.30197158 -0.30716726 -0.27943355 -0.31843022
0.20680133 0.38130638 0.0631754 -0.52847356 -0.30621094 0.29865122 0.5811252 0.18316652
0.0923684 -0.15028906 -0.12607528 0.29017287 0.5415228 -0.00012964565 -0.29439145 0.5701187
-0.016671231 0.02117864 0.39562526 -0.008181098 0.054592416 0.3566164 0.05837611 0.07638113
00000000: 55b0 bdbd 9241 f4be 5dcd 15be 65ff 603e
00000010: 059c 9a3e 0745 9dbe ea11 8fbe 4909 a3be
00000020: bac3 533e 973a c33e 1b62 813d 0b4a 07bf
00000030: aec7 9cbe d0e8 983e 9fc4 143f 0190 3b3e
00000040: a52b bd3d 60e5 19be e119 01be 8a91 943e
00000050: 3da1 0a3f 7df1 07b9 7aba 96be 4df3 113f
00000060: 1b92 88bc d47e ad3c 658f ca3e 030a 06bc
00000070: 4c9c 5f3d 6d96 b63e ca1b 6f3d b66d 9c3d

value.2.weight f4 [32, 32]
0.2814208 -0.08954865 0.15076227 -0.120555736 0.20736803 0.012048044 0.03723689 0.05822396
0.0642405 0.08742579 0.010016229 0.114672326 0.008452497 -0.14147548 0.023356423 -0.18763156
0.2635868 0.06168042 -0.2997326 0.17424555 0.030608239 0.043404043 -0.38976404 -0.20518458
-0.09065728 0.043025985 -0.20906545 -0.05531753 0.02020619 0.04632188 -0.0905588 0.14086816
0.030792734 -0.030552376 0.19481607 0.08242386 0.07391858 -0.050953496 -0.05926336 -0.2782813
0.12207101 0.041064452 -0.13338889 -0.12863404 -0.10733832 0.05905852 0.082711905 0.025305012
0.00031487315 -0.068615936 -0.004968504 -0.17377101 0.08241825 -0.1716539 0.25705624 -0.07505049
-0.10221727 0.00058898027 -0.041647024 -0.22814031 -0.057287913 0.18837257 -0.07762464 0.10986275
-0.040634688 0.09580391 0.071500435 0.030081324 0.013220557 0.13975504 -0.11451037 0.09016072
-0.005343537 0.07195974 0.18099217 -0.009801626 0.016274666 -0.02685715 0.13397238 -0.08614896
0.0061707976 -0.091213435 -0.04272767 -0.021433536 -0.028657462 0.024619568 0.03626396 0.007423225
0.013698727 -0.061667606 -0.13214609 0.028324986 -0.24577951 0.050820593 -0.029961232 0.2087772
0.14731099 -0.043708425 -0.114552625 0.06474495 -0.2726108 -0.0854384 -0.043195795 -0.091798015
-0.29178122 0.14804225 -0.044675574 -0.13026929 -0.11562161 -0.08103694 -0.078869104 -0.023136236
0.1173525 0.05382914 -0.0098283235 0.06440719 0.08879257 -0.37163964 0.14536515 0.02212929
0.20507915 0.12306427 -0.1842013 0.05758435 0.04133413 -0.08973858 0.108921334 -0.08806502
-0.07670914 -0.32143044 -0.19342597 0.042572383 -0.10542572 0.011549947 0.0016741068 -0.1491263
0.10410347 -0.07446189 0.12248756 -0.10251039 -0.24308164 -0.35367218 -0.17847234 -0.061255064
0.20105033 0.06990377 -0.08460373 -0.36523154 0.07173474 0.013936004 -0.2326494 -0.28384012
-0.10828114 0.029781945 0.13887887 0.18531221 0.23619764 0.02754495 0.07339147 -0.07113358
-0.075157456 -0.065501586 -0.09035092 0.22763288 -0.030068576 0.11560861 0.051702663 0.04078538
0.033756595 -0.04147252 -0.0016757795 0.011937054 0.0696208 0.1514871 0.03439929 0.17550056
-0.04604523 0.056406755 0.20808622 0.042025857 -0.16641815 0.01883615 -0.107459225 -0.066303
0.08754485 -0.09803619 -0.050722353 -0.09807774 -0.15565889 -0.02573127 -0.10443148 -0.088554
0.12140538 -0.15194112 -0.16507837 -0.01740764 -0.10695591 -0.083623454 -0.06119737 0.03236337
0.06897612 -0.117515296 0.09002806 -0.08421111 0.023038164 -0.06703355 0.106793925 -0.11979483
-0.17095488 -0.09958314 -0.04512307 -0.12990533 -0.032580793 -0.12293254 -0.055892475 -0.0330725
-0.078623705 -0.11374602 -0.0541555 -0.13234277 0.09981887 0.09811981 -0.095685884 -0.11218682
0.06300686 -0.06879338 0.0050956304 -0.06139308 -0.031905912 -0.020936472 0.30829284 0.03186705
-0.115442246 -0.07552813 -0.12968265 0.034279533 -0.014011654 -0.006724791 0.088838056 -0.0913571
0.11942566 0.12183073 -0.020157406 0.17774609 -0.039038137 -0.0112175 0.14039116 0.16293402
0.08019359 0.048747048 -0.25416988 0.07371535 0.15608512 -0.18666808 0.02326692 0.07673367
00000000: 6316 903e 4865 b7bd 6d61 1a3e ede5 f6bd
00000010: 4958 543e 2965 453c b685 183d 3f7c 6e3d
00000020: 8690 833d 4b0c b33d 1c1b 243c 53d9 ea3d
00000030: 587c 0a3c f3de 10be f855 bf3c 7d22 40be
00000040: d9f4 863e 9ca4 7c3d 8d76 99be 6d6d 323e
00000050: 21be fa3c 70c8 313d 278f c7be e81b 52be
00000060: 86aa b9bd 043c 303d 4115 56be a294 62bd
00000070: 7487 a53c 03bc 3d3d e476 b9bd be3f 103e
00000080: 0b41 fc3c fa48 fabc dd7d 473e d7cd a83d
00000090: a062 973d 9db4 50bd 23be 72bd e37a 8ebe
000000a0: 5e00 fa3d 3333 283d 1997 08be a4b8 03be
000000b0: 31d4 dbbd 59e7 713d dc64 a93d 754c cf3c
000000c0: 8f15 a539 8386 8cbd d5ce a2bb 07f1 31be
000000d0: e6ca a83d 0ac6 2fbe e09c 833e 12b4 99bd
000000e0: 4a57 d1bd cc65 1a3a 1296 2abd 9d9d 69be
000000f0: bba6 6abd bde4 403e abf9 9ebd b9ff e03d
00000100: 8f70 26bd d734 c43d d26e 923d 1c6d f63c
00000110: 099b 583c f21b 0f3e 6a84 eabd 2fa6 b83d
00000120: d618 afbb a15f 933d 0356 393e 0097 20bc
00000130: 7352 853c 8703 dcbc 0e30 093e de6e b0bd
00000140: 6734 ca3b 1cce babd 3603 2fbd 6295 afbc
00000150: 0ec3 eabc faae c93c 8589 143d 863e f33b
00000160: a070 603c 2c97 7cbd 4e51 07be cd09 e83c
00000170: a0ad 7bbe 4129 503d 4271 f5bc b1c9 553e
00000180: b1d8 163e 9b07 33bd 919a eabd 0099 843d
00000190: a593 8bbe 54fa aebd 13ee 30bd 9900 bcbd
000001a0: 5964 95be 6398 173e bcfd 36bd 5065 05be
000001b0: 06cb ecbd b2f6 a5bd 2086 a1bd 3488 bdbc
000001c0: 8256 f03d f27b 5c3d fa06 21bc ebe7 833d
000001d0: e1d8 b53d 8d47 bebe 9ada 143e 7c48 b53c
000001e0: 4500 523e 1f09 fc3d 449f 3cbe 91dd 6b3d
000001f0: fa4d 293d dcc8 b7bd 2612 df3d 6f5b b4bd
00000200: ae19 9dbd 8892 a4be 7511 46be 6160 2e3d
00000210: 71e9 d7bd fd3b 3d3c b46d db3a 91b4 18be
00000220: 3334 d53d 7a7f 98bd c2da fa3d f8f0 d1bd
00000230: 65ea 78be 8514 b5be 74c1 36be 97e6 7abd
00000240: 23e0 4d3e b529 8f3d b844 adbd a1ff babe
00000250: aae9 923d d653 643c a53b 6ebe 7e53 91be
00000260: 81c2 ddbd 44f9 f33c 4336 0e3e 7cc2 3d3e
00000270: cbdd 713e f2a5 e13c 444e 963d 7bae 91bd
00000280: 27ec 99bd b225 86bd e709 b9bd 9818 693e
00000290: 6052 f6bc 35c4 ec3d 2cc6 533d 920e 273d
000002a0: 5b44 0a3d 17df 29bd d4a5 dbba a293 433c
000002b0: 5a95 8e3d 6f1f 1b3e 45e6 0c3d 6bb6 333e
000002c0: ec99 3cbd c50a 673d 8e14 553e 4e23 2c3d
000002d0: 8569 2abe 454e 9a3c 9513 dcbd dec9 87bd
000002e0: b74a b33d 33c7 c8bd 3ec2 4fbd fbdc c8bd
000002f0: 0b65 1fbe 62ca d2bc 2ce0 d5bd cd5b b5bd
00000300: 62a3 f83d 7496 1bbe 4e0a 29be 789a 8ebc
00000310: b30b dbbd c642 abbd 18aa 7abd 748f 043d
00000320: 5a43 8d3d dcab f0bd a260 b83d e076 acbd
00000330: 88ba bc3c e348 89bd c6b6 da3d fe56 f5bd
00000340: cc0e 2fbe 3ff2 cbbd f8d2 38bd e705 05be
00000350: 7073 05bd 0ec4 fbbd 82ef 64bd 0877 07bd
00000360: 7705 a1bd acf3 e8bd 28d2 5dbd dd84 07be
00000370: d66d cc3d 0af3 c83d f6f6 c3bd 34c2 e5bd
00000380: be09 813d 8be3 8cbd 3ff9 a63b 4f77 7bbd
00000390: c6af 02bd f782 abbc 8fd8 9d3e 0687 023d
000003a0: fc6c ecbd 7eae 9abd 87cb 04be b268 0c3d
000003b0: 2391 65bc a35b dcbb baf0 b53d 6e19 bbbd
000003c0: 7195 f43d 6482 f93d 2521 a5bc 1203 363e
000003d0: 74e6 1fbd 9bc9 37bc b3c2 0f3e 2dd8 263e
000003e0: 893c a43d fcaa 473d 8e22 82be 13f8 963d
000003f0: c7d4 1f3e eb25 3fbe 459a be3c 8b26 9d3d

value.2.bias f4 [32]
-0.2953476 0.64051294 -0.5677018 -0.36940727 -0.3200755 -0.41574818 0.00021125376 0.07964875
0.036118165 -0.08144878 0.3485765 -0.4426011 0.612157 0.0812964 0.11507916 0.089121185
-0.039082915 0.37049198 0.19179377 0.34182507 -0.4338565 0.38479164 0.3997547 -0.37666824
0.47060683 -0.11095617 -0.5551466 -0.5283444 -0.31513196 -0.10852018 -0.23634572 0.1801351
00000000: cd37 97be a8f8 233f e854 11bf f322 bdbe
00000010: f0e0 a3be f2dc d4be 0084 5d39 e21e a33d
00000020: a4f0 133d 9ece a6bd 9e78 b23e 9d9c e2be
00000030: 52b6 1c3f ba7e a63d 9fae eb3d 2b85 b63d
00000040: 6815 20bd 20b1 bd3e 9665 443e b203 af3e
00000050: 7022 debe 6903 c53e a6ac cc3e a9da c0be
00000060: 61f3 f03e fd3c e3bd 161e 0ebf 9441 07bf
00000070: fa58 a1be d43f debd 9d04 72be 5675 383e

value.4.weight f4 [1, 32]
-0.0674351 0.13070826 -0.07811785 -0.05463581 -0.06869367 -0.08888197 0.0019023567 0.12784068
0.13072161 0.09081257 0.06655325 -0.07417984 0.064583175 0.047608566 0.101383656 0.064395726
0.072224244 0.06371461 -0.4309895 0.08006058 -0.100650415 0.067253746 0.08760189 -0.08818067
0.08825057 0.05557084 -0.08035798 -0.073220655 -0.036538206 -0.11318004 -0.07582957 -0.07918627
00000000: 6a1b 8abd 63d8 053e 40fc 9fbd cdc9 5fbd
00000010: 44af 8cbd c007 b6bd 8058 f93a abe8 023e
00000020: e3db 053e f1fb b93d 124d 883d 9aeb 97bd
00000030: 2f44 843d 3301 433d 3ca2 cf3d e8e1 833d
00000040: 4eea 933d ce7c 823d a8aa dcbe cdf6 a33d
00000050: ce21 cebd 55bc 893d 9f68 b33d 1198 b4bd
00000060: b7bc b43d 409e 633d ba92 a4bd b6f4 95bd
00000070: 16a9 15bd f0ca e7bd 894c 9bbd 692c a2bd

actor.0.weight f4 [32, 10]
-0.6148668 -0.08370105 0.26360813 -0.3471615 -0.26236567 -0.35856247 0.023148172 -0.0483589
0.40129694 0.23936202 0.20285818 0.38445005 0.044735555 -0.21064416 0.33182326 0.13214731
-0.21888536 -0.4458459 -0.34767368 -0.21214803 0.538477 0.26668754 0.33088967 -0.113177486
0.12936273 -0.0023691077 -0.32223788 0.01682849 -0.5535776 -0.5453756 0.013050597 -0.39328957
0.16569231 -0.07899353 -0.50311285 -0.08707148 -0.36265993 0.0016020208 0.09216138 0.23965617
-0.03741102 -0.017843792 -0.564876 0.29481727 -0.189293 0.33550078 0.179319 0.2146589
-0.016727353 0.24617219 -0.19590457 0.34313625 -0.12516439 0.22594109 0.30394647 0.7073936
-0.08473908 0.24396853 -0.15905255 0.06050708 -0.029107248 0.25684032 -0.26381013 -0.3906966
0.32674095 -0.22044177 -0.10234969 -0.20132269 -0.15608296 0.20094831 0.08563826 0.34885633
0.13212758 0.61229163 0.1259556 0.18974905 -0.12774237 -0.39786538 0.33215305 0.1633649
-0.60181934 -0.61716896 -0.47704786 0.13950104 0.36649138 0.21810104 0.121161476 0.11694484
-0.017383685 -0.0064703044 0.19061221 0.0014879039 -0.21821108 -0.6411228 0.41537756 0.1479772
-0.015993971 0.19772498 -0.066104405 -0.3909181 0.33874917 0.5865846 0.12560275 -0.15542918
-0.22253585 0.05808783 0.088246346 0.1115906 0.1634616 0.55754477 0.057260122 0.5847512
-0.08837111 -0.5059542 0.55555624 -0.20700304 -0.20296927 -0.047202215 -0.4966449 -0.0491195
0.03192043 -0.0195465 -0.116634965 -0.030465167 -0.2683294 0.041485135 -0.52758974 -0.32525897
0.41996762 0.54675305 -0.34085318 -0.30402356 0.36145237 -0.069970705 0.18980941 -0.49035046
0.27678522 0.13556708 -0.13224378 0.30220374 0.19436516 0.23736824 -0.03085136 0.02635302
-0.047164213 -0.029382205 -0.46904346 -0.41015264 0.31455418 -0.23466435 0.10360291 -0.2861714
0.035999637 -0.07901736 0.50939834 0.5723225 -0.319832 0.12702613 0.19414729 -0.21274279
-0.5101629 -0.15320253 0.02292076 -0.27945867 -0.24658057 0.21310312 0.028634796 -0.2657512
0.020383867 -0.33690947 -0.22874138 -0.028819418 -0.012141898 -0.41171917 0.5311835 -0.16862957
0.21003944 -0.20189647 -0.13739364 -0.32628283 -0.032525253 0.08550765 0.063865654 -0.11378679
0.19725229 -0.8172588 0.32369426 -0.13631625 0.26978526 0.10206639 -0.23686194 -0.3217821
-0.1799809 -0.5167387 0.225954 -0.11886347 0.1162343 0.29220864 -0.083175 -0.06723555
0.26157928 0.29161716 0.3708069 0.38065827 -0.17919242 0.120020464 0.0063124956 -0.2557399
-0.63153964 -0.076284386 -0.00812443 0.20126216 0.26652244 -0.007144117 0.781571 -0.25972354
-0.31112507 -0.36392286 -0.115865946 0.11980263 -0.18949772 -0.37319085 -0.0883874 -0.23085845
-0.6662193 0.43180266 0.21172732 -0.27816346 -0.30061918 0.30740848 -0.0005242982 0.13608922
-0.31142327 -0.17802893 0.28235 0.33821943 -0.27017495 -0.35055012 -0.038193814 -0.07571414
-0.47550625 -0.15161034 0.08995194 -0.24987188 0.33216333 0.21684912 -0.11396445 -0.5072551
0.17554647 0.077483825 0.62799704 -0.32775572 0.29050207 0.62756467 -0.12400363 -0.16678336
00000000: e967 1dbf 756b abbd a5f7 863e 27bf b1be
00000010: cb54 86be 8095 b7be 3ca1 bd3c fb13 46bd
00000020: cb76 cd3e 511b 753e 0eba 4f3e a3d6 c43e
00000030: a13c 373d 1ab3 57be bde4 a93e a051 073e
00000040: 7c23 60be ea45 e4be 4902 b2be 553d 59be
00000050: a1d9 093f 458b 883e 5f6a a93e 99c9 e7bd
00000060: aa77 043e 0843 1bbb 5dfc a4be e7db 893c
00000070: 43b7 0dbf bc9d 0bbf 2cd2 553c 405d c9be
00000080: 3fab 293e 5cc7 a1bd 01cc 00bf 8852 b2bd
00000090: 90ae b9be e6fa d13a 1bbf bc3d 6d68 753e
000000a0: 4c3c 19bd 252d 92bc b79b 10bf 4af2 963e
000000b0: 06d6 41be c2c6 ab3e 669f 373e 8bcf 5b3e
000000c0: cd07 89bc 9014 7c3e 359b 48be 8eaf af3e
000000d0: 182b 00be 1a5d 673e df9e 9b3e bf17 353f
000000e0: af8b adbd e3d2 793e acde 22be 46d6 773d
000000f0: 5372 eebc 9380 833e 1f12 87be 6209 c8be
00000100: 974a a73e 7dbb 61be b79c d1bd 8927 4ebe
00000110: 36d4 1fbe 65c5 4d3e 1d63 af3d 4c9d b23e
00000120: 744c 073e 25bf 1c3f 81fa 003e 934d 423e
00000130: e5ce 02be 03b5 cbbe f70f aa3e 2149 273e
00000140: d510 1abf c9fe 1dbf 9e3f f4be 5cd9 0e3e
00000150: c2a4 bb3e e155 5f3e 8223 f83d c780 ef3d
00000160: 3b68 8ebc d904 d4bb d92f 433e c505 c33a
00000170: ba72 5fbe a020 24bf 5eac d43e 5687 173e
00000180: ca05 83bc 6b78 4a3e bf61 87bd 6b26 c8be
00000190: 8870 ad3e 692a 163f 029e 003e d428 1fbe
000001a0: 70e0 63be 81ed 6d3d 80ba b43d 9d89 e43d
000001b0: 7a62 273e 41bb 0e3f 9789 6a3d 41b2 153f
000001c0: eafb b4bd 3786 01bf ef38 0e3f 9bf8 53be
000001d0: 2dd7 4fbe 1c57 41bd 3e48 febe 8731 49bd
000001e0: ffbe 023d fb1f a0bc 50de eebd 1692 f9bc
000001f0: 7962 89be 51ec 293d 1f10 07bf 5888 a6be
00000200: ff05 d73e 02f8 0b3f 4f84 aebe faa8 9bbe
00000210: 4910 b93e cd4c 8fbd 665d 423e 370f fbbe
00000220: cbb6 8d3e 19d2 0a3e ea6a 07be 73ba 9a3e
00000230: a907 473e a910 733e febb fcbc 4ae2 d73c
00000240: 432f 41bd f3b2 f0bc 7726 f0be 87ff d1be
00000250: 3f0d a13e da4b 70be c32d d43d 0f85 92be
00000260: 5b74 133d dbd3 a1bd ee67 023f ba83 123f
00000270: 05c1 a3be 2313 023e 8cce 463e 3fd9 59be
00000280: 099a 02bf 20e1 1cbe 51c4 bb3c 3515 8fbe
00000290: 9e7f 7cbe b437 5a3e 8593 ea3c 8b10 88be
000002a0: 11fc a63c 667f acbe 2e3b 6abe b316 ecbc
000002b0: d0ee 46bc dbcc d2be a4fb 073f 3bad 2cbe
000002c0: 9414 573e f3bd 4ebe ebb0 0cbe 8b0e a7be
000002d0: 3339 05bd a31e af3d ffcb 823d 0c09 e9bd
000002e0: 81fc 493e df37 51bf 41bb a53e 7d96 0bbe
000002f0: 4b21 8a3e 2f08 d13d f08b 72be a0c0 a4be
00000300: ea4c 38be fd48 04bf 7c60 673e b16e f3bd
00000310: 400c ee3d 5f9c 953e a857 aabd cbb2 89bd
00000320: b8ed 853e d84e 953e 67da bd3e a4e5 c23e
00000330: 387e 37be 4acd f53d 0dd9 ce3b 57f0 82be
00000340: 95ac 21bf fd3a 9cbd 541c 05bc ab17 4e3e
00000350: a175 883e 3219 eabb 0915 483f 7cfa 84be
00000360: c94b 9fbe 1954 babe 204b edbd 155b f53d
00000370: b10b 42be df12 bfbe 7404 b5bd 2866 6cbe
00000380: 598d 2abf 3d15 dd3e 0ccf 583e 716b 8ebe
00000390: c2ea 99be a564 9d3e 0e71 09ba f95a 0b3e
000003a0: df72 9fbe 374d 36be 2e90 903e 192b ad3e
000003b0: 5f54 8abe 4e7b b3be 1e71 1cbd 0410 9bbd
000003c0: 8e75 f3be be3f 1bbe b938 b83d 6ade 7fbe
000003d0: 5011 aa3e b20d 5e3e 3266 e9bd 78db 01bf
000003e0: 74c2 333e d7af 9e3d 6ac4 203f 99cf a7be
000003f0: b0bc 943e 14a8 203f 9df5 fdbd 42c9 2abe

actor.0.bias f4 [32]
0.3548792 0.4173683 -0.15738343 -0.096465364 -0.095285654 0.054481976 -0.13254127 0.46034884
-0.36825204 0.2632493 0.018139424 0.22996408 0.36254343 0.24186344 0.03641694 -0.071558475
-0.27945286 -0.34527147 0.08901186 -0.08237842 -0.069388986 0.114370905 0.2218336 0.19282429
0.3061075 0.047776733 -0.55481875 -0.046683017 -0.21481688 -0.14254805 0.10663324 -0.020909524
00000000: bab2 b53e 4cb1 d53e 1f29 21be a28f c5bd
00000010: 2025 c3bd 7e28 5f3d e6b8 07be d8b2 eb3e
00000020: 888b bcbe 9dc8 863e 2199 943c b47b 6b3e
00000030: 4b9f b93e 0dab 773e ee29 153d 408d 92bd
00000040: 7214 8fbe 6cc7 b0be da4b b63d 04b6 a8bd
00000050: d01b 8ebd 4b3b ea3d 5928 633e bb73 453e
00000060: 1fba 9c3e 89b1 433d 9a08 0ebf b136 3fbd
00000070: f5f8 5bbe 1ef8 11be 8762 da3d 734a abbc

actor.2.weight f4 [32, 32]
-0.011430391 -0.21390785 0.25801042 -0.24916027 -0.44014058 -0.16455644 0.05012968 -0.30605736
0.32430798 -0.08679009 0.2222125 -0.061992586 0.04729712 -0.028458718 -0.28738052 -0.048499808
0.10680334 0.11184442 -0.122652575 0.29446146 -0.09385193 0.019742342 -0.07132752 -0.1188704
0.17937091 -0.35515857 -0.20008542 0.10096034 0.28723696 0.21024844 0.30934075 -0.39560008
-0.048229318 0.009932639 -0.0426893 -0.16053495 0.55356044 -0.39903578 -0.009154763 0.069240406
0.038983047 0.19857067 0.12500173 0.43410143 0.29416755 -0.0669957 0.009781457 -0.24530713
-0.103546634 0.03548447 -0.119754374 0.075333826 -0.18348546 -0.64206713 0.06321272 0.1585566
-0.18565987 -0.07178977 0.031600345 -0.18903688 0.16721198 0.3421374 0.009434629 -0.88382256
-0.12279463 0.13768086 -0.092317216 -0.050949015 -0.102048285 0.4903793 0.16576551 0.033066694
-0.39682344 0.26877406 0.33530837 0.11286569 -0.07705888 -0.012665108 0.14856265 0.382375
-0.15234584 0.2652489 0.0014594275 0.0707834 -0.051587563 -0.060029138 0.0457433 0.04368803
-0.36483228 0.19651213 0.15727088 0.16634947 0.045068618 -0.00014751386 0.18808922 -0.008949862
0.2703478 -0.20308414 -0.7974846 -0.045559466 0.11619157 -0.07565941 -0.27268368 -0.34553412
0.091786385 -0.28055754 0.025423178 -0.30203155 0.23296174 0.18120532 -0.04674819 0.25713804
0.08392095 -0.1960716 -0.08142391 -0.21409844 -0.9230975 0.2853405 0.23096092 0.23622428
0.13207336 -0.4890282 0.110555075 0.19364472 -0.30445993 -0.20568962 0.06356578 0.04790792
0.05438397 0.077942744 0.072148874 0.061017074 -0.1454756 0.354078 0.21734276 0.05512259
-0.05090673 -0.38097093 0.042709343 -0.076383956 0.020931141 0.0991076 0.20310187 -0.112369046
0.14011738 0.10225987 -0.081615105 -0.26357087 0.11009276 -0.15933286 0.2958987 -0.14037204
0.036151916 -0.018768746 0.24661945 -0.065828234 0.091277085 0.043334767 0.2778274 0.43647346
0.29159495 0.061242193 -0.4022522 -0.067168266 0.23843881 -0.5413141 0.12562071 -0.3433963
-0.39367026 -0.06529067 0.15746234 0.17808858 0.19103782 0.018302036 -0.117649525 0.22995646
0.08637225 -0.116109066 0.23034477 -0.6886922 -0.21105687 -0.57540715 -0.020849923 0.026913451
-0.6693092 -0.041330133 0.15041892 -0.70105195 0.28298756 0.04835003 0.092773184 -0.26316905
-0.075383544 0.07550908 0.033266377 -0.07920215 0.3174667 -0.34652698 -0.1547458 0.08894148
0.06494016 -0.32273766 -0.11170061 -0.12755053 0.069533005 0.23186329 0.075303294 -0.06844949
0.27749836 0.11955695 -0.27467164 0.18199067 -0.027127435 -0.019730138 -0.02111928 0.038998257
0.3036873 -0.038094886 0.14807825 0.04110415 -0.063388534 -0.18779571 -0.09590836 0.10372764
0.017111726 0.0869216 0.13167094 -0.18035974 0.049500883 -0.3782439 0.22504908 -0.37166741
0.16372755 0.54472697 -0.03158242 0.3958815 0.269325 -0.14088373 0.10783277 0.023029387
-0.23085076 0.02235599 -0.00066319766 -0.11360689 0.07314005 -0.601867 0.22162487 0.19841665
-0.5266796 -0.06947577 0.084204346 -0.17114262 0.12485322 0.24261303 0.22523047 -0.1327233
00000000: 8946 3bbc a90a 5bbe f119 843e df23 7fbe
00000010: 1b5a e1be 7c81 28be c854 4d3d 8db3 9cbe
00000020: b20b a63e 01bf b1bd ac8b 633e f0eb 7dbd
00000030: a0ba 413d 4222 e9bc 8a23 93be bca7 46bd
00000040: b6bb da3d b00e e53d 4631 fbbd a7c3 963e
00000050: 7135 c0bd b1ba a13c 2a14 92bd 5372 f3bd
00000060: 02ad 373e 58d7 b5be 31e3 4cbe 4bc4 ce3d
00000070: b910 933e 5e4b 573e e961 9e3e 188c cabe
00000080: 1b8c 45bd 82bc 223c fada 2ebd 4663 24be
00000090: 23b6 0d3f 6b4e ccbe dcfd 15bc eacd 8d3d
000000a0: b0ac 1f3d 1c56 4b3e 7400 003e 8b42 de3e
000000b0: 219d 963e 0b35 89bd 6742 203c cb31 7bbe
000000c0: 4210 d4bd 2a58 113d c841 f5bd 9f48 9a3d
000000d0: 9de3 3bbe 835e 24bf ac75 813d a95c 223e
000000e0: 9f1d 3ebe 8406 93bd 5d6f 013d e292 41be
000000f0: 9e39 2b3e a22c af3e b493 1a3c 3242 62bf
00000100: c07b fbbd 36fc 0c3e cf10 bdbd eaaf 50bd
00000110: b1fe d0bd ff12 fb3e 6fbe 293e f170 073d
00000120: 712c cbbe c19c 893e 8aad ab3e 2026 e73d
00000130: 0cd1 9dbd 5081 4fbc cf20 183e a8c6 c33e
00000140: 8c00 1cbe b4ce 873e 434a bf3a e3f6 903d
00000150: 7b4d 53bd 1de1 75bd 545d 3b3d 38f2 323d
00000160: 4ccb babe 7a3a 493e 9e0b 213e 8457 2a3e
00000170: df99 383d f3ad 1ab9 769a 403e 71a2 12bc
00000180: 076b 8a3e 4af5 4fbe f327 4cbf 909c 3abd
00000190: d9f5 ed3d 52f3 9abd 329d 8bbe d9e9 b0be
000001a0: 80fa bb3d 3da5 8fbe 4544 d03c e1a3 9abe
000001b0: 868d 6e3e e38d 393e 087b 3fbd 99a7 833e
000001c0: bfde ab3d fec6 48be 94c1 a6bd 9f3c 5bbe
000001d0: 1e50 6cbf 2618 923e 0581 6c3e c7e4 713e
000001e0: 3d3e 073e e761 fabe b36a e23d cd4a 463e
000001f0: 2ce2 9bbe 4da0 52be c72e 823d 183b 443d
00000200: bac1 5e3d 72a0 9f3d cac2 933d 0aed 793d
00000210: 8ef7 14be b649 b53e 1a8f 5e3e 3ac8 613d
00000220: 9383 50bd 9f0e c3be feef 2e3d 316f 9cbd
00000230: c977 ab3c edf8 ca3d f0f9 4f3e be21 e6bd
00000240: ee7a 0f3e 9f6d d13d d225 a7bd c3f2 86be
00000250: 5078 e13d 2728 23be 0980 973e b0bd 0fbe
00000260: 0814 143d eac0 99bc cf89 7c3e f4d0 86bd
00000270: 7bef ba3d cc7f 313d 653f 8e3e 7379 df3e
00000280: ef4b 953e 18d9 7a3d 00f4 cdbe 848f 89bd
00000290: 4e29 743e 9093 0abf b7a2 003e a4d1 afbe
000002a0: 268f c9be 1db7 85bd cf3d 213e da5c 363e
000002b0: 6b9f 433e 27ee 953c 3cf2 f0bd b579 6b3e
000002c0: efe3 b03d 97ca edbd 80df 6b3e 224e 30bf
000002d0: 4b1f 58be e24d 13bf 75cd aabc 9979 dc3c
000002e0: d957 2bbf c949 29bd 6b07 1a3e 2478 33bf
000002f0: bfe3 903e ae0a 463d deff bd3d 18be 86be
00000300: b062 9abd 81a4 9a3d 5342 083d bd34 a2bd
00000310: ff8a a23e fc6b b1be af75 1ebe f326 b63d
00000320: 59ff 843d df3d a5be 4ac3 e4bd 9b9c 02be
00000330: 5267 8e3d 926d 6d3e 9d38 9a3d 3f2f 8cbd
00000340: 4414 8e3e 46da f43d c3a1 8cbe c35b 3a3e
00000350: 5b3a debc 19a1 a1bc 5702 adbc a3bc 1f3d
00000360: e77c 9b3e 6209 1cbd d3a1 173e d35c 283d
00000370: d9d1 81bd 854d 40be 9a6b c4bd 286f d43d
00000380: e42d 8c3c f403 b23d bfd4 063e 39b0 38be
00000390: 70c1 4a3d 2fa9 c1be 4473 663e 314b bebe
000003a0: 32a8 273e 3a73 0b3f 915c 01bd fbb0 ca3e
000003b0: f7e4 893e d343 10be 6dd7 dc3d 20a8 bc3c
000003c0: 2464 6cbe e923 b73c 71da 2dba bbaa e8bd
000003d0: 73ca 953d f513 1abf a1f1 623e bc2d 4b3e
000003e0: 79d4 06bf 5049 8ebd 5473 ac3d 0340 2fbe
000003f0: 0cb3 ff3d 8d6f 783e d1a2 663e 9ee8 07be

actor.2.bias f4 [32]
-0.21313165 -0.090907164 -0.21518031 0.25548536 0.20124246 0.12701294 0.17138347 -0.13654676
0.31626913 -0.087688185 -0.17652972 0.14454122 0.052436076 0.18388693 0.18393761 -0.04366948
-0.13894399 -0.18159212 -0.18660057 0.37917665 0.030447558 -0.019589504 0.0026720094 0.104059495
0.19599053 0.09736819 0.09357239 0.2680094 -0.11162596 0.28187254 -0.09548947 0.04309914
00000000: 2f3f 5abe 892d babd 3a58 5cbe face 823e
00000010: 8112 4e3e ae0f 023e 267f 2f3e ead2 0bbe
00000020: 07ee a13e dd95 b3bd 35c4 34be 9d02 143e
00000030: 36c7 563d db4c 3c3e 245a 3c3e c5de 32bd
00000040: 5547 0ebe 49f3 39be 3814 3fbe 7123 c23e
00000050: 286d f93c 2b7a a0bc e11c 2f3b 251d d53d
00000060: beb1 483e f968 c73d e2a2 bf3d 8738 893e
00000070: 279c e4bd 9951 903e fc8f c3bd b988 303d

actor.4.weight f4 [2, 32]
0.34628776 -0.45427287 0.457703 -0.42481056 0.20180315 -0.5731041 -0.21297231 -0.1955365
-0.27213934 0.51484096 0.4207718 0.36110225 -0.6965312 -0.590493 0.011344093 -0.94832325
0.23211093 0.26121292 0.43950507 -0.6282718 -0.23058766 -0.47610667 0.307344 -0.9510923
-0.35150847 -0.45411283 0.6357499 0.0807675 -0.16493419 -0.48601705 -0.63110465 -0.22824937
-0.23515107 0.20956272 0.15297359 -0.21782456 -0.28185454 0.3624207 -0.21329145 0.40940267
-0.14080416 -0.21088605 -0.19894865 -0.3687872 0.3743323 0.71847594 0.26748458 0.7194171
-0.31323102 -0.38960287 0.47933936 -0.5864759 0.5319382 0.2082557 -0.44678953 -0.43201867
-0.6872432 0.5911875 -0.06905984 0.29485458 -0.6998417 -0.59069294 0.6123775 1.1336818
00000000: a14c b13e 7496 e8be 0c58 ea3e c580 d9be
00000010: 7ca5 4e3e f3b6 12bf 6a15 5abe b83a 48be
00000020: d955 8bbe 9ecc 033f 676f d73e 65e2 b83e
00000030: de4f 32bf 8d2a 17bf 93dc 393c 50c5 72bf
00000040: 7dae 6d3e b3bd 853e cf06 e13e 6cd6 20bf
00000050: 2c1f 6cbe 41c4 f3be 315c 9d3e c97a 73bf
00000060: ebf8 b3be 7a81 e8be 81c0 223f 6e69 a53d
00000070: 82e4 28be 3ad7 f8be 1390 21bf 34ba 69be
00000080: 71cb 70be 9c97 563e 1ca5 1c3e 670d 5fbe
00000090: 3d4f 90be 358f b93e 1369 5abe 3a9d d13e
000000a0: f72e 10be 83f2 57be 32b9 4bbe add1 bcbe
000000b0: 7ca8 bf3e 0aee 373f bdf3 883e b82b 383f
000000c0: d15f a0be 077a c7be f86b f53e 4923 16bf
000000d0: 1a2d 083f fb40 553e 99c1 e4be 8d31 ddbe
000000e0: 2cef 2fbf 1058 173f 3f6f 8dbd 2ef7 963e
000000f0: d328 33bf a737 17bf c6c4 1c3f 7c1c 913f

actor.4.bias f4 [2]
-0.13002397 0.015660463
00000000: 0125 05be 5f4a 803c
