results/SandingEnvMiddle/ddpg/model/model_parameters_2.pt (torch, 32386 bytes, 22 tensors)

value.0.weight f4 [32, 12]
00000000: 31d5 2e3e 2c4c cb3c bf82 27be 6a7b 00bd
00000010: 62e0 863e 065f f2bd 4d16 f53d 41a4 983e
00000020: 21bb 92be 016f 323e df45 cbbf 10b5 73bf
00000030: 8700 453d 8241 f23d ae9e 51be 8ff7 443b
00000040: 21d9 78bd 3b04 84bd 5ddf 073e 6dba bc3c
00000050: a54a 023e b06f 833d 9fc9 583e 9f46 15c0
00000060: 1ea6 0a3d 0180 bc3d 4967 0ebe fcda bcbd
00000070: 3afa 01be 43c5 1fbe 030d d03c 7e2b 253e
00000080: 8c0d 5abd f7a8 59bd cc2f 36bf 9e8f a23e
00000090: 52ff f13d 630c 273c 43f3 6dbe 0605 1abe
000000a0: 12ad d0bd bba3 833c 848c cebd 9e8d 0ebe
000000b0: 5da1 47bd 5bd1 8fbc db1d d53e 00ba e03c
000000c0: 66f7 0e3e decc 123e 501e 723c d215 d63d
000000d0: 45ce cb3c b167 dbbd b53d 30bd e466 33bd
000000e0: 1767 483c 8e3d 05be 1e3a 49bf f81b 01c0
000000f0: ae5f 783d 3820 82bd 0725 763a c6e8 8a3a
00000100: a81f bb3a d72a 31bc 0023 89be 848f 123e
00000110: 2e7c 0d3e bb50 05be b0bd 6740 8e21 a73e
00000120: a9bf 4abd 3001 02be faa3 a1b9 3423 6e3d
00000130: c18d 1c3e c87f 903d eb22 283e 6bf3 97bd
00000140: 7756 2a3e f121 60bc 4b6c 0240 8a55 da3e
00000150: 003b 123e 6a77 88bc a131 04be b467 7cbe
00000160: a63e 49be 477e 743e 421d 06bd b8c5 813e
00000170: 848f 59be 37e2 823e 26fd e0be 5045 003e
00000180: e27c 883d af7b babd 8d2f 683d 2a14 e73d
00000190: 2703 7fbd d07d 92bd b913 cdbc 7fed 5abe
000001a0: c493 27be 42ee 71bd e65f a5bf e6fe 9a3e
000001b0: c9cd fdbd ac87 e2bd 7db3 da3d 275e 64bc
000001c0: 8f38 53bd e905 51bd 0438 173e 9566 833d
000001d0: c341 b83e 9879 80bd 2ec7 0b3f 3819 0d3f
000001e0: 5758 123e b9c3 cebc e930 b03d e366 993e
000001f0: 7a8b adbb 429a ae3d cef1 7dbe 605e 3a3d
00000200: 6f72 e03d 9b3c fe3d befc 97bd 2f73 8c3e
00000210: cad2 3b3e e45f de3d 7193 a83d f860 ab3e
00000220: a48b 52be 5605 5a3e cebc 8a3e b7a3 ad3c
00000230: ff47 423e 1c07 28bd 5a1e 39bf 3260 433e
00000240: 67d3 223e babc d6bd 1b52 44bd 6e19 05be
00000250: 796b e3bd 75dd a83c f95b b5bc 9a25 97bc
00000260: 900f 833e a655 a73c 336e 1e3f 00b7 58be
00000270: 5a9d 4fbd db30 c1bc f067 58bc 8a78 573d
00000280: 568a 4cbc a45b 923d 27e0 863e 01d0 7bbc
00000290: 95c3 6a3e f7c6 a43e 258b 883f 7f3c 8d3e
000002a0: 9088 183e 295f 0d3d feb2 b03d 74a1 4b3d
000002b0: d731 943e 08d8 20be a3a5 4a3c 8267 833e
000002c0: 11c5 8fbe 217e 903d a235 b5be 5e5a 9cbe
000002d0: 5e77 463d 428a e8bc 1972 4f3e 5333 033e
000002e0: 7a74 1dbe 9790 2d3e 9486 be3e 44ab db3c
000002f0: 293c 573e 3342 2fbe 5c7c 2d40 f53c 2f3e
00000300: cc7d f13d c90c 92bd 49eb bf3c 2a49 1ebd
00000310: 3362 91be 1955 753d 36e9 383e 1d45 863e
00000320: 7fac 1e3d 4fef 253e cad5 3f40 af08 a0be
00000330: 1875 2dbc 1b51 95bd 72fd 9f3d 2d82 5cbd
00000340: aaef 08be 3839 283e 66e5 0b3e 3831 133e
00000350: 35ea 063c dbb1 723e f71e a33f a9cf 863d
00000360: 050c 00be 5f8b 873c b1c9 3e3e 8dfb a43e
00000370: df73 9bbd b2c3 4fbe fc5f 393c 219c b03e
00000380: 5b37 263e 4e0c 623e e9cf 153f 475d da3e
00000390: 6fbf 233d d34a 5fbd b232 d63c f3d7 d13d
000003a0: 7075 363e 6e39 5cbe 5698 a13c 1d81 2bbd
000003b0: 0444 b73e 3e5a 013e 9869 7cbf 7d35 873f
000003c0: a634 20bd 211f c53d 64f5 93be b1c0 32bd
000003d0: 31ec dcba 01c8 043c 7db9 5d3e 2122 81be
000003e0: 813b 21be e3bb a7bd 1743 2d3f b097 1f3f
000003f0: bbb4 bdbd 3e40 abbd 6a6c 14bd 0bdf 87be
0.17073514 0.024816595 -0.1635847 -0.031367697 0.26343066 -0.118345305 0.11967144 0.29812816
-0.28658393 0.17425157 -1.5880698 -0.95198154 0.048096206 0.11828901 -0.20470688 0.0030054783
-0.060753945 -0.064461194 0.132688 0.023038113 0.12723787 0.06417787 0.21170662 -2.3324354
0.033849828 0.09204102 -0.13906588 -0.092214555 -0.1269311 -0.15602593 0.02539683 0.16129872
-0.053235576 -0.053139653 -0.7116668 0.31750196 0.118162766 0.010195824 -0.23237328 -0.15040979
-0.101892605 0.016069284 -0.10085395 -0.1392121 -0.048737872 -0.017555883 0.4162434 0.027432442
0.13961563 0.14335963 0.014777735 0.10453381 0.02487863 -0.10713137 -0.0430276 -0.043799296
0.01223161 -0.13011762 -0.78604305 -2.017332 0.060638122 -0.063538015 0.0009389673 0.0010597936
0.0014276402 -0.0108134365 -0.26784515 0.1431256 0.13816902 -0.13019077 3.6209526 0.32642788
-0.049499188 -0.12695765 -0.00030830485 0.05813904 0.1528845 0.07055622 0.1641957 -0.07419475
0.16634546 -0.013679967 2.0378597 0.42643386 0.14280319 -0.016658504 -0.12909557 -0.24648935
-0.19652805 0.23876296 -0.032742746 0.2534616 -0.21246153 0.25563213 -0.43943137 0.1252644
0.066644445 -0.09105622 0.056685973 0.11283143 -0.062258866 -0.07152903 -0.025033819 -0.2137966
-0.16364962 -0.05906511 -1.2919891 0.30272597 -0.12392766 -0.110610336 0.10678766 -0.013938463
-0.05156761 -0.051031027 0.14767462 0.0641605 0.35987672 -0.06273192 0.546008 0.55116606
0.14291511 -0.025239812 0.08603079 0.2996131 -0.005296168 0.08525516 -0.24799272 0.04550016
0.109593265 0.12413903 -0.074212536 0.27431628 0.18342128 0.108581334 0.08231247 0.3347242
-0.20561081 0.21291098 0.27097172 0.02119623 0.18972777 -0.041022405 -0.7231194 0.19079664
0.15900956 -0.104852155 -0.047929864 -0.12997982 -0.11104483 0.020613411 -0.022138583 -0.018450547
0.2559781 0.020426583 0.618869 -0.21163559 -0.05068717 -0.023582866 -0.013208374 0.05260519
-0.012484154 0.07146385 0.2634289 -0.015369416 0.22926171 0.32183048 1.0667464 0.27585217
0.14895844 0.03451458 0.0862789 0.04971452 0.28944275 -0.1570741 0.012368592 0.25664908
-0.28080037 0.07055307 -0.3539248 -0.30537695 0.04845368 -0.028386239 0.20258369 0.12812547
-0.15376464 0.16949688 0.3721205 0.026815064 0.21019043 -0.17115097 2.7107153 0.17113097
0.11791572 -0.07131345 0.023427622 -0.038643993 -0.28395233 0.05989561 0.18057713 0.26224604
0.038738724 0.1620457 2.9974236 -0.31256625 -0.010586999 -0.0729086 0.07812013 -0.053835083
-0.13372675 0.16428077 0.13661727 0.14374244 0.00823455 0.23700659 1.2743825 0.06582577
-0.12504585 0.01654595 0.18631627 0.32223168 -0.0759046 -0.20289496 0.011314388 0.34494117
0.16232054 0.22075006 0.5852037 0.4264929 0.039977487 -0.054514717 0.02614722 0.10246267
0.17818236 -0.21506283 0.01972596 -0.04187118 0.3579408 0.12632081 -0.98598623 1.0563198
-0.03911271 0.09625078 -0.28898156 -0.043640796 -0.0016855058 0.008104325 0.2165279 -0.2522135
-0.15745355 -0.081901334 0.67680496 0.6234083 -0.09262987 -0.083618626 -0.036236204 -0.26537356

value.0.bias f4 [32]
00000000: 4e0e 9cbe 000a 8bbe 45b8 a4bd 71bd f7be
00000010: 1d29 f1be e9e4 393e 78f7 cc3e 394c 91bd
00000020: fe47 2f3e d3ce 2d3d 4852 d93d 41e3 80be
00000030: 5a56 3cbe 31c5 ca3d a0e5 623e 45fc 78be
00000040: 1add eebb 8ac9 adbd fa6a bebd a368 41be
00000050: f2ac 86be fb1d 44be 7a48 2fbe 8fb9 943e
00000060: 2a96 07be 540b 753e 9aa9 cdbe 3a12 4bbe
00000070: 9be1 1b3e dd81 143e 52b9 51be 2925 b43c
-0.30479664 -0.27156067 -0.08042959 -0.4838672 -0.4710168 0.18153729 0.40032554 -0.070946164
0.17117307 0.04243357 0.10611397 -0.2517338 -0.18392316 0.099008925 0.22157907 -0.24314983
-0.007289541 -0.08485706 -0.09297748 -0.18887572 -0.26303822 -0.19152062 -0.17117491 0.2904782
-0.13240877 0.23930103 -0.40168458 -0.19831172 0.1522278 0.14502664 -0.2048085 0.021990376

value.2.weight f4 [32, 32]
00000000: d08d 823e 00a5 af3d 7470 b4bc 6e32 eabb
00000010: 2afd 6a3e 07b3 3a3d f245 0cbd a45f cdbd
00000020: 78fc 2ebc 7022 e1bd e81d 9bbe 71b2 1bbd
00000030: 9ae9 203e 62e1 5ebc a20e 433d 6be7 5d3e
00000040: 8ece a1bb f4ce c2bd cc77 893d 7b3b 0fbe
00000050: 1183 b3bc 1788 e03d 33d0 b0bd b438 a93d
00000060: cbb3 b23d 7a06 eebd 1b31 17be 24dd d93d
00000070: 811b a93d 0959 a03e c788 ba3d 0d66 19bd
00000080: 2498 0ebe 4d05 153d e9a9 8fbd 016c 3abc
00000090: e3ed e03d ba67 7f3d ed60 e53d f806 95bd
000000a0: 15f8 a43c c418 4ebd 7d47 bd3c cf8f 2c3e
000000b0: af79 0639 7168 123e 1747 963d a64f b53d
000000c0: 8e08 18bd bfef 14be f8ed d73d 5756 1ebe
000000d0: 949d 86bd 1de8 0f3d edad 2e3d 39ed 17bf
000000e0: b114 72bd a361 973d 113c a1bd 8ced 833a
000000f0: a9be 9a3d ade2 a9bd 08b9 393e 2449 073e
00000100: 87e0 1c3e e858 b4bd 4096 6a3d 1980 31ba
00000110: fb20 033e a39d 24bf 2b57 d0bd 2ce7 9cbb
00000120: 8f3c 3cbe 900f 8b3d 01fa 2cbe 03f3 18bc
00000130: 4a09 083e e3c1 6c3e 72da 26be a129 633e
00000140: e9aa 6abd d733 823d 731a 87bd bacd fc3d
00000150: 2a64 14be 2ca7 54bc bd7d 8ebf 4f50 843c
00000160: 0241 0dbd 652c eabc 897d 8ebc 4e27 9abe
00000170: f47f ed3c b085 e4bd 556a a43d 25be 0e3e
00000180: d68a e13e c13e ab3d e264 a13d 516a b03c
00000190: 7297 693e 90c3 963d 59de 01be 45d2 023e
000001a0: eb95 473c 1029 043e 04d1 b9bd 1964 023d
000001b0: 21d6 ba3d 159d 04be a0de 3cbf 872c 54bd
000001c0: fc32 fc38 13d9 cabd d2de f6bc 517d 2cbf
000001d0: 579c 2abd 4f24 02be 8bfe 94bd 633e adbd
000001e0: c402 a73d 1021 76bd 5c07 87be cb1a e2bd
000001f0: 5789 603d 9304 083d a788 25be 6d4b bfbb
00000200: 5442 f73d 1dd4 25be f1a1 54bd 89b5 95bd
00000210: 14ca a1bd c376 8e3d 0244 ca3d 3dd7 c7bc
00000220: f5b1 213e 86ad 083e c9d8 973d 0859 7b3d
00000230: b5ba 2f3b 91f5 7b3d c6ca 59be c647 1c3e
00000240: beb4 89be 4ec7 583d 1822 34be 028b 7e3d
00000250: ae57 993d 5547 11be f2cd d03d 5496 e0bd
00000260: 5b8e d23d 42a4 8dbd b7e3 02bd 3283 643e
00000270: 7a1c b9bc 06db 0a3e cf6b aabc 9b0e 99bd
00000280: 301a 15bf cf5f 833d d1ec 48bf 4820 863d
00000290: 1f14 22bf 26f1 3dbd 0195 0c3d efff 2e3c
000002a0: 6081 5fbe e722 1c3e 3173 59be edf2 5e3e
000002b0: d222 3abd 0f46 c53b effa ef3d 95e7 70be
000002c0: 842e cdbd 8f35 f13d 6a0f 44bf 8831 503d
000002d0: a840 a2bd 2579 70be 454f 293d 8793 7ebe
000002e0: 647a 20bf 7dce 74be 3e0f ea3d 2034 fa3d
000002f0: 035a 17bf c223 3abe 25d8 fd3d 1bf5 bc3d
00000300: 9841 a5ba 27bc 243d 7c7b d5bd 748d 02be
00000310: e558 8fbc a732 ee3d a9db 243e d72a 7bbd
00000320: c0bf 943d 37e5 aa3d faae ae3d 2e57 5c3c
00000330: 70e9 a13d bf0b 153e dfa1 ce3d b7fd 89bd
00000340: 4791 6ebd e424 6cbd 575a 1abd cde5 9dbc
00000350: 89ee 83bc d0d9 7bbc ac32 2d3e b03b 02bc
00000360: b93b d83d 766d a83d 8dc6 ecbc dc71 0abe
00000370: b462 28bb d149 3dbb fa8c c03d 1e99 c4bd
00000380: e870 8abd 7405 8dbd 8cc5 113e 8837 f33d
00000390: 1235 abbe faaa 3dbd 6bdc 66bb 95b8 93bd
000003a0: 2867 73be ab86 d73c 6a44 b43d a76e edbd
000003b0: 5061 803d b152 db3d 078e 6e3d 9fae 933b
000003c0: 73bd a23c 36c0 15be 955c e1bd b4ca 13be
000003d0: 5a62 46bb cdfd 1cbd 5ddd b5bd e4a5 d6bd
000003e0: 2b32 213d e5d4 05be 4c44 e63d acff 533d
000003f0: 5aa2 1f3d 7b31 843e 056a 1f3d 20da 493e
0.2549882 0.08576393 -0.022026278 -0.007147125 0.22948137 0.04558089 -0.034246393 -0.100280076
-0.01068031 -0.109928966 -0.30296254 -0.03801197 0.15714112 -0.01360354 0.047621377 0.2167031
-0.0049379533 -0.095121294 0.067123026 -0.13987534 -0.021913083 0.10963457 -0.08633461 0.082627684
0.08725699 -0.11622329 -0.14764826 0.10637882 0.08257199 0.31317928 0.091081195 -0.03745084
-0.13925225 0.03638201 -0.0701483 -0.011378289 0.10982873 0.06235478 0.11200128 -0.0727672
0.020137826 -0.050316587 0.023105377 0.16851734 0.00012824567 0.14297654 0.07337778 0.08853082
-0.037117533 -0.14544581 0.10543436 -0.15462624 -0.065730244 0.03513347 0.042646337 -0.5934635
-0.059101764 0.073916696 -0.07872785 0.0010065301 0.07555897 -0.08295188 0.1813699 0.13211495
0.15320025 -0.0880602 0.057272196 -0.0006771102 0.1280555 -0.64303035 -0.10172876 -0.0047883
-0.18382476 0.06790078 -0.16892244 -0.009335282 0.13284793 0.23120837 -0.16294268 0.22183849
-0.0572919 0.06357544 -0.06596842 0.12343927 -0.14491335 -0.01297931 -1.1132122 0.016151575
-0.034485824 -0.028585622 -0.017393844 -0.30108112 0.028991677 -0.11158311 0.08028094 0.13939722
0.44051236 0.08361579 0.0788057 0.02153507 0.22811678 0.07361519 -0.12682475 0.12775524
0.012181739 0.12906289 -0.0907307 0.03183374 0.09122873 -0.12950547 -0.737772 -0.051800277
0.00012025793 -0.09904685 -0.030135546 -0.6737872 -0.041653004 -0.12709163 -0.07275113 -0.08459165
0.081548244 -0.060090125 -0.26372802 -0.110402666 0.054818477 0.033207487 -0.1616541 -0.005837849
0.12073198 -0.16194196 -0.05191225 -0.07310016 -0.078998715 0.06956246 0.09876253 -0.024394626
0.15790541 0.13347444 0.07414395 0.061364204 0.0026814167 0.061513487 -0.21268758 0.15261754
-0.26895708 0.052924447 -0.1759113 0.062144287 0.07487427 -0.14187367 0.10195531 -0.10966173
0.102810584 -0.06916095 -0.031955447 0.22315672 -0.022596586 0.13560113 -0.02080336 -0.07473489
-0.58243084 0.064147584 -0.78486353 0.06549126 -0.6331195 -0.046372555 0.03432179 0.0106811365
-0.21826696 0.15247689 -0.21235348 0.21772356 -0.045443363 0.0060203145 0.11717784 -0.23525842
-0.10018638 0.117777936 -0.7658602 0.050828487 -0.079224885 -0.23483713 0.041335363 -0.24860965
-0.62686753 -0.23906894 0.114286885 0.12216973 -0.5912172 -0.18177703 0.12394742 0.09226438
-0.001260805 0.0402185 -0.104239434 -0.12749273 -0.017498443 0.11630755 0.16099419 -0.061320152
0.07263136 0.083445005 0.08529468 0.01344852 0.07905853 0.14555262 0.10089468 -0.067378454
-0.058244016 -0.05765237 -0.03768381 -0.019274617 -0.016104953 -0.015371755 0.16913861 -0.007948801
0.10558266 0.08224003 -0.02890327 -0.13519996 -0.0025693597 -0.002888311 0.09401889 -0.09599517
-0.067598164 -0.06885806 0.14235514 0.11875826 -0.33438927 -0.046305634 -0.0035226594 -0.072129406
-0.2376982 0.026309332 0.088021114 -0.11593371 0.06268561 0.107091315 0.058240917 0.0045069004
0.019865727 -0.14624104 -0.11003987 -0.14432794 -0.0030271024 -0.03832798 -0.08880112 -0.1048086
0.039354485 -0.13069494 0.11243495 0.0517575 0.03897319 0.25819 0.038919467 0.19712114

value.2.bias f4 [32]
00000000: 0967 c4bd 7eb0 37bd 7ebd ef3b bf12 16be
00000010: 4a6f a53d 9827 40be 9581 e93d 6d15 a53e
00000020: 7a84 aabe 1cfe 40be edf4 c73d faae 543e
00000030: 47b3 61be 681f 63be ce40 5c3e 094c 03be
00000040: d113 e6bd dbf8 77be fbb6 49be 396d 07be
00000050: cd59 acbd 4f91 733e 3b2a 3e3e 70c0 3fbe
00000060: 5c04 abbd 6e65 533e abe4 353e 4aae 31be
00000070: 14ee 24be 7e32 633d 3b45 2b3d 4680 b0bd
-0.09589965 -0.04484605 0.0073162904 -0.14655589 0.08077867 -0.18765104 0.11401669 0.3224291
-0.33304197 -0.18846935 0.09763513 0.20769873 -0.22041045 -0.2217995 0.21509096 -0.12821974
-0.112342484 -0.24216025 -0.19698708 -0.13225259 -0.08415566 0.237859 0.18570797 -0.18725753
-0.08350441 0.20644161 0.17763011 -0.17351642 -0.16106445 0.055468075 0.04181407 -0.08618216

value.4.weight f4 [1, 32]
00000000: d44b 9dbc b125 683d c75c 243e cb04 883d
00000010: fb8a 523d 2aaa 9cbe 12ff 21bd c519 4c3d
00000020: c2cb 39bd e4d1 edbc 77b7 8ebe 72b2 593d
00000030: d528 1dbd 8c4e 4cbe acf5 3fbd 465b 7abe
00000040: 86fc 9f3d b6f9 a83d a01f 12be 9e2b b2bc
00000050: 7fa2 25bd f98f 2dbd be48 3fbd fd3c 6b3c
00000060: 7d78 32bd 19d8 be3c 4e27 493d 7524 82bc
00000070: d5a2 113c 5547 513d a379 f4bc 54a1 aebc
-0.019201197 0.05667657 0.16051017 0.06641539 0.051402073 -0.30598575 -0.039549895 0.049829263
-0.045360334 -0.029030748 -0.27874348 0.053148694 -0.03836902 -0.19951838 -0.04686515 -0.2444888
0.07811837 0.082507536 -0.14269876 -0.021749314 -0.04043817 -0.04237363 -0.04670023 0.014357802
-0.043571938 0.023296403 0.04910975 -0.015886525 0.00888892 0.05109342 -0.029843157 -0.021317162

value.0.weight f4 [32, 12]
00000000: 6b93 313e 6e2d d53c 8232 28be 8287 04bd
00000010: ef43 873e 7bd7 f6bd 2a3b f13d 7fad 973e
00000020: 6daf 93be 7186 303e ca95 cbbf 9c91 71bf
00000030: 66a9 3f3d b98c f13d 26ef 51be def4 5c3b
00000040: c8cd 75bd 3c46 87bd 490d 073e c929 b63c
00000050: b6f8 003e d2cb 803d ca62 563e 2b00 15c0
00000060: da77 0e3d b53c bd3d dfc9 10be a625 bfbd
00000070: 9146 01be 1837 1ebe 225d df3c 8715 273e
00000080: 4e0e 5fbd b9a9 5ebd 862b 36bf 01ba a03e
00000090: 9273 f13d 73e0 1f3c 2c64 6fbe 6787 19be
000000a0: bf5e cebd 6a7d 803c 0ccd d1bd db2d 10be
000000b0: c1d6 45bd 1a3c 8cbc 198e d43e e116 c43c
000000c0: 960d 103e a5fa 133e 6980 853c aab2 d63d
000000d0: f5ec cb3c a660 dbbd c1fc 35bd f025 39bd
000000e0: df09 323c 5da3 06be a33f 49bf d37d 00c0
000000f0: 56fb 773d 7659 86bd 81d9 0d3a 128b c73a
00000100: 9c94 493a 5974 16bc 1782 89be 57d1 113e
00000110: ca01 0e3e 1fcb 04be 7b54 6740 1ec0 a53e
00000120: 21c9 4dbd 94a1 02be 74e9 ccb7 35d1 6f3d
00000130: fe22 1b3e 78eb 8e3d ace3 263e e371 9abd
00000140: bfce 2b3e 4b9d 48bc 7b4f 0240 cab6 db3e
00000150: 8794 113e c7a6 a0bc 5472 03be b696 7bbe
00000160: 1fd9 49be 3d84 743e ef25 01bd a564 823e
00000170: 5226 57be d816 843e 9b7b dfbe cbc8 033e
00000180: 439c 863d cd7e bcbd b92a 5f3d 1bd5 e43d
00000190: 2275 77bd 5170 8fbd c8c1 bebc 4323 59be
000001a0: 364c 29be 05d0 78bd d322 a5bf 0a0f 993e
000001b0: 4c07 fdbd 7cd1 e1bd bf1d de3d 8e81 4abc
000001c0: c740 5dbd f166 52bd 9583 173e c4fd 833d
000001d0: bf22 b83e baf5 80bd 63b9 0b3f 87c8 0d3f
000001e0: 6b1a 133e 86e7 c5bc 7729 ab3d ebe3 993e
000001f0: a553 b8bb 0d58 ad3d 259d 7dbe e8b0 3b3d
00000200: dab5 e03d 0680 fe3d 1dfb 98bd d5e6 8b3e
00000210: 4404 3e3e 27f3 d63d 1099 a53d 6e3c aa3e
00000220: 4259 52be fd50 583e 65e5 8b3e fc2c c03c
00000230: 3870 413e 5e66 2bbd 3221 39bf 0941 403e
00000240: 1afe 213e 3e07 d5bd dcce 45bd dd69 04be
00000250: d1d3 e7bd 07a2 a93c d82c babc 79f6 9bbc
00000260: b9fb 823e 1818 a63c cf12 1e3f ac01 57be
00000270: 9217 4cbd 13a8 b7bc 6cb1 49bc b7c0 573d
00000280: e297 4abc 3190 913d eeb7 863e b66b 80bc
00000290: 7bee 6a3e 6adc a43e 385d 883f 4d27 8e3e
000002a0: 5f96 183e 49c1 083d 58e2 b63d 4a0a 4c3d
000002b0: 3dae 913e 1f2a 22be 0b2a 3e3c a703 833e
000002c0: f174 90be b7be 8d3d 7c73 b4be 8ce3 99be
000002d0: b36e 533d eed9 f5bc 92ea 4f3e 5155 033e
000002e0: 774a 1dbe 6648 2d3e ad65 be3e 049d d93c
000002f0: a6eb 563e b692 2fbe 966c 2d40 07cc 303e
00000300: f3e0 f13d dad7 92bd d6c1 e33c 4d45 27bd
00000310: 2954 91be cea9 743d 4996 383e a61b 863e
00000320: 430a 203d c046 263e 0fbb 3f40 dcc1 9ebe
00000330: a451 2cbc 36f7 95bd 6735 a53d 348f 6abd
00000340: 5988 08be 5dc5 283e 0d97 0c3e dfe2 133e
00000350: 828e f73b abff 713e d2a4 a23f a666 883d
00000360: 8f7c 00be 6b25 773c 03ef 3d3e c367 a53e
00000370: 896d 99bd 88df 4ebe 2636 243c d7f2 af3e
00000380: d673 273e c948 633e 5412 163f 99a4 d83e
00000390: d646 1c3d a659 61bd 4bf3 d53c a63d d33d
000003a0: 0936 353e 2309 5cbe a6f0 a63c f7d4 28bd
000003b0: 96ed b63e 65ad 003e b84a 7cbf b2a6 863f
000003c0: 48e6 1cbd a107 c63d ec73 94be 9d46 39bd
000003d0: 4dfe 75ba 1540 213c 3497 5c3e 44b3 81be
000003e0: c230 22be 61a6 a9bd ddc7 2d3f 0c61 1f3f
000003f0: d079 c1bd 5c09 afbd 938f 17bd 1293 88be
0.17341392 0.02602264 -0.16425517 -0.032355793 0.26419017 -0.120528184 0.11778863 0.29624555
-0.28844777 0.17238785 -1.5905087 -0.9436281 0.04679241 0.11794419 -0.20501384 0.0033715288
-0.0600107 -0.06605193 0.13188662 0.022236722 0.12594876 0.06288876 0.20936123 -2.3281353
0.034782268 0.092400946 -0.14139508 -0.09333353 -0.12624575 -0.15450704 0.027266089 0.16316806
-0.054457 -0.05436108 -0.7116016 0.3139191 0.117896214 0.009758103 -0.23378056 -0.14993058
-0.10076665 0.015684802 -0.10244188 -0.14079992 -0.04830051 -0.017118502 0.41514662 0.02393669
0.14067683 0.14451082 0.016296582 0.10483296 0.024893263 -0.107117936 -0.044430498 -0.045202196
0.010866611 -0.13148256 -0.78612727 -2.0076797 0.060542427 -0.06560032 0.0005411134 0.0015223941
0.0007689686 -0.009183013 -0.26857063 0.14240013 0.1386787 -0.1296811 3.6145313 0.32373136
-0.05024064 -0.1275695 -2.4427405e-05 0.058549125 0.15150067 0.06978506 0.16297787 -0.075412534
0.16778086 -0.012244533 2.036101 0.42912894 0.14216815 -0.019610776 -0.12836581 -0.2456921
-0.19711731 0.2387857 -0.031530317 0.2546741 -0.21010712 0.25798678 -0.4364899 0.12869565
0.06572773 -0.09203873 0.054484103 0.11173459 -0.06041444 -0.070038445 -0.023285761 -0.21204858
-0.16532978 -0.060745258 -1.2901253 0.29894286 -0.123549074 -0.11026284 0.10845517 -0.01235999
-0.054016855 -0.051367704 0.14796288 0.06444886 0.3596401 -0.062968686 0.5457975 0.55384105
0.14365546 -0.02415825 0.08357518 0.300567 -0.0056252056 0.0846406 -0.24766977 0.045823008
0.109721854 0.12426762 -0.07469771 0.27324548 0.18556315 0.104955964 0.08085835 0.3324923
-0.20541862 0.21124645 0.27323452 0.02345895 0.18890464 -0.04184567 -0.7231628 0.18774809
0.15819588 -0.10401772 -0.04829298 -0.12931009 -0.11319698 0.020707143 -0.022726461 -0.019038426
0.25582674 0.02027516 0.6174745 -0.20996732 -0.049827166 -0.022419011 -0.012310367 0.05267402
-0.012365313 0.071075805 0.26312202 -0.01567636 0.22942536 0.32199413 1.0653448 0.2776436
0.14901112 0.033387456 0.089298904 0.0498145 0.28453246 -0.1583638 0.0116067035 0.25588724
-0.2821422 0.069211416 -0.35244358 -0.30056417 0.051619243 -0.030011144 0.20304325 0.12825514
-0.15360437 0.16922149 0.37186947 0.026564129 0.2098833 -0.1714581 2.7097526 0.1726533
0.11810484 -0.07170077 0.02780239 -0.040837575 -0.28384522 0.05973225 0.18026079 0.2619297
0.039072286 0.16237926 2.9957922 -0.31007278 -0.0105175115 -0.07322542 0.08066826 -0.057265475
-0.13333263 0.16481538 0.13729496 0.14442013 0.00755483 0.23632686 1.2706549 0.06660204
-0.12547515 0.015084605 0.18548207 0.32305726 -0.07491595 -0.20202458 0.010022676 0.3436496
0.16352782 0.22195734 0.58621716 0.42313078 0.038153492 -0.055017136 0.026116988 0.10314493
0.17696394 -0.2148786 0.020378422 -0.041218724 0.3572814 0.12566145 -0.9855151 1.0519621
-0.03830555 0.09669424 -0.2899469 -0.045233358 -0.0009383902 0.0098419385 0.21542054 -0.2533208
-0.15838912 -0.082836874 0.6788309 0.62257457 -0.09447062 -0.08546707 -0.037002157 -0.26674706

value.0.bias f4 [32]
00000000: fa94 9bbe 0a78 8abe 6184 a7bd 9eae f6be
00000010: 076b f1be 3672 393e 9fb3 cd3e 4e21 92bd
00000020: 98fe 2d3e a3d6 2c3d cebc da3d 28f6 81be
00000030: c46f 3bbe f91a cb3d 5856 623e 7fba 78be
00000040: 8577 e4bb dd2d afbd 9871 bcbd 7b15 42be
00000050: ab59 86be ec6e 43be 2ffa 2fbe 8f00 953e
00000060: 3adb 05be 40dd 763e 728a cebe ad07 4abe
00000070: f506 1b3e 6edd 143e 9b23 51be f2ff b43c
-0.30387098 -0.27044708 -0.08179546 -0.48180097 -0.47151968 0.18109974 0.40176103 -0.071352586
0.16991651 0.04219688 0.10680543 -0.25383115 -0.18304354 0.09917254 0.2210325 -0.24289893
-0.0069722557 -0.085536696 -0.09201354 -0.18953507 -0.26240286 -0.19085282 -0.17185281 0.2910199
-0.1307191 0.24107838 -0.4034 -0.1972949 0.15139373 0.14537594 -0.20423739 0.0220947

value.2.weight f4 [32, 32]
00000000: 8c6e 823e 5e75 af3d 0808 b5bc c91c 00bc
00000010: 7e56 6b3e 5542 353d f046 02bd e6e9 cfbd
00000020: 1669 2fbc a963 debd 2426 9bbe ee99 11bd
00000030: 3f2c 213e dbee 34bc c771 483d 0af8 5f3e
00000040: 46d3 37bb 1efe bcbd 7c01 893d 0750 0cbe
00000050: 06f4 b8bc d951 e23d 165e adbd 1ca0 a93d
00000060: e0a7 b53d c681 eebd 8ad7 18be 4f14 d73d
00000070: 0b10 aa3d 33ac a03e b51b bd3d d772 19bd
00000080: edd8 0fbe dee0 113d 88c9 93bd f5a4 5dbc
00000090: 3bd9 e03d 8e80 803d 69f1 e53d 8a74 99bd
000000a0: ad4f a73c 19fd 47bd 59d3 b93c e5a1 2b3e
000000b0: ee3e b3b9 35a4 133e 04e1 963d e6f3 b53d
000000c0: 71fc 14bd 97d3 15be 8d5f d83d b307 1ebe
000000d0: 1168 87bd cdfd 123d 6958 2e3d ab6a 18bf
000000e0: ee16 70bd 2985 973d d87b 9cbd 8083 b83a
000000f0: 2c76 983d 8a8f aabd 4edf 393e 2f23 073e
00000100: 02ca 1f3e b805 b0bd 260a 783d 758c 6cba
00000110: a307 063e 6074 25bf 5e6f d1bd 4a1f 86bb
00000120: db62 3ebe 1551 893d 296d 2bbe 98d7 07bc
00000130: fe0f 083e 17c7 6c3e ee2f 24be e04d 613e
00000140: e914 69bd 6ee8 843d 32d1 88bd 1313 fc3d
00000150: 3b4d 14be 363f 70bc 07f8 8dbf 1048 9c3c
00000160: 1fec 08bd 20e9 e4bc 5a9f 95bc 9ce6 98be
00000170: 502a ec3c 4661 e4bd b1ec a53d a246 0f3e
00000180: e650 e13e 94d7 ab3d 1acc a03d d42d b73c
00000190: a64f 6b3e f31b 973d c8da 00be 2609 053e
000001a0: ab5d 5d3c d568 043e e03d babd 6a06 013d
000001b0: 26a8 bc3d 973b 04be 846e 3bbf 9a9d 52bd
000001c0: 4bdb 86b8 1557 c8bd f864 00bd eac7 2dbf
000001d0: 92b4 27bd c5dc 01be 622b 93bd fc0e acbd
000001e0: 3b00 a73d 89f7 73bd 7ad2 86be 12f0 debd
000001f0: d005 6a3d 6c03 153d 1a95 26be a57b 89bb
00000200: 0f68 f83d fe8b 24be 5e30 52bd 0d51 96bd
00000210: 1439 9fbd 69cf 903d ea60 ca3d e38d cebc
00000220: 53d3 213e cc19 093e 5c60 993d 3b20 7e3d
00000230: 1245 223b a06e 7d3d 4f65 5abe 3e6f 1c3e
00000240: 7b70 89be 8a26 553d c5e9 32be db69 7f3d
00000250: 1b5c 993d 6aa9 11be 822f d13d 72cc e0bd
00000260: 5902 d23d f666 8dbd 610e ffbc 61a8 643e
00000270: d4f7 bcbc 4684 0a3e 6411 a6bc 73ce 98bd
00000280: c0c8 14bf 08f6 843d c1c2 48bf 274e 853d
00000290: 8314 22bf eb94 51bd f630 013d 2a72 1e3c
000002a0: dcb9 5ebe d2e5 1a3e daa8 5abe 51f3 5e3e
000002b0: 2417 42bd a1d6 8a3b c307 f03d 31e7 70be
000002c0: 202e cdbd 2760 ed3d 6528 44bf 8db2 4b3d
000002d0: 900c a3bd cf8f 72be 6114 203d c8bf 7fbe
000002e0: d7cc 20bf 50ec 75be 31ca e43d 3c81 fa3d
000002f0: f434 17bf 5359 3abe 49fa fc3d 088b b63d
00000300: d23f 473a da95 233d 8446 d5bd 95f3 ffbd
00000310: 1f6d 8bbc 164f ee3d 0fa8 243e fcdb 7ebd
00000320: 8ddf 963d 2e2b ab3d 9025 b03d 19a1 6c3c
00000330: b39d a43d b353 143e a94d d23d a1ff 89bd
00000340: 1ca2 6bbd 618f 69bd 3d3b 19bd 760d 9bbc
00000350: 750b 8abc 2854 70bc ad70 2d3e 9fd6 06bc
00000360: 5c02 d93d 3498 a83d 9605 01bd 5cb0 0abe
00000370: 07dd 62bb 6ad1 4fbb 8938 c03d 4bd1 c3bd
00000380: db2e 87bd a0c6 8abd 210e 133e 837e f43d
00000390: 88b0 abbe 42a5 32bd 431b 79bb fb3a 94bd
000003a0: bf37 71be b50e dd3c 6bb9 b83d fb63 ebbd
000003b0: 863d 823d 4076 db3d 5758 773d 125a d13b
000003c0: a2ef b43c 768e 16be 900d dbbd f617 11be
000003d0: 249e 25bb fb70 1cbd 2e9f b6bd 26e3 d2bd
000003e0: ee64 233d b642 04be 3f9f e73d 0b88 573d
000003f0: c542 1b3d 4afb 833e 8243 2b3d 7fc1 4a3e
0.25474966 0.08567308 -0.022098556 -0.007819363 0.22982213 0.044252712 -0.031805933 -0.101520345
-0.010706207 -0.108588524 -0.30302536 -0.03554719 0.15739535 -0.011043276 0.04893663 0.21871963
-0.0028049513 -0.092281565 0.06689736 -0.13702403 -0.022577297 0.110507675 -0.08465211 0.082824916
0.0886991 -0.11645846 -0.14925972 0.105019204 0.08303841 0.31381378 0.092338 -0.037463035
-0.14047594 0.03561484 -0.072161734 -0.013528098 0.109789334 0.0627452 0.11227686 -0.07492931
0.020423735 -0.048825357 0.022683786 0.16760977 -0.00034188427 0.14418109 0.07367137 0.088844106
-0.03637356 -0.14631496 0.105651 -0.15432625 -0.06611646 0.035886575 0.042564783 -0.5953776
-0.058615617 0.07398445 -0.07640809 0.0014077276 0.074444145 -0.08328159 0.1815159 0.13197015
0.15604404 -0.08594841 0.060556553 -0.0009023615 0.1308885 -0.646307 -0.1022632 -0.0040930854
-0.18592398 0.06704918 -0.1674086 -0.008291148 0.1328735 0.23122822 -0.16033909 0.22002363
-0.056904707 0.06489645 -0.06680526 0.123083256 -0.14482586 -0.014663508 -1.1091317 0.01907733
-0.033428308 -0.027943194 -0.018264461 -0.2986344 0.02882877 -0.11151366 0.08101786 0.13991788
0.44007033 0.08390728 0.07851429 0.02236072 0.22979602 0.07378378 -0.12583458 0.12991771
0.013511102 0.12930615 -0.09093833 0.031500258 0.09211759 -0.12913357 -0.7321551 -0.05141983
-6.4304644e-05 -0.097822346 -0.03134629 -0.6788317 -0.04094369 -0.12681873 -0.07186009 -0.084012955
0.08154341 -0.05956224 -0.26332456 -0.108856335 0.05713445 0.036380216 -0.16267815 -0.004195648
0.121292226 -0.16069028 -0.051315658 -0.07339678 -0.07774559 0.0707081 0.09881766 -0.025214141
0.1580327 0.13388747 0.07489082 0.062042456 0.0024760407 0.06187308 -0.21327709 0.1527681
-0.26843628 0.052038707 -0.17471988 0.06235681 0.07488271 -0.14224783 0.102141395 -0.10976495
0.10254354 -0.06904404 -0.031134786 0.22329856 -0.023067392 0.13527021 -0.020271964 -0.07461252
-0.5811882 0.06492239 -0.7842217 0.06509047 -0.6331255 -0.05116741 0.031540833 0.0096707735
-0.21750587 0.15126732 -0.21353474 0.21772505 -0.04738535 0.0042370115 0.117202304 -0.23525693
-0.10018563 0.11590605 -0.7662414 0.049730826 -0.079613805 -0.23687671 0.039081935 -0.24975502
-0.6281256 -0.24015927 0.111713775 0.12231681 -0.59065175 -0.18198137 0.123524256 0.08913237
0.00076007575 0.03993783 -0.104138404 -0.124976315 -0.017019806 0.11636178 0.16079734 -0.062221512
0.07366858 0.08357845 0.086009145 0.014442706 0.08037891 0.14485054 0.10268719 -0.067382105
-0.057527646 -0.057021502 -0.03741001 -0.018927317 -0.016851166 -0.014668502 0.16937514 -0.008229881
0.10596153 0.082321554 -0.031499468 -0.13543838 -0.0034616606 -0.0031710514 0.09385783 -0.09561404
-0.06600734 -0.06776166 0.14360859 0.11938193 -0.3353312 -0.043614633 -0.0038010634 -0.07237812
-0.23556422 0.026984552 0.09019741 -0.11493679 0.06359391 0.10715914 0.06038698 0.006388911
0.022086922 -0.14702782 -0.10695946 -0.14169297 -0.002527126 -0.038193684 -0.0891708 -0.102972314
0.039891176 -0.12916073 0.11309671 0.052619975 0.037905473 0.25777656 0.041812427 0.19800375

value.2.bias f4 [32]
00000000: 0c39 c0bd 841d 33bd f778 f03b d27d 15be
00000010: e661 a63d 2269 41be c641 e83d d474 a53e
00000020: 7278 aabe f03c 41be 8fe5 c43d 1e41 553e
00000030: 818c 60be c2cc 63be 4890 5c3e 0c5d 03be
00000040: ee26 e5bd 967b 77be 3c9a 49be 316d 06be
00000050: a029 aabd 7797 723e 5eec 3c3e 1807 3fbe
00000060: 3faa aabd 90f0 533e 01ce 353e 5496 31be
00000070: a99d 24be c135 623d 46b5 2f3d 84f6 afbd
-0.09385881 -0.04372932 0.007338639 -0.14598778 0.081241414 -0.18887761 0.1134067 0.32315695
-0.33295017 -0.18870902 0.09614097 0.20825621 -0.21928598 -0.22246078 0.21539414 -0.12828463
-0.11189066 -0.24168238 -0.19687742 -0.1312759 -0.083087206 0.23690592 0.18449542 -0.1865505
-0.08333253 0.20697236 0.17754366 -0.17342502 -0.16075768 0.055227045 0.042897485 -0.08591941

value.4.weight f4 [1, 32]
00000000: ce19 a5bc 3a41 6a3d 911f 243e a66c 913d
00000010: 9051 523d dc52 9cbe d493 22bd f1e4 4c3d
00000020: b711 3abd e64e e9bc 5ae6 8dbe 9656 573d
00000030: 6152 1cbd 8acd 48be 8d58 49bd 5feb 7bbe
00000040: 2278 9f3d 489a a93d 25ab 10be 4e0e b9bc
00000050: 286c 22bd 8874 2cbd d98c 44bd 4ccc 6d3c
00000060: 6eb9 33bd 9a9d bf3c 43bc 473d f654 82bc
00000070: bcf4 123c a529 523d 3dbb fbbc b87d b4bc
-0.020153906 0.05719111 0.16027667 0.07100801 0.051347315 -0.30531967 -0.03969176 0.050023023
-0.04542705 -0.028480005 -0.27714807 0.05257281 -0.0381645 -0.19609657 -0.049156714 -0.24601506
0.077865854 0.0828138 -0.14127786 -0.022589829 -0.039653927 -0.04210332 -0.047985885 0.01451404
-0.04387801 0.02339058 0.048763525 -0.015909653 0.008969482 0.051309247 -0.03072893 -0.022032604

actor.0.weight f4 [32, 10]
00000000: a181 8c3d ad6d eabd 8332 7b3e b049 493e
00000010: 1aa4 6ebe 37de 9ebe f809 e13c fd99 01bf
00000020: d44e 7a3d 8d8a 3e3e 9014 08be c5ea c5bc
00000030: 4fa0 b03d 5e77 04bd 178e d6bd 8081 00bf
00000040: 86a1 1e3e 0bad e139 6037 a9be e6be b1be
00000050: 40bf 3cbd 828b 1bbe 32d4 023f 6623 773e
00000060: a923 a23e 0e80 ba3b 257f 80be 3ce1 e83c
00000070: a24d d9bd bf00 9bbe 53b6 ee3c 3337 76be
00000080: 46c4 d93c 166f 1a3c a155 c5bd 64c6 573e
00000090: b73b 283d 3aa6 dbbe 10f2 753e 2bba 6f3e
000000a0: d042 c03d 2545 5c3d 3e8e 3a3e 5de7 8e3e
000000b0: b56f c73e 3b51 8ebe de06 c13d 47d7 6abe
000000c0: 801c 123e 93a9 223e 6c19 013e db6e ed3b
000000d0: e84c c93d b284 d53d d363 c3be cafc 8cbd
000000e0: 93ab 743e 3863 183e 1024 4fbd ba0b bc3c
000000f0: 1e6d 223e 1357 dfbd 2b4d b03d 1e7b 623e
00000100: 3ead 8d3e 8dbe e4be bb4c 16bd ff0e 8c3e
00000110: 2c92 063e c23a 94bd 58cb f83c 576e 873d
00000120: 4f7f 083e 2b80 bcbd bba0 37be 1780 063f
00000130: 9129 c2be 9f1e dbbd d423 5f3e 8686 f9bd
00000140: 2033 a9be 625c b03e 1b9c 393e b474 1d3e
00000150: 6870 0c3e d772 5cbe 4032 6bbe c6fc 3a3e
00000160: b4ac 50be fad2 313e ccbb 6e3d 5b55 03be
00000170: dd58 4f3e 673f 813c d80c 523e 1dfd 66be
00000180: 6414 d0bd 09c9 aabd 1142 e7be b151 71bd
00000190: 8eea 41bd 8063 6a3e 5607 993e 916b 7abd
000001a0: 64cb 853d 60f8 913c ae8f 663e 24c3 b33e
000001b0: 03ec 823d 6a2d d73d e3a1 9abe cd0e 0ebe
000001c0: 62dd 253e 4929 ecbe 4fd5 7fbc 8838 e33e
000001d0: b33f c23e f496 e63d 6c38 b83d 878c 80be
000001e0: f555 2dbe f34c b93d 62fb 773b eff5 54bd
000001f0: d3fa 383e 0983 dfbd a68a db3d 45cc a73e
00000200: 360a d83e 46c7 a13d c1b7 8fbe 565b 8c3e
00000210: 7903 c13e 0235 95be b472 08bd b17c 57be
00000220: 8eb2 7fbc 156f f0bd 0e7c 96be 5d78 57be
00000230: 678c e0bc d5e0 86bd b1ad cabe 3bed 8ebe
00000240: 6662 d43d d6df b73e 2f81 073e 07cd dd3c
00000250: 31de 85bd 2bde 6ebe 3910 16be 6522 19be
00000260: c81b 053f 7cbb 8fbe ba80 11bf b00b fe3d
00000270: 00d5 ad3b 45a6 3dbd bf37 e6bc 5bcd 96bb
00000280: 814c 013c d1b0 84be 6dd0 8c3d fc1b cf3e
00000290: ab76 0abd 2876 8c3e a19f 06bc 3880 81be
000002a0: 83a5 903e b626 8b3e ed9d 42be a492 1b3e
000002b0: 66b5 e1bd 1440 06bd 03c0 3f3e abbb b63e
000002c0: d5bc e23d ee97 62be e1e4 67be 8c99 83be
000002d0: 4f62 27be 0b03 cc3d aa1e 1abc b414 263e
000002e0: ed30 82be 2b41 bebe 2d35 673e f0a8 ccbd
000002f0: 43e2 fabd 7621 a4be 3138 26bd 2cae 3f3e
00000300: 795b e23e 10a2 063f 3ece 0f3e 8569 c43d
00000310: 6885 1f3e 0ee4 d83d 0d0f 09be c24a b1bc
00000320: 5551 08be 4135 9ebd b3a6 a33e 7864 f8be
00000330: e4e6 2e3e 5764 ca3d d227 9c3e a1bc 973d
00000340: 2e0a 82be f2db 94bd e6d6 2ebd 110a 343d
00000350: 8f76 943e d9cb b73e af79 983e 13e8 543e
00000360: 35d0 443d ea14 9e3e 57dd 8a3c 7b2c 5a3d
00000370: 7301 283e e5f8 713d 8641 8bbd 62c3 183e
00000380: 6226 b73e c808 aebe 1ec8 b13d 9156 7c3d
00000390: 04ba 8b3e 93a1 c2bd b627 96be 36a3 11bd
000003a0: bbe3 403e 4ccc 9d3e c99b 59be 43a7 bb3d
000003b0: ed6b 69be a7b9 78be 03e6 cebc 2578 203e
000003c0: 0bcc bdbd 87ac 01be 2834 e7bc fe2c 6a3d
000003d0: 8787 f6bd b630 abbe 2826 73bc 1703 53be
000003e0: 4f43 8c3e 1226 833e ce9b cfbd faa2 bd3d
000003f0: bccf d6bc 031f bfbe 242e f03e c490 d93c
0.06860662 -0.114467 0.24530987 0.19657016 -0.23304787 -0.3102891 0.027470574 -0.5062559
0.061110333 0.1860754 -0.13289094 -0.024159798 0.086243264 -0.0323404 -0.1047632 -0.501976
0.15491304 0.0004304427 -0.3305006 -0.34715956 -0.046080828 -0.15189937 0.51105034 0.24134597
0.31667832 0.005691535 -0.25097004 0.028427713 -0.106105104 -0.30274007 0.029139673 -0.24044494
0.026582848 0.009425899 -0.09635473 0.21071774 0.041072574 -0.42900258 0.24018121 0.23410861
0.093877435 0.05377688 0.18218324 0.2791089 0.38952413 -0.2779635 0.09425138 -0.22933684
0.14268684 0.15885 0.12607354 0.007245881 0.09829122 0.104257 -0.38162097 -0.06884153
0.23893575 0.14881599 -0.0505715 0.02295481 0.15861937 -0.1090528 0.086084686 0.22117278
0.27671236 -0.4467663 -0.03669427 0.2735519 0.13141698 -0.0723777 0.0303704 0.066128425
0.13329814 -0.092041336 -0.17932408 0.525392 -0.37922338 -0.106992 0.21791011 -0.121838614
-0.33046818 0.34445482 0.18125956 0.1537655 0.13714755 -0.21528183 -0.22968388 0.18260488
-0.20378381 0.17365637 0.058284566 -0.1282553 0.20248742 0.015777303 0.20512712 -0.22557493
-0.10160139 -0.08339126 -0.45167592 -0.058915798 -0.04734283 0.22889519 0.2988841 -0.06113774
0.06532934 0.01781863 0.22515747 0.35109818 0.06392672 0.10506709 -0.30201635 -0.13872834
0.16197732 -0.46125248 -0.015614822 0.44379067 0.37939224 0.11259261 0.089951366 -0.25107214
-0.16927321 0.0904788 0.0037839045 -0.051992353 0.18064432 -0.10913665 0.107198045 0.32773033
0.4219529 0.078993365 -0.2806988 0.27413434 0.37697962 -0.29142004 -0.033312514 -0.2104366
-0.015606536 -0.11739937 -0.2939152 -0.21042009 -0.027410699 -0.06585852 -0.3958564 -0.27915367
0.103703305 0.3591296 0.13232873 0.027075304 -0.0653652 -0.23326938 -0.14654626 -0.14954527
0.51995516 -0.28072727 -0.56837046 0.12404573 0.0053049326 -0.046301145 -0.028102754 -0.004602117
0.007891775 -0.2591615 0.068756916 0.40451038 -0.033804577 0.27433896 -0.008216769 -0.25293136
0.28251275 0.27177972 -0.19005556 0.15192658 -0.11020927 -0.032775953 0.1872559 0.35690054
0.11071173 -0.22128269 -0.22645904 -0.25703084 -0.16346096 0.09961518 -0.009406725 0.16218835
-0.25427952 -0.37159094 0.22578879 -0.0999316 -0.12250187 -0.3205678 -0.040580932 0.18718785
0.44210413 0.5259104 0.14043519 0.09590439 0.15578234 0.10590373 -0.13384648 -0.021642093
-0.13312276 -0.07725001 0.3196312 -0.48514152 0.17080265 0.098824196 0.3049913 0.07409025
-0.2539839 -0.07268514 -0.042685412 0.043954913 0.28996703 0.3589771 0.29780337 0.20791654
0.048050124 0.3087533 0.016951246 0.053265076 0.16406803 0.059075255 -0.06799607 0.14918283
0.3577147 -0.33991075 0.086807474 0.061605994 0.27290356 -0.09503474 -0.29327172 -0.03555604
0.18836872 0.3081993 -0.21250834 0.09162762 -0.22795077 -0.24289571 -0.025256163 0.15670832
-0.09267434 -0.1266347 -0.028223112 0.057171814 -0.120375685 -0.334356 -0.01484064 -0.20606647
0.27395102 0.25614983 -0.10137139 0.09259601 -0.026222102 -0.37328348 0.46910203 0.026558287

actor.0.bias f4 [32]
00000000: 633d f9bd 41c3 f5bd 0843 813e b513 3b3e
00000010: 1d38 f6bd 083c 87be b72d 1e3e f0f0 76bd
00000020: deae 0a3e ce7f 573e 8c27 ac3e 83b0 bfbc
00000030: fee1 c33e e954 453e 0840 5b3e cfe0 d1bd
00000040: e2f3 3c3e 57ab 3d3d 73b6 1bbe 250a 9e3d
00000050: 128f 96be 32ac 733e 6bb2 823e f5aa 5e3e
00000060: cc82 8cbe df3e a1be 04f3 46be 6826 87be
00000070: 5597 cabd f1ab 1d3e 3807 663e 9074 493e
-0.12169912 -0.12000132 0.25246453 0.18269236 -0.120224215 -0.26412988 0.15447126 -0.06028837
0.13543269 0.21044847 0.33623922 -0.023399597 0.38258356 0.19270672 0.21411145 -0.10247957
0.18452409 0.04630598 -0.15206318 0.07716779 -0.2940603 0.23796156 0.25526747 0.21744902
-0.2744354 -0.3149328 -0.1942864 -0.2639649 -0.098921455 0.15397622 0.22463691 0.19673371

actor.2.weight f4 [32, 32]
00000000: a1bc bfbe 7f2c d0be 5d17 31be a988 9bbe
00000010: bfc3 593d 18fb 183f fa3c a3be a410 2f3e
00000020: d7a4 0bbe 188c 593e a94a 33be 9413 3a3e
00000030: cf86 533e a167 1abe 9cb5 c3bd 36ee a1be
00000040: f776 033e ace1 da3d 1d91 213f 9bdb f2be
00000050: 145e 6dbd a1f5 85bd 7ad1 ccbd d7b0 0bbe
00000060: 9289 c73d 27ab babd ee94 48be ba9f 2e3e
00000070: 3f14 5abd 52f6 333e ee87 27bf a84f 6cbe
00000080: d6d9 f6bd 8f88 a3bd f5af 38be 0e8a 2b3e
00000090: 6b9e c1bd 93f0 b1bc 50c9 99be 8730 dabe
000000a0: ccce 32be 1636 80bd b0c2 5abf 5eca 55be
000000b0: f766 22be 57f6 8b3e a264 de3d c93a 8f3e
000000c0: 506f 5c3e fde5 36be 4526 aa3e 7094 80be
000000d0: 0690 953e 78f7 40bf 024e 183d 4156 a03c
000000e0: b857 813e a379 d63d 2c12 c0bd 8080 bf3d
000000f0: 6a0a d4be 5b45 a7bd 3215 863e ccb5 4b3e
00000100: 8f34 f0bc 2415 64bb b571 133e d6f1 8d3d
00000110: 9067 84bd d158 b43d 0db5 92bc 483c 1ebe
00000120: 46e4 0fbe 0c31 fa3c 53d5 3ebd 5e60 aebd
00000130: ec6c 1ebe 65e5 7fbd 5dc8 063e 3113 893e
00000140: d1bc 263d a608 94be 7de7 3b3e 79d9 25be
00000150: 89a1 2f3d 150b 5abf 05e2 a23e 6ca6 44be
00000160: e140 79bd ba53 0fbe 8601 a4be b584 b43d
00000170: 8476 9dbe f3f8 923d 9fe8 953e 7277 bfbd
00000180: b3d5 9abe 9a0d 25be 1262 983e cdb0 fb3d
00000190: 22ad c1be 8e54 75be 342f fbbd 8fa3 f8bd
000001a0: 7302 5ebe 9ee8 4b3d 0157 23be 655a 1cbe
000001b0: fffe 00be d2f3 903d 96ff d43d f4cd 753a
000001c0: 2791 8fbe 78a5 923d 703b cf3e 41d5 ae3e
000001d0: 2961 873e cea7 0fbd d013 2c3d e2a5 3f3e
000001e0: fea6 e63d 839c d13d 60be bf3c dc07 603d
000001f0: d13e 1bbf 11a4 0cbe 55ca 9f3d a171 d2bd
00000200: 39b6 473e 92d6 a23e e98a a0bd c4c7 ddbe
00000210: 5695 bbbe c366 bfbe b2b1 75bb 76da 823e
00000220: 23f9 163e 5234 c93d 2477 f7bd 97ac 1ebd
00000230: 5e05 083e 3d71 b13d d508 45bf afef 9c3e
00000240: 6499 7dbe bcdc abbe e6af a3bd dbc9 e03d
00000250: 3a53 713d b85f aabe 9066 8c3e 5fb1 8bbd
00000260: 4eaf b8bc 9a27 153e e250 7d3e ccf0 6fbe
00000270: fab1 f93e c3dc d23d 8f2d 103d 7c01 69be
00000280: 00d5 723e f73b 293e 4a70 86bf bf14 75bc
00000290: 4c1d bcbd f7dd 8d3e a1dd 30bd cc9e 6cbe
000002a0: 646e 18be c241 123e f065 0bbe 8572 ba3c
000002b0: 1f79 3b3d 4034 4cbd bfbf 6f3e 2f65 a63d
000002c0: 2632 c5be 63f1 ff3c b4e4 87be 1ec3 c0bd
000002d0: 9cfa b1bd 74b8 aebe b59c a3bd 5f6e ea3d
000002e0: 36fb e73d cf51 ff3d afe0 4f3e aea4 12bc
000002f0: 5d17 3abe 2740 b6bc 8ec7 093c b42c dd3d
00000300: 7ce0 9e3d 3e6e 22be 50eb dfbe d815 fcbd
00000310: 5b16 983e 7bad b13d aeab 9c3d 5da0 373e
00000320: bfda 27bf 0888 babe 3573 493e ab05 c43d
00000330: 1df5 b4be ae66 3f3d 935e c0bd 7532 863d
00000340: 3137 9a3e 5c08 15be 4b6b 74bd 35ca 39be
00000350: 6268 a5be 0b4b 61be 8485 39be f4d8 ba3d
00000360: dafa f83c 2f34 0c3e 8c35 043e a3aa e93e
00000370: 3139 4a3c a3bc ecbe bea5 7f3c a85d 6d3e
00000380: 787b bebd cc07 743d e9d5 10bf 85a6 a4be
00000390: 224b 993e 012a bf3e 0d1e 3a3e 49f6 5f3d
000003a0: 316d 3abe e643 babd d0f2 443e 50c6 3dbe
000003b0: 515f a2bc d630 be3e 1fb1 d33e 9faf 083f
000003c0: a1d2 5b3e 5c25 83ba 5e8b bc3c 79f6 64be
000003d0: 4885 0abe 255a 213e ae8d 503d 17ea f2be
000003e0: 78a9 6fbc da1a c3bb b2d4 11bf 7f05 6a3d
000003f0: b224 373e 9d55 14be b8d1 ad3b 357b c23b
-0.374486 -0.40658948 -0.17294069 -0.303777 0.053165194 0.5975814 -0.3188246 0.17096192
-0.136371 0.21244848 -0.1750895 0.18171531 0.20656894 -0.15078594 -0.095561236 -0.31627053
0.1283835 0.10687575 0.6311205 -0.4743317 -0.057951048 -0.065409906 -0.10000892 -0.13641678
0.09743036 -0.09114676 -0.19588062 0.17053118 -0.053241964 0.17574432 -0.6544179 -0.23077261
-0.12053268 -0.07985031 -0.18035872 0.16751882 -0.09454044 -0.02172116 -0.30036402 -0.42615148
-0.17461699 -0.06260316 -0.8545332 -0.20877978 -0.1585959 0.2733638 0.10859038 0.27974537
0.21526837 -0.17861171 0.33232322 -0.2511325 0.29211444 -0.7537761 0.03718377 0.019572379
0.25262237 0.10472419 -0.09378466 0.09350681 -0.41414195 -0.081675254 0.26188046 0.19893569
-0.029321937 -0.003480264 0.14398845 0.06930892 -0.064650655 0.08806003 -0.017908597 -0.15452683
-0.14051923 0.030540965 -0.04659016 -0.08514474 -0.15471238 -0.062474627 0.1316237 0.26772454
0.040707413 -0.28912848 0.18350025 -0.1619624 0.04287866 -0.8517316 0.31813064 -0.1920411
-0.06085289 -0.13996783 -0.32032412 0.08814374 -0.30754483 0.071763895 0.29279038 -0.09348954
-0.30241165 -0.1611847 0.29762322 0.122895814 -0.37827402 -0.23958036 -0.12264863 -0.12140571
-0.21680622 0.049782388 -0.15951158 -0.15268858 -0.12597273 0.07077755 0.10400312 0.00093766977
-0.2804043 0.07160467 0.40475035 0.34147075 0.26441315 -0.03507214 0.042011082 0.18715623
0.1126232 0.1023493 0.023406208 0.054694995 -0.60642725 -0.13734461 0.07802264 -0.10275579
0.19503106 0.3180433 -0.07838995 -0.43316472 -0.36637372 -0.37383088 -0.0037489948 0.25557297
0.14743476 0.098244324 -0.12083271 -0.038738813 0.13283297 0.086641766 -0.769666 0.30651614
-0.24765545 -0.33566844 -0.07992534 0.10976001 0.05891726 -0.33276153 0.27422 -0.0682094
-0.02254453 0.14565888 0.24737886 -0.234317 0.48768598 0.10296013 0.035199698 -0.22754472
0.23714066 0.16526781 -1.0503018 -0.01495856 -0.091852754 0.27708408 -0.04318011 -0.23107451
-0.1488586 0.14282897 -0.13613105 0.022759685 0.045769807 -0.049854517 0.23412989 0.08124768
-0.38514823 0.031243032 -0.26541674 -0.09412216 -0.08690378 -0.34125102 -0.07988874 0.11446833
0.113272116 0.124667756 0.20300554 -0.0089503955 -0.18172975 -0.022247387 0.008409394 0.10799542
0.07757661 -0.15862367 -0.43734217 -0.12308854 0.29704556 0.08675667 0.07649933 0.17932267
-0.65568155 -0.3643191 0.19672854 0.095713936 -0.35343257 0.046728782 -0.093930386 0.06552593
0.30120233 -0.1455397 -0.059672635 -0.18143542 -0.323062 -0.22001283 -0.18117338 0.09123412
0.030393053 0.13691781 0.12911052 0.45637998 0.012342737 -0.46237668 0.015603481 0.23180258
-0.093008935 0.05957775 -0.565764 -0.32158294 0.29940134 0.37336734 0.18175526 0.054678235
-0.18205716 -0.09094982 0.1923325 -0.18532681 -0.019820841 0.37146634 0.4134607 0.53392977
0.21467067 -0.0010005641 0.023015674 -0.22359647 -0.13527405 0.15757044 0.050916366 -0.4744422
-0.014627807 -0.0059541287 -0.5696517 0.057134148 0.17885092 -0.14485784 0.0053045414 0.0059350976

actor.2.bias f4 [32]
00000000: 8032 a0bd 872a 16bd 9a40 dd3d 80df 273d
00000010: d4ea 4cbd 4d5a 913d 4dbd 843e 49bc 26be
00000020: 96a0 463d 8291 ec3d e15c 9fbd 6920 8dbd
00000030: c91f eabd 1f33 1ebd 50f5 2b3e fced 47bc
00000040: 2f58 463e 12f1 973d d6bc 8bbd 6a71 9d3d
00000050: 5695 b4bd f7f6 25be ba26 1cbe 3319 b73d
00000060: ae47 18be c7e2 20be 9d2a 5d3d 889e 333c
00000070: e896 d83d 64a9 483c d644 27be d18b 37be
-0.07822132 -0.03666165 0.108033374 0.04098463 -0.050028637 0.07097302 0.25925675 -0.16282763
0.04849299 0.11551191 -0.07781387 -0.06890947 -0.11431844 -0.03862297 0.16792798 -0.012202736
0.19369577 0.074190274 -0.06823127 0.07687648 -0.08817546 -0.16207491 -0.15249148 0.08940353
-0.14871094 -0.15711509 0.053995717 0.01096309 0.10575658 0.012247417 -0.16334853 -0.1792443

actor.4.weight f4 [2, 32]
00000000: a5e1 813e a0ea 15be 6d5d 29bf 5e98 22be
00000010: 40d3 e8bc 3233 a23d 3fa3 f0bc 72d9 b0bc
00000020: bc69 47be 2843 213e 42d8 793d 04ee 163e
00000030: 8be4 6b3d 14d1 d63d 881a b0be 98d3 313e
00000040: a5d1 babe bc24 d2bd 030c 2cbf a868 833e
00000050: 8ec0 10bf 0d99 253e ced2 2abe 6c70 05be
00000060: 0bcf 48ba 2341 3abe eccf f1bd 0c5a 993d
00000070: f11a c13d 554f 9d3d de18 90be 576b a6be
00000080: c442 2cbe ee4d cfbe 6769 96be 7367 34be
00000090: 608d 1fbf 28ab 7b3e a592 a93f ad46 393f
000000a0: edfd f73d 3412 84bd 0fb2 07bf 8ead 533f
000000b0: 3a55 703e 01f0 08be e39e a1bd 59bf 7b3e
000000c0: 5bcd cbbe 53a3 1a3d 366d fdbc 4add e63d
000000d0: fb7d 7a3e 6ea5 113f 426e c8be b130 83bd
000000e0: e2f3 b63e 20f8 b33f eaff 933f 9bc8 ebbe
000000f0: 8081 9d3d e481 08bf a971 8b3d 6cec f33e
0.25367466 -0.14640284 -0.6615818 -0.15878436 -0.028421044 0.07919921 -0.029374717 -0.021588061
-0.19473928 0.15748274 0.060997255 0.14739233 0.057591002 0.10489097 -0.34395242 0.17365873
-0.3648807 -0.10260913 -0.6720583 0.25665784 -0.56543815 0.16171665 -0.16681978 -0.13031167
-0.00076602463 -0.1818891 -0.11807236 0.07487878 0.09428967 0.07681147 -0.28143972 -0.3250377
-0.16822344 -0.40489143 -0.2937729 -0.17617588 -0.62325096 0.2457701 1.3247877 0.7237347
0.121089794 -0.064487845 -0.5300607 0.826867 0.23470011 -0.13372804 -0.07891633 0.24584712
-0.3980511 0.037753414 -0.030935865 0.11272676 0.2446212 0.5689305 -0.3914662 -0.064057715
0.35732943 1.4060097 1.1562474 -0.46051487 0.07690716 -0.533232 0.06808788 0.47641313

actor.4.bias f4 [2]
00000000: 571f fd3d 241d 89bd
0.12359493 -0.06695011
