results/SandingEnvMiddle/ddpg/model/model_parameters_2.pt (torch, 32386 bytes, 22 tensors)

value.0.weight f4 [32, 12]
000000 cc be 0e 3e 9d 9f 02 3c 21 03 37 3e c2 f9 d2 bd
       0.1393997 0.007972625 0.17872287 -0.10301544
000010 0e 4e cd bd 37 f0 a5 3c 01 7a 1d be 09 38 82 bb
       -0.100246534 0.020256145 -0.15378572 -0.003973965
000020 0d 11 ea bd 10 76 32 3e ef fc fa be cd 46 53 bf
       -0.114290334 0.1742785 -0.49021098 -0.8252991
000030 c5 e7 94 3d a8 c1 56 bd d6 61 ac 3b 25 b2 8e bc
       0.07270769 -0.05243078 0.0052606864 -0.01741893
000040 58 86 dd bd d5 f9 3a be 4d a3 e1 3e f4 20 9d 3e
       -0.1081664 -0.18259366 0.440699 0.30689204
000050 5e 78 21 3e 16 30 30 be 80 a3 4e 3f 6e f3 12 40
       0.15768573 -0.17205843 0.8071823 2.2961078
000060 18 88 13 be ef c1 fb 3c 90 fe 86 3d a5 d2 3c 3d
       -0.14407384 0.030732123 0.06591523 0.046099324
000070 45 e6 46 3d a5 06 83 bd 53 8e 60 bd 19 7f c9 3d
       0.048559446 -0.06397752 -0.05482323 0.09838695
000080 74 45 32 3d b4 e6 dc 3e 85 ef be 3e 52 cf e8 3e
       0.043523267 0.43144763 0.37292114 0.45470673
000090 74 91 d7 bd 38 5d dc bc 0d 91 65 be ba 20 4b 3d
       -0.1052579 -0.026899919 -0.22418614 0.049591757
0000a0 10 eb 50 bd 94 df 15 bc 1f ff 8a 3e d5 8f 73 3e
       -0.051005423 -0.009147543 0.27147767 0.23785336
0000b0 00 ba b9 bd 2f dc 47 bd b5 fb 96 3f 7b b8 37 40
       -0.0906868 -0.048793968 1.1795565 2.8706348
0000c0 a0 85 2a be 84 08 df bd db 88 8d 3c 15 23 c4 3d
       -0.16652536 -0.10890296 0.017277172 0.09577004
0000d0 0a 78 3b 3e 29 d4 8c bd 21 86 b9 3e 7b bc a1 bd
       0.1830751 -0.06876404 0.36235145 -0.07897278
0000e0 4f 2b 42 bd 1e 25 a3 3c 2f 0a 0d 40 56 12 93 3f
       -0.047404584 0.01991516 2.2037466 1.1489971
0000f0 c8 fe 62 bc 6e 81 01 3d ab 63 a2 3e 5a 97 d7 bd
       -0.01385469 0.031617574 0.31716666 -0.10526915
000100 72 53 08 3e b6 d5 40 3b c6 e3 6e 3e e5 07 94 bd
       0.13313082 0.0029424257 0.23329076 -0.07228068
000110 c0 1f 3b be f8 b4 4e 3e c1 eb 24 40 42 01 34 be
       -0.1827383 0.20186222 2.5768893 -0.17578605
000120 2f 55 84 bc 42 f3 a5 bd e7 45 02 bb 0b 13 25 3e
       -0.0161539 -0.08103038 -0.001987809 0.16120546
000130 4d 20 29 3d 7a 71 2c bc b0 38 65 bc ef 1f 5e bd
       0.04129057 -0.010525102 -0.013990566 -0.054229673
000140 5d 41 8e 3d 5b ff d7 3e 4b 9a 0c c0 23 90 84 bf
       0.06946061 0.42187008 -2.1969173 -1.0356487
000150 71 b8 0a 3e c0 f7 b5 bd 11 59 fb bd 86 ef a3 3d
       0.13546921 -0.08885145 -0.122728474 0.0800467
000160 1d f6 48 be d0 08 c4 3d e1 6e 34 be 29 17 8c 3e
       -0.19625135 0.09571993 -0.17620422 0.2736142
000170 90 39 39 3d cb 37 4c be cf 8d e7 bf 8f aa 21 3f
       0.04522091 -0.19943158 -1.8090152 0.63150877
000180 6e ed a0 bc e1 c7 3c bc 26 97 2f 3e ac 9a 87 3d
       -0.019644465 -0.011522264 0.17147502 0.06621298
000190 c5 c7 94 be da 17 7a 3e c1 0a 0c bd 21 e0 89 3e
       -0.29058662 0.24423161 -0.034189943 0.2692881
0001a0 28 5e 86 be 18 ed 46 be a5 c7 95 3c 18 0a 15 3f
       -0.2624371 -0.19426382 0.018283674 0.58218527
0001b0 ee 41 84 be 21 42 83 bd 09 55 7c 3e c2 b7 10 3e
       -0.2583155 -0.064090975 0.24641813 0.14132598
0001c0 fd 8a 8d bc d4 a9 b8 3c 11 69 0e 3d 84 e0 23 bd
       -0.017278189 0.022541918 0.034768168 -0.040009037
0001d0 1c 86 1f bc 00 d1 46 3e 97 cc 05 40 e7 11 0f 40
       -0.009736564 0.19415665 2.0906122 2.2354677
0001e0 11 68 03 3e 0c d6 0d be 07 d9 32 be a8 82 22 be
       0.12832667 -0.13851184 -0.17465602 -0.15870154
0001f0 9a 6d 68 3e e3 c7 f9 bc 9e 0b 99 3e be 90 52 3e
       0.2269806 -0.030490821 0.29891676 0.20563027
000200 d6 0b 75 3e 5d 2e 40 be a8 57 f0 3f b9 2c 2d bf
       0.23930296 -0.18767686 1.877675 -0.67646366
000210 b9 0f 40 bd a5 e9 96 bc cf b0 6c be de e4 0d 3e
       -0.046889994 -0.018421957 -0.23114322 0.13856837
000220 20 39 db bd fd a1 43 3e 3c 32 a5 be d3 0d 26 3e
       -0.10704255 0.19104762 -0.32264888 0.16216211
000230 cf 50 a1 bd 35 dd 3f 3d 7c 48 2d bf 52 a8 41 3f
       -0.07876741 0.04684182 -0.6768873 0.7564746
000240 80 c0 ec bc fc 75 ee 3c 68 98 c8 3d 67 87 0f 3e
       -0.028900385 0.029108994 0.09794694 0.14016496
000250 cf 2d 86 3e 49 e2 04 3c 7c 54 20 bd 30 1e c7 be
       0.26206824 0.008110591 -0.03914307 -0.3889022
000260 4b 01 a5 be e6 3c 68 3c b7 fe 6f 3f ce d2 99 be
       -0.3222755 0.014174676 0.9374804 -0.30043644
000270 ce f5 7d 3d f8 5b 61 3e de 35 0c be b3 34 48 3e
       0.062001996 0.2200774 -0.13692424 0.19551353
000280 49 1a 58 be 40 15 41 3d 56 7e 9b bd ed 7c 50 3e
       -0.21103777 0.047139406 -0.07592456 0.20360155
000290 33 64 85 bc ce 41 10 be 14 43 b4 3e 87 09 b8 3e
       -0.01628313 -0.14087602 0.35207427 0.3594477
0002a0 a8 3a 10 3c d9 55 18 3e 8b 8f 97 3c 3d 8a e0 bc
       0.008803047 0.14876498 0.018501064 -0.027409667
0002b0 b8 df ea bc 0d 7d 17 be 64 02 28 bc 96 b5 36 be
       -0.02867113 -0.14793797 -0.010254476 -0.17842707
0002c0 b9 99 3f bd f9 fa 75 3d c3 49 c3 bf 74 93 4d 3f
       -0.04677746 0.0600538 -1.5256885 0.8030312
0002d0 87 f6 01 be 78 19 97 bd b3 22 da 3d 28 34 1f bc
       -0.12691699 -0.07377905 0.106511496 -0.009717025
0002e0 f9 8f 9f 3e f4 28 bf bc 0b a0 bd 3e 6f ed db 3b
       0.3116453 -0.023334958 0.37036166 0.006711654
0002f0 9f cc 7b 3d 17 5d 0d be 89 65 c1 bf 9c bd 28 40
       0.06147444 -0.13805042 -1.5109111 2.6365728
000300 ae 75 c0 bd aa 20 ca 3c d5 8d 01 3e 2a f9 26 be
       -0.093974456 0.024673779 0.12651761 -0.16305986
000310 43 94 30 3e 37 78 55 3d 2f fb df bc db ff 42 be
       0.17244057 0.0521166 -0.027341453 -0.19042914
000320 1f 69 ad 3d e4 7d ca bd 7b 33 7e 3f 9a e1 e3 bf
       0.08467316 -0.09887293 0.992973 -1.7803223
000330 5d eb 1f 3d 55 3a ee bb 77 c1 bb 3d fe d6 89 3c
       0.03904282 -0.0072701373 0.0916776 0.01682615
000340 3a 91 4b bd b0 f4 96 3d a7 ef 5a 3e fa e6 0d bd
       -0.049699046 0.07370889 0.21380483 -0.034644105
000350 b5 f5 a9 3e e9 0c b3 3e 02 25 24 c0 40 6d 87 3f
       0.33195272 0.34970787 -2.5647588 1.0580215
000360 b1 47 30 3e 42 60 54 3e 1b bd ca 3c e0 28 32 3d
       0.17214848 0.20739844 0.024748376 0.043496013
000370 04 a5 5d 3c 22 31 89 bd ad 2d f9 3d 1c 70 3e bd
       0.013528112 -0.066988245 0.12166915 -0.046493635
000380 44 ea 02 3e cf 45 29 be 95 3d e8 3f d3 d2 3c 3f
       0.12784678 -0.16530536 1.8143793 0.7375919
000390 16 43 f2 3d 68 0c 59 3d b2 ea 0c be ff c7 6b 3e
       0.11829202 0.052990347 -0.13761404 0.23025511
0003a0 1f 04 11 3e 1e 41 96 be a8 46 94 be e5 c9 4f 3d
       0.14161728 -0.29346555 -0.28960156 0.05072965
0003b0 4a 6d 10 3d 8c f3 03 be 61 06 73 3f 31 eb bf 3d
       0.035260476 -0.12885875 0.9493161 0.09371031
0003c0 db e6 52 3e 2c ee 0a be c6 14 3e 3c 2c 0f 63 3e
       0.20595877 -0.13567418 0.011601632 0.22173756
0003d0 cf 97 89 be 9e f9 1c 3e 45 a9 cc 3d 84 e9 41 3e
       -0.26873633 0.15329596 0.09993223 0.18936735
0003e0 5e 1e 19 be e4 d6 41 3e 42 67 00 40 0d 56 aa bf
       -0.1495299 0.1892963 2.0063024 -1.3307511
0003f0 d3 dc b1 3d 7d 3c cb 3c ef ee b4 3e 81 b0 bc bd
       0.08684697 0.024809116 0.35338542 -0.09213353

value.0.bias f4 [32]
000000 d3 b2 ec bd 3a 7d 4c be 8f e5 a0 3e 76 39 27 3e
       -0.115575455 -0.19969645 0.3142514 0.16330513
000010 20 a7 91 bd d6 57 4e 3f 2f 3e c7 3d 6b e0 8e bc
       -0.07111955 0.80602777 0.097286575 -0.017440995
000020 83 0b 5b bd 82 0e 5e bc fc b6 80 bc f3 97 db 3e
       -0.053477775 -0.013553264 -0.015712254 0.42889366
000030 25 73 87 3e 31 c0 58 3e 1b 06 45 3d db c3 9e be
       0.26455036 0.21167065 0.048101526 -0.310088
000040 9f 8d 20 3f 1a 7c 91 3e 2b ef c4 3e 49 5c 8a 3e
       0.62716097 0.28414994 0.3846372 0.27023533
000050 c4 fb 2e 3e fa 7b e4 bd 37 ce f0 3c c7 c3 8d be
       0.17088228 -0.11156459 0.029395206 -0.2768843
000060 19 9d 62 3d e6 25 95 be 7b 21 f8 bd c2 b1 50 bd
       0.0553256 -0.29130477 -0.12115761 -0.050950773
000070 1f ac 9f be a8 3d 9f be 85 f0 ba be 5e d2 98 3d
       -0.31186005 -0.31101727 -0.36511627 0.07461999

value.2.weight f4 [32, 32]
000000 b8 8d 9b bc 58 84 36 3e e5 4f 4e 3c 95 b2 9b 3d
       -0.018988475 0.17823923 0.0125922905 0.07602421
000010 ba fc 65 3e 1e ac 9b bd e8 f4 14 bd 4a 62 70 be
       0.22459689 -0.07601188 -0.036366373 -0.23474994
000020 3b 25 68 bd 13 c5 23 3e 02 85 a6 bc 9c 35 74 bd
       -0.05667613 0.15993147 -0.020327095 -0.05962144
000030 18 73 0f 3e 31 17 71 3c 1b ec 18 bd 49 21 51 3e
       0.14008749 0.014715002 -0.037334543 0.20422854
000040 48 d0 a5 bb ac e0 a3 be d4 e9 e1 be b5 5f fe bd
       -0.0050602295 -0.3200735 -0.4412371 -0.124205984
000050 6a 6d f3 bd 6c bc 49 3d 2b 55 5b bd 8d 10 ff 3d
       -0.118861035 0.04925196 -0.05354802 0.12454329
000060 16 b9 43 3e 94 93 16 3e 6a e6 06 3d 6e 51 4b bd
       0.19113573 0.14704734 0.032934584 -0.049638204
000070 3c 55 00 be d0 0f ff 3d 51 04 d0 bd 2c 82 79 bd
       -0.12532514 0.12454188 -0.10157073 -0.060915157
000080 f7 22 72 bd 15 0d bc be 35 74 09 3d da 2d 8b bd
       -0.059115376 -0.3672873 0.03355809 -0.06795855
000090 ad e2 3e 3e 12 5a ed bd 26 37 9b bd f2 24 63 be
       0.18641157 -0.11589445 -0.07578878 -0.22182062
0000a0 d4 7a 2f be e3 a5 c8 bd 22 f5 a1 be d0 04 1c bd
       -0.17136699 -0.097972654 -0.31632334 -0.038090527
0000b0 57 54 15 3d e2 5c 03 3c 3e 79 07 3d cc 48 03 be
       0.036457386 0.00801775 0.03307461 -0.12820739
0000c0 02 47 9a bc 11 c5 46 be d4 9d 43 3c 75 8f 66 bd
       -0.018832687 -0.19411112 0.011939485 -0.056289155
0000d0 50 73 53 3a c6 19 9e 3c 8d 7b 25 3c 6f d7 bb 3d
       0.0008066194 0.0192994 0.010100258 0.0917195
0000e0 81 88 b3 3d c7 9f 06 3d 95 f1 0c 3e 3d a3 5e 3e
       0.087662704 0.03286722 0.13764031 0.21741958
0000f0 a5 7d a0 3d 59 12 4c 3e 8f 35 90 3c 97 6f 2c 3c
       0.07836465 0.19928874 0.017603664 0.010524652
000100 12 f8 85 bd c4 71 cd bd 74 8b 55 3d 74 62 26 be
       -0.06541456 -0.10031465 0.052134946 -0.16248494
000110 7d 13 60 3d 32 e8 0b 3e 83 df 16 3e 44 b2 a5 3a
       0.054706085 0.13662794 0.147337 0.0012641628
000120 f4 97 40 be a2 60 1b be 94 f5 20 3e b9 f7 e4 3b
       -0.18807966 -0.15173581 0.1571868 0.0069875387
000130 78 2b 3f bd 31 86 48 bc 13 05 57 bd 6e 73 15 be
       -0.046672314 -0.012239025 -0.052495074 -0.14594814
000140 0d 9e 0b be 4a cd 20 3e cf e4 d6 3d 36 f9 95 3d
       -0.1363451 0.15703312 0.104928605 0.07322924
000150 fc 5d 95 3c f1 bd f0 bd 3d eb 94 bd 4a 7a 23 3e
       0.018233292 -0.117549784 -0.07271431 0.15964618
000160 19 ca 32 3e f5 48 c1 3d 6a c9 8f bd 91 01 39 bd
       0.17459907 0.094377436 -0.070208386 -0.04516751
000170 66 3c 27 be c4 01 7b 3e ce f4 73 bd de 97 99 be
       -0.16331634 0.24512392 -0.059559636 -0.29998678
000180 ba a4 f3 3d 97 b2 e0 bd 9e bd 7b be 73 b6 5d bf
       0.118966535 -0.10971563 -0.24584052 -0.8660652
000190 a9 8a 23 3e 49 32 e5 be 2d e7 ba bd a1 81 c9 bd
       0.15970863 -0.44764927 -0.091261245 -0.09839178
0001a0 8d e9 50 bf 39 eb a0 3e c0 b3 f4 bd 90 91 02 3e
       -0.8160637 0.3142946 -0.11948347 0.1275084
0001b0 50 d5 e8 be 2d b0 30 3c 95 cb 68 3e 8e b1 eb be
       -0.45475245 0.010784191 0.2273391 -0.460339
0001c0 cf a9 aa be 2d fa 98 3e a0 f2 80 ba 75 32 7d be
       -0.3333268 0.2987837 -0.0009837933 -0.24726279
0001d0 b6 91 4b 3e 69 63 98 be c0 f2 15 bf a6 57 fb be
       0.19879803 -0.29763344 -0.5857353 -0.49090308
0001e0 3e ee 47 3e 43 56 35 bf 3c 18 17 bf 59 d1 83 3e
       0.19524476 -0.7083475 -0.59021354 0.25745657
0001f0 3a f7 b0 be 93 22 10 bf 20 13 03 bf d2 e7 d9 bd
       -0.3456362 -0.56302756 -0.5120106 -0.10639919
000200 76 79 d9 bc 54 df 4a be cc ca 37 be 9a a4 1b be
       -0.026547175 -0.19811755 -0.17948455 -0.1519951
000210 fb 65 ab 3d fc 69 0b 3e df 16 a3 bd 22 4b 0a be
       0.083690606 0.13614649 -0.07963347 -0.13505223
000220 d5 68 20 3e 94 4a 9a 3d 53 b2 98 bc 30 94 3f be
       0.1566499 0.07533756 -0.01863972 -0.18708873
000230 db ea 2e 3e 26 0d ee bd 48 fc 23 bc bd 3c 0c 3e
       0.17081778 -0.116236016 -0.010008879 0.13695045
000240 4b 84 41 3e 5e ca d8 bd 2a 61 e8 3d 0c 49 e5 3c
       0.18898122 -0.105854735 0.113466576 0.027988933
000250 8a 1a 33 bd 38 3a ba bd 1f d8 a5 bd d2 aa 89 3c
       -0.04372648 -0.090931356 -0.080978625 0.016805086
000260 9a 77 f2 be 9d 47 33 be 4d a8 e6 3d c6 38 6b be
       -0.47356874 -0.17507787 0.112625696 -0.22970876
000270 d2 74 4e bd a3 c4 6b 3d 14 48 be 3d 0c 41 96 bb
       -0.050404377 0.057560574 0.092910916 -0.004585391
000280 61 33 6e 3e 17 f7 c2 bd 6f b0 76 3c 9d e9 6d be
       0.23261787 -0.09519785 0.0150567135 -0.23233648
000290 be 79 57 3d d2 95 14 be 75 cd 26 be 8e c3 52 be
       0.052606337 -0.14510277 -0.16289313 -0.2058241
0002a0 20 15 40 be f2 76 a0 bd 94 fd b5 3c d4 52 fd bd
       -0.18758059 -0.07835187 0.022215642 -0.12369314
0002b0 11 a9 a8 bd 7b ab 57 be 85 2b d6 bc 18 36 36 be
       -0.08235372 -0.21061508 -0.026143799 -0.17794073
0002c0 e9 6c 49 bd c5 c5 f8 be 72 af 98 bc 20 b2 b5 be
       -0.04917613 -0.48588386 -0.018638346 -0.3548746
0002d0 83 a0 43 be 00 0f 58 bd a3 4f 96 bc cb de 05 bc
       -0.19104199 -0.05274868 -0.01834852 -0.008170794
0002e0 ab c0 1b be ce 6b 6f bd 1d c0 19 be dc d2 9d 3d
       -0.15210216 -0.05845242 -0.15014692 0.07706234
0002f0 37 49 f4 bd 58 04 1b be 40 54 7a be 62 75 32 be
       -0.11928027 -0.15138376 -0.24446201 -0.1742759
000300 06 30 f9 3d e8 d0 9c be 30 9b 15 3e cd ea 47 be
       0.12167363 -0.30628133 0.1460998 -0.19523163
000310 f9 65 dd bd b6 41 88 be a1 cc 23 be b2 40 84 bd
       -0.10810465 -0.26612633 -0.15996028 -0.06457652
000320 61 24 ae 3c 55 ed e5 3d e6 a8 46 3d 78 71 fa 3d
       0.021257581 0.11226908 0.048500918 0.12228674
000330 1c a7 98 3c fd c8 e4 3d 15 a8 15 bd bc 6e da bd
       0.018634371 0.11171148 -0.03653725 -0.10665652
000340 e7 c6 54 3e 1d 0e df be 0b e7 64 3c b7 39 03 be
       0.20779 -0.43565455 0.013971101 -0.12814985
000350 9e 74 7c 3e 8c 02 0c bd 6f a4 1d be 86 c4 4c 3d
       0.24653861 -0.034182116 -0.15394758 0.049992107
000360 04 7f 3c be 75 99 34 3e e2 ed c3 3d fb 2d 9d bd
       -0.18407828 0.17636664 0.09566857 -0.07674786
000370 62 cc 18 3e 57 cb 8a 3d 6f 4b 5f 3d 0f d8 02 3e
       0.14921716 0.06777065 0.0545153 0.12777732
000380 14 4b fd 3c 83 f2 93 be d1 fc d2 bd e6 dd 27 3e
       0.03091959 -0.2889596 -0.10302127 0.16393241
000390 3c ce 00 bf 90 49 66 3c 3c bf 35 3c 6e 66 29 be
       -0.5031469 0.014055625 0.011092957 -0.1654298
0003a0 c2 8a 9f bd 5f 3b 13 3d e9 82 2e 3e f8 6a 1c 3e
       -0.07790138 0.035945293 0.17042126 0.1527518
0003b0 fb 50 45 3d db 2b 99 3c 32 ef 3c be 40 17 57 be
       0.048172932 0.01869767 -0.18450621 -0.21004963
0003c0 e6 fd 64 bd 8d 54 30 3d 2b 11 95 3e 90 65 1e bd
       -0.0559062 0.043049384 0.2911466 -0.038671076
0003d0 a9 54 25 ba 56 41 a0 3d f5 db 68 3d a7 67 03 be
       -0.0006306866 0.07824962 0.056850392 -0.12832509
0003e0 1a 26 af 3d 95 d5 30 3d 6d 05 3d bd 51 b0 42 3b
       0.08552189 0.043172438 -0.046147753 0.0029707144
0003f0 2b 5c 73 bd 26 79 bd bd 50 a3 88 3d 7c 08 be 3d
       -0.05941407 -0.09251623 0.066717744 0.09278962

value.2.bias f4 [32]
000000 25 eb a5 be e8 5e 28 be 81 34 00 3f 3e 9c 0a 3f
       -0.32405964 -0.16442454 0.50080115 0.54144657
000010 4d f8 90 bd e7 1c 07 3d 9d 98 6f 3e 82 c4 9c 3d
       -0.070786096 0.032986548 0.23398061 0.076546684
000020 cd 66 57 3e fa 09 4d 3e c4 9f 94 3e 03 f4 88 3e
       0.21035309 0.20023337 0.29028141 0.26748666
000030 a3 8c 2c be b2 08 2a be e6 ee 43 be eb 44 51 be
       -0.16850524 -0.1660488 -0.19134101 -0.20436446
000040 bc ca 84 3e 08 76 c9 3d 72 fe 2c be 5d 4d dc bc
       0.25935924 0.09836966 -0.16893938 -0.026892358
000050 34 48 8b 3e a0 bd e1 be a5 98 98 3e 52 80 19 be
       0.27203524 -0.44089985 0.2980396 -0.14990357
000060 7f 47 ad bc 01 09 66 bd 84 01 84 bd 16 78 00 bf
       -0.021152256 -0.05616093 -0.064456016 -0.50183237
000070 35 15 95 be e8 11 9b 3e 87 7d a2 3e b0 8a d0 3e
       -0.29117742 0.302871 0.31736395 0.4073081

value.4.weight f4 [1, 32]
000000 a1 01 82 bd 70 a3 99 bd cb 8f 90 3d 17 72 4c 3f
       -0.06347967 -0.07501876 0.07058676 0.7986159
000010 8c ef 57 3d 8b 43 05 be 9c 04 47 3d 81 00 e6 3c
       0.052718684 -0.13014047 0.04858838 0.028076412
000020 ed 93 9e 3d 88 e5 55 3d c5 b1 23 3d 6d 9a d9 3d
       0.07743058 0.05222085 0.039964456 0.106251575
000030 c2 f7 cc 3d 5a 51 78 bd fe 49 05 bf cd 05 42 bd
       0.100081936 -0.060624458 -0.5206603 -0.047368813
000040 a4 7e 97 3d 28 eb 0c be 32 9b 29 bd c9 36 48 bd
       0.07397202 -0.1376158 -0.04140777 -0.048880372
000050 dd 5b be 3d 34 bc 19 bd 2e 71 ad 3d e4 43 01 bf
       0.09294865 -0.037533 0.08468853 -0.5049422
000060 a3 bc 26 be b2 0b 7c bd 09 e6 95 bd 4f bb 79 bd
       -0.16282897 -0.06153459 -0.07319266 -0.060969647
000070 e4 17 3d bd b2 2d aa 3d 2b 3e 8d 3d 9e d4 7c 3d
       -0.046165362 0.08309497 0.06896623 0.061726205

value.0.weight f4 [32, 12]
000000 52 f6 0c 3e 54 45 08 3c b5 85 37 3e 9e bb d4 bd
       0.13765839 0.00831731 0.17922099 -0.10387348
000010 fb c7 cd bd 14 1f a7 3c 65 f4 1c be d4 08 63 bb
       -0.10047909 0.020400561 -0.15327604 -0.0034642713
000020 a4 9a ec bd 47 31 31 3e 92 bd fc be 80 7f 53 bf
       -0.11552933 0.17303954 -0.4936338 -0.82616425
000030 0b a5 92 3d 50 17 56 bd 23 62 f0 3b 5d fc 94 bc
       0.07160386 -0.052268326 0.0073359176 -0.018186742
000040 cd b7 e1 bd 6f f9 3b be d2 af e0 3e 79 2d 9c 3e
       -0.11021385 -0.1835687 0.4388414 0.30503443
000050 f8 ee 20 3e 7c b9 30 be ca a5 4e 3f 1e 65 12 40
       0.1571616 -0.17258257 0.80721724 2.2874217
000060 b8 b7 13 be 8f 6c fb 3c a0 bc 85 3d 32 79 3a 3d
       -0.14425552 0.030691413 0.06530118 0.045525737
000070 62 e9 43 3d b2 45 82 bd 5c 1d 5f bd 9c 37 ca 3d
       0.047829993 -0.063609496 -0.05447136 0.09873888
000080 53 67 31 3d ee ca dc 3e f3 2f bf 3e 96 5f e7 3e
       0.04331143 0.43123573 0.3734127 0.45190114
000090 2c 5d d6 bd 84 40 d3 bc a1 ff 65 be 55 a8 4a 3d
       -0.1046699 -0.0257876 -0.22460796 0.04947694
0000a0 d6 fd 4f bd 3c 34 08 bc 05 80 8b 3e a2 91 74 3e
       -0.050779186 -0.008313235 0.2724611 0.2388368
0000b0 b5 df ba bd 8c 27 4a bd 53 1e 97 3f 66 45 37 40
       -0.091247 -0.04935412 1.1806129 2.8636107
0000c0 a9 57 2b be e1 f5 df bd 16 7c 8b 3c 44 20 c8 3d
       -0.16732658 -0.109355696 0.017026942 0.09771779
0000d0 ef 81 39 3e 80 77 86 bd be 9e b8 3e 16 5a a5 bd
       0.18115972 -0.065657616 0.3605861 -0.08073823
0000e0 a6 6a 3c bd 72 a6 ae 3c 75 e6 0c 40 4f d1 92 3f
       -0.046000145 0.021319602 2.201566 1.1470126
0000f0 44 12 6a bc f4 ad 10 3d 12 35 a1 3e a7 b6 d3 bd
       -0.014286581 0.035322145 0.31485802 -0.103375725
000100 a4 c4 06 3e d5 e9 0d 3b f2 8e 6e 3e 9e b1 94 bd
       0.1316095 0.0021654267 0.23296717 -0.0726044
000110 ba 2a 3a be fe a9 4f 3e 6e 3a 25 40 08 52 32 be
       -0.18180361 0.2027969 2.5816913 -0.17414105
000120 9f cc 85 bc 9a f2 a5 bd c5 71 92 bb 6e 6a 26 3e
       -0.016332923 -0.08102913 -0.004469129 0.16251537
000130 31 59 2a 3d 8b 5d 26 bc 99 c1 61 bc 25 42 5d bd
       0.041588966 -0.010154138 -0.013779067 -0.05401816
000140 56 84 8e 3d 1f 10 d8 3e 06 90 0c c0 70 ce 84 bf
       0.06958835 0.421998 -2.1962905 -1.03755
000150 02 b9 0b 3e 27 ae b3 bd d2 5a fd bd 78 bf a1 3d
       0.13644794 -0.08773451 -0.12370838 0.07897848
000160 7d 05 48 be 8e b9 c5 3d 2c 26 34 be 87 3b 8c 3e
       -0.19533344 0.096545324 -0.17592686 0.27389166
000170 e4 e7 33 3d 37 8c 4d be 4c 39 e7 bf ad 1e 20 3f
       0.04392232 -0.20073019 -1.8064361 0.6254681
000180 70 39 9e bc 94 3e 1b bc f9 3b 32 3e ff 9a 83 3d
       -0.019314498 -0.009475369 0.1740569 0.064260475
000190 e4 ae 94 be c7 0d 79 3e 28 c8 0b bd 75 e8 89 3e
       -0.2903968 0.24321662 -0.03412643 0.26935163
0001a0 51 65 86 be 68 fb 46 be e5 ff 91 3c 4c 69 15 3f
       -0.26249173 -0.19431841 0.017822215 0.58363795
0001b0 69 39 84 be 57 7a 83 bd e6 dd 7d 3e 66 d1 0f 3e
       -0.2582505 -0.06419819 0.24791679 0.14044723
0001c0 39 71 8d bc 90 fb b6 3c 1b 6e 0d 3d 79 db 24 bd
       -0.017265903 0.022336751 0.034528833 -0.040248368
0001d0 1e 1c 19 bc a3 37 47 3e de de 05 40 9d 28 0f 40
       -0.009345083 0.19454817 2.0917277 2.2368538
0001e0 1e d2 03 3e f1 1f 0c be 9e bf 2f be a8 44 23 be
       0.12873122 -0.1368406 -0.1716294 -0.15944159
0001f0 da 19 6a 3e 54 db e9 bc bf ef 99 3e f6 58 54 3e
       0.22861424 -0.028546967 0.30065724 0.20737061
000200 df a2 72 3e 54 97 42 be 88 04 f0 3f 42 c7 2c bf
       0.23694943 -0.1900304 1.8751383 -0.67491543
000210 5e e7 3f bd b7 bd 98 bc 99 a9 6b be fa e0 0d 3e
       -0.04685151 -0.01864515 -0.23013915 0.13855353
000220 65 7e d9 bd 87 97 44 3e f3 4b a5 be 75 da 25 3e
       -0.10619811 0.19198428 -0.32284507 0.16196616
000230 45 03 a1 bd 43 78 40 3d ae 47 2d bf 13 99 42 3f
       -0.07861952 0.04698969 -0.676875 0.7601482
000240 54 13 f6 bc fc 6a f0 3c d8 b7 c6 3d be ae 0f 3e
       -0.030038513 0.02934789 0.09703034 0.14031503
000250 5e 05 85 3e 82 ca fb 3b e0 84 23 bd 38 84 c7 be
       0.25980657 0.007684053 -0.03992164 -0.38968062
000260 79 43 a4 be 45 f6 7f 3c 85 90 6f 3f 03 f4 9c be
       -0.32082728 0.01562268 0.93579894 -0.30654916
000270 65 88 7b 3d 5e 2e 61 3e 8c fe 0b be d3 93 4a 3e
       0.061409373 0.21990344 -0.1367132 0.19782953
000280 59 cf 57 be 93 45 41 3d 46 a5 9a bd 75 e9 50 3e
       -0.2107519 0.04718549 -0.07551055 0.20401557
000290 67 f4 79 bc 91 34 0f be c5 d4 b3 3e d9 98 b5 3e
       -0.015256024 -0.13984896 0.35123268 0.35468176
0002a0 70 4c 27 3c e2 35 19 3e c7 15 9a 3c 19 7f c6 bc
       0.010211095 0.14961961 0.018809212 -0.024230527
0002b0 21 2c d8 bc 14 55 18 be 6e 90 19 bc 6f ce 35 be
       -0.02638823 -0.14876205 -0.009372814 -0.1775453
0002c0 09 0b 3f bd a9 89 76 3d ea e6 c2 bf ae e2 4d 3f
       -0.046641383 0.060189877 -1.5226719 0.8042401
0002d0 32 e9 01 be 31 ec 95 bd 39 2f de 3d d4 41 d7 bb
       -0.12686613 -0.073204406 0.10848851 -0.0065691266
0002e0 37 ce 9d 3e 77 57 d4 bc 18 dc bd 3e f7 ef ea 3b
       0.30821392 -0.025920613 0.3708198 0.0071697193
0002f0 28 e5 7c 3d f8 16 0d be 7e 30 c1 bf db 79 29 40
       0.061741978 -0.13778293 -1.5092924 2.6480625
000300 5a e7 c0 bd f2 20 c1 3c c3 f0 ff 3d ab 4f 28 be
       -0.09419127 0.02357528 0.124970935 -0.16436641
000310 5b 05 30 3e 65 0d 5b 3d a0 a8 e0 bc 8f 15 43 be
       0.17189543 0.05347957 -0.027424157 -0.19051193
000320 b7 a9 ae 3d 4c 3d c9 bd a2 0c 7e 3f af 10 e4 bf
       0.08528464 -0.098261446 0.99238026 -1.7817591
000330 86 3a 21 3d 9a ad e2 bb 8e 85 ba 3d 76 b2 83 3c
       0.039362453 -0.0069176676 0.09107505 0.016076308
000340 91 43 4b bd b6 4a 98 3d ff 81 5a 3e 9e 9d 0f bd
       -0.049624983 0.07436125 0.21338652 -0.035062425
000350 36 10 aa 3e 6a 27 b3 3e 93 e5 23 c0 f2 05 88 3f
       0.33215493 0.34991008 -2.560887 1.0626814
000360 e3 bd 30 3e 2b b3 55 3e 0a 83 bc 3c 67 67 35 3d
       0.17259936 0.20869128 0.023011703 0.044288065
000370 d2 81 6a 3c cb be 83 bd 52 c2 f9 3d d6 46 3d bd
       0.014313178 -0.06432875 0.12195267 -0.046210133
000380 c7 5d 03 3e 4c d2 28 be 2f f5 e7 3f 4a 16 3b 3f
       0.12828742 -0.16486472 1.8121699 0.73080885
000390 14 49 f4 3d 74 c9 4c 3d 5b 37 0c be 68 ab 6c 3e
       0.11928001 0.04999681 -0.13692991 0.23112261
0003a0 47 b5 0e 3e 9a f4 95 be 0f fd 94 be b9 16 4a 3d
       0.1393634 -0.2928818 -0.29099318 0.049338076
0003b0 82 2f 15 3d f5 c2 02 be ad 1f 72 3f 2f b9 b2 3d
       0.03642226 -0.12769683 0.94579583 0.08726727
0003c0 24 b0 52 3e 3c 95 0a be 15 ac 2d 3c 88 ec 61 3e
       0.20575005 -0.13533491 0.01060011 0.22062886
0003d0 11 e3 89 be 7b 5c 1d 3e 70 0b cc 3d 9d 9a 41 3e
       -0.2693105 0.1536731 0.09963119 0.18906637
0003e0 38 f9 18 be 0a fc 41 3e c8 69 00 40 26 92 a9 bf
       -0.1493882 0.18943802 2.0064564 -1.3247726
0003f0 99 5d b2 3d ce be d8 3c c7 8a b4 3e bb f8 be bd
       0.087092586 0.02645817 0.3526213 -0.09324785

value.0.bias f4 [32]
000000 19 9b ed bd 53 96 4a be cb c9 a0 3e 52 48 26 3e
       -0.11601848 -0.19783907 0.31403956 0.16238526
000010 29 d4 8e bd ea 34 4e 3f 27 81 c7 3d 8f 93 9e bc
       -0.0697406 0.8054949 0.09741431 -0.01935747
000020 c1 d5 5b bd 76 69 5c bc 7c 42 9c bc 05 e6 db 3e
       -0.05367065 -0.013452878 -0.019074671 0.42948928
000030 90 be 87 3e c8 0f 59 3e f7 67 44 3d fe fe 9e be
       0.26512575 0.21197426 0.04795071 -0.3105392
000040 6d 96 20 3f 9c 96 91 3e 25 1b c5 3e 81 10 8b 3e
       0.6272953 0.28435218 0.38497272 0.2716103
000050 49 f5 2f 3e e0 90 e3 bd ba a1 ef 3c ca 99 8e be
       0.17183413 -0.11111617 0.029251922 -0.27851707
000060 7b b8 64 3d f3 40 95 be 57 12 f3 bd f3 4d 4f bd
       0.055839997 -0.29151115 -0.118687324 -0.050611448
000070 84 b4 9f be 52 d9 9e be 21 87 bb be ab 33 9b 3d
       -0.3119241 -0.31025177 -0.36626533 0.07578214

value.2.weight f4 [32, 32]
000000 22 08 a6 bc ea 8e 35 3e 8a c2 4e 3c 0f 9f 98 3d
       -0.02026755 0.17730299 0.012619624 0.07452213
000010 59 e5 65 3e 36 75 97 bd db aa 15 bd 34 37 72 be
       0.2245077 -0.07395403 -0.036539894 -0.23653871
000020 36 7a 78 bd db 5c 23 3e 75 98 b3 bc fa 00 7a bd
       -0.060663424 0.1595339 -0.021923283 -0.061036088
000030 ec 15 0f 3e 93 4b 5b 3c 44 75 14 bd 9f c5 50 3e
       0.13973206 0.0133847175 -0.036244646 0.20387886
000040 73 66 8d bb 8a e9 a3 be ad 1a e1 be bd c4 fc bd
       -0.0043151914 -0.32014114 -0.43965665 -0.12342212
000050 f6 50 fc bd d3 37 4a 3d 56 59 66 bd 5c 67 ff 3d
       -0.123201296 0.049369644 -0.05623754 0.12470886
000060 4a 4a 44 3e 77 a6 15 3e d6 57 0a 3d ff b7 4d bd
       0.19168964 0.14614283 0.033775173 -0.0502243
000070 f3 1a 00 be cc 54 fe 3d ab 3f cf bd 27 e0 7f bd
       -0.1251028 0.124185175 -0.101195656 -0.062469628
000080 50 df 71 bd 98 58 bc be 3e 99 08 3d e4 56 89 bd
       -0.059050858 -0.36786342 0.03334927 -0.06706026
000090 be ab 3e 3e fa d9 ec bd c6 65 9b bd 56 2c 66 be
       0.18620202 -0.11565013 -0.07587771 -0.2247785
0000a0 21 66 2e be d4 b3 ca bd 4a 31 a1 be a0 0c 1b bd
       -0.17031147 -0.09897581 -0.31482917 -0.037853837
0000b0 9f 94 14 3d 81 71 04 3c de 72 08 3d 20 43 04 be
       0.03627455 0.008083702 0.03331267 -0.12916231
0000c0 a3 51 97 bc f7 f3 45 be 06 4c 3f 3c f4 60 67 bd
       -0.018471545 -0.19331346 0.01167584 -0.056488946
0000d0 15 0b 1f 3b 03 b3 a5 3c e3 37 2e 3c 4e 0e bb 3d
       0.002426808 0.020226961 0.010633442 0.09133588
0000e0 80 64 b3 3d 56 06 0a 3d c8 32 0c 3e f7 7b 5e 3e
       0.08759403 0.03369745 0.13691247 0.21726976
0000f0 26 c9 a2 3d f9 05 4d 3e ec 04 9b 3c d5 da 40 3c
       0.07948522 0.2002181 0.018923245 0.011770924
000100 fb 42 85 bd 1c 9d cb bd 41 a7 4e 3d 9a 05 27 be
       -0.06506916 -0.099420756 0.050452475 -0.1631073
000110 d8 3a 5d 3d bb cf 09 3e ad c5 14 3e 0d ba 19 3b
       0.054011196 0.13458149 0.14528532 0.0023456842
000120 91 21 40 be 00 c6 1d be 3c a7 20 3e 75 d0 e0 3b
       -0.18762805 -0.15407562 0.15688795 0.0068607875
000130 7e 9a 3f bd 6f cc 43 bc 1e c4 55 bd 39 16 16 be
       -0.046778195 -0.011950596 -0.052188985 -0.14656915
000140 1a 14 0c be 51 39 20 3e f0 eb da 3d d2 30 95 3d
       -0.13679543 0.15646864 0.10689533 0.07284702
000150 0a 48 98 3c 58 67 f1 bd 15 e9 95 bd 41 19 23 3e
       0.018589038 -0.117872894 -0.073198475 0.15927602
000160 f2 1a 32 3e 1b 20 c1 3d be d3 90 bd 1b 5a 3c bd
       0.17393091 0.09429952 -0.070716366 -0.04598437
000170 da 2b 27 be 9e 57 77 3e 64 75 71 bd 94 52 9a be
       -0.16325322 0.24154517 -0.058949843 -0.30141127
000180 da 54 f5 3d fb b2 e0 bd 32 30 7c be ce 28 5d bf
       0.11979075 -0.10971638 -0.2462776 -0.8639039
000190 da 0b 22 3e e8 9d e3 be b6 31 bc bd bd 43 c8 bd
       0.15824834 -0.4445641 -0.09189169 -0.09778545
0001a0 63 d9 50 bf da e5 a0 3e 48 c7 f0 bd e1 ee 02 3e
       -0.81581706 0.31425363 -0.1175676 0.12786438
0001b0 0a 8c e7 be d3 46 40 3c 7e ef 68 3e 58 c9 ec be
       -0.4522403 0.011735636 0.22747609 -0.46247363
0001c0 13 e9 aa be 0e 04 99 3e f7 cf 63 3a e4 b7 7b be
       -0.33380947 0.29885906 0.0008690352 -0.24581867
0001d0 f2 26 4b 3e 15 3e 96 be ba 3a 16 bf b5 de fb be
       0.19839075 -0.2934424 -0.5868336 -0.4919335
0001e0 6d 05 48 3e c0 6f 35 bf f1 5c 17 bf 6d 71 83 3e
       0.1953332 -0.7087364 -0.5912619 0.25672475
0001f0 e4 5d b0 be d4 46 10 bf 85 12 03 bf 60 82 da bd
       -0.34446633 -0.56358075 -0.51200134 -0.10669398
000200 3e 87 c7 bc cc d2 4b be 08 e7 38 be 75 61 20 be
       -0.02435648 -0.19904631 -0.18056881 -0.15662177
000210 29 f2 aa 3d e2 c4 0b 3e 22 24 a3 bd 46 8e 08 be
       0.0834697 0.13649324 -0.07965876 -0.13335523
000220 3b 88 1e 3e a5 1e 98 3d 65 8d 7e bc 51 9a 3c be
       0.15481655 0.0742772 -0.015536641 -0.18418242
000230 0d 0b 2f 3e f4 9c f5 bd 01 f6 3d bc b9 5e 0c 3e
       0.1709406 -0.11992827 -0.011594296 0.13708009
000240 b1 37 43 3e 26 6a d8 bd 13 f6 e8 3d 63 f0 e7 3c
       0.19064213 -0.10567121 0.1137506 0.028312868
000250 12 d9 26 bd 88 89 b9 bd d0 dd a9 bd f4 67 8c 3c
       -0.040734358 -0.09059435 -0.082942605 0.017139412
000260 14 fd f3 be e9 3c 2d be ef c4 de 3d 82 68 6b be
       -0.4765402 -0.16917767 0.10877406 -0.22989085
000270 2c c8 5b bd cc 05 68 3d 22 d8 c1 3d 18 fd a6 bb
       -0.053657696 0.056646153 0.09465052 -0.005096089
000280 c5 33 6e 3e b3 f6 c2 bd d3 b0 76 3c 01 ea 6d be
       0.23261936 -0.095197104 0.015056807 -0.23233797
000290 22 7a 57 3d 6e 95 14 be 11 cd 26 be f2 c3 52 be
       0.05260671 -0.14510128 -0.16289164 -0.2058256
0002a0 bc 14 40 be 8e 76 a0 bd f8 fd b5 3c 70 52 fd bd
       -0.1875791 -0.078351125 0.022215828 -0.12369239
0002b0 ad a8 a8 bd 17 ab 57 be 21 2b d6 bc b4 35 36 be
       -0.08235297 -0.2106136 -0.026143612 -0.17793924
0002c0 85 6c 49 bd 61 c5 f8 be 0e af 98 bc bc b1 b5 be
       -0.049175758 -0.48588088 -0.01863816 -0.35487163
0002d0 e7 a0 43 be 9c 0e 58 bd 3f 4f 96 bc 2f df 05 bc
       -0.19104348 -0.052748308 -0.018348334 -0.008170887
0002e0 47 c0 1b be 6a 6b 6f bd 81 c0 19 be 40 d3 9d 3d
       -0.15210067 -0.058452047 -0.1501484 0.07706308
0002f0 d3 48 f4 bd bc 04 1b be dc 53 7a be c6 75 32 be
       -0.119279526 -0.15138525 -0.24446052 -0.1742774
000300 c1 96 fa 3d 28 15 9b be c5 fe 15 3e d9 b8 45 be
       0.12235785 -0.30289578 0.14647968 -0.19308795
000310 e3 45 dd bd 77 5a 86 be ae 86 22 be bf 33 85 bd
       -0.108043455 -0.26240894 -0.15871689 -0.065040104
000320 e1 bd a7 3c 2f a3 e7 3d 98 46 49 3d c3 ec f7 3d
       0.020476284 0.11310422 0.04913959 0.121057056
000330 32 71 b0 3c f0 9b e2 3d 38 b0 13 bd 1c 74 d7 bd
       0.02153835 0.11064899 -0.036056727 -0.10520193
000340 20 c7 55 3e 4f a8 dd be 5e f8 5c 3c 0a 2e 02 be
       0.20876741 -0.43292472 0.01348695 -0.12712875
000350 5d 28 7d 3e 11 77 04 bd ed 5c 1e be 1c 82 4d 3d
       0.24722429 -0.032340113 -0.15465136 0.05017291
000360 72 ae 3c be 9c 5b 35 3e 32 c9 c1 3d f6 ad 9b bd
       -0.1842592 0.17710727 0.09462203 -0.0760154
000370 f8 7f 18 3e 40 2f 90 3d 4e f1 62 3d 60 39 04 3e
       0.14892566 0.07040262 0.055405907 0.12912512
000380 48 ed f9 3c 33 6a 95 be 66 cb cd bd 5f 42 29 3e
       0.030508652 -0.29182586 -0.10048561 0.16529225
000390 b2 4e 01 bf d6 2c 74 3c 1d 53 56 3c ac bb 29 be
       -0.50510705 0.014903268 0.013081339 -0.16575497
0003a0 6b 14 a2 bd 66 9f 16 3d f8 cd 2e 3e 95 ca 1c 3e
       -0.07914051 0.036773108 0.17070758 0.15311654
0003b0 66 d8 4c 3d ad a7 87 3c 8c c8 3c be 8b 53 57 be
       0.05001106 0.016559446 -0.18435878 -0.21027963
0003c0 86 46 5b bd 2b 22 33 3d 34 6e 93 3e 92 ed 1c bd
       -0.053534053 0.043733757 0.28795016 -0.038312502
0003d0 3f 87 85 ba 4c 28 a3 3d 45 31 6a 3d 37 cb 02 be
       -0.0010187401 0.079666704 0.057175893 -0.12772833
0003e0 8d d2 ae 3d a8 83 34 3d 72 af 35 bd 5e 78 8f 3b
       0.08536253 0.04407087 -0.04435677 0.0043783626
0003f0 f1 0a 7a bd c8 1c bd bd 22 0c 89 3d 8e 3f bf 3d
       -0.06104559 -0.09234005 0.06691767 0.09338294

value.2.bias f4 [32]
000000 54 14 a6 be 7d ba 27 be 6c f2 ff 3e 71 ae 0a 3f
       -0.32437384 -0.16379733 0.4998964 0.54172426
000010 93 c4 8d bd 4b 1d 07 3d 64 7a 70 3e 89 1c 9f 3d
       -0.06922259 0.03298692 0.23484188 0.077691145
000020 20 21 57 3e 35 05 4d 3e 92 63 94 3e b7 18 89 3e
       0.2100873 0.20021518 0.28982216 0.26776668
000030 87 ee 2d be f8 30 2a be fa 68 44 be 2c 96 52 be
       -0.16985522 -0.16620243 -0.1918067 -0.20565099
000040 2f ff 84 3e 48 df cb 3d 1e bf 2c be 08 58 e8 bc
       0.2597594 0.09954697 -0.1686978 -0.02836229
000050 32 b0 8b 3e 74 f6 e1 be 5f 81 98 3e f1 cf 19 be
       0.27282864 -0.4413334 0.29786202 -0.1502073
000060 9c 30 ab bc 7d 40 67 bd c8 0c 85 bd e1 6e 00 bf
       -0.020897202 -0.056457985 -0.064965785 -0.5016919
000070 1d 1e 95 be 07 34 9b 3e 09 b2 a2 3e ef 99 d0 3e
       -0.29124537 0.3031313 0.31776455 0.40742442

value.4.weight f4 [1, 32]
000000 23 4c 82 bd a5 82 9a bd 7a 23 8e 3d c0 45 4c 3f
       -0.06362178 -0.0754445 0.0694036 0.7979393
000010 ff 8a 5b 3d ef 43 05 be 0b 4f 42 3d e8 86 ea 3c
       0.053599354 -0.13014196 0.047438662 0.028628781
000020 0f 11 a0 3d 85 1f 53 3d d4 b2 26 3d 89 86 d9 3d
       0.07815754 0.05154373 0.040697888 0.10621364
000030 a8 c8 c7 3d 59 f4 75 bd 45 ac 04 bf 55 63 3c bd
       0.09755069 -0.06004748 -0.5182536 -0.045993168
000040 5e 91 98 3d eb 04 0d be 71 8d 29 bd 3a 42 4a bd
       0.074496016 -0.13771407 -0.041394655 -0.049379565
000050 9f b8 bf 3d 19 a6 1b bd 58 c1 ad 3d f8 f6 01 bf
       0.093613856 -0.0380002 0.08484143 -0.5076747
000060 8e 78 28 be 0c e5 7d bd 84 b8 97 bd 5b b5 77 bd
       -0.16452238 -0.061986014 -0.074082404 -0.06047569
000070 17 2a 40 bd 0a aa a9 3d 1a cb 8c 3d 19 22 7e 3d
       -0.04691514 0.082843855 0.06874676 0.062044237

actor.0.weight f4 [32, 10]
000000 c9 17 ab 3d b3 6c 02 3e 1e ec 88 3e 3f d0 13 be
       0.08354146 0.12736778 0.26742643 -0.14434908
000010 97 59 36 be 8d 0d 97 be 72 e5 8c bd 41 e0 2a be
       -0.17807613 -0.29502526 -0.06879701 -0.16687109
000020 6c 55 04 bd b6 8f 9f 3d 36 c9 4c bc 00 49 b0 be
       -0.032308027 0.077910826 -0.012499144 -0.34430695
000030 8e e5 54 3e 33 4c 28 3d 14 03 7c 3e 88 fe 16 be
       0.20790693 0.041088294 0.24610549 -0.14745533
000040 72 d2 ca be e5 28 bd be 91 3b 13 be aa 77 59 bd
       -0.39613682 -0.36945263 -0.14378192 -0.053092636
000050 98 15 68 3c fb 6f bc bd 4e 19 d4 be 07 8d c6 bd
       0.014165305 -0.09201046 -0.41425556 -0.096948676
000060 93 4a 44 3d 70 02 9a 3e cb 76 2e bd b8 2d 46 be
       0.047922682 0.30079985 -0.04259376 -0.19353378
000070 e7 8b 3e 3e 5c 27 d0 3e 99 b9 a4 3d db 19 bd 3c
       0.18608056 0.4065503 0.080432124 0.023083618
000080 74 3d bd 3e cd 30 2f 3f 03 7c bb bd 2a 55 88 bb
       0.36960948 0.6843384 -0.09154513 -0.004160543
000090 b0 3e 1b be f5 3f 86 bc 91 75 a8 3e 73 0b 67 be
       -0.15160632 -0.016387919 0.32902196 -0.22562961
0000a0 64 eb 3e 3e e8 a3 7e be 79 57 db bd 29 88 f4 3e
       0.18644482 -0.24867213 -0.107100435 0.47760132
0000b0 dd 67 b8 be ed 03 d5 be bc 89 48 3e 0f da 5a bc
       -0.3601674 -0.41604558 0.19583791 -0.013357653
0000c0 d8 8a 05 bf 80 ec 37 bf a4 21 99 3e 99 21 2a 3d
       -0.52164984 -0.71845245 0.29908478 0.041535947
0000d0 bf c3 06 be 4f 54 c4 3e e1 9f 9a be 53 ae 8d be
       -0.13160609 0.38345572 -0.30200103 -0.2767206
0000e0 9d 0d ce be 27 1f 54 3b 5a 89 4a bd 5c 66 20 3e
       -0.4024476 0.00323672 -0.049447395 0.15664047
0000f0 0a ec ac 3e fa 7b a6 be 0c 4d bf 3e da d5 25 be
       0.33773834 -0.32516462 0.3736347 -0.16194859
000100 c9 bd 28 3d 22 dc b0 3e 05 1d 85 3d a8 3f 32 be
       0.04119662 0.34542948 0.06499676 -0.17407095
000110 ba ed 31 3d 66 f5 c6 be 99 bc a3 3e d3 cd 81 3e
       0.043439604 -0.388591 0.31979826 0.25352344
000120 0c 0b 10 bf b5 e5 9a be f3 06 b5 3e 34 7e 2d be
       -0.56266856 -0.30253378 0.35356864 -0.16942674
000130 f7 ea c8 bd 95 3f 03 3e 6f 80 a6 bb cc 50 64 be
       -0.09810441 0.12817223 -0.0050812284 -0.22296447
000140 72 26 89 bc 97 1b 74 3d 88 05 cd be c7 04 0d bd
       -0.016741965 0.059596624 -0.40043283 -0.034428384
000150 cb 40 2c 3b 0d 42 5e be c0 42 d8 be b8 34 25 bc
       0.0026283737 -0.21704884 -0.42238426 -0.01008337
000160 39 98 ab 3e d6 98 0c 3f 4d 58 30 3d b6 71 03 3e
       0.33514574 0.5492071 0.04305296 0.12836346
000170 d0 b5 04 3f d0 8c 1d be 60 fe 9b be 01 3a f9 be
       0.51839924 -0.15385747 -0.3046751 -0.48677066
000180 c8 48 87 be 82 0b a3 3e a8 73 a6 3e 95 d5 aa bc
       -0.26422715 0.31844717 0.32510114 -0.020853797
000190 c8 44 40 bd c3 3e 36 3e 80 31 89 be ca 68 03 be
       -0.046940595 0.17797379 -0.26795578 -0.12832943
0001a0 b0 c4 d3 be 01 cc 18 bd b4 92 11 be 9f 6a 83 be
       -0.41360998 -0.03730393 -0.14216119 -0.25667283
0001b0 ce 4f 46 be 8f db 16 be d7 29 13 bd f3 66 9a be
       -0.1936638 -0.14732192 -0.035928573 -0.3015667
0001c0 64 6a 3b 3e 02 1a 83 3e 71 39 eb be a8 73 ad 3e
       0.18302304 0.2560578 -0.45942262 0.338773
0001d0 92 24 40 be 28 38 0f 3e e2 f6 df bd dd ad 22 3d
       -0.1876395 0.13986266 -0.10935761 0.03971659
0001e0 cb 83 b2 bd 74 be 1d 3d c4 49 6b be 46 01 82 3d
       -0.08716544 0.03851171 -0.22977358 0.06347899
0001f0 00 06 c8 be 00 16 2a bd ad 8c 1d 3c 17 21 06 3f
       -0.39067078 -0.041524887 0.009616059 0.5239424
000200 8b 3a 95 be 16 d0 8b be b8 4e 94 be 0c 44 72 3d
       -0.29146227 -0.27307194 -0.28966308 0.059146926
000210 95 84 18 bd f7 4d 87 be 62 a9 9a 3e 1b 23 d6 be
       -0.037235815 -0.2642667 0.30207354 -0.41823658
000220 f6 08 8e be 79 62 17 be 2f fb ac 3d 9f f4 80 3d
       -0.27741212 -0.14783658 0.08446347 0.06296658
000230 5d ea d7 bd d0 bc 4e be 56 e0 dc bd 4b 15 a4 3e
       -0.10542748 -0.20189214 -0.10784976 0.32047495
000240 cd 98 68 3d 75 3c 86 bd a6 41 2e be df a7 54 be
       0.056786347 -0.065545 -0.1701723 -0.20767163
000250 1c 54 c8 3e 95 49 68 3e 35 31 06 3f 50 25 12 3f
       0.3912667 0.2268432 0.52418834 0.57088184
000260 66 bd 2e 3f b7 48 ec 3e fd a3 bd 3d e6 4f 76 be
       0.6825775 0.46149227 0.09259794 -0.24053916
000270 94 fe b8 3d f9 66 5f 3e f0 e6 fa 3d 44 93 6d be
       0.09032932 0.21816625 0.12251079 -0.23200709
000280 f8 d1 3d 3b 6a 95 01 be e5 fb ee 3e b8 42 14 be
       0.0028964262 -0.12654653 0.46676555 -0.14478576
000290 07 1c f9 be e7 99 e0 bd 84 b2 0a bd db 14 aa bc
       -0.48654196 -0.109668545 -0.033861652 -0.020761898
0002a0 20 22 32 be 99 72 e4 3d c7 a9 35 be 97 2a 3a 3e
       -0.1739583 0.1115467 -0.17740546 0.18180309
0002b0 bc d0 06 be 18 fa 0e bf b4 0a a5 be d1 11 e0 3d
       -0.13165563 -0.5585036 -0.32234728 0.10940898
0002c0 7e 70 ae 3e ff 4e ce bb d5 02 88 be 2c 77 89 be
       0.340702 -0.006296038 -0.2656466 -0.26848733
0002d0 6d fb 90 3d 3e 4c 9c 3c f5 1e 81 bc 8f c2 a0 3e
       0.07079206 0.019079324 -0.015761832 0.31398436
0002e0 62 ce c9 3e f9 e9 6e 3e 0a 70 d8 be 79 5e ab be
       0.3941527 0.23331441 -0.4227298 -0.33470514
0002f0 b7 85 d1 3d 7f 7a 55 3c e8 06 96 bd 8e 56 06 be
       0.10230582 0.013029694 -0.07325536 -0.13118955
000300 12 97 d9 3d c3 6f c6 be 05 d0 85 3e 81 04 8f be
       0.106245175 -0.38757142 0.2613527 -0.27933124
000310 5c 0b 79 3e 2a 8e 8c be 70 0e 14 bf f1 e3 1d bf
       0.2432074 -0.27452213 -0.5783453 -0.61675936
000320 c0 7b b2 3e 82 7d 6e 3e e6 84 a8 3e 89 ec 5b be
       0.3486004 0.23290065 0.32913893 -0.2147695
000330 f4 f1 22 3e b4 85 6e bd fa 22 c0 be d0 65 c4 be
       0.1591261 -0.058232978 -0.37526685 -0.38358927
000340 28 1a 71 3e fe 89 08 be c5 b0 9f 3e a6 65 b8 3e
       0.23545134 -0.1333389 0.31189552 0.36015052
000350 2b 0c 4a 3d 1f 59 10 bf 83 cb 40 3e 86 4f 99 3e
       0.04932801 -0.5638599 0.18827634 0.29943484
000360 b1 e8 ec bd 1c ce 9c be ec f2 e2 be 30 3a 8d be
       -0.1156782 -0.30626 -0.4432596 -0.27583456
000370 39 a2 bd be 5d 82 96 3e 9d 35 11 3d 45 d6 1f bd
       -0.3703783 0.29396334 0.03545152 -0.039022703
000380 fb 4c d1 3d 36 c9 64 bc f9 dc a5 3e 77 31 42 3d
       0.10219761 -0.013963988 0.3239515 0.047410455
000390 a4 09 61 be 79 9a a4 be 45 b3 29 3e ec 91 a0 3d
       -0.21976334 -0.32149103 0.16572292 0.078403324
0003a0 2a 75 84 be 42 a3 63 3d dd 51 1d 3f d9 6f bf 3d
       -0.2587064 0.055575617 0.6145304 0.09347505
0003b0 f7 fe 8a 3e 79 a9 1f 3e ad da 86 3e 44 c5 d3 3e
       0.27147648 0.15591992 0.2633871 0.4136144
0003c0 4f a1 d0 3d 94 0b 5b be 39 ac 89 3c e2 8e c2 3e
       0.10187017 -0.21391135 0.016805755 0.37999636
0003d0 cb 28 8f 3d 8e cb 44 3e 31 75 27 3c c1 45 af 3e
       0.069902025 0.19218275 0.010220812 0.34232906
0003e0 73 ac 03 3f 93 1e c0 3e fc 92 5e be 46 d3 86 3e
       0.5143501 0.37523326 -0.21735758 0.26333064
0003f0 41 ba 61 3e f8 4c 35 be d6 49 cb 3e b7 f1 d7 3c
       0.22043706 -0.17705142 0.3970477 0.026360376

actor.0.bias f4 [32]
000000 87 34 6c be eb 43 19 3f 8e 73 b3 bd ad 13 f8 bb
       -0.23066913 0.5986926 -0.08762275 -0.007570705
000010 77 d8 84 be 0b a6 a5 be a9 2e 46 3e 34 9f 09 be
       -0.259464 -0.32353243 0.19353737 -0.13439637
000020 ca b8 b2 3d 8d bc 83 be 8f 13 3b 3e fb 1e 45 3f
       0.08726652 -0.2572979 0.1826918 0.770004
000030 06 40 e3 3d b2 3e 1c be 98 44 21 3d c5 55 6a bc
       0.11096196 -0.15258291 0.039372057 -0.014302676
000040 ab f2 89 3e da 31 96 be cc d3 19 3e 43 31 2f bd
       0.26942953 -0.2933491 0.150222 -0.04277159
000050 ee 45 c1 bd 08 df 09 be 01 c0 c4 bd 28 7e 9c 3e
       -0.09437166 -0.13463986 -0.09606934 0.30565
000060 79 12 02 3f c0 06 5b bd ef b5 d0 bc 28 83 2c 3e
       0.5080944 -0.053473234 -0.025477378 0.16846907
000070 9c f0 d0 be 3c 3f 0a 3f d1 d8 60 be fa 78 c3 3c
       -0.4080857 0.5400274 -0.21957709 0.023861397

actor.2.weight f4 [32, 32]
000000 f4 10 ea 3d 7b 00 2d bd ea 38 88 3d e2 75 39 be
       0.11429015 -0.042236786 0.066514805 -0.18111375
000010 99 be a6 be 3e 82 45 3e 4a ef 78 3e 04 c0 f4 3d
       -0.3256729 0.19287965 0.24310032 0.119506866
000020 8d dc 29 3e 79 20 16 be f8 4f 14 be 88 81 3e be
       0.1658804 -0.14660825 -0.1448363 -0.186041
000030 4b ba 2d be 5b 62 34 3e 5a b6 e3 bd 93 6e b6 bd
       -0.16965596 0.17615645 -0.11118765 -0.08907809
000040 39 d7 2b be df 08 7f be cd 7d 27 3e 5b 7f 84 3e
       -0.1678132 -0.24905728 0.16356583 0.25878415
000050 11 f5 cf 3e f1 86 51 bd 55 b8 df bc 4f ee d1 bd
       0.40616658 -0.05115408 -0.027309576 -0.10250532
000060 d6 57 92 be 97 8e 8d 3c 1c c8 a5 3e 4d e2 15 bf
       -0.28582639 0.017279906 0.32379234 -0.5854843
000070 5e e1 ff 3c 7f 02 90 3d 14 6c ce 3d 18 2b 9b 3b
       0.031235393 0.07031726 0.10079208 0.004735362
000080 e8 48 38 be ba 6a 03 3e 6b 16 0a bf d4 bc 9f 3d
       -0.17996562 0.12833682 -0.5394046 0.07799688
000090 c3 c6 89 3e 96 c5 b5 be 46 70 1c 3d 77 dc b9 3d
       0.26909456 -0.3550231 0.03819301 0.090752535
0000a0 7d bc 39 be 5a 56 dc be eb e5 a7 be 4f 0d a7 bd
       -0.18138309 -0.4303463 -0.327926 -0.08156835
0000b0 d9 59 f8 3d 01 b6 72 be 1c 7e 78 be d0 52 dc 3e
       0.12126512 -0.23702241 -0.24266857 0.4303193
0000c0 15 ca f0 bd 09 52 24 3e 73 88 14 3e 94 4a 21 3e
       -0.11757294 0.16046919 0.14505176 0.15751106
0000d0 ca 3a 2d bd f2 95 d0 3d e3 23 6c 3d 77 3c 5e 3e
       -0.042292394 0.1018485 0.05765141 0.21702753
0000e0 a8 84 89 3e 79 49 9b 3b 3d b7 c0 3e be 28 f0 bc
       0.2685902 0.004738983 0.376398 -0.029316302
0000f0 e8 9b bd 3d d2 04 2d be 23 ba 82 3e 9d 6f f6 3c
       0.092582524 -0.1689637 0.25532636 0.030082518
000100 75 13 50 be c6 46 2f be 36 16 96 3e a0 9e 2f 3d
       -0.20319922 -0.17116842 0.2931382 0.042875886
000110 9f 81 85 be d0 94 55 3b d3 6e b6 bd b1 65 35 3e
       -0.26075456 0.003258992 -0.08907857 0.17714573
000120 c2 98 89 3e a5 5c ea be 52 8e 44 3e 24 c1 db bd
       0.26874357 -0.45773807 0.19194916 -0.10730198
000130 b1 84 b0 3d 4a 8a 55 bd 69 4f 87 3d ca ba a4 3e
       0.08619059 -0.052133836 0.06606943 0.3217376
000140 f8 76 c3 be c4 04 ba bd 95 70 9f 3d b4 60 60 be
       -0.38176703 -0.0908294 0.07785145 -0.2191189
000150 90 ad 86 3e fe 2a 62 3b 03 86 57 be 62 f3 aa 3d
       0.26304293 0.0034510489 -0.21047215 0.08347203
000160 d5 61 2d bd b5 48 9a 3d 1c 9c d7 be 4a 5a 94 3c
       -0.042329628 0.07533399 -0.4211129 0.01810946
000170 d8 cb 94 be eb f4 45 3e cc fc 8d 3d 68 b0 6b bc
       -0.2906177 0.1933171 0.06932983 -0.01438532
000180 1c 59 e7 3d 9a 17 63 bd d6 be 15 be 14 49 8f 3e
       0.11296293 -0.05544243 -0.1462358 0.27985442
000190 c6 b5 1c 3e 5c bb d4 3d 2f 40 67 be 73 09 21 be
       0.15303716 0.103872985 -0.22583078 -0.15726261
0001a0 fb 59 8e bd 39 06 54 3e be 06 eb bd a4 f0 b9 bc
       -0.06950756 0.20705499 -0.11475895 -0.022697754
0001b0 f7 5c a7 3d be a4 0e bd 5e a5 14 3e a8 25 19 be
       0.081720285 -0.03482508 0.14516208 -0.14955771
0001c0 89 a6 57 bd 2f e3 fe 3d 60 2e cd bd 8d a4 b2 be
       -0.052649055 0.124456756 -0.10018611 -0.34891167
0001d0 1e f2 e0 3d 15 c0 7e 3e 54 19 81 be 59 12 cd 3d
       0.1098368 0.24877961 -0.25214636 0.10013265
0001e0 d6 fa 84 bc 99 dc d4 be eb 4d 2c 3e 26 83 0a be
       -0.01623289 -0.41574553 0.16826598 -0.13526592
0001f0 85 a9 94 be 21 32 3a be a5 40 9a 3e 87 b8 c8 bd
       -0.29035583 -0.18183185 0.30127445 -0.09800821
000200 da e4 33 bb d7 8e 37 be 2c 72 97 3d 45 7b 51 be
       -0.0027449639 -0.17925583 0.073948234 -0.2045718
000210 1b 3e 85 3e 1a 21 ac 3d 2d b7 db 3b 1a e2 89 3e
       0.26023945 0.08404751 0.006705186 0.26930314
000220 d2 58 19 3e 71 59 22 3e 66 de 75 bc c4 60 84 bd
       0.14975289 0.15854432 -0.015006637 -0.06463769
000230 60 52 bf 3d ba d3 51 be 5d e0 cf 3d d2 7b e0 be
       0.09341884 -0.20490924 0.10150216 -0.43844467
000240 2a 8c 08 3e cf cd 46 bd c8 5e 29 3e db 8c 22 3b
       0.13334718 -0.048536118 0.16540062 0.0024803195
000250 79 7d 8a be dc 63 b5 3e 18 90 6e 3e 01 63 4a 3d
       -0.27048853 0.3542775 0.23297155 0.049410824
000260 85 9d 7c be 2b ab 59 be a0 38 2f 3e d9 64 8e bd
       -0.24669464 -0.21256702 0.17111444 -0.06952829
000270 73 a1 75 bd f4 23 41 3e a6 22 9a 3e 38 c2 99 be
       -0.059968423 0.18861371 0.3010456 -0.3003099
000280 6e 1f f7 bc 17 b8 26 3e f5 01 f7 3d 0b 58 5b 3e
       -0.030166354 0.16281162 0.1206092 0.21420304
000290 fa bc 39 3e b4 60 19 3e cf 8a 5b 3c 84 48 82 bc
       0.18138495 0.14978296 0.013399794 -0.015903719
0002a0 39 9d c3 bd 36 81 e0 bd 1e 6d f2 3c 87 43 1f bd
       -0.09551472 -0.10962145 0.029593047 -0.03888276
0002b0 56 37 58 3e a0 57 32 3e 1d 43 cf 3d 0a 5f 09 be
       0.21114859 0.17416239 0.10120223 -0.13415161
0002c0 47 4b f0 bd b4 d5 d1 3c 2f fd e7 3b b5 b2 c3 bd
       -0.11733108 0.025614597 0.0070797424 -0.0955557
0002d0 c4 9d ea 3d 9d 2d 33 3e c1 87 ad bc 7e 34 22 3e
       0.11455873 0.17497869 -0.021182897 0.15840337
0002e0 8f 11 23 bd 8a a3 0a 3d 0b 77 de 3d 4d ea 41 3e
       -0.039811667 0.03384737 0.108625494 0.18937035
0002f0 34 36 38 3e cc f2 8c 3d 3c 85 ee bc bb 05 1c 3e
       0.17989427 0.06882247 -0.029116265 0.15236561
000300 44 1f 4f 3e ff d0 4f 3d e6 9b eb be 21 fa 22 be
       0.2022677 0.050736424 -0.4601738 -0.15915729
000310 e5 2e 6c 3e 14 a5 e7 3d 08 b7 57 3e c8 b7 eb bd
       0.23064764 0.11310783 0.21065915 -0.11509663
000320 f2 63 21 bd e7 34 d3 bb d7 c1 5c 3e 20 9b 57 bd
       -0.039401956 -0.0064455154 0.21558319 -0.052638173
000330 9c 5a 91 3d ee b1 b8 3c 0c 53 bc bd 3e 1f 53 be
       0.070973605 0.022545781 -0.091955274 -0.20617387
000340 25 2c 97 3e 71 a0 b9 bd 8d 2d e0 be 36 25 ee 3d
       0.29525867 -0.09063805 -0.43784752 0.11628191
000350 e1 91 2e 3e 35 9c 82 bd 42 fb 34 3d 34 b5 7b 3e
       0.17047836 -0.063774504 0.04418493 0.24580842
000360 0d 37 b8 3e 95 ba a1 be c5 98 98 bd 1c 1e da 3d
       0.359795 -0.31587663 -0.074510135 0.10650274
000370 c9 df fa be 7d 65 08 3e 46 79 a0 bd d7 c0 3a bd
       -0.4899886 0.13319965 -0.07835631 -0.045594063
000380 6a 49 cc 3d fe 41 a6 be 48 c0 21 bf 9c 53 1a be
       0.0997494 -0.32472223 -0.6318402 -0.15070957
000390 80 cc 80 be 46 2f 0e be 1f f8 0f 3e 40 1f 85 be
       -0.2515602 -0.13885221 0.14059494 -0.26000404
0003a0 7d 20 d8 3d b9 d4 13 3d b2 b3 8b 3e 16 78 20 be
       0.10553072 0.03609154 0.27285534 -0.15670809
0003b0 65 d6 c7 be f8 3a 4e 3d e6 f7 9e bc c3 9f 83 bf
       -0.39030758 0.050349206 -0.019405317 -1.028313
0003c0 a9 0f 04 bf 22 f4 4a be ff 8d a3 be 17 57 27 3e
       -0.51586396 -0.19819692 -0.31944272 0.16341816
0003d0 99 97 ee 3d 02 a9 e2 bd 94 d5 f8 3e ab c6 a5 3e
       0.11650009 -0.11067392 0.48600447 0.32378134
0003e0 c0 cd 38 bd 97 2f 81 bd f9 41 2b 3d 0f 45 da bd
       -0.045118093 -0.06307905 0.041810963 -0.10657703
0003f0 d1 cb 64 be 17 95 4c 3d 15 fe a6 bd 85 7e b0 be
       -0.22343375 0.04994687 -0.08153931 -0.34471527

actor.2.bias f4 [32]
000000 fe 5c bf 3d 9b 81 85 be 5c ff 8b 3e 9a 5d 70 be
       0.09343909 -0.26075444 0.2734326 -0.23473206
000010 e5 2c e5 bc d7 81 2f bd ed a2 16 3e 25 e7 ab bd
       -0.027975509 -0.042848434 0.14710589 -0.08393697
000020 b2 d6 1c 3d 4a b4 4f bd fa 46 7c 3d 82 c5 32 3e
       0.038290687 -0.050709046 0.061591126 0.17458156
000030 48 27 02 3e 60 69 52 bd 71 83 a9 bb e4 9b 09 3e
       0.12710297 -0.051370025 -0.0051731397 0.13438374
000040 4a 86 57 3e d5 f3 91 3d 41 ac 6f be 52 5f 0d 3b
       0.21047321 0.071265854 -0.23405553 0.0021571708
000050 1d bc 4d 3e 25 8f 6f 3d 7e b2 d4 bd 76 36 91 3d
       0.20091291 0.058486123 -0.10385607 0.07090466
000060 98 d4 b6 be db 8b a1 bc 8f 1a b9 3d 4a dc 83 be
       -0.3570907 -0.019720009 0.09038269 -0.25754005
000070 4d 7f 8d bd 46 c1 2b 3e 89 bf 7b bd e2 0a 87 be
       -0.06909046 0.16772947 -0.06146196 -0.2637549
