results/SandingEnvEasy/ddpg/model/model_parameters_1.pt (torch, 30338 bytes, 22 tensors)

value.0.weight f4 [32, 8]
00000000: c97b 0abe dc70 043e 5408 533e 5763 febd
00000010: f6f8 343e 593e 313d 7a7c 79bf 7034 0940
00000020: e0b3 0ebd fb11 893e b622 c73e fdec 30be
00000030: ded7 21be 870a 23be 6824 dd3e 26c3 ae3c
00000040: 678e c73d 6243 bb3e 6f9d 763e 8f02 c83d
00000050: c6e1 8cbd 6cef 893e 3faf d73f 14c4 60bf
00000060: 0a45 6ebd 63c5 4bbe 2d4d 123e d252 edbd
00000070: 341e 3dbe a62a b93c 39c4 323f f03d 78bc
00000080: 2eed b83c 3a11 883e 4c52 01be 40b7 8ebe
00000090: 6dd7 07bd 1a10 433e 089e 53bd 7608 e33e
000000a0: 4bbc 723d fe4e 603c 52e6 c7bd 3c5e 28be
000000b0: ff4a 2fbe 2122 533d b4dd dbbe bd34 2d3e
000000c0: c892 b2be 12c9 81bc 6072 bf3d dfc8 5f3e
000000d0: 15a1 a23e 77d8 72be c3e0 f03d 50a7 42c0
000000e0: a213 273c 314c a63d d9c7 f8bd dc51 5e3e
000000f0: 9235 cc3d 1c12 73be 29aa 443f da38 28be
00000100: b7be 163e 5eda 563e 38fd 20bc e4f4 7d3e
00000110: 1e6f 57bd fc0d fa3d 521b 443f 5709 613f
00000120: 3eda 843e 071f 8d3e 985f 513e 567a 993d
00000130: b3be 9c3e 2e21 363e c947 7cbf 2413 85be
00000140: f892 07bc 618b e9bd 7dd9 3bbe beed 613b
00000150: 5948 3dbe 5cfa dabd d6cd 303f 265d 1a3e
00000160: 34c8 4c3e 0ce1 0b3c dc10 203b b698 96b9
00000170: c448 5dbe f44e dc3c 216a 11bf 2c94 3cbf
00000180: 16b3 92bd 4339 3a3e 9545 78bb 7019 65be
00000190: ba80 11be 3398 48be ea63 2dbf 9b17 593f
000001a0: dac7 413e be13 5f3d 5a92 3dbd a5b8 93bd
000001b0: 61cd 02bd cbb8 05bd fbb8 39bf 20a2 de3d
000001c0: 698b c83d 4fe4 10be 85fc 913e ed95 84bc
000001d0: 5d8d 31be 2f76 993d 44d7 173f 5cf8 00bf
000001e0: 9b3c 2a3e 90e4 28bd 7b8b a03c dbac e63d
000001f0: c7b9 893c 9916 04bc 4191 603c a47f 52bf
00000200: f9d4 d3bd 8ab2 0dbe b92d 89bc 7fba 7d3d
00000210: cc16 92be 4b81 3f3e b965 9d3d bedf 16bf
00000220: 0770 033d 599a 233e b329 18bd 2fa2 aabe
00000230: daba 473e 2ebb ab3e 5d8a 55bd 70e6 42bf
00000240: 4d00 2f3e 1801 323e 9459 acbd c9ff 6c3c
00000250: 8310 3abe a20c ad3d ac80 6f3e 09c5 aebe
00000260: 36a7 22bc 626a 033d 6db3 4d3e 1b56 bbbd
00000270: 6efe 5a3e 3ac6 9ebe 6b2b 9e3d f702 be3f
00000280: fb13 36bc 8ef5 113d 79c1 dc3e 0e09 08bd
00000290: 46b8 78bd f687 203d 0d70 63bd 886e b93e
000002a0: ccf3 243e f884 5b3e 393c 60be 22e0 d0bd
000002b0: 91d8 ab3e 4b24 a83e 32fa 35bd c566 4abf
000002c0: e64d fcbd 8aab 893e 2df8 8b3c a831 a6be
000002d0: 17cc 75be 3544 a33e 5b36 a33f 0e2d 403d
000002e0: 4c3c 293d 934c 5ebe 5d13 81be f5a5 743e
000002f0: 8af2 973e 9ea5 723e f2c8 5a3f b0ad b93f
00000300: cd2b 9abe e810 a43d fb12 38bd 7489 fa3d
00000310: 35b2 8f3e 9572 a53e a634 aabf cb8e febf
00000320: c09f 0dbc bbd9 133e f3dc 263e d421 89be
00000330: e8b8 463e ff3a c5bd 0bc9 893e 9098 9c3e
00000340: 1257 b03d 11e7 9bbe 2531 973e 190e a1be
00000350: 4582 973e 9c9f c33d 655b 723e 0287 b13e
00000360: 4225 243e 46ec b33d 2bd5 85bc 4d56 223e
00000370: 8bcc 06be bdc2 c03e 1100 1e3f db4d 243d
00000380: 8846 1fbe 0774 91be 5195 a63d 049e 893d
00000390: 1bce 89be 1b8c 993e 28da 98be 4771 2c3f
000003a0: 2e5a 733e ac4b 70be 41df d2bd c938 4a3d
000003b0: 0f4a 483e 8dc7 9fbd 5bc7 253f 8deb b0bf
000003c0: d3ef 69be 65b3 97bd 855d 76bd ef25 1fbe
000003d0: 9dc5 df3d 558c 17be 86b5 e5bd f63b b8bf
000003e0: 3e0e 2bbe 9f94 19be ad54 803e cace 703c
000003f0: 0b05 d6bd 0660 b4bd 2d88 19bf 9c23 8ebf
-0.13523783 0.12933677 0.20608646 -0.12421291 0.17673096 0.04327235 -0.9745556 2.1438255
-0.03483951 0.2677153 0.3889367 -0.17277904 -0.15805003 -0.15921985 0.43191838 0.021333288
0.09743958 0.36574847 0.24083494 0.09766113 -0.06879 0.26940477 1.6850356 -0.8779919
-0.05817131 -0.19899516 0.14287253 -0.11588062 -0.18468553 0.022603344 0.6983066 -0.015151486
0.022574034 0.26575643 -0.1262905 -0.27874184 -0.03316443 0.19049111 -0.051664382 0.44342393
0.0592616 0.013690708 -0.09760727 -0.16442198 -0.17118452 0.05154622 -0.42942584 0.1691465
-0.3487761 -0.015842948 0.09347987 0.2185397 0.3176352 -0.23715387 0.1176162 -3.041462
0.010197552 0.08120001 -0.12147493 0.21710914 0.09971155 -0.23737377 0.76822144 -0.16427937
0.1472119 0.20981738 -0.009825997 0.2480045 -0.052596204 0.122096986 0.7660419 0.87904876
0.25947756 0.27562734 0.20446622 0.07494037 0.30614242 0.17786095 -0.98547035 -0.25991166
-0.008274786 -0.114035375 -0.18344684 0.003447398 -0.1848463 -0.106922835 0.6906408 0.15074596
0.19998246 0.008537542 0.0024424111 -0.00028724008 -0.21609789 0.026893117 -0.56802565 -0.7366359
-0.07163064 0.18185906 -0.003788327 -0.22372985 -0.14209262 -0.1958931 -0.6773058 0.84801644
0.18923894 0.054462187 -0.04628215 -0.072129525 -0.031934146 -0.032646935 -0.7254788 0.10870767
0.097922154 -0.14149593 0.2851297 -0.016184771 -0.17339082 0.07493245 0.59312844 -0.50378966
0.16624682 -0.0412336 0.01959776 0.11263438 0.016812218 -0.008062028 0.013706506 -0.82226014
-0.10343356 -0.13837638 -0.016745435 0.061945435 -0.28533018 0.18701665 0.07685418 -0.58935153
0.03208926 0.15976848 -0.037149142 -0.3332686 0.19504872 0.33541244 -0.052133907 -0.7613287
0.17089958 0.1738323 -0.08415523 0.014465281 -0.18170361 0.08449675 0.23388928 -0.341347
-0.0099275615 0.032083876 0.20087977 -0.09147283 0.2138612 -0.3101061 0.07723125 1.4844655
-0.011113162 0.03563457 0.43116358 -0.03321176 -0.06072261 0.039192162 -0.05552678 0.3621714
0.16108626 0.21437442 -0.21897973 -0.10199 0.33563665 0.3284019 -0.044428058 -0.79063064
-0.123195454 0.26888686 0.017086113 -0.3245976 -0.24003635 0.31887975 1.2750963 0.046917967
0.04131727 -0.21708898 -0.25210086 0.23891433 0.2967723 0.2369599 0.8546287 1.450613
-0.30111542 0.08011037 -0.044939976 0.12233248 0.2806565 0.32313982 -1.3297317 -1.9887327
-0.008644044 0.14438526 0.16295223 -0.2678362 0.19406474 -0.09630393 0.26911196 0.30585146
0.08610357 -0.30449727 0.29529682 -0.31456068 0.29591575 0.095519274 0.23667677 0.34673315
0.16029838 0.087853 -0.016336998 0.15853234 -0.13163964 0.37648574 0.6171885 0.04011331
-0.1555425 -0.28408834 0.081339486 0.06719592 -0.26915058 0.29989704 -0.2985394 0.6736035
0.2376487 -0.23466367 -0.102964886 0.04937056 0.19559501 -0.07801733 0.6475732 -1.3821884
-0.22845392 -0.07407264 -0.06014778 -0.15541814 0.109263636 -0.14799626 -0.112162635 -1.4393299
-0.16704652 -0.149981 0.25064602 0.01469774 -0.104501806 -0.088073775 -0.5997341 -1.1104617

value.0.bias f4 [32]
00000000: eab2 dbbe 2710 c13d bbed 0ebd 6243 2e3d
00000010: d830 33be 13d0 08be 365e b83e ae7d a0be
00000020: 9839 f83d c7ed c63c cd2c c6be b157 21be
00000030: 914c 7bbb 7ca3 9cbe 59ce 6f3e f54e 92be
00000040: 9c3c 04be 9580 f83d dd0b c43e 53be 64be
00000050: 4eec 0cbf 37a1 46bf 7507 86be 3ccc ef3d
00000060: b5b5 4ebd 19d9 233d ca3c 923d dc8d 893e
00000070: a7ab acbe 6cf4 9fbd 52c1 713c 039c ce3e
-0.42909938 0.09426909 -0.034894686 0.04254473 -0.17499101 -0.13360624 0.36009377 -0.31345886
0.1212036 0.024283303 -0.38706055 -0.15756108 -0.0038345198 -0.3059348 0.23418559 -0.28575864
-0.12913746 0.121339 0.382903 -0.22338228 -0.5504807 -0.77589744 -0.26177564 0.117088765
-0.050466258 0.040001962 0.07140501 0.26866043 -0.3372471 -0.07810292 0.014755564 0.40353402

value.2.weight f4 [32, 32]
00000000: c0c9 f33c 0a78 d9bc dd73 8a3d 208b b4bd
00000010: c204 c03d cfd0 603d c99a 52bb eafe dbbd
00000020: d83a 4f3d 22ba d2bc a552 c33c ee80 1abd
00000030: 62b3 64bd 1ece 033d 4d0f d8bd 9388 c83c
00000040: c95a 733c e237 4bbd 6ba9 2d3d 0d7e 273c
00000050: 7221 07be 6671 093e 2422 fb3d 669f 0f3e
00000060: 3a1a a93d 162a 31be 3d38 db3b 3f14 d9bd
00000070: 7d60 cf3d 0448 903c 5e34 223e 09eb cebe
00000080: 3e41 8f3e 3b28 ccbe b761 29bf 4155 8c3d
00000090: fe1f 16bd 3d78 513c 198e 9cbd 9407 b63d
000000a0: 3fa4 35bf 0a9e eb3e a2c4 4bbe 8c7e 41bd
000000b0: 2911 593e a7df 4c3e 2d3e c7bd 5bb0 f9be
000000c0: 2501 f13d 10d3 bf3d 2351 33be db2a fe3e
000000d0: dc52 f23d 29b2 5a3d 2c0f 55be 2c10 fc3d
000000e0: 8864 0fbe 349f 4dbd 56ac 07bd ce38 8dbe
000000f0: 0023 a03d 3c48 8bbd 09d8 77bd 956b 6bbd
00000100: e451 2cbe 3f90 0dbe 3bb1 7b3d 3570 0b3e
00000110: 4806 d4bd 6398 5d3e abc2 ce3d fe83 a33d
00000120: 41c4 463e f501 403a 9c08 c5bd 99dd b7bd
00000130: d5e2 c7be 692d 24be 45e4 ac3d b4d5 9a3d
00000140: 4cbf 17be 945c 5d3e 22df fbbd 32d8 bbbe
00000150: 873e f73d 711b 0c3d c6e2 93bd e8ce c93c
00000160: 19bd 133d d5f7 173d a9a3 fc3d 751f 3ebe
00000170: 1405 f2bd e79f e7bc fca2 523d d599 c0bd
00000180: 94e8 85be 039e 1d3d b908 623e f072 b53c
00000190: da87 8a3e c365 9b3d fcde 643e 3adb 843d
000001a0: f487 74bd af86 0fbe 4a4f 13be 1c2d 7dbc
000001b0: 99a7 e8bd 6cc8 4f3d db18 8b3d 690f 333c
000001c0: 0c92 3d3d 3ef8 93bd ddf8 6bbe 12d4 a4be
000001d0: 07d1 f8bd 65d3 913d 1d7c 8bbc 8758 563e
000001e0: cff5 8a3d ee88 2dbe 6404 1abd dd6d 05be
000001f0: efa7 47bc 8873 803d 641d 193d 94fa 0cbe
00000200: cc4f fa3d efe1 0bbe c970 96be a93e 833d
00000210: 4f83 533d 0c13 afbd b92f 103d f485 24be
00000220: 5fc3 3b3d d8ae 10be b262 f9bd 6b44 58be
00000230: c23c 9dbe abd3 04be 6335 fd3c 2067 7c3d
00000240: 5320 c53d 4274 903e 4167 2e3e 35b9 85be
00000250: 21a3 9b3d c325 69be f3f3 e73d a11b f13d
00000260: 1eaa 473e 2ee7 0c3e 70d1 bfbc b9f1 013e
00000270: 34ba febd 8fe2 0bbe e1d3 60bc b70e 0d3c
00000280: 2491 3dbe 0661 64bd ac03 573e 3cf5 aa3d
00000290: 4da5 0c3e ae9c fa3d 3f53 52be 3929 7abc
000002a0: 8697 03bd 7f1f 42bc 981c 883d d90c 633d
000002b0: 934f acbd 6c6d 0b3e 5e99 33be 2426 9c3d
000002c0: b668 f93c 3043 8c3d f69d 0ebd a82c 9bbd
000002d0: ba1e e63c 2ca5 b3bd 567d 4a3e e620 80be
000002e0: f37f 88be c63e 1b3e 3782 f3bc c8e3 df3d
000002f0: 7c80 d6bd e038 8d3c 2f4f 0cbe 009b 45be
00000300: 85ca 693e 68fb a2bc 7439 103e 2de7 153e
00000310: 8850 ddbd 996f 57bd 096b 99be b1a0 f6bc
00000320: 683a f63b f749 78bd 0d4b 21be dfbe 0a3d
00000330: 8b40 9c3c 39b3 a13d a9f2 f7bd 0047 acbd
00000340: e456 08be 1dc0 693e 1c66 dc3d a7ab ab3c
00000350: 8093 2d3d 52ca 26bd 94d7 073e dcff 9a3d
00000360: 0229 85bd f21f b3bd bb7d 303e c5d2 2bbe
00000370: 33f8 cc3d 85a1 35bd 9269 e93d e753 4cbe
00000380: 9667 dc3c b247 f53c eb90 fa3d 6ee7 bf3d
00000390: 5e88 803d 42cb 853d 3883 b0be 0caf bbbc
000003a0: cd1b c3bd c448 71be 7de6 cc3d 524c fdbc
000003b0: 72cb 0ebd 9b39 88bc 18dc d8bd 422d 923d
000003c0: 11d1 38be cd90 383e 5927 433d d36f b53d
000003d0: a4e4 46bd a8c3 4fbe e0d5 633e f832 043e
000003e0: b540 d2bd 8e77 8bbc 790b 853e 8608 e53c
000003f0: b080 1c3d 0938 6f3d e469 16bd e5a0 81bd
0.029759288 -0.026546497 0.067603804 -0.088155985 0.093759075 0.054886635 -0.0032135716 -0.107419804
0.050593227 -0.02572352 0.023843119 -0.037720613 -0.055835135 0.03217899 -0.105497934 0.024479186
0.014853188 -0.04961384 0.042397898 0.010222924 -0.13196352 0.13422164 0.12262371 0.1402565
0.082569554 -0.17301211 0.0066900537 -0.10599565 0.101258256 0.017612465 0.15840289 -0.40413693
0.27979463 -0.39874443 -0.66164726 0.068521984 -0.036651604 0.012785015 -0.076442905 0.08888164
-0.70953745 0.46019012 -0.19899228 -0.047239825 0.21197952 0.20007192 -0.09728656 -0.4876736
0.117677964 0.09366429 -0.1751142 0.4964207 0.118322104 0.053392563 -0.20806569 0.12307772
-0.14003193 -0.050200656 -0.033123337 -0.275824 0.07819176 -0.06800887 -0.06050876 -0.057475645
-0.16828114 -0.13824557 0.061448317 0.13617022 -0.103527606 0.21640162 0.10095724 0.0798416
0.19410802 0.00073245104 -0.09620783 -0.08977813 -0.39040247 -0.16032948 0.084419765 0.07560292
-0.14819068 0.21617347 -0.122984186 -0.3668838 0.12072473 0.034205858 -0.07220988 0.024634793
0.03606901 0.037101585 0.12335903 -0.18566687 -0.11817375 -0.02827449 0.051424965 -0.09404341
-0.26154006 0.03848077 0.2207364 0.022149533 0.27056772 0.07587769 0.22350687 0.06487127
-0.059699968 -0.14016221 -0.14385715 -0.015452649 -0.11360092 0.050728247 0.0679185 0.010928967
0.04628186 -0.07225083 -0.23044153 -0.32193047 -0.12149244 0.071203984 -0.017026955 0.20932208
0.067851655 -0.16946766 -0.037601843 -0.13030191 -0.012186035 0.06272036 0.037381545 -0.13767463
0.12222251 -0.13660406 -0.29382923 0.06408436 0.051638898 -0.08548555 0.035201762 -0.16066724
0.045840617 -0.14129198 -0.12177028 -0.2111985 -0.30710417 -0.1297137 0.030909246 0.061621785
0.09625306 0.28213698 0.17031576 -0.26117864 0.07599474 -0.22768311 0.113258265 0.11772848
0.19498488 0.13760063 -0.023415297 0.12689866 -0.12437859 -0.13660644 -0.013722391 0.008609465
-0.18512398 -0.05575659 0.20997494 0.08347556 0.13734932 0.122369155 -0.20539568 -0.015268617
-0.032126926 -0.01184833 0.06646079 0.055432174 -0.08413615 0.1361596 -0.17538974 0.07624462
0.030445438 0.068487525 -0.034818612 -0.07576877 0.028090823 -0.087717384 0.19774374 -0.250251
-0.26660118 0.15160665 -0.029725177 0.10932118 -0.10473725 0.017239034 -0.13702081 -0.19297409
0.22831161 -0.01989527 0.14084417 0.14638968 -0.10806376 -0.052596662 -0.29964474 -0.03010592
0.007514287 -0.060617413 -0.15751286 0.033873435 0.019073745 0.07895512 -0.121068306 -0.0841198
-0.13314396 0.22827192 0.10761663 0.020955874 0.042376995 -0.04072029 0.1326583 0.075683326
-0.06501962 -0.087463275 0.17235462 -0.16779621 0.10008278 -0.04434349 0.11397089 -0.19953881
0.026904862 0.029941414 0.12234672 0.093703136 0.0627601 0.06532909 -0.34475112 -0.022910617
-0.09526787 -0.23562914 0.100049 -0.030920181 -0.03486199 -0.01662903 -0.105888546 0.071375385
-0.18048503 0.18023987 0.047644947 0.088592194 -0.048557892 -0.2028948 0.22249556 0.12910068
-0.10266248 -0.017024782 0.25985315 0.027958166 0.038208663 0.05840305 -0.03672208 -0.06329516

value.2.bias f4 [32]
00000000: 0534 003e 3719 81be 893d d73d 7106 373a
00000010: 5ece c73e 6fd1 0a3e c18d 77be b8b1 22be
00000020: 35d0 6b3d 998e 343e 74b3 59bc 352b 50bd
00000030: 35f4 1f3e 5205 9bbd 86da 0e3c 8bf1 c5bd
00000040: 18f5 4bbc 13d2 8c3e e712 39be 456c 5cbe
00000050: f0da dd3d c98e 993d 33b4 813e c28b 153e
00000060: 51df 163e da9d c4bc a539 d63d f245 ddbd
00000070: a9d9 843d 66ff 51be 327f 013e b38c 573e
0.12519844 -0.2521455 0.10509784 0.0006981856 0.39024633 0.13556455 -0.24175169 -0.15888107
0.05757161 0.17632522 -0.013287414 -0.050822455 0.15620501 -0.07569374 0.008719092 -0.09665211
-0.012448572 0.27504024 -0.18073617 -0.21525677 0.10832775 0.07497937 0.25332794 0.14604095
0.14733626 -0.02400105 0.104602136 -0.10804357 0.06486828 -0.20507583 0.12646177 0.21049766

value.4.weight f4 [1, 32]
00000000: d497 043d d1af 0bbe 7673 ba3d f282 a4bd
00000010: 82b3 f13d 733b 713d a2f1 63bd 4709 52bd
00000020: 5907 4e3d 40ad 4a3d 8b66 a9bd 760d 4ebd
00000030: 7276 dd3c ece1 5cbd f8af 71bd bda1 0abd
00000040: 2641 2dbd 5ec0 803d 1a31 203b 40cc e7bc
00000050: 8409 ca3b fc98 273d 67d3 5e3e f318 933c
00000060: a4cb 8c3d 63a9 7a3d 1eb0 a4be 5b7e e6bc
00000070: 2fc2 b23d fe83 89bd 31c7 973d 19b0 ef3c
0.032371357 -0.13641287 0.09104054 -0.08032788 0.118018165 0.058894586 -0.05565036 -0.05127838
0.050299976 0.04948163 -0.08271512 -0.050305806 0.027034018 -0.053926393 -0.059005708 -0.033845652
-0.04229846 0.06286691 0.002444333 -0.028295636 0.006165685 0.04091738 0.21760331 0.017956233
0.06874779 0.061196696 -0.32165617 -0.028136423 0.08728444 -0.06714629 0.074110396 0.029258775

value.0.weight f4 [32, 8]
00000000: 9d52 08be 5490 043e 3f95 523e a263 f9bd
00000010: bd03 3a3e 5769 453d 465f 78bf 1143 0940
00000020: 5ad6 10bd 8670 893e 2d54 c63e 64b2 33be
00000030: d5c8 20be 7efb 21be 7a14 dd3e 09a3 c43c
00000040: 30de c43d 21f9 bc3e c0a8 753e fb27 c13d
00000050: 3eb4 8dbd ccba 893e 0861 d73f 839f 5ebf
00000060: f97f 6bbd 2d78 4dbe 0265 123e de10 edbd
00000070: 18a6 3cbe 8feb bc3c 4e9a 333f 127e 92bc
00000080: f6eb b83c b4cc 863e f83f 01be 22e9 8ebe
00000090: 2f4d 01bd a4b2 443e 4165 4abd 5ef1 e23e
000000a0: 55b3 753d 49dc 513c 6e06 c8bd 8774 28be
000000b0: 802f 30be 3290 4f3d bbd6 dabe 7378 2f3e
000000c0: 4a50 b2be dd31 80bc 0ae0 c03d a3ff 5e3e
000000d0: a45a a33e 6a65 71be 368b f03d 51bc 42c0
000000e0: bb03 283c 739f a73d 7353 f6bd 87ef 5e3e
000000f0: 0e63 cb3d 5f7b 73be 4b43 453f 7c49 25be
00000100: 8913 163e c0fa 573e c729 3dbc 79aa 7d3e
00000110: 7021 51bd d434 fd3d cf30 443f 092f 603f
00000120: 8c00 853e 82ee 8c3e 423d 513e 8334 9a3d
00000130: 7fc7 9c3e ca32 363e 0c8f 7bbf b658 83be
00000140: d4d6 ebbb 0667 e9bd d4a8 3bbe a7a0 993b
00000150: 786b 3dbe 9f40 dbbd 7a3b 313f 0c0a 1b3e
00000160: 4b54 4d3e 3d9b 0a3c f5fb 723b 2d9f 43ba
00000170: 5456 5dbe 51e2 db3c 38f3 11bf d453 3cbf
00000180: 8753 93bd 881e 3a3e 6968 84bb 540d 66be
00000190: e2dd 0fbe 5bf5 46be 5cd5 2dbf 10e3 583f
000001a0: eadc 423e 9ef4 5c3d e72e 3bbd 3ce2 93bd
000001b0: cd34 ffbc d285 02bd 7624 3abf 384e d73d
000001c0: d36b c73d 5a0a 10be f442 923e ec9a 78bc
000001d0: bd63 30be 68c9 9b3d e625 183f 5d77 00bf
000001e0: accf 2a3e 0038 28bd 76b0 a93c 61a6 e93d
000001f0: 8c35 843c 191f 0fbc 7b95 643c dbdc 51bf
00000200: 5b9a cfbd eb7d 0ebe 52ad 87bc 91ba 7e3d
00000210: eada 91be 00f9 3f3e bb52 993d a0ad 17bf
00000220: 207b fe3c 9494 223e 0d95 1abd cdb4 aabe
00000230: 76ba 473e caba ab3e 4980 4cbd 43d7 43bf
00000240: 940c 303e b6eb 2f3e 9901 adbd 6022 733c
00000250: fd44 38be a6a3 b03d ba32 6d3e 30cb aebe
00000260: 57c7 2cbc 635f 023d c303 4e3e 9e31 bbbd
00000270: 1ec0 5c3e 63e5 9dbe c7cf 953d 83f0 bd3f
00000280: 5168 37bc 8541 0e3d bf10 dd3e 5e60 04bd
00000290: 72cb 7cbd ca74 1c3d 4359 51bd 6879 bb3e
000002a0: b46e 243e f706 5c3e fc67 61be 53fb d0bd
000002b0: 91d8 ab3e 4b24 a83e 9a99 2dbd e466 4abf
000002c0: 5bfb fcbd 17a9 893e 2a71 7c3c 631a a6be
000002d0: c00c 76be e123 a33e fe37 a33f 320f 3b3d
000002e0: 77ba 273d ae66 5ebe ee25 81be fa9a 743e
000002f0: 26f2 973e 3aa5 723e ba93 5b3f bdb6 b93f
00000300: d60d 99be fb4d a83d cfca 34bd 259d fb3d
00000310: 35b2 8f3e 9572 a53e 3f47 aabf 3011 ffbf
00000320: 5501 16bc 9bd1 143e 220d 253e 9072 89be
00000330: e951 453e f808 c8bd 120f 8c3e da85 9b3e
00000340: f3d3 b23d bbd2 9abe ec02 973e 5467 a2be
00000350: bfa1 973e 741d c43d 7fb0 6f3e cad3 b03e
00000360: ef54 243e 7a7f b13d 8199 87bc 94d5 203e
00000370: 6d95 05be 455e c13e 5322 1e3f 94ce fe3c
00000380: fd40 1fbe 529f 91be 7c19 a73d 607e 8a3d
00000390: aac4 89be 8c95 993e 23b1 99be 5a97 2c3f
000003a0: dad5 743e e5f3 70be a045 d5bd b353 443d
000003b0: 7877 483e bd6c 9fbd f6a1 253f 7cb8 b0bf
000003c0: 26c5 6abe 42ce 97bd 448a 7cbd 6cc7 1fbe
000003d0: 34f2 e13d 0576 16be caf5 debd 2955 b8bf
000003e0: 8643 2bbe dc6d 18be 0f20 7e3e 234e 653c
000003f0: ba4d d6bd b5a8 b4bd acc0 19bf 09dc 8dbf
-0.13312764 0.12945682 0.20564745 -0.121772066 0.18165489 0.048196163 -0.97020376 2.1447184
-0.03536067 0.2684366 0.38736096 -0.1754852 -0.15701611 -0.15818593 0.43179685 0.024003522
0.096126914 0.3690882 0.23990154 0.09431454 -0.06919144 0.26900327 1.6826487 -0.86962146
-0.05749509 -0.20065375 0.14296344 -0.11575483 -0.18422735 0.023061542 0.70157325 -0.01788238
0.022573452 0.2632805 -0.12622058 -0.2791224 -0.03156775 0.19208771 -0.04941297 0.44324774
0.059985477 0.012808868 -0.09766851 -0.16450702 -0.1720562 0.050674625 -0.4274195 0.17135791
-0.3482688 -0.015648777 0.09417732 0.21777205 0.3190509 -0.23573843 0.117453024 -3.042744
0.010254796 0.081847094 -0.120276354 0.2177106 0.099310026 -0.23777531 0.77055806 -0.16141313
0.1465589 0.21091747 -0.011545605 0.24772061 -0.05105728 0.12363592 0.76636976 0.8757177
0.2597698 0.27525717 0.20433524 0.07529547 0.30620953 0.17792812 -0.9826515 -0.2565362
-0.0071972404 -0.11396603 -0.18326122 0.0046883407 -0.18498027 -0.10705685 0.6923138 0.15140551
0.20051686 0.008459863 0.0037076448 -0.00074623787 -0.21614963 0.026841315 -0.5701175 -0.7356541
-0.07193666 0.18175709 -0.004040767 -0.22466022 -0.14049485 -0.19429533 -0.67903686 0.8472147
0.19029585 0.053944223 -0.045699026 -0.07220885 -0.031153107 -0.031865902 -0.72711885 0.10512966
0.09737363 -0.14066449 0.28566706 -0.015173655 -0.17225547 0.076067746 0.5943283 -0.50182134
0.16680783 -0.04106903 0.020714026 0.114086874 0.016138814 -0.008735442 0.013951655 -0.81977624
-0.10136863 -0.13915221 -0.016562138 0.062189642 -0.2848733 0.1874733 0.07486483 -0.59249306
0.03106457 0.1587699 -0.037739802 -0.33341065 0.19504723 0.33540946 -0.04992703 -0.7650034
0.17192298 0.1717976 -0.0844757 0.014839739 -0.17995067 0.086249635 0.23163882 -0.34139395
-0.010545573 0.03182925 0.20118622 -0.09140323 0.21557662 -0.3083907 0.07315021 1.4839023
-0.011194305 0.034730453 0.4317684 -0.032318465 -0.061717458 0.038197316 -0.051110517 0.36616063
0.16057855 0.21487032 -0.22012323 -0.10204186 0.33563665 0.3284019 -0.042382814 -0.7906325
-0.1235263 0.26886818 0.01540784 -0.32442006 -0.24028301 0.3186331 1.2751462 0.04566879
0.04094931 -0.21718857 -0.2522425 0.23887244 0.29676932 0.23695841 0.8577229 1.4508892
-0.29893368 0.082179986 -0.044138726 0.12285832 0.2806565 0.32313982 -1.3302993 -1.992712
-0.009155591 0.14533083 0.16118291 -0.26845217 0.19269527 -0.09767336 0.27355248 0.30375558
0.08731832 -0.302389 0.29494417 -0.31719458 0.2961559 0.0957593 0.23407172 0.34536582
0.16048025 0.08666892 -0.016552689 0.15706474 -0.13045283 0.37767234 0.61771125 0.031104364
-0.15552135 -0.28441864 0.08159158 0.06762385 -0.26907855 0.29996908 -0.30017957 0.67418444
0.23909703 -0.23530538 -0.104136705 0.047931384 0.19576824 -0.07784412 0.6470026 -1.38063
-0.22926769 -0.074123874 -0.061655298 -0.15603417 0.11032525 -0.14693458 -0.10886724 -1.4400989
-0.16724977 -0.14885658 0.24816917 0.01399568 -0.10464044 -0.08821241 -0.6005962 -1.1082774

value.0.bias f4 [32]
00000000: 892c dcbe 211d bd3d b749 12bd ebc1 2e3d
00000010: d64e 32be 15ff 07be 104f b73e 446d a0be
00000020: 5e8d f73d e349 cb3c fd38 c6be 9f57 21be
00000030: 1384 6dbb 9f38 9cbe 2638 6e3e 02ff 91be
00000040: a72f 05be 17d0 fa3d 6e32 c33e 14f0 63be
00000050: 9bd2 0cbf f80c 46bf f517 86be ba00 ee3d
00000060: 6748 5cbd 7cb2 233d 2f39 8c3d 2cac 883e
00000070: ad52 acbe 1d3d a4bd def4 813c 6311 ce3e
-0.43002728 0.092340715 -0.03571483 0.042665403 -0.17412886 -0.132809 0.35802507 -0.31333363
0.120875105 0.024815505 -0.38715354 -0.15756081 -0.0036242052 -0.30511948 0.23263606 -0.28514868
-0.13006459 0.12246721 0.38124412 -0.22259551 -0.5500886 -0.7736354 -0.26190153 0.11621232
-0.053779986 0.039965138 0.068468444 0.26693857 -0.33656827 -0.08019469 0.015863832 0.4024764

value.2.weight f4 [32, 32]
00000000: b8a3 ea3c b5ce e0bc fd65 863d dea6 b3bd
00000010: ea02 bf3d f6c5 613d f595 0ebb c69e d8bd
00000020: 3d86 503d f2cc e0bc b664 c43c b8c9 17bd
00000030: da44 65bd dfbf 053d 8ee4 d8bd aade c73c
00000040: 6c66 803c ff8e 4cbd 6a27 2f3d 910b 103c
00000050: 2bf5 07be 0520 093e 0ff9 f83d 5a7e 0f3e
00000060: 5c32 aa3d 34cc 32be 0584 dc3b 45c6 dabd
00000070: c310 d13d 20f4 8f3c f850 223e 9da5 cdbe
00000080: 51f1 8e3e 1051 cdbe 1513 29bf 5860 8b3d
00000090: 9554 17bd 3f1d 5c3c 2b55 9bbd 15a0 b43d
000000a0: 6595 34bf be94 eb3e 42ed 4abe 786e 40bd
000000b0: 79f6 583e dc40 4d3e 07e1 c7bd eb63 f7be
000000c0: 8529 f13d e0f3 bf3d 82d2 32be dabf fd3e
000000d0: c122 f13d 5ea8 5a3d f9a5 55be 591c fd3d
000000e0: 1248 0ebe ccca 50bd 1ae1 0cbd f689 8cbe
000000f0: b033 a03d 58b2 8bbd 25d5 7bbd bfd4 6cbd
00000100: d806 2dbe 0265 0ebe 1946 7d3d 2ae4 0b3e
00000110: a6de d3bd 7b77 5d3e e554 d03d 10e2 a53d
00000120: 8d54 473e 9c1e 5339 63cc c4bd 7665 b8bd
00000130: 7eed c7be f97a 24be 9b10 ad3d 3991 9a3d
00000140: 0e3a 17be 453f 5d3e 4604 fcbd 2c76 bbbe
00000150: bb38 f63d dfe6 0a3d bc86 93bd aa6d cf3c
00000160: 037f 173d ce6c 1a3d e1d7 fc3d 10c5 3dbe
00000170: 16c4 f0bd d028 e9bc c19d 543d be13 c1bd
00000180: 6cef 84be e8e8 223d f536 633e f4af bd3c
00000190: 1b7a 8a3e e656 9b3d 51ac 643e 0915 843d
000001a0: 52a3 77bd 9e4e 11be 9344 13be 6370 80bc
000001b0: c111 e9bd 92e1 4e3d a29c 8c3d 0fb6 313c
000001c0: 6116 3f3d 0c51 94bd b653 6cbe 7e43 a5be
000001d0: 451a f7bd e6de 913d e3cb 8dbc 8c1c 563e
000001e0: 3513 8b3d e0d9 2dbe 4574 16bd e947 06be
000001f0: 0cfd 3ebc d1b5 803d 817e 193d 38e9 0bbe
00000200: 996e f53d a293 0bbe 3c35 98be bc34 833d
00000210: 69ab 4e3d 77b0 afbd 7378 113d d5b9 24be
00000220: 7ea9 3b3d e5d9 0cbe 663b f9bd 787f 51be
00000230: 0301 9ebe 1846 04be 6098 fd3c 66fd 853d
00000240: 4abf c53d 0ed1 8f3e d9a8 2d3e 1321 86be
00000250: 83c9 993d 9734 6abe d515 e53d 0f29 f23d
00000260: 159f 473e c67f 0b3e e704 c5bc f5af 053e
00000270: 54c1 febd 2814 0abe 39cc 5ebc d154 0c3c
00000280: e0f5 3cbe 5b35 61bd 07f0 563e 89df ac3d
00000290: ac8e 0c3e 55d1 fb3d 71be 4fbe 5992 77bc
000002a0: 848a 06bd a955 55bc f702 893d 56bb 653d
000002b0: 92d9 aabd a5f8 0b3e f3e8 32be fa03 9e3d
000002c0: 22ab 043d 8e0e 8c3d 1755 0dbd e3c2 98bd
000002d0: b8cc ee3c d114 b4bd 9992 4a3e fdc5 7fbe
000002e0: 9d77 88be 0d9e 1b3e 1481 e9bc 5893 de3d
000002f0: d2f0 d4bd 4a43 933c 56ca 0bbe 9aba 45be
00000300: 5042 6a3e 1a1f a6bc 361d 113e 7bb8 153e
00000310: 3f76 ddbd 685f 59bd d4da 98be b15f f0bc
00000320: 92c6 0a3c 4165 74bd ceae 21be 974a 0a3d
00000330: cbd1 973c 5c48 a13d c4ed f7bd 4a10 abbd
00000340: 4f01 07be 4de3 693e 9a54 dc3d d10a a53c
00000350: 7f7b 2b3d bace 25bd 056d 073e 98f8 9a3d
00000360: 01f0 82bd c3f2 b3bd e720 303e 8251 2bbe
00000370: abd0 cd3d 59f7 35bd 617b e93d 8032 4bbe
00000380: 959d ee3c ea34 fa3c 609e fa3d 3ba7 c03d
00000390: 3c54 803d 9c52 853d 75c7 afbe 7656 bbbc
000003a0: f5ce c2bd bac7 71be 0e1f cd3d 99b9 fcbc
000003b0: 4f85 0dbd 0439 8bbc 8258 d7bd de9a 933d
000003c0: e5f1 38be af63 383e b9bd 413d c58d b53d
000003d0: d58e 44bd 1315 50be be3a 643e 404f 043e
000003e0: 4180 d0bd 75e1 89bc ad02 853e d452 e13c
000003f0: 6d17 1e3d b1bd 6f3d 8993 14bd d79b 7cbd
0.02864252 -0.027442316 0.065624215 -0.08772062 0.09326728 0.05512043 -0.0021756862 -0.10577159
0.05090927 -0.027441476 0.023973804 -0.03705761 -0.055973865 0.032653686 -0.10590468 0.024398167
0.015673839 -0.04994106 0.042762198 0.00879182 -0.13277118 0.1339112 0.12156879 0.14013043
0.083103865 -0.1746071 0.006729605 -0.10682348 0.10208275 0.017572463 0.158512 -0.40165415
0.27918485 -0.40100908 -0.6604474 0.068054855 -0.036945898 0.013434707 -0.07584604 0.08819596
-0.7054046 0.4601192 -0.19817069 -0.04698035 0.21187772 0.20044273 -0.097597174 -0.4831842
0.11775497 0.09372687 -0.17463115 0.49560434 0.11774207 0.053383224 -0.20864095 0.123589225
-0.1389468 -0.050974652 -0.03439436 -0.27449006 0.078223586 -0.06821126 -0.061482567 -0.057820078
-0.16897142 -0.13905719 0.06183443 0.13661256 -0.10345201 0.2162761 0.10172442 0.080997586
0.19465847 0.00020133931 -0.09609296 -0.09003727 -0.3904838 -0.16062535 0.08450433 0.0754723
-0.1476824 0.21606167 -0.123055026 -0.36613595 0.12022539 0.033911582 -0.07203433 0.025320847
0.036986362 0.03770142 0.12345863 -0.18532205 -0.117561504 -0.028461844 0.05190826 -0.09427594
-0.25963914 0.039772898 0.22188933 0.02315519 0.27046284 0.07584934 0.22331358 0.06449325
-0.06045849 -0.14190146 -0.14381628 -0.01567859 -0.113803394 0.05050809 0.06865813 0.010846629
0.0466522 -0.07242021 -0.23078808 -0.32278055 -0.120655574 0.07122593 -0.017309135 0.20909327
0.06790773 -0.16977644 -0.036731977 -0.13113369 -0.011657011 0.06284679 0.03747416 -0.13663185
0.119839855 -0.13630536 -0.29728115 0.06406543 0.05045644 -0.0857858 0.03551526 -0.16086514
0.045815937 -0.13754995 -0.121695325 -0.20458782 -0.30860147 -0.12917364 0.030956447 0.065424725
0.09655626 0.28089184 0.16958942 -0.2619711 0.075091384 -0.22871624 0.11185805 0.118242376
0.19494279 0.1362296 -0.02405019 0.13055404 -0.12439218 -0.13484251 -0.013598495 0.008565144
-0.18453169 -0.054982524 0.2099 0.084410734 0.137263 0.12295786 -0.20287491 -0.015110576
-0.032846943 -0.013020911 0.066900186 0.05608686 -0.083422795 0.13669069 -0.17471676 0.07715602
0.032389767 0.068387136 -0.034504976 -0.07459047 0.029150352 -0.08793033 0.19782485 -0.2497787
-0.26653758 0.1519701 -0.028503932 0.10867947 -0.10397495 0.017976422 -0.13651404 -0.19309464
0.22876859 -0.020278502 0.141713 0.14621155 -0.10813569 -0.053069502 -0.29854453 -0.029342504
0.008470194 -0.059666876 -0.15789339 0.03376254 0.018532654 0.078751296 -0.12105897 -0.08352716
-0.13184093 0.22840615 0.10758324 0.02014676 0.041865822 -0.040480353 0.13225181 0.07566947
-0.06393433 -0.087865375 0.17200051 -0.16730312 0.10049566 -0.044425342 0.11400486 -0.19843483
0.029127875 0.03054281 0.12237239 0.09406897 0.062660664 0.06509897 -0.3433186 -0.022868376
-0.0951213 -0.23611346 0.10015689 -0.030850219 -0.03455096 -0.01699496 -0.105149284 0.07207273
-0.18061025 0.18006776 0.047300074 0.08864931 -0.047987778 -0.20320539 0.22288033 0.12920856
-0.101807125 -0.01683114 0.25978604 0.027505316 0.03859656 0.058530513 -0.036273513 -0.061672058

value.2.bias f4 [32]
00000000: 350b 003e 69c9 80be 4fa5 d63d 30fc a13a
00000010: a84c c73e 8f56 0b3e a9da 76be 800e 22be
00000020: 26b6 693d 14e6 333e a06c 6abc e01b 4fbd
00000030: 83e7 1f3e ee04 9bbd 738f 163c 0330 c5bd
00000040: c758 58bc 9a1b 8d3e 4d77 3abe 234a 5cbe
00000050: 194a dd3d 8c9b 993d 3691 813e 26bb 153e
00000060: 718e 153e 992a cabc 6f6f da3d c7c5 ddbd
00000070: 412e 833d d978 51be eeed 003e b519 573e
0.12504275 -0.25153664 0.10480749 0.0012358483 0.38925672 0.13607238 -0.2410685 -0.15825844
0.057058476 0.17568237 -0.014308125 -0.050563693 0.15615658 -0.075693 0.009189474 -0.09628298
-0.01320476 0.2756012 -0.18209572 -0.21512656 0.10805149 0.07500371 0.253061 0.14622173
0.14605118 -0.024678515 0.106657855 -0.10828739 0.064053066 -0.20456256 0.12590763 0.210059

value.4.weight f4 [1, 32]
00000000: 7138 033d dade 0abe da71 bb3d e27e a4bd
00000010: a8af f13d f19d 713d b12c 63bd a147 52bd
00000020: 7d97 4e3d 0ac1 4b3d 7667 a7bd 42c6 4dbd
00000030: b8e5 db3c 50e2 5cbd ee90 73bd f205 11bd
00000040: 889e 2fbd b24e 833d d67b 193b 667a e7bc
00000050: 7b8f c43b 6d9f 263d 34cb 5f3e 2805 8e3c
00000060: 9263 8d3d 771e 7b3d 5684 a6be 392a e7bc
00000070: 349a b23d 1c4d 89bd 02b6 983d 8601 f63c
0.03203625 -0.13561574 0.09152575 -0.080320135 0.11801082 0.058988515 -0.055462543 -0.051337842
0.05043744 0.049744643 -0.081740305 -0.0502379 0.026842937 -0.053926766 -0.059464388 -0.03540606
-0.042875797 0.06411494 0.002341976 -0.028256606 0.0059985495 0.040679384 0.2185486 0.017336443
0.06903757 0.06130835 -0.3252284 -0.028218376 0.08720818 -0.067041606 0.0745659 0.030030023

actor.0.weight f4 [32, 6]
00000000: faa5 83be 8009 aebe 3bd5 263d 7c23 edbe
00000010: 4dd8 a33e ee80 95be 53b1 38bf 85b6 10be
00000020: b7dc 823e 92f3 e3be 8b65 ddbd e72c 3c3d
00000030: 0c1f 25be f003 c4be ef6b 953e 604f 81be
00000040: 00cb efbc ebeb 50be fcf3 ed3e 88fd d1bd
00000050: f44a 583e 241c c5bd ea9a 813d db68 723e
00000060: 4a02 78bd f4e3 1c3f 90af f9be f4a3 b7be
00000070: 4b2b 60bc e147 aa3d 2953 c03e 6ac8 dbbd
00000080: 1618 09bf c046 9a3e e3a8 80be 9b4e d2bd
00000090: 005f b6be aa60 b53e 3d52 7f3e 6e76 fcbe
000000a0: d6da dd3d 1d80 edbd 0949 6f3c 9222 2a3e
000000b0: a506 f03e bf75 093f 7986 a2bd c180 93be
000000c0: fb71 333e 1522 983d e771 bdbe f4c2 bebe
000000d0: 2c96 b43e b870 f4bd 3ec8 233d 74c0 05be
000000e0: 0da9 033e 7530 d63e 8b57 d53d f4cd a0be
000000f0: 358f d9bd 8587 af3d e95b eabe d59d 633f
00000100: 1949 83bd 07b4 d83d 94bb 81bd 6dee 58be
00000110: fcc4 573f d075 e53d 5f2c b73b 8b51 613e
00000120: bc6b 99be 1a7d 0dbf 85ab a73d 0a9a 0cbf
00000130: 8b17 b53c 5e4e dd3e 4b63 a43e 8854 9a3e
00000140: e512 16be 6968 f9be cb03 0b3f db9b 9b3e
00000150: 45f9 ebbe 9f46 813e f17c b43e 1407 6abe
00000160: 2aaf 0ebe 189a 61bd 0210 3a3d e016 a93e
00000170: 1e37 12bf fb99 12bf 0d29 5f3e a820 423e
00000180: cfdb 89be 687c 0abd 5421 98be 49b7 dbbe
00000190: 67ab 4fbe 29f4 2fbe c6a3 ef3e 33d5 253e
000001a0: c90b c5bc 854c 8cbe 5d59 d93e aa0c 283e
000001b0: 26d7 e5bd 663a db3e f7e1 05bf cedf b9be
000001c0: 7e96 66be 80ae 5fbe 9c9b 033e cbac d53e
000001d0: 8eda b93e 4897 af3a 5a05 5bbe 2441 113d
000001e0: b61a 053c 84dc d73d 817d 67be ce7c a43e
000001f0: 5fdb e4be df07 9cbe efa0 88be 6ebb f4be
00000200: 166e 3ebe d409 473d 6296 c83e 3cad b03e
00000210: 848e 0fbc dde0 7ebe eca3 923d 8bb4 13bf
00000220: ac8b d0be d990 cabe 43c1 133f 1dbb 873e
00000230: dc60 95be 650c 7e3e 7778 d6bc faeb 123e
00000240: 384a 23bf e056 4e3e bce3 913e e5ad c53e
00000250: 695e 73be cb38 93be 4226 933e 438a 1a3e
00000260: c7d0 be3e 52b7 b43d 3e82 fb3d 7a62 023e
00000270: 7b79 f73e e3c7 a8bc 3a86 41bf d75c de3d
00000280: ab01 87be 3e54 653e 0984 28bf 4cac 343e
00000290: e29b b33d 1132 373e 9362 8cbe b4ad d63d
000002a0: 4c21 4d3e a26e c6bc 6874 25bf 3ff4 8b3e
000002b0: f7fc d13e f3f4 aa3e f4f6 123e 3b2e 2d3e
000002c0: 22eb 8e3e ac9f 09bf efb5 e83c 7335 5d3e
000002d0: 3476 a6be 1dd0 123e 1e21 333f edea 373d
000002e0: 3a6f 30be e9ef 1ebc aef7 3bbf ee95 41be
000002f0: f469 8e3d a164 cb3d 7910 0e3f 40e3 2c3e
-0.25712568 -0.33991623 0.040730696 -0.46316135 0.32000962 -0.29199928 -0.72145575 -0.14132126
0.25559017 -0.44521767 -0.108103834 0.04594126 -0.16125125 -0.38284254 0.2918391 -0.2525587
-0.029271603 -0.20402496 0.46475208 -0.102534354 0.21122342 -0.09624508 0.06328376 0.23672812
-0.060549058 0.6128533 -0.48766756 -0.35867274 -0.013682197 0.08314491 0.37563446 -0.10731585
-0.5355238 0.30132103 -0.2512885 -0.10268899 -0.35619354 0.3542531 0.24933715 -0.49309105
0.10832755 -0.11596701 0.014604815 0.1661475 0.4688007 0.5369529 -0.07935805 -0.2880917
0.17523949 0.07428376 -0.37000963 -0.37258112 0.35270822 -0.11935562 0.039985888 -0.13061696
0.12857457 0.41833845 0.10417088 -0.3140713 -0.10623018 0.0857077 -0.45773247 0.8891271
-0.06410427 0.105812125 -0.06334606 -0.21184702 0.8428495 0.112041116 0.0055900062 0.22003762
-0.29965007 -0.55269015 0.08187012 -0.54922545 0.022105953 0.43223852 0.32107005 0.30142617
-0.14655645 -0.4871247 0.5430266 0.30392346 -0.46088615 0.25249192 0.35251573 -0.22854263
-0.13934007 -0.055078596 0.045425422 0.33025265 -0.5711535 -0.57266206 0.21793003 0.1895777
-0.26925513 -0.03381005 -0.29712927 -0.42913273 -0.20280229 -0.17182983 0.46804637 0.1619461
-0.024053471 -0.2740213 0.4245099 0.16411081 -0.11222677 0.42817992 -0.5229792 -0.36303562
-0.22518346 -0.2184391 0.12852329 0.41733393 0.36299556 0.0013396526 -0.2138876 0.035462514
0.008124044 0.10540107 -0.2260647 0.32126468 -0.44698617 -0.30474755 -0.26685283 -0.47799248
-0.18596682 0.048593357 0.39177233 0.34507167 -0.008762006 -0.24890466 0.07160172 -0.5769736
-0.4073156 -0.39563635 0.5771677 0.26509944 -0.2917546 0.24809416 -0.026180489 0.1434783
-0.63785124 0.20150328 0.2849406 0.38609233 -0.23766483 -0.28754267 0.28740126 0.15091805
0.3726866 0.08824028 0.12280701 0.12732878 0.4833487 -0.020603126 -0.7559544 0.108575515
-0.2636846 0.22395417 -0.6582647 0.17643851 0.08769967 0.17890193 -0.27418956 0.1048235
0.20032233 -0.024222676 -0.64630747 0.27334782 0.4101331 0.33390006 0.14352018 0.16912167
0.27913767 -0.53759265 0.028407065 0.2160242 -0.32512057 0.14337201 0.6997241 0.044901777
-0.1722993 -0.009700754 -0.73424804 -0.1890485 0.06953803 0.09931303 0.55493885 0.16883564

actor.0.bias f4 [32]
00000000: 3d2c 00be 03ea f0be a192 393e 26fa b8be
00000010: 913d d03e c189 c0be 3a88 13bd 7ad4 92bd
00000020: 81ab 04be 184e 043f 854a 8b3e bfbd f93d
00000030: ee12 483e 2d5f 003f 03d4 eabe cb4b 563e
00000040: 5ea6 91be bc37 9cbe 306b 85be 0f08 37be
00000050: a204 293e 787d bb3e a3ca 473e d93c fc3e
00000060: bfb6 ae3e 8dea d2be c39c 8dbe 7557 dd3e
00000070: 4ff2 493e 6dd6 bd3d 7fa1 f73e dd69 d13d
-0.12516876 -0.47053537 0.1812234 -0.36128348 0.4067197 -0.37605098 -0.036018588 -0.07169433
-0.12956049 0.5168166 0.2720529 0.12194394 0.19538471 0.50145227 -0.45864877 0.2092735
-0.2844724 -0.30511272 -0.2605834 -0.17874168 0.16505674 0.36619163 0.19510894 0.49265173
0.341238 -0.41194573 -0.27658662 0.43230787 0.1972134 0.09269414 0.483654 0.1022527

actor.2.weight f4 [32, 32]
00000000: 2172 d23d 330d 27bd 4437 df3c 427f 213e
00000010: 3086 713e 2aa1 38bf 11c0 69be a602 18bc
00000020: 3fd9 56bd f91d 523e 917b 41be 0b8b ac3e
00000030: 369a 683d b299 1bbe ef69 02bd b4d7 5bbc
00000040: 55ae 97be 9828 83be 6d2d 85bd 40ae 11bf
00000050: 2c0f 8fbe 29d7 9abe 6106 583c 9149 42be
00000060: 3d4e 26be a367 6ebd b706 5fbf 4070 7bbe
00000070: 4404 d8ba 2601 1fbe d692 85be b715 a13d
00000080: 47a3 24be ab80 38be bd22 16bf b99c e83d
00000090: a96a 29bf 9573 f4bc aff0 b3bd 341a 6bbd
000000a0: a5d3 543d 0a5d 863c 0ca4 973d dce3 3ebe
000000b0: b5da 64be 8ee4 f53e 474e bebd 313d c1bc
000000c0: 5be0 033e 83eb 053d 1c3e edbd 5295 0d3f
000000d0: ec12 c4bd f19f ffbe b84d 12bf 8aa1 5f3e
000000e0: acf7 9ebe 5695 bc3d 341e 933e ae0d 14be
000000f0: 3f63 a33e 98ee 063f 0062 8c3e 3fb1 f0be
00000100: eb8d dd3c 9ba9 533c cd63 b7bd cce6 8d3d
00000110: 0628 a7be 0745 243e 108a 94bd 0f26 16bf
00000120: 7e42 11be 18c4 863e 8993 2dbe 0fd9 c53c
00000130: ec34 283b 268e 253d 24cd 2ebe b1c0 593e
00000140: 4c45 9abd e155 3e3e ffc6 c6bd f071 563e
00000150: 6054 d0be 8cf9 b63e baae 41bd 0b60 4bbe
00000160: 3949 9abe b7fb 88bd 55b1 143e 3412 12bf
00000170: 3a01 3ebe 97ed 783e c14e 87be dc7c 9b3b
00000180: d111 1fbd 7499 59bc 5d33 e3bc 6899 933a
00000190: b0f1 99bb 3e77 343e 6e2c cc3d db66 ebbe
000001a0: 330a 81be dbc8 703d 2517 363e ee5c 0abc
000001b0: d12a 323e 5213 1b3c 7165 c2be 3fea be3d
000001c0: af1f 33bd c73e 403e dd54 67be 1f5e c9bd
000001d0: ca57 1f3e eea1 6a3d 91ad 20be 2e3a 2b3e
000001e0: 3ff1 c7be 9c78 8b3d 4b94 863e ae2b c6be
000001f0: 76cb f33b 744f a83e ad52 083d 0073 ecbe
00000200: f8b3 18be 7e64 0a3d f920 253d fb01 91bc
00000210: 0b5d 683d a29b 0bbd 3818 d9bd 984f 8bbd
00000220: f9ac 11be ca78 d03d e468 9a3d 7892 07be
00000230: 4a8f 90be f07d 21be 55c6 373c 58c8 633d
00000240: f3c5 903d 23a1 9d3d 8152 bb3d fe94 78bd
00000250: 5466 38be 069c e8bd 3459 f8bd d47f 31be
00000260: 2d65 38bb 90ca 143e 77fa f7bc 8a23 53be
00000270: 9916 f4bd 8981 cdbd f9e9 3abe 8550 d1bd
00000280: 6180 e4bc 173b e1bd 2b34 80be 5195 8fbe
00000290: e407 a93d d8fe 933e b770 80bb b490 873e
000002a0: 81df 0dbe 252f c13d 6f0e 4bbd ef09 94bd
000002b0: 082c 0c3d cbd5 223e ba4e c03d ae1a 8ebd
000002c0: d41a 85bd d149 343e c2c8 2c3d e792 74ba
000002d0: 6af8 033c 9adc 573e 989b 5a3e 5e43 613e
000002e0: 3517 4f3e 49ad 32bd be98 b03e e765 8cbe
000002f0: c142 8c3e a192 a4be b3ab c0be df14 a43e
00000300: c82a 4dbf ffc3 0dbf 89db 883d b661 09bf
00000310: 314a 07be 2781 dd3d 320f 68be 2b20 093e
00000320: 6ced 96bd 2e97 0fbd 0482 6d3e 62d0 91bb
00000330: b605 e3be d135 89be f495 a4bd c9b1 c93e
00000340: ce9d b1bd 865d 4b3c 967e c83d 5447 e1be
00000350: bf2a 5f3e 35ba 6d3e 85f8 f1bc bbfa 173b
00000360: 88e5 0fbe 425d 77be a244 023e 59f7 64be
00000370: 10f3 5d3d 7060 2bbe 2e50 c0be 4971 4f3e
00000380: 181f 353e 1f2e 593d edde 13be e827 a6bd
00000390: 3c72 b1be f5a9 8b3e 301c d3be 4bfc e63c
000003a0: cda2 01be 9734 00be 3909 53be 381b da3e
000003b0: 9e55 4e3e e7bb 8e3c ba9a efbe 0d14 143c
000003c0: e3fb 343e 070c 2ebc d02f 263e b653 863e
000003d0: 506b ae3e d3b7 cd3c 0a6d 48bd 099a eabc
000003e0: 63b5 03be 369d 183e b3b6 ca3e 3ffb d9be
000003f0: db1a 81be 7af9 093e 942d 1bbd 5374 9d3d
0.102756746 -0.040784072 0.027248032 0.15771201 0.23586345 -0.72120917 -0.22827174 -0.009277975
-0.052453276 0.20519246 -0.18894793 0.3369983 0.056787692 -0.15195349 -0.031839307 -0.013418127
-0.29625192 -0.25616908 -0.06502805 -0.5690651 -0.27941263 -0.3024228 0.013185115 -0.18973376
-0.16240783 -0.058204304 -0.8711962 -0.24554539 -0.0016480763 -0.15527782 -0.2608859 0.0786547
-0.1607791 -0.18017833 -0.58646756 0.113580175 -0.66178375 -0.02984027 -0.08786141 -0.057398036
0.051959652 0.016401786 0.07404336 -0.18641609 -0.22349055 0.48025936 -0.09292274 -0.023588749
0.12878554 0.032695305 -0.11584112 0.5530597 -0.095739216 -0.49926713 -0.5714984 0.21838966
-0.31048334 0.09208171 0.2873398 -0.14458343 0.31911656 0.52707815 0.27418518 -0.47010228
0.02704521 0.012918855 -0.08954582 0.06928787 -0.32647723 0.16041957 -0.07252896 -0.5865182
-0.14185521 0.26321483 -0.16950811 0.024151353 0.002566631 0.040418766 -0.17070442 0.21264912
-0.075327486 0.18587448 -0.09705924 0.20941901 -0.40689373 0.35737264 -0.047285773 -0.19860856
-0.3013399 -0.06688636 0.14520772 -0.57059026 -0.18555155 0.24309383 -0.26427272 0.004745109
-0.03883535 -0.013281215 -0.027734453 0.0011260929 -0.004698001 0.17623612 0.09969412 -0.4597691
-0.25203094 0.0587853 0.17782266 -0.008445008 0.17399146 0.009465056 -0.3796802 0.09322023
-0.043731388 0.18773948 -0.22590967 -0.09832405 0.15560833 0.057283334 -0.1569121 0.16721413
-0.39051244 0.06810114 0.26285014 -0.387052 0.007440026 0.32873118 0.03328197 -0.46181488
-0.14912403 0.033787243 0.04031465 -0.01770114 0.056729358 -0.03408397 -0.106003225 -0.06802291
-0.1422614 0.10179289 0.075395375 -0.13239467 -0.2823432 -0.15770698 0.01121672 0.055610985
0.07069006 0.0769675 0.09146596 -0.060688965 -0.18007785 -0.11357884 -0.12126389 -0.17333919
-0.0028136477 0.14530396 -0.030270798 -0.20619026 -0.11918373 -0.100344725 -0.18253316 -0.10220436
-0.027893247 -0.109975986 -0.250398 -0.28043607 0.08253458 0.28905368 -0.0039196867 0.26477587
-0.13854791 0.0943282 -0.04957431 -0.07228457 0.03422168 0.15901868 0.09390016 -0.069386825
-0.06499258 0.17606284 0.042183645 -0.00093297515 0.008054832 0.21080247 0.21348417 0.21998355
0.20223697 -0.04362229 0.34491533 -0.27421495 0.2739468 -0.3214312 -0.37630996 0.32047173
-0.80143404 -0.5537719 0.06682498 -0.5366472 -0.13211896 0.108156495 -0.22662047 0.13391177
-0.073695034 -0.035056286 0.23194128 -0.00444989 -0.44340295 -0.2679887 -0.08036414 0.39393452
-0.08672677 0.012412434 0.09789769 -0.43999732 0.2179365 0.23215564 -0.029537449 0.0023190218
-0.14052403 -0.24156669 0.12721494 -0.2235998 0.05418688 -0.16736007 -0.37561172 0.20258059
0.17687643 0.0530225 -0.14440508 -0.0811308 -0.34657466 0.27278104 -0.41232443 0.028196475
-0.1265976 -0.12520061 -0.20608987 0.4259889 0.20149848 0.017423583 -0.46797734 0.009037984
0.17674212 -0.010622985 0.16229177 0.2623574 0.34066248 0.025112068 -0.048932113 -0.028637903
-0.12862162 0.14903721 0.39592513 -0.42574498 -0.25215802 0.13474074 -0.037885264 0.07688203

actor.2.bias f4 [32]
00000000: ef90 e83c 6b29 86be ac0c ff3d be6c 4bbe
00000010: a793 80be d18f ea3e 5e8e a73d 6d3e 4e3e
00000020: 3747 183d 5e78 1c3d 12a4 4fbe 0f92 883b
00000030: 958d 0d3e 1fa8 263e 4cfb 3fbc 7ecc 743e
00000040: c30e b23e 74ab 6bbe d19a f6bd 39db a8bc
00000050: aef4 38bd 4ce8 a23d b4c2 d4bc 6d30 66bc
00000060: 7252 583d acf9 2d3e ec3e 15be c15d f13d
00000070: 4166 ffbd 9711 a33d de0e 41be f05b 1e3e
0.028389422 -0.26203474 0.12453589 -0.198657 -0.2511265 0.45812848 0.08181451 0.20141001
0.03717729 0.03820073 -0.20277432 0.004167802 0.1382354 0.1627507 -0.011717629 0.23906133
0.34776887 -0.23014623 -0.12041248 -0.020612346 -0.04515522 0.07954463 -0.025971748 -0.014049632
0.052813 0.16989774 -0.14574784 0.1178546 -0.12470675 0.07962339 -0.18853328 0.15464759

actor.4.weight f4 [2, 32]
00000000: 61ed c93e c31e 083f 626e a5be ba1b 88bc
00000010: e6b2 a0bc 7d92 a5be 73a4 bebd 7a3f c4be
00000020: 0e41 0f3f df26 adbe 4466 4a3e f097 f83e
00000030: 1675 223f dc77 e5be ecc2 33be 3bbe 76be
00000040: dc00 763f e578 073e 39ff a63a ccc0 b83e
00000050: ce06 49be 6e33 603f 32a2 923f 5906 49bf
00000060: 1a89 a13e 53a5 64be 7cea a73e dc26 15bf
00000070: 91c6 2a3e 7256 2e3f f838 993f cf96 08be
00000080: 0ce6 a53e f441 e8be 3062 91be 5002 99be
00000090: 344d ba3d b127 923e 532a 37bf 8170 6fbe
000000a0: f36b 203e b25f f6be e60e 3c3e 1601 8b3e
000000b0: bd46 28bf d721 de3e f7b6 35be 56a3 c73e
000000c0: 3bbe b33e f786 aebd 8742 0dbf 7cb6 583e
000000d0: 9e6a 0bbe abfb 643f 7aaf 9b3e a1ab 0c3f
000000e0: 6a6c ebbe 4db6 313e 377e 6fbf baab 6fbe
000000f0: 045d 1dbe 3527 463e 4f7e 7ebe ea6a 3fbe
0.39438918 0.5317194 -0.32310778 -0.016614784 -0.019616555 -0.32338324 -0.0930871 -0.3832968
0.5595864 -0.3381872 0.19765574 0.4855342 0.6345991 -0.44818008 -0.17554826 -0.24096005
0.9609506 0.13229711 0.0012740857 0.36084592 -0.19631502 0.87578475 1.1455748 -0.7852531
0.31549913 -0.22328691 0.32796085 -0.5826242 0.1667731 0.68100655 1.197051 -0.13338779
0.32402074 -0.45362818 -0.28395224 -0.29884577 0.090967566 0.28545907 -0.71548957 -0.2338276
0.1566618 -0.48119885 0.18365058 0.27149266 -0.6573294 0.43385193 -0.17745577 0.38991803
0.35106072 -0.08521836 -0.5517964 0.21163362 -0.1361489 0.89446515 0.30407315 0.54949385
-0.4598115 0.17354698 -0.93551964 -0.23405352 -0.15367514 0.19350894 -0.2485287 -0.18693128

actor.4.bias f4 [2]
00000000: 4fed 49be d8cc 2dbe
-0.19719432 -0.16972673

actor.0.weight f4 [32, 6]
00000000: 9a3b 84be c7a3 adbe 661e 1d3d 5e71 ecbe
00000010: 1379 a33e 28e0 95be 9232 38bf 2df7 11be
00000020: 47fb 823e 3316 e5be 1092 dcbd e1d3 3d3d
00000030: f508 26be 6649 c3be 6b07 953e 61c6 80be
00000040: d2e4 01bd c56b 53be 5b25 ee3e 67e1 cfbd
00000050: c4ef 563e c7e5 c2bd 41a0 7f3d 6c83 713e
00000060: 0855 7dbd f25a 1c3f 910d f9be e79a b9be
00000070: d72d 81bc d501 a63d 69c8 c03e 173d ddbd
00000080: 17e7 08bf 4ad3 993e 82ac 7fbe 1604 cfbd
00000090: 7872 b4be 2c2d b63e 1666 813e f185 fdbe
000000a0: b2ea d73d 4170 f3bd 265b 763c c3ab 2a3e
000000b0: a3f3 f03e a6fd 083f c7ed a4bd a11a 94be
000000c0: 3e9a 323e 0978 9b3d 82f4 bcbe 95a0 bebe
000000d0: 7f8b b53e 6e9b f0bd 6f9d 223d bf2b 07be
000000e0: 7326 033e e36a d53e 0cdd d13d 93ac a1be
000000f0: ce85 d9bd 9515 b13d 5513 ebbe 8444 633f
00000100: 3a2b 7ebd 80e7 dc3d 94de 87bd 834b 58be
00000110: 891e 573f 5f5c e63d d8a5 e83b 55dd 623e
00000120: dd70 9abe 71f6 0cbf 9804 a03d e288 0cbf
00000130: d6e7 a73c 607b dc3e 3124 a63e 60ed 983e
00000140: 12a6 13be 35d8 f9be 4919 0b3f dec6 9b3e
00000150: 1c37 ebbe 7c8a 823e cbb5 b43e 5d74 6abe
00000160: 2525 11be 1272 6bbd b395 333d 94ad a93e
00000170: 0ab9 11bf 5989 12bf 414a 5e3e dc41 413e
00000180: 90db 88be 5453 10bd 0f0e 9abe 5942 dcbe
00000190: b227 4ebe 7470 2ebe 8cf1 ef3e 85a9 243e
000001a0: acc3 b7bc 0741 8dbe 1154 da3e 0e02 2a3e
000001b0: 3113 f0bd bb99 d83e c2b6 05bf e6f0 babe
000001c0: 334e 66be 3566 5fbe ea94 023e 8652 d53e
000001d0: 4136 ba3e 6845 19bb f880 58be ae52 1b3d
000001e0: ae55 013c 4f71 d73d 767b 66be 3056 a53e
000001f0: d221 e4be 524e 9bbe bae2 88be a79f f4be
00000200: 8da0 3dbe 34a3 453d fe95 c83e d8ac b03e
00000210: f6cb 0ebc 2de5 7dbe 7e71 923d c49a 13bf
00000220: 9f61 d0be cc66 cabe 87ff 133f 9e2d 873e
00000230: 7852 94be aae0 7d3e be6e d9bc 318d 123e
00000240: f8d7 23bf a7a8 4e3e 29c7 923e f730 c33e
00000250: 6891 73be 4c52 93be b8c4 923e 149e 1c3e
00000260: 921e be3e c386 ae3d 64ab f83d 06f7 003e
00000270: a58e f73e 90e5 a6bc 53a6 41bf 6977 dd3d
00000280: 5c21 87be d814 653e 3bcf 29bf 4844 303e
00000290: fc12 ad3d e4ef 333e c047 8dbe e118 d33d
000002a0: 7ef5 4d3e 6d04 d3bc cd5a 25bf 87a1 8c3e
000002b0: eeea d13e eae2 aa3e 6408 103e 2009 2e3e
000002c0: d789 8f3e aec7 09bf b75f f83c a52a 5f3e
000002d0: 16e8 a5be aa14 123e 385c 333f a3d0 3a3d
000002e0: 56cb 2dbe f062 e9bb bbb6 3bbf 1aec 42be
000002f0: 7626 8f3d 81c7 cc3d 1510 0e3f dce2 2c3e
-0.25826722 -0.33914015 0.03835907 -0.46180242 0.3192831 -0.2927258 -0.71952164 -0.14254446
0.25582334 -0.447435 -0.10770047 0.04634464 -0.16214354 -0.38141936 0.29107222 -0.2515135
-0.03171236 -0.2064658 0.46512875 -0.10150414 0.20989901 -0.09516483 0.06240869 0.2358529
-0.06184867 0.6107627 -0.48643163 -0.36250994 -0.015768928 0.08105818 0.376529 -0.108026676
-0.53477615 0.30044013 -0.2496815 -0.10108201 -0.35243583 0.35581338 0.25273198 -0.49516252
0.105428115 -0.11886645 0.01503638 0.16667084 0.4706088 0.53512037 -0.08053165 -0.28926566
0.17441651 0.07591254 -0.36905295 -0.3723189 0.3545799 -0.11748396 0.03970092 -0.13200282
0.12807636 0.4168311 0.102472395 -0.31576976 -0.10621224 0.086466946 -0.45913187 0.8877642
-0.062052943 0.107863426 -0.0663425 -0.21122555 0.8403097 0.11248087 0.0070998482 0.22154744
-0.30164233 -0.5506354 0.07813376 -0.54896367 0.02049629 0.43062878 0.32449487 0.29868603
-0.1441882 -0.48797765 0.5433546 0.3042516 -0.45940483 0.2549628 0.35294947 -0.22895952
-0.14174326 -0.057481833 0.043843936 0.33140242 -0.5692297 -0.57240826 0.21708013 0.1887278
-0.26730013 -0.035235718 -0.3008885 -0.4301937 -0.2013233 -0.17035085 0.46863973 0.16080292
-0.02243217 -0.27588674 0.42642263 0.16602346 -0.117224105 0.42304787 -0.5223199 -0.36511916
-0.22490768 -0.21816333 0.12752119 0.41664523 0.36369517 -0.0023387317 -0.21142948 0.037920646
0.007893963 0.10519659 -0.22508034 0.32292318 -0.44557053 -0.3033319 -0.2673548 -0.47778055
-0.18518277 0.048251346 0.39176935 0.3450687 -0.00871562 -0.24794455 0.07150553 -0.5765803
-0.4069948 -0.39531553 0.5781178 0.2640199 -0.2896917 0.24792734 -0.026542064 0.14311673
-0.6400142 0.20181523 0.28667572 0.38123295 -0.23785937 -0.28773725 0.2866571 0.15294677
0.37132698 0.085217975 0.12142065 0.12594232 0.48351017 -0.020373136 -0.75644416 0.10813791
-0.2639264 0.22371233 -0.66331834 0.17213547 0.084508866 0.1757198 -0.27593803 0.1030748
0.20113179 -0.025758946 -0.64591676 0.27466986 0.4099955 0.33376247 0.14065701 0.16995668
0.2803485 -0.5382031 0.030319078 0.21793611 -0.3240363 0.14265695 0.7006259 0.045609128
-0.16972098 -0.00712239 -0.733257 -0.19035378 0.06989758 0.0999899 0.5549329 0.16883415

actor.0.bias f4 [32]
00000000: 6751 01be db56 f0be 154d 383e a5f6 b9be
00000010: 01a9 cf3e dad2 bfbe fdb9 04bd 9318 95bd
00000020: 2a39 07be 2aad 043f 86e2 8a3e e31f f83d
00000030: 7809 463e 9560 013f fa90 eabe e724 553e
00000040: f12d 91be a12a 9bbe 7a42 87be 2858 36be
00000050: f694 293e df82 bb3e 9487 473e 5fc2 fc3e
00000060: 6435 ad3e c429 d4be 4427 8dbe a2b9 df3e
00000070: 67ff 493e 27b9 bb3d d2cb f73e fc2a d43d
-0.12628709 -0.46941265 0.17998154 -0.36320987 0.40558627 -0.37465554 -0.032403935 -0.07280078
-0.132054 0.5182673 0.2712595 0.12115457 0.1933955 0.50538 -0.45813733 0.20814858
-0.28355363 -0.3030596 -0.26417905 -0.17807066 0.1656073 0.36623284 0.19485313 0.49367043
0.33829796 -0.41438115 -0.2756902 0.43696314 0.19726335 0.091661744 0.4839769 0.10359761
