results/SandingEnvEasy/ddpg/model/model_parameters_43.pt (torch, 30366 bytes, 22 tensors)

value.0.weight f4 [32, 8]
000000 a6 de b6 bd 93 ee 9f bd 31 78 3c be 87 e2 9d 3e
       -0.089291856 -0.07809176 -0.18405224 0.3083689
000010 60 be 0a bc 6f 94 ac 3e 4d 20 66 3d 7b ad 59 3e
       -0.0084682405 0.33706996 0.05618315 0.21257584
000020 10 07 01 3e 94 0d c1 3d 12 54 8e 3e 30 2b 8c 3e
       0.1260035 0.09426418 0.27798516 0.273767
000030 ac 05 15 be c0 3f 65 be 31 ea b8 bd 51 6f 2e be
       -0.14552945 -0.223876 -0.090290435 -0.17034651
000040 0c b6 5c 3c 55 69 9f bd d8 ee bd 3b f8 f3 5c 3e
       0.013471138 -0.07783762 0.0057962947 0.21577442
000050 95 ff 83 be 16 1d d9 3d 18 78 7e bd 43 b7 de 3d
       -0.2578093 0.10601251 -0.06212625 0.10874798
000060 93 1d f3 bd 5b 09 04 be 07 0a 81 bb 1d 78 df bd
       -0.11870875 -0.12894194 -0.003937963 -0.10911582
000070 34 ac 00 3d 15 7d b8 3d 8e b1 98 bf 56 de a4 bf
       0.031414226 0.090082325 -1.1929185 -1.2880352
000080 7e 80 20 3e 91 11 ab 3e 4f 96 45 3e f0 20 35 bd
       0.15674016 0.3341184 0.1929562 -0.044220865
000090 99 16 75 3c cc a3 e4 bd b9 6f 06 3e 76 d3 e1 3d
       0.014959001 -0.11164054 0.13128556 0.11026661
0000a0 a7 d8 92 3e 0e cf 7d 3e cb e9 21 be a6 8d 34 bd
       0.28680918 0.24786016 -0.15811841 -0.0440804
0000b0 fe dc bc 3d a0 97 a2 be e1 32 29 3e d1 65 66 bd
       0.092218384 -0.31756306 0.16523315 -0.056249443
0000c0 13 66 81 bd f3 01 b7 3e ab 6b 38 bd 4e b6 25 be
       -0.06318297 0.35743675 -0.045024555 -0.16182825
0000d0 ee 78 4d be 1f 2f a3 3e f7 2a 9d 3e e3 04 d0 bd
       -0.20065662 0.31871888 0.30696842 -0.10157182
0000e0 04 7a be 3d f1 b6 83 3e 29 c5 c0 3d 44 68 23 3e
       0.093006164 0.2572551 0.09412605 0.15957743
0000f0 61 3f 12 3e 4f 0f 82 bd 02 96 3f 3e c5 02 9a be
       0.1428199 -0.06350576 0.18709567 -0.30080238
000100 19 ad 41 3e 12 6c 82 be c9 1c b1 be 6c 20 91 be
       0.18913688 -0.25473076 -0.34592274 -0.28345048
000110 25 18 85 bd 43 32 d3 3d 2f 42 c4 bd 15 3c d1 bc
       -0.06498746 0.10312321 -0.09582936 -0.025541345
000120 fc 4e ac 3e c5 db a9 be 6e 9e a3 3e 4d 7c c2 bd
       0.3365401 -0.33175483 0.3195681 -0.09496365
000130 82 32 90 3e 07 58 3d be 0d 10 8b bf 95 f8 01 be
       0.28163534 -0.18490611 -1.0864273 -0.12692483
000140 64 cb 57 be 71 7b 1e be 70 74 44 be f5 d8 2f 3e
       -0.21073681 -0.15476777 -0.19185042 0.17172606
000150 8a 73 ae be d2 cf c4 3d 78 1b b1 bf ae 1f db be
       -0.34072524 0.09609951 -1.3836508 -0.42797607
000160 98 c6 9b be 66 94 a9 be 01 7a df bd 60 19 ae bd
       -0.30424953 -0.33121032 -0.10911942 -0.08500934
000170 89 62 72 3d 70 08 a8 be a9 ba b6 3e 71 c7 42 be
       0.059176 -0.32818937 0.35689285 -0.19021393
000180 db b0 a1 bd 26 2d 4d 3e cf 57 36 3c cb f3 e5 3d
       -0.07895061 0.20036754 0.011129334 0.112281404
000190 69 fc a4 be 9a 70 47 3e a0 0c f7 bc b9 af 4d be
       -0.32223824 0.19476548 -0.030157387 -0.20086564
0001a0 a2 53 7d 3e ae 1e b0 3e 6b cc 8b bd cd a4 86 be
       0.24738935 0.34398407 -0.06826099 -0.26297608
0001b0 d9 96 01 3e 9e dd 50 3e 8a 9f 7b 3e 86 9f 81 be
       0.126552 0.2039704 0.24572578 -0.2531702
0001c0 85 3f 20 3d 99 bd b2 be 75 0a 29 3e 99 b9 f8 3d
       0.039123077 -0.34910277 0.16507895 0.12144775
0001d0 a5 ad 9e 3e 71 dd b0 be a1 bd 88 3f e9 2f 8c bd
       0.30991855 -0.34543946 1.068287 -0.06845076
0001e0 3c 25 a2 3e af 28 ef bc 14 5c ab be 3d 2d 6a bc
       0.31669033 -0.029194204 -0.33468688 -0.014293012
0001f0 70 eb 1c be 2d 58 01 3d fc bb 4f 3e 06 fc 0e bf
       -0.15324187 0.03157823 0.20286554 -0.5585331
000200 b0 20 10 be 9a df a4 3d 58 9d 63 be ef 31 47 be
       -0.1407497 0.08050461 -0.2222799 -0.19452642
000210 b2 be ea 3e 80 aa df 3c af 14 8a 3f 16 e1 a9 be
       0.45848614 0.02730298 1.0787562 -0.3317954
000220 36 af 25 bd f6 b0 9e be dc 0d ba bd 1f a3 c6 3c
       -0.040450297 -0.30994385 -0.09084675 0.024247704
000230 c5 25 56 be c1 2b 8f be 60 ce 2a 3f 4f 49 b9 3d
       -0.20912845 -0.2796307 0.66721153 0.09047186
000240 fe f7 f9 bc 43 6b 01 be 22 c2 09 3e b4 f3 6e be
       -0.03051376 -0.12638573 0.13452962 -0.23335153
000250 99 2e 38 be c9 b7 f4 bd 8b fe e8 bc b0 d0 25 3f
       -0.17986526 -0.11949117 -0.028441688 0.64771557
000260 b7 98 31 3d 0d 01 22 3d f6 2b bf bc ca c4 73 be
       0.04335853 0.039551783 -0.023336392 -0.23805538
000270 ad 47 8c be 7c d8 1f 3e 36 5d c8 be 34 09 35 3d
       -0.27398434 0.15609926 -0.39133614 0.04419823
000280 b1 5d 43 bd 1d ed 9c 3c 01 2e 7e 3e b7 21 88 3e
       -0.047696773 0.019156033 0.24822237 0.26588222
000290 e2 81 84 be 94 8e 4f be 11 30 38 bd 09 f9 81 bd
       -0.25880343 -0.20269233 -0.044967715 -0.06346328
0002a0 bc b2 99 3d 0f a7 a8 3e d3 c1 cb 3d 05 50 0d 3e
       0.07504794 0.32939956 0.099490784 0.13800056
0002b0 a1 a3 87 3e 1a 26 3c 3e 16 ff 0d bf 2c 75 94 3e
       0.26492026 0.1837391 -0.55467355 0.28995645
0002c0 0d a9 9c bd eb 15 bf 3e a6 5e 27 3e 9b 6d 83 be
       -0.076494314 0.3732141 0.163447 -0.2566956
0002d0 c1 11 e7 bc 5b 8d 54 3e 34 5d 13 bf 93 b6 7c bd
       -0.028206708 0.20757048 -0.5756409 -0.061697554
0002e0 2a 1b 3a bc bf 66 b5 3b 05 d6 0b be 16 65 61 3e
       -0.0113590155 0.00553593 -0.1365586 0.22011217
0002f0 4b a1 3f bd 19 7c 0a be 59 d4 da 3e 91 f2 53 be
       -0.04678468 -0.13523902 0.42740133 -0.20698
000300 72 f9 ce 3d d3 83 65 be d0 3a 4d 3e 11 62 40 be
       0.10106172 -0.22413568 0.20041966 -0.1878741
000310 f4 1d d6 bd 8b 9b 8e be 01 d2 82 3d e1 8b 3d be
       -0.10454932 -0.27853045 0.06387711 -0.18510391
000320 cb bd 26 3e a0 e1 1a 3e 32 13 9c be 40 b4 66 3e
       0.16283338 0.15125132 -0.30483395 0.22529697
000330 81 0a 5f be 64 30 0e be 00 c7 a3 3e c8 1d 7c be
       -0.2178135 -0.13885647 0.31987762 -0.24620736
000340 b9 89 04 3e db 41 e6 3d 0b 15 d8 bc ae 57 a3 3d
       0.12943162 0.1124303 -0.026377222 0.07975708
000350 01 3a a6 3e b5 ea 9c 3e 94 86 36 3e fa 14 82 be
       0.32466128 0.30647817 0.17824775 -0.2540663
000360 3c 09 01 3e 63 85 87 3e c9 bd 82 be dc 54 9b be
       0.12601179 0.26468953 -0.2553542 -0.3033818
000370 27 80 d5 3d 55 6c cd bd a0 9e 32 be 6d f7 90 bc
       0.10424834 -0.10030428 -0.17443323 -0.017696107
000380 02 47 fd bd d5 db 93 bc 66 01 b5 3e 41 b5 e1 bd
       -0.12367059 -0.01804916 0.3535263 -0.110208996
000390 6b 05 88 be 39 2c 78 3e 8e 4d 8d be a5 59 3f 3e
       -0.26566634 0.2423562 -0.27598232 0.1868654
0003a0 d4 06 91 3e e3 70 5d 3c 5e 5c 01 be 42 cd ce 3d
       0.28325522 0.013515684 -0.12632892 0.100977436
0003b0 ac 09 70 3d cc 43 f6 3d 5b 82 a2 be 43 4d f6 3e
       0.058602974 0.1202465 -0.31740078 0.4810582
0003c0 2b 1e cc bd 55 24 d3 3d c0 cd e0 bc c2 de 33 be
       -0.099666916 0.10309664 -0.02744186 -0.17565444
0003d0 81 fe 1f 3d d4 82 73 3e 0a c7 a7 be d6 22 5e 3f
       0.039061073 0.23780376 -0.32769042 0.86771905
0003e0 5f ae ca 3d 36 eb 6c be 37 bf 2c 3d 42 cf 8b be
       0.0989654 -0.23136601 0.042174544 -0.27306563
0003f0 3a 02 ce 3e 8c b6 21 3d a5 f6 45 3f 41 54 c7 3e
       0.40236074 0.03948073 0.77329475 0.38931468

value.0.bias f4 [32]
000000 88 36 9a 3e 7c c2 82 3e a6 ee 15 3e cb d4 91 be
       0.3011973 0.25539005 0.14641818 -0.2848266
000010 d8 1c 55 3e 58 7e 5d bd dd 75 c6 bd 88 6c 8c be
       0.20811784 -0.05407557 -0.096904494 -0.27426553
000020 6e 04 6f be 3c 80 87 be e3 1c dc bd b2 b9 fa bd
       -0.23341534 -0.26465023 -0.10747697 -0.1224245
000030 0d 4e 0c be 51 f2 fb 3d 53 99 1d be d4 b8 a6 bd
       -0.13701649 0.123020776 -0.1539052 -0.08140722
000040 4b e2 32 3e a3 1a 41 3e bc d6 c3 3e 95 fc 30 3e
       0.17469136 0.18857817 0.38249767 0.17283852
000050 0e b0 99 be bf c5 21 be 6f 6b 70 be 38 57 6b bd
       -0.30017132 -0.1579809 -0.23478483 -0.057456225
000060 a6 40 2b be ae 46 6b be 05 bd 28 bd 7d 2b 9d bd
       -0.1672388 -0.22976181 -0.041195888 -0.0767431
000070 7b e8 cf bd 95 36 a4 3e c3 8a d7 3d 0c 0f 69 3d
       -0.10151764 0.32072893 0.105245136 0.056899115

value.2.weight f4 [32, 32]
000000 32 73 c5 bb 2c 75 ea 3c b1 ea a7 3c a3 23 30 3c
       -0.0060256952 0.028620325 0.020497652 0.010750684
000010 a3 81 bf bc 68 bf 11 be f8 8f 1d 3e 54 32 05 3e
       -0.023377245 -0.14233172 0.15386951 0.1300748
000020 e6 09 a2 3c 4f d9 a7 bc ca 5b b9 3d ef 13 11 3d
       0.01978011 -0.020489363 0.090507105 0.0354194
000030 f0 8c dd bc 45 94 35 3d d1 aa 12 3d 41 d7 22 3e
       -0.027044743 0.044330854 0.035807434 0.15902425
000040 9d ae c6 3d 43 01 c4 bd fd fb 06 3e ad 81 35 bd
       0.097012736 -0.09570553 0.13182063 -0.04431312
000050 87 f9 b9 3d f5 19 a1 3d 76 31 d8 3d 59 20 ac 3c
       0.09080797 0.07866279 0.10556309 0.021011518
000060 27 de ba bb f4 64 2f 3e 7e 09 cb 3d 56 f6 fa bd
       -0.005702752 0.17128354 0.0991392 -0.12254016
000070 fa 14 e9 3d 29 bb 1c be cf bb 94 3c 2a dc c3 bd
       0.11380954 -0.15305771 0.01815596 -0.09563477
000080 71 9e 8b bc 05 48 e1 3c 16 22 11 3d c1 0e 92 3d
       -0.017043324 0.027500162 0.035432898 0.0713172
000090 c8 81 f9 bd 3c 72 2c 3e 31 a8 0b be 25 4f 0c be
       -0.12182957 0.16840452 -0.13638379 -0.13702066
0000a0 5d 09 98 3d 78 fb 00 3e c9 0a 8f bd cb 0a be 3d
       0.07423661 0.12595928 -0.06984479 0.09279402
0000b0 74 af 01 3d 11 49 13 be 32 0d 33 bd 23 50 db 3d
       0.031661466 -0.14383341 -0.043713756 0.10708644
0000c0 7b 03 14 3e b5 f9 16 3e 5c 70 a1 bd f2 d0 09 be
       0.14454453 0.14743693 -0.07882759 -0.13458613
0000d0 fe 8d 60 3d 09 ef 0c 3e f6 1e c4 3d 20 2d d7 bd
       0.054822914 0.1376306 0.09576218 -0.10506654
0000e0 a7 77 1e 3e e2 26 d4 bd f9 aa 3f bc 77 b9 73 bd
       0.15475331 -0.10358979 -0.011698478 -0.059503045
0000f0 cf 0f a7 bd 73 98 b9 bd 88 74 24 3e eb 1a 0b 3e
       -0.08157312 -0.090622805 0.16060078 0.13584487
000100 5a 57 2c bf 55 95 0f 3d f5 b6 30 be a0 11 0f bb
       -0.6732079 0.035054523 -0.17257293 -0.0021830574
000110 d1 8c ad 3d 42 b7 88 3d a8 b6 64 bd 58 2b 27 3e
       0.08474124 0.06675579 -0.055838257 0.16325128
000120 c8 bd 1f be 19 20 2b bc 48 6f 5a be 69 f5 2b 3d
       -0.1559974 -0.010444664 -0.21331513 0.04198209
000130 a4 0d 60 be e3 a1 1c be 24 88 ce 3c f6 c8 e8 3a
       -0.21880203 -0.1529613 0.025211401 0.0017760086
000140 62 da 4d 3e 82 b4 33 3c e8 90 98 bd a8 c3 cc bd
       0.20102838 0.010968329 -0.07449514 -0.09998256
000150 35 d8 95 bd 4a c7 d9 bd b3 a1 3e be e3 c5 0e 3d
       -0.07316629 -0.106337145 -0.18616371 0.03485669
000160 1a d2 3a 3e 95 d0 2c be 60 bf a4 bb de 93 9e bd
       0.1824421 -0.16876443 -0.0050276965 -0.07743047
000170 5a b4 eb bd 53 ec c0 bd 91 a9 0c 3e 75 96 e8 3d
       -0.11509009 -0.09420075 0.1373656 0.113568224
000180 5f c4 a0 3d 2f 20 92 3b b2 f5 df 3c 18 52 ab bd
       0.07849955 0.004459403 0.027338836 -0.083652675
000190 e4 3a 41 3e 78 51 eb 3d d7 80 99 3d 8e 28 9b bd
       0.18870121 0.11490148 0.074952774 -0.075760946
0001a0 6a 18 11 be 42 21 f6 3d c9 fa 95 bd 66 cd 67 be
       -0.1416947 0.12018062 -0.07323224 -0.22636947
0001b0 38 23 a2 3d 5c ca f2 3d 04 1a 40 3e 79 f0 9c 3d
       0.07916874 0.11855003 0.18759924 0.07663054
0001c0 9b b3 b4 3d cd a1 11 3e 7e 17 a8 3d 5b 06 28 3e
       0.088233195 0.14221878 0.08207606 0.16408674
0001d0 e8 72 03 be 28 2c 24 be 0e 9e 36 3d 2a 39 02 3e
       -0.12836802 -0.1603247 0.044584326 0.12717119
0001e0 f5 22 04 3d 23 7d 1e 3d d0 8c 03 be 22 46 10 bc
       0.0322599 0.03869356 -0.12846684 -0.008805783
0001f0 a7 7b 08 3e d8 91 b9 bd 5e ce 38 bc 52 50 39 be
       0.1332842 -0.090610206 -0.0112796705 -0.18097046
000200 04 86 fd 3d 22 1c 40 bd f1 87 23 3e 59 fc 4e be
       0.12379077 -0.04690183 0.15969826 -0.2021345
000210 20 12 bc 3d 7f 02 f6 3d 3a 1d 4e bb 8f 13 e0 bd
       0.091831446 0.12012195 -0.0031450526 -0.109412305
000220 94 74 b6 3d 77 3c 84 bc 56 ee d9 bb 90 09 d8 bc
       0.08908954 -0.016142113 -0.0066507263 -0.026371747
000230 ed 78 1a 3e 75 4e 77 bd f4 e6 06 bd 54 96 59 3d
       0.15085192 -0.060377557 -0.032935098 0.05312188
000240 68 5e 89 bd ad d6 0e be db 97 e6 bd 2e 75 fa bc
       -0.0670746 -0.1394908 -0.11259433 -0.030573454
000250 dc 1c ba bd e2 44 0e be 37 e3 ff 3d e2 a5 b8 3d
       -0.09087536 -0.13893464 0.1249451 0.09016015
000260 88 2b 48 3d 9d 90 04 be 7c b2 06 be b1 bd 12 be
       0.04886964 -0.1294579 -0.13154024 -0.14330174
000270 a0 3c 04 3d e7 94 a5 3d be da 1f 3e cf 7f 04 3e
       0.03228438 0.080850415 0.15610787 0.1293938
000280 51 e9 47 3e 99 8f 00 3e e2 91 6b 3d 01 d2 f9 3d
       0.19522597 0.12554778 0.05751217 0.12198258
000290 df e1 8d bd 20 a8 b2 bd d5 70 38 3e e7 3b cd 3c
       -0.06927847 -0.087234735 0.18011792 0.025052978
0002a0 d8 70 ea 3d 51 6f cc 3d a8 e2 22 3e ab 74 99 bd
       0.114473045 0.099821694 0.15906775 -0.07492956
0002b0 98 c1 a0 bb 5a 48 a1 bd 47 e0 bc 3c 45 94 99 3c
       -0.0049058907 -0.07875128 0.023056163 0.018747458
0002c0 a8 20 b7 bc d6 f2 db bc 76 79 ac 3d 0f c2 87 bd
       -0.022354439 -0.026849192 0.08421604 -0.066288106
0002d0 51 5d b9 bd 48 d7 11 3c d4 04 44 be 07 96 54 bd
       -0.09051002 0.008901425 -0.19142467 -0.05190089
0002e0 f0 33 6d 3b 3b b3 eb bd 1c 16 d9 bd 05 3d 93 bd
       0.0036194287 -0.11508795 -0.1059992 -0.07189373
0002f0 bb ad 08 be fd 7e 59 be af dc 09 3d 5b ab 07 3e
       -0.13347523 -0.21239848 0.033657726 0.1324896
000300 f8 c0 f1 3d f9 46 55 bd 59 3c f4 bd 64 2b 09 3e
       0.11804384 -0.052069638 -0.11925573 0.13395458
000310 08 c8 e6 3c f7 8a 06 be b7 90 17 bd db c9 05 3e
       0.028171554 -0.13138948 -0.037003245 0.13065283
000320 e1 92 f7 bd 90 90 bc bd ba 92 af 3d 2c 50 af bc
       -0.12088562 -0.092072606 0.08572908 -0.021400534
000330 62 59 19 3e 09 ad 8f 3d ea 4f 14 3e eb 03 b2 bc
       0.14975503 0.07015426 0.1448361 -0.021730384
000340 64 a2 2a be 6e 27 02 bd 6a 1a ed 3d 71 17 78 3d
       -0.1666351 -0.031775884 0.11577304 0.06056923
000350 b9 4f bf 3d cb cd b3 bd f0 6b 1f 3e 61 eb 85 bc
       0.09341378 -0.08779486 0.15568519 -0.016347589
000360 9a f3 94 bd 5f 74 da bc cb d3 ef bb 22 de c1 bb
       -0.07273026 -0.026666818 -0.007318949 -0.005916373
000370 92 81 08 bd da 8d 45 be 50 3c b3 bd 9a 0a 4b be
       -0.033326693 -0.19292393 -0.08751738 -0.19828263
000380 25 5b 28 3e c6 1b 6e 3c a0 a7 0c 3e 34 b3 11 3c
       0.16441019 0.014532989 0.13735819 0.008892823
000390 46 b7 a8 3d f8 b8 a3 bd e3 48 1e 3c a2 6a d2 3d
       0.08238082 -0.07994264 0.009660932 0.10274245
0003a0 05 2b 01 3d f4 3b 1e 3e 39 e3 82 bd a7 2f e0 bd
       0.031535167 0.15452558 -0.063909955 -0.10946589
0003b0 8f 83 bc bc ff 6c 11 3e a1 b0 9d 3c 12 27 a1 3d
       -0.02301195 0.14201735 0.019249262 0.0786878
0003c0 9a 32 be 3b ad 19 18 be 47 5f 07 3d d2 c0 95 bd
       0.005804372 -0.14853545 0.033049848 -0.07312168
0003d0 41 73 13 bd d9 18 93 bd d8 1d 07 3e 98 a5 8a bd
       -0.035998587 -0.07182474 0.13194978 -0.06769866
0003e0 c1 97 c6 3d 99 ce 70 bd e9 4e d9 3d 11 42 27 be
       0.096969135 -0.058790777 0.10610754 -0.16333796
0003f0 fd e7 0b 3e 95 55 f9 3d f5 17 a9 3d 6e 42 0a 3e
       0.13662715 0.121745266 0.082565226 0.13501903

value.2.bias f4 [32]
000000 6d 8f 19 be 6e 79 a2 bd 0a 43 ff 3d fe 2f 42 be
       -0.14996119 -0.07933317 0.124639586 -0.1896362
000010 27 16 fe 3b 46 d8 e0 3d d7 1a 2f 3e 83 b5 cf 3d
       0.0077541056 0.10978751 0.17100082 0.101420425
000020 d1 81 fe bd c6 05 0a be d0 92 2d bd 1e 6c 5a 3d
       -0.12427104 -0.13478765 -0.04237634 0.053325765
000030 ce 6b b3 3d 97 91 9a 3c 67 24 8d bc b5 d0 e6 bd
       0.087607965 0.01886825 -0.017229272 -0.112702765
000040 47 9e 6a ba 1d 35 ed bd 04 f4 29 3e ec c8 14 be
       -0.0008949977 -0.11582396 0.16596991 -0.1452977
000050 ca 06 2d bc c9 f9 99 bd 7f 4d 5a 3c 2e 81 24 bd
       -0.010560701 -0.07518346 0.013324141 -0.040162258
000060 ab fe 22 be d0 90 16 3e fc 48 e9 bd 5f d9 a4 bd
       -0.1591746 0.14703679 -0.11390874 -0.08049273
000070 22 57 e5 3d 81 e9 93 3c 2d 70 27 3e e7 6d 88 3d
       0.1119826 0.01805568 0.16351385 0.06661587

value.4.weight f4 [1, 32]
000000 08 27 5f bd bd a2 55 3d ac 65 b9 be 76 23 0d be
       -0.054480582 0.052157152 -0.36210382 -0.13783059
000010 c7 d6 3b be 39 fa 08 3e 11 38 91 bd 82 75 e8 3d
       -0.1834365 0.13376702 -0.07090772 0.11350538
000020 e2 9f 26 be 92 46 36 bc 90 1d 8a bd b1 06 0a 3e
       -0.16271928 -0.011125224 -0.0674392 0.13479115
000030 77 81 c2 3d 0d 0d c0 bd fe 87 9e 3d 88 c9 0a 3e
       0.0949735 -0.09377489 0.07740782 0.1355344
000040 92 9e ed 3d 4a 2c e9 bd be 85 c6 bd 38 c4 de bd
       0.116025105 -0.113854006 -0.09693478 -0.108772695
000050 fd fe 37 bd fb 43 20 be 19 a0 04 3e 13 d2 80 3d
       -0.04492091 -0.15650932 0.12951697 0.062900685
000060 1f ad 12 bf 4f 9b 89 3d 77 a3 43 be af c9 a4 3d
       -0.5729541 0.06719076 -0.19105326 0.080462806
000070 20 1d 96 3e fd 93 ae bd 56 78 e0 3d 9f 31 26 3e
       0.29319096 -0.0852432 0.10960452 0.16229866

value.0.weight f4 [32, 8]
000000 ec 23 b3 bd e4 9b 9d bd 18 7e 3d be 1c d4 9d 3e
       -0.08747086 -0.076957494 -0.18505132 0.3082589
000010 60 be 0a bc 6f 94 ac 3e 5b e9 51 3d 05 ac 59 3e
       -0.0084682405 0.33706996 0.051247936 0.21257026
000020 a4 23 00 3e 3c fe c2 3d 6f f7 8d 3e cb 66 8c 3e
       0.12513596 0.095211476 0.2772784 0.27422175
000030 27 e9 15 be 3b 23 66 be b7 99 bc bd 77 ff 2c be
       -0.14639722 -0.22474377 -0.09209006 -0.16894327
000040 9c 2b 62 3c 3c 05 9f bd 0e 21 bd 3b 9c c6 5c 3e
       0.013804343 -0.0776467 0.0057717627 0.21560138
000050 c7 fa 83 be 61 30 d9 3d a1 2b 7b bd 21 cd de 3d
       -0.25777265 0.10604931 -0.061320905 0.10878969
000060 1f c0 f2 bd 34 e2 03 be ba cc 80 bb d8 c4 df bd
       -0.118530504 -0.12879258 -0.0039306553 -0.10926217
000070 d0 ab 00 3d b1 7c b8 3d 94 c4 97 bf 0d a2 a4 bf
       0.031413853 0.09008158 -1.1856866 -1.2861954
000080 1f 7d 20 3e ca 17 ab 3e 9d 73 45 3e 5e 2c 35 bd
       0.1567273 0.33416587 0.19282384 -0.044231765
000090 45 0b 71 3c 36 25 e5 bd e9 fa 09 3e d9 f1 e3 3d
       0.0147121595 -0.11188738 0.13474621 0.11130113
0000a0 e5 ff 92 3e 21 4e 7e 3e d8 0e 22 be 82 7d 36 bd
       0.28710857 0.24834491 -0.15825975 -0.044553287
0000b0 ce d2 bc 3d 38 9a a2 be 19 f1 24 3e b9 1d 68 bd
       0.09219895 -0.31758285 0.16107596 -0.05666897
0000c0 e3 9b 81 bd c5 fa b6 3e 67 bc 38 bd e3 ef 25 be
       -0.06328561 0.35738197 -0.04510155 -0.16204791
0000d0 f2 18 4e be 10 df a2 3e c5 bb 9e 3e 83 4a cd bd
       -0.20126703 0.31810808 0.31002632 -0.100239776
0000e0 39 aa bf 3d 35 77 84 3e a6 ab c1 3d 0a e5 23 3e
       0.09358639 0.25872198 0.094565675 0.1600534
0000f0 68 c6 12 3e 47 01 81 bd 68 24 44 3e bb 6c 97 be
       0.14333498 -0.06299072 0.19154513 -0.29575142
000100 48 e0 41 3e c4 81 82 be c5 1b b1 be ab 40 91 be
       0.18933213 -0.25489628 -0.345915 -0.2836965
000110 4a aa 84 bd 1e a0 d3 3d 21 f9 cd bd 66 ee df bc
       -0.064777926 0.10333274 -0.10057283 -0.027335357
000120 ef a8 ad 3e c7 c5 a8 be d3 03 a4 3e 6a a7 c6 bd
       0.3391795 -0.32963392 0.32034168 -0.096999004
000130 e3 87 8f 3e 43 ad 3e be 31 5c 89 bf 6b ab 02 be
       0.2803336 -0.18620782 -1.073126 -0.12760703
000140 32 c5 57 be 02 a2 1d be f2 f7 44 be 03 51 31 3e
       -0.21071318 -0.15393832 -0.19235209 0.1731606
000150 3b 2b ae be 0e f1 c5 3d f5 5f b1 bf 34 22 db be
       -0.34017357 0.09665118 -1.3857409 -0.42799532
000160 e9 2a 9c be 4a 8f a9 be 50 a4 e0 bd 12 67 ae bd
       -0.30501488 -0.33117133 -0.1096884 -0.08515753
000170 82 eb 6f 3d 55 57 a8 be 3c 0a b9 3e 0c 91 42 be
       0.058574207 -0.3287913 0.3614062 -0.19000643
000180 fb 45 a2 bd de c8 4c 3e 16 7c 30 3c e3 2a e6 3d
       -0.07923504 0.199985 0.010771772 0.11238649
000190 b1 f3 a4 be 14 82 47 3e 28 6c fc bc 1a 87 4b be
       -0.32217172 0.19483215 -0.030813292 -0.19875756
0001a0 1b 48 7d 3e cc 2e b0 3e e9 17 8f bd a3 ae 86 be
       0.24734537 0.34410703 -0.069869824 -0.26305112
0001b0 fa 50 02 3e bf 97 51 3e 0b cc 74 3e 65 9b 82 be
       0.12726203 0.20468043 0.23905961 -0.25509182
0001c0 58 c3 1f 3d 06 9f b2 be 18 f0 27 3e 31 65 fa 3d
       0.039004654 -0.3488695 0.16400182 0.12226332
0001d0 47 d2 9e 3e cf b8 b0 be 37 13 89 3f ff 00 8c bd
       0.31019804 -0.34515998 1.0708989 -0.068361275
0001e0 b1 02 a2 3e 02 83 f3 bc 8e c1 ab be 7b 60 6f bc
       0.31642678 -0.029725555 -0.33546108 -0.014610405
0001f0 d3 6c 1d be 0b a5 fe 3c af bb 4c 3e 66 15 0e bf
       -0.15373544 0.031084558 0.1999347 -0.555014
000200 aa 54 0e be fe 84 a3 3d d9 1d 65 be 3e f7 46 be
       -0.13899484 0.079843506 -0.22374667 -0.19430253
000210 6a e9 e8 3e 62 56 c2 3c 97 9c 89 3f 26 14 aa be
       0.4549058 0.023722831 1.0750912 -0.33218497
000220 ec ca 23 bd a4 13 9e be 58 93 bd bd a1 23 bf 3c
       -0.039988443 -0.3087436 -0.09256619 0.023332419
000230 c2 96 56 be 3c 64 8f be 61 3e 27 3f b1 46 b7 3d
       -0.20955947 -0.2800616 0.6532956 0.0894903
000240 f7 46 fd bc 0e 7b 01 be 85 93 0a 3e ba 1f 6f be
       -0.030917628 -0.12644598 0.13532837 -0.23351946
000250 60 49 38 be 55 ed f4 bd 65 3a c3 bc 61 d5 25 3f
       -0.1799674 -0.1195933 -0.023831556 0.64778715
000260 d7 4e 32 3d 48 00 23 3d 08 3c bc bc fb 27 74 be
       0.04353222 0.03979519 -0.022977844 -0.23843376
000270 ae 20 8c be 77 26 20 3e 4c 03 ca be 71 74 35 3d
       -0.27368683 0.15639673 -0.3945564 0.0443005
000280 29 65 43 bd 83 ad ab 3c 19 f3 7c 3e 11 e8 88 3e
       -0.047703896 0.02095676 0.2470211 0.26739553
000290 8e f1 83 be f5 6d 4e be 5f ff 2a bd 85 57 83 bd
       -0.2577023 -0.20159133 -0.041747447 -0.064131774
0002a0 f9 2c 98 3d 1a 44 a9 3e d8 84 cc 3d a6 cb 0d 3e
       0.07430453 0.3305977 0.099862754 0.13847217
0002b0 a1 a3 87 3e 1a 26 3c 3e 51 80 0e bf d0 7d 93 3e
       0.26492026 0.1837391 -0.55664545 0.28806925
0002c0 68 66 9d bd 05 11 bf 3e 36 ee 26 3e 4f 5a 83 be
       -0.07685548 0.37317672 0.16301808 -0.25654837
0002d0 16 18 e3 bc 8f 0c 55 3e a4 18 14 bf 13 c9 84 bd
       -0.027721446 0.20805572 -0.578501 -0.06483664
0002e0 9e 30 32 bc f5 01 93 3b 83 84 0b be 5b d6 60 3e
       -0.010875849 0.0044863173 -0.13624768 0.2195677
0002f0 3e a1 3e bd 16 3c 0a be 10 5c d9 3e 0c 21 55 be
       -0.04654049 -0.13499483 0.4245305 -0.20813388
000300 06 43 d0 3d d4 8f 64 be 79 c1 4d 3e b1 7e 41 be
       0.10169034 -0.22320491 0.20093335 -0.18895985
000310 11 48 d7 bd 13 e6 8e be e1 aa 80 3d 80 c9 3e be
       -0.105117925 -0.27909908 0.062825926 -0.18631554
000320 53 c3 25 3e f6 0c 1a 3e e8 62 9c be fb 33 67 3e
       0.16187792 0.15044007 -0.3054421 0.22578423
000330 3c 4b 60 be 1f 71 0f be 15 73 a0 3e c7 a3 7e be
       -0.219037 -0.14007996 0.313378 -0.24867164
000340 71 b2 04 3e 77 17 e6 3d 30 eb d7 bc 25 b7 a3 3d
       0.12958695 0.11234944 -0.026357263 0.079939164
000350 01 3a a6 3e b5 ea 9c 3e ea 84 36 3e fb cd 80 be
       0.32466128 0.30647817 0.1782414 -0.2515715
000360 8d 8e 00 3e 1e 9b 87 3e 4b 03 83 be 54 49 9b be
       0.12554379 0.26485533 -0.2558845 -0.30329382
000370 34 26 d5 3d 48 c6 cd bd 36 3e 33 be be a2 85 bc
       0.10407677 -0.10047585 -0.175042 -0.016312953
000380 55 8a 00 be 88 1f 9a bc 8c 86 b4 3e e6 43 df bd
       -0.1255277 -0.018813863 0.352589 -0.109016225
000390 50 29 88 be 6a e4 77 3e d2 94 93 be 1d 18 43 3e
       -0.2659402 0.24208227 -0.28824478 0.19052167
0003a0 d7 cc 90 3e 42 2f 65 3c 19 8e 01 be 87 a9 cf 3d
       0.2828128 0.013988318 -0.12651862 0.10139757
0003b0 27 18 6f 3d 07 cb f5 3d 05 00 a3 be a6 4a f8 3e
       0.058372643 0.12001615 -0.31835952 0.48494452
0003c0 69 d8 cb bd 65 70 d5 3d 11 21 e5 bc f9 3b 33 be
       -0.09953386 0.10421828 -0.027969869 -0.17503347
0003d0 61 da 24 3d c8 b9 74 3e b1 e6 a5 be 56 c8 5e 3f
       0.040247325 0.23898995 -0.32402566 0.8702444
0003e0 cb 6b ca 3d 7f 43 6d be cb 8b 27 3d 5b c1 8b be
       0.09883841 -0.23170279 0.0409048 -0.27295956
0003f0 11 51 ce 3e 53 2d 24 3d 54 8f 46 3f 07 98 c8 3e
       0.40296224 0.040082287 0.7756245 0.39178488

value.0.bias f4 [32]
000000 17 f5 99 3e 51 4d 83 3e 55 a5 14 3e e4 75 91 be
       0.300698 0.25644925 0.14516194 -0.28410256
000010 c8 2c 55 3e 77 c1 5a bd d8 6d c4 bd bf 75 8b be
       0.20817864 -0.05340716 -0.095912635 -0.2723827
000020 ce 2c 70 be 1e e5 87 be 12 de dc bd c7 e8 f9 bd
       -0.23454592 -0.2654199 -0.10784544 -0.12202602
000030 3a 42 0c be 1d 93 fc 3d b7 02 1e be 00 3d a1 bd
       -0.13697138 0.12332747 -0.15430723 -0.07872963
000040 f7 c6 31 3e dd f6 3f 3e d7 4a c3 3e ba 4a 31 3e
       0.17361055 0.18746515 0.38143036 0.17313662
000050 73 a5 99 be 31 8b 21 be d2 3f 71 be c5 cf 6b bd
       -0.3000904 -0.15775754 -0.23559502 -0.05757119
000060 8a 3c 2e be a8 cc 69 be 09 07 26 bd 73 23 9c bd
       -0.17015281 -0.22831976 -0.040534053 -0.07623949
000070 be 3a ca bd 0b ac a4 3e 3c 6c d8 3d 6e 8d 6a 3d
       -0.098744854 0.32162508 0.10567519 0.057263784

value.2.weight f4 [32, 32]
000000 e5 51 c3 bb 87 07 ed 3c 0a 33 a7 3c 3a f2 2f 3c
       -0.0059606903 0.028934253 0.02041008 0.010738904
000010 ad c1 c0 bc c5 a0 11 be 57 4f 1d 3e 0e 47 05 3e
       -0.023529852 -0.14221485 0.15362297 0.13015386
000020 09 fb a4 3c 5a 8a a0 bc 96 bc b9 3d 04 b0 12 3d
       0.020139234 -0.019597221 0.09069173 0.035812393
000030 ff 17 de bc 5e 74 36 3d 70 34 13 3d 4a 3b 23 3e
       -0.027111052 0.04454457 0.03593868 0.15940586
000040 51 3d c7 3d 4d ec c2 bd a9 e7 06 3e 8a dc 34 bd
       0.09728492 -0.09517727 0.13174309 -0.044155635
000050 ba 35 ba 3d c0 ca a1 3d 09 3f d8 3d bf 09 aa 3c
       0.09092279 0.078999996 0.10558898 0.0207566
000060 d9 9e bf bb bb 86 2f 3e 6d c0 ca 3d 6a bc fa bd
       -0.0058477935 0.1714124 0.098999836 -0.122429684
000070 0d 4b e8 3d a4 5b 1c be 19 a4 93 3c c7 88 c1 bd
       0.1134244 -0.15269333 0.018022584 -0.09449916
000080 2d 7c 8e bc a9 d5 dd 3c 31 bb 11 3d e3 71 92 3d
       -0.017393196 0.02707942 0.03557891 0.071506284
000090 51 d0 f9 bd 0b 62 2c 3e 1b 58 0b be 73 2c 0d be
       -0.12197936 0.16834275 -0.13607828 -0.13786487
0000a0 99 cb 97 3d 6e e6 00 3e 1d 6d 8e bd 5c 91 bd 3d
       0.0741188 0.12587902 -0.069544055 0.09256241
0000b0 f1 03 02 3d ff 45 13 be a1 ab 33 bd a7 0b db 3d
       0.03174204 -0.1438217 -0.04386485 0.10695582
0000c0 f9 6b 14 3e 68 8c 16 3e 60 f4 a0 bd de b8 09 be
       0.14494313 0.14701998 -0.07859111 -0.13449427
0000d0 19 1e 60 3d c7 4e 0b 3e 43 0b c4 3d 29 b9 d6 bd
       0.054716203 0.1360427 0.095724605 -0.10484535
0000e0 2d 94 1e 3e d8 45 d4 bd 52 25 3b bc 4b 13 73 bd
       0.15486212 -0.10364884 -0.011422472 -0.05934457
0000f0 a0 58 a7 bd cc 19 ba bd b1 8c 24 3e cd f3 0a 3e
       -0.08171201 -0.090869516 0.16069295 0.13569565
000100 7e 53 2a bf 9f 00 10 3d 01 f7 32 be 56 bb 36 bb
       -0.6653365 0.035156842 -0.17477037 -0.0027882657
000110 99 91 ad 3d 99 bb 88 3d 53 ae 64 bd 75 2c 27 3e
       0.08475036 0.066764064 -0.05583031 0.16325553
000120 9a be 21 be 64 2f 0e bc 86 6f 5b be 96 a4 2b 3d
       -0.15795365 -0.008678291 -0.21429262 0.04190501
000130 eb 0a 60 be 91 9e 1c be 66 dc d7 3c e9 04 f8 b9
       -0.21879165 -0.15294863 0.026350211 -0.00047305904
000140 97 55 4d 3e ba 96 35 3c 14 09 99 bd 55 7f d0 bd
       0.20052181 0.011083299 -0.07472435 -0.10180537
000150 28 dd 9d bd e6 c6 d9 bd ff cf 3a be 66 c9 0e 3d
       -0.07708198 -0.1063364 -0.18243407 0.034860037
000160 32 ba 3a 3e 3f cf 2c be 60 bf a4 bb 2d 01 9c bd
       0.1823509 -0.16875933 -0.0050276965 -0.07617412
000170 53 61 eb bd ef eb c0 bd 73 af 0b 3e 85 f3 e7 3d
       -0.114931725 -0.09420001 0.13641147 0.113257445
000180 5c 66 9f 3d 34 4a 85 3b 36 4b db 3c ab 1a a4 bd
       0.077831954 0.0040676836 0.026769262 -0.08012899
000190 31 cd 40 3e 48 70 eb 3d 59 36 98 3d 38 06 9e bd
       0.18828274 0.11496025 0.07432241 -0.0771603
0001a0 7e 05 11 be d0 0d f8 3d b1 3e 94 bd de 6f 67 be
       -0.14162251 0.121120095 -0.0723852 -0.22601268
0001b0 97 5a 9f 3d a3 07 f3 3d b8 b7 3e 3e 24 6c 9d 3d
       0.077809505 0.11866691 0.1862477 0.07686642
0001c0 12 a8 b4 3d 11 a6 11 3e f5 90 a7 3d 11 3d 28 3e
       0.08821119 0.14223506 0.08181945 0.16429545
0001d0 a8 52 04 be dc 5d 25 be be 13 35 3d 87 ee 00 3e
       -0.12922156 -0.16149086 0.04420828 0.12590991
0001e0 71 a3 02 3d 4d 45 1d 3d c9 44 04 be c7 c1 0f bc
       0.03189415 0.03839617 -0.12916864 -0.008774227
0001f0 6a eb 07 3e 06 34 b9 bd 70 c9 35 bc 7d 54 39 be
       0.13273397 -0.09043126 -0.01109539 -0.18098636
000200 ff 52 fd 3d b3 5b 3e bd db b8 23 3e 4f 8f 4e be
       0.12369346 -0.04647417 0.15988486 -0.20171855
000210 22 b9 bb 3d a2 e1 f5 3d 28 4d 55 bb 99 45 e0 bd
       0.09166171 0.12005927 -0.003254721 -0.10950775
000220 23 83 b6 3d 95 3d 82 bc a9 bd d4 bb 28 6d e5 bc
       0.08911731 -0.015898505 -0.006492336 -0.028006151
000230 50 9b 1a 3e 3d 84 77 bd 10 e4 01 bd 3e 77 59 3d
       0.1509831 -0.060428847 -0.031711638 0.053092234
000240 4f 47 8a bd 37 34 0f be 55 31 e7 bd 04 f1 f7 bc
       -0.06751882 -0.13984762 -0.11288706 -0.030266292
000250 d5 c0 b8 bd 7a 29 0e be 82 09 00 3e 4e b6 b8 3d
       -0.09021155 -0.1388301 0.12503627 0.09019147
000260 90 a7 45 3d 0a de 04 be a4 5a 07 be c9 92 12 be
       0.048255503 -0.12975326 -0.1321817 -0.14313807
000270 1b 03 04 3d f4 62 a5 3d 8f b0 1f 3e 46 75 04 3e
       0.032229524 0.080755144 0.15594696 0.12935361
000280 e3 83 47 3e 87 a7 00 3e b2 59 6c 3d 96 23 f9 3d
       0.19483905 0.12563907 0.057702728 0.121649906
000290 d8 39 8d bd e2 ca af bd f8 10 38 3e 4f 91 cc 3c
       -0.068957984 -0.08583619 0.17975223 0.024971632
0002a0 74 25 eb 3d ab 0d cc 3d af ac 22 3e bb fd 99 bd
       0.11481753 0.099635445 0.15886186 -0.07519098
0002b0 64 02 9e bb a9 12 a1 bd 5f 0a bb 3c 1d a3 a0 3c
       -0.0048220623 -0.07864887 0.022832094 0.019609028
0002c0 c3 cd bf bc 92 e2 df bc fe e0 ab 3d d9 f3 86 bd
       -0.023413545 -0.027329717 0.08392523 -0.06589479
0002d0 6b 23 b8 bd f7 4e 11 3c ac 90 44 be 07 27 56 bd
       -0.089911304 0.008868924 -0.19195813 -0.052283313
0002e0 9a 76 75 3b 62 4c ed bd 08 ab d8 bd 85 c2 94 bd
       0.0037454725 -0.115868345 -0.105794966 -0.07263664
0002f0 73 dd 07 be a3 7d 58 be ce c8 09 3d ed 56 07 3e
       -0.1326807 -0.21141677 0.033638768 0.13216753
000300 56 29 f3 3d bc 2a 55 bd c4 13 f3 bd f8 c6 08 3e
       0.118731186 -0.052042708 -0.11869004 0.1335715
000310 0e 48 e3 3c d5 02 07 be de bb 17 bd 52 fb 05 3e
       0.02774432 -0.13184674 -0.0370444 0.13084152
000320 9d b2 f7 bd af aa c0 bd 31 27 b0 3d d2 e2 ac bc
       -0.12094615 -0.09407555 0.08601225 -0.02110425
000330 bb 96 19 3e 60 2b 8f 3d 10 c0 14 3e e0 38 ba bc
       0.14998905 0.06990695 0.14526391 -0.022732198
000340 44 7f 2a be bd 79 01 bd 6e c2 ec 3d 39 fd 77 3d
       -0.1665011 -0.03161024 0.11560522 0.060544226
000350 e5 7b bf 3d 77 f9 b2 bd f1 91 1f 3e a5 d8 7b bc
       0.09349803 -0.08738988 0.15583016 -0.015371476
000360 fc ba 95 bd 6c 2b d7 bc 36 12 02 bc 3e 9e c8 bb
       -0.07311055 -0.026265822 -0.007938912 -0.0061223796
000370 92 48 08 bd 32 7b 46 be 13 32 b3 bd bf ef 48 be
       -0.033272333 -0.19382933 -0.08749785 -0.19622706
000380 71 51 28 3e 58 4c 66 3c 17 d7 0c 3e 3a a1 c8 3b
       0.16437317 0.014056288 0.13753925 0.0061227353
000390 11 a9 a8 3d 26 de a3 bd d7 63 21 3c 4b 29 d2 3d
       0.08235372 -0.08001356 0.009850464 0.10261782
0003a0 2b e0 02 3d 92 dc 1d 3e 34 12 86 bd 29 cb e1 bd
       0.031952064 0.15416172 -0.06546441 -0.11025078
0003b0 cd 99 bf bc da 87 11 3e 73 1a a4 3c 4a a7 a1 3d
       -0.023388768 0.1421198 0.020032143 0.07893236
0003c0 1b 8a c3 3b ca 61 18 be 32 ca 05 3d 27 4a 96 bd
       0.005967391 -0.14881054 0.03266353 -0.07338362
0003d0 5c 74 14 bd 52 be 93 bd a6 fe 06 3e 7f ee 89 bd
       -0.03624378 -0.07214035 0.13183078 -0.06734943
0003e0 78 a1 c6 3d b6 0b 72 bd ee a3 d9 3d 59 38 27 be
       0.096987665 -0.0590932 0.1062697 -0.16330089
0003f0 d2 0b 0c 3e 45 a3 f9 3d 5b f0 a8 3d 72 46 0a 3e
       0.13676384 0.12189344 0.08248969 0.13503435

value.2.bias f4 [32]
000000 7e cf 19 be ef d0 a2 bd b6 64 ff 3d b9 4a 43 be
       -0.15020558 -0.07950007 0.12470381 -0.19071473
000010 d9 37 e1 3b be 3f e1 3d 2a 83 2e 3e 90 87 d0 3d
       0.0068731126 0.10998486 0.17042223 0.101821065
000020 07 54 ff bd 15 2a 0a be b2 e3 2d bd ea 38 5b 3d
       -0.12467199 -0.13492616 -0.042453475 0.053521074
000030 5a 82 b1 3d fa 9c 97 3c 31 41 8f bc 4e 81 e5 bd
       0.08667441 0.01850747 -0.01748714 -0.112063035
000040 75 0e f5 b9 f8 44 ed bd 77 9f 29 3e 53 4b 15 be
       -0.00046740813 -0.1158542 0.16564737 -0.14579515
000050 59 3c 33 bc 35 0c 9c bd c7 48 62 3c 92 fc 21 bd
       -0.010939681 -0.07619516 0.013811297 -0.03954751
000060 17 f2 22 be 5d 16 16 3e 61 17 e7 bd 29 31 a4 bd
       -0.15912662 0.14656968 -0.11283756 -0.08017189
000070 b6 73 e4 3d 0a 0d 95 3c 2c 83 27 3e 4e 79 89 3d
       0.111548826 0.018194694 0.16358632 0.0671259

value.4.weight f4 [1, 32]
000000 4c 44 5f bd b4 8e 53 3d c3 5e ba be 17 14 0d be
       -0.054508492 0.051649764 -0.36400422 -0.13777195
000010 c5 29 3c be 1b d0 08 3e 89 58 92 bd 86 a7 e9 3d
       -0.18375309 0.13360636 -0.07145793 0.11408906
000020 64 bd 26 be a7 f3 2e bc e6 a5 8a bd 1f 60 0a 3e
       -0.16283184 -0.010678208 -0.06769924 0.1351323
000030 3d fb c2 3d c3 fa c1 bd 6d 0f 9e 3d bf f6 0a 3e
       0.09520576 -0.09471657 0.07717786 0.13570689
000040 bd f7 ee 3d fa 31 e9 bd ed d1 c6 bd 8a 15 df bd
       0.11668346 -0.113864854 -0.09708009 -0.1089278
000050 6f 70 38 bd 13 20 20 be df 9b 04 3e 6e d5 84 3d
       -0.0450291 -0.15637235 0.12950085 0.06486021
000060 6b 7e 12 bf a6 f3 89 3d 33 3d 45 be 05 03 a4 3d
       -0.5722415 0.067359254 -0.19261627 0.080083884
000070 35 06 98 3e d0 55 b0 bd be b4 e0 3d 75 98 26 3e
       0.29692236 -0.086101174 0.10971974 0.16269095

actor.0.weight f4 [32, 6]
000000 3f f2 24 bd 98 b4 ac 3d 79 68 ff be e0 18 af be
       -0.040270086 0.08432883 -0.49884394 -0.34198666
000010 be 3e a3 bb 48 fe 2b be 4f 98 9f be 1b 2c 88 be
       -0.0049818447 -0.1679622 -0.3117089 -0.2659615
000020 2c f4 7c bd 4b 50 06 be c0 be b6 be 13 83 3a be
       -0.061756298 -0.13116567 -0.35692406 -0.18214063
000030 14 60 9d 3e 87 be d0 3e bc 87 e7 3e c5 02 24 be
       0.30737364 0.4077036 0.45220745 -0.16016681
000040 d0 6f 5b 3d 5f 32 ab be aa 3d aa 3d 33 88 d9 3d
       0.05357343 -0.33436868 0.08312543 0.10621681
000050 97 c4 b9 be 87 97 0e 3f c6 7f cf 3e 74 10 c7 3e
       -0.362828 0.5569996 0.4052717 0.3887974
000060 82 0f d2 3d 76 6d c7 be 93 f7 a6 3d 20 a0 ec be
       0.10256864 -0.389507 0.0815269 -0.46215916
000070 e1 a4 e3 be 60 1b 7b 3e 23 68 ab 3e 83 6b 74 3e
       -0.4446173 0.24522161 0.33477888 0.23869137
000080 5e 91 8c 3d 2e d2 b0 3e 61 76 8f be 3d ea 54 bd
       0.06863664 0.34535354 -0.28020003 -0.0519812
000090 38 9a 6b be e8 09 f4 3d 63 9f 83 3e fe 88 ed bc
       -0.23008049 0.11915952 0.2570754 -0.028995987
0000a0 50 e1 c0 be a6 d6 86 be 4f 64 de bc 5c 7b 69 3e
       -0.376719 -0.2633564 -0.02714744 0.22800964
0000b0 9d 8c ba be 6b 30 7a bd 18 98 c4 3e 4c 08 c3 3e
       -0.36435404 -0.06108133 0.38397288 0.38092268
0000c0 49 47 9c be 11 8b e5 3e c3 6c 89 bd ba ea 99 be
       -0.30523136 0.44832662 -0.06710198 -0.30061895
0000d0 3a e7 ac 3e 3b 18 03 bb 4d 79 11 3e e9 82 5f 3c
       0.33770162 -0.0020003456 0.14206429 0.013642051
0000e0 cc 9b 17 bf 5d 74 bf 3d f3 03 44 bc 71 f4 30 be
       -0.592221 0.093483664 -0.011963832 -0.17280747
0000f0 85 9f a1 3e 77 bf c2 3e 2f b6 22 be 31 fe 3e 3e
       0.31567016 0.380367 -0.1588981 0.18651654
000100 64 de a9 bd f1 14 2b be c1 bf b9 3e 44 a0 b1 3e
       -0.08294371 -0.16707207 0.3627911 0.34692585
000110 7f 81 89 be 6d a5 94 bd 6d da a7 be bc 78 22 bd
       -0.2685661 -0.07258115 -0.32783833 -0.039665923
000120 b4 43 63 be 70 db ca 3e 24 ad 5d be 03 47 f6 bd
       -0.22193795 0.39620543 -0.21648079 -0.12025263
000130 5f f2 85 3e e5 97 6d 3e f0 61 99 be 4b 5d 1b 3e
       0.26161477 0.23202474 -0.29957533 0.15172307
000140 ab f7 ad 3d 19 44 0c 3f 02 c7 c8 be 2b 8e 1a 3e
       0.084945045 0.5479141 -0.3921433 0.15093295
000150 da 7e ac be 89 48 20 be 94 76 e1 3e ea a4 01 be
       -0.3369053 -0.1565267 0.4403578 -0.12660566
000160 fb ab 31 3e 93 5a e8 3d 5c 62 4a be 13 4c fb be
       0.17350762 0.11345401 -0.19764084 -0.49081478
000170 d3 ca 90 3e f8 4c 07 bd be 6e ec be 16 b2 1d 3e
       0.28279743 -0.033032387 -0.4617824 0.15399966
000180 68 c9 73 bd 63 9c 79 bc 3f 09 e7 3e dc ad de bd
       -0.059518248 -0.015235039 0.45124242 -0.10873005
000190 41 c5 95 3e 85 81 df bd c6 0a ec 3d 01 79 36 3d
       0.29252055 -0.10913376 0.11525492 0.044548992
0001a0 1c 95 7a 3e 40 b0 13 3e 98 04 e2 bd e5 2c ad 3e
       0.24470943 0.14422703 -0.110360324 0.33823314
0001b0 f5 4a c8 be 15 f8 77 3e ff 73 21 3f 4e ed a8 3e
       -0.39119688 0.2421573 0.6306762 0.3299355
0001c0 c7 b3 a8 bd aa 02 ee 3d 9f 5f df bd 6d 39 df 3e
       -0.08237415 0.11621602 -0.1090691 0.435985
0001d0 00 2f c8 3e fc 0b 9a bc 6e 4b b0 3e f7 30 4e be
       0.39098358 -0.018804543 0.34432548 -0.20135866
0001e0 bb e6 83 3e 67 78 bf be b5 ef f8 3e 89 7c f8 be
       0.2576197 -0.37396547 0.48620382 -0.48532513
0001f0 e5 c3 58 bd f1 f5 e2 3d d4 a4 75 3e c4 c6 8f 3e
       -0.052921195 0.11082066 0.23988658 0.28081334
000200 26 a4 18 3e ab 39 0f 3f 37 2c 6a 3e 26 23 f5 be
       0.14906368 0.5594737 0.22868429 -0.4787838
000210 09 29 90 3e 1d 9c 27 bd c5 6a ee be 86 ea 01 be
       0.28156307 -0.040920366 -0.46565834 -0.1268712
000220 93 40 b2 3d 8d 5a 88 bd b0 44 11 3e 0d 3e 9a be
       0.08703723 -0.06657896 0.14186358 -0.30125466
000230 9d b8 10 3e b5 19 ae be 63 4f 9b be 76 c2 ba 3e
       0.14132924 -0.34003988 -0.30334005 0.36476487
000240 17 16 5f 3e 11 8e 7d 3e e6 a9 eb be d3 32 f1 bd
       0.2178577 0.24761225 -0.4602806 -0.11777272
000250 53 51 ce 3e c9 f8 50 3e 75 c3 06 be 49 b9 40 bd
       0.4029642 0.20407404 -0.13160498 -0.0470517
000260 0e 6a 76 3d d2 58 e8 be 9b a0 11 bc 99 86 f0 3d
       0.060159735 -0.45380265 -0.008888389 0.117444225
000270 32 62 54 3e 4c 94 1e 3e 3c ac cb 3e 73 19 ce bd
       0.20740584 0.15486258 0.39779842 -0.10063448
000280 1c cc b5 3e b9 bb 3f 3e 31 eb e2 bd 00 5d 7d bd
       0.35507286 0.18723954 -0.110800155 -0.06185627
000290 75 ff 94 3d 59 ee de be e1 46 58 3c 2c ed d4 3d
       0.07275287 -0.4354122 0.013200493 0.103967994
0002a0 9d 3e e3 be 8e b5 25 be 32 01 a7 bd c1 81 57 be
       -0.44383708 -0.16182539 -0.08154525 -0.21045591
0002b0 21 a7 c3 3e e3 ab 04 3c ee 5e a7 be 43 0c d2 3e
       0.38213447 0.008097622 -0.32689613 0.4102498
0002c0 80 e4 9e be 8f eb ad be d4 3c b3 3e 86 c6 69 be
       -0.31033707 -0.3396878 0.35007346 -0.22829637
0002d0 ce 42 8e be 8e 74 99 3e ae 10 96 be 64 9c 9b 3d
       -0.27785343 0.29971737 -0.293096 0.075981885
0002e0 48 f7 de be 25 8b 19 3e 42 c4 22 3d 52 1a c2 3e
       -0.43548036 0.14994486 0.039737947 0.37910706
0002f0 c1 5b a5 3d 4b 2d e1 bd f6 02 91 be ce 04 be be
       0.08074141 -0.10994967 -0.28322572 -0.3711304

actor.0.bias f4 [32]
000000 d0 6f 99 be 38 fd 8e 3d 05 e0 8e 3d df 08 91 be
       -0.2996812 0.069818914 0.06976322 -0.2832708
000010 86 95 2a 3d 82 a4 59 be 1b 6e b8 3e 38 2f c1 3e
       0.041646503 -0.21254161 0.36021504 0.37731338
000020 59 a6 d8 be 8d 30 1a 3d 5a eb 5c 3e 0c 93 1b 3d
       -0.42314413 0.037643958 0.21574154 0.03798203
000030 39 97 c6 ba bd 48 c3 3e 43 e6 26 be f2 55 6a 3e
       -0.0015151269 0.38141432 -0.16298775 0.22884348
000040 94 62 3a 3e 66 36 bb 3e ec d0 da be d9 34 13 be
       0.18201667 0.3656494 -0.4273752 -0.14375629
000050 b2 45 cb 3e 0e 90 e9 bd c6 6d 80 3e 2c e0 a3 bc
       0.3970161 -0.114044294 0.2508375 -0.020004354
000060 dd 94 8c 3e 06 7b 0c be 4c a7 b9 be 53 a0 f5 3d
       0.27457324 -0.13718805 -0.3626045 0.1199347
000070 6f 1d 51 3e 3a 0b c8 3b f5 8c 11 be 56 77 7c be
       0.20421384 0.006104854 -0.14213927 -0.24654898

actor.2.weight f4 [32, 32]
000000 4e c8 4e 3e 7c 67 0b bd fe 4e fd bc 34 65 65 3d
       0.20193598 -0.034034237 -0.030921455 0.056004718
000010 ab 58 9c 3c e7 2d 82 be cb 7e 98 bd 06 17 7f bd
       0.019085249 -0.25425646 -0.07446059 -0.062277816
000020 ca 4c 4d 3e f0 c4 c3 3d 48 22 48 be b7 06 1a bc
       0.20048824 0.09559047 -0.19544327 -0.009401015
000030 a7 48 d0 3c ab c0 2f be 28 b9 25 3d 5d 5a 02 be
       0.025425268 -0.17163341 0.040459782 -0.12729783
000040 33 7f 69 3e 54 ee a8 3c c4 fc 40 3e 29 e8 a7 3d
       0.22802429 0.020621456 0.18846422 0.08198578
000050 0d fd 58 3d b0 a2 6b be e3 e1 25 3e 49 06 bc bd
       0.052975703 -0.23011279 0.1619945 -0.09180886
000060 45 53 09 bd e6 d5 a7 3d 6a 48 5e 3e 77 18 56 bb
       -0.033526678 0.08195095 0.21707311 -0.003266839
000070 83 99 6e bd 11 d6 ba 3d 15 0d e0 bd eb 9c d2 bd
       -0.05825187 0.09122861 -0.10939995 -0.10283836
000080 62 38 38 3e 58 f2 f8 bd 5e 1c 0c 3d 95 d3 0c be
       0.17990258 -0.121555984 0.03420674 -0.13752587
000090 43 83 4d 3e 4e 8e a8 bd c1 62 13 bd 03 de 62 3d
       0.20069604 -0.082302675 -0.03598285 0.055387508
0000a0 4d 36 47 3d 4e 64 bc bc 41 8c 37 3d 45 ad 95 3d
       0.04863577 -0.022997048 0.04481149 0.07308439
0000b0 fd 44 09 3e 47 41 6a 3c fe 27 74 3d b9 7e 4e be
       0.13405223 0.01429779 0.059608452 -0.20165528
0000c0 6d 7f 57 bd 26 85 76 be 65 22 ed 3d 1a ea 5a be
       -0.052611757 -0.2407423 0.11578826 -0.21378365
0000d0 a6 fb 9c bd 8f 10 47 bd 55 f2 a1 3c 17 ac ae bd
       -0.07665186 -0.048599776 0.019768873 -0.08528917
0000e0 9a 71 b5 3d 53 ae 8b 3c af 26 fb 3c 3b d2 ae bd
       0.088595584 0.017050898 0.030658094 -0.08536192
0000f0 3a 1b 38 be 76 f7 11 bd f3 27 80 3d 66 56 84 bc
       -0.17979136 -0.035636388 0.0625762 -0.01615448
000100 50 63 99 bd bc ad 97 3d 4a 7e 78 3e ed d0 de 3b
       -0.074896455 0.07406184 0.24266925 0.0067998082
000110 b7 8a 32 be 4b 46 22 bd cd 66 da bd 4d 35 9f 3d
       -0.17435728 -0.039617818 -0.10664139 0.07773838
000120 2c 66 8b be e9 84 52 be a9 76 18 3e 4f 05 23 3e
       -0.27226388 -0.20558514 0.14889015 0.15919994
000130 1e 2c 87 be 9b df 3e be 57 83 df bc 8b 6f 51 be
       -0.26400846 -0.18639986 -0.027284307 -0.20452707
000140 b2 d5 cc be 76 8b b3 3c c0 73 ce be 83 02 11 3e
       -0.40006787 0.021917086 -0.40322685 0.14161114
000150 65 f8 bb 3d 41 13 ae 3e 0e 64 b7 be 49 fe 41 3e
       0.09178237 0.33999065 -0.35818523 0.18944658
000160 8e 04 9a 3d 91 e8 5c bd 99 ba 2e 3d 82 1b 23 3e
       0.075204 -0.05393273 0.042658422 0.15928462
000170 4f 62 b0 3c d5 fd bf be 6e c8 09 be de 13 82 3d
       0.021531252 -0.37498346 -0.13455364 0.063514456
000180 0d ce 98 3d 21 a1 0c bd 54 22 61 3b 74 41 4e 3e
       0.07461176 -0.034333352 0.0034352737 0.20142156
000190 79 e5 65 3d 92 05 9c 3c 4e ab 6c bd 4b dd 05 3e
       0.056127045 0.019045625 -0.057780556 0.13072698
0001a0 47 e4 1d be 74 09 cf bd 39 ea eb 3c 14 07 dc 3d
       -0.15419112 -0.10109225 0.02879821 0.107435375
0001b0 3b 25 0c bb 53 1d dd bd fa ce 28 3d f2 19 b0 bd
       -0.0021384496 -0.10796609 0.041213013 -0.08598699
0001c0 08 37 86 bd 2d de 39 bd bb 12 c5 3c a7 24 98 3d
       -0.06553465 -0.0453779 0.024056783 0.07428866
0001d0 ec 8f c5 3d cd 37 28 3d 17 f4 ce 3d 45 fe 98 3c
       0.096465915 0.04106884 0.1010515 0.018675933
0001e0 4b 03 0d 3d 65 e7 2c bd 9b 12 6c 3d fa e4 fd 3d
       0.03442697 -0.042212863 0.05763493 0.123971894
0001f0 3e b0 36 be 75 57 04 be 6a b5 f4 3d e6 df 52 be
       -0.17840669 -0.12923987 0.119486645 -0.20593223
000200 65 dd c8 3d 0b 0a b7 bd 01 da 37 be 80 e7 73 bc
       0.09807853 -0.089374624 -0.17954256 -0.014886737
000210 35 77 63 3d c9 f0 bc bc 37 90 80 bd 0c 37 40 3d
       0.055533607 -0.023064034 -0.06277507 0.046927497
000220 25 dc 9a bd 78 98 ea 3d 6a f0 17 be 09 27 b4 bd
       -0.075615205 0.11454862 -0.14837804 -0.08796508
000230 b4 7b 30 3e 62 e6 a1 bc 07 fd 12 be d4 50 81 bd
       0.17234689 -0.019763175 -0.14354335 -0.06314245
000240 9c 77 05 3e d1 ea 1e 3e 07 d1 53 be 73 d3 f3 3d
       0.13033909 0.15519263 -0.20685206 0.11905565
000250 58 38 72 3e f7 8a 9d be 09 a8 54 bd 82 4d d5 bd
       0.23654306 -0.30770084 -0.051918063 -0.10415174
000260 bd 04 40 3e 9c 1f 27 3e 72 80 7b 3c 95 70 2f bb
       0.18751808 0.16320652 0.015350448 -0.0026769985
000270 43 e1 9b 3d 94 1d 7c 3e d6 41 17 bd 7b 68 6c 3d
       0.07611325 0.24620658 -0.03692802 0.057716828
000280 4f 6e 33 3e 37 b0 29 be 57 2a 1f be 5a 87 07 3e
       0.17522548 -0.16571127 -0.15543495 0.13235226
000290 1b d9 f2 bc c3 f1 0a 3e 72 07 00 3e ef 92 fa bd
       -0.02964454 0.13568787 0.1250284 -0.122350566
0002a0 b2 da 6a 3d 2e 80 11 be 88 ad e3 bc e1 66 e4 3d
       0.05733747 -0.14209053 -0.027792707 0.11152435
0002b0 1b 35 96 3d 50 d3 42 be 99 1d 25 3e e1 be c8 bd
       0.07334348 -0.19025922 0.16124572 -0.09802032
0002c0 84 a1 de 3d d7 e2 4e 3e 1d c0 f9 bc ab 01 bd 3d
       0.108706504 0.2020372 -0.030487115 0.09228834
0002d0 5a 82 4c bd 7a de 08 3e ba 3e 0a be 86 6a dc 3d
       -0.049929 0.13366118 -0.13500491 0.10762505
0002e0 aa 5c fc 3d eb 8c 82 3d 83 32 46 be 11 f1 53 bd
       0.12322362 0.06374534 -0.19355206 -0.05174357
0002f0 23 db 9a 3d 24 2e 77 3c e9 2e 16 3e 87 41 d5 3d
       0.07561328 0.015086684 0.14666332 0.10412889
000300 2b cd 05 3e 86 43 52 3e 2c a0 47 bd 7c 68 d7 bd
       0.13066547 0.2053357 -0.048736736 -0.10517976
000310 db 62 17 3d a5 bf e4 bb 03 bd 3b bc 52 e8 32 3d
       0.03695951 -0.0069808536 -0.011458638 0.04367859
000320 62 a8 3e bd 5a b2 a8 3d 55 a1 df bc 19 a0 df 3d
       -0.0465473 0.08237143 -0.027298609 0.10919208
000330 77 74 3b be b1 50 46 3e b9 ae 02 bd 3f 9c b7 3e
       -0.18306147 0.19366719 -0.03190491 0.35861394
000340 41 8f e4 3d 74 0d 67 be 1d 0a 85 bd ac 89 af bd
       0.11160136 -0.22563726 -0.064960696 -0.08571181
000350 02 19 1a 3c 63 08 0d 3e f0 dd 01 3d 34 14 10 bc
       0.009405376 0.1377273 0.031705797 -0.008793879
000360 ca 94 1b be 7b 2f 2f be a7 cf ba bc f6 ae 59 bc
       -0.15193477 -0.17107956 -0.022804094 -0.013286343
000370 a2 0f 64 3e 0e 9c ee 3d d0 17 31 bd 44 af b9 3d
       0.22271588 0.11650859 -0.0432356 0.090666324
000380 fd bb 5a 3c 0d ed cb bd c1 f9 ff 3d 76 ea b2 3d
       0.013350484 -0.09957323 0.12498809 0.08736126
000390 15 15 10 be 0e 17 cd 3d 97 a2 23 bd 8e d2 ec 3c
       -0.14070542 0.10014163 -0.03994998 0.028908994
0003a0 64 c5 05 3e 05 12 28 bc 88 fc 65 bd 7a 9f 14 3e
       0.1306358 -0.010258202 -0.056149036 0.1451396
0003b0 42 34 4b 3e ce e8 6f bc fd 4b 04 3e eb 1d 27 be
       0.19844154 -0.014642907 0.12919612 -0.16320007
0003c0 54 c2 45 3e ed ed 74 3e f2 0e 87 3d d9 47 f2 3d
       0.19312412 0.23918886 0.065946475 0.1183011
0003d0 76 f5 c0 3b b5 04 81 3d c1 94 dd bd bd 57 5c 3d
       0.005888636 0.06299726 -0.10819388 0.05379461
0003e0 f3 6b b7 3d 7e e8 7d 3d 81 42 16 be 74 4f 01 3e
       0.089561366 0.0619893 -0.14673807 0.12627965
0003f0 24 a9 05 be 20 d3 33 3e 17 86 e6 3a 95 b1 fb bd
       -0.13052803 0.17561007 0.0017587569 -0.122897305

actor.2.bias f4 [32]
000000 d5 4f 35 be 17 ea 37 be d0 6a 05 bd 3e 0b fe bd
       -0.17706235 -0.17960392 -0.032572567 -0.12404488
000010 ac 7c 20 bd 1b ea 5e 3d 2b 2c bb bc 5c 76 1f 3d
       -0.039181396 0.05442248 -0.02284821 0.038931236
000020 55 5f c3 bd 62 42 08 3d 7b 0d 35 bd f7 d0 15 3d
       -0.095396675 0.033266433 -0.04420231 0.036576238
000030 74 ab ec bb f8 a3 90 3d cf 36 36 be 05 ff 5d be
       -0.0072225872 0.070625246 -0.17794345 -0.21679313
000040 7d 55 d7 3d 9b e8 ca bc 05 78 27 3c db 74 ca bd
       0.105143525 -0.024769118 0.010221486 -0.0988557
000050 06 53 dd 3d a3 62 b2 bc 98 7b 0d be 37 73 51 bd
       0.10806851 -0.02177555 -0.13816679 -0.051135268
000060 a0 dd be 3d c8 4f fd bd a6 41 d8 3d 22 61 a9 bc
       0.09319615 -0.12368733 0.105593964 -0.0206762
000070 18 2e 1b bc c1 26 17 3e 24 5b 02 be 01 7f 47 be
       -0.009471439 0.14760877 -0.1273008 -0.19482042

actor.4.weight f4 [2, 32]
000000 50 88 b1 3e ff 5a f9 bd 4c dc fd 3e 38 8e 86 3d
       0.3467431 -0.12175559 0.49582136 0.06570095
000010 aa 08 79 3e be c3 d2 3d 2c 12 ac bd 36 1c e6 3d
       0.24319711 0.10291241 -0.084019035 0.112358496
000020 60 6a eb bd 00 e7 e5 3d 67 8e c0 bc 1c 16 16 3e
       -0.11494899 0.112257004 -0.023505403 0.14656872
000030 51 17 4d be 14 96 d0 bd 0d 19 60 3e 4e 9e a0 be
       -0.20028426 -0.10184875 0.21884556 -0.31370777
000040 21 08 9b be 87 c4 80 3e 4d 9a d9 3d f6 31 72 3d
       -0.3027964 0.25149938 0.10625134 0.059129678
000050 ff 90 87 3e 80 28 6c 3e be 5b 42 be c9 58 fc 3d
       0.2647781 0.23062325 -0.1898031 0.12321622
000060 ea c7 d7 be 2d e4 ac be 24 ef 23 3b 9e 8a 54 be
       -0.4214471 -0.33767834 0.0025014365 -0.20756003
000070 4c ce 00 be 04 fd 3b 3e 7b 63 db bd 58 fb 5f 3e
       -0.12578696 0.18358237 -0.10712334 0.21873224
000080 fc 69 56 3e 1d b8 f8 bd d4 31 87 3e e4 49 4d bd
       0.20938867 -0.12144492 0.26405203 -0.050119296
000090 b1 76 ec 3d 66 e2 60 3d fd d6 ad 3d 64 da 86 3d
       0.11546076 0.05490341 0.084882714 0.065846235
0000a0 c5 14 8c 3d 89 ca ce 3e b9 3c ff 3d 35 26 a9 3e
       0.06839899 0.40388897 0.12462754 0.33036962
0000b0 75 50 98 3e e8 27 db bc a1 70 31 3e 1a c8 1c 3e
       0.29748884 -0.026752427 0.17328121 0.15310708
0000c0 1d 4b 45 3d d4 0a 44 3c 7c 72 cd 3d 56 76 60 bb
       0.048167337 0.011965472 0.10031602 -0.0034250221
0000d0 84 1b 29 be 74 9c 97 3d 43 02 35 3e 2f c7 22 be
       -0.16514403 0.07402888 0.17676644 -0.15896295
0000e0 16 c5 90 be b0 b8 01 be 37 38 c9 bd d8 1f f0 3d
       -0.28275365 -0.12668109 -0.09825175 0.11724824
0000f0 7f bf cf 3d 79 94 17 3e ff bd 9d 3e c4 f1 5d 3d
       0.10143947 0.14802732 0.30809018 0.054185644

actor.4.bias f4 [2]
000000 4f 55 21 be 08 1b f1 3c
       -0.15755199 0.029431835
