results/SandingEnvEasy/ddpg/model/model_parameters_2.pt (torch, 30338 bytes, 22 tensors)

value.0.weight f4 [32, 8]
00000000: 5124 023d 7921 603b 9bac 163e af9c 7c3e
00000010: f80c 913e a6a9 b8bd 3ef8 033e 0b8a a9be
00000020: 064d 9abe a3aa d83b 2a7d cb3d b611 193e
00000030: 64de 4cbe eb89 8ebe fb04 393f 8a72 0240
00000040: cf14 313e f44a d3bc 68b2 ebbd 31b1 113c
00000050: 423e 533b d0e0 9dbe 199c 9bbe 3378 3a3f
00000060: c54b 483d 7236 153e 0d50 01be 3cee 303e
00000070: c4e6 57be eb4e 7bbe 0b75 efbe 8c31 26bf
00000080: 988c 993d 944f 0fbd 3c4d 993d b3ab 373e
00000090: e738 0d3d 9705 c0bd 71d5 eabe eaf0 bb3f
000000a0: 82d2 093e 363f b5bd f320 203e 047f 7abe
000000b0: 3b58 23bc 208a 4a3e 9e01 16bf e317 243d
000000c0: 2d06 6e3d 5e74 233b fa13 a63d 4763 233d
000000d0: 2ff2 a23e e9d8 8b3e 7ba6 bf3e 7243 0ac0
000000e0: 6ab0 08be ca82 683e 0b52 e7bb 8b3d 27be
000000f0: 5d41 923d e5ce 563d 9812 9c3e d5a6 9a3f
00000100: 5e14 863e 4736 6e3d e9ba 4dbe 1642 4b3e
00000110: 8dea 8dbd c525 8f3e 3042 313f f199 61bf
00000120: a06f 39be 7dbf e2bc ce07 603a 482b c33d
00000130: 5554 3c3e fd5b 38be 0180 80be 0917 18c0
00000140: 2e24 b2bd 350f f2bc be5e 79bc 66da 00be
00000150: 8544 303e 8e3b da3d 009c 88bf 3763 0e40
00000160: b092 053e c090 113e fb48 76bd 7420 94bd
00000170: bf7f 493d 9957 18be a2fc 07be 114c 363f
00000180: b432 1f3e d229 1c3e 695b a33d c93e 353c
00000190: 5446 863e 55ba 7fbe 8e04 1f3f 8c48 16bf
000001a0: 3ff7 e73d 8c84 6fbe 6934 ed3d d2ed abbd
000001b0: e0a3 61be f2c0 1ebe 9c99 07bf 1554 103f
000001c0: 7908 f83d c6c6 d4bd ec41 6fbe 2bda 72bd
000001d0: 2438 2fbe 969e 023e fbe6 0d3f 51af 51bf
000001e0: d8ef 223c cf50 393c 83d7 90be e675 3c3e
000001f0: 621c 9a3e 4166 2fbe 263d 5ebd 1978 903e
00000200: 2a35 96bd 83aa 963c 2605 9dbe 0306 1e3e
00000210: 59c1 fe3d 2670 703e 9206 33bf b08e 883f
00000220: 7516 98bb b622 2bbd 3130 6a3e 39a7 84be
00000230: bf44 86be 1462 713d bc09 d6be e11c 413e
00000240: e1ef 583e 069d 4d3e 4110 52be ca8f 12be
00000250: cddd 61bd 2ca1 95be a206 a3bd 874e 2a3f
00000260: e7fa 213b 25bd 193e 64eb efbc 1aca 63be
00000270: 8813 09be 79ce b73c 9ef3 903e 56d1 cbbf
00000280: bd8f 8c3e 49a3 f0bd cb4a adbc 2667 10be
00000290: f173 83be 2364 093e ee99 a73f c3fa 90bf
000002a0: 5e18 8d3e 21f5 d23d 6e86 203a 8050 bfbd
000002b0: 63c2 3cbe ae45 853e 7027 8cbd dde4 7cbf
000002c0: 25e2 00be 06fe 243d dbe8 323e 4396 6c3e
000002d0: 75ef 983e fb2c bbbe 7ded cb3d 0faf 60be
000002e0: c785 ed3c ba59 943e 4def 843c c690 193d
000002f0: 62d0 6c3b c1ec ad3e 27cb fbbf 85b7 113f
00000300: 027e 663d 2710 87be 3a1d 493e 4857 c2bd
00000310: 928d 8bbe 7152 e9bd 681a 5a3d 48d8 43be
00000320: 54e2 31bd ab82 90bd c668 9a3d 9403 0d3d
00000330: 872f 74be 76d5 783e 30a9 65bf 9648 19c0
00000340: 9289 563e 10ea c13d f580 813e 56a4 57bc
00000350: 869b 583e c579 abbe 70dd 8cbf 5521 4d3f
00000360: efad 4b3d 256a ee3d 0816 733e b7fb 96be
00000370: 59cd 38be a97f e4bd ca36 ba3d c7e5 8bbe
00000380: b1b4 bb3b 67cf 3c3e 769b 473e 6be8 60be
00000390: 2d3c 09bd 9ec3 89be 4634 36bf d8cc 433f
000003a0: 1867 703e 1df1 93bd 5b2a 90be a750 7d3e
000003b0: dcde 88bd ddf7 b13d 415e d2be 49ce 5dbd
000003c0: c58c 1b3b c37a 84bd d52c 7e3e d742 b93d
000003d0: 176a 233c 3ce2 68be b69d f6bd df3c 16bf
000003e0: e008 993e d5c5 2bbe 3880 59bd d4c4 c83d
000003f0: e386 ad3c fe48 be3e 1f7b 81bd 3d30 873e
0.031772915 0.0034199639 0.14714281 0.24669145 0.28330207 -0.09016733 0.12887666 -0.3311313
-0.3013689 0.0066121384 0.099359825 0.14948162 -0.2000671 -0.27839598 0.72273225 2.038241
0.17293094 -0.025792576 -0.11508638 0.008892343 0.0032233153 -0.3083558 -0.3039253 0.7283966
0.048900384 0.1457155 -0.12628193 0.17278379 -0.21084124 -0.24541824 -0.46768984 -0.6491935
0.07497519 -0.034988 0.074854344 0.17936592 0.034478094 -0.09376066 -0.45865968 1.4682896
0.13459209 -0.08849947 0.15637569 -0.24462515 -0.009969766 0.19779253 -0.5859622 0.040061843
0.05811136 0.0024941186 0.08109279 0.0398896 0.31825396 0.27313927 0.37431702 -2.1603665
-0.13348547 0.22706142 -0.007059341 -0.1633207 0.07141373 0.052443404 0.30482936 1.2082163
0.26187414 0.05815723 -0.20090832 0.19849429 -0.06929503 0.27958503 0.6924162 -0.8812552
-0.18108988 -0.0276792 0.0008546085 0.095297396 0.18391545 -0.1800384 -0.2509766 -2.376406
-0.08698307 -0.029548267 -0.015220342 -0.12583312 0.17213638 0.106558904 -1.0672607 2.2248056
0.13044238 0.14215374 -0.060128193 -0.072327524 0.049194094 -0.14877166 -0.13279966 0.7120982
0.15546685 0.15250328 0.079764195 0.011062332 0.2622553 -0.24973424 0.62116325 -0.5870445
0.11326455 -0.23390406 0.11582262 -0.0839497 -0.2203517 -0.1550329 -0.52968764 0.563783
0.12110991 -0.103894755 -0.23364991 -0.059290092 -0.1711126 0.12755808 0.55430573 -0.81908137
0.0099448785 0.01131077 -0.28289422 0.1840435 0.3009978 -0.1712885 -0.054257534 0.28216627
-0.07334359 0.018391853 -0.3066799 0.15431981 0.12439222 0.23480281 -0.699319 1.0668545
-0.004641349 -0.04178115 0.22869946 -0.2590883 -0.26224324 0.058931425 -0.41804302 0.18858673
0.21185257 0.20079431 -0.20514013 -0.14312664 -0.055143166 -0.29224527 -0.079602495 0.66526073
0.00247162 0.15013559 -0.029287048 -0.22245064 -0.13386357 0.022437321 0.28310865 -1.5923259
0.27453414 -0.11749894 -0.021153828 -0.14101848 -0.25674394 0.13417105 1.3093851 -1.1326526
0.27557653 0.10300661 0.0006123547 -0.09341526 -0.18433528 0.26029724 -0.068434596 -0.9878672
-0.12586267 0.040281318 0.1747164 0.23104195 0.2987019 -0.36557755 0.09957407 -0.2194178
0.028994454 0.28974706 0.016227389 0.037491582 0.0036134948 0.3396969 -1.9671372 0.56920654
0.056272514 -0.2637951 0.19640055 -0.09489304 -0.27256447 -0.113926776 0.05324784 -0.19125473
-0.043428734 -0.07056173 0.07539515 0.03442724 -0.23846255 0.24300179 -0.89711285 -2.3950553
0.20950916 0.09468472 0.252937 -0.013161739 0.21153077 -0.3349134 -1.1005077 0.80128986
0.049726423 0.11641339 0.23738873 -0.29488918 -0.18047084 -0.11157162 0.090924814 -0.27323744
0.005728327 0.18438493 0.19492897 -0.2196366 -0.033504654 -0.26907057 -0.7117351 0.7648444
0.23476827 -0.07223723 -0.28157315 0.24737798 -0.06683132 0.08689854 -0.41087535 -0.054151807
0.0023735028 -0.064687274 0.2482179 0.09045952 0.009974024 -0.22742552 -0.120418 -0.5868663
0.29889584 -0.16774686 -0.053100795 0.09803167 0.021182483 0.37165064 -0.063223116 0.2640399

value.0.bias f4 [32]
00000000: ee08 793d e90e 603e 851c 8dbe a13e 233e
00000010: d735 1cbf 0d5e a33d 94fc ab3e fc4a e7bc
00000020: 5e65 4a3e 9770 6b3e 7e3d 15bf 24c5 e9bd
00000030: bf79 673e e7b3 953d bac4 86bc cfe0 07be
00000040: 0de3 063e 7933 253e b1ad 983e 23c2 123d
00000050: 0d18 c03e 0f0e 393e 3555 5e3e 7b3c 763e
00000060: 4393 cb3e e522 22bf bc2a 07bf a63a 4dbf
00000070: 43a4 bdbe 9328 ca3d d51f 7dbe 281f 3f3e
0.06079953 0.21880688 -0.2756082 0.1594186 -0.61019653 0.07976923 0.3359114 -0.028233998
0.19765231 0.22992168 -0.58296955 -0.11414555 0.22605036 0.07309704 -0.016451228 -0.13269351
0.1317255 0.16132917 0.29820016 0.035829674 0.3751835 0.18071769 0.21712191 0.24046509
0.3976079 -0.63334495 -0.5279958 -0.80167615 -0.37039384 0.0987102 -0.24719174 0.18664229

value.2.weight f4 [32, 32]
00000000: 06ee 68bc a950 b13d 9f04 653d 1c37 7fbc
00000010: 6775 4c3d 357f 35be f9e6 e0bd 3624 50bd
00000020: 0234 b5bc d4b5 ce3d 75cf 4ebe ffaf a53d
00000030: cc72 85bd 4b75 ed3d 04dc 383e 27c7 91ba
00000040: 4965 28be b416 123e f2cc 913d 49df 08be
00000050: 84c9 253d a2e7 873d 46ec eebc c045 68bd
00000060: 4eb6 9ebd ed72 1c3d 5578 4c3d ebd9 4d3d
00000070: c477 e43c b9c4 383e 3c74 193d d67d e03c
00000080: 9f1b 833c 02f9 b4bc 4e43 1e3e 3160 e2bd
00000090: 8a49 10be eaf5 bdba 5141 e0bd 7d1f 1e3d
000000a0: 4b38 483d 2add a33d 8726 03bf 9952 063e
000000b0: 8f72 033e c03b 403e 083a de3c 70ac 4e3d
000000c0: 4dd0 223e 7087 16bf 3169 fdbc b8ed 213e
000000d0: ec25 88be 7606 463d 4430 5fbe 7a2b b43d
000000e0: 28cb dcbd 1bc6 243e d43f a53c 5687 9ebe
000000f0: 7f40 b1be 1eee b2bd 870c 593d dffd a33d
00000100: 9103 f63d 7ea2 88bd 614d 103d 0fd1 323c
00000110: bbac 8a3d cbfd 333d 73b4 e13c 5ca7 bbbd
00000120: 40c7 0a3e 79fe eabe 0aa7 8f3e e2cf 433b
00000130: 2f7f 933d 4ae1 d4bd 2594 1b3e fc91 db3d
00000140: 1aac 383e 2276 d83d 3170 503d e671 6dbc
00000150: c68c 2bbe f68b 9c3d 02c6 873d 6a61 1cbe
00000160: 8640 073e 6486 3ebe 6b01 b13d d2c9 813c
00000170: 9b73 1b3e 0afd f7bc eb43 a63d 9af1 1abe
00000180: 21f3 0dbe 99fb 85bd 47b9 733d a68c a4bb
00000190: e508 143d 85c5 033d b64c 5ebe a18f 703e
000001a0: bcfb 9a3d 9b67 7bbd c6ce ca3d b06b 2fbd
000001b0: 2e59 37be 98f0 21bd 9dc1 873d 6280 febd
000001c0: bc46 22be 6ebe 5fbd 5000 473c b509 113e
000001d0: dd14 d1bd 7efe 21bd 1e5a 343e cf47 39be
000001e0: 9fb7 25bd b046 7ebe 0506 e33d 7ea2 33bb
000001f0: 9c3c aa3d da54 c63c 58c0 3a3e 057a 0d3e
00000200: 3487 2c3e fffe 8abd d781 1abd dff2 9ebd
00000210: 5d4e d73d 59ae d53d be04 13be 9562 90bc
00000220: 4f5a 2e3e 538a 03bf 762a 0fbd 6f9a ecbc
00000230: ee34 f1bd a547 3cbd ec3a e4bd 1db8 d03d
00000240: 384a 56be 08a4 853d 1125 fd3d 56c9 f93c
00000250: 3bf5 3ebe 40b1 383d 50b9 843d f44e c7bd
00000260: f2be 17be 259e aebf f63c f53d d23a 813d
00000270: b47b 673d 6f28 503c a804 2cbe d545 62bd
00000280: f83d 283d 8617 3bbe 9368 d93d 14f4 05be
00000290: 2303 19bf d77e c43c 3acc bb3d 5d6b b1ba
000002a0: 970f c0bd 367d 443e a992 b83d 2091 18be
000002b0: 732c 4bbe 55cc 11be 27dd 023e 4667 48bd
000002c0: 2381 51bd a741 0d3e 58d2 30bc 7bb3 7dbd
000002d0: 633b 863d b5b6 0f3e 270e 783d 2114 0d3c
000002e0: 3def f1bd 7536 81be a55b 3fbe c05d fc3d
000002f0: 62a9 193d 0780 15be f1d7 2ebd 2187 ff3c
00000300: b5a3 f9bc 62be 5c3d 5ad6 e03d 74d3 e9bd
00000310: bc4a 38be f8c8 863d 6214 8a3d fe05 a33c
00000320: 5df0 71bb 90ea 56bd 7331 0abe a028 463d
00000330: b403 9ebc 66af 323d eaab b4bd 26a3 ad3d
00000340: fbdc 6c3d 2524 06be df66 ea3d 0b9e 27bc
00000350: 1225 b7ba 54b2 1f3e 9b4a 83be 7410 883e
00000360: 2ac3 c2bc 5dfe 39bd 751e 84be f1f1 ac3d
00000370: cf35 cf3c 67a8 343e fd3d 11be e6f4 e93d
00000380: 131b 19be 7c69 a53d 6397 c73d 6d27 4f3e
00000390: dc4c a1bc 3c2b c8bd 6a0e 9c3d 8be4 a93d
000003a0: 0fbe 5a3c 0eb0 04be 13d6 303d 42fa 373e
000003b0: 3a71 723d 1c8b 1b3e 0cf8 80bd d8d8 853d
000003c0: 23bb d33b 5d48 e13d 2415 fb3d a730 39bd
000003d0: 56f0 2f3c e9f2 073d f416 babc 437c fdbb
000003e0: 56ed 10bd 5610 873d bf8c 0abe e203 87bd
000003f0: 2149 a0bd 7bb8 a03d d356 10be f4fd 193d
-0.014216905 0.08657963 0.05591261 -0.015577104 0.04991665 -0.17724307 -0.109815545 -0.050815783
-0.022119526 0.10093275 -0.20196326 0.08090209 -0.065160364 0.115946375 0.1805268 -0.0011121974
-0.16444887 0.14266473 0.07119168 -0.13366427 0.040475383 0.06635977 -0.029165398 -0.056707144
-0.077496156 0.03819554 0.049919445 0.05025665 0.02788914 0.18043794 0.037464365 0.027403753
0.016004382 -0.022091392 0.15455362 -0.11053503 -0.14090553 -0.0014492844 -0.10949958 0.03860425
0.04888181 0.08001168 -0.51230663 0.13117446 0.1283667 0.18772793 0.02712728 0.050457418
0.15899773 -0.5880041 -0.030933948 0.15813339 -0.26591432 0.048346005 -0.21795756 0.08797355
-0.107809365 0.16091196 0.020172037 -0.30962628 -0.3461952 -0.087368235 0.052990463 0.080074064
0.12012399 -0.06671618 0.035230044 0.010914101 0.06771227 0.043943208 0.027551865 -0.09162781
0.1355257 -0.45897272 0.28057128 0.0029878546 0.07201993 -0.10394533 0.15193231 0.10721204
0.18034402 0.10569407 0.050888244 -0.014492488 -0.1675292 0.07643883 0.06629564 -0.15271536
0.13208207 -0.18605953 0.086428486 0.015843306 0.15180819 -0.030272026 0.08118423 -0.15131226
-0.13862278 -0.06542129 0.059502866 -0.0050216494 0.036141295 0.03217079 -0.2170895 0.2349229
0.07567546 -0.061378103 0.0990272 -0.04282731 -0.17905113 -0.03953609 0.06628726 -0.12426831
-0.15847296 -0.054624967 0.012146071 0.14163859 -0.102090575 -0.039549343 0.17612502 -0.18093799
-0.040458318 -0.24831653 0.110851325 -0.0027410085 0.083123416 0.024210382 0.18237436 0.13816078
0.16848451 -0.06786918 -0.03772148 -0.07761168 0.105129935 0.10433645 -0.14357278 -0.017625133
0.17026637 -0.5138294 -0.034952603 -0.028882233 -0.11777674 -0.045966763 -0.11144051 0.10191367
-0.2092675 0.06525427 0.123605855 0.030491512 -0.18648235 0.045090914 0.06480658 -0.09731856
-0.14818934 -1.3642012 0.11974518 0.06310047 0.056514457 0.012704953 -0.16798651 -0.05524238
0.041074723 -0.18270692 0.10615649 -0.1308139 -0.5977041 0.023986263 0.091698125 -0.0013536025
-0.093779735 0.19188389 0.09012348 -0.14899111 -0.19841175 -0.14238103 0.12779675 -0.048926614
-0.051148545 0.13794576 -0.010792337 -0.061938744 0.06554296 0.14034541 0.06056037 0.008610756
-0.11813209 -0.2523686 -0.18687303 0.12322569 0.03751505 -0.1459962 -0.042686407 0.031192364
-0.03047357 0.0538925 0.10978384 -0.114172846 -0.17997259 0.065813005 0.06742169 0.019900318
-0.003691695 -0.05246979 -0.13495426 0.048378587 -0.019288875 0.043624304 -0.088218525 0.08478384
0.05782793 -0.13099726 0.11445402 -0.0102305515 -0.001397284 0.1559537 -0.25642857 0.26575053
-0.023774702 -0.045408595 -0.25804487 0.08444584 0.025294213 0.17642365 -0.14183803 0.11423664
-0.14951734 0.0807676 0.097456716 0.20229883 -0.01968997 -0.09773871 0.07619937 0.08295544
0.013350978 -0.12957785 0.043172907 0.1796656 0.059190013 0.15189785 -0.06297311 0.065355
0.0064615174 0.1100013 0.12259892 -0.045212414 0.010738453 0.03319064 -0.022716023 -0.0077357604
-0.03538259 0.06594913 -0.13530253 -0.065925375 -0.07826448 0.07847687 -0.14095621 0.037595704

value.2.bias f4 [32]
00000000: 5abd e53d 1842 7f3e 3435 39bd 0e41 01be
00000010: 4cf5 a63d ef4f aebd 4f7f 933c bb9a e4bd
00000020: b909 94bd 7730 54be f589 603e 49d8 6b3e
00000030: dead 4f3e 0f22 11bf d670 9ebc 395c 9a3e
00000040: 2694 b6be 3835 3d3d 0299 973e 2539 7f3e
00000050: aa37 f83d 4c47 a63c eb91 fa3d 28f3 90be
00000060: 6597 0a3e 3be4 2c3e 0313 ffbd c9cb d4bd
00000070: dbed b23d 8b44 08be bc54 c63e 7c7f c1bd
0.112177566 0.24927557 -0.045216754 -0.12622473 0.081522554 -0.0851134 0.018005041 -0.11162325
-0.07228417 -0.20721613 0.21927626 0.23031725 0.20281169 -0.56692594 -0.019340914 0.30148485
-0.35659903 0.04619333 0.29608923 0.24924143 0.12119992 0.020297669 0.12234863 -0.28310513
0.13534315 0.16883938 -0.12454798 -0.103904314 0.087367736 -0.13307397 0.38736522 -0.09448144

value.4.weight f4 [1, 32]
00000000: 9076 223d 127b 873d 572f 22bd 80e0 1cbd
00000010: 90f5 f13c 80c9 5cbd 6e76 7cbd 1be3 b5bd
00000020: aa61 403c 6eac f2bc 2018 2b3d 7ed8 863e
00000030: fad4 a93d 91bb 85bd 4583 3d3d cc8e 463d
00000040: 1179 b0bd edf2 16bd 0bdd 9a3d 290a 833d
00000050: 3391 c13c 4f5a 2e3d 8580 ccbe eed9 e5bd
00000060: 71d3 f03c 2aa9 cf3c f6c1 41bd 4915 f3bd
00000070: a1c3 223d 4a5e ab3c c850 723d c66f b0bd
0.03966385 0.06615271 -0.039595928 -0.038300037 0.029536039 -0.053903103 -0.06163638 -0.088812076
0.011742035 -0.029623237 0.041771054 0.26337045 0.08292575 -0.06529916 0.046267767 0.048476025
-0.086168416 -0.036852766 0.07561692 0.06398422 0.023628807 0.042566594 -0.39941803 -0.112232074
0.029397698 0.025349218 -0.047304116 -0.11869294 0.039737348 0.020918984 0.05915907 -0.08615069

value.0.weight f4 [32, 8]
00000000: 2dda 013d 1608 a73b 8e53 173e 6eb4 7b3e
00000010: 7300 933e a4db b0bd f665 013e cc32 a9be
00000020: 25fe 99be ede5 b63b 825d cc3d 56bb 183e
00000030: 6590 4ebe e762 8fbe bb6a 393f af81 0240
00000040: b912 313e 4aff dabc b296 eebd 1af9 003c
00000050: 9940 1f3b c648 9ebe 53dc 9abe ac56 3a3f
00000060: 9756 443d 0142 153e 3d24 00be 9830 313e
00000070: 52e6 57be 794e 7bbe 085c f0be 1840 25bf
00000080: 9e9e 9a3d cf06 0bbd 820a 9e3d 6b9b 383e
00000090: 59f5 0a3d 5a27 c1bd 3516 eabe 7f0b bc3f
000000a0: 0db3 083e 49f5 b4bd 53eb 1f3e 2774 7bbe
000000b0: fa32 38bc 783c 493e 308e 16bf 6a9d 233d
000000c0: 05c8 6b3d 80bd 423b baa7 a73d 6ddb 2c3d
000000d0: 2ff2 a23e e9d8 8b3e d542 bf3e e629 0ac0
000000e0: 7066 09be 7fb5 673e 0c5a f7bb 5858 28be
000000f0: 314e 953d 93e8 5c3d 1811 9b3e c37f 9a3f
00000100: 5c4e 863e bd04 6b3d 6a6f 4dbe aecb 4a3e
00000110: 4ac2 8ebd d4ef 8e3e 1d9b 313f c812 61bf
00000120: 721a 39be e7cd e3bc 5e07 c93a 5b54 c43d
00000130: 3a01 3d3e 18af 37be cb5b 80be 6c1b 18c0
00000140: c887 b1bd aca2 f2bc 1895 80bc bc20 00be
00000150: 2144 303e 2a3b da3d 77cb 88bf 2750 0e40
00000160: 4261 053e 2dd7 113e 9fce 79bd 1432 95bd
00000170: 9de9 4b3d 21bd 17be 0e0d 07be d4da 353f
00000180: ce2d 1d3e f1fe 1d3e 78dd a53d 6f83 0e3c
00000190: ff17 863e 7f0b 80be accf 1e3f dcbe 15bf
000001a0: 7cb5 e93d a12a 70be ca2b ee3d 6da1 afbd
000001b0: f5b8 61be 07d6 1ebe c068 07bf 6e91 103f
000001c0: 79d3 f83d ff11 d8bd 15b7 6ebe 4eb5 70bd
000001d0: 1822 30be a1b4 013e 3be8 0e3f 5cdb 51bf
000001e0: f86c 263c cfe3 3c3c 47ca 90be a8a6 3c3e
000001f0: 5053 9a3e 72f8 2ebe 9405 5cbd de61 903e
00000200: 49cf 95bd 57a6 983c 3610 9dbe 9919 1e3e
00000210: f5c0 fe3d c26f 703e 90a7 32bf d5b5 883f
00000220: e534 8fbb 9bcd 28bd 6281 6a3e aa59 84be
00000230: 0d7f 86be 7b8f 6f3d fcf8 d6be 6957 413e
00000240: 9ab4 593e 3b5b 4e3e 4d4e 51be 3131 11be
00000250: 53c8 63bd 7fde 95be 34d4 9fbd 2fd9 2a3f
00000260: ad92 133b f48a 193e bd01 ebbc f4f6 63be
00000270: 6782 09be 6957 b43c 8daa 903e 68c2 cbbf
00000280: 0c29 8c3e 4f1e efbd 9654 b3bc 88fd 10be
00000290: ee87 83be 2c3c 093e 254a a73f 4b35 91bf
000002a0: 0c09 8d3e eee0 d03d 6933 8a3a 4e15 bfbd
000002b0: e361 3ebe ef75 843e 4da2 8dbd 844f 7dbf
000002c0: da59 00be 30aa 223d 38d8 323e b40c 6e3e
000002d0: 4bb7 983e 2565 bbbe eee7 cd3d 2e2a 5ebe
000002e0: b8dd df3c 669f 943e 3c5b 823c 87be 1a3d
000002f0: fecf 6c3b 5dec ad3e 60b0 fbbf a5b6 103f
00000300: 4836 683d 67a1 86be 5edf 493e 6a9a c0bd
00000310: 865f 8bbe 2f9a e8bd 4e46 5f3d a087 41be
00000320: 22d0 2ebd f81d 8fbd 08f3 9b3d efe3 0f3d
00000330: 11b4 74be ec50 783e cb8c 65bf 922c 19c0
00000340: a6dc 573e 8f7a c23d 2c97 813e 0a5e 38bc
00000350: e718 583e 14bb abbe c07d 8cbf 8243 4d3f
00000360: 3675 503d 3bda ed3d 11d5 713e 0061 97be
00000370: 9932 38be 284a e3bd 06db ba3d 4324 8dbe
00000380: d7d9 d43b 6e29 3d3e 3d9b 473e 40c1 60be
00000390: bf5b 09bd 95c7 89be 128d 36bf afa4 433f
000003a0: f1ed 703e 8db3 93bd 56ff 8fbe c95a 7d3e
000003b0: 9096 88bd 2940 b23d a844 d3be dc3e 64bd
000003c0: b8af 0e3b 0540 82bd 4cff 7f3e 43e8 b83d
000003d0: d33f 1a3c e374 69be 5d9d f7bd c851 16bf
000003e0: e052 993e cc92 2dbe a4f5 56bd 47a1 c93d
000003f0: bac8 a23c 1e9d bd3e ba88 82bd e624 883e
0.03170221 0.0050973995 0.14777967 0.24580547 0.2871128 -0.08635643 0.12636551 -0.33046567
-0.3007671 0.0055816085 0.09978773 0.14915213 -0.2017227 -0.28005144 0.7242848 2.0391653
0.17292298 -0.02673306 -0.116498366 0.00787189 0.0024299978 -0.30914897 -0.3024622 0.727885
0.04793414 0.1457596 -0.12513824 0.17303693 -0.21083954 -0.24541654 -0.46945214 -0.64550924
0.07549785 -0.03394204 0.07716848 0.18028037 0.033925388 -0.09431334 -0.45720068 1.4691008
0.13349552 -0.08835847 0.15617113 -0.24556027 -0.0112426225 0.19651973 -0.5881071 0.039945044
0.0575638 0.0029715002 0.08186288 0.04220145 0.31825396 0.27313927 0.37355676 -2.1588073
-0.13417983 0.22627829 -0.007548576 -0.1643995 0.072903045 0.053932738 0.3028648 1.207024
0.26231658 0.057377566 -0.20062032 0.1980426 -0.069706514 0.2791735 0.6937731 -0.8791928
-0.18076494 -0.027808143 0.0015337279 0.09586402 0.18457499 -0.17937887 -0.25070032 -2.3766737
-0.08668476 -0.029618584 -0.015696093 -0.12512487 0.17213489 0.10655816 -1.0687093 2.223642
0.13025382 0.1424224 -0.060988065 -0.07284942 0.049783338 -0.1481824 -0.13188574 0.7103703
0.15349504 0.15429284 0.080988824 0.008698328 0.26190183 -0.2500877 0.6203563 -0.58494353
0.114115685 -0.23453762 0.11629446 -0.085757114 -0.22043212 -0.15511332 -0.5289421 0.5647191
0.1214971 -0.105503075 -0.23312028 -0.058766656 -0.17200506 0.1266656 0.55823106 -0.8197534
0.010157816 0.011528923 -0.28279325 0.1842295 0.30141687 -0.17086962 -0.053716257 0.28199667
-0.07314927 0.018634005 -0.3067643 0.15439452 0.124391474 0.23480132 -0.6978693 1.0680491
-0.004370319 -0.041211706 0.22900918 -0.25849658 -0.26268807 0.058486443 -0.41986835 0.18881
0.212603 0.20151989 -0.20440026 -0.14178921 -0.055610966 -0.29271314 -0.078041464 0.66737646
0.0022517846 0.14994413 -0.028687352 -0.22262174 -0.13428651 0.022014337 0.2825512 -1.5918703
0.27375066 -0.11675703 -0.02189092 -0.14159214 -0.25689644 0.1340186 1.3069502 -1.1344389
0.27545965 0.10199152 0.0010543886 -0.093302354 -0.18592028 0.25871226 -0.06915722 -0.98949456
-0.12534276 0.039713085 0.17465293 0.23247033 0.2982734 -0.36600605 0.10054003 -0.21695778
0.027327403 0.2902786 0.015912645 0.037779357 0.0036134715 0.33969393 -1.96632 0.56528693
0.05669239 -0.26295015 0.19714114 -0.09404452 -0.27221316 -0.11357533 0.054510407 -0.18899393
-0.04267896 -0.06988138 0.07614714 0.035129484 -0.23896815 0.24249619 -0.8966796 -2.3933454
0.21080264 0.094960324 0.25310647 -0.011252889 0.2110325 -0.33541167 -1.0975876 0.80181134
0.05089303 0.1161389 0.23616435 -0.29566193 -0.17988051 -0.110981286 0.09123807 -0.27566728
0.006495695 0.18472835 0.19492812 -0.21948719 -0.03353476 -0.26910082 -0.71309006 0.7642316
0.23528267 -0.07211981 -0.28124493 0.24741663 -0.066693425 0.08703644 -0.41263318 -0.05572401
0.0021772217 -0.06359867 0.24999732 0.090286754 0.009414631 -0.22798495 -0.120905615 -0.5871854
0.2994604 -0.1695053 -0.052480355 0.09845214 0.019871105 0.37033933 -0.06373735 0.2659065

value.0.bias f4 [32]
00000000: bfa5 723d c815 5f3e bd7c 8cbe 841c 223e
00000010: 16d8 1bbf 89fc a13d 88c6 ac3e a62c e6bc
00000020: fac6 4a3e 50f9 693e ec68 15bf 455d ebbd
00000030: e5df 643e 67b0 983d 86a8 72bc fc87 07be
00000040: 420f 063e 3d29 253e 5e56 993e 9e9e 133d
00000050: a695 bf3e 3ca7 383e d6a4 5f3e da42 763e
00000060: 1516 cb3e 202b 22bf 24e1 06bf 8104 4dbf
00000070: 2513 bdbe 424c c93d 12f5 7cbe 53dc 403e
0.0592401 0.21785653 -0.27438918 0.1583119 -0.60876596 0.079094954 0.33745217 -0.028097462
0.19802466 0.22849011 -0.58363223 -0.11492399 0.22351034 0.07455521 -0.014810687 -0.13235468
0.13091758 0.16129012 0.29948705 0.03603994 0.3741886 0.18032545 0.21840224 0.2404894
0.39665285 -0.63347054 -0.5268729 -0.80085 -0.3692867 0.09828998 -0.24702862 0.18834047

value.2.weight f4 [32, 32]
00000000: 1948 6ebc e731 b23d fdfb 643d 5ddd 7dbc
00000010: 238b 4b3d 6585 35be 0855 e1bd c8cc 4dbd
00000020: c332 b5bc e724 d03d 633d 4fbe 8cfb a53d
00000030: c395 84bd 6eeb ec3d 44ff 383e 8d4f bbba
00000040: 318c 28be d285 113e 130f 923d efaf 08be
00000050: dce9 253d 8c40 883d 6426 e7bc 4083 66bd
00000060: 5200 9fbd 7a36 1c3d 95b3 4d3d 9e7d 4e3d
00000070: b2cc e63c 90ab 383e 3070 1a3d b867 e23c
00000080: 0ef3 643c 076c b6bc b1b6 1e3e e0d3 e3bd
00000090: a752 11be ba14 f43a 96de e3bd e06f 213d
000000a0: cbc4 473d 3ae8 a33d c264 03bf c0c7 053e
000000b0: cb69 033e 9cb0 413e 0f81 e63c def2 4d3d
000000c0: 7c89 223e 0804 15bf e9bf febc f992 213e
000000d0: c7a0 87be f586 453d be1a 5ebe 67fc b23d
000000e0: 02a7 dbbd a423 243e c32f a73c 6708 9ebe
000000f0: 797e b1be 42e6 b2bd 3f30 5a3d d750 a53d
00000100: 70ce f73d b108 88bd c5dd 0f3d 149a 343c
00000110: e6ea 8a3d a4ee 313d 1414 e33c d0fc babd
00000120: 2257 0a3e 8f91 ebbe cb90 8f3e da4d 3d3b
00000130: 7d16 933d 2c06 d5bd 8879 1b3e e4ab db3d
00000140: 7eda 383e 4c4c d83d 76f3 4f3d 41f0 6dbc
00000150: a5be 2bbe f0d7 9b3d a3c1 853d b835 1cbe
00000160: defc 063e 0993 3ebe 9dd1 b03d 71a0 813c
00000170: ada7 1b3e 465f fabc 4b91 a53d de98 1bbe
00000180: b85b 0cbe 689d 84bd 0e9f 743d be72 a1bb
00000190: 13d9 193d a339 063d 999e 5cbe 4bab 703e
000001a0: 58fb 9b3d e05a 79bd 8894 cb3d 4c67 2fbd
000001b0: 914e 36be 3079 1fbd d806 883d b6bc febd
000001c0: f365 22be 03ac 5ebd d6b1 453c 87dd 103e
000001d0: 1771 d0bd 00e2 1fbd 23ca 343e ffa9 38be
000001e0: 0ceb 22bd d4e8 7bbe 491e e63d 521e 3dbb
000001f0: 9516 aa3d 8987 c83c 8937 3b3e 7527 0e3e
00000200: 5a67 2c3e 55f4 8cbd fc27 17bd e2f3 9cbd
00000210: 5f95 d73d 5a98 d43d f00f 13be 6584 8bbc
00000220: 0fdc 2e3e d4af 02bf a668 0cbd 28ed e8bc
00000230: b20a f1bd 8e75 3cbd 3f8d e2bd db4b d13d
00000240: 1e86 56be 351d 863d 4363 fe3d 9de4 fe3c
00000250: 6f23 3ebe e90e 3a3d 9281 873d d828 c7bd
00000260: 45b9 18be effe adbf 298d f43d 2d19 833d
00000270: 6c39 6b3d a711 5e3c 3105 2ebe 25fc 5dbd
00000280: ad70 2e3d d1a7 39be 658c d93d ca14 07be
00000290: c83d 1abf 4b7c c53c 9a68 bf3d 6979 a1ba
000002a0: 0914 c0bd 5e84 463e a147 ba3d 7bcd 18be
000002b0: 4c67 4bbe f43d 11be a40e 033e b40d 47bd
000002c0: 1a32 4fbd 6ef9 0d3e 0eef 30bc 4c35 7ebd
000002d0: e21e 863d 0d8e 0f3e b3ce 733d 493e fc3b
000002e0: f8cf efbd 2a45 7fbe 7b7c 3fbe 6545 fb3d
000002f0: 7394 173d 9b43 15be 75e8 1fbd b4b8 003d
00000300: 0ec5 fabc 9ee5 583d 1995 e03d 38f6 e9bd
00000310: 89c9 38be 5cd2 863d 8384 8a3d 2736 a53c
00000320: b4bd 7cbb 377e 5bbd 6cf7 09be 4cd5 453d
00000330: 8a63 a3bc a240 323d 0fec b4bd 8169 ad3d
00000340: cc86 6b3d 8a1a 06be 4b48 ea3d 933a 26bc
00000350: cd29 d0ba 4586 1f3e 823e 84be c209 883e
00000360: 486a c5bc 7a65 39bd 24b4 84be 3aa7 ac3d
00000370: 135b cd3c 85a1 343e 7978 13be 3de5 e83d
00000380: 4339 19be ca45 a63d 388f c73d 35dc 4e3e
00000390: 2c1d 9fbc 95b2 c7bd 6e9b 9a3d c4b5 aa3d
000003a0: f22a 553c c92a 05be 6e3c 333d 61de 373e
000003b0: e23d 6e3d e207 1c3e 8331 81bd f7f3 853d
000003c0: 4ed2 d43b 5df9 e23d b31a fb3d 9663 38bd
000003d0: b64f 2f3c f614 073d 32dd c3bc 6f99 02bc
000003e0: ac51 0fbd e2dc 873d 044e 0bbe 020a 87bd
000003f0: 8b44 a0bd 1644 a03d 5c9b 10be b7a2 183d
-0.014543557 0.08700924 0.055904377 -0.015494672 0.049693238 -0.17726667 -0.110025465 -0.050244123
-0.022118932 0.101632886 -0.20238261 0.081046194 -0.06473877 0.11568342 0.18066126 -0.0014290676
-0.16459729 0.14211205 0.071317814 -0.13348363 0.04050623 0.06652936 -0.028216548 -0.056277514
-0.07763733 0.03813789 0.05022009 0.050412767 0.028173778 0.18034196 0.037704647 0.027637348
0.013973964 -0.022268308 0.15499379 -0.11124396 -0.14191686 0.00186219 -0.11126439 0.039413333
0.04877166 0.08003278 -0.5132562 0.1306448 0.12833326 0.18915027 0.028137712 0.050280444
0.15872759 -0.58209276 -0.03109737 0.15778722 -0.2648985 0.04822441 -0.21689889 0.08739548
-0.107252136 0.16029221 0.020408517 -0.30865785 -0.34666803 -0.087353244 0.053268667 0.080720596
0.12099922 -0.06642283 0.035123605 0.011023063 0.067830846 0.043440476 0.027719535 -0.091302514
0.13509801 -0.4600949 0.28040156 0.0028885514 0.07182024 -0.10401568 0.15183079 0.10726145
0.18052098 0.105614275 0.05076929 -0.014522613 -0.16771944 0.07609546 0.06531074 -0.15254867
0.13182399 -0.18610777 0.086337306 0.015823575 0.15200682 -0.030563008 0.08084353 -0.15195033
-0.13706863 -0.06475335 0.059722 -0.0049270084 0.037560534 0.03276981 -0.21544875 0.23502843
0.076162994 -0.06087768 0.099404395 -0.04282312 -0.17803408 -0.038933933 0.0664193 -0.124383375
-0.15859203 -0.054363262 0.012066325 0.14147006 -0.1017782 -0.03903389 0.17655234 -0.18033598
-0.03977494 -0.24600536 0.11236245 -0.0028857184 0.083050884 0.02447869 0.18282904 0.13882239
0.168363 -0.0688254 -0.036903366 -0.076637045 0.10526537 0.10380621 -0.14361548 -0.017030904
0.17076133 -0.5104954 -0.034279488 -0.028433397 -0.11769618 -0.046010546 -0.11062097 0.102195464
-0.20949599 0.065485395 0.124212764 0.03111487 -0.18568204 0.045424376 0.066165105 -0.09724587
-0.14914425 -1.3593425 0.11940987 0.06401286 0.05742781 0.013554013 -0.16994168 -0.054195542
0.042587925 -0.18130423 0.10622481 -0.13191524 -0.6025052 0.024107119 0.09346123 -0.0012319508
-0.093788214 0.19386432 0.090956934 -0.14922135 -0.19863623 -0.1418379 0.12798554 -0.048597053
-0.05058489 0.13864681 -0.010799183 -0.062062547 0.06548859 0.14019032 0.059523296 0.0076978547
-0.11709589 -0.24928728 -0.1869983 0.12269095 0.037006807 -0.1457657 -0.039040048 0.031426147
-0.030611541 0.052953355 0.10965938 -0.114239156 -0.1804563 0.065830916 0.06763556 0.020167423
-0.003856522 -0.053587165 -0.1347329 0.04829912 -0.019944925 0.04351867 -0.08834087 0.08467389
0.0575016 -0.13096061 0.1143957 -0.010145801 -0.0015881598 0.15578564 -0.2582894 0.26569945
-0.02409853 -0.04526279 -0.25918686 0.084303334 0.025067842 0.1763974 -0.14401425 0.11371849
-0.1496325 0.0811878 0.09744114 0.2020119 -0.01942309 -0.09750859 0.07549177 0.0833545
0.013010727 -0.13004602 0.043758802 0.17955925 0.058164485 0.15237382 -0.06308272 0.06540673
0.006494797 0.110827185 0.12260952 -0.045016848 0.010700157 0.032978974 -0.023909185 -0.007971152
-0.034989998 0.06633927 -0.1360398 -0.06593706 -0.078255735 0.07825486 -0.14121765 0.037264552

value.2.bias f4 [32]
00000000: 53b0 e63d 3728 7f3e 130d 3abd 0cb8 00be
00000010: c9b3 a83d e4c9 acbd 8337 8e3c 9f17 e5bd
00000020: d84f 93bd 50e6 54be 2f63 603e 5c54 6b3e
00000030: ced2 4e3e e810 11bf 5d56 9abc 49c9 993e
00000040: 85a8 b6be f63a 3b3d 37a6 973e a38f 7f3e
00000050: 50f1 f73d a5d4 a63c 158e fa3d e04e 91be
00000060: 90af 093e 7cac 2c3e 54ab fdbd 0218 d7bd
00000070: 5f56 b23d d15b 08be 7a60 c63e e30d c5bd
0.112641 0.24917684 -0.045422625 -0.12570208 0.08237416 -0.08436945 0.017360454 -0.11186146
-0.07192963 -0.20790982 0.21912836 0.229814 0.20197603 -0.5666642 -0.01884001 0.3003638
-0.35675445 0.045710526 0.29619 0.24957137 0.121065736 0.020365069 0.12234131 -0.2838049
0.13445878 0.16862673 -0.12386194 -0.10502626 0.0870788 -0.13316275 0.3874548 -0.09621789

value.4.weight f4 [1, 32]
00000000: 9a11 233d 502f 873d 2902 23bd ce75 1cbd
00000010: f6ff f53c c641 5cbd 434c 7dbd bf45 b6bd
00000020: 9134 283c 5601 f4bc 1e70 293d 119d 863e
00000030: 2f0c aa3d 9a9b 86bd 994c 3b3d 4584 453d
00000040: 42c6 b0bd df2a 17bd fe28 9b3d 3d39 833d
00000050: 9f1d c23c 8287 2e3d 04b2 ccbe 2fb9 e5bd
00000060: d159 f13c a0c1 d23c 5dd8 41bd adde f2bd
00000070: d864 233d 18bf a93c 1529 733d cbdd afbd
0.039811708 0.06600821 -0.039796982 -0.038198285 0.030029278 -0.053773664 -0.061840307 -0.08900022
0.010266439 -0.029785793 0.04136669 0.26291707 0.08303105 -0.065726474 0.045727346 0.048221845
-0.08631565 -0.03690612 0.07576178 0.06407402 0.023695765 0.0426097 -0.39979565 -0.112169616
0.029461773 0.025727093 -0.04732548 -0.11858878 0.039891094 0.020721003 0.05936535 -0.085872255

actor.0.weight f4 [32, 6]
00000000: 26ca 303d 39b5 8a3e e619 2e3e fec2 8d3e
00000010: 2c60 c0be 62b5 83be 2155 083d f9d5 f0bb
00000020: 5f45 82be da47 9fbe 0833 08be ed82 163e
00000030: c9f4 3b3e 6e16 8b3d 859a eb39 add4 81be
00000040: a320 273e 86a4 d13d 8b8a d6be 063e 893d
00000050: 53e0 003c a9ba 983d cbe1 b6be 6397 2d3e
00000060: 15ca 3fbe cff7 b6be 4379 c73d 2961 9a3d
00000070: 41b2 61be 1dab 6ebe cd05 99bd 7beb e0bc
00000080: 7ace 5bbe 78b4 edbd 89dd 80be f835 083b
00000090: f4ae 03bd 083f dbbe c270 e6bd 8712 043e
000000a0: 2797 d73d 7e10 d83e 1060 c33d 4098 d7bd
000000b0: d018 f83e ac26 bc3e 5ba4 93be 631a 10bd
000000c0: f5d8 55be 6406 ba3e 9093 353e 9007 24be
000000d0: 23bc 36be c735 043e 765b efbe c74a d53b
000000e0: e692 4cbe cc95 c53e f1c7 4c3e ca70 783e
000000f0: ec24 b4be 0e6b 4d3e 28d3 d73e d26d e73e
00000100: 6c0e 08be 78aa 96be f1ff 943e 00ec 61bc
00000110: 1319 663e b17e e63b 852e 22be dc29 cbbe
00000120: f9df e53b 08c1 63be 188a 2ebe 312f 353e
00000130: 047b 80be 8a56 bb3d 4821 a6be 8dde a8be
00000140: 727a 1bbc 095d 8dbd 31c2 d83d 1f39 38bd
00000150: a185 0ebd dc72 b4be 684a ed3e 3dc7 a93b
00000160: 70d6 013e df62 4bbe 0e11 4cbe d432 da3e
00000170: c780 543e 6ce6 3c3e 7913 883e d6dc 723e
00000180: 76dc 2ebd 577a cf3e 8e29 443c b285 3abe
00000190: 46c0 f0bd 189e eebe e5d3 01be 2b5b 843e
000001a0: 9af7 70be 3a28 f43e 45d0 0a3d a050 c4bd
000001b0: 87f3 e4be b417 3a3e 8355 74be f34e a3bd
000001c0: 17f4 103d 6aeb 563c 3a16 2bbe 0052 58bd
000001d0: 1f0d 32be 55f3 063f a69e 5a3e 76c3 3a3e
000001e0: 02c5 f8bd 5514 2bbe 0897 aa3e b209 7bbe
000001f0: fdef 82be 071a d93e ae38 0d3e 85ad 173f
00000200: 388a f8bd 820c 713e e59e cd3d 0eea 85bd
00000210: 7eba 7fbe f2ac 493d 055d f3bd 2c19 32be
00000220: 9364 193e 182d bf3e 9e30 16be 155d b6be
00000230: 2549 7d3d bb76 f33e f54c a2be 143c d43d
00000240: 4ff6 8e3d 3e43 6e3e 20b0 2fbe cbe6 72be
00000250: ef69 4a3e d805 f03e 0507 03be 66f7 c23d
00000260: 02d8 bfbe 2684 3d3e d5a2 d9bd df2e 0abe
00000270: 5515 fdbe cbf3 98bb 99ac 2c3e 6bc9 ba3e
00000280: f10f 01be 6f34 7c3d 7ccb 69be 4b10 41be
00000290: 009f d83e ca3f 6abe e00b c7be 5fc5 0abe
000002a0: e2eb c1bd f7ea dd3e 6b69 d03e 564c ad3e
000002b0: e8f0 083f 10fa 003e df43 df3b d1eb 663e
000002c0: 1f6e a93e adcb 913d 3ca7 bb3e ca23 b1be
000002d0: b92c c73e bd5e 703e a064 05bf e5ae ce3e
000002e0: e434 a73e 5497 683e d624 283d 3206 b1be
000002f0: 5e69 64be bf85 833e 1f6a 54bd 9e4c 15be
0.043161534 0.27091387 0.17002067 0.2768783 -0.37573373 -0.25724322 0.03328431 -0.0073497263
-0.2544355 -0.31109506 -0.13300717 0.14698382 0.18355097 0.067913875 0.0004493782 -0.2535757
0.16321044 0.102364585 -0.41902575 0.06701283 0.007865983 0.074574776 -0.3571914 0.1695228
-0.18729432 -0.35735938 0.09739926 0.07538063 -0.22040655 -0.23307462 -0.074718095 -0.027456036
-0.21465483 -0.11606687 -0.25169018 0.002078412 -0.03214927 -0.42821527 -0.112519756 0.12897693
0.10526877 0.42200083 0.09539807 -0.10527086 0.4845643 0.36748254 -0.2883633 -0.035181414
-0.20883544 0.36333 0.17732072 -0.1601851 -0.17845206 0.1291114 -0.46749467 0.0065091583
-0.19977912 0.38590848 0.19998147 0.24261776 -0.3518442 0.2006037 0.42153287 0.45200974
-0.13286752 -0.29426932 0.29101518 -0.013789177 0.22470503 0.0070341458 -0.15838058 -0.39680374
0.007015225 -0.22241604 -0.17044866 0.17693783 -0.25093853 0.091473654 -0.32447267 -0.32982293
-0.009489642 -0.06902511 0.10583914 -0.04497635 -0.034795407 -0.3524388 0.4634583 0.0051812218
0.12679458 -0.19861935 -0.19928381 0.42616904 0.2075225 0.18447274 0.26577356 0.23717055
-0.042690717 0.40523025 0.011972798 -0.18215063 -0.11755423 -0.4660499 -0.12678488 0.25850806
-0.23531953 0.4768694 0.033890028 -0.095856905 -0.44717047 0.18173105 -0.23860745 -0.07974043
0.035389032 0.0131176505 -0.16707698 -0.052812576 -0.17387818 0.52715045 0.21349582 0.18238625
-0.12146951 -0.16706975 0.33318353 -0.24515417 -0.25573722 0.4240267 0.13791153 0.59249145
-0.12135738 0.23539928 0.10040072 -0.06538783 -0.24973485 0.0492372 -0.118829764 -0.17392415
0.14979772 0.3733909 -0.14666983 -0.3561789 0.061837334 0.47551522 -0.3169934 0.103630215
0.069805734 0.23267838 -0.1715703 -0.23720853 0.19766973 0.46879458 -0.12795646 0.09519844
-0.37469488 0.18507442 -0.10626761 -0.13494442 -0.49430338 -0.0046677343 0.16862716 0.36481795
-0.12603737 0.061573442 -0.2283153 -0.18853872 0.42308807 -0.22875896 -0.38876247 -0.13551854
-0.09468819 0.43343326 0.40705428 0.33847302 0.53492594 0.12595391 0.006813511 0.22550894
0.33091828 0.07118926 0.36651027 -0.34597617 0.38901308 0.2347364 -0.52106667 0.4036781
0.3265754 0.22713977 0.041050754 -0.3457504 -0.2230582 0.25687978 -0.051859017 -0.14580008

actor.0.bias f4 [32]
00000000: dfe7 893e 2324 4abd 4300 51be 6a2b 1e3e
00000010: e1fb 213b 59a6 f3be 621c 8dbd 4b86 c83e
00000020: c65f aa3d 34a3 dfbe 8ff9 c4be 9370 c83e
00000030: 958c 52bd f297 c13d 38a9 c53e f45f d63e
00000040: 6e54 12be 1120 2ebe 7e21 b73e 0eca 4fbe
00000050: 7efb f73e a009 033f 7677 43be 0269 7ebe
00000060: 6e7f 8bbe e18d e0bc 18af 73bc 76f6 aa3d
00000070: 2fe9 173f 2578 843d 7113 793e d8ce 09bd
0.26934716 -0.04935087 -0.20410256 0.15446249 0.0024716782 -0.4758785 -0.06890179 0.39164957
0.083190486 -0.43679202 -0.38471648 0.39148387 -0.0514036 0.094528094 0.38605666 0.4187008
-0.1429002 -0.1700442 0.3576774 -0.20291921 0.4843406 0.5118656 -0.1908854 -0.24844745
-0.2724566 -0.027411403 -0.014873289 0.0834779 0.59340185 0.06468228 0.24323823 -0.033644527

actor.2.weight f4 [32, 32]
00000000: 9ae6 0dbf 1432 c43d 3bfb 9b3d 9637 b2bc
00000010: d6da 13ba 95be ff3b a35b 4f3d 7719 88be
00000020: f4f6 713e d08b 753d d4c4 7fbe 5ca2 9f3d
00000030: b604 1a3e 869f ef3d 9746 15be b729 c1be
00000040: 0248 b9bd da48 eabe 4c3f 3abd 173d d43e
00000050: ffd1 083c 9043 0f3d fb1d 71be abe9 9e3c
00000060: 8c83 7f3d 7891 df3d 630f f03c 3c17 cabd
00000070: 4b57 9cbe 129e 273e a903 0c3e 9320 963d
00000080: c73a 913e 0943 ff3d 87b9 b7bd fee6 893b
00000090: 7acf 28be 8cb4 afbd 4f09 9bbe b3cf 60be
000000a0: 6ecf 15bf 873b 563e 1461 f4bd 60d6 70be
000000b0: dba0 e13d 230a ebbb 2d80 4cbe 8ad1 f2be
000000c0: 0eb8 8cbe d5ab 673e 29af a8bd a880 c93d
000000d0: 61b0 1ebf 6e1f b3be 6ef3 74ba 4b4d ef3d
000000e0: b9d4 853e 7ed3 a83c 953f d03e d6d2 56bd
000000f0: 3051 3dbe de11 55bf de50 fb3c d15e 97bc
00000100: 12e4 19be 4b67 5f3e 6144 203e 47ed 283e
00000110: 792e 91bd db18 743e 061b 57ba e7f9 19bd
00000120: 74f2 81bf 524e 2c3d 42a7 0cbc b5ca c63d
00000130: b4ff f63d 8d76 c93d a43b 5e3d 0e05 68be
00000140: e7f5 0bbe bb29 37be 16cf 3dbd 0d92 2a3e
00000150: 17ac b43e cb0a 80be 87bd 66be 4d6d 1ebe
00000160: 6886 a5bd 6839 1d3e 2e37 363e dc11 68be
00000170: 1f0a 0a3e ac69 04be 6516 383e 3423 0f3e
00000180: bc72 99be 98c6 c1bc 8bbf e2bd c6b8 67be
00000190: 5023 b0be a755 ff3d 62f2 f5bd 50d6 07be
000001a0: 5584 593c be5b e83d af68 1ebe 95e2 f6bd
000001b0: 0a04 853e bdfe 7cbe a866 1a3e 70f5 b0bd
000001c0: e310 9a3e d622 c8be 91d0 85be a514 c9be
000001d0: 349e 9dbe 52b8 cbb9 c2c3 813e bc0b 723c
000001e0: 9b81 09bd 0d70 f83d e9f1 83be 5c76 793c
000001f0: 9c70 8dbb 32d3 eb3e 72c5 693d 96f7 693e
00000200: 5b29 3b3d ca1b 153d c102 29bd 4c94 823e
00000210: 6417 673d e1b1 8bbd 7d27 da3d 2915 7c3e
00000220: d6e6 b1bd bc26 393d fbf2 0cbd 19c6 38bc
00000230: 6d9e 753e ed91 6b3c 8cfc 843b 49b2 5e3e
00000240: 34d1 af3d 7bca 1d3b 962e 593e cd78 babe
00000250: 532e 1b3e c343 613e f432 333e 5b6c 31be
00000260: 5805 cdbd 5cfd 313c f416 e43d 510c 823d
00000270: 2609 27bc bb8a d73d 9c60 383e 4a51 39bd
00000280: bfc3 0f3e c37d f8be 3bfb c4bd 5c77 4c3e
00000290: 8a8e d4bd dd89 7abe ff1d a4bd e09a e93c
000002a0: 8841 dabc 3719 d4bd aa9d 943d 83d4 e13c
000002b0: 096d efbe 1165 25bf 8878 c33c 45f5 b6be
000002c0: e3cf 82bc 1e28 e4bc 4621 003d 0fe6 543e
000002d0: 1d62 debd 3d7a 753e b65b c3bd 21df 4f3e
000002e0: 26b8 50bc e26d b53d 7a05 bcbe 6fcf 80bc
000002f0: 3e29 633d 44ad 943c bfc0 943e 113f fbbc
00000300: f88a f3bd 3ebd b4be 4de7 583d 0125 773e
00000310: 5c9e 013e 389f 54bf 1541 a13d 06e0 973e
00000320: 06eb 95be 3f21 9d3e c2a3 22be d05a 94bd
00000330: d5e1 b1bd e7ed 93bc ed24 3c3e 4256 33bf
00000340: 1839 d9be 50a1 673c 92fc b03e 828d 293d
00000350: afa9 fd3c c5b1 78be ec04 0abd 0b48 0e3e
00000360: 3a7d 873e 241b c3be 4b31 373e 007d dc3d
00000370: fbb9 34bd 9265 fd3d c58a b9be c290 c3bd
00000380: 3688 91be 5ab9 633d 3cd7 993e 724c be3c
00000390: da07 03be a316 98bd 2031 843d 8409 c8bd
000003a0: 39e3 813e 8953 cbbe cafa 10be 54df 91bd
000003b0: ed2b 5d3d 6ab9 33be 6104 8bbe 5e95 afbe
000003c0: 24fa 583e 5116 ea3d dbf3 43bb 5a28 4ebd
000003d0: ae7c c43e 43b5 b83e e2c0 86bc 5e28 2c3d
000003e0: 2c58 55be 7da1 0d3e 31ad 10bf 0a46 2f3d
000003f0: e9ec b63e 0dd6 d83d 3f35 e73b 84a3 fbbc
-0.55429995 0.09579864 0.07616278 -0.021755021 -0.0005640214 0.0078047016 0.0506245 -0.26581928
0.23629361 0.05994779 -0.24977428 0.077946395 0.1504086 0.117003486 -0.14577709 -0.37727138
-0.090469375 -0.45758706 -0.04547052 0.41452858 0.008350848 0.034976542 -0.23546593 0.019398531
0.062381312 0.10916418 0.029304212 -0.09867713 -0.3053535 0.16368893 0.13673271 0.07330432
0.28365156 0.12463958 -0.089709334 0.0042084446 -0.16485396 -0.085793585 -0.3028054 -0.21954231
-0.5851964 0.20921145 -0.11932579 -0.23519278 0.11017009 -0.0071728393 -0.1997077 -0.4742549
-0.27484173 0.22624142 -0.08236534 0.09838992 -0.6198788 -0.34984916 -0.0009344135 0.11684664
0.26138857 0.02060866 0.4067351 -0.052447163 -0.18488002 -0.8323039 0.030678209 -0.01847783
-0.15028408 0.21816747 0.15651084 0.16496764 -0.07088942 0.23837607 -0.0008205626 -0.03759184
-1.0152116 0.04206688 -0.008584799 0.09706632 0.1206049 0.09837065 0.054256096 -0.22658178
-0.13668023 -0.17887013 -0.04634007 0.16657276 0.35287544 -0.25008234 -0.22533236 -0.15471382
-0.080822766 0.1535393 0.17794487 -0.22663063 0.13480423 -0.12930936 0.17977293 0.13978273
-0.29970348 -0.023654267 -0.1107169 -0.22629079 -0.3440194 0.12467509 -0.120091215 -0.13265347
0.013276179 0.113456234 -0.15469621 -0.12054936 0.25979644 -0.2470655 0.15078223 -0.086405635
0.3009101 -0.39089078 -0.26135686 -0.39273563 -0.30784762 -0.00038856507 0.25344664 0.0147733055
-0.033570867 0.12130747 -0.257705 0.015225973 -0.0043164026 0.46059567 0.057073064 0.22848353
0.045693737 0.036403455 -0.041262392 0.25503767 0.05641879 -0.06821037 0.10652063 0.24617447
-0.086866066 0.045202956 -0.03441141 -0.011277699 0.23986216 0.014378053 0.0040584262 0.21747698
0.08584824 0.0024076987 0.21209177 -0.3642029 0.1515439 0.21998505 0.17499906 -0.1732649
-0.10010785 0.010863628 0.111371905 0.063500054 -0.010195052 0.105245076 0.18005604 -0.04524354
0.14039515 -0.4853345 -0.09618231 0.19967407 -0.1037875 -0.24466653 -0.08013534 0.028516233
-0.026642576 -0.10356372 0.072566345 0.027567154 -0.46762875 -0.6460734 0.023861185 -0.35734
-0.015968269 -0.02785116 0.031281732 0.20790885 -0.108585574 0.23972411 -0.09538977 0.2029996
-0.012739217 0.08858849 -0.36722928 -0.015723912 0.055459253 0.018149026 0.29053304 -0.03066972
-0.118917406 -0.3530063 0.05295496 0.2413521 0.12658066 -0.8305545 0.078737415 0.29663104
-0.2928087 0.30689427 -0.15882781 -0.072438836 -0.08685652 -0.018057777 0.18373461 -0.70053494
-0.42426372 0.014137581 0.34567696 0.041394718 0.0309647 -0.24286564 -0.0336961 0.1389467
0.26462728 -0.38106644 0.17889898 0.10766029 -0.044122677 0.123728886 -0.36238685 -0.09549095
-0.28424233 0.055596687 0.30047023 0.023229811 -0.12795964 -0.074261926 0.06454682 -0.0976744
0.2536867 -0.3971217 -0.14158168 -0.071226746 0.05399697 -0.17551199 -0.27151778 -0.34293646
0.21189171 0.11430038 -0.0029899988 -0.05033145 0.38376373 0.36075792 -0.016449396 0.042030685
-0.20834416 0.13831134 -0.5651427 0.042791404 0.35727623 0.10587702 0.007055908 -0.030717619

actor.2.bias f4 [32]
00000000: d2b6 423e 84d9 17be fe01 1abd 1ad8 023d
00000010: 839b d83d 1063 483d 2d01 5fbe 191a 103e
00000020: cc82 bc3d 7619 073d 54e4 0ebe 503d 8bbc
00000030: 84c6 a93d b4b5 cfbc 70e6 793c fdc1 cc3d
00000040: 238d 303d 0d7f dfbd 14f4 5a3e 0afc 1d3e
00000050: 699a 2d3d bc71 fe3d ef67 17be 71cc e4bd
00000060: eb05 24bd c6c1 c3bd 4ae9 96bd ad82 643e
00000070: c373 303d 8ad2 01bc 7cd0 37bd 523c 9fbd
0.19015053 -0.1482907 -0.037599556 0.03194437 0.105765365 0.0489226 -0.21777792 0.14072455
0.09204635 0.032983266 -0.13954288 -0.01699701 0.08289817 -0.025355197 0.0152526945 0.09997938
0.04310335 -0.10912905 0.21382171 0.15428177 0.042383585 0.12424037 -0.14785741 -0.111718066
-0.040044706 -0.09558444 -0.07368715 0.22315474 0.04307915 -0.007923732 -0.04487656 -0.07775177

actor.4.weight f4 [2, 32]
00000000: d692 c93e ced9 afbe e5ec fd3e bbb2 ce3e
00000010: f047 92be bab0 5c3e 7407 0dbe ea26 ec3d
00000020: 2a36 903e 9dad a0be 0ac0 4a3f 5f87 163d
00000030: c78f 213f 01ee 0a3f af19 d33d 9f26 d3bd
00000040: 048e a23e 53d7 933e cc4c f73e 221c 82bd
00000050: 0c90 c2bd 7bef 313c 15ac dabe f818 523f
00000060: 53be 8e3e 12af 48bf 6cb4 a0bd 5b77 e3be
00000070: 6e8f 43be 812e 283f 07c5 d6bd 43b9 1ebf
00000080: 9f5d 363e d16e eebe a790 32be 6196 963e
00000090: 14df dbbd 4be5 8c3e 32c0 323e 21e1 113f
000000a0: a925 3c3e b9a8 973e 556d 863e 654e 3dbe
000000b0: 272c 31bd 20cb 7abf e02c 03bf 8198 09be
000000c0: 1f3e 653e 6b92 58bc 4474 e63c aac4 323d
000000d0: 4033 85be 82ef 34be 8dd7 ba3e f2fb 003d
000000e0: e2da 13be d18d 343e 23f3 eebd bb60 973e
000000f0: 9d19 863d 5a4f 863e 8d2f aabe 787d 2fbe
0.3936984 -0.3434586 0.495948 0.40370736 -0.2857051 0.21551791 -0.13772374 0.1153086
0.28166324 -0.31382456 0.7919928 0.036750194 0.6311001 0.54269415 0.10307633 -0.10310101
0.31748974 0.28875217 0.4830078 -0.06353022 -0.09500131 0.010860319 -0.42709413 0.8206935
0.2787958 -0.78392136 -0.07846913 -0.44426998 -0.19097683 0.6569596 -0.10486799 -0.62001437
0.17809151 -0.4656892 -0.17437993 0.29411605 -0.10735908 0.27518687 0.17456129 0.56984144
0.18373741 0.29620913 0.2625529 -0.18486936 -0.043254998 -0.97966194 -0.5124035 -0.13437082
0.22386979 -0.0132185025 0.028131612 0.043644585 -0.26015663 -0.1766949 0.36492577 0.031490274
-0.14438966 0.17632224 -0.116674684 0.29565987 0.06547854 0.26232415 -0.33239403 -0.17137706

actor.4.bias f4 [2]
00000000: 4ca9 c2bd 153f 07be
-0.09504947 -0.13207658

actor.0.weight f4 [32, 6]
00000000: ef7b 373d a607 8b3e 0253 2e3e 2588 8d3e
00000010: 4c41 c0be 8296 83be fc2c 033d cc18 f3bb
00000020: 1ddc 81be 9d74 9ebe e933 0dbe 0c82 113e
00000030: bcd3 3e3e 5553 873d 207f c0b9 e345 82be
00000040: dd94 263e 088d d03d 2711 d8be 9ecb 8b3d
00000050: 8462 af3b 723c 923d badc b6be 87a1 2d3e
00000060: 2724 3fbe 9ec9 b7be 5994 c53d 6901 9c3d
00000070: 7709 61be 5302 6ebe 6c23 97bd 781f f3bc
00000080: 614f 5fbe b7f9 edbd 09ab 81be 58ce 053a
00000090: 2975 eebc 8bd7 dcbe cbba e9bd a3ed 013e
000000a0: c396 d73d 1a10 d83e 262d c23d 0d33 d9bd
000000b0: d246 f73e 6cbb bb3e dfac 93be 7d5e 10bd
000000c0: edfc 55be 404f b83e 2edd 383e e9de 1fbe
000000d0: 7945 38be 71ac 023e 9a2b f0be e4ba d53b
000000e0: c56c 4fbe 5b78 c43e 291e 503e 03c7 7b3e
000000f0: 35a7 b3be f818 4d3e 2321 d73e 206a e73e
00000100: ecfd 07be 3aa2 96be 1cc8 963e 92f4 90bc
00000110: c3d7 673e 9089 b03b 0c9e 20be 9a61 cabe
00000120: 6df4 033c d9f4 63be 80e1 2dbe e58f 353e
00000130: b203 81be be33 b93d 41bd a7be 150c a8be
00000140: 2a68 fbbb ebcb 87bd 27d0 d63d 201d 3cbd
00000150: f10b 0abd 3a1a b4be c2ad ee3e 1117 a73b
00000160: 8598 023e c8a0 4abe 1d3a 4ebe f38a db3e
00000170: 2abc 513e 0b0b 3a3e 48e1 873e 6a78 723e
00000180: 1c6e 3dbd fcd3 ce3e 9b0b 783c 2ddc 36be
00000190: 6fb7 f0bd e99b eebe 51ee 00be b9ca 843e
000001a0: bd5d 71be dfba f33e 0d7e 0a3d ba79 c4bd
000001b0: ddda e5be da42 3c3e 4ecf 76be f602 a9bd
000001c0: 21f9 003d 98ff 163c d9fa 2bbe 4cf2 5ebd
000001d0: 14fc 31be 55ff 063f e6b2 5b3e b6d7 3b3e
000001e0: 2bf9 f8bd 3322 2abe c544 aa3e ba54 7bbe
000001f0: 4495 83be c074 d83e 500e 0c3e 06e0 163f
00000200: 1bf1 f2bd 5b29 753e ca50 cb3d 2938 88bd
00000210: dbaa 80be 9e59 413d 6222 f2bd d6f2 32be
00000220: 2f64 193e b42c bf3e 29b7 16be 4544 b6be
00000230: 9a4c 7d3d 0ba8 f43e 1da7 a2be 88d3 d23d
00000240: 11f6 8f3d f231 6f3e e78a 2fbe 337f 72be
00000250: 8b69 4a3e 7405 f03e 53ed 02be 9de3 c33d
00000260: 3d3a c0be 18d3 3c3e 8377 d5bd 3c19 08be
00000270: b77b fdbe 8f49 81bb e238 2b3e 4489 b93e
00000280: 0999 02be 1610 763d 6a4c 6bbe 2746 40be
00000290: dfbd d83e 9742 68be 62dd c5be 6b68 08be
000002a0: efcd cfbd 7f29 df3e cee5 cd3e 4dfc ac3e
000002b0: 84f0 083f acf9 003e f213 143c 8e8f 643e
000002c0: 7239 aa3e 0754 943d 9d53 ba3e 6977 b2be
000002d0: a527 c83e b4b2 6d3e dd91 04bf 204c d03e
000002e0: d9bc a73e 47a7 693e af44 2e3d 6bbd b0be
000002f0: a4f2 65be 1155 823e 50ee 56bd a4ed 15be
0.044795927 0.27154273 0.17023852 0.27642933 -0.37549818 -0.25700766 0.032025322 -0.0074187275
-0.25363246 -0.30948344 -0.13789333 0.14209765 0.18635458 0.06607691 -0.0003671581 -0.25443944
0.16267724 0.101831496 -0.42200586 0.06825946 0.00535232 0.07140435 -0.35715276 0.16956149
-0.18666135 -0.3589601 0.09647436 0.076174565 -0.21976267 -0.23243074 -0.07379803 -0.029678091
-0.21807624 -0.11619895 -0.25325802 0.0005104295 -0.0291086 -0.43133196 -0.11412581 0.12688307
0.105268024 0.42199785 0.09481268 -0.1060544 0.4829622 0.3666643 -0.28842828 -0.03524636
-0.20897265 0.35997963 0.18053123 -0.15612377 -0.17995252 0.12761094 -0.46908265 0.0065225232
-0.20256336 0.38373074 0.20324005 0.24587636 -0.35088506 0.20029056 0.4201747 0.45198154
-0.13280457 -0.29420644 0.29449546 -0.017694745 0.226409 0.0053874925 -0.1568529 -0.3952759
0.008053881 -0.2226137 -0.16980553 0.17730673 -0.25198132 0.09043072 -0.32761577 -0.32821718
-0.0076723294 -0.06630691 0.10488921 -0.045926213 -0.033702794 -0.3517626 0.46616942 0.0050991853
0.12753494 -0.19787896 -0.20139356 0.42879447 0.20481935 0.18168275 0.26539063 0.23678747
-0.046247587 0.40396106 0.015139486 -0.17857428 -0.11753737 -0.46603325 -0.1259091 0.25935915
-0.23570915 0.4760351 0.033811618 -0.0959353 -0.44893542 0.18384877 -0.24102518 -0.08252518
0.031487588 0.009216212 -0.1679491 -0.05443029 -0.17381316 0.52733356 0.21454963 0.18344006
-0.121569 -0.16614608 0.33255592 -0.2454404 -0.25699818 0.42276573 0.13677335 0.5893558
-0.118623935 0.23941557 0.09927519 -0.06651337 -0.25130352 0.047204606 -0.11822964 -0.17475447
0.14979623 0.37338793 -0.14718308 -0.3559896 0.06184063 0.47784457 -0.31768122 0.10294253
0.07029355 0.23358896 -0.17142831 -0.23681335 0.19766824 0.4687916 -0.12785845 0.09564898
-0.37544432 0.18439901 -0.10423186 -0.13290876 -0.4950845 -0.0039455364 0.16720918 0.36237538
-0.12753691 0.060073934 -0.22978368 -0.18776761 0.4233236 -0.22681652 -0.38645464 -0.13321082
-0.101467006 0.43586347 0.4021439 0.3378624 0.53492 0.12595242 0.009037958 0.22320387
0.33246952 0.072425894 0.36391917 -0.34856728 0.39092746 0.23212701 -0.5178507 0.4068308
0.32761267 0.22817717 0.04254597 -0.34519514 -0.22455841 0.25455526 -0.052473366 -0.14641434

actor.0.bias f4 [32]
00000000: 8ee9 893e 173c 59bd 7b2c 51be 7745 223e
00000010: 269e 5e3b 8425 f2be e87f 87bd b085 c83e
00000020: 56f7 a33d e0b4 ddbe b232 c4be bd92 ca3e
00000030: 468a 54bd 849e bf3d bd5b c63e 85d8 d73e
00000040: 8646 16be 66d3 2ebe 5b85 b83e af57 50be
00000050: 6cf6 f63e f91d 023f b67d 43be 8746 7ebe
00000060: 48e1 8abe 6318 d9bc f25b 88bc d6dd a93d
00000070: 38d1 163f 3ded 883d 7b69 753e 22ea 01bd
0.26936 -0.05303582 -0.20427124 0.15846811 0.0033968776 -0.47294247 -0.06616193 0.39164495
0.0800616 -0.4330206 -0.38319927 0.39565077 -0.05188968 0.09356406 0.38741866 0.4215738
-0.1467534 -0.1707283 0.36039242 -0.20345949 0.4823488 0.50826985 -0.19090924 -0.24831592
-0.27125 -0.026500886 -0.016645405 0.08294265 0.5891299 0.066858746 0.23966019 -0.031717427
