results/SandingEnvEasy/ddpg/model/model_parameters_0.pt (torch, 30338 bytes, 22 tensors)

value.0.weight f4 [32, 8]
000000 10 b5 1f be c9 34 83 be f8 ff c3 bd d6 dc 2f 3e
       -0.15596414 -0.2562621 -0.095703065 0.17174086
000010 69 d2 0d be 49 9a 30 bd 6c 20 55 bc 32 30 ac 3f
       -0.13849796 -0.043115888 -0.013008218 1.3452208
000020 b3 1a d2 bd fa 51 b8 3d 15 c2 00 be de 7d 17 3d
       -0.10258999 0.09000011 -0.12574036 0.03698527
000030 64 ab f2 3d 69 3e 89 3e e7 33 c6 be 88 65 0d 40
       0.118490964 0.26805428 -0.38711473 2.209322
000040 c5 17 0e be 66 51 06 be fc f6 49 3e 91 fa 53 bd
       -0.13876255 -0.13116989 0.19723123 -0.05175263
000050 f7 8c 71 bd 74 da 7e be 68 c2 be 3e 81 2d 23 bf
       -0.058972325 -0.24888021 0.37257695 -0.6374131
000060 85 01 f9 bd ea 35 11 be 1e 8b a4 3d 4b 80 62 bd
       -0.12158493 -0.14180723 0.08034347 -0.05529813
000070 e4 92 cc 3d 0c da db bd ee 59 29 bf 70 a6 8e bf
       0.09988955 -0.107349485 -0.66152847 -1.1144543
000080 1b dc b8 3d 42 ad 5b 3e 36 8b cb 3c d3 4d 6c 3e
       0.09026357 0.21452811 0.024846654 0.23076563
000090 2f 4e 53 be 98 8e 25 be 5b e5 cc be 97 59 41 bf
       -0.20635293 -0.16167676 -0.40018734 -0.7552733
0000a0 4f 06 0c bd 39 d3 2b be 00 52 20 bd 45 11 93 3e
       -0.034185704 -0.16779794 -0.0391407 0.28724113
0000b0 ef 6b a1 be f7 10 87 3e 3c bf 99 be ae 00 dc be
       -0.3152766 0.2638013 -0.30028713 -0.4296927
0000c0 e5 af 30 3d e9 44 9e 3e f5 9b 56 be f0 45 a1 3e
       0.043136496 0.3091195 -0.2095793 0.3149867
0000d0 44 0b 17 be 90 d3 20 be 5f 26 3b 3e 0b 2d b7 be
       -0.14750391 -0.15705705 0.18276356 -0.35776553
0000e0 94 4f d9 3d cf 64 e3 3d 34 90 92 3e 67 56 31 3e
       0.106108814 0.11103212 0.28625643 0.17318116
0000f0 1f 7c 0f 3e 76 d9 f1 bd 2a 0a f6 3e 9b 0c bc 3c
       0.14012192 -0.118090555 0.4805463 0.02295523
000100 fc 65 40 be 01 18 56 be 18 f0 86 bd d4 42 16 3e
       -0.18788904 -0.20907594 -0.06588763 0.1467393
000110 a4 b2 ce 3d 4d 95 1d 3e 63 9a 46 bf 2c 49 bc bf
       0.10092667 0.15388985 -0.77579325 -1.470983
000120 56 3b 23 3e a4 f7 48 be 55 8d 2e 3e 34 34 1d 3e
       0.15940604 -0.19625717 0.17046101 0.15351945
000130 bf 82 23 be bd 43 b1 3e dc 25 ec be 80 f3 11 3e
       -0.15967844 0.34621993 -0.46122634 0.14253044
000140 a6 c5 a2 bc 76 5a a3 bd 81 b2 3b be 4d bb a4 bc
       -0.019869637 -0.079762384 -0.18329813 -0.020108843
000150 55 d6 a9 3e 64 a8 b6 3d db ca 3a 3c 5b a2 e5 3b
       0.33171335 0.08918837 0.011400904 0.0070078797
000160 c7 4c 21 3d e3 61 a8 be 76 2b 83 bd 50 b6 97 3d
       0.03937986 -0.32887182 -0.06404774 0.0740782
000170 83 d8 b0 3d 22 16 9e bc 5e 6b 84 be 98 49 4a bf
       0.08635046 -0.019297663 -0.25863165 -0.79018545
000180 57 4f c3 3d b5 88 a2 bd 51 6e 81 be 3f f7 a2 3e
       0.09536617 -0.07936231 -0.25279477 0.3182926
000190 6e 78 9c be 3a 16 20 be 82 95 c9 be a7 e2 14 be
       -0.3056063 -0.15633479 -0.39371878 -0.14539586
0001a0 f5 d2 3c 3e f3 7b 91 3e b7 28 44 3d 72 c3 d9 3d
       0.18439849 0.28414878 0.04789039 0.10632981
0001b0 8e 02 4b 3d 73 c8 4a be 47 7c f2 be 58 a9 8a 3e
       0.049562983 -0.19803028 -0.4736044 0.27082324
0001c0 55 df b3 bc 11 1e 06 bd 6e 2f 96 3e c8 ed 8c 3e
       -0.021957079 -0.032743517 0.2933306 0.27525163
0001d0 22 7c 12 3e 85 76 2d be 34 61 59 3e 0e de 03 3e
       0.14305165 -0.16939743 0.21228486 0.12877676
0001e0 d8 7b 10 be 8e 6b 14 3e c9 02 60 be ef c6 19 be
       -0.14109743 0.14494154 -0.21876062 -0.15017293
0001f0 5b c9 20 be 5b 50 71 3e c9 b1 0a 3f ee b9 48 3f
       -0.15701811 0.2356581 0.5417753 0.78408706
000200 ad f7 45 be 73 ac 35 3b e7 13 88 be 2e 9c 76 be
       -0.19332762 0.0027721196 -0.26577684 -0.24083015
000210 01 98 79 3e 8c 0d 97 3e 7d 87 2e 3e 0f cd ef 3e
       0.24374391 0.29502523 0.17043872 0.46836135
000220 ac cd d6 bd 77 e2 a3 3d 33 6a a3 bd e6 a8 c0 bd
       -0.104884475 0.08002179 -0.0797924 -0.09407215
000230 79 9c 8d 3c c6 53 88 be 54 ee 0f be 85 ab 8e bf
       0.017286526 -0.26626414 -0.14055759 -1.1146094
000240 af 4b 41 3e 7a 3e b3 3c 32 0e 8c be 50 34 e6 3c
       0.18876527 0.021880377 -0.2735458 0.028101116
000250 43 12 be 3d 81 44 26 be bb 24 81 be 37 e7 ad 3c
       0.09280827 -0.1623707 -0.25223336 0.021228416
000260 7e e8 92 3d 8f 2b 95 be 65 31 f6 3c 0a b8 08 bc
       0.071732506 -0.29134795 0.03005285 -0.00834466
000270 f3 7d 31 be e3 e9 8d bd 9e 11 84 3d c7 9c af 3f
       -0.17333202 -0.06929376 0.06448673 1.371972
000280 0b 52 40 3e 86 62 6f bd 38 ce ab 3d a3 49 c9 3c
       0.18781297 -0.05844357 0.083889425 0.024571246
000290 28 02 01 3d b6 38 6e be 4f 1f 46 be 4c d8 47 bf
       0.031496197 -0.23263821 -0.19347881 -0.7806442
0002a0 f8 3c a6 be 97 ca 3c 3c b6 fb e8 3d fd db 1c be
       -0.3246839 0.011522911 0.11376135 -0.15318294
0002b0 a4 09 0b 3e 21 b2 82 3e 9f a9 94 bf 00 c6 a7 3f
       0.13577896 0.25526527 -1.1614264 1.31073
0002c0 9c 9f 60 3e 8b 45 23 be 51 5e 81 3e 08 c2 a0 3e
       0.21935886 -0.15944497 0.2526727 0.31398034
0002d0 6f 32 94 3d cd d3 70 3e e3 95 5c be 6d 51 19 3f
       0.07236182 0.23518296 -0.21541552 0.5988987
0002e0 97 dc ad 3d 57 2a d4 bd 55 f3 46 3e 8f 36 31 3e
       0.0848934 -0.10359638 0.19428761 0.17305969
0002f0 3c d7 df 3e 1e e5 3d be 67 2b 0c bf ea 43 be bf
       0.43718898 -0.18544433 -0.54753727 -1.4864476
000300 ab e8 14 be ab 1f 56 3d 9f b4 34 3e ab 4e 49 ba
       -0.14541881 0.052276295 0.17647026 -0.0007679264
000310 fe 67 53 3e 47 fc 87 3e ce 99 7d be 4f ee 8c 3f
       0.20645139 0.2655966 -0.24765703 1.1010226
000320 ac e3 13 bd 5a 35 83 3e 4b ed b1 bd 14 a8 ad be
       -0.036105797 0.25626642 -0.08687838 -0.33917296
000330 90 d8 50 3e ca fc a6 3d de d4 0a bf b8 91 f0 3f
       0.20395112 0.081536844 -0.5423106 1.879447
000340 02 94 f0 3d 81 6d 44 3e d1 ae a9 3d bf ef a3 be
       0.1174698 0.19182397 0.08285297 -0.3201885
000350 a2 12 7d be 09 c2 75 3e 74 d4 eb bd d1 fa 6e 3f
       -0.24714139 0.239998 -0.115151316 0.93351465
000360 98 0c a0 3d 33 dc 96 bd 8e fa 17 be d2 ea e3 bb
       0.07814902 -0.073662184 -0.14841673 -0.006955483
000370 e4 f7 d9 bd e5 22 a8 3e 95 5a 5e 3f 91 19 cf bf
       -0.106429845 0.32839122 0.8685697 -1.6179677
000380 c9 ec 27 be b7 61 35 3e cf 70 4e bb 49 a6 99 be
       -0.1639892 0.17713057 -0.0031500345 -0.30009678
000390 60 51 a3 3e 6a 92 8a 3e 44 e2 14 bf 48 a2 6d 3e
       0.31898022 0.2706483 -0.58157754 0.23206437
0003a0 87 9f a8 bd 69 d3 c3 bd 57 b4 97 3e fe 4a 86 be
       -0.082335524 -0.09561808 0.29629776 -0.2622909
0003b0 f6 d7 c8 3d 13 c9 d9 bd 62 1a 92 3d f5 cf d5 3d
       0.09806816 -0.10634055 0.07133938 0.10440055
0003c0 a5 3b 8f 3d 01 9b 7a be f3 fc 2f be 15 ef 81 be
       0.06993798 -0.24473192 -0.17186336 -0.25377718
0003d0 d4 1a 66 3d 8f 96 86 be 11 0a 76 bf 3e b6 5f be
       0.05617793 -0.26286742 -0.9610911 -0.21846864
0003e0 90 e3 97 bd 55 44 0a be 21 e8 f3 3c 44 67 af 3e
       -0.07416451 -0.13502629 0.029773774 0.34258473
0003f0 90 d4 8e 3d bc f4 b4 3e 44 81 b7 be 99 c2 a4 be
       0.06974137 0.35342968 -0.3584081 -0.32179716

value.0.bias f4 [32]
000000 30 ab 9e be 28 26 28 3e 7d 07 de 3e 6c dc 00 3f
       -0.3098998 0.16420805 0.43365088 0.5033634
000010 7e 23 83 be 1c af 4e bc 41 19 d9 be ca f5 f5 3c
       -0.25613016 -0.0126149915 -0.4240208 0.030024428
000020 54 70 2b 3e 1c 8d 18 3e b5 b8 02 be 9f 77 cb 3d
       0.16742069 0.14897579 -0.12765773 0.09934925
000030 1e c3 4c be 52 57 20 be cd df a1 3d 59 dd af be
       -0.19996306 -0.1565831 0.07904015 -0.34348562
000040 4a 16 d9 3b c6 8a 63 be 86 89 66 bf e7 d6 cb bd
       0.0066249715 -0.22220907 -0.90053594 -0.09953099
000050 d1 b3 62 be 1d ee fb be 55 41 5c bf 2e 57 89 3b
       -0.22138907 -0.49205104 -0.8603719 0.004191301
000060 e8 22 e3 3e eb 44 00 bf 44 74 93 3d be 71 08 3f
       0.4436257 -0.5010516 0.0719991 0.53298557
000070 f1 2d 82 3b 5a f2 fb 3d aa 1f 5b 3e bf 38 42 3f
       0.003972762 0.12302084 0.21398798 0.7586784

value.2.weight f4 [32, 32]
000000 e8 ba 7b bc b7 91 64 3d 06 fd e7 bd 02 16 29 be
       -0.015364386 0.055803027 -0.11327557 -0.16512302
000010 1e 26 30 be 87 07 45 be 0f bc ec 3d 68 24 34 be
       -0.1720204 -0.19241153 0.11559307 -0.17592013
000020 6b a4 37 3c de 14 90 3e 89 3b e7 bd 93 23 03 be
       0.011208634 0.2814092 -0.11290652 -0.12806539
000030 64 84 d6 3d 08 9a da 3d f3 5e e9 3d 25 e2 19 3e
       0.1047447 0.106739104 0.11395063 0.15027674
000040 b4 17 2f 3e 13 83 fe bd ac 7f 21 3e b2 c3 5f bd
       0.17098886 -0.12427344 0.15771359 -0.05462999
000050 f2 85 87 bd c0 5e 58 3e e9 58 47 bd 2e 7f a1 bc
       -0.06617345 0.21129894 -0.048668776 -0.019713964
000060 fe ef 8c 3d fb c2 fd bc c8 2a 7b be ad 0b 7f bf
       0.068817124 -0.030976763 -0.24528039 -0.9962719
000070 c8 4a 48 be 5d e4 14 3e cb 36 01 be 2c 14 7f 3d
       -0.19559777 0.14540239 -0.12618558 0.062275097
000080 34 1f ff 3d e7 d2 bc bb b6 a6 59 3e 5e cf f5 3d
       0.124571234 -0.005762446 0.21255001 0.12002443
000090 70 d5 b2 3c 3a af de 3d 2b f2 6a bd c8 11 b7 bd
       0.02183029 0.108732656 -0.057359856 -0.089389384
0000a0 f2 f1 55 bd 38 d4 54 be 7c 7b aa 3d cf 45 1c bd
       -0.05223269 -0.2078408 0.08324334 -0.038152512
0000b0 d8 46 af bd 14 bc 64 bc d5 09 db 3d 7b 33 1e 3d
       -0.08558434 -0.013960857 0.10695235 0.038623314
0000c0 ef d5 1a bd 48 64 b1 ba af 98 03 3d 78 24 20 be
       -0.03780168 -0.0013533914 0.032128032 -0.15638912
0000d0 af a4 8f 3d 26 b1 07 3e 7c e2 97 be f0 3c 0c be
       0.07013833 0.1325117 -0.2966498 -0.13695121
0000e0 a3 ed 08 3e 62 64 04 3e c8 5b 61 3d 18 50 25 3e
       0.13371901 0.12928918 0.05501917 0.16143835
0000f0 fd b8 1e be c6 6f b7 3d 9f b3 8c bd b5 01 03 bd
       -0.15500255 0.08956866 -0.068701975 -0.03198405
000100 ae f4 ae bd 39 7c 06 bd 45 93 9c bc 65 8b d0 3d
       -0.08542763 -0.03283331 -0.019113192 0.101828374
000110 cb 5a e6 3d b5 ea d9 bd 10 8e 27 3e c0 7a bc 3c
       0.11247786 -0.1064047 0.16362786 0.02300775
000120 c6 dd fd 3d 8e 4c d2 bc a8 1d 21 be 44 b2 dd 3c
       0.123958156 -0.02567127 -0.15733969 0.027062543
000130 9f 24 9a be c6 91 d6 bd 49 c1 72 3d 86 9d d9 bc
       -0.30106065 -0.10477023 0.059266362 -0.02656437
000140 d9 ce dd bd cb cf 5e be d4 34 e9 bd bc ef 6b 3d
       -0.10830469 -0.21758954 -0.11387029 0.057601675
000150 89 78 dc 3d 6f cb aa 3d fc af 08 3e 66 7d b6 3d
       0.10765178 0.08339583 0.13348383 0.089106366
000160 ac 7f 10 3e e8 33 bd 3c 26 e6 41 3d bb 2f 2a bb
       0.14111203 0.02309604 0.047338627 -0.002596839
000170 a3 b7 1b be b6 e9 49 bd 5f fb 7d 3d d7 c9 fc 3d
       -0.1520677 -0.04929515 0.062007304 0.123431854
000180 09 80 82 bd 4b 5b ee 3e 18 6a c6 bd aa 93 99 3d
       -0.06372077 0.46554026 -0.096882045 0.07498868
000190 d7 03 73 be 31 b7 be bd 5a 98 98 be 5a 8b 2f bd
       -0.23731934 -0.09312285 -0.29803735 -0.042857505
0001a0 a8 70 2e bd 48 7b 86 3d b5 12 da bd d4 72 90 3d
       -0.042587906 0.06566483 -0.10648099 0.07053152
0001b0 aa 02 f3 3d be 43 69 be 3f 82 9f 3d 6e e8 8a 3e
       0.118657425 -0.22779748 0.07788514 0.27130455
0001c0 fd db 5e 3d 0f f9 49 3d 8a 2f 60 bd ab 18 12 be
       0.054409016 0.049309786 -0.054732837 -0.14267223
0001d0 e6 3a 65 bd 96 77 55 be 00 21 5d 3c 41 dd 57 3e
       -0.055964373 -0.208464 0.013496637 0.21080495
0001e0 e7 d7 87 3d 44 78 0e bf 86 70 b3 bd cc 05 7d 3d
       0.06632977 -0.5565226 -0.087616965 0.061773106
0001f0 c3 52 7f bd e0 3b ad bd 4b 8d 00 3b cc e7 2f bd
       -0.062334787 -0.08458686 0.0019615467 -0.042945668
000200 f6 31 e8 bd 97 99 65 3e c3 8d b7 bd 0e 4c 35 3d
       -0.11337654 0.22421871 -0.08962586 0.044261985
000210 69 ec 1d be e0 ce 80 3d 1b c3 e2 3d 5a 86 9e bd
       -0.15422215 0.06289458 0.1107237 -0.07740469
000220 8b 2b ee 3d 33 e7 8d 3d a6 25 03 3e e1 c2 0d 3e
       0.11629399 0.069288634 0.1280733 0.13843872
000230 f3 f9 07 be 3a 4f a2 bd 38 76 2e 3e 65 cf f0 3d
       -0.13278942 -0.079252675 0.17037284 0.11758307
000240 91 b0 16 bc e0 d8 a6 3d a9 c7 98 be 7d 11 c9 3d
       -0.00919737 0.081468344 -0.2983983 0.09817789
000250 2f 1a e5 bd 7f 43 80 3d 76 d7 cd bd c9 08 9f bd
       -0.11186635 0.06262874 -0.100508615 -0.077653475
000260 d9 c2 25 bd c5 ec 93 bd 42 dc ef 3d 70 f9 72 bc
       -0.040469024 -0.072228946 0.11711933 -0.014829978
000270 b2 4f df 3c de ee 92 3d 7d d9 08 be 70 0f 30 be
       0.027259681 0.071744666 -0.13364215 -0.17193389
000280 b3 01 1d be be 17 78 3e 4c ab 85 bd 5f 45 32 3e
       -0.1533268 0.24227807 -0.06526813 0.17409275
000290 84 55 5b be 7f 55 e2 bb 84 ec 1c be c1 3b b5 3d
       -0.2141934 -0.0069071646 -0.15324599 0.08849288
0002a0 77 db a9 3d 7e 35 ae bd 3c b0 b1 bd 90 66 e8 3d
       0.08293813 -0.085062966 -0.08676192 0.11347687
0002b0 0c 42 8b 3d 1c e8 05 3e 70 51 cf bc ae 70 f6 3d
       0.06799707 0.13076824 -0.025307387 0.12033211
0002c0 d6 90 e9 3c db 36 db bd e5 47 d8 3d d4 f0 20 3e
       0.028511446 -0.10703822 0.10560588 0.15716869
0002d0 a7 34 3c bd a6 c4 02 3d 6e 41 1f 3d 45 6c 6f 3e
       -0.04594865 0.03192582 0.038880758 0.23381145
0002e0 64 8b 82 be b8 12 e2 bd ab b3 3e 3e 32 2d d4 3d
       -0.25496972 -0.110387266 0.18623225 0.10360183
0002f0 13 ed 6d bc fa 4b 22 3e 8f 8c a9 3d 25 69 24 3d
       -0.014521855 0.15849295 0.082787625 0.040139336
000300 23 b4 9a bd 8a a2 b1 be 7a 3b 11 3e b1 ce 35 bd
       -0.075538896 -0.3469432 0.14182845 -0.04438657
000310 d5 1a 12 be a4 86 82 bc de 92 e2 bd a4 71 b7 3d
       -0.14268048 -0.015933342 -0.11063169 0.08957222
000320 e5 5d c6 3d 19 e9 8a bd c2 aa e4 bc ef b8 fb 3c
       0.09685878 -0.06782741 -0.027913455 0.030727832
000330 8a 12 12 3e f1 1b 4a be 2b 45 55 bd ee 4e 5d be
       0.14264885 -0.19737221 -0.052067917 -0.2161214
000340 e5 4a 78 be 39 21 04 3e 80 e2 2b be 54 75 b0 3d
       -0.2424732 0.12903298 -0.16785622 0.086161286
000350 61 b7 5c be 63 4d 79 bd a3 ff 87 3d e3 28 19 bc
       -0.21554329 -0.060864817 0.06640556 -0.009348127
000360 94 22 d8 bd e3 21 85 3e bb 1f 0e 3e 3b 54 50 be
       -0.1055347 0.26002416 0.13879292 -0.20344631
000370 28 cf 21 3e 1c ec 45 bd 30 eb 30 3e 42 00 b9 bc
       0.1580168 -0.048320875 0.17277217 -0.02258313
000380 45 ab ef bc 43 01 24 be 03 d7 63 bd 84 19 99 3d
       -0.029256472 -0.16016106 -0.055624973 0.0747557
000390 30 96 a7 bd 33 39 42 bd c2 df b2 bd 39 dc 6b be
       -0.08182943 -0.04741783 -0.08734085 -0.23033227
0003a0 d4 17 3d 3d ed 53 c5 3d 02 23 ff bd ae eb c6 bc
       0.046165302 0.09635148 -0.12457849 -0.024282303
0003b0 48 aa 9e 3d 43 f4 13 bd f4 b8 9c 3d e0 4f c6 3d
       0.07747322 -0.036121618 0.076524645 0.09683204
0003c0 ab 32 6b be 22 0a ea 3d 8b 70 23 be 01 5a 7a 3d
       -0.22968547 0.11427714 -0.159609 0.06112099
0003d0 5a 61 28 3e 7a 22 7c bd 42 05 1d be 2d 8c b8 bd
       0.16443387 -0.061556317 -0.15334037 -0.090111114
0003e0 fc 27 20 bd 52 ea ff bd 7f f1 37 3e ec 5b 2e 3d
       -0.039100632 -0.12495865 0.17963217 0.042568132
0003f0 19 34 4b 3e dd a7 e6 bc af 8e 22 3e 13 92 13 3d
       0.19844092 -0.028156215 0.15874742 0.03602798

value.2.bias f4 [32]
000000 65 40 46 3b d3 0a 31 3e 75 5e 85 bd d6 f3 38 be
       0.0030250784 0.17289285 -0.06512157 -0.18061766
000010 bb 2b 47 bd c7 7d 88 3e 0c d4 b6 3e 7c d8 d9 3e
       -0.04862569 0.2665846 0.35708654 0.42547977
000020 ac d7 b6 bc ef e5 70 bd d1 b7 8c bd 5f 7f 9e 3e
       -0.022319637 -0.05881303 -0.06870998 0.3095655
000030 32 bd 04 be f7 29 1a 3e ec dc 00 be fd 87 be 3d
       -0.12962797 0.15055071 -0.12584275 0.093032815
000040 1d 8f 8d 3c 66 4a dd 3d cf 9f 12 be f5 88 49 3d
       0.017280156 0.10805206 -0.14318775 0.049202878
000050 b0 d0 17 be f8 7a af 3c 93 c1 5f be e8 d1 8d 3e
       -0.14825702 0.02142094 -0.21851186 0.27699208
000060 25 9c 37 be 7f e8 44 3e 2b a6 0d bb 89 20 cc 3d
       -0.17930658 0.19229315 -0.0021613936 0.09967143
000070 5c 0b 73 be c0 1d 1f 3d 6d a7 e9 bd ee 31 d8 3e
       -0.23734802 0.03884673 -0.11408887 0.42225593

value.4.weight f4 [1, 32]
000000 54 37 9b 3d af f0 3a bd 7e e5 c4 3d 25 05 c7 bd
       0.075789124 -0.04563969 0.09614085 -0.09717778
000010 c7 6e 9c 3d 26 68 da 3c 4b 0e 61 bd fb 9a 9a bd
       0.076383166 0.02666099 -0.05494527 -0.075490914
000020 05 1c c6 3d 2a b5 e4 3d 4e 8e ea bd 4e 33 ec 3d
       0.09673313 0.11167367 -0.11452924 0.11533223
000030 3e df f0 bd 75 0f a6 3d e8 52 dd 3d 26 3e 0f bd
       -0.1176133 0.08108417 0.10806829 -0.03497138
000040 7c e8 b1 3d a2 a7 b3 3d 69 8e a7 bd 43 d9 bd bd
       0.08686921 0.08772208 -0.081814595 -0.09269955
000050 ed 8f 59 bd dd 28 21 bd ad 8f 26 3d 7a c1 f1 3d
       -0.053115774 -0.03934561 0.040664364 0.11804481
000060 5a 07 3b bd c1 e7 ae bd c2 01 09 bd 25 d8 94 bd
       -0.045661308 -0.08540297 -0.033448942 -0.07267789
000070 a1 1a 1d bd 7b 62 71 3d 40 63 30 bd b5 80 4d 3d
       -0.038355473 0.05893181 -0.043063402 0.050171573

value.0.weight f4 [32, 8]
000000 ff 7e 1f be 8d c9 82 be 26 f9 c3 bd ae 87 30 3e
       -0.15575789 -0.25544396 -0.09569006 0.17239258
000010 72 fa 0d be 79 3a 31 bd 81 43 74 bc b1 1b ac 3f
       -0.13865069 -0.043268654 -0.014908672 1.3445951
000020 b1 de d0 bd 72 39 b7 3d 1b b8 ff bd 47 9a 18 3d
       -0.10198725 0.08946504 -0.12486287 0.037256505
000030 64 ab f2 3d 69 3e 89 3e a6 76 c7 be 3d 4d 0d 40
       0.118490964 0.26805428 -0.3895771 2.2078393
000040 23 3e 0e be aa 92 05 be 6f 4d 4a 3e 2f 2a 5a bd
       -0.13890891 -0.13044229 0.19756101 -0.053262886
000050 39 db 74 bd fe ad 7f be aa 74 c0 3e c2 43 23 bf
       -0.05977938 -0.24968717 0.37589008 -0.63775265
000060 91 de fb bd 18 9b 10 be 87 c1 a7 3d 02 0f 60 bd
       -0.122983105 -0.14121664 0.08191209 -0.054701813
000070 b6 f5 c7 3d 3a 77 e0 bd 76 4e 29 bf b6 5e 8e bf
       0.097636625 -0.10960241 -0.66135347 -1.1122653
000080 7a 0f b7 3d 4a db 5b 3e 43 ae c0 3c 2f ba 6b 3e
       0.08938499 0.21470371 0.023520594 0.23020242
000090 d5 bf 54 be 3e 00 27 be bb 05 cd be 6a a7 41 bf
       -0.20776303 -0.16308686 -0.40043435 -0.7564608
0000a0 0c be 0d bd 60 1b 2a be b7 08 20 bd 05 e3 92 3e
       -0.03460507 -0.16612005 -0.03907081 0.28688827
0000b0 43 ee a0 be a3 8e 87 3e aa be 99 be aa eb da be
       -0.3143178 0.2647601 -0.30028278 -0.42757922
0000c0 91 a0 2c 3d 8e f4 9e 3e e4 77 56 be 1d 28 a1 3e
       0.042145316 0.31045955 -0.20944172 0.31475917
0000d0 ce dc 17 be 1a a5 21 be 78 eb 37 3e 8b c6 b5 be
       -0.14830324 -0.15785637 0.17960918 -0.3550304
0000e0 a6 0a d6 3d a7 29 e6 3d 3a e5 92 3e e8 21 31 3e
       0.1045125 0.11238413 0.2869051 0.1729809
0000f0 75 05 11 3e cd c6 ee bd 27 c3 f5 3e 51 4d d5 3c
       0.14162238 -0.11659012 0.48000452 0.026037844
000100 65 00 40 be db cb 56 be d0 e8 89 bd 05 4a 15 3e
       -0.1875015 -0.20976202 -0.067338586 0.14579017
000110 43 e8 d1 3d 19 30 1f 3e 85 88 46 bf 61 f2 bb bf
       0.102493785 0.15545692 -0.7755206 -1.4683343
000120 3e bc 22 3e ab d3 49 be c6 93 2e 3e 83 fa 1e 3e
       0.15892121 -0.19709651 0.17048559 0.1552525
000130 e0 91 22 be 2d bc b1 3e cc 85 ec be 31 4a 10 3e
       -0.1587596 0.3471388 -0.4619583 0.14090802
000140 8a 7c ab bc ba 49 a2 bd 7d a5 3b be 3a 8c a1 bc
       -0.020933408 -0.079242185 -0.18324848 -0.019720186
000150 55 d6 a9 3e 64 a8 b6 3d c4 d4 4b 3c b7 38 f3 3b
       0.33171335 0.08918837 0.012440864 0.0074225324
000160 81 61 1f 3d ef 90 a8 be d7 74 83 bd 5b b8 97 3d
       0.038911346 -0.32923076 -0.0641877 0.0740821
000170 44 bf b1 3d 2f 7b 9a bc cb c9 85 be 83 3a 4a bf
       0.08679059 -0.018857567 -0.26130518 -0.7899553
000180 be c5 c3 3d 90 31 a2 bd c4 60 81 be 14 ec a2 3e
       0.09559201 -0.079196095 -0.2526914 0.31820738
000190 7a c6 9c be 56 b2 20 be d2 fb c9 be 7e 4e 15 be
       -0.30620176 -0.1569303 -0.39449936 -0.14580724
0001a0 55 4d 3c 3e a3 5e 91 3e bc a5 43 3d 87 a8 d9 3d
       0.18388875 0.28392515 0.04776548 0.10627847
0001b0 80 ea 46 3d 73 ce 4b be dd 5c f1 be af 24 8b 3e
       0.04856348 -0.19902973 -0.47141162 0.27176425
0001c0 64 de b2 bc fd a3 08 bd 6f e8 96 3e d3 a6 8c 3e
       -0.02183456 -0.033359516 0.29474208 0.27471027
0001d0 79 a5 12 3e 2e 4d 2d be d8 4f 5a 3e 95 35 04 3e
       0.14320935 -0.16923973 0.2131952 0.12911065
0001e0 18 32 0f be b2 c5 13 3e 1d c7 5f be f6 15 1a be
       -0.13983953 0.14430884 -0.218533 -0.1504744
0001f0 05 ed 1e be b1 2c 73 3e 6c 4d 0a 3f d6 a5 48 3f
       -0.15520103 0.23747517 0.54024386 0.78378046
000200 c1 0c 47 be 89 9c e2 3a 8d cb 87 be cb c9 77 be
       -0.19438459 0.0017289083 -0.26522484 -0.24198072
000210 30 d7 78 3e 2a ad 96 3e 0b b0 2a 3e 94 23 f0 3e
       0.24300838 0.2942899 0.16668718 0.46902144
000220 23 30 d8 bd aa c4 a1 3d fa 06 a3 bd f9 a4 c0 bd
       -0.10556056 0.07898839 -0.07960315 -0.09406466
000230 58 61 9c 3c 7a 67 87 be 7f aa 0c be 6d 90 8e bf
       0.019089386 -0.26446134 -0.13736914 -1.1137825
000240 0d de 40 3e a8 45 b3 3c 12 0e 8c be 5a 33 e6 3c
       0.18834706 0.0218838 -0.27354485 0.028100658
000250 fc be bc 3d 21 ee 26 be 54 02 82 be 94 7a aa 3c
       0.09216115 -0.16301776 -0.253924 0.020810403
000260 dc 00 95 3d 35 69 95 be 52 86 f6 3c 0d d9 f0 bb
       0.072755545 -0.2918183 0.030093346 -0.007350093
000270 6c 2f 31 be c2 4c 8d bd ac 93 85 3d ee 9b af 3f
       -0.17303246 -0.06899406 0.06522307 1.3719461
000280 c4 f4 40 3e ca d4 73 bd b6 f9 aa 3d fa be c8 3c
       0.1884337 -0.059529103 0.0834841 0.024505127
000290 65 b6 f7 3c 70 82 6f be 6f 9f 45 be 22 65 47 bf
       0.03023834 -0.23389602 -0.192991 -0.7788869
0002a0 43 1e a6 be a8 54 42 3c c2 5b ea 3d 6b 17 1c be
       -0.32444963 0.011861004 0.11443283 -0.15243308
0002b0 94 20 0b 3e 92 bd 82 3e 44 a8 94 bf f2 f6 a7 3f
       0.13586646 0.25535256 -1.161385 1.3122237
0002c0 28 96 60 3e d5 dc 22 be 81 3c 81 3e 9f 06 a1 3e
       0.2193228 -0.15904553 0.25241473 0.31450364
0002d0 3a e1 8f 3d 3b ab 6e 3e 29 ce 5b be 7b ae 19 3f
       0.070253804 0.23307507 -0.21465363 0.6003186
0002e0 04 53 ab 3d 9a 92 d7 bd 50 f3 45 3e c3 8b 32 3e
       0.08365443 -0.10526009 0.19331098 0.17436127
0002f0 99 f1 dc 3e 70 b0 43 be ab 0f 0d bf d6 0f be bf
       0.43153074 -0.19110274 -0.5510203 -1.4848583
000300 bc b6 16 be 04 5a 57 3d 4b 2e 34 3e 75 d8 64 39
       -0.14718145 0.05257608 0.17595784 0.00021824411
000310 fe 67 53 3e 47 fc 87 3e e2 ee 7d be 35 31 8c 3f
       0.20645139 0.2655966 -0.24798158 1.0952517
000320 45 3e 15 bd d5 19 83 3e e2 7d b2 bd e2 f5 ad be
       -0.036436338 0.25605646 -0.087154165 -0.33976656
000330 f9 f5 50 3e 93 37 a7 3d 9f ec 0a bf d1 4d f0 3f
       0.20406331 0.08164897 -0.54267305 1.8773748
000340 02 2a f1 3d c1 a8 44 3e c3 4b a9 3d 73 f3 a3 be
       0.117755905 0.19205 0.082664035 -0.32021675
000350 4c 9b 7b be 5f 39 77 3e e0 6e eb bd 8c c6 6e 3f
       -0.2457096 0.24142979 -0.11495757 0.9327171
000360 63 46 9b 3d 18 a5 9a bd de 16 19 be 07 27 d8 bb
       0.075817846 -0.075510204 -0.1495013 -0.0065964493
000370 f5 96 dc bd 22 7b a7 3e db 46 5d 3f b2 06 cf bf
       -0.1077098 0.3271113 0.8643624 -1.6173918
000380 a1 f3 26 be 73 4d 35 3e db 4f 5b bb 1d b6 99 be
       -0.16303875 0.17705326 -0.0033464346 -0.30021754
000390 fc 50 a3 3e 06 92 8a 3e 1c ea 14 bf 18 ff 6b 3e
       0.31897724 0.27064532 -0.5816972 0.2304653
0003a0 d4 e9 a8 bd e4 fa c2 bd 03 3a 98 3e be 24 86 be
       -0.08247724 -0.0952051 0.2973176 -0.26199907
0003b0 e2 ea c6 3d 27 b6 db bd 6a db 93 3d 9f a5 d4 3d
       0.09712769 -0.10728102 0.07219584 0.10383152
0003c0 a2 e9 8f 3d 13 12 7b be 9e e5 2f be 25 b2 81 be
       0.07026984 -0.24518614 -0.17177436 -0.25331226
0003d0 db b7 6d 3d ef a2 85 be aa 4f 75 bf 9d 61 61 be
       0.058036666 -0.2610087 -0.9582468 -0.22009893
0003e0 d0 f5 95 bd c1 96 09 be 78 bb f8 3c 14 d9 af 3e
       -0.07322276 -0.13436414 0.03036283 0.34345305
0003f0 2c d4 8e 3d 58 f4 b4 3e f5 c7 b7 be 91 18 a5 be
       0.06974062 0.3534267 -0.35894743 -0.32245305

value.0.bias f4 [32]
000000 4f fb 9d be 24 68 27 3e d4 62 de 3e 83 03 01 3f
       -0.30855796 0.1634832 0.43434775 0.50395983
000010 d7 fc 81 be c5 13 55 bc 37 ce d8 be a5 13 ec 3c
       -0.25388214 -0.013005202 -0.4234483 0.028817961
000020 ce 85 2a 3e 10 d6 17 3e 7f ba 01 be a6 a2 cb 3d
       0.16652605 0.14827752 -0.12668799 0.09943132
000030 7a 3c 4c be ff 74 20 be 40 bb a0 3d 83 1f b0 be
       -0.19944945 -0.1566963 0.07848215 -0.34399042
000040 b6 85 b5 3b 1c 83 62 be 99 03 66 bf 8e 43 c9 bd
       0.005539621 -0.22120327 -0.8984924 -0.09827338
000050 a5 23 5f be 57 40 fc be b6 c6 5b bf f3 cb 3a 3b
       -0.21790941 -0.49267837 -0.85850084 0.002850291
000060 69 f1 e3 3e 8e e7 ff be a9 d9 92 3d 95 2d 08 3f
       0.4452012 -0.4998135 0.07170422 0.5319455
000070 da 53 83 3b b7 29 f9 3d 81 ff 59 3e a3 19 42 3f
       0.0040077986 0.121661596 0.21288873 0.7582037

value.2.weight f4 [32, 32]
000000 37 cb 81 bc 2d 1d 64 3d 26 06 e9 bd 15 6a 29 be
       -0.01584397 0.055691887 -0.11378126 -0.16544373
000010 c1 6a 30 be a4 08 45 be a4 88 eb 3d 2d 06 33 be
       -0.17228223 -0.19241577 0.115006715 -0.17482825
000020 3b 23 33 3c 9d 49 90 3e 94 c6 e7 bd 80 cf 02 be
       0.010933693 0.28181162 -0.11317173 -0.12774467
000030 d8 56 d0 3d 96 8d d9 3d fb e9 eb 3d 7e a9 18 3e
       0.10172814 0.106227085 0.115192376 0.14908406
000040 8b f9 2b 3e db 17 02 be 82 4b 1e 3e 20 bc 5d bd
       0.16794412 -0.12704413 0.15458491 -0.054134488
000050 f1 cc 8b bd 92 34 58 3e df e9 44 bd c9 d7 9b bc
       -0.06826199 0.21113804 -0.0480746 -0.019023793
000060 4f 5b 8d 3d 1e ae 03 bd 79 00 7e be fa f3 7e bf
       0.06902181 -0.032148473 -0.24804868 -0.9959103
000070 ce 24 49 be a4 44 14 3e 59 52 04 be 9a 7b 80 3d
       -0.19642946 0.1447931 -0.12922038 0.06273575
000080 26 34 fe 3d 90 a6 b9 bb f6 01 59 3e 2f e6 f3 3d
       0.1241229 -0.0056656078 0.21192154 0.119091384
000090 85 62 b3 3c e4 f6 dc 3d b8 52 67 bd a2 80 b8 bd
       0.021897564 0.10789278 -0.05647537 -0.0900891
0000a0 72 a2 58 bd 7f 7c 55 be b8 f4 a9 3d 09 a2 1f bd
       -0.052889295 -0.20848273 0.082986295 -0.03897289
0000b0 8a 2d ae bd 29 fc 5d bc fd f5 d8 3d 87 8c 1f 3d
       -0.0850478 -0.013548889 0.105937935 0.038952377
0000c0 77 96 1a bd ce d7 a3 ba dc fd 04 3d 18 59 20 be
       -0.03774115 -0.0012500228 0.03246866 -0.15658987
0000d0 c6 d7 92 3d d4 32 07 3e a7 5e 98 be 33 f9 0c be
       0.07170062 0.13202983 -0.29759714 -0.13766937
0000e0 5b 43 08 3e d7 4f 04 3e b5 db 60 3d d6 1c 25 3e
       0.13306944 0.12921081 0.05489703 0.16124281
0000f0 de a6 1e be 7b a1 b5 3d 2d e9 8c bd 09 86 06 bd
       -0.15493342 0.088686906 -0.06880412 -0.03284267
000100 24 dc af bd 92 90 03 bd 80 18 9e bc 93 99 d0 3d
       -0.0858691 -0.032120295 -0.019298792 0.10185542
000110 e0 41 e7 3d 93 26 dc bd f9 d2 27 3e 1f 2e bf 3c
       0.112918615 -0.10749545 0.16389073 0.023337422
000120 ce 0e fd 3d c7 b8 d3 bc 67 ac 1f be 6a 0e dc 3c
       0.123563394 -0.025844945 -0.1559311 0.026862342
000130 e8 c5 9a be 6a 46 d5 bd fc f7 71 3d f7 f7 de bc
       -0.30229115 -0.10413821 0.059074387 -0.027217848
000140 88 37 dd bd 57 68 5e be 66 5e e7 bd 07 50 6c 3d
       -0.10801607 -0.2171949 -0.11297302 0.057693508
000150 8f c7 dc 3d 42 9e ab 3d d1 b0 08 3e 4c a5 b5 3d
       0.1078025 0.08379795 0.133487 0.088694185
000160 dc b5 10 3e 56 be c4 3c 52 d2 44 3d cc 12 26 bb
       0.14131874 0.02401654 0.04805214 -0.0025340794
000170 fb 72 1a be d4 ed 46 bd 60 69 81 3d 35 3d fb 3d
       -0.15082924 -0.048566654 0.06318927 0.12267534
000180 f4 73 82 bd d6 c0 ec 3e c5 a1 c4 bd 8b b2 99 3d
       -0.063697726 0.46240872 -0.096011676 0.075047575
000190 af c0 71 be a9 d8 be bd ff 92 9b be 9b 05 2e bd
       -0.23608659 -0.093186684 -0.30385587 -0.042485815
0001a0 ea 4c 2f bd 8c f0 86 3d ec 35 da bd 78 38 91 3d
       -0.04279796 0.065888494 -0.10654816 0.07090849
0001b0 96 4f f4 3d 6f 40 68 be 13 4d a0 3d 72 3e 8b 3e
       0.11929242 -0.2268083 0.07827201 0.2719608
0001c0 d8 86 63 3d b8 26 50 3d 18 40 60 bd 76 83 11 be
       0.05554852 0.050818175 -0.054748625 -0.14210305
0001d0 e2 a7 64 bd 7b 2a 55 be af c7 65 3c 42 1a 58 3e
       -0.055824168 -0.20816986 0.014024659 0.21103767
0001e0 99 97 7e 3d a2 2a 0e bf 33 66 b8 bd 81 f3 7e 3d
       0.062156294 -0.555338 -0.09003868 0.062243942
0001f0 16 35 7a bd 63 5d ae bd 61 aa 34 3b b7 ed 31 bd
       -0.061085783 -0.08513906 0.0027567374 -0.043439593
000200 d3 2d e8 bd 35 a7 65 3e 9d 98 b7 bd bf a6 35 3d
       -0.11336865 0.22427066 -0.089646555 0.044348475
000210 61 53 1d be 0e 6a 80 3d 96 ac e1 3d 67 3a 9d bd
       -0.15363838 0.06270228 0.11019246 -0.07677155
000220 f2 f7 ed 3d a4 a2 8e 3d c0 84 03 3e c8 4a 0e 3e
       0.116195574 0.06964615 0.12843609 0.13895714
000230 36 58 08 be 62 cc a0 bd 63 28 2e 3e f0 ad ef 3d
       -0.133149 -0.07851483 0.17007594 0.11703098
000240 42 aa 17 bc e7 49 a6 3d b7 31 99 be 76 10 cb 3d
       -0.009256901 0.081195645 -0.29920742 0.09915249
000250 2c 3f e2 bd 49 03 81 3d 09 0c cd bd f2 6d 9f bd
       -0.11047205 0.06299455 -0.10012061 -0.07784642
000260 bc e3 25 bd c8 d8 93 bd 3e da f0 3d 7e 9d 63 bc
       -0.040500388 -0.07219082 0.117603764 -0.0138925295
000270 51 45 de 3c f7 7c 93 3d 91 f1 07 be 46 2c 30 be
       0.027132662 0.072015695 -0.13275744 -0.17204389
000280 8c db 1c be 14 cd 77 3e 85 17 86 bd 5c 4e 32 3e
       -0.15318125 0.24199325 -0.06547455 0.17412704
000290 97 b5 5a be 14 1d e1 bb f7 68 1d be 68 8d b5 3d
       -0.21358334 -0.0068699215 -0.15372072 0.08864862
0002a0 e9 07 aa 3d a9 b9 ad bd d9 4f b1 bd 3a 10 e9 3d
       0.0830229 -0.084826775 -0.08657808 0.11380048
0002b0 18 8f 8b 3d af 4e 06 3e 24 1e d1 bc eb c5 f5 3d
       0.06814402 0.13115953 -0.025527067 0.120006405
0002c0 90 20 e9 3c 14 0d dc bd d0 d3 d7 3d 29 5b 21 3e
       0.02845791 -0.10744682 0.10538447 0.15757431
0002d0 4e 5c 39 bd 07 3e 02 3d 18 cc 20 3d 80 6b 6f 3e
       -0.045254044 0.031797435 0.03925714 0.23380852
0002e0 d4 f1 82 be 6e 52 e2 bd d1 d7 3e 3e b7 03 d4 3d
       -0.25575125 -0.110508785 0.18637015 0.10352271
0002f0 e2 8b 70 bc 57 6f 22 3e ba d5 a9 3d 0e 02 24 3d
       -0.014681788 0.15862785 0.08292718 0.040041022
000300 2e e4 9a bd e7 62 b1 be 36 91 10 3e c3 63 36 bd
       -0.07563053 -0.3464577 0.14117894 -0.044528734
000310 f3 c3 15 be 4b 80 7d bc cf e1 e7 bd 93 98 b5 3d
       -0.1462553 -0.015472482 -0.113223664 0.08866992
000320 3a 9d c6 3d 75 77 8a bd ef 76 e5 bc 15 28 fc 3c
       0.09697957 -0.06761066 -0.028010814 0.030780831
000330 0b 66 11 3e 52 e3 4c be 86 66 54 bd 3f e1 5b be
       0.14199083 -0.20008591 -0.051855586 -0.21472643
000340 0e 7e 77 be 74 2b 02 3e be 91 2a be e5 6b af 3d
       -0.2416918 0.12711889 -0.16657159 0.08565501
000350 57 14 5e be d1 ed 79 bd 85 f2 87 3d 93 c8 0e bc
       -0.21687447 -0.061017815 0.06638054 -0.008714813
000360 ea 8d d7 bd fd 43 85 3e f7 88 0b 3e e8 0c 50 be
       -0.10525115 0.26028433 0.13626467 -0.20317423
000370 07 c7 22 3e de ed 48 bd 37 49 30 3e 2e 7d b2 bc
       0.15896235 -0.049054973 0.17215429 -0.021788206
000380 08 d6 f0 bc 8c fb 23 be f2 5e 67 bd 1a 52 97 3d
       -0.029398933 -0.16013926 -0.05648703 0.073887065
000390 ee 6f a9 bd 4f 0d 40 bd 91 71 b2 bd c0 f5 6b be
       -0.08273302 -0.046887692 -0.08713067 -0.23042965
0003a0 ae f4 3b 3d e3 5a c6 3d 68 7c ff bd 27 01 c6 bc
       0.04588764 0.09685304 -0.124749005 -0.024170471
0003b0 d0 6f 9f 3d ee c4 0e bd a2 fe 9a 3d 19 90 c5 3d
       0.077849984 -0.034855776 0.075680986 0.09646625
0003c0 5a c2 6b be 71 eb e7 3d 4b 89 22 be e0 5c 7a 3d
       -0.23023358 0.11324204 -0.15872686 0.06112373
0003d0 da 72 28 3e 09 51 7e bd 00 9a 1c be cb 3d b7 bd
       0.16450062 -0.062089 -0.15293121 -0.08947333
0003e0 e3 39 1d bd 28 3d ff bd 94 ed 37 3e ca 3c 30 3d
       -0.038385283 -0.124628365 0.17961723 0.043026723
0003f0 28 ab 4a 3e 04 ba eb bc 3e 52 22 3e d1 1e 16 3d
       0.19791853 -0.028775223 0.15851685 0.036650483

value.2.bias f4 [32]
000000 b2 af b3 3a f6 e8 30 3e 01 1a 86 bd 3b c5 38 be
       0.0013708977 0.17276368 -0.065479286 -0.18043987
000010 f3 26 47 bd f7 3e 88 3e 68 71 b6 3e 69 88 d9 3e
       -0.04862113 0.26610538 0.35633397 0.42486885
000020 fc 57 b8 bc fc b2 72 bd 6d b7 8c bd d5 40 9e 3e
       -0.022502892 -0.059252724 -0.06870923 0.30908838
000030 e1 4b 04 be d9 12 1a 3e 70 dc 00 be ef ba be 3d
       -0.1291957 0.15046252 -0.1258409 0.093129985
000040 34 76 8b 3c 78 77 dc 3d c9 eb 11 be b4 28 4a 3d
       0.017024137 0.10764974 -0.14250101 0.049355224
000050 34 91 17 be f7 a4 af 3c 59 0b 60 be 5b ad 8d 3e
       -0.14801484 0.021440966 -0.21879329 0.27671322
000060 67 aa 36 be d7 cb 44 3e 9e 7f 0e bb fe 4d cd 3d
       -0.17838441 0.19218384 -0.0021743546 0.100246415
000070 21 0b 73 be c6 5b 1b 3d e4 41 e8 bd 1e 3a d8 3e
       -0.23734714 0.03792932 -0.11340693 0.4223184

value.4.weight f4 [1, 32]
000000 10 e0 9a 3d 46 20 38 bd 26 8f c5 3d b7 fc c9 bd
       0.07562268 -0.044952653 0.09646444 -0.09862655
000010 f0 aa 9c 3d bf 6a dc 3c 3f 46 5e bd ec b7 99 bd
       0.07649791 0.02690637 -0.05426621 -0.075057834
000020 e9 aa c5 3d 70 b3 e4 3d b2 8e ea bd 5f 56 ee 3d
       0.09651739 0.111670375 -0.11452998 0.11637568
000030 e7 d8 f0 bd e0 d2 a7 3d dc 92 dd 3d 0e 58 0c bd
       -0.11760121 0.08194518 0.10819027 -0.034263663
000040 fd e6 b2 3d 44 71 b2 3d de 62 a7 bd 53 31 be bd
       0.08735464 0.0871301 -0.08173154 -0.092867516
000050 9e 89 5b bd ef ee 20 bd 74 dc 27 3d 32 17 f2 3d
       -0.05359804 -0.039290365 0.040981725 0.118208304
000060 60 5f 3e bd 9f 36 af bd 0d cf 0c bd be c4 94 bd
       -0.046477675 -0.0855534 -0.034377147 -0.07264088
000070 47 58 1b bd d2 8f 71 3d 5b a6 31 bd a2 27 4c 3d
       -0.037925985 0.05897505 -0.04337154 0.049842484

actor.0.weight f4 [32, 6]
000000 e3 8b 5f be 7a 39 69 3e 57 5d 00 bf 57 8e c8 3e
       -0.21830706 0.22775832 -0.50142425 0.39171097
000010 b7 6e 8c 3e e7 87 09 be e3 8a 2c be 66 cf b2 3d
       0.2742822 -0.13430749 -0.16849856 0.08730964
000020 17 58 c0 3e 23 8d e4 3e db 06 84 be b1 fd 42 bd
       0.37567207 0.4463893 -0.2578648 -0.04760522
000030 22 5a 85 3b b4 cb 86 be ad b8 b4 3e 32 58 15 be
       0.0040695826 -0.26327288 0.35297146 -0.14584425
000040 49 83 a3 be 16 e8 99 be 02 3d cb bd 5b 4a 0c 3f
       -0.319361 -0.3005988 -0.09923746 0.5480096
000050 cb eb d3 be e5 28 da be 12 02 ba 3e 86 f9 19 3f
       -0.41390833 -0.42609325 0.36329705 0.6014637
000060 9b 91 c5 be b9 a4 8f bd d8 ce 00 3f 9d d5 4d 3e
       -0.3858765 -0.0701384 0.5031562 0.20101018
000070 fc 2a a4 3e 50 87 70 3e 05 27 af 3e 88 fb f3 3e
       0.32064044 0.23489118 0.34209457 0.4765284
000080 84 1c cb be 16 27 c4 3d 3e 86 6e be 2e ba ad be
       -0.39670193 0.095777676 -0.23293397 -0.33931106
000090 61 e0 74 be b0 de 2f 3e d4 23 0d bf 93 23 12 3e
       -0.23913719 0.17174792 -0.55132794 0.14271383
0000a0 83 c4 26 bd c8 b0 de 3e 46 c3 ca 3e bf d1 08 bf
       -0.040714752 0.43494248 0.39602107 -0.5344505
0000b0 f8 0b ee 3b 28 9f b1 be a8 96 9a 3e 66 dd 8c be
       0.0072646104 -0.3469174 0.30193067 -0.27512664
0000c0 81 48 de bd b4 05 74 be 3d e2 fa be e9 3f 43 be
       -0.10853673 -0.238303 -0.4900073 -0.19067349
0000d0 be 54 bb 3e ed 2e a4 bd f8 a9 47 3e 20 bc 8d be
       0.3658809 -0.08016763 0.19498432 -0.2768259
0000e0 52 ee a8 bd 0f 61 25 3f 3d 95 85 3e ad 05 77 3e
       -0.08248581 0.64601225 0.26090422 0.24123259
0000f0 24 b3 d6 be 6d 75 22 bd ce 01 72 3e a6 b6 fc 3e
       -0.41933548 -0.039662767 0.23633501 0.493581
000100 5a a4 ff bd f6 c2 a8 3e af 8f 22 3e 34 6d d0 be
       -0.124825194 0.32961243 0.15875123 -0.40708315
000110 6b 12 c8 3e ab 9c 62 3e 9d 15 ec bd 08 79 0f 3e
       0.39076552 0.22130077 -0.1152756 0.14011014
000120 0e 4e 96 bd 5d 00 a7 3d ce 36 ba be 3d 62 a5 3e
       -0.073391065 0.08154366 -0.36369938 0.32301512
000130 d3 bf 76 3e ed da 03 bf fe 90 d2 be 34 2f 74 3e
       0.24096613 -0.5150593 -0.41126245 0.23846132
000140 fb 60 a2 be a6 0f f7 be 9d 02 97 be 3e 08 ab be
       -0.31714615 -0.48254126 -0.2949418 -0.33404726
000150 84 82 1e 3f e5 02 4c be d5 5c b8 be 46 27 e0 3e
       0.619179 -0.19922979 -0.36008325 0.43779963
000160 52 56 9e 3e 3e 05 d1 3e f9 c2 ab bd 4c f5 8c 3e
       0.30925232 0.40824312 -0.083867975 0.27530897
000170 76 40 8d bd 3c 2b c6 be 99 e9 f1 be 0f bf 1e bf
       -0.068970606 -0.3870486 -0.47248533 -0.6201028
000180 87 2d a0 3e 78 b1 ab 3e bd 77 9e 3e cb fe 18 3f
       0.31284735 0.33533835 0.30950728 0.59763783
000190 10 e6 b9 3e 2c e0 70 3d 73 19 dd 3d 7f bb b4 bd
       0.36308336 0.058807537 0.1079587 -0.088248245
0001a0 b7 e2 00 bf 9b a3 31 bd a7 6c 8f 3d 61 5a a1 be
       -0.5034594 -0.043368917 0.07003146 -0.31514266
0001b0 1c 00 03 bf 7e 67 b8 be d7 e9 8a 3e bd 56 03 bf
       -0.5117204 -0.36016458 0.2713153 -0.5130423
0001c0 3d 83 1c 3e c7 a8 85 be ff 1c 25 3f 4c 82 65 bd
       0.15284438 -0.2610533 0.6449737 -0.056032464
0001d0 90 48 4b bd c0 8b 1a be 30 84 02 3f 5e bb 61 3e
       -0.049629748 -0.15092373 0.5098295 0.22044131
0001e0 cc b6 2a 3e 5b bf 1b 3e 84 33 51 be 14 42 35 bf
       0.16671294 0.15209715 -0.20429808 -0.7080395
0001f0 cf 87 ba be 1c 06 a4 3d 28 14 2b bf 68 d3 ea 3c
       -0.3643174 0.08008978 -0.6682763 0.02866526
000200 f7 8e c4 bd e3 88 d0 bd b1 2c 93 3e 52 db 84 3e
       -0.09597581 -0.10182359 0.28745034 0.25948578
000210 e7 bb 69 3e c1 05 de 3c ea d6 cd 3e a0 bd b5 be
       0.22825585 0.027102353 0.4020303 -0.35496235
000220 0e ed 84 3c 1d 1d 9d be 9b dd aa 3e 9e dc c7 3e
       0.016226318 -0.30686274 0.33372197 0.39035505
000230 3a 16 03 bf 8f 95 18 3d 64 c8 10 bc 42 b3 3e 3e
       -0.5120579 0.037252005 -0.008836839 0.18623069
000240 e8 68 59 be 6e b2 fd be d1 7e 6a 3e e5 c9 91 3e
       -0.21231425 -0.49550194 0.22899939 0.28474346
000250 4b cc 10 3f 4d 34 47 3e 7f a2 fa 3b 7f 48 ab 3d
       0.56561726 0.19453545 0.0076487656 0.08363437
000260 5a 6c f2 be b9 ab 0f 3e 55 d8 bf be 80 01 75 3e
       -0.4734829 0.1403035 -0.37469736 0.23926353
000270 72 81 cf bd 30 1b 97 3e 83 17 87 3e b7 c3 13 3f
       -0.101321116 0.2951293 0.26385126 0.5772051
000280 d6 9a 4a be bf d7 bd be e7 c5 0f 3e 17 ac 61 3e
       -0.19785628 -0.37078664 0.14040338 0.22038303
000290 14 bc be 3e b9 e6 16 3f 55 53 10 be c9 fa ee bd
       0.37252867 0.58945805 -0.14094289 -0.11668927
0002a0 43 af f3 bc c0 2c 84 be 3a 0b b4 be 5b ec 92 3e
       -0.029746657 -0.25815392 -0.35164815 0.2869595
0002b0 dd b8 7c bc b8 60 bb 3e 01 09 23 bf 15 75 af be
       -0.015424934 0.36597228 -0.63685614 -0.34269014
0002c0 bc c7 cd be 5b 5e fb bd fa af db bd d5 ed f3 bd
       -0.40191448 -0.12273856 -0.10726924 -0.11910597
0002d0 f2 68 9b 3e 09 76 38 be d0 4a 1b 3f 94 23 3e 3f
       0.30353504 -0.18013777 0.6066103 0.7427304
0002e0 dc a0 17 bf da fd 77 3d 95 38 1a be 45 96 5f bb
       -0.59229827 0.060544826 -0.15060647 -0.0034116667
0002f0 a6 6f 79 3e 7b e9 22 bf 7a 00 cb 3e 8f 42 d7 3d
       0.24358997 -0.6363751 0.396488 0.10510742

actor.0.bias f4 [32]
000000 08 e4 d1 be 5a 81 a2 3e 26 62 dd 3e 23 d3 f0 3e
       -0.40994287 0.31739312 0.43238944 0.47036085
000010 c9 a0 c9 3d b3 08 c6 3e 30 27 d3 bc 35 47 f7 3e
       0.098451205 0.38678512 -0.025775522 0.48296514
000020 ae d5 8f bd c9 46 16 bf 76 16 bd be 9b d0 ac bd
       -0.07023178 -0.5870176 -0.369312 -0.08438226
000030 48 42 76 be 33 86 dd bd 63 f2 d6 bd 76 ed c6 3d
       -0.24048722 -0.10816612 -0.1049545 0.09713261
000040 90 2f aa 3b 43 73 3d bf 69 16 1a 3e f8 11 14 3f
       0.005193658 -0.74004 0.15047611 0.5783992
000050 ee 07 11 3f ab ef f4 be e8 aa 4f 3f 16 c8 a5 be
       0.56652725 -0.47839102 0.8112016 -0.32379216
000060 23 b1 a9 be ad 8a 57 be dc c1 6c be ae 7e fe 3e
       -0.33142957 -0.21048994 -0.23120826 0.49706024
000070 6a ab 9b be 1d 5d b8 3e ce ad 6c 3e 67 bf e0 be
       -0.30404216 0.3600854 0.23113176 -0.43896028

actor.2.weight f4 [32, 32]
000000 15 4d 43 3d 5f 86 22 3e 3b 2a ad be ca 95 04 be
       0.047680933 0.15871571 -0.33821282 -0.12947765
000010 c1 37 63 bd c2 83 ee 3d 59 33 2d 3e 4f 40 d7 3c
       -0.055473093 0.116462246 0.16914119 0.026275782
000020 ca 8d 8f 3e 18 2a 62 3b 3a aa ff 3d df de 7c be
       0.28037864 0.0034509953 0.1248364 -0.24694394
000030 ac c7 d5 3d 8d e4 35 be 27 ee 7c be 29 f0 9d bd
       0.10438475 -0.17762966 -0.24700223 -0.077118225
000040 bd 35 2c 3d a8 1c 91 bd ab 49 83 3d 61 ef e1 3d
       0.042043436 -0.07085544 0.064105354 0.11031986
000050 75 2f 6b 3e fa 03 56 bd 22 e2 4e 3e b3 3b f4 3d
       0.22967322 -0.052249886 0.2020345 0.11925449
000060 5c e5 af bd 17 a1 9e 3c 9e 80 9e 3e e8 62 1b 3d
       -0.08588669 0.019363923 0.30957502 0.03793612
000070 47 5e 24 bd f2 00 40 3d 4c 9e 03 3e 24 7f 92 3e
       -0.040128972 0.0468759 0.12853354 0.28612626
000080 08 54 07 3c d0 94 90 be 83 b9 8f be 0e df b6 3e
       0.008259781 -0.28238535 -0.28071222 0.35717052
000090 d9 f8 29 bd 04 c8 2a 3e 22 a4 33 3e 73 ee 36 bb
       -0.041497085 0.16677862 0.1754308 -0.0027913123
0000a0 65 ca d3 bd 53 37 95 3d d4 66 2c be 64 d6 a8 be
       -0.10341338 0.07285943 -0.16836101 -0.32976067
0000b0 c3 da 4f 3e 58 b0 41 3e 9b 98 28 be eb b5 1d be
       0.20298295 0.18914926 -0.16464464 -0.15401427
0000c0 ea db b0 bd c2 2c 0f ba 9b af 82 3d 79 dd 65 bd
       -0.08635695 -0.00054616865 0.0638115 -0.056119416
0000d0 40 cc 07 bf 59 7a 97 3e 4f 97 88 bf e5 b7 c0 3e
       -0.53046036 0.2958553 -1.0671176 0.376403
0000e0 57 3b a7 3e bf bc a6 bd 11 11 70 bd db 37 ad be
       0.3266246 -0.08141469 -0.058610026 -0.33831677
0000f0 d5 24 bd bd 1f 04 9f 3e 87 48 4e bf 44 45 cb bd
       -0.09235541 0.31057832 -0.8057942 -0.09925321
000100 f6 f0 7d 3d f9 dc 1c 3e 79 05 a7 3d 8e 91 80 bf
       0.061997376 0.1531867 0.08155341 -1.004442
000110 6e 7d 5e 3e e5 24 55 3c 75 bf 76 be 65 09 23 3d
       0.21727535 0.013009285 -0.24096473 0.03980388
000120 ea 32 0a bd c1 9b a9 bd dc e3 98 3d 8b bb 9e bd
       -0.03373996 -0.08281661 0.07465336 -0.07750615
000130 30 06 10 3f 82 7b 17 3e 53 26 6c 3e 94 50 ae bf
       0.5625944 0.14793208 0.23061495 -1.361834
000140 82 3a b8 bd 4d 4e fb bb 5b 99 3e 3e ce d4 b4 bd
       -0.089955345 -0.0076692463 0.18613188 -0.08829652
000150 a7 1a ab be c0 25 c7 bd 22 ad eb 3d 59 39 42 3e
       -0.33418772 -0.09723997 0.11507632 0.18967189
000160 5a 46 bf 3d 05 24 c1 be c2 ed 04 be 1f 31 3b 3d
       0.0933959 -0.37722793 -0.12981322 0.045701142
000170 07 d4 89 be bc 68 87 bd 41 ee 04 3e 1f 1f 90 3e
       -0.26919577 -0.06611773 0.12981512 0.28148744
000180 cd 15 c7 be d3 d9 26 be ce 47 4e be 17 93 4a 3e
       -0.3888382 -0.16294031 -0.20144579 0.19782673
000190 7f 7c 77 3e c4 37 af be 77 e3 7e bc 2a 73 c2 be
       0.24168585 -0.34222233 -0.0155571615 -0.37978488
0001a0 fa f6 57 3d ec f0 1f be 1b 04 06 3e ac 45 27 3e
       0.05272577 -0.15619248 0.13087504 0.16335171
0001b0 43 ab 87 be e5 5f 88 3c e2 c4 93 be 42 42 f0 3d
       -0.2649785 0.016647289 -0.28861147 0.11731388
0001c0 a3 62 88 be 0a 4a c0 bd c1 47 a3 3e 90 9e a5 3e
       -0.26637754 -0.09389122 0.3189068 0.32347536
0001d0 26 e7 c6 3d b7 a1 7d 3e 62 0b 49 bc f4 69 bd be
       0.09712057 0.2476872 -0.01227078 -0.36994898
0001e0 0c 0e 84 bb 96 a1 9a be a7 93 46 bf 55 19 97 bd
       -0.004029995 -0.30201405 -0.7756905 -0.073778786
0001f0 8e 19 00 3d 0a e6 40 3e a8 0b a3 bf ae 93 e9 3d
       0.03127437 0.18837753 -1.2737932 0.11405121
000200 9a 24 a1 3c 3a 42 c4 3c db 51 39 3d 1f 0d a8 3d
       0.019670773 0.02395736 0.04524408 0.08205628
000210 89 24 8d 3d 90 10 b1 3d dd 5c 5a be f8 cd 28 be
       0.06891734 0.08645737 -0.21324487 -0.16484821
000220 6e 3d d7 3c 3c 6d 29 bf 31 3d 89 3e 9d 47 b4 3c
       0.02627441 -0.66182303 0.26804498 0.022006804
000230 61 2b e5 bd d8 95 02 be 6f e4 41 be e8 4a c6 bd
       -0.111899145 -0.12752473 -0.18934797 -0.09682256
000240 45 cb 95 3d 60 22 74 be c2 bc bb 3d 39 24 89 3e
       0.07314161 -0.23841238 0.09166862 0.26785448
000250 77 c2 5b 3e a6 8b 80 3e d5 4b 1e 3e b5 6f cc 3e
       0.21460901 0.25106543 0.15458615 0.39928976
000260 1d 9e 4c 3d b0 98 2b 3e 68 88 1a bd 0b 42 1e 3f
       0.049955476 0.16757464 -0.037727743 0.61819524
000270 99 52 b7 bc 96 08 f9 3d 90 7e 11 bf 03 66 e0 bd
       -0.022378253 0.12159841 -0.56833744 -0.10956957
000280 87 db a4 bd d7 12 a8 bd 68 22 83 3c fc 9e 63 3e
       -0.08049684 -0.082067184 0.016007617 0.22228616
000290 36 b4 8f bb 7b 4e 00 bf 0f 2c 86 be 64 2e fa bc
       -0.0043854965 -0.5011975 -0.2620549 -0.030539699
0002a0 69 aa 92 3e 0d 9f 87 be 82 97 8a 3e 4b d0 05 3e
       0.28645638 -0.26488534 0.27068716 0.13067739
0002b0 0c a6 2e 3c b4 42 d7 be b0 32 c0 be 3a 94 d0 bd
       0.010659706 -0.42043078 -0.37538671 -0.10184522
0002c0 8c 38 f7 be ee 18 ab be 7a d3 8e 3a 65 aa 52 3e
       -0.4828533 -0.33417457 0.0010896765 0.20572813
0002d0 de 72 b1 3e 0c fd 0a 3e f2 c1 3f 3e ca a5 7f bc
       0.3465795 0.13573092 0.18726328 -0.015603492
0002e0 e9 c2 7c bd ce ed 10 be 24 36 5e bf 67 36 e7 3b
       -0.06170932 -0.14153215 -0.8680136 0.007056046
0002f0 73 ac 2c be f8 c2 ad 3e 8c d4 2a bf 4e de cc bb
       -0.16862659 0.33937812 -0.6673057 -0.0062520867
000300 c2 4f 4d bd 80 81 d3 bd e5 cc 8a be 34 de 0c bf
       -0.05012489 -0.103274345 -0.27109447 -0.55026555
000310 dc 30 6e 3e 25 06 88 3e 36 e9 22 3e ec 4c 96 be
       0.23260826 0.26567188 0.15909275 -0.29355562
000320 b9 6c b5 be 3d d8 51 be 42 5d 83 3d ad 11 04 be
       -0.3543451 -0.20492645 0.06414272 -0.12897368
000330 73 71 4d 3e 6c fc bb 3e 8c 10 87 3d a9 3c 41 bf
       0.20062809 0.3671602 0.06594953 -0.75483185
000340 2c f8 64 3e 88 a9 b6 3d 7a 3e 7e 3e da a3 17 3d
       0.22360295 0.08919054 0.2482852 0.037021495
000350 01 3e 75 bf 17 82 85 3d 28 61 73 3e bb a1 f7 3e
       -0.95797735 0.06518953 0.23767531 0.48365578
000360 19 1e 34 3e 20 24 4b be 31 63 d6 bb 2a c7 ff bd
       0.17589606 -0.19838 -0.0065425863 -0.124891594
000370 81 3e 84 bd d2 80 2e 3e f6 c5 b3 bd 37 e8 ad bc
       -0.06457234 0.17041329 -0.087779924 -0.021228893
000380 cd e8 9b 3d 23 00 c1 3d 6a ff 0c bf 22 36 ae 3e
       0.076127626 0.09423854 -0.5507723 0.34025675
000390 1c 09 3c 3e 8b b3 10 3e d6 f0 d0 3d e7 72 cb 3e
       0.1836285 0.1413099 0.10202186 0.397361
0003a0 fc fc 03 be 5c ca e1 bc 53 31 37 3e 12 30 3a be
       -0.12889475 -0.027562313 0.1788991 -0.181824
0003b0 a0 b3 48 3d 60 ce 9d 3d 39 eb e0 be c9 2d 3c 3d
       0.04899943 0.077053785 -0.4392946 0.0459421
0003c0 44 f0 54 3d d0 c9 88 3d 2c 6c 33 3d 5a 49 d1 be
       0.051986948 0.06679118 0.043804333 -0.40876275
0003d0 9d 0e eb be 2d 77 48 3c b0 a2 be 3d 70 de a9 ba
       -0.45909587 0.012235445 0.09308374 -0.0012959968
0003e0 f4 06 db bb f0 07 5f be 21 10 92 bd 3a b8 90 be
       -0.0066841785 -0.21780372 -0.071319826 -0.28265554
0003f0 cc a1 ec 3c 26 86 3d 3e 2b d2 78 be d5 ce 40 3d
       0.028885745 0.18508205 -0.24298923 0.04707225

actor.2.bias f4 [32]
000000 11 ad 50 3e 9c 8e 02 3e ab 9e dd bd c4 55 77 3e
       0.2037852 0.12749714 -0.10821279 0.2415381
000010 36 69 40 3e cd 59 91 3e 99 ed e1 3d 2d 59 3b bd
       0.18790135 0.28388825 0.11031646 -0.04573934
000020 08 c1 8e bd f6 2c 75 be 47 0c 6a bb a0 9d ee bd
       -0.069704115 -0.23942932 -0.0035712884 -0.11651158
000030 18 53 df bc 71 ed 29 3e 29 ef 3b 3e 2c 8a 10 be
       -0.027261302 0.16594483 0.18352951 -0.14115208
000040 1c 2d fb 3d 99 ae 5b 3e 29 ac fa bd 54 ee b5 bd
       0.12264463 0.21453322 -0.12239868 -0.08883348
000050 cb 7d fa bd 1b e4 eb 3d ba a3 67 be 5c 94 98 bb
       -0.12231024 0.11518117 -0.2262105 -0.0046563577
000060 15 c2 8c 3d 85 a0 b5 bb a6 69 ed bd 30 a5 66 bd
       0.06872956 -0.005542817 -0.115924165 -0.05630988
000070 6e 21 24 3e cc 8b b9 bd d0 82 fc bc 5c 37 b0 3e
       0.16028377 -0.09059867 -0.030824095 0.34417236

actor.4.weight f4 [2, 32]
000000 ff 94 af 3d 7d fe 29 bf 5f 75 e7 be 48 9a 9c 3e
       0.085733406 -0.66403943 -0.45206735 0.30586457
000010 28 e1 d6 3e bc ca c4 3e d4 5c d7 be 83 b6 2c be
       0.41968656 0.38435924 -0.4206301 -0.16866498
000020 61 76 77 be 79 8f f0 be 64 3d 2e 3e ac 32 22 bf
       -0.24166252 -0.4698446 0.17015606 -0.6335857
000030 18 b1 16 be f9 cd 81 3e 69 d8 fc 3e 09 6a 86 3f
       -0.14715993 0.25352457 0.49383858 1.0501109
000040 c5 de 75 3e e6 3d e2 3e 6b 80 68 3f 2a 6f 6c be
       0.24010761 0.4418785 0.9082095 -0.2308928
000050 6a 79 e8 be 6a 2e 98 be fb 65 35 3f b8 4b a2 be
       -0.45405132 -0.2972291 0.70858735 -0.31698394
000060 c8 10 9c be 10 b8 5a be 05 4a 2b 3f 72 a3 9f 3e
       -0.30481553 -0.21359277 0.6690982 0.31179386
000070 b0 48 c4 3e 56 cb f9 be b0 4c b4 be ae 8c e7 3c
       0.38336706 -0.48787946 -0.35214758 0.028265323
000080 6b 15 c5 3d e9 56 f2 3d 3b 99 6b bc ac 7c 48 bf
       0.09623226 0.11832983 -0.014379795 -0.78315234
000090 d0 f9 28 be 25 62 81 bf 65 dd ef 3e 75 4f 6f 3e
       -0.16501546 -1.0108076 0.46848598 0.23370154
0000a0 62 19 99 be a9 4a 48 bf 7b ba ba be 57 a9 c5 3e
       -0.29902178 -0.7823892 -0.36470398 0.3860576
0000b0 27 73 7b be 18 2f 94 3e 9b 35 03 bf 09 1d b9 be
       -0.24555646 0.2894218 -0.5125367 -0.36154965
0000c0 8f eb 8f 3e d4 c0 5e 3f 14 a1 c8 3e b5 b2 6e 3d
       0.28109404 0.8701298 0.39185393 0.058275897
0000d0 14 c6 30 be d3 78 d8 be 1e 50 66 3e 50 cd 92 bd
       -0.17263061 -0.42279682 0.224915 -0.071680665
0000e0 b8 87 fe 3e c2 62 c2 be fc fb 81 3d c9 d0 12 3f
       0.4971292 -0.3796597 0.0634689 0.5734983
0000f0 2b 49 3e 3e 88 9b 78 3e 5b c3 02 3e fc 0f dd be
       0.18582599 0.2427808 0.12769835 -0.43176258

actor.4.bias f4 [2]
000000 f8 30 25 bd 7f c7 fd bc
       -0.040329903 -0.030978916
