results/SandingEnvEasy/ddpg/model/model_parameters_43.pt (torch, 30366 bytes, 22 tensors)

value.0.weight f4 [32, 8]
0	0xbeb3f47f	-0.35147473
1	0x3d99c90a	0.07509048
2	0x3e580c98	0.21098554
3	0x3e9cd4b7	0.3063104
4	0xbd805810	-0.062667966
5	0x3d83f43b	0.06443068
6	0x3f06ad51	0.5260821
7	0xbcbd6f19	-0.023124265
8	0xbda2ebd6	-0.079551384
9	0x3dd1c1bc	0.1024203
10	0xbd6b5774	-0.05745645
11	0x3e215a8f	0.15757202
12	0xbe2b62d8	-0.16736925
13	0x3d156254	0.036470726
14	0x3f22f648	0.63657045
15	0xbca207af	-0.019779054
16	0x3c1f571a	0.0097253565
17	0x3e2cfdbe	0.1689367
18	0x3dd7af93	0.10531535
19	0xbd84b615	-0.06480042
20	0xbe2c900c	-0.16851825
21	0x3e4aff08	0.19823849
22	0x3e13fd8f	0.14452194
23	0xbb2c8d46	-0.0026329323
24	0xbe744a18	-0.2385639
25	0xbdd15cbb	-0.10222765
26	0xbe84a862	-0.25909716
27	0xbe3c6550	-0.18398023
28	0x3e5c6ca1	0.21525814
29	0x3d4f78be	0.050652258
30	0x3da3f9a9	0.08006603
31	0x3ed96004	0.42456067
32	0xbe9acfe1	-0.30236724
33	0x3e40d1ef	0.18830083
34	0xbe8a53d9	-0.27017096
35	0x3e09803f	0.13427828
36	0x3e2a5e6d	0.16637583
37	0xbd0caaf1	-0.03434271
38	0xbe2e5c1d	-0.17027326
39	0xbe94e73e	-0.29082674
40	0xbe9a3723	-0.3012019
41	0xbe1c6b89	-0.15275396
42	0x3e526b48	0.20548737
43	0xbe558ff4	-0.20855695
44	0x3ec73402	0.38906866
45	0xbe428cc3	-0.18999009
46	0x3e9513e5	0.2911674
47	0x3df53d3f	0.119745724
48	0x3ea4644f	0.3210778
49	0x3e18780e	0.14889547
50	0x3d2aac1b	0.04166804
51	0x3d93812b	0.07202371
52	0xbb1a40e5	-0.0023537215
53	0x3e36ae04	0.17839819
54	0xbf19c73a	-0.6006962
55	0x3ea486d9	0.3213413
56	0x3e1238c7	0.14279471
57	0x3e32b5eb	0.17452209
58	0xbe3b6a20	-0.18302202
59	0xbe11b534	-0.1422928
60	0x3e423c4b	0.18968312
61	0x3b00ba8a	0.0019642436
62	0xba2f9e03	-0.0006699266
63	0x3f0609cb	0.5235869
64	0x3ead314a	0.33826667
65	0xbe15790b	-0.14596955
66	0x3df15b72	0.1178502
67	0x3d477c45	0.048702497
68	0xbe9649e0	-0.29353237
69	0xbeb5aadb	-0.35481915
70	0x3f069783	0.5257494
71	0xbef6e5b0	-0.48222113
72	0xbdfd825e	-0.12378381
73	0x3e57b0ee	0.21063587
74	0x3d3cb188	0.046067744
75	0x3d8ac881	0.06776524
76	0xbd27f1d6	-0.041002117
77	0x3d8ff980	0.0703001
78	0xbf881c68	-1.0633669
79	0xbd846c32	-0.06465949
80	0x3d5c1893	0.053734373
81	0xbe0e1835	-0.13876422
82	0x3ea2fe24	0.3183452
83	0x3d0fa715	0.03507145
84	0xbe88dbf7	-0.2673032
85	0x3e4840de	0.19555995
86	0xbec753f1	-0.3893123
87	0xbe731732	-0.23739317
88	0x3e29f25a	0.16596356
89	0x3dca6b03	0.09883692
90	0x3b17bd07	0.002315344
91	0x3d848392	0.064704075
92	0xbe0a5cf8	-0.13512027
93	0xbd75148f	-0.05983406
94	0xbe41d851	-0.18930174
95	0xbf0bf7ab	-0.54674786
96	0xbe0e783e	-0.13913056
97	0xbdeeb534	-0.116556555
98	0x3e8142ce	0.2524628
99	0x3df92473	0.12165155
100	0xbe97113c	-0.29505336
101	0xbe00027b	-0.12500946
102	0x3e771268	0.24128115
103	0x3e7d49f1	0.24735238
104	0x3cc040b7	0.023468358
105	0xbc41ac10	-0.011820808
106	0xbe596718	-0.21230733
107	0x3e903e3d	0.28172484
108	0x3e193147	0.14960204
109	0x3d5302a4	0.05151619
110	0xbe6e4116	-0.23267016
111	0x3d1c37fe	0.038139336
112	0x3df97e22	0.12182261
113	0xbdbb929c	-0.09158823
114	0x3dd80b98	0.10549086
115	0xbe9bcc1b	-0.30429158
116	0xbe7c1101	-0.24615861
117	0xbc357573	-0.011075365
118	0xbe999896	-0.29999226
119	0xbbc790d7	-0.0060902643
120	0x3cbc82bb	0.023011556
121	0x3d5b7fa1	0.053588513
122	0x3e822ae2	0.25423342
123	0xbe6d37d6	-0.23165831
124	0xbc48812a	-0.012237826
125	0xbcd151fb	-0.025551787
126	0xbaef082c	-0.0018236688
127	0x3c7b1468	0.015324689
128	0xbbe4a802	-0.006978036
129	0xbdac3aee	-0.084096774
130	0x3db05c50	0.08611357
131	0x3e801739	0.25017717
132	0xbde527f4	-0.11189261
133	0x3dc2f6ff	0.09519767
134	0xbe88dc79	-0.26730707
135	0xbc0b4c99	-0.008502149
136	0x3dae75eb	0.08518585
137	0x3de5b6fe	0.112165436
138	0xbe6b586e	-0.22982952
139	0xbdcce652	-0.100048676
140	0xbdaaba3d	-0.083363034
141	0xbdaf9df9	-0.08575053
142	0x3dd3e490	0.10346329
143	0xbe7862d6	-0.24256453
144	0x3e27f342	0.16401389
145	0xbdae231c	-0.0850279
146	0xbdf0231c	-0.117254466
147	0xbc12b589	-0.008954414
148	0xbe40b401	-0.18818666
149	0xbe91bd78	-0.28464866
150	0x3e84ee01	0.25962833
151	0xbde554d3	-0.111978196
152	0x3dacad26	0.08431463
153	0x3de21b22	0.110403314
154	0xbe246a0d	-0.1605608
155	0x3d86f670	0.06589973
156	0xbe34b67f	-0.17647742
157	0xbc0352f9	-0.008015388
158	0x3ed1f6ec	0.410087
159	0xbe5cb854	-0.2155469
160	0xbe9dd4a7	-0.30826303
161	0x3eaac841	0.33355907
162	0x3e586c91	0.21135165
163	0x3e2cb4df	0.16865872
164	0x3e18e8b9	0.14932527
165	0x3e739f27	0.2379118
166	0x3eeb6c5b	0.45981106
167	0x3de90c96	0.11379354
168	0x3d537817	0.0516282
169	0x3e76b632	0.2409294
170	0xbd81b784	-0.06333831
171	0x3e0b3719	0.13595237
172	0x3e585623	0.21126609
173	0xbda29176	-0.07937901
174	0xbdca10b3	-0.098664664
175	0x3f2f2da8	0.6842904
176	0xbd8200d2	-0.06347813
177	0x3ea6d03b	0.32580742
178	0x3e970024	0.29492295
179	0xbc5e6124	-0.013572965
180	0xbe16a6a4	-0.14712006
181	0x3e7a2eca	0.24431911
182	0xbd403763	-0.04692782
183	0x3ec56369	0.38552406
184	0xbe234aa9	-0.1594645
185	0x3dfb8c37	0.12282603
186	0xbd059bd1	-0.0326193
187	0xbe92a54f	-0.28641745
188	0x3e7f2b24	0.249188
189	0x3ec442f2	0.38332325
190	0xbda4dab7	-0.08049529
191	0xbe1843c7	-0.14869605
192	0xbdf2897f	-0.118426315
193	0x3e4a9afa	0.19785681
194	0x3eadadce	0.33921665
195	0x3d8213de	0.063514456
196	0xbe74613c	-0.23865217
197	0xbd8f5b10	-0.06999791
198	0x3efd118a	0.49427444
199	0x3d619d48	0.055081636
200	0x3dfb155d	0.12259934
201	0xbe5cdee8	-0.21569407
202	0xbe2faf95	-0.17156823
203	0xbca35b84	-0.019941099
204	0xbda08bd1	-0.07839168
205	0xbcbba751	-0.022906931
206	0x3f8b3074	1.0874162
207	0x3e89d7ed	0.2692255
208	0x3e26706a	0.1625382
209	0xbe87fc80	-0.2655983
210	0xbdd27ddd	-0.10277913
211	0x3c0e0aa0	0.008669525
212	0x3e9aeed3	0.30260333
213	0x3e48edde	0.19621989
214	0x3f76ebb0	0.9645338
215	0x3de4d355	0.11173121
216	0x3df0bae6	0.11754398
217	0xbdcbd0a3	-0.09951904
218	0x3f0036a8	0.500834
219	0x3e10e247	0.14148818
220	0xbdd425f4	-0.103588015
221	0xbd335789	-0.043784652
222	0x3f8a6ce9	1.0814487
223	0xbe5cda4c	-0.21567649
224	0x3e9d82e2	0.30763918
225	0x3e1430fb	0.1447181
226	0x3bea0858	0.007142108
227	0xbd72bd1b	-0.059262376
228	0x3e9dba4c	0.30806196
229	0xbd8ac163	-0.06775167
230	0x3f0182bd	0.50590116
231	0xbf26b72c	-0.6512325
232	0xbc679d49	-0.014136621
233	0xbe06a348	-0.13148224
234	0xbe1d369c	-0.15352863
235	0x3e3fd3df	0.18733166
236	0xbd0ec9bf	-0.03486037
237	0x3c741ab7	0.014898947
238	0xbf481bc7	-0.78167385
239	0x3e26b940	0.16281605
240	0xbdf8a522	-0.121408716
241	0x3e0b169f	0.13582848
242	0x3e14d48b	0.14534204
243	0xbe9bc284	-0.3042184
244	0x3e2224af	0.15834306
245	0x3e86081f	0.2617807
246	0x3de6a7af	0.11262452
247	0xbdc0c0ec	-0.09411797
248	0xbb7c7604	-0.0038522491
249	0xbe339f17	-0.17541157
250	0x3e78ce0f	0.24297355
251	0x3c09914f	0.008396461
252	0xbd90b719	-0.07066173
253	0x3dc65477	0.09684079
254	0xbf831f94	-1.0244012
255	0x3cb6efec	0.0223312

value.0.bias f4 [32]
0	0x3e463819	0.19357337
1	0x3e719121	0.23590519
2	0x3e811858	0.25213885
3	0xbe1e4959	-0.15457667
4	0x3e808326	0.25100058
5	0xbe0e0aad	-0.1387126
6	0x3b89f7a6	0.00421043
7	0x3e5600f8	0.20898807
8	0xbcb4f606	-0.02208997
9	0x3d8f2254	0.069889694
10	0xbe09b27f	-0.13446997
11	0x3e8003aa	0.25002795
12	0x3db796dc	0.08964321
13	0xbe36088d	-0.177767
14	0xbd8cd3ac	-0.06876311
15	0xbe7bb58e	-0.24580976
16	0xbe25868e	-0.1616461
17	0xbd92a094	-0.07159534
18	0xbd692bfb	-0.05692671
19	0xbebf89cc	-0.37409818
20	0xbdff9c55	-0.1248099
21	0x3e2e3bd1	0.17015006
22	0xbeafa21e	-0.34303373
23	0x3ebe7ab3	0.37202987
24	0x3e2ffa1b	0.17185251
25	0x3d71c0ba	0.05902169
26	0xbe7d52c3	-0.24738602
27	0xbdd8fa51	-0.10594619
28	0xbe602eb0	-0.2189281
29	0x3e65996b	0.22421806
30	0x3ed63099	0.41833952
31	0x3d8d4832	0.06898536

value.2.weight f4 [32, 32]
0	0xbd624bfc	-0.055248246
1	0xbd5a3e00	-0.053281784
2	0xbe51fdab	-0.20506923
3	0xbdfac911	-0.122453816
4	0x3e2c9dee	0.1685712
5	0xbdf519a3	-0.119677804
6	0xbcaac384	-0.020845182
7	0xbdef7488	-0.116921484
8	0x3d217aaa	0.039423622
9	0x3e16072c	0.14651173
10	0x3d98dcb2	0.07463969
11	0x3ae72882	0.0017635974
12	0x3d0a04bb	0.033695918
13	0xbe0db281	-0.13837625
14	0x3e017362	0.12641671
15	0x3d5458f7	0.051842656
16	0x3ce328d4	0.02772943
17	0x3d2d80cd	0.042359162
18	0x3d0f1217	0.03492936
19	0x3da19bfd	0.078910805
20	0xbe55f5d0	-0.20894551
21	0xbdb25d57	-0.087092094
22	0x3c8b43d3	0.017000115
23	0xbd1be68e	-0.03806167
24	0xbcfe4d2c	-0.031042658
25	0xbe3cc318	-0.18433797
26	0x3d8d840f	0.06909954
27	0x3e303cef	0.17210744
28	0xbe073616	-0.13204226
29	0x3e450960	0.19241858
30	0x3e331639	0.17488946
31	0x3d94f8ad	0.07273994
32	0x3daba2f2	0.08380689
33	0xbe7e176c	-0.24813622
34	0x3de5c21d	0.11218665
35	0xbe1a8512	-0.15089825
36	0xbdb80644	-0.0898557
37	0x3d304095	0.04303034
38	0x3d2f20dd	0.04275595
39	0xbd331552	-0.043721505
40	0xbdb49921	-0.088182695
41	0xbd623b50	-0.055232346
42	0x3e47c6be	0.19509408
43	0xbe07b0aa	-0.13250986
44	0xbe0989a6	-0.13431415
45	0xbe3993b6	-0.18122754
46	0x3dea8f5b	0.11453124
47	0xbe389424	-0.18025261
48	0x3d13531d	0.035967935
49	0xbe6f3909	-0.23361601
50	0xbe0adeaa	-0.13561502
51	0xbbfc2b47	-0.0076955887
52	0xbd0a3604	-0.03374292
53	0xbe1565d5	-0.14589627
54	0x3dc0ecf1	0.09420193
55	0xbdb0bd02	-0.086298004
56	0x3e090429	0.13380493
57	0x3e1ef314	0.15522414
58	0x3d4dd009	0.050247226
59	0x3d3fd71f	0.046836015
60	0x3d840573	0.06446352
61	0x3dddc696	0.10828893
62	0xbe287f9e	-0.16454932
63	0x3d02ca58	0.03193125
64	0xbe156d2b	-0.14592426
65	0xbdb9b937	-0.0906853
66	0xbdaf22f3	-0.08551588
67	0xbdb6b356	-0.08920924
68	0xbdd943e2	-0.10608651
69	0xbdee9d32	-0.116510764
70	0xbe051e15	-0.12999757
71	0xbd615f23	-0.05502237
72	0x3e13da3d	0.1443872
73	0x3e09d76c	0.13461083
74	0xbd865c57	-0.06560581
75	0xbd6c144d	-0.057636548
76	0xbe29b82a	-0.1657416
77	0x3e17e163	0.14832072
78	0xbe387903	-0.18014912
79	0x3cdf15f8	0.027232155
80	0xbe205046	-0.15655622
81	0x3d1f7df7	0.03893849
82	0xbe2e669c	-0.1703133
83	0x3da57815	0.080795445
84	0xbd9798b1	-0.074021704
85	0x3df82df2	0.121181384
86	0xbdd42eae	-0.10360466
87	0xbe1ebafc	-0.15501016
88	0x3e0a384e	0.13498041
89	0xbdebdc43	-0.11516621
90	0xbd877dda	-0.06615801
91	0x3d9484f0	0.07251918
92	0xbdaebd9b	-0.08532258
93	0xbe0b13e4	-0.13581806
94	0xbdf852fa	-0.121252015
95	0xbd53d0e8	-0.0517129
96	0x3e12ac55	0.14323552
97	0xbe1582e5	-0.14600714
98	0x3e0e1e0e	0.13878652
99	0xbdbfcb75	-0.09364978
100	0x3e0b2ba1	0.13590862
101	0x3dacb19b	0.08432313
102	0x3e193513	0.14961652
103	0xbc1341e2	-0.008987876
104	0x3cd1fd67	0.025633527
105	0x3d209d32	0.039212413
106	0xbcebd84d	-0.028789664
107	0x3c655ef4	0.013999689
108	0x3ae60291	0.0017548372
109	0xbd250ca6	-0.040295266
110	0x3e17f16a	0.14838186
111	0xbd8e612b	-0.06952127
112	0xbe08251c	-0.13295406
113	0xbe1c5e1f	-0.1527028
114	0xbd3c68e9	-0.045998488
115	0x3c93f60c	0.01806166
116	0x3e12e8ed	0.14346667
117	0xbdef255d	-0.11677048
118	0x3dc8610e	0.09784137
119	0xbd9f4f1d	-0.077787615
120	0x3ddc851c	0.10767576
121	0xbe13d229	-0.14435638
122	0x3d423909	0.047417674
123	0x3d6f4add	0.058421005
124	0x3deb68db	0.11494609
125	0xbdb4ad03	-0.08822062
126	0xbe271e11	-0.16320063
127	0xbdee993d	-0.11650322
128	0xbca1b355	-0.019738832
129	0x3d5c68b2	0.053810783
130	0x3c7fe3e0	0.0156182945
131	0xbe170624	-0.14748436
132	0xbd7d0ed5	-0.061781723
133	0xbd340e7f	-0.043959137
134	0xbe422858	-0.18960702
135	0xbdb05714	-0.08610359
136	0xbdaa049e	-0.08301662
137	0xbd97977a	-0.07401939
138	0x3dd5edad	0.10445724
139	0xbd0facc6	-0.03507688
140	0xba1d3647	-0.00059971627
141	0xbbe4f159	-0.0069867787
142	0xbda48e56	-0.08034961
143	0xbd640067	-0.055664446
144	0x3b546dda	0.003241411
145	0xbe076008	-0.13220227
146	0x3e0f35b1	0.13985325
147	0xbda03a0e	-0.07823573
148	0xbda4d056	-0.080475494
149	0xbc892560	-0.016741455
150	0x3e165e1e	0.1468434
151	0x3e077e20	0.13231707
152	0x3dd11536	0.10209124
153	0xbe005aff	-0.12534712
154	0x3e0536e6	0.13009223
155	0x3e4bfed6	0.19921431
156	0x3e0526fa	0.1300315
157	0xbe3593f6	-0.17732224
158	0xbda3c0db	-0.07995769
159	0xbd3bf1b8	-0.045884818
160	0x3e0cad4e	0.13737985
161	0x3de70d6a	0.112818554
162	0xbb506361	-0.0031797516
163	0xbd26c841	-0.04071832
164	0x3d0c59ca	0.034265317
165	0xbd3b69ed	-0.045755316
166	0xbd496b37	-0.049174514
167	0x3d579e94	0.052641466
168	0xbda730e4	-0.08163622
169	0xbdf3e2e8	-0.11908513
170	0x3dfa547d	0.12223146
171	0xbe1d0ae6	-0.15336189
172	0x3d8e51ee	0.069492206
173	0x3de54be7	0.11196118
174	0x3e1b8a52	0.15189484
175	0x3d605e18	0.054777235
176	0x3d8c6d5c	0.06856796
177	0x3d493118	0.049119085
178	0x3e06c536	0.13161168
179	0xbdbc1916	-0.09184472
180	0x3bbf00ef	0.0058289687
181	0xbd2bfe36	-0.04199048
182	0xbdeaa725	-0.114576615
183	0xbd388f36	-0.04505845
184	0x3e0da0f2	0.13830927
185	0xbdcf36cd	-0.10117874
186	0x3e0161e7	0.12635003
187	0x3c84703e	0.016166802
188	0x3dbdf5cb	0.09275397
189	0x3e0590ea	0.13043562
190	0x3db7519a	0.08951111
191	0x3e209624	0.15682274
192	0xbd5ed0b8	-0.05439827
193	0xbde96bdf	-0.11397528
194	0x3cdfa92a	0.027302343
195	0xbd8f8024	-0.07006863
196	0xbb90c33d	-0.0044178055
197	0xbd8df32a	-0.069311455
198	0x3e02ee29	0.12786163
199	0xbd7953f6	-0.060871087
200	0x3e15b47c	0.1461963
201	0xbc4ec73f	-0.012620746
202	0xbe0404fa	-0.12892523
203	0x3d12e1ab	0.035859745
204	0xbe2f8f47	-0.171445
205	0xbc2660c4	-0.010154907
206	0x3d207f3e	0.039183848
207	0xbe177bd4	-0.1479333
208	0x3e0c1b62	0.1368232
209	0x3d0d537d	0.03450345
210	0x3e136fe4	0.14398152
211	0xbd9801fe	-0.07422255
212	0x3dbc31f6	0.09189217
213	0xbd9e578f	-0.07731544
214	0xbd00468b	-0.031317275
215	0xbe255401	-0.16145326
216	0x3dceaeb9	0.100919195
217	0xbe06e2d7	-0.1317247
218	0x3cd6a2f1	0.026200743
219	0xbdf8af67	-0.1214283
220	0x3e256705	0.1615258
221	0xbe1d1c24	-0.15342766
222	0xbcb0fe42	-0.021605615
223	0x3dd54235	0.104130186
224	0xbd8e9c49	-0.06963403
225	0x3dff1fb4	0.12457219
226	0x3dbcbac0	0.09215307
227	0xbe764fff	-0.24053954
228	0x3d956754	0.07295099
229	0xbe647798	-0.22311246
230	0xbd8d8fad	-0.069121696
231	0xbe88acce	-0.2669434
232	0xbd27cf29	-0.040969048
233	0x3e1777d7	0.14791809
234	0x3df7a3cd	0.120917894
235	0x3e27f6e2	0.16402772
236	0xbd41c3e5	-0.04730596
237	0x3d90d340	0.07071543
238	0x3e28827c	0.16456026
239	0x3e53ef5c	0.20696777
240	0xbe09b277	-0.13446985
241	0x3ccf0c9b	0.025274565
242	0x3e2416c8	0.16024315
243	0xbdd95082	-0.10611059
244	0xbc48bf87	-0.012252695
245	0xbce039c2	-0.027371291
246	0xbc22b276	-0.009930244
247	0xbe82c778	-0.25542808
248	0xbe0989a5	-0.13431413
249	0xbe204bb6	-0.15653881
250	0xbdc6deaf	-0.09710442
251	0x3e2e00a5	0.16992433
252	0xbd9a682d	-0.07539401
253	0xbc37011a	-0.011169696
254	0x3d706b01	0.058695797
255	0xbd8294a2	-0.06376006

value.2.bias f4 [32]
0	0xbdcf1f8c	-0.10113439
1	0x3a914c76	0.0011085409
2	0x3d860aa3	0.065449975
3	0x3e2758ef	0.16342519
4	0x3cfdac3e	0.03096592
5	0x3db4c5be	0.08826779
6	0xbd145e05	-0.036222477
7	0xbd8ee971	-0.06978119
8	0xbcad1d15	-0.021132031
9	0x3d81d326	0.063391015
10	0x3b925562	0.004465745
11	0x3e50762e	0.20357582
12	0xbd8ce1fd	-0.06879041
13	0x3dc65cde	0.09685682
14	0xbd64aca4	-0.055828705
15	0x3dcc4dc7	0.09975772
16	0x3d83f852	0.06443848
17	0x3df467f2	0.119338885
18	0xbe55f63f	-0.20894717
19	0x3e341c01	0.17588808
20	0xbdb644f9	-0.08899874
21	0xbc28652e	-0.010278029
22	0xbe647759	-0.22311153
23	0x3e19152f	0.14949487
24	0xbd900f89	-0.07034213
25	0xbdc7d954	-0.09758249
26	0x3d9b9500	0.07596779
27	0xbd3b3b19	-0.045710657
28	0x3de30fbd	0.11086986
29	0x3b71568f	0.0036825275
30	0x3d49ffaa	0.049316086
31	0xbe2f505f	-0.17120503

value.4.weight f4 [1, 32]
0	0x3e0d4942	0.13797477
1	0xbdbaa493	-0.09113421
2	0xbdbe4568	-0.09290582
3	0xbdfc5c9c	-0.12322351
4	0x3d225af8	0.039637536
5	0xbd854c40	-0.06508684
6	0xbdc853ae	-0.09781586
7	0xbd93ba51	-0.072132714
8	0xbe08ab6d	-0.13346644
9	0x3da587b9	0.08082528
10	0x3dcab4dd	0.09897778
11	0xbd96ecd5	-0.07369391
12	0xbe27c3f7	-0.16383348
13	0xbd13e5fb	-0.036108
14	0xbdbd1647	-0.09232765
15	0xbde84d80	-0.11342907
16	0x3e3da9a1	0.1852174
17	0xbe1fd5f4	-0.1560896
18	0xbd4d53ba	-0.050128676
19	0xbd7088a2	-0.058724053
20	0x3deb8eb8	0.11501831
21	0xbcb3fb1d	-0.021970326
22	0x3ddf8ad6	0.10915153
23	0x3debf316	0.11520974
24	0x3d8250b2	0.06363048
25	0xbe448225	-0.19190271
26	0xbd92d484	-0.071694404
27	0x3de80b9e	0.11330341
28	0x3e0609ff	0.1308975
29	0x3dde8221	0.10864664
30	0xbdf6ec26	-0.120567605
31	0x3dae2440	0.08503008

value.0.weight f4 [32, 8]
0	0xbeb37e6b	-0.35057387
1	0x3d9edd70	0.077570796
2	0x3e58bd48	0.21165955
3	0x3e9cf01d	0.30651942
4	0xbd86d79f	-0.06584095
5	0x3d7ae95a	0.061257698
6	0x3f06385a	0.52429736
7	0xbc8128bb	-0.015766492
8	0xbda3d35d	-0.07999299
9	0x3dd0fbb6	0.1020426
10	0xbd66d63e	-0.05635666
11	0x3e1fb8e3	0.15597872
12	0xbe2bdd49	-0.16783632
13	0x3d137894	0.036003664
14	0x3f21faba	0.63273203
15	0xbc41e66a	-0.01183472
16	0x3c1b5818	0.009481452
17	0x3e2e3b4a	0.17014804
18	0x3dd39145	0.10330442
19	0xbd841d80	-0.06450939
20	0xbe2c09e4	-0.16800648
21	0x3e4b8530	0.19875026
22	0x3e1653d8	0.14680421
23	0xbbd54810	-0.0065088347
24	0xbe7564ad	-0.23964186
25	0xbdd0cca4	-0.10195282
26	0xbe847a42	-0.25874525
27	0xbe3d0251	-0.18457915
28	0x3e5c9681	0.21541788
29	0x3d502043	0.050812017
30	0x3da3685c	0.07978889
31	0x3edade80	0.4274788
32	0xbe9afd5a	-0.30271417
33	0x3e40bb24	0.18821388
34	0xbe8ae260	-0.27125835
35	0x3e0a93b5	0.13532908
36	0x3e2a442b	0.16627567
37	0xbd0d13fb	-0.034442883
38	0xbe2cd4a6	-0.16877994
39	0xbe928249	-0.28615025
40	0xbe9a0043	-0.30078325
41	0xbe1aaa25	-0.15103967
42	0x3e52dc42	0.20591834
43	0xbe57a603	-0.21059422
44	0x3ec6742f	0.38760516
45	0xbe440c5c	-0.1914534
46	0x3e97e823	0.29669294
47	0x3de65ebb	0.11248537
48	0x3ea5cdec	0.32383668
49	0x3e1a6a52	0.1507962
50	0x3d2cf853	0.042229008
51	0x3d91ac35	0.07112924
52	0xbbb1cf09	-0.005426292
53	0x3e338891	0.17532565
54	0xbf188a11	-0.5958567
55	0x3e9f9b64	0.3117324
56	0x3e12585a	0.14291516
57	0x3e31cb11	0.1736262
58	0xbe3b1813	-0.18270902
59	0xbe106459	-0.1410078
60	0x3e422523	0.18959479
61	0x3af5e37f	0.0018759816
62	0xbb3fe3b5	-0.002928001
63	0x3f083e7e	0.53220356
64	0x3eac6552	0.3367105
65	0xbe166e89	-0.14690603
66	0x3df32416	0.11872117
67	0x3d454fda	0.048171856
68	0xbe966b6f	-0.2937884
69	0xbeb5cc6a	-0.35507518
70	0x3f069574	0.525718
71	0xbef36b23	-0.47542676
72	0xbdfe60d7	-0.124208145
73	0x3e5784b3	0.21046714
74	0x3d40f1da	0.047105648
75	0x3d89c04c	0.06726131
76	0xbd29a174	-0.04141374
77	0x3d8f21af	0.069888465
78	0xbf87dac5	-1.0613638
79	0xbd85388d	-0.06504927
80	0x3d585d50	0.052823365
81	0xbe0db6f4	-0.13839322
82	0x3ea31c8d	0.3185772
83	0x3d109453	0.035297703
84	0xbe889642	-0.26677138
85	0x3e48cc48	0.19609177
86	0xbecc0ad9	-0.39852026
87	0xbe6fec3e	-0.23429963
88	0x3e2aea22	0.16690877
89	0x3dc89444	0.097939044
90	0x3aded108	0.0016999552
91	0x3d837bbf	0.06420087
92	0xbe09fa7f	-0.13474463
93	0xbd738ab3	-0.059458446
94	0xbe43ef54	-0.19134265
95	0xbf0d49f6	-0.5519098
96	0xbe0e79c2	-0.13913634
97	0xbdebf0a8	-0.11520511
98	0x3e81f2fe	0.253807
99	0x3dff4ac8	0.12465435
100	0xbe977989	-0.2958491
101	0xbe00d309	-0.12580504
102	0x3e7af8e4	0.24509007
103	0x3e7d75e9	0.2475201
104	0x3cc4f24e	0.024041321
105	0xbc2bb652	-0.01048048
106	0xbe585870	-0.21127486
107	0x3e8fc7b4	0.2808205
108	0x3e1ac7a3	0.15115218
109	0x3d595c07	0.05306628
110	0xbe751e2e	-0.23937294
111	0x3c909a99	0.017651843
112	0x3dfbff54	0.12304559
113	0xbdbc2528	-0.091867745
114	0x3dd8f0e2	0.1059282
115	0xbe9be481	-0.30447772
116	0xbe7c5a42	-0.24643806
117	0xbc3a0991	-0.01135482
118	0xbe98b79c	-0.29827583
119	0x3aac5e93	0.0013150744
120	0x3cb51f6a	0.022109706
121	0x3d5b6a7b	0.053568345
122	0x3e8206c0	0.25395775
123	0xbe6cb851	-0.23117186
124	0xbc29c51d	-0.010361937
125	0xbcc1f3f4	-0.023675896
126	0xbbe69571	-0.007036858
127	0x3c59162c	0.013249915
128	0xbbf0727c	-0.0073378664
129	0xbdad863a	-0.08472867
130	0x3dace2f1	0.08441723
131	0x3e7fdd0e	0.2498667
132	0xbde2b4b5	-0.110696234
133	0x3dc56a3e	0.09639405
134	0xbe8d5a46	-0.27607936
135	0xbc17b97d	-0.009260532
136	0x3dae8a4a	0.0852247
137	0x3de7e337	0.11322635
138	0xbe6bd3ad	-0.23029967
139	0xbdce5d43	-0.10076382
140	0xbdaa08d4	-0.08302465
141	0xbdaeec90	-0.085412145
142	0x3dd55d58	0.104181945
143	0xbe73d8c8	-0.23813164
144	0x3e2849de	0.16434428
145	0xbdaf1092	-0.085480824
146	0xbdf0fb38	-0.11766666
147	0xbc1a7f69	-0.009429791
148	0xbe407fa1	-0.18798687
149	0xbe91a34a	-0.28444892
150	0x3e81e2df	0.253684
151	0xbdde734d	-0.10861836
152	0x3daad595	0.08341519
153	0x3de20f7e	0.11038111
154	0xbe2491c8	-0.16071236
155	0x3d86ef4f	0.06588613
156	0xbe352034	-0.17688066
157	0xbc09ee7e	-0.008418677
158	0x3ed59523	0.41715345
159	0xbe5bca25	-0.21463831
160	0xbe9de858	-0.30841327
161	0x3eaad8e2	0.33368593
162	0x3e58d5c9	0.21175303
163	0x3e2badea	0.16765562
164	0x3e1913e6	0.14948997
165	0x3e73ca54	0.23807651
166	0x3ee9e27c	0.45680606
167	0x3dde3089	0.10849101
168	0x3d4e9470	0.05043453
169	0x3e773852	0.24142578
170	0xbd80d2ac	-0.062901825
171	0x3e0b66e8	0.13613474
172	0x3e58c57b	0.21169083
173	0xbda1b2cd	-0.07895432
174	0xbdc724c8	-0.09723812
175	0x3f2ea842	0.6822549
176	0xbd85344c	-0.065041155
177	0x3ea73a5b	0.3266171
178	0x3e964a01	0.29353335
179	0xbc4a2e17	-0.01234009
180	0xbe15c001	-0.14624025
181	0x3e7b156d	0.24519892
182	0xbd54671d	-0.05185615
183	0x3ec18f79	0.37804773
184	0xbe240a77	-0.16019617
185	0x3df8e15d	0.1215236
186	0xbd0a2ac5	-0.033732194
187	0xbe9223c9	-0.28542927
188	0x3e7f2ac0	0.24918652
189	0x3ec4428e	0.38332027
190	0xbdbb7851	-0.09153808
191	0xbe184146	-0.1486865
192	0xbdef5ede	-0.11688016
193	0x3e4b52ae	0.19855759
194	0x3ead9c2c	0.33908212
195	0x3d800fd8	0.06253022
196	0xbe756c7b	-0.23967163
197	0xbd91719e	-0.07101749
198	0x3f01ca77	0.5069956
199	0x3d5a2a4a	0.053262986
200	0x3dfb24ac	0.12262854
201	0xbe5d187b	-0.2159137
202	0xbe2eab74	-0.17057592
203	0xbcafbce8	-0.021452382
204	0xbda1c603	-0.07899096
205	0xbcc0900d	-0.023506189
206	0x3f8ae583	1.0851291
207	0x3e8a0516	0.26957005
208	0x3e25226f	0.16126417
209	0xbe87bb46	-0.26510066
210	0xbdcfe947	-0.10151916
211	0x3c03c476	0.008042445
212	0x3e9aeed3	0.30260333
213	0x3e48edde	0.19621989
214	0x3f78ecf6	0.97236574
215	0x3ddf170c	0.10893068
216	0x3df03157	0.11728161
217	0xbdcbc9a7	-0.099505715
218	0x3f007446	0.5017742
219	0x3e0f8faf	0.14019655
220	0xbdd7f3aa	-0.10544522
221	0xbd3af2f2	-0.045641847
222	0x3f8b925e	1.0904043
223	0xbe5af069	-0.21380772
224	0x3e9d9f97	0.3078582
225	0x3e13e763	0.14443736
226	0x3bf1b8af	0.0073767523
227	0xbd76ab85	-0.060222168
228	0x3e9dfe67	0.30858156
229	0xbd89b0f8	-0.06723207
230	0x3f002c42	0.5006753
231	0xbf24ed5b	-0.64424676
232	0xbc645b0d	-0.013937724
233	0xbe06ab98	-0.13151395
234	0xbe1d5e3b	-0.15367977
235	0x3e3ee77c	0.18642992
236	0xbd0fcf8e	-0.03511005
237	0x3c700382	0.014649274
238	0xbf468e04	-0.7756045
239	0x3e2a39f6	0.16623673
240	0xbdf8467d	-0.121228196
241	0x3e0b3b04	0.13596731
242	0x3e13f8fe	0.14450452
243	0xbe9c3965	-0.3051254
244	0x3e22244b	0.15834157
245	0x3e8607bb	0.26177773
246	0x3debbfc6	0.11511187
247	0xbdb8ba22	-0.09019877
248	0xbb3ed3b1	-0.0029117877
249	0xbe3441ca	-0.17603222
250	0x3e76cc3f	0.24101351
251	0x3bce251a	0.006291044
252	0xbd8e35d3	-0.0694386
253	0x3dc8d5bd	0.09806392
254	0xbf82c6c2	-1.0216906
255	0x3c89113e	0.016731855

value.0.bias f4 [32]
0	0x3e459dec	0.19298524
1	0x3e7167f2	0.23574808
2	0x3e8171cc	0.25282133
3	0xbe1e581e	-0.15463302
4	0x3e80a54d	0.25126114
5	0xbe0b2285	-0.13587387
6	0x3c003039	0.007823997
7	0x3e5a0a7e	0.21293065
8	0xbcb70172	-0.022339556
9	0x3d8bb8b8	0.06822342
10	0xbe0d8095	-0.13818581
11	0x3e800c90	0.25009584
12	0x3db80813	0.08985915
13	0xbe35df6e	-0.17761013
14	0xbd8faebc	-0.0701575
15	0xbe7c4019	-0.24633826
16	0xbe2661e4	-0.1624828
17	0xbd903009	-0.07040412
18	0xbd63153e	-0.05544018
19	0xbebf9d4e	-0.374247
20	0xbe00612e	-0.12537071
21	0x3e2e84cb	0.17042844
22	0xbeaef14f	-0.3416848
23	0x3ebd9372	0.37026554
24	0x3e2f3e87	0.17113696
25	0x3d7af0c4	0.06126477
26	0xbe7e633d	-0.24842544
27	0xbdd6f781	-0.104964264
28	0xbe631f99	-0.22180022
29	0x3e648505	0.22316368
30	0x3ed6d85d	0.41961947
31	0x3d8dfaa4	0.069325715

value.2.weight f4 [32, 32]
0	0xbd604424	-0.054752484
1	0xbd56e2db	-0.05246244
2	0xbe52dc36	-0.20591816
3	0xbdfa6022	-0.12225367
4	0x3e2da923	0.16959052
5	0xbdf7439a	-0.12073441
6	0xbca58e6b	-0.020209512
7	0xbdeec44d	-0.11658535
8	0x3d20fc85	0.03930332
9	0x3e1520be	0.14563271
10	0x3d99e058	0.07513493
11	0x3aabe728	0.0013115155
12	0x3d0a6a6c	0.033792898
13	0xbe0f43ea	-0.13990751
14	0x3e019c80	0.12657356
15	0x3d52530b	0.051348727
16	0x3ce1fd7a	0.027586687
17	0x3d2ec5b5	0.042669017
18	0x3d0e9e80	0.034819126
19	0x3da15bbc	0.07878825
20	0xbe56903d	-0.2095346
21	0xbdb33b2c	-0.087515205
22	0x3c8e2b5e	0.017354663
23	0xbd1bc049	-0.038025174
24	0xbd00526d	-0.031328607
25	0xbe3cb362	-0.18427804
26	0x3d8f05dd	0.0698354
27	0x3e3017ee	0.17196628
28	0xbe06d0c7	-0.1316558
29	0x3e44c05e	0.19214007
30	0x3e32c9f4	0.17459852
31	0x3d93d7a4	0.072188646
32	0x3dabab1d	0.08382247
33	0xbe7b6f60	-0.24554205
34	0x3de50b75	0.11183826
35	0xbe1c9c26	-0.15293941
36	0xbdb975b8	-0.09055656
37	0x3d22873d	0.039679755
38	0x3d2d5dd2	0.042325802
39	0xbd3767bc	-0.044776663
40	0xbdb5ee40	-0.08883333
41	0xbd6292f9	-0.055315945
42	0x3e45ad4a	0.19304386
43	0xbe086800	-0.13320923
44	0xbe0b4c2f	-0.1360328
45	0xbe386712	-0.18008068
46	0x3dec7be6	0.11547069
47	0xbe39b45f	-0.18135212
48	0x3d10ccbc	0.0353515
49	0xbe706b64	-0.23478466
50	0xbe0b397f	-0.13596152
51	0xbc0809f3	-0.008303153
52	0xbd0a18c3	-0.03371502
53	0xbe15dd9e	-0.14635321
54	0x3dbf5f74	0.09344378
55	0xbdb784c9	-0.08960874
56	0x3e091afa	0.13389197
57	0x3e1ec60c	0.15505236
58	0x3d4cbb6e	0.049983434
59	0x3d3f135b	0.04664932
60	0x3d83787f	0.06419467
61	0x3dd8869e	0.10572551
62	0xbe2a1b40	-0.16611958
63	0x3ce90c6c	0.028448306
64	0xbe156cc7	-0.14592277
65	0xbdb9b8d3	-0.090684555
66	0xbdaf228f	-0.085515134
67	0xbdb6b356	-0.08920924
68	0xbdd9437e	-0.10608576
69	0xbdee9d32	-0.116510764
70	0xbe051db1	-0.12999608
71	0xbd615ebf	-0.055021998
72	0x3e13daa1	0.14438869
73	0x3e09d7d0	0.13461232
74	0xbd865bf3	-0.06560507
75	0xbd6c13e9	-0.057636175
76	0xbe29b7c6	-0.1657401
77	0x3e17e1c7	0.14832221
78	0xbe38789f	-0.18014763
79	0x3cdf15f8	0.027232155
80	0xbe2050aa	-0.15655771
81	0x3d1f7e5b	0.03893886
82	0xbe2e6638	-0.17031181
83	0x3da57879	0.08079619
84	0xbd9798b1	-0.074021704
85	0x3df82e56	0.12118213
86	0xbdd42f12	-0.103605404
87	0xbe1ebafc	-0.15501016
88	0x3e0a38b2	0.1349819
89	0xbdebdbdf	-0.115165465
90	0xbd877dda	-0.06615801
91	0x3d94848c	0.07251844
92	0xbdaebd37	-0.085321836
93	0xbe0b1380	-0.13581657
94	0xbdf852fa	-0.121252015
95	0xbd53d0e8	-0.0517129
96	0x3e1290bc	0.14313024
97	0xbe1567f9	-0.14590444
98	0x3e0e163d	0.1387567
99	0xbdc2198d	-0.0947753
100	0x3e0b8a2c	0.13626927
101	0x3daa2705	0.08308224
102	0x3e18cf00	0.14922714
103	0xbc212d38	-0.009837441
104	0x3cdcad28	0.026938036
105	0x3d204f81	0.03913832
106	0xbce95851	-0.028484495
107	0x3c7911e5	0.01520202
108	0x3b18b840	0.002330318
109	0xbd240439	-0.04004309
110	0x3e18e0e5	0.1492954
111	0xbd8d8e5d	-0.06911919
112	0xbe06e759	-0.1317419
113	0xbe1d50db	-0.15362875
114	0xbd38cc95	-0.04511698
115	0x3c9284f2	0.017885659
116	0x3e12af66	0.14324722
117	0xbdef9b43	-0.11699536
118	0x3dc7acc2	0.09749748
119	0xbd9f9a06	-0.077930495
120	0x3ddd4d62	0.10805775
121	0xbe1398ad	-0.1441371
122	0x3d38e852	0.045143433
123	0x3d7316aa	0.059347786
124	0x3deae078	0.11468595
125	0xbdb6bf2a	-0.089231804
126	0xbe2723a2	-0.16322187
127	0xbdefd04c	-0.11709651
128	0xbc9b2cb6	-0.018942218
129	0x3d5d738b	0.05406527
130	0x3c6d6fa1	0.014491946
131	0xbe18551c	-0.14876217
132	0xbd7a606d	-0.061127115
133	0xbd2ead0c	-0.0426455
134	0xbe43a46e	-0.19105694
135	0xbdb36a6c	-0.08760533
136	0xbdac224a	-0.084049776
137	0xbd96d396	-0.073645756
138	0x3dd631be	0.10458706
139	0xbd144918	-0.03620252
140	0x3881c7bc	6.188403e-05
141	0xbbc7d873	-0.006098801
142	0xbda9910f	-0.08279621
143	0xbd68e577	-0.05685946
144	0x3b7a47ac	0.0038189692
145	0xbe079906	-0.13241968
146	0x3e0e6226	0.13904628
147	0xbda082a4	-0.07837418
148	0xbda3cfa7	-0.07998591
149	0xbc8fe877	-0.017566903
150	0x3e1655d0	0.14681172
151	0x3e059140	0.1304369
152	0x3dd092ed	0.10184274
153	0xbe024967	-0.12723313
154	0x3e026704	0.1273461
155	0x3e4b4d42	0.1985369
156	0x3e02fa1c	0.12790722
157	0xbe337f43	-0.17529015
158	0xbda4ed61	-0.08053089
159	0xbd3ac2c4	-0.0455959
160	0x3e0ca826	0.13736019
161	0x3de6c1b1	0.112674125
162	0xbb4e5be7	-0.0031487884
163	0xbd270fd1	-0.040786568
164	0x3d0c0830	0.034187496
165	0xbd3c563f	-0.04598069
166	0xbd49b0cb	-0.04924087
167	0x3d563c2e	0.052303486
168	0xbda6d5cd	-0.08146248
169	0xbdf354fa	-0.11881442
170	0x3dfa0ebc	0.122098416
171	0xbe1cf1ea	-0.15326658
172	0x3d8df67e	0.0693178
173	0x3de91b33	0.11382141
174	0x3e1ba6da	0.15200368
175	0x3d61e2f9	0.0551481
176	0x3d8dd53f	0.06925439
177	0x3d480080	0.0488286
178	0x3e06d7dd	0.13168283
179	0xbdbcafa9	-0.09213192
180	0x3bc3d73a	0.0059765847
181	0xbd2a3326	-0.041552685
182	0xbdeababb	-0.11461397
183	0xbd384d56	-0.04499563
184	0x3e0df989	0.13864721
185	0xbdcf1ebb	-0.10113283
186	0x3e01ab5a	0.12663022
187	0x3c87d1a7	0.016579462
188	0x3dbc188f	0.09184372
189	0x3e05c219	0.13062324
190	0x3db7e7ce	0.0897976
191	0x3e202ab4	0.1564129
192	0xbd7363b8	-0.05942127
193	0xbdef5ef9	-0.116880365
194	0x3ce873f7	0.028375609
195	0xbd8fa18f	-0.07013237
196	0xbb5b4042	-0.0033455049
197	0xbd8c2271	-0.06842507
198	0x3e02c3c9	0.12769999
199	0xbd75ce2d	-0.060011078
200	0x3e152f77	0.14568888
201	0xbc4b127a	-0.012394542
202	0xbe040bbc	-0.12895101
203	0x3d143c7e	0.036190502
204	0xbe30a96e	-0.17252132
205	0xbc192a9c	-0.009348538
206	0x3d1fc5a9	0.039006863
207	0xbe168bef	-0.14701818
208	0x3e0bac49	0.1363994
209	0x3d0ebfa7	0.034850743
210	0x3e131c70	0.14366317
211	0xbd97f975	-0.07420627
212	0x3db9862d	0.09058795
213	0xbd9f706c	-0.07785115
214	0xbd0186b4	-0.031622604
215	0xbe231ce0	-0.15928984
216	0x3dcd4e94	0.10024753
217	0xbe073d8e	-0.13207075
218	0x3cc43a93	0.023953712
219	0xbdf90dab	-0.1216081
220	0x3e25e6e8	0.16201365
221	0xbe1d91ad	-0.15387602
222	0xbca6a63c	-0.020342939
223	0x3dd87cfd	0.105707146
224	0xbd8ef758	-0.06980771
225	0x3dfd66c6	0.12373118
226	0x3dbea1db	0.09308215
227	0xbe77c9c8	-0.24198067
228	0x3d93f893	0.07225146
229	0xbe5e7ffe	-0.21728513
230	0xbd8f9c77	-0.07012265
231	0xbe882564	-0.26591027
232	0xbd2953ea	-0.041339792
233	0x3e178fea	0.14800993
234	0x3df7d208	0.12100607
235	0x3e27d649	0.16390337
236	0xbd454642	-0.048162706
237	0x3d9371b1	0.07199419
238	0x3e28e892	0.16494969
239	0x3e54ed4a	0.20793644
240	0xbe09bedb	-0.13451712
241	0x3ccb0b0c	0.024785541
242	0x3e23ae0c	0.15984362
243	0xbddacdd8	-0.10683793
244	0xbc39d5d0	-0.011342481
245	0xbcdb542e	-0.026773538
246	0xbc202de9	-0.009776571
247	0xbe808210	-0.2509923
248	0xbe09de3a	-0.13463679
249	0xbe207374	-0.15669042
250	0xbdcb1d99	-0.09917755
251	0x3e2e023a	0.16993037
252	0xbd9ae844	-0.075638324
253	0xbc45cb06	-0.01207233
254	0x3d75248e	0.059849314
255	0xbd7c3b98	-0.06158027

value.2.bias f4 [32]
0	0xbdcffdad	-0.10155807
1	0x39b6b41c	0.00034847937
2	0x3d860b07	0.06545072
3	0x3e26fc78	0.16307247
4	0x3cf6d9ac	0.03013309
5	0x3db5c7b6	0.088759825
6	0xbd158add	-0.036509383
7	0xbd8e6772	-0.069533244
8	0xbca51131	-0.020149799
9	0x3d7c6650	0.06162101
10	0x3b8822c5	0.0041545355
11	0x3e5033b7	0.20332228
12	0xbd8c3953	-0.06846871
13	0x3dc73c52	0.09728302
14	0xbd61cca7	-0.055126812
15	0x3dcc72b7	0.099828176
16	0x3d84961c	0.064739436
17	0x3df2eb18	0.11861247
18	0xbe5540ab	-0.2082545
19	0x3e34c95c	0.17654938
20	0xbdb7bf4a	-0.08972032
21	0xbc19a6d4	-0.009378154
22	0xbe6479eb	-0.22312133
23	0x3e18a9fb	0.14908592
24	0xbd907951	-0.07054389
25	0xbdc64cb5	-0.096825995
26	0x3d99d5e7	0.07511502
27	0xbd3ea94f	-0.046548184
28	0x3de1b463	0.11020734
29	0x3b254643	0.0025218881
30	0x3d433b57	0.047664013
31	0xbe305d2b	-0.17223041

value.4.weight f4 [1, 32]
0	0x3e0dcd74	0.13847905
1	0xbdb9fb4b	-0.090811335
2	0xbdbe45cc	-0.092906564
3	0xbdfce3a0	-0.123481035
4	0x3d21ffda	0.03955064
5	0xbd85ca63	-0.06532743
6	0xbdc83e5e	-0.097775206
7	0xbd948025	-0.07251004
8	0xbe090345	-0.13380153
9	0x3da3d856	0.08000247
10	0x3dcb5a4f	0.09929334
11	0xbd94e9b1	-0.072711356
12	0xbe29051c	-0.16505855
13	0xbd145070	-0.036209524
14	0xbdbde9fb	-0.09273144
15	0xbdf03d80	-0.1173048
16	0x3e3d805c	0.18505996
17	0xbe20089f	-0.15628289
18	0xbd4ff06f	-0.050766405
19	0xbd7071d9	-0.058702324
20	0x3dec8328	0.115484536
21	0xbcb55555	-0.022135416
22	0x3de06c83	0.10958197
23	0x3dec0380	0.11524105
24	0x3d8255cf	0.06364023
25	0xbe44d2c6	-0.19221029
26	0xbd914f18	-0.07095164
27	0x3de61151	0.112337716
28	0x3e05ec2b	0.13078372
29	0x3ddfae43	0.1092191
30	0xbdf76025	-0.12078885
31	0x3daf3936	0.08555834

actor.0.weight f4 [32, 6]
0	0x3e974898	0.29547572
1	0xbe9679d1	-0.29389814
2	0x3d1f270b	0.038855594
3	0xbeba3378	-0.36367393
4	0xbe804957	-0.25055954
5	0xbe9e4bc3	-0.30917177
6	0x3e68bda8	0.22728598
7	0xbe9ccc32	-0.3062454
8	0x3ef68604	0.4814912
9	0xbf05fa23	-0.52334803
10	0xbee9232a	-0.4553464
11	0xbdc578fe	-0.09642218
12	0x3ecf6e91	0.40514043
13	0xbc25572d	-0.010091585
14	0xbe887715	-0.26653352
15	0x3e9e5160	0.3092146
16	0xbe9b2b49	-0.3030646
17	0xbead54bc	-0.3385371
18	0xbf004e1c	-0.50119185
19	0x3e0db00c	0.13836688
20	0xbe979f64	-0.29613793
21	0xbe9f22e5	-0.3108131
22	0x3edb102e	0.42785782
23	0x3ede4e40	0.43419075
24	0x3ef6b254	0.4818293
25	0xbe97b115	-0.2962729
26	0xbd15f26e	-0.036608152
27	0x3e29cad5	0.1658128
28	0x3ee25cd6	0.44211453
29	0x3e4b9fd7	0.19885193
30	0xbef73d6c	-0.4828905
31	0xbd92eee1	-0.07174469
32	0x3eb76844	0.35821736
33	0xbeefab7b	-0.46810517
34	0xbec5b858	-0.38617206
35	0xbe8e2f2c	-0.27770364
36	0xbe057a0e	-0.13034841
37	0x3ed805e5	0.42191997
38	0x3db5727e	0.08859728
39	0xbe2fa1c4	-0.17151552
40	0x3e90a1da	0.28248483
41	0x3e902550	0.28153467
42	0xbe5ff8fe	-0.21872327
43	0xbe769f15	-0.24084122
44	0x3ef60178	0.48047996
45	0x3ecbf38b	0.39834246
46	0xbec9a154	-0.39380896
47	0xbe9d83a1	-0.30764487
48	0xbee23468	-0.44180608
49	0x3e8ea178	0.27857566
50	0x3ed36719	0.41289595
51	0x3d95dd4a	0.07317598
52	0x3e6ea982	0.2330685
53	0xbcfeaa06	-0.031086933
54	0xbeab9977	-0.33515522
55	0x3ebea948	0.37238526
56	0x3e796939	0.24356546
57	0x3eb5dc56	0.35519665
58	0x3e7445dc	0.23854774
59	0xbcf16799	-0.029468345
60	0xbbdd78f7	-0.006758805
61	0x3e57f2b8	0.21088684
62	0xbe417900	-0.18893814
63	0x3f13d05c	0.57739806
64	0xbe48f905	-0.19626243
65	0xbe2b6d71	-0.16740967
66	0x3e3b4d0e	0.18291113
67	0x3ebf388e	0.37347835
68	0x3dd03ab1	0.101674445
69	0xbeaa511f	-0.33265015
70	0xbd999404	-0.07498935
71	0x3e59df02	0.21276477
72	0xbe2ece5d	-0.17070909
73	0xbea3c4a7	-0.3198597
74	0xbee666f9	-0.45000437
75	0x3f007d76	0.5019144
76	0x3ed035d5	0.4066607
77	0x3be15f36	0.006877805
78	0x3e5c17ff	0.21493529
79	0x3e887503	0.26651773
80	0xbeb8a50f	-0.3606343
81	0xbeaa4fbc	-0.33263958
82	0x3e72e305	0.23719414
83	0xbe5ab065	-0.21356352
84	0x3d917c22	0.071037546
85	0xbda8ab35	-0.0823578
86	0xbef2bd4e	-0.47410053
87	0xbebc306f	-0.36755702
88	0x3d19d8a1	0.03756011
89	0x3e835873	0.2565342
90	0x3e44c30c	0.1921503
91	0x3ec99542	0.39371687
92	0xbe6a09c5	-0.2285529
93	0x3e03cab5	0.12870295
94	0x3e8aaa55	0.27083078
95	0x3eb835a8	0.35978436
96	0xbd0c0a66	-0.034189604
97	0xbd8f48b9	-0.069962926
98	0x3f2dbeb5	0.6786912
99	0x3e4b5718	0.19857442
100	0xbe8a319f	-0.26990983
101	0x3d8d7a9c	0.069081515
102	0x3e0bb658	0.13643777
103	0x3e9cecf6	0.30649537
104	0x3ee13b8a	0.43990737
105	0xbedb5bd7	-0.42843506
106	0xbe36a7fe	-0.17837521
107	0x39a032c6	0.00030555407
108	0x3e220fb8	0.15826309
109	0x3e5775b5	0.21040995
110	0x3e4d6011	0.20056178
111	0xbe5f0a2c	-0.21781224
112	0x3e3f5e76	0.18688378
113	0x3eae8a46	0.3408987
114	0xbeb407a3	-0.35162076
115	0xbedfb67b	-0.4369391
116	0xbee27306	-0.4422838
117	0x3eaa2695	0.3323256
118	0x3b3cf879	0.0028834625
119	0x3c90853d	0.017641658
120	0xbe5b4f06	-0.21416864
121	0xbe9b6ed7	-0.30358002
122	0xbe989a37	-0.29805157
123	0x3d1b7c8e	0.03796058
124	0x3ca2d3ce	0.019876387
125	0x3e2172ff	0.15766524
126	0x3ecabfc5	0.39599434
127	0xbd59fc37	-0.053219046
128	0x3edf41b7	0.43604824
129	0x3d545340	0.051837206
130	0x3da7be2c	0.08190569
131	0x3d45a214	0.048250273
132	0xbd773f17	-0.0603629
133	0x3eb0cea1	0.34532645
134	0x3abe83e3	0.0014535155
135	0xbdbe4fff	-0.09292602
136	0x3bfbd6cc	0.007685518
137	0xbd5e5d34	-0.054288104
138	0xbf1028f6	-0.563125
139	0xb9f024d6	-0.00045803812
140	0x3e8af130	0.27137136
141	0x3e24d627	0.16097318
142	0x3f09a73e	0.53770816
143	0xbcde9454	-0.027170338
144	0x3eb5ac5b	0.3548306
145	0x3e8d23bb	0.27566323
146	0xbe686bdc	-0.22697395
147	0xbe4c23c5	-0.1993552
148	0x3e1aaa79	0.15104093
149	0xbeaf80c3	-0.34277925
150	0x3d96936c	0.07352337
151	0x3e04fcc6	0.1298705
152	0x3efaf2e3	0.49013433
153	0x3e961660	0.29313946
154	0x3d2a12e3	0.041521918
155	0x3e8b6892	0.27228218
156	0xbd0d514c	-0.03450136
157	0x3ea8a827	0.3294079
158	0xbd295baa	-0.041347183
159	0x3d587467	0.052845385
160	0x3eb574c4	0.35440648
161	0x3e97dd0a	0.29660827
162	0x3ec59919	0.38593367
163	0xbe483c9f	-0.19554375
164	0xbefd1cdd	-0.49436083
165	0xbe3ee2b2	-0.18641165
166	0xbdb83471	-0.089943774
167	0x3e1b1607	0.15145122
168	0xbebe0206	-0.3711092
169	0x3d84eda3	0.06490638
170	0xbe722b87	-0.23649417
171	0x3ebee3bd	0.37283126
172	0x3e0d595d	0.1380362
173	0xbe9baec5	-0.30406776
174	0x3e2cedd0	0.16887593
175	0x3ecc918a	0.39954787
176	0x3e9ff80f	0.3124394
177	0x3dc74ebe	0.09731816
178	0x3ea6ad7c	0.32554233
179	0xbc03b285	-0.008038168
180	0x3cb471c8	0.022026911
181	0x3e3638fa	0.17795172
182	0x3ed12074	0.40845072
183	0x3e89be64	0.2690307
184	0xbeefc5c0	-0.4683056
185	0xbe72d19b	-0.2371277
186	0xbe3da176	-0.18518624
187	0x3e853d3a	0.26023275
188	0xbe7d51d6	-0.24738249
189	0xbdb47588	-0.0881148
190	0x3e9ebeda	0.31004983
191	0xbeba6a41	-0.3640919

actor.0.bias f4 [32]
0	0x3e250cab	0.16118114
1	0x3f004a30	0.501132
2	0x3efa5aa2	0.48897272
3	0x3eec6c5b	0.4617642
4	0x3db00501	0.085947044
5	0x3e0bd136	0.13654026
6	0x3c5b92a3	0.01340166
7	0x3df6f66a	0.120587185
8	0xbe9fed33	-0.31235656
9	0xbb6bda31	-0.0035988207
10	0x3edd912d	0.43274823
11	0xbb8de9bc	-0.004330842
12	0x3e77ac60	0.2418685
13	0x3e84dc1b	0.25949177
14	0x3ec786a6	0.38969916
15	0x3e23fa72	0.16013506
16	0x3e5f687a	0.21817198
17	0x3e9d93da	0.30776864
18	0xbe248d8b	-0.1606962
19	0xbe3c977c	-0.18417162
20	0x3ebf8453	0.37405643
21	0x3f01e3d7	0.5073828
22	0xbe847f13	-0.258782
23	0x3e4950f9	0.19659795
24	0xbdc7448a	-0.0972987
25	0x3e1197d7	0.14218079
26	0xbe6d46cd	-0.2317154
27	0x3e2b9b71	0.16758515
28	0x3d8d2113	0.06891074
29	0x3eb74489	0.35794476
30	0xbd1d9282	-0.0384698
31	0x3e52c23f	0.20581912

actor.2.weight f4 [32, 32]
0	0x3b181ec5	0.00232117
1	0x3e268c4e	0.1626446
2	0x3e100f8c	0.1406843
3	0x3e41e2e7	0.18934213
4	0x3e91e590	0.28495455
5	0x3e281b9a	0.16416779
6	0x3dce60f7	0.10077088
7	0xbc0564f0	-0.008141741
8	0xbe440966	-0.1914421
9	0xbd357ac6	-0.04430654
10	0xbd6dbcd9	-0.058041427
11	0xbdc424f2	-0.09577359
12	0x3e527f1c	0.20556301
13	0xbec17d47	-0.37790892
14	0xbdfd1d75	-0.12359134
15	0xbb111a00	-0.0022140741
16	0x3d119551	0.03554279
17	0x3ddf86e6	0.10914402
18	0x3db8d744	0.09025434
19	0x3e5d61f1	0.21619393
20	0x3e91a66f	0.2844729
21	0xbdb47ab4	-0.08812466
22	0xbe036ba7	-0.12834035
23	0x3e56014e	0.20898935
24	0xbe906548	-0.2820227
25	0x3c8aa548	0.016924515
26	0x3d692097	0.056915846
27	0xbd96d737	-0.07365268
28	0x3dde547a	0.108559564
29	0x3deae48c	0.11469373
30	0x3d30e4ee	0.043187074
31	0xbe65a099	-0.22424544
32	0x3dbe3075	0.09286586
33	0x3d02d6f2	0.03194327
34	0xbcb8cb8f	-0.022558002
35	0x3db71df4	0.0894126
36	0xbef0a14b	-0.46998057
37	0xbd0a847b	-0.03381775
38	0xbe039009	-0.12847914
39	0xbe02fea1	-0.12792446
40	0x3e07e605	0.13271339
41	0x3d8b371d	0.067976214
42	0xbe898ef5	-0.2686688
43	0xbe485237	-0.19562612
44	0x3dd241ec	0.1026648
45	0xbdbf34c8	-0.09336239
46	0x3d71c965	0.059029955
47	0x3e1e0277	0.15430628
48	0xbd440fb8	-0.047866553
49	0x3c85b84a	0.016323227
50	0x3ba0f3c3	0.004911871
51	0x3e16d360	0.1472907
52	0xbcd9953c	-0.026560418
53	0xbe1f6ed0	-0.15569615
54	0x3dff3307	0.124609046
55	0x3ea19e15	0.3156592
56	0xbc2cfd09	-0.010558375
57	0xbd7a1c8f	-0.06106239
58	0x3daaeb21	0.083456285
59	0x3e4ff5a4	0.20308548
60	0xbe35d98e	-0.17758772
61	0x3e221872	0.15829638
62	0x3deea229	0.11652023
63	0xbd9b435d	-0.07581208
64	0x3db1c12f	0.08679425
65	0x3e7e993c	0.24863142
66	0x3e12ee96	0.14348826
67	0x3e42dec1	0.19030286
68	0xbe0908d2	-0.13382271
69	0xbdc3cc25	-0.09560422
70	0xbc22e67f	-0.00994265
71	0x3df4f673	0.11961069
72	0x3dd3d18d	0.10342703
73	0x3e1e9836	0.15487751
74	0xbdee80e7	-0.1164568
75	0xbe226ce6	-0.15861854
76	0x3cc84047	0.024444712
77	0xbe46ba94	-0.19407111
78	0xbdd98a5c	-0.10622093
79	0x3e19803d	0.14990325
80	0x3dba9aaf	0.09111535
81	0xbd5f07ea	-0.054450907
82	0xbc196e3b	-0.00936466
83	0x3e1b271f	0.15151642
84	0x3bf3d26b	0.0074408553
85	0x3d5b877b	0.053596
86	0xbdf63b64	-0.120230466
87	0x3e500557	0.20314537
88	0xbd8d370c	-0.06895265
89	0xbda98856	-0.08277957
90	0x3cf20c09	0.029546754
91	0x3b6cbc97	0.003612315
92	0x3db9e80d	0.09077463
93	0x3de46d3b	0.111536466
94	0xbdb67650	-0.08909285
95	0xbe30f059	-0.17279185
96	0xbccaf246	-0.024773728
97	0xbe16fd4e	-0.14745066
98	0xbda59500	-0.0808506
99	0xbe960b1e	-0.29305357
100	0x3e976c94	0.29575026
101	0x3e5e4553	0.21706133
102	0xbe404d94	-0.18779594
103	0x3e530452	0.20607117
104	0xbf01873e	-0.5059699
105	0x3d85f4a1	0.065408
106	0xbcf920fc	-0.030411236
107	0xbbc5cef3	-0.006036633
108	0x3d778b6d	0.0604357
109	0x3e5e820f	0.21729301
110	0xbdde5096	-0.10855214
111	0x3e102dd2	0.14079979
112	0x3ecc9d98	0.39963984
113	0x3e1bb130	0.1520431
114	0xbe3880c6	-0.18017873
115	0xbc96e38e	-0.018419053
116	0xbd1e7c6d	-0.03869288
117	0x3e612ac7	0.21988975
118	0x3da57141	0.08078242
119	0x3dea036d	0.11426435
120	0x3dabf0ee	0.08395563
121	0xbeb522a7	-0.35378
122	0xbd353c36	-0.044246875
123	0xbeab2674	-0.33427775
124	0x3d68be99	0.056822393
125	0x3d028f9e	0.031875245
126	0x3ecd3007	0.40075704
127	0x3d428592	0.047490664
128	0xbe12ec18	-0.14347875
129	0x3d965cd0	0.07341921
130	0x3d8e1e67	0.069393925
131	0xbddc28b9	-0.10749955
132	0x3cb6019b	0.022217562
133	0xbdedfef6	-0.116208956
134	0x3e2db19e	0.16962287
135	0x3df4762b	0.11936601
136	0x3e201cd2	0.15635994
137	0x3e246202	0.16053012
138	0x3cf1e91f	0.029530106
139	0x3e4febc7	0.20304786
140	0x398c516e	0.0002676355
141	0x3db53b65	0.08849219
142	0xbea94898	-0.33063197
143	0x3dbad2cf	0.0912224
144	0x3e83e267	0.2575867
145	0xbc6d0bf4	-0.014468182
146	0xbe016f63	-0.12640147
147	0xbd733d8e	-0.059384875
148	0xbeb3529e	-0.3502397
149	0x3e0faadb	0.1403002
150	0x3e0c971a	0.13729516
151	0x3d93e745	0.072218455
152	0x3e0b3ed8	0.13598192
153	0x3d5f893e	0.054574244
154	0x3dd44485	0.103646316
155	0xbdaac663	-0.083386205
156	0x3e213d64	0.15746075
157	0x3c57e8c7	0.013178057
158	0x3d2702ae	0.04077404
159	0xbde20103	-0.11035349
160	0x3b5190b4	0.003197712
161	0x3d27fe1e	0.04101383
162	0xbc1bed7d	-0.009517071
163	0x3e082927	0.13296948
164	0x3dfa9971	0.12236298
165	0xbc8cc4cf	-0.01718369
166	0x3e4d7b8d	0.20066662
167	0x3e8d049a	0.27542573
168	0x3e3dff2d	0.18554373
169	0x3e41ff45	0.18945034
170	0x3e83fc3f	0.25778386
171	0x3d02376a	0.03179113
172	0xbc8d74af	-0.017267553
173	0xbd5fb714	-0.054617956
174	0x3df03374	0.11728564
175	0x3e0740b5	0.13208278
176	0x3cdfe118	0.027329013
177	0xbe32fba9	-0.17478813
178	0x3dea8787	0.11451631
179	0x3ddd71c3	0.10812714
180	0xbea0d7a8	-0.31414533
181	0xbe64cc66	-0.22343597
182	0x3e231079	0.15924253
183	0x3d7297f9	0.059226964
184	0x3df58213	0.119877
185	0x3e42bae2	0.19016603
186	0x3d792b56	0.060832344
187	0x3d201174	0.039079145
188	0xbd4ec0cd	-0.050476838
189	0xbdb17aa2	-0.086659685
190	0x3d4876ed	0.04894154
191	0xbdab0de5	-0.083522595
192	0xbd33e2a5	-0.043917317
193	0x3cd9943e	0.026559945
194	0xbe1917d8	-0.14950502
195	0x3e832f36	0.25621957
196	0xbd99d1ce	-0.0751072
197	0xbbda89c3	-0.0066692545
198	0x3dcf7322	0.10129382
199	0xbc9dde69	-0.019271092
200	0xbdea3e88	-0.11437708
201	0x3e1a97e2	0.15097001
202	0x3bac3574	0.0052553955
203	0x3e40d287	0.1883031
204	0x3ea60361	0.32424453
205	0xbe0e9c69	-0.13926853
206	0x3e92c9d3	0.28669605
207	0xbd16f601	-0.0368557
208	0x3d269109	0.04066566
209	0xbdff80de	-0.12475751
210	0xbe5d2ec4	-0.21599871
211	0x3df91902	0.12162973
212	0x3e7611bd	0.24030204
213	0x3dd170b3	0.10226574
214	0xbc7848ce	-0.015154077
215	0x3e855cc9	0.26047352
216	0x3b1d4cf3	0.0024002164
217	0xbe19381b	-0.14962809
218	0x3dbba158	0.09161633
219	0x3de816b1	0.11332453
220	0x3d427eb5	0.04748412
221	0xbda35ebf	-0.07977056
222	0xbd22f7c3	-0.039787065
223	0xbdce0942	-0.100603595
224	0xbe4d7717	-0.2006496
225	0x3bcec45b	0.0063100285
226	0xbea13b12	-0.3149038
227	0x3e09c667	0.1345459
228	0x3dd868bf	0.10566854
229	0x3e0017ad	0.12509032
230	0xbe31fbf0	-0.17381263
231	0xbe36b503	-0.17842488
232	0x3ded72ea	0.11594184
233	0xbde117f4	-0.10990897
234	0xbe114f3e	-0.14190385
235	0xbe57900b	-0.21051042
236	0x3ea0d140	0.31409645
237	0x3da8b483	0.08237555
238	0xbe7c2890	-0.24624848
239	0x3e49c553	0.1970418
240	0x3d263c98	0.04058513
241	0x3dd4b7db	0.1038663
242	0x3d40ec6c	0.04710047
243	0x3e319f99	0.17346038
244	0x3eacfca8	0.3378651
245	0x3e0251b1	0.12726475
246	0x3de06f36	0.10958712
247	0x3e9f1f7d	0.3107871
248	0x3d6a3f0d	0.057189036
249	0xbb1496de	-0.0022672932
250	0xbe6710ce	-0.22565004
251	0xbeae467d	-0.34038153
252	0xbe0f7f39	-0.14013375
253	0x3e163598	0.14668882
254	0xbe0befe7	-0.13665734
255	0xbe28fa5a	-0.16501752

actor.2.bias f4 [32]
0	0x3d79ae23	0.060957085
1	0xbdf1e158	-0.11810559
2	0xbdd092fa	-0.101842836
3	0x3dbc0c6d	0.091820575
4	0x3d8aca42	0.06776859
5	0x3c321b5f	0.010870784
6	0x3de6e26c	0.11273655
7	0xbb8c306f	-0.0042782347
8	0xbd85ef95	-0.06539837
9	0x3c6ad840	0.014333785
10	0xbc791c65	-0.015204524
11	0x3d56efb3	0.05247469
12	0xbd6862cb	-0.05673484
13	0x3e3b3ae5	0.18284185
14	0x3e64d6cd	0.22347565
15	0xbd0f0de4	-0.034925357
16	0x3b99ab62	0.00468962
17	0x3dd243a3	0.10266807
18	0x3e3dc387	0.18531619
19	0xbd37d8fe	-0.044884674
20	0xbe176beb	-0.14787261
21	0x3d4426b7	0.047888484
22	0x3d1d070d	0.038336802
23	0xbc267b8b	-0.010161291
24	0x3cbf1d48	0.023329392
25	0x3e7157fd	0.23568721
26	0xbdbd48cf	-0.09242403
27	0x3e0043bc	0.12525839
28	0xbca78563	-0.020449346
29	0x3e587e21	0.21141864
30	0xbe0ecfb3	-0.13946418
31	0xbd87ac81	-0.066246994

actor.4.weight f4 [2, 32]
0	0xbea5e863	-0.3240386
1	0xbd64da29	-0.055872116
2	0xbe364198	-0.1779846
3	0xbeabba71	-0.3354068
4	0x3e3d26d4	0.18471843
5	0x3e244e0d	0.16045399
6	0xbe4d9baf	-0.2007892
7	0xbe27d390	-0.16389298
8	0xbe684cd3	-0.22685556
9	0xbd63ed96	-0.0556465
10	0x3e3f3134	0.18671113
11	0x3e3af029	0.18255676
12	0xbe8c889e	-0.2744798
13	0xbe64db91	-0.22349383
14	0x3e1ad4f8	0.15120304
15	0x3e49cf2f	0.1970794
16	0xbe8a5829	-0.27020386
17	0xbda8a32f	-0.0823425
18	0xbce79aa2	-0.028271977
19	0xbe94b205	-0.29042068
20	0x3e4e901c	0.20172161
21	0xbdd6f3e7	-0.104957394
22	0x3dfd556b	0.12369808
23	0x3dace668	0.08442384
24	0x3ee63ada	0.44966775
25	0xbbf2f1af	-0.007414065
26	0x3ec8b36e	0.39199394
27	0x3e806bf5	0.25082365
28	0xbeaa4a8d	-0.33260003
29	0xbe2770d8	-0.1635164
30	0x3e5e8dd4	0.2173379
31	0x3d82bfaa	0.06384213
32	0xbd4eaad1	-0.050455872
33	0x3d78c96b	0.060738962
34	0x3e45fc79	0.19334592
35	0xbe916054	-0.28393805
36	0xbdfca93f	-0.12336969
37	0x3d9a1e36	0.075252935
38	0xbc4bf23a	-0.012447888
39	0x3d85d426	0.06534605
40	0xbded4f7c	-0.11587426
41	0x3ef79500	0.48355865
42	0x3ebd6ff9	0.3699949
43	0x3c6f7346	0.014614886
44	0xbdbd11a0	-0.09231877
45	0xbbd87b3a	-0.0066064866
46	0xbe658a52	-0.22416046
47	0xbe3b2375	-0.18275245
48	0x3de5263c	0.11188933
49	0x3e756aca	0.23966518
50	0x3eef7a3b	0.46772942
51	0x3e5a4593	0.21315603
52	0xbcf80ac1	-0.030278565
53	0x3ee12753	0.43975314
54	0xbe4c42a0	-0.1994729
55	0x3e165913	0.14682417
56	0xbdae7d0f	-0.08519947
57	0xbe9016c8	-0.2814238
58	0xbe701cdc	-0.23448509
59	0x3eca78ed	0.39545384
60	0x3c75cbf3	0.015002239
61	0x3bbff6e9	0.0058582914
62	0x3de792f2	0.113073245
63	0xbdc1455b	-0.09437057

actor.4.bias f4 [2]
0	0xbe30f006	-0.17279062
1	0xbe0fde03	-0.14049534
