results/SandingEnvEasy/ddpg/model/model_parameters_0.pt (torch, 30338 bytes, 22 tensors)

value.0.weight f4 [32, 8]
000000 fc 04 67 3e 5f 71 eb 3c 04 0e 4e be d5 ba 52 3c
       0.22560495 0.028740583 -0.20122534 0.012861927
000010 77 e4 5f 3e c9 de 42 3e 87 68 04 3f 4c 81 fd 3e
       0.21864496 0.19030298 0.51721996 0.49512708
000020 19 8e d4 bd a3 b3 70 3d fa dc 08 3e c6 6b 5e be
       -0.103786655 0.058765065 0.13365546 -0.217208
000030 ae 1e d2 bd 0d cc 2b bc bb 86 c5 3e 7a 5b 94 3f
       -0.10259758 -0.010485661 0.38579354 1.1590416
000040 05 48 a3 b8 b6 61 0a 3e 36 65 80 be ee 39 0b 3e
       -7.78586e-05 0.13513836 -0.25077218 0.13596317
000050 9f 8b 97 3e 3e 1c 5a 3e e5 f5 81 3d 36 99 cc 3d
       0.2959871 0.21299836 0.06345729 0.0999016
000060 a9 23 66 be 77 77 bd 3d 55 19 19 be ea 94 75 3d
       -0.22474541 0.09251302 -0.1495107 0.05995647
000070 d5 a8 00 3c a2 b1 2e be eb 1c 98 3e cd 8b 6d 3f
       0.007852753 -0.17059949 0.29709563 0.92791444
000080 2e 60 9f bd 9d 50 e5 3d 15 47 a3 be ea 1e b6 bd
       -0.07782017 0.111970164 -0.3189017 -0.08892615
000090 b2 04 7f be 45 12 c1 3d 2c 49 56 3e 65 87 2a bd
       -0.24904135 0.09427313 0.2092635 -0.04163303
0000a0 a2 7c 50 be cc 22 2a bd 53 d2 b1 3e b6 4e ca bc
       -0.20360044 -0.04153709 0.34730777 -0.024695735
0000b0 8d 39 b8 3e 1f b8 6a 3e 7e 5c a5 bf c3 9e 12 be
       0.35981408 0.22921799 -1.2918851 -0.14318375
0000c0 43 55 e5 3d e8 2a 5d 3e 0a 19 3f 3d 73 44 b2 3d
       0.11197903 0.21598399 0.04665474 0.08704462
0000d0 e3 2e 83 be 6b 3e 63 3e 09 37 8d 3e dc b8 1e be
       -0.2562171 0.2219178 0.2758105 -0.15500206
0000e0 fb f3 c2 bc 83 9e 1b 3e 30 6f 87 3e df da ca 3d
       -0.02379798 0.15197186 0.26452017 0.099050276
0000f0 21 24 2d be 9a ca cd ba 15 ba ec bd 19 61 06 bf
       -0.16908313 -0.0015700639 -0.1155893 -0.5249191
000100 fc 2b 13 3e 56 a2 56 3e 0f af 1d 3e 6d 0b 57 3e
       0.14372247 0.20960364 0.15398811 0.21000452
000110 e1 6e 9e be 7f 14 6f bd 4b 7c 7b 3e d5 29 6e bf
       -0.3094397 -0.058369156 0.24559133 -0.9303258
000120 35 9c ee bd 77 1b 45 be 36 2b aa bd c9 63 99 bc
       -0.11650888 -0.19248758 -0.08309023 -0.01872434
000130 f4 e5 bf bd b4 47 38 be 98 f0 41 3f d8 57 cc 3e
       -0.09370032 -0.17996103 0.7575774 0.3991077
000140 f0 ef ec 3b 2d dc 29 3e 90 bf f2 bd 97 00 87 bd
       0.007230751 0.16587897 -0.11852944 -0.065919094
000150 26 e2 1b be ba a1 63 be 0a 0f 80 3e f6 a4 f9 3f
       -0.15222988 -0.22229663 0.25011474 1.9503467
000160 e6 63 9c 3e 2b 5a 36 3d 56 a4 82 3e d6 8e 07 be
       0.30544966 0.044519585 0.25516003 -0.13238081
000170 1b 90 be 3c c7 9a 04 3e 60 39 b8 3e 44 76 b4 3f
       0.023262074 0.12949668 0.35981274 1.4098592
000180 34 94 1e be 65 c9 5a 3c 15 cf 38 be b0 52 15 3e
       -0.15486223 0.01335368 -0.18047746 0.14582324
000190 f4 32 07 3e 4e 69 79 3e b4 a1 d5 3e ce 2b b1 bf
       0.13203031 0.24356577 0.41724932 -1.3841493
0001a0 28 94 60 3e 1f 7f 10 3e 7e a1 19 3d f8 dc bd 3d
       0.21931517 0.14110993 0.037507527 0.09270662
0001b0 87 8e a4 bb 50 47 69 3e bc a7 5b bf 4a 7e 07 bf
       -0.0050218734 0.2278111 -0.8580282 -0.52927077
0001c0 aa 64 58 be 0d 03 49 be 43 11 84 3e 4d b3 04 be
       -0.2113215 -0.1963007 0.2579442 -0.12959023
0001d0 5d b6 98 3e d9 fc 2a 3e 9e 78 f5 3e a2 de 89 bd
       0.29826632 0.16698016 0.47943586 -0.06731917
0001e0 a7 e5 b0 3c e3 ef 79 be 33 ef 87 3d ac 45 80 3e
       0.021593882 -0.24407916 0.066374205 0.25053155
0001f0 17 e2 db bd 27 8d d2 bd 53 a6 05 be 37 36 d5 3c
       -0.107364826 -0.10280829 -0.13051729 0.026026828
000200 c3 bb 8f bd 71 3e 3d be 43 96 2e be eb 52 32 be
       -0.070182346 -0.18480851 -0.17049508 -0.17414443
000210 34 2c 04 3e cb 07 83 be a0 7a 76 3f 70 26 9a bf
       0.12907487 -0.25591883 0.9628086 -1.204298
000220 1b 6e f6 3c 19 c4 cd 3d 85 8a 4e 3d 51 5c f3 bd
       0.0300818 0.10047168 0.05042507 -0.11882842
000230 75 f0 d0 bd 76 d5 15 bd 5b a7 26 bf 34 57 00 be
       -0.102021135 -0.036580525 -0.65099114 -0.12533265
000240 ce 93 be 3d 9c 2e f0 3d 74 b5 30 3c cc 60 5f 3e
       0.09305535 0.1172764 0.010785449 0.21814269
000250 94 74 d5 3c 70 4f 2b 3d 3b 19 04 be 57 0b ec 3d
       0.026056565 0.041823804 -0.1290025 0.115256004
000260 55 04 2c bd 65 99 ce bd 79 05 87 3d ba 83 01 be
       -0.04199632 -0.100878514 0.06592841 -0.12647906
000270 f9 00 89 3e 28 d9 39 be 7e 26 1b c0 ba 73 56 3f
       0.26758555 -0.18149245 -2.4242244 0.83770335
000280 da 2c 64 3d d5 72 89 3e 94 90 17 be 81 e5 24 be
       0.055706836 0.26845422 -0.14801246 -0.16103174
000290 94 56 6f 3d f6 d9 96 3e 0d 53 9c 3f f8 0c 16 bc
       0.058432177 0.29463166 1.2212845 -0.009158365
0002a0 0c 2c 23 3d 10 94 84 be 90 6d 21 3e 57 d8 15 3d
       0.03983693 -0.25894213 0.15764451 0.03658327
0002b0 a9 cb 85 3e f3 b9 c0 bd 13 84 8e 3f b4 32 d7 3e
       0.26131943 -0.09410467 1.1134056 0.4203087
0002c0 8c 95 c1 bb 2b ff 5c be df 45 4c be 24 27 36 3e
       -0.00590772 -0.21581714 -0.19948529 0.17788368
0002d0 59 63 28 be 58 dc 68 3e 7a 41 f6 be 29 d8 18 be
       -0.16444148 0.22740304 -0.4809683 -0.14926209
0002e0 b6 f4 73 bd 18 29 73 3e 50 ed e3 bd e5 4d 00 be
       -0.059559546 0.23746145 -0.11129248 -0.12529714
0002f0 ef 2d 11 3e 92 4b 30 bc f5 fc 30 3f c8 80 70 3f
       0.14177679 -0.010760205 0.6913598 0.93946505
000300 5b 55 c4 bd e4 85 40 be b5 7c 49 be a2 7a 0a be
       -0.09586593 -0.18801075 -0.19676478 -0.13523343
000310 d1 c7 72 3d 04 fc 38 be bf 0c de bf 01 06 3d 3f
       0.05927259 -0.18064886 -1.734764 0.73837286
000320 60 28 27 be d7 35 a6 bd d7 bd 96 3e 08 e1 37 3e
       -0.16323996 -0.08115738 0.2944171 0.17956936
000330 0d 33 34 be 52 d4 08 3e a7 a9 7b 3f ab 50 0e 3f
       -0.175976 0.13362244 0.98305744 0.5559184
000340 1a c5 93 3e 51 48 8e be 14 41 ca bd 20 30 f5 bc
       0.28861314 -0.27789548 -0.09875694 -0.029930174
000350 ed 99 03 3d c0 ea 43 3b 1d ed 2a 3f bf 19 01 bf
       0.032129217 0.002989456 0.66768056 -0.5042991
000360 af c8 52 bc 8c b6 2e bd af 08 cb 3a 92 ef 9e bb
       -0.0128652295 -0.04265456 0.0015490259 -0.0048503364
000370 da 61 50 3e e2 ae 1d 3e cf e4 ab bf 80 1b fe bf
       0.20349827 0.15398744 -1.3429202 -1.9852142
000380 54 c8 19 3d 87 6b 5f 3e e4 e5 60 3d 5f 63 a5 be
       0.037544563 0.21818362 0.05490674 -0.32302377
000390 30 66 04 3e 49 b0 7f 3e 58 94 19 3e 24 ec 3b bf
       0.12929606 0.24969591 0.14997995 -0.73407197
0003a0 09 ef 30 be fe 1f 73 bd 3d 17 26 3c bb b9 2c be
       -0.17278685 -0.059356682 0.010137376 -0.16867726
0003b0 e0 c5 76 3e 0e ff e7 bd e9 4e 95 3f 5b ac 9a bf
       0.24098921 -0.11327945 1.1664706 -1.2083849
0003c0 18 86 b5 3d be 90 4a 3e 00 c5 e5 3d e6 b3 aa bc
       0.08863467 0.19781777 0.112192154 -0.020837735
0003d0 b3 79 53 3e 7d 1c cc bd 21 6e c6 be 6e 18 61 3e
       0.20651893 -0.09966371 -0.38755897 0.21981975
0003e0 4c 43 9b 3d cd 22 98 bd e7 36 6a be f3 ef 2c be
       0.07581195 -0.07428513 -0.22872506 -0.16888408
0003f0 a0 a8 c1 3e 14 32 c2 bd 67 84 94 3e 17 f3 33 bf
       0.37823963 -0.09482208 0.29007265 -0.702928

value.0.bias f4 [32]
000000 35 06 5a 3d b1 9f 46 be 26 b3 42 be 02 d0 82 3e
       0.053228576 -0.19396855 -0.19013652 0.25549322
000010 96 a0 cd 3e 78 e0 11 3f 3f 60 7a 3e 07 d0 85 be
       0.4016158 0.5698314 0.24450777 -0.26135275
000020 c0 f4 19 bf 63 81 6c be 6a 36 84 be 44 4e 2e bc
       -0.60139084 -0.23096232 -0.25822765 -0.010638777
000030 2a c4 b7 3e dd 83 b8 3e 57 49 1c bd 89 74 65 bd
       0.3589185 0.36038104 -0.03815588 -0.05601934
000040 ae 81 b2 bd 46 b3 68 be ef 67 8a be 08 35 d4 be
       -0.08716141 -0.22724637 -0.2703242 -0.4144671
000050 a9 61 f6 be c4 73 8a bd 3e 1f 95 3e 24 ca 28 be
       -0.48121384 -0.06760362 0.29125398 -0.1648336
000060 3c 78 92 3e b3 7a ce be 99 cc 2c bf e5 56 af be
       0.28607357 -0.40327987 -0.6749969 -0.34245983
000070 f4 52 3c 3c f6 0e 24 3e 76 86 34 3e dc 28 04 3e
       0.011494387 0.16021332 0.17629418 0.12906212

value.2.weight f4 [32, 32]
000000 e0 a0 7b bd 0c 98 5e 3b c6 48 7f bb dc 23 e4 3d
       -0.06143272 0.0033965139 -0.0038953288 0.11139652
000010 10 86 19 3c 61 69 b9 3d 80 79 98 bc 3a 81 21 bd
       0.009370342 0.090533026 -0.018612623 -0.03942988
000020 5d ea e7 bd f1 5d 97 3d 46 b2 36 bd a7 2c 9f 3d
       -0.11323998 0.07390965 -0.04460361 0.07772189
000030 5e a6 84 3c 54 e8 1d 3e a2 4b 21 3d 2f ad c7 3d
       0.016192611 0.15420657 0.03937877 0.09749829
000040 ef 1e f0 bc 0f d5 c6 bb bb 82 9a bc 74 ab 54 bd
       -0.029311625 -0.006067879 -0.018861165 -0.051921323
000050 2b af bf 3d 3e de 64 3d 85 a0 7f 3d 2d 83 85 3d
       0.093595825 0.05587601 0.062408943 0.065191604
000060 8a 72 25 bc 27 7c c4 bd be f1 c4 3d db d4 29 be
       -0.010098109 -0.09593993 0.09616421 -0.16585104
000070 c1 65 db 3d d3 ef e6 bb e0 5d b7 b9 0c 3a 43 3d
       0.107127674 -0.0070476322 -0.00034974422 0.04766278
000080 9f 58 e0 3c 11 95 90 be 82 20 aa 3d 7a f0 09 3d
       0.027386008 -0.2823873 0.083069816 0.033676602
000090 7c bd 8e bd ae 45 5c bd b0 ad 05 3d 02 b2 b7 bc
       -0.06969735 -0.05377739 0.032636344 -0.022423748
0000a0 fb d2 89 bc 59 19 e8 bd 0b 48 4b be e9 a6 ac be
       -0.016824236 -0.1133296 -0.19851701 -0.33721092
0000b0 70 d4 c5 bc 10 90 78 3e 5e d7 bd bc 56 91 28 3e
       -0.02414915 0.24273705 -0.023173984 0.16461691
0000c0 09 22 cc 3d 5b 8e f5 3d 10 fd b4 bd 29 0d c1 be
       0.09967429 0.11990043 -0.0883733 -0.37705353
0000d0 e8 ff c2 bd 96 65 c6 3c 19 88 ae bd 41 01 e9 be
       -0.095214665 0.024218362 -0.08522052 -0.4550877
0000e0 12 cc 6b 3d 20 41 01 3d d2 d7 31 be 46 6f 25 be
       0.057567663 0.03155625 -0.17367485 -0.16155729
0000f0 19 1f 00 3f 66 0e 97 bd 23 fe e7 3d f3 1b d7 3d
       0.5004745 -0.07375793 0.113277696 0.10503378
000100 02 da 96 3d bf 23 dd 3d 4d 87 fc bd 18 3a d6 bd
       0.073658004 0.10797834 -0.12330494 -0.10460299
000110 8e 73 01 3e b0 72 b9 3d 15 73 00 be 38 cf 14 bc
       0.12641737 0.09055078 -0.125439 -0.009082608
000120 24 66 82 3d 31 90 9d bd 2d b5 56 be 73 02 0f be
       0.06367138 -0.07693518 -0.2096755 -0.13965778
000130 c9 b7 46 be 73 51 96 3d 65 71 0e bc a5 d0 ed bc
       -0.19406046 0.07339754 -0.008694028 -0.029030154
000140 2a 5c 4d 3d 68 ff 3a be c0 0d 9d 3e b3 ad 89 ba
       0.050136723 -0.18261492 0.30674553 -0.0010504037
000150 e6 5c 22 3e 96 8e e5 3d cf a4 18 be 9c d1 df 3d
       0.1585575 0.11208837 -0.1490662 0.10928652
000160 a2 89 82 bb c2 c6 63 3e 6b 95 62 3d a6 62 eb 3d
       -0.0039836923 0.22243789 0.055318277 0.11493425
000170 42 03 90 bd 4b c2 a7 3d 1c e4 52 bb 95 d7 aa 3c
       -0.070318714 0.08191355 -0.003217942 0.02085475
000180 b9 27 5f 3e 97 51 8b be 14 a8 f0 3d 0e 7f 15 3d
       0.21792497 -0.27210686 0.11750808 0.036498122
000190 6a 7c ca be 12 21 07 bd 81 56 8b 3d 4c 6d 18 bd
       -0.39548045 -0.032990523 0.06803609 -0.03721361
0001a0 d5 34 d9 bd bc a9 dd 3d c8 2a 86 bd 4c c5 14 3e
       -0.1060578 0.1082339 -0.065511286 0.14528388
0001b0 6a bf 62 3d 4f 92 9f be 17 ca 48 be f3 7a 28 3c
       0.055358328 -0.31166312 -0.19608341 0.01028322
0001c0 6a b9 06 3e c3 bd 88 bd fe 98 36 be f8 e7 ec 3d
       0.13156667 -0.06676819 -0.178318 0.11567682
0001d0 8d 2a 43 3e ca 17 ef 3d d6 b5 48 3d 3f e7 44 3e
       0.190592 0.11674459 0.049001537 0.19228838
0001e0 2e 19 e0 bd c8 83 35 3e 39 09 58 bd ab a8 03 3e
       -0.10942303 0.17726052 -0.05274317 0.1285731
0001f0 51 86 81 be 19 f4 d9 be c6 b1 83 3d 2e 82 aa 3c
       -0.25297788 -0.42569044 0.06430392 0.020814028
000200 3c e7 95 bd 27 44 19 3e cb 81 2a 3e 81 52 41 3d
       -0.07319495 0.14967404 0.16651075 0.047197822
000210 71 b6 eb 3c 5a 09 0d 3e f0 ab 0a 3e 5e 31 74 3d
       0.028773518 0.13773099 0.13542151 0.059617393
000220 f1 4b 7c 3c b8 f7 32 3e 8b dd 86 bd 3e d9 b7 ba
       0.015398965 0.1747731 -0.06585225 -0.0014026535
000230 79 52 56 bb 82 55 ff 3d 9d ff ec 3d 25 da 5e 3e
       -0.0032702966 0.12467481 0.11572192 0.21762903
000240 60 00 0d be ed 11 e7 bd b4 75 25 bb de 6d 4e bd
       -0.13769674 -0.11282716 -0.0025247158 -0.050397746
000250 de b7 2f bd 4e ac 7c bd cc 28 25 3d bc 1d 9b 3d
       -0.04289996 -0.06168776 0.04032211 0.07574031
000260 3a e2 fb bd 57 3e 5d bb 0c bd a2 bd 3e 79 29 be
       -0.12299009 -0.0033759081 -0.07946214 -0.16550156
000270 a3 8e 08 be 1d 17 17 3c f4 79 12 3e 77 16 37 bd
       -0.13335662 0.009221819 0.14304334 -0.04469916
000280 7b f3 47 3e e8 54 87 3c 86 7b 0c 3e ae 25 2c 3e
       0.19526474 0.016519979 0.13718995 0.16811249
000290 4d f2 29 3c b1 f8 26 be 36 21 06 3b 2a eb 49 bd
       0.01037271 -0.16305806 0.0020466573 -0.049296536
0002a0 8f 6f 9a bd de c3 2d bd a6 3e 8b bd 10 0d c9 3c
       -0.07540809 -0.04242312 -0.067990586 0.024542361
0002b0 94 ac f6 3d 1a 7c 83 3e 39 e6 71 3d 9f 7f d8 3d
       0.120446354 0.2568062 0.059057448 0.10571217
0002c0 75 ad 08 be f7 62 64 3d e1 ba c2 3d 57 57 d2 3c
       -0.13347419 0.055758443 0.095083006 0.025676413
0002d0 c9 c8 91 bd 98 b5 16 be 8c 11 8e 3e 03 5b f6 bd
       -0.07118375 -0.1471771 0.27747762 -0.12029078
0002e0 d1 2a 3d bd 5a da 2e be 53 d0 91 bd 3a 3e 60 bc
       -0.04618341 -0.17075482 -0.07119813 -0.013686711
0002f0 16 66 4c be 60 8e cf 3d 10 29 9b 3d 6c 9f 36 bc
       -0.19960818 0.10134578 0.075761914 -0.011146408
000300 52 ab 52 bd 26 60 05 3e 23 c5 2b 3d 75 a7 4d 3d
       -0.051432915 0.13024959 0.04193605 0.050208528
000310 3a 52 ab bc ca be fb bc 60 62 de bd 49 aa 48 bd
       -0.020913232 -0.030730624 -0.10858607 -0.04899052
000320 36 2b b6 bd 6a 33 b4 3d 7c 00 09 3e 8c 1b b9 3c
       -0.088949606 0.08798869 0.13379091 0.022596143
000330 92 6a 6d 3c df fd 1e bd 35 87 92 3d a5 fa f6 3d
       0.01449074 -0.03881633 0.07154695 0.120595254
000340 d7 27 bb bd 1a 0c 68 3d 7e 06 ef 3d 54 16 a2 bd
       -0.09138458 0.056652166 0.1167116 -0.07914415
000350 77 03 d0 3c 73 4d 39 bd 4c e9 d7 bd b4 11 c8 3c
       0.025392277 -0.045239877 -0.10542545 0.024422504
000360 5e 42 db 3d 38 9c 62 bd 59 09 41 3d dc 23 58 3d
       0.10706018 -0.055324763 0.047128055 0.052768573
000370 c0 6e c5 bd 64 53 d8 3d 41 20 90 bd 98 e6 1c 3e
       -0.096402645 0.105627805 -0.07037402 0.1532234
000380 01 43 7e bd 65 b6 9e 3c 08 94 65 3d f2 4b 24 bd
       -0.06207562 0.019374082 0.056049377 -0.04011149
000390 2f 7d 34 be e2 0f 16 be 25 4f 89 bd 07 3d d8 3d
       -0.17625879 -0.14654496 -0.06704549 0.10558515
0003a0 93 0e 11 bd 56 c1 04 3e 04 ee f3 3d 5c ec 0c bd
       -0.03541429 0.12964377 0.11910632 -0.034405097
0003b0 34 34 0a be 4d 34 37 3d e9 5c fc 3d b0 92 1c be
       -0.13496476 0.044727612 0.12322409 -0.15290332
0003c0 46 9d ad bc 04 fb 6c bd 77 dd d6 bc c1 83 2d 3d
       -0.021193158 -0.057856575 -0.02622865 0.04236198
0003d0 72 e8 07 be 77 77 c1 3c 3e f4 2a bc ba 0b 79 3d
       -0.13272265 0.023616536 -0.010434208 0.0608022
0003e0 44 34 85 be ba f6 e8 3d 20 68 78 3d d8 fc 48 be
       -0.26016438 0.11375184 0.060646176 -0.19627702
0003f0 75 a6 ea 3b a0 c0 0a 3c da 07 ee 3b 0d 33 a8 bd
       0.0071609565 0.008468777 0.0072641196 -0.08212862

value.2.bias f4 [32]
000000 f2 03 31 bd de a1 58 3d 05 f0 af 3c 08 7a c2 3c
       -0.043216653 0.052888744 0.021476755 0.02373983
000010 5b 51 d1 bd 46 21 08 3e 8c 9d 8b 3e c7 7e ef bd
       -0.102205954 0.13293943 0.27268636 -0.11694103
000020 60 9c b3 be 00 ff 01 3e b6 51 9f 3d 54 31 5f 3e
       -0.35080242 0.12694931 0.07779257 0.21796161
000030 ce f5 53 bd 24 1d a8 3e 0d 0c 41 3e cf 66 0d 3e
       -0.05174809 0.32834733 0.18852253 0.1380875
000040 bf ea 16 3c d4 e2 4c be fb 13 de ba f2 b0 74 bd
       0.009211241 -0.20008403 -0.001694321 -0.05973906
000050 26 04 a8 bd f1 3d 4c bd 2d 99 e2 bd b3 a8 04 bd
       -0.08203916 -0.04986376 -0.11064372 -0.032387447
000060 d2 a7 05 be 06 7f b8 bd 17 05 01 3e c8 63 bc bd
       -0.130523 -0.09008603 0.12599598 -0.09198719
000070 b2 ad 02 3d 9b ed b6 3d 76 2c 1b be d3 40 7b 3e
       0.03190393 0.089320384 -0.15153679 0.24536447

value.4.weight f4 [1, 32]
000000 0f aa 8f bd dc da 6d be a4 80 24 3d bd 4a d2 3c
       -0.07014858 -0.2322802 0.040161744 0.025670404
000010 0d 1b dc bc fa 2d 11 3d 9f a4 7d 3d 75 3f ca 3c
       -0.026868368 0.035444237 0.061924573 0.024688462
000020 23 4d 6c bd 93 4f 80 3d 70 1e 61 3d 97 a4 62 3d
       -0.05769075 0.062651776 0.054960668 0.055332746
000030 20 57 7f bd 3a 1c b7 3d aa 20 81 3d c4 93 16 3d
       -0.06233895 0.08940931 0.06305058 0.036762014
000040 0a 12 0f 3e cb e5 36 bd b7 0e 02 bd 93 15 e8 be
       0.13971725 -0.04465274 -0.031752314 -0.4532896
000050 f5 40 20 bd e4 20 ec 3d c2 63 07 bd 51 30 ac bc
       -0.039124448 0.11529711 -0.03305412 -0.021019133
000060 59 43 a0 bd 2d 94 d8 3d b6 8d 05 bd 8f b1 25 3d
       -0.078253455 0.10575137 -0.03260585 0.040452536
000070 8f 53 a5 bd 8f 7f 36 3d 2b 90 1e bd 30 9d 64 3d
       -0.08072578 0.044555243 -0.038711708 0.05581397

value.0.weight f4 [32, 8]
000000 b5 b3 68 3e 78 d6 f1 3c c4 78 4d be 7a e3 51 3c
       0.22724803 0.029521212 -0.200656 0.012810582
000010 13 e4 5f 3e 65 de 42 3e d0 f8 02 3f f5 29 ff 3e
       0.21864347 0.1903015 0.5116091 0.49836698
000020 34 3d d3 bd e3 b4 6c 3d 13 43 08 3e 14 56 60 be
       -0.10314408 0.057789695 0.13306837 -0.21907836
000030 a6 2d d4 bd d9 43 3c bc fd 6a c5 3e 6a ea 94 3f
       -0.10360269 -0.0114907855 0.38558188 1.1634037
000040 67 e3 e3 b9 f8 97 0c 3e 2b 04 80 be f6 04 0a 3e
       -0.00043466242 0.13729846 -0.2500318 0.13478455
000050 9f 8b 97 3e 3e 1c 5a 3e ac ce 66 3d fc 30 d5 3d
       0.2959871 0.21299836 0.05634944 0.10409734
000060 e2 8f 65 be ae 9f bf 3d 4b fa 17 be b9 9d 78 3d
       -0.22418168 0.09356628 -0.14841573 0.06069729
000070 d7 49 03 3c 8d 87 2e be 5a 18 98 3e d4 95 6c 3f
       0.00801321 -0.17043896 0.2970608 0.9241612
000080 7b 16 a0 bd e0 e1 e3 3d b9 6f a3 be 03 bc b6 bd
       -0.07816788 0.111270666 -0.31921175 -0.08922579
000090 5e 1f 7f be eb dc c0 3d b0 8f 5a 3e 0c 59 30 bd
       -0.2491431 0.09417137 0.21343875 -0.04305367
0000a0 17 6d 4e be d9 ba 24 bd 57 6d b2 3e 02 0b d7 bc
       -0.20158802 -0.040217254 0.34849045 -0.026250366
0000b0 29 39 b8 3e bb b7 6a 3e 54 37 a5 bf a1 e5 11 be
       0.3598111 0.2292165 -1.290751 -0.14247753
0000c0 25 50 e6 3d f9 a0 5d 3e 49 b2 42 3d 5d d1 b1 3d
       0.11245755 0.21643437 0.047533307 0.08682511
0000d0 8a 4d 83 be 19 01 63 3e b2 36 8c 3e 2c 7b 1d be
       -0.25645095 0.22168387 0.2738548 -0.15379018
0000e0 59 e8 b6 bc 38 00 1b 3e 92 93 87 3e 8f 5b c9 3d
       -0.022327589 0.15136802 0.26479775 0.098319165
0000f0 f4 c6 2c be ca 33 9f ba 67 2e ee bd 0e 09 05 bf
       -0.1687277 -0.0012146172 -0.11629944 -0.5196694
000100 5a ca 13 3e 10 fa 56 3e 6e 98 1c 3e b0 4b 58 3e
       0.1443266 0.20993829 0.15292522 0.21122622
000110 f7 7d 9e be 17 8d 6f bd f2 9a 7d 3e 7a f7 6b bf
       -0.3095548 -0.058484163 0.24766138 -0.92174494
000120 fe 88 f2 bd a1 0e 45 be c2 de a8 bd 50 5e a6 bc
       -0.118425354 -0.19243862 -0.08245613 -0.020308644
000130 80 22 c0 bd fc 65 38 be ab e2 41 3f c3 97 cd 3e
       -0.0938158 -0.18007654 0.7573649 0.40154848
000140 8b f7 e3 3b f5 e7 2a 3e 73 35 ee bd 4a 4d 86 bd
       0.0069569997 0.16690047 -0.116312884 -0.065577105
000150 22 e5 1c be b6 a4 64 be 1d 08 7f 3e 34 24 f9 3f
       -0.15321782 -0.22328457 0.24905439 1.9464173
000160 f3 e2 9c 3e 2a f9 33 3d 9a 16 83 3e 76 02 06 be
       0.306419 0.043938793 0.2560318 -0.13086876
000170 cf 1b bd 3c 3a 6c 04 3e 96 31 b7 3e 0f 8b b3 3f
       0.02308455 0.1293191 0.3578002 1.4026812
000180 4d c5 1c be 2f e8 65 3c fb 61 3b be 81 8f 14 3e
       -0.1530964 0.014032408 -0.18299095 0.14507867
000190 f4 32 07 3e 4e 69 79 3e 12 39 d9 3e 07 6d b0 bf
       0.13203031 0.24356577 0.42426354 -1.3783273
0001a0 a8 12 5f 3e fc 1b 11 3e 40 7b 18 3d 6f ad bf 3d
       0.2178446 0.14170831 0.037226915 0.09359252
0001b0 e5 f3 97 bb 20 ac 69 3e ba c9 5b bf d5 ea 07 bf
       -0.004637229 0.22819567 -0.85854685 -0.530927
0001c0 a4 b0 58 be 93 f7 49 be dc ac 83 3e f6 74 04 be
       -0.21161133 -0.19723348 0.2571782 -0.12935242
0001d0 e1 c0 99 3e f4 11 2d 3e d2 81 f7 3e fd e2 80 bd
       0.30029967 0.1690138 0.48341233 -0.062932946
0001e0 4b 17 ad 3c f8 ac 78 be b8 a1 83 3d e5 f3 7f 3e
       0.021129271 -0.24284732 0.0642733 0.24995382
0001f0 40 8c da bd 50 37 d1 bd 31 2a 09 be 29 ae d9 3c
       -0.10671282 -0.10215628 -0.13395001 0.026572304
000200 a8 37 8d bd cf 5e 3d be 26 94 2e be eb 68 32 be
       -0.06895381 -0.18493198 -0.17048702 -0.17422836
000210 88 4c 04 3e a8 f7 82 be 42 a3 75 3f bb cc 9a bf
       0.1291982 -0.25579572 0.95952237 -1.2093729
000220 e0 7f fe 3c ea 5b cd 3d e1 b7 50 3d 72 03 f5 bd
       0.031066835 0.10027297 0.05095661 -0.11963548
000230 cc 4b d2 bd 25 8c 18 bd 61 51 26 bf c2 6a 02 be
       -0.10268363 -0.037243027 -0.64967924 -0.12736037
000240 55 00 c0 3d 65 04 ef 3d 58 47 f3 3b 91 64 5f 3e
       0.09375063 0.1167076 0.0074242763 0.21815707
000250 70 72 d7 3c 60 4e 2c 3d 3e 56 06 be 5b 6b e5 3d
       0.026299685 0.04206693 -0.13118836 0.11202117
000260 b4 59 2d bd dd 0c ce bd 5c 48 87 3d 69 91 01 be
       -0.042321876 -0.10061047 0.06605598 -0.12653126
000270 f5 7b 88 3e 3f e3 3a be cd ec 1a c0 d5 21 56 3f
       0.26657072 -0.1825075 -2.4207032 0.83645374
000280 85 b1 64 3d 5b 05 89 3e a3 22 1a be 69 40 25 be
       0.05583336 0.26761898 -0.15052275 -0.16137852
000290 47 ba 6f 3d 69 e6 96 3e 0d 93 9c 3f 16 31 fd bb
       0.058527257 0.29472664 1.2232376 -0.0077267988
0002a0 28 ff 23 3d 97 78 85 be e3 7a 23 3e e1 e0 1d 3d
       0.040038258 -0.26068565 0.15964846 0.03854454
0002b0 3e 22 85 3e ab 5f c3 bd d6 05 8f 3f 5a 54 d6 3e
       0.26002687 -0.095397316 1.1173656 0.4186123
0002c0 dd e8 8d bb f3 ac 5b be 37 dc 4b be 4f 96 36 3e
       -0.004330738 -0.21452694 -0.19908224 0.17830776
0002d0 6d 2d 2b be 44 12 66 3e 51 df f6 be 7a dd 16 be
       -0.16716547 0.22467905 -0.48217252 -0.14732924
0002e0 09 7a 6d bd 2a e7 72 3e 8e 10 e4 bd 7c ba 00 be
       -0.05797771 0.23720995 -0.1113597 -0.12571138
0002f0 46 19 12 3e 3b 96 21 bc 34 ad 30 3f 36 25 70 3f
       0.14267454 -0.009862478 0.69014287 0.9380678
000300 27 bd c1 bd 76 34 41 be 92 d3 49 be 65 4a 0a be
       -0.09459906 -0.18867669 -0.19709614 -0.13504942
000310 4f d3 74 3d 1d 79 38 be 01 2b de bf f2 88 3c 3f
       0.059771832 -0.18014951 -1.7356874 0.7364646
000320 e0 89 28 be ef 2c a7 bd 92 05 97 3e 22 d8 38 3e
       -0.16458845 -0.08162867 0.29496437 0.18051198
000330 53 58 30 be 0c af 0c 3e b4 9b 7b 3f 99 4a 0e 3f
       -0.17221193 0.1373865 0.9828446 0.55582577
000340 02 14 94 3e 2b 8e 8f be 3d 30 c9 bd e3 6c d8 bc
       0.28921515 -0.28038153 -0.09823654 -0.026419109
000350 52 4b fd 3c 6b 4d e9 3a 69 e5 29 3f 08 5d 01 bf
       0.030919705 0.0017799562 0.6636568 -0.5053258
000360 f5 ca 5f bc 5f f5 26 bd 1f 9a 13 3b 6b e7 ae bb
       -0.013659229 -0.040761348 0.0022522283 -0.0053376458
000370 da 61 50 3e e2 ae 1d 3e 2f 77 ab bf 0b 6a fe bf
       0.20349827 0.15398744 -1.3395747 -1.9876112
000380 19 01 16 3d b2 6b 5f 3e 11 aa 61 3d 7c ae a5 be
       0.03662214 0.21818426 0.05509383 -0.32359684
000390 f5 bb 04 3e 0a 03 80 3e 09 b1 1e 3e 41 03 3c bf
       0.12962325 0.2500232 0.15497221 -0.73442465
0003a0 6c 4f 30 be d3 97 77 bd c1 4a 14 3c dc a6 2d be
       -0.17217797 -0.060447525 0.009051026 -0.16958183
0003b0 03 c4 77 3e e5 02 e6 bd 0c 42 95 3f 73 a6 9a bf
       0.24195866 -0.11231021 1.1660781 -1.2082046
0003c0 36 23 b6 3d a5 0c 4b 3e b1 0e e3 3d d0 4a ae bc
       0.08893435 0.19829042 0.110867865 -0.021275908
0003d0 9b 3c 54 3e ad 96 ca bd 07 e4 c5 be ba 82 5c 3e
       0.20726244 -0.098920204 -0.38650534 0.21534243
0003e0 28 a9 99 3d ac 55 99 bd 6f f2 6a be 9b 72 2c be
       0.07502967 -0.07487044 -0.22944044 -0.16840594
0003f0 6a ec c0 3e fa 22 c5 bd a6 cf 94 3e b0 7f 34 bf
       0.3768037 -0.09625812 0.29064673 -0.70507336

value.0.bias f4 [32]
000000 f6 ca 53 3d 67 b1 45 be a7 f9 42 be 30 c8 82 3e
       0.05170723 -0.19305955 -0.19040547 0.25543356
000010 94 8c cd 3e 4e 74 11 3f ef f3 77 3e 12 24 86 be
       0.40146315 0.5681809 0.24214147 -0.26199394
000020 52 f9 19 bf 6e 32 6b be d3 41 84 be 90 c2 2d bc
       -0.6014606 -0.22968456 -0.2583147 -0.010605469
000030 7d cb b5 3e ba 71 b9 3e 1e 83 1b bd 11 1b 6d bd
       0.35506812 0.3621958 -0.03796684 -0.05788714
000040 30 12 b2 bd 2c 83 68 be 9c 88 8b be 54 7b d4 be
       -0.08694875 -0.22706288 -0.27252662 -0.41500342
000050 a4 4c f6 be 28 ae 86 bd 32 ce 93 3e 9b d7 2a be
       -0.48105347 -0.065761864 0.28868252 -0.1668381
000060 b8 d1 91 3e c6 63 ce be ca 2b 2c bf c7 15 ae be
       0.28480315 -0.40310496 -0.67254317 -0.3400099
000070 7f 88 4f 3c 74 ba 22 3e be 31 34 3e 2c ba 04 3e
       0.012666821 0.15891439 0.175971 0.12961644

value.2.weight f4 [32, 32]
000000 56 43 7d bd 60 b9 85 3b 37 51 7f bb 10 a4 e3 3d
       -0.061831795 0.0040809363 -0.003895832 0.11115277
000010 da 3c 1b 3c 14 a2 b8 3d b3 12 9c bc e0 62 25 bd
       0.009474957 0.09015289 -0.019051885 -0.040377498
000020 df 22 e8 bd 4d 04 98 3d 5f 9d 36 bd 4a 6e 9e 3d
       -0.11334776 0.07422695 -0.044583675 0.0773588
000030 a0 19 81 3c 54 76 1d 3e 66 6c 20 3d 48 cf c7 3d
       0.01575929 0.1537717 0.039165877 0.09756333
000040 24 a9 ed bc b1 94 c1 bb 13 42 a0 bc fa 7a 53 bd
       -0.029011317 -0.005907618 -0.019562757 -0.05163095
000050 0a c9 bf 3d 5f d1 65 3d c5 28 7f 3d e3 58 85 3d
       0.09364517 0.056107875 0.06229474 0.065110944
000060 9f 48 27 bc f4 30 c6 bd 20 68 c5 3d 7d 54 2a be
       -0.010210185 -0.09677306 0.09639001 -0.16633792
000070 f0 8b db 3d 8c 9f ed bb 43 5b 0c ba a8 61 42 3d
       0.1072005 -0.0072516855 -0.0005354175 0.047456414
000080 b0 7d e0 3c b4 2d 90 be 98 4b a9 3d 14 f2 0a 3d
       0.027403682 -0.2815987 0.082663715 0.03392227
000090 02 bb 8b bd 02 2e 5a bd 14 f8 04 3d c6 12 bc bc
       -0.06822778 -0.053266533 0.03246315 -0.02295817
0000a0 ba a3 94 bc f9 d1 e8 bd 7f 02 4a be cb 67 ac be
       -0.018144477 -0.11368174 -0.19727515 -0.33672938
0000b0 ff bc c7 bc 74 06 78 3e 71 58 c3 bc df ae 27 3e
       -0.024382113 0.24221212 -0.023845883 0.16375302
0000c0 c0 1b cc 3d 48 2d f7 3d ea 49 bb bd e0 7e c1 be
       0.099662304 0.120691836 -0.09144957 -0.3779211
0000d0 86 08 c1 bd b8 76 bb 3c e2 a6 af bd 53 6b e8 be
       -0.09425454 0.022883758 -0.08576752 -0.45394382
0000e0 4e 62 6a 3d 58 5b fb 3c bb 5c 34 be cb 52 25 be
       0.057222657 0.030683205 -0.17613499 -0.16144864
0000f0 fd 5e 00 3f 94 ca 95 bd 92 33 e9 3d 1d e7 da 3d
       0.5014494 -0.07314029 0.113867894 0.106886126
000100 93 69 98 3d 54 16 dc 3d 20 33 fc bd 7e 78 d5 bd
       0.07442012 0.10746446 -0.12314439 -0.10423373
000110 7c b8 01 3e 2f 82 b9 3d 94 50 00 be 8d 94 18 bc
       0.12668031 0.09058034 -0.12530738 -0.009312761
000120 f8 b5 80 3d cf 03 9e bd 06 6c 56 be 02 ff 0d be
       0.06284708 -0.0771557 -0.20939645 -0.13866809
000130 36 db 45 be 70 c3 96 3d d7 54 0d bc aa d6 ea bc
       -0.19321904 0.073614955 -0.008626184 -0.028666813
000140 ed 2a 4d 3d 0c 14 3b be 18 d2 9c 3e ce a4 ae ba
       0.050089765 -0.18269366 0.3062904 -0.0013324262
000150 29 a2 22 3e ea d0 e5 3d 56 df 17 be 30 72 e0 3d
       0.15882172 0.11221488 -0.1483129 0.109592795
000160 14 0a 77 bb b8 02 64 3e 63 f2 61 3d 32 f4 eb 3d
       -0.0037695216 0.22266662 0.0551628 0.11521186
000170 54 f1 8f bd 27 f4 a7 3d 57 4a 56 bb e3 16 af 3c
       -0.070284516 0.08200865 -0.0032698119 0.021373218
000180 ec b3 5f 3e 76 b3 8a be 5a a7 f1 3d 62 d5 14 3d
       0.21845978 -0.27090043 0.11799498 0.03633631
000190 d5 1c cb be 81 f1 fd bc 4b a6 87 3d 37 91 12 bd
       -0.39670435 -0.030998947 0.06623515 -0.03578302
0001a0 4d e6 dd bd 64 85 dc 3d e6 d9 88 bd 3f 63 13 3e
       -0.10834942 0.1076763 -0.06682186 0.14393328
0001b0 bd a3 64 3d b6 22 a0 be 3f c4 47 be f3 8b 2d 3c
       0.055820215 -0.31276482 -0.19508456 0.0105924485
0001c0 20 c5 03 3e 73 db 87 bd 9c b8 35 be 5b 92 ec 3d
       0.12868166 -0.066336535 -0.17746204 0.115513526
0001d0 8d c2 3f 3e d8 2f ee 3d f5 60 49 3d 84 a9 43 3e
       0.18726559 0.11630219 0.04916473 0.19107634
0001e0 28 ad e1 bd 94 1e 37 3e d8 73 5f bd 4b 1b 04 3e
       -0.11019355 0.17882758 -0.054553837 0.12901036
0001f0 89 35 83 be 95 79 da be 5c 60 7e 3d ea fa 9d 3c
       -0.25626782 -0.42670885 0.062103614 0.019284684
000200 28 7c 96 bd eb c3 19 3e da f7 2a 3e 10 a6 3c 3d
       -0.073479 0.15016143 0.1669611 0.046056807
000210 23 a9 e8 3c 64 28 0d 3e 39 f9 0a 3e 9d 1d 74 3d
       0.028400963 0.13784939 0.13571633 0.059598554
000220 d5 a2 7d 3c d8 65 32 3e a6 36 87 bd 03 4a 6a ba
       0.015480717 0.17421663 -0.0660222 -0.000893742
000230 9b 99 7d bb 57 32 ff 3d 68 d8 ec 3d aa 90 5e 3e
       -0.0038696292 0.124607734 0.11564714 0.21734872
000240 58 1b 0d be 42 cf e6 bd c3 0a 28 bb 65 18 4c bd
       -0.13779962 -0.1127 -0.002564118 -0.049827952
000250 80 66 2a bd 4c ce 7b bd 45 ca 21 3d 86 6b 9c 3d
       -0.041601658 -0.061476037 0.03949954 0.07637696
000260 78 32 fd bd ac 8b 61 bb a6 d4 a2 bd a3 f4 29 be
       -0.12363142 -0.0034415526 -0.07950716 -0.16597228
000270 8c 93 07 be c0 fc 0d 3c e5 32 13 3e e2 05 36 bd
       -0.13239878 0.008666217 0.14374883 -0.044439204
000280 ae fd 46 3e 1e e6 86 3c 99 4f 0b 3e cf 4a 2c 3e
       0.19432709 0.01646715 0.13604583 0.16825412
000290 66 9d 27 3c 5f 04 26 be 96 30 84 3a f2 39 4b bd
       0.010230398 -0.16212605 0.001008528 -0.049615808
0002a0 18 5b 9c bd ac 65 2c bd 9f 69 8b bd 86 02 be 3c
       -0.07634562 -0.04208915 -0.06807255 0.023194563
0002b0 a4 f3 f5 3d 8a 1b 83 3e 62 01 74 3d d7 26 d8 3d
       0.120093614 0.25606948 0.05957163 0.10554283
0002c0 ca 06 09 be ac 0c 64 3d 61 8c c3 3d 82 62 d4 3c
       -0.13381496 0.055676147 0.095482595 0.025925878
0002d0 b2 cf 96 bd e1 8e 17 be 20 07 8e 3e f8 46 f9 bd
       -0.073638335 -0.14800598 0.2773981 -0.12171739
0002e0 28 50 3b bd 43 19 2e be 3d e1 94 bd 66 8e 5e bc
       -0.04573074 -0.17001824 -0.07269523 -0.013583755
0002f0 61 a8 4d be 19 84 d1 3d 3c 01 99 3d 25 75 49 bc
       -0.20083763 0.10230274 0.074709386 -0.012295996
000300 2f 77 50 bd 9c 05 05 3e f9 f0 2b 3d 3a 81 4d 3d
       -0.050894912 0.12990421 0.041977856 0.05017207
000310 2d 1f ab bc 66 8b f8 bc bf b2 dd bd f2 65 45 bd
       -0.02088889 -0.030339908 -0.10825109 -0.048192926
000320 9b 99 b5 bd 1a 0b b4 3d 90 51 09 3e ba 2e b2 3c
       -0.088671885 0.0879118 0.1341002 0.021750797
000330 1d bb 6e 3c 6a 80 21 bd 65 1a 93 3d 14 46 f6 3d
       0.0145709785 -0.039429106 0.07182769 0.12025085
000340 66 a0 bb bd f1 e5 68 3d 94 85 ee 3d 1a 84 a2 bd
       -0.09161453 0.056859914 0.11646572 -0.079353526
000350 87 6a cf 3c 58 e2 3a bd 4d ea d7 bd cd ff c6 3c
       0.02531935 -0.045626014 -0.10542736 0.024291897
000360 9c a7 db 3d 55 56 60 bd a1 0a 3e 3d 57 45 5a 3d
       0.10725328 -0.054769833 0.046396855 0.053288784
000370 f8 fa c5 bd 0e 04 d9 3d 7c 00 91 bd be 29 1d 3e
       -0.09667009 0.105964765 -0.070801705 0.15347955
000380 34 5f 7a bd 99 d8 a3 3c b8 6d 69 3d ee 24 1a bd
       -0.06112595 0.020000743 0.0569894 -0.037632875
000390 12 b9 30 be 05 88 15 be 35 c6 88 bd 60 5d d7 3d
       -0.17258099 -0.14602669 -0.0667843 0.10515857
0003a0 f4 a9 0f bd 9e 9a 06 3e 24 85 f6 3d d1 94 0f bd
       -0.03507419 0.1314492 0.12037113 -0.03505403
0003b0 72 85 05 be 6e 91 29 3d cb 3a fe 3d 51 95 1c be
       -0.13039187 0.04139846 0.124135576 -0.15291335
0003c0 1d de 95 bc 91 0b 6a bd 4b cc e3 bc d5 b4 30 3d
       -0.018294388 -0.057139937 -0.027807375 0.043141205
0003d0 76 84 08 be a9 c0 c7 3c 03 90 e9 bb ab f1 7b 3d
       -0.1333178 0.02438386 -0.0071277632 0.06150977
0003e0 e7 35 84 be 16 fe e9 3d 4f 41 76 3d d3 03 48 be
       -0.25822374 0.11425416 0.060120877 -0.19532709
0003f0 4f b9 e6 3b d4 05 25 3c ba d0 d6 3b e1 59 a4 bd
       0.0070411335 0.01007219 0.006555644 -0.080249555

value.2.bias f4 [32]
000000 e3 25 33 bd 66 1c 55 3d 95 35 b3 3c 12 e0 bf 3c
       -0.043737303 0.052029036 0.021876136 0.023422275
000010 6e 29 d2 bd 0f 62 07 3e 3e b2 8b 3e ea 14 ed bd
       -0.10261808 0.13221 0.27284425 -0.11576255
000020 16 51 b3 be e8 c0 01 3e 49 43 9f 3d 2f 69 5f 3e
       -0.350228 0.12671244 0.077765055 0.21817468
000030 50 c3 53 bd 97 eb a7 3e 65 24 41 3e f2 ec 0d 3e
       -0.051699936 0.32796928 0.1886154 0.13859919
000040 92 d3 1e 3c 5b 92 4c be ce 52 ed ba c1 28 76 bd
       0.009693997 -0.19977705 -0.0018106343 -0.06009746
000050 62 f4 a8 bd 41 60 55 bd a0 ef e3 bd 41 e2 09 bd
       -0.08249737 -0.052093748 -0.11129689 -0.03366304
000060 4b c4 04 be 24 84 b7 bd 7e 66 01 3e b2 1a bb bd
       -0.12965505 -0.08960751 0.12636754 -0.09135951
000070 6d dc 03 3d 30 4a b8 3d f3 c5 1b be a1 84 7b 3e
       0.032192636 0.08998525 -0.1521223 0.24562313

value.4.weight f4 [1, 32]
000000 32 56 90 bd 57 76 6e be c0 26 24 3d df ea d8 3c
       -0.070476905 -0.2328733 0.040076017 0.026479183
000010 e4 6e db bc ab 6a 11 3d 44 f2 7e 3d 15 ff c1 3c
       -0.026786275 0.035502117 0.06224276 0.023681203
000020 f1 89 6b bd 48 46 80 3d 91 47 64 3d c7 30 62 3d
       -0.057504598 0.06263405 0.055732314 0.0552223
000030 67 90 80 bd 0e ee bc 3d 91 20 83 3d 64 41 18 3d
       -0.062775426 0.09225093 0.06402696 0.037171736
000040 ef 7e 10 3e 47 6c 37 bd 32 57 04 bd ec 1e e8 be
       0.14110921 -0.044780996 -0.03230972 -0.45336092
000050 36 c5 1c bd 5c 8b e9 3d 5d 59 0a bd 26 f1 af bc
       -0.038274013 0.11403534 -0.03377663 -0.021477293
000060 39 50 a0 bd 24 3c d8 3d d6 1c 06 bd 0f 82 26 3d
       -0.07827801 0.10558346 -0.032742344 0.040651377
000070 a1 ae a3 bd fe ba 36 3d 63 ca 1e bd ab ec 64 3d
       -0.07992292 0.044611923 -0.03876723 0.055889767

actor.0.weight f4 [32, 6]
000000 49 0e 95 be 18 d3 13 be 3e 3e c3 3e ff c2 89 bd
       -0.2911246 -0.14435995 0.38133425 -0.06726646
000010 63 e1 d9 be a0 c3 a4 be 73 8f 29 3e c5 26 8e 3e
       -0.4255477 -0.321805 0.16558628 0.27763954
000020 7a e5 74 be fa af 22 3e ed 81 ae bd ac e8 d0 bd
       -0.23915663 0.15887442 -0.08520875 -0.10200629
000030 f7 82 af 3d cf 9e 1c 3f b7 32 39 bd d8 7e e5 be
       0.085699014 0.6117982 -0.04521438 -0.44823337
000040 60 e7 6e be 66 3d c8 3e c8 29 f9 be 35 ea 91 be
       -0.2333045 0.39109343 -0.4866469 -0.28498998
000050 01 c4 23 3d 2b 7a 90 3e 2d 51 7c 3e 1b 6c b6 3e
       0.039981846 0.28218207 0.24640341 0.35629353
000060 e0 19 e4 3d cb 2b b1 bd 05 73 08 3f e3 04 9a 3e
       0.11137748 -0.08650931 0.53300506 0.30081853
000070 c7 a5 ee be 73 00 80 bd c5 4e 8a be f5 74 0c 3e
       -0.46610853 -0.06250086 -0.2701322 0.1371649
000080 18 1a cd 3d 2c 2f 30 bf 48 22 89 3d a8 89 ca bd
       0.100147426 -0.6882198 0.06695992 -0.09889537
000090 6c ec af bd 1a 66 0a 3f 8f e7 cb be e7 6d 16 bd
       -0.08590016 0.54062045 -0.39825103 -0.036725905
0000a0 a0 f6 65 3d 9e e8 4a 3e 99 94 cc be 0e 23 d2 bd
       0.056143403 0.19815299 -0.3995712 -0.102605924
0000b0 4a b6 7a be 50 84 64 3e c2 79 81 3e 9a 0c 6b 3e
       -0.244836 0.22316098 0.25288206 0.22954026
0000c0 5c c6 51 3e e9 83 fe be 71 d3 0b 3e 9d 99 84 be
       0.20485824 -0.49710014 0.13654877 -0.25898448
0000d0 ad d4 30 be 35 34 b6 be 35 b8 d7 3e 12 b5 0d bd
       -0.1726863 -0.35586706 0.42132726 -0.03459651
0000e0 08 7a b6 be 3c 4e 38 3f a9 80 d5 be 5c ea 8b 3e
       -0.35639977 0.71994376 -0.41699722 0.2732724
0000f0 ef e8 9a be 10 2d 55 bd 80 5b 91 3e d4 d4 34 bf
       -0.3025584 -0.052044928 0.2839012 -0.7063725
000100 fc 8d 0d 3f 60 eb 35 be 09 ff 18 be ee b1 37 bc
       0.55294776 -0.1776557 -0.14941038 -0.011211855
000110 03 63 4a 3e a2 54 ac be 63 94 dd be 89 ed 08 bf
       0.19764332 -0.3365832 -0.43277273 -0.5348745
000120 8c f0 98 bb 43 c1 5e 3e 60 4e cd be 6c 7d db be
       -0.0046673473 0.21753411 -0.40098858 -0.42869127
000130 6f 95 83 3e 82 74 3d 3e d0 72 3c 3f 17 0c 01 3e
       0.25699946 0.18501475 0.7361269 0.12602268
000140 db 14 35 be f3 08 2d be cf 0c 28 be 10 ba 71 be
       -0.17683737 -0.16897945 -0.16411136 -0.23606133
000150 e1 cb 95 bc 09 1d 30 3e 96 82 9b 3e ca d5 12 bf
       -0.018285694 0.17198576 0.30373067 -0.57357466
000160 ec 92 45 3e 36 e7 26 3a 00 a7 18 bc 63 7d 54 bd
       0.19294327 0.00063668506 -0.00931716 -0.05187739
000170 8e a2 da bd 95 71 86 be 28 e9 3d 3e 06 a8 ce 3e
       -0.10675536 -0.2625853 0.18545973 0.40362567
000180 6e ee d0 3e 1b 55 50 be 19 3f fa ba 51 2b b5 be
       0.40806907 -0.20344965 -0.0019092291 -0.3538461
000190 08 24 d2 be 70 34 b9 be 70 50 fa 3e 53 e9 de 3e
       -0.41043115 -0.3617282 0.48889494 0.43537387
0001a0 c1 e3 1d 3d bc ff a7 be 39 1f 93 be a3 be b4 3e
       0.03854728 -0.32812297 -0.28734758 0.35301694
0001b0 c1 f2 49 3d a0 b2 88 3d 97 b8 95 3e ac e7 fb 3e
       0.049303774 0.06674695 0.29242393 0.4920019
0001c0 d3 62 4c 3e ae a8 79 3c e0 15 b0 be 43 8c e5 be
       0.19959573 0.01523797 -0.3439169 -0.44833574
0001d0 a3 48 bd bc f0 5e 60 3e d7 3f c9 be f0 9f 90 bd
       -0.023105925 0.21911216 -0.39306518 -0.07061756
0001e0 3f c5 26 be 3b 9a c7 3e e0 7a 23 3f d8 2b 85 be
       -0.16286181 0.38984856 0.6385937 -0.26010013
0001f0 d3 01 74 be 1a 66 b6 be df f0 80 3c 3a 68 db be
       -0.23828821 -0.35624772 0.015739856 -0.42852956
000200 21 55 d3 3e 1e dc 8d 3c ba 90 90 3e d4 4c 05 3e
       0.41275886 0.017316874 0.28235418 0.13017589
000210 55 3d ac 3d dd 93 6f bc d5 3c 4a 3e 01 ac 7d be
       0.08410136 -0.014622656 0.19749768 -0.24772646
000220 45 fc 5e be eb 4f 86 3e b5 70 9a 3d b4 d8 c3 3d
       -0.2177592 0.26232848 0.075410284 0.09562817
000230 ea 20 ba 3e 40 27 07 bf 45 80 bd be 50 3d 64 be
       0.36353236 -0.52794266 -0.37011924 -0.22289014
000240 48 72 db 3d f8 8b dd 3e 78 19 67 3d fa 4e 06 3f
       0.10715157 0.4327085 0.056420773 0.5246426
000250 3f 6b 00 3c fb e3 e7 bd f9 3f 14 3f a1 69 84 3e
       0.007838069 -0.11322781 0.57910115 0.25861838
000260 08 79 d7 3e cb 9b 5f 3e c9 be 92 3e f0 da 51 3e
       0.42084527 0.21836774 0.28661183 0.20493674
000270 aa a8 8d be 77 26 b4 3c 4e 60 10 bf 42 2a 64 bd
       -0.27667743 0.021990998 -0.5639695 -0.055704363
000280 5e b8 da be 85 fd ad be 7a 43 c5 3e 7c e6 31 3d
       -0.42718786 -0.33982483 0.38528043 0.043432698
000290 53 aa 4d bf 2f c4 cd bd 36 58 6e 3e 24 4a 80 3e
       -0.8033802 -0.10047185 0.23275837 0.25056565
0002a0 fd b0 e7 3d 06 4b a0 3e bb df cb 3e 02 00 fd bd
       0.11313055 0.31307238 0.3981913 -0.12353517
0002b0 e9 ed 8c 3e 88 ab 1e be a3 24 bf 3c bc 66 e8 3e
       0.2752526 -0.15495121 0.0233329 0.4539088
0002c0 e5 98 f6 3e bb 4f c7 3d 32 e2 10 3f 9a aa a9 3d
       0.48163524 0.09732004 0.56595147 0.08284493
0002d0 af 3e a4 3e 13 c2 2a be 4e 30 19 3f fd e6 03 bf
       0.32079074 -0.16675596 0.5983933 -0.51524335
0002e0 aa 19 6f 3e ce 58 05 3f d8 13 78 bd c5 ba 6d bb
       0.23349634 0.5208863 -0.0605658 -0.0036274653
0002f0 2f aa 42 3e a9 45 82 3e a4 47 ce be 74 65 13 3e
       0.19010232 0.2544377 -0.40289032 0.1439417

actor.0.bias f4 [32]
000000 e7 cf 34 bd b6 88 a7 3c b2 03 c9 3e 42 6e b5 3e
       -0.044143584 0.020450931 0.39260632 0.35435683
000010 9c 9f f8 3e 03 bc 4c bd 32 3b a6 3d 85 1f 2e be
       0.48559272 -0.04998399 0.08116759 -0.17004211
000020 53 75 b2 3e 73 dd b8 bb 0a 26 05 3e 0d b9 6d be
       0.34855136 -0.005641633 0.13002792 -0.23215123
000030 eb a2 80 3e 21 d9 19 3e 6c f3 93 3d b6 52 72 bd
       0.25124297 0.15024234 0.072241634 -0.05916091
000040 06 0d 42 be 30 ca 3d be 11 4d 41 bc 3a da d7 bd
       -0.1895028 -0.1853416 -0.011798159 -0.1053967
000050 4b 35 43 be 3e c6 fc be b2 3c ac be 0c 64 7b 3e
       -0.19063298 -0.49369997 -0.33640057 0.24549884
000060 74 f5 02 3f f8 77 9f bd 26 06 de 3d 08 18 40 3e
       0.5115578 -0.07786554 0.108410165 0.18759167
000070 98 5e ad bc 20 13 66 be 7a fb d6 be b0 b0 d4 3d
       -0.02116327 -0.22468233 -0.41988736 0.10385263

actor.2.weight f4 [32, 32]
000000 3a 75 79 bd 6b 96 c9 3b 8f e5 66 3d 6a 46 8f 3e
       -0.06090281 0.0061519644 0.056371268 0.2798341
000010 2b 9a 41 bd 98 e8 27 be 7a 8f f7 bd 19 dd a7 3e
       -0.047266167 -0.16397321 -0.12087913 0.32785872
000020 5d 35 e1 bd cf 0c 15 bc 56 65 11 be d6 c3 d6 bd
       -0.10996506 -0.009097292 -0.14198813 -0.104865715
000030 cb 1f 11 be 39 1b b0 3d 87 8c 38 3e 3e 5a 23 3e
       -0.14172284 0.08598942 0.18022357 0.15952393
000040 9f 33 27 3e 26 4a 1d bd 8e de 5d bd 22 bd 62 be
       0.16328286 -0.03840079 -0.054167323 -0.22142461
000050 75 7a a3 bd fd c4 94 bc d9 0a e1 be ba e3 ee bd
       -0.07982341 -0.018160338 -0.4395359 -0.11664529
000060 ba 10 ae 3e 52 36 93 3b d6 bc db 3d e3 c4 95 3d
       0.33997136 0.0044925595 0.10729377 0.07312944
000070 e0 f4 86 3e 9a 02 66 be 47 f0 90 3c 29 7f 38 be
       0.263587 -0.2246193 0.017692698 -0.18017258
000080 4a fa f8 bd ad 35 6d bd f6 d0 1d bb 83 32 21 3e
       -0.12157114 -0.057912517 -0.002408085 0.15741925
000090 50 69 c2 3c 46 63 27 3e 77 ec f1 3d 03 9c d9 3d
       0.023731858 0.16346464 0.1181268 0.1062546
0000a0 b8 ee bc be ad 27 05 bd 7a 8a 2c bd 9e 8f 47 bd
       -0.36900878 -0.03250854 -0.04212425 -0.04872095
0000b0 70 56 11 be 9f 4d 82 bd 0a f2 67 be 00 7d 89 bd
       -0.1419313 -0.06362461 -0.22650924 -0.06713295
0000c0 49 aa 36 bf 01 68 44 3e 08 90 4b 3e 90 2a 87 3d
       -0.71353585 0.191803 0.19879162 0.06599915
0000d0 63 f6 89 bd 82 90 69 bc 4f 76 c0 be 15 aa 81 bc
       -0.06736448 -0.014255645 -0.37590262 -0.015828172
0000e0 e3 00 7f be 13 9a 96 bd 49 6d e5 3c 8e bc 72 3b
       -0.24902682 -0.07353606 0.028006213 0.0037038657
0000f0 af 82 3c be 05 87 b6 bd 68 6f 7b bf d7 c7 01 3e
       -0.18409227 -0.08912472 -0.9821687 0.12673889
000100 47 f6 50 be d2 b6 e6 bd ad ff 7c be f6 0f ec 3c
       -0.20406447 -0.11265339 -0.24706908 0.028816205
000110 a6 37 c2 be 13 9d 8e 3e 15 51 f5 bd 02 49 57 be
       -0.3793308 0.27854213 -0.11978356 -0.21023944
000120 60 d0 3b 3e 6d 43 86 be 91 25 51 3b 74 e2 ff 3d
       0.18341208 -0.26223317 0.003191326 0.124943644
000130 a1 4a 39 be 97 1b 00 3e 09 88 8b 3e 97 2d af bd
       -0.18094875 0.12510525 0.27252224 -0.085536174
000140 0d 81 07 bd 7b 3f a6 3e a4 ea 9e bc 6d d8 3e bd
       -0.033082057 0.32470307 -0.019398995 -0.04659312
000150 24 e4 9f 3c fe 0c 5d bc 3d f8 cf 3d fc b9 97 3e
       0.019517966 -0.013491867 0.101547696 0.29634082
000160 6a 27 a1 3d e8 84 0c bd 15 21 40 bd 37 ba b4 3d
       0.07868846 -0.034306437 -0.04690655 0.0882458
000170 5f aa bd bc 65 f3 b6 3e 32 4a d9 bc da 7a 3a be
       -0.023152528 0.3573257 -0.026524637 -0.18210927
000180 a5 cf 2e bf 30 d6 5f 3e d0 e9 1a 3e 0b 7f 83 be
       -0.6828559 0.2185905 0.15128255 -0.25682864
000190 ef ca 14 be a5 5b 78 3d 0c b9 1c 3e 97 e5 67 bd
       -0.14530538 0.060634274 0.15304965 -0.05661544
0001a0 d2 4f 2f 3e cd 64 be 3e d3 f6 52 be 9a 7f c2 be
       0.17120293 0.3718628 -0.20601968 -0.37987977
0001b0 74 b8 77 be e0 a9 e0 3d c7 a4 34 be 52 a4 26 3e
       -0.24191457 0.10969901 -0.17640983 0.1627362
0001c0 de 8f 89 be 95 c9 a2 be a7 56 ea bd e6 90 58 be
       -0.26867574 -0.3179442 -0.11442309 -0.21149024
0001d0 9f ad 65 be c3 ed 9b bd b9 a6 b3 bd 77 3f 86 be
       -0.22429512 -0.07613709 -0.08772034 -0.26220295
0001e0 38 51 17 3e f2 60 be 3e 8e eb 3c bd b7 a2 2c be
       0.14777076 0.37183338 -0.04612308 -0.16858946
0001f0 3e ae 73 be af aa a1 bd 62 a6 76 bc b3 57 52 be
       -0.23796937 -0.078938834 -0.015054317 -0.20541267
000200 93 3e 2f 3d dc 52 86 3d 6e f4 35 3e b1 10 8b bd
       0.042784285 0.06558773 0.17769024 -0.06790293
000210 5b 9f 83 3c 17 a2 b2 bd 24 66 9f 3d 58 3c 4f bf
       0.016067198 -0.087223224 0.07783154 -0.8095145
000220 35 9a 19 3e d2 0c 07 bd 59 2d 49 be d6 f9 90 bd
       0.15000232 -0.03297121 -0.19646205 -0.070789024
000230 49 07 df 3d 07 5d 9c bd 5f 98 2e bd 67 63 ec bd
       0.108900614 -0.07634931 -0.04262578 -0.11542397
000240 15 76 02 3d 7f eb d3 3e 93 19 2c 3d a6 3a 9a 3d
       0.031850893 0.41390607 0.042016577 0.075307176
000250 ba 84 18 3d 48 2c 1a be ce 68 1c be d6 c7 09 be
       0.037235953 -0.15055954 -0.15274355 -0.13455138
000260 74 d2 73 bd 81 11 16 3f 80 4c 7f bd 09 78 37 3e
       -0.059526876 0.5862046 -0.062328815 0.17916884
000270 31 5e 4d bc cb 7a a0 bd 59 67 ac 3e 59 27 15 3e
       -0.012534664 -0.07835921 0.33672598 0.14565791
000280 0f ab e1 3c 1b 8c 38 3d 07 3f 22 3e 0f 48 02 bd
       0.027547387 0.04505549 0.15844356 -0.031807
000290 53 ff ea be 5e 5b a0 bd 88 53 62 bf af 18 57 3e
       -0.45897922 -0.07829927 -0.8840871 0.2100551
0002a0 d5 45 37 3e 05 02 94 3e 4a 69 b5 bd 8c c3 2a 3e
       0.17897733 0.2890779 -0.08857973 0.16676158
0002b0 4c c6 87 bf 74 d2 d7 3e a3 af c5 3d 60 a1 a8 3e
       -1.060739 0.4215275 0.09652641 0.3293562
0002c0 08 22 77 3e 5c 12 d5 3d d5 69 c4 bd bc 56 38 bf
       0.24134076 0.104038924 -0.09590498 -0.72007346
0002d0 88 a3 69 3d 44 0b 08 3e ed a3 a7 3e 87 a9 c4 3d
       0.05704072 0.13285547 0.32742253 0.09602647
0002e0 8f d7 ec bd 8f 68 9c be 64 bb bc bd 1a 56 24 be
       -0.11564552 -0.30548522 -0.092154294 -0.1604847
0002f0 db 70 b6 3e ad a9 2e 3e d6 fe 25 bf 39 48 c4 bc
       0.35632977 0.17056914 -0.64841974 -0.02396022
000300 37 1b 90 3d 73 7b 0f be 52 3e 76 3d 7b f2 67 3a
       0.07036441 -0.14011936 0.060118027 0.0008848083
000310 7c db 82 3e 92 58 07 be f5 6a c2 bc f8 2e 1a 3e
       0.25558078 -0.1321738 -0.023732642 0.1505698
000320 51 19 4c be bc 85 19 bd e2 cd 78 3e af f3 22 3e
       -0.19931532 -0.037481055 0.24297288 0.1591327
000330 8c f9 a0 3e a8 46 48 bf d0 d3 bb 3d 4f ee 99 be
       0.3144039 -0.7823281 0.091712594 -0.30064628
000340 2b 8b 20 be a3 4d 22 bf a0 09 35 3c 36 77 83 bd
       -0.15678088 -0.63399714 0.011049658 -0.06419222
000350 6e 71 34 bb 8f 2b a7 3e 13 25 86 3e f3 26 22 bc
       -0.002753343 0.3265042 0.2620016 -0.0098969815
000360 81 fd 01 3d fa 40 63 be 2a 56 18 3e a7 09 ea be
       0.0317359 -0.22192755 0.14876619 -0.4571049
000370 d3 84 fb 3d 8f 0e d2 bd 2f 3f 97 3e 4c 50 7e bc
       0.122811936 -0.10256683 0.29540393 -0.015522074
000380 23 17 07 bd 5c df e1 3d 5b 42 2c 3d 84 08 5e bf
       -0.03298105 0.110289305 0.04205547 -0.86731744
000390 86 82 d2 3e 46 ff af 3c f5 cd 04 3e 9f 1d f5 be
       0.41115206 0.021484029 0.12969191 -0.47874162
0003a0 52 3e 8b 3c 79 c2 06 3e 70 fe 0d bc 5e 2d ff bd
       0.01699749 0.13160123 -0.00866662 -0.12459825
0003b0 ac f4 06 3e e3 3f 39 3c f1 e1 1a 3d 75 ba 97 be
       0.13179272 0.011306736 0.03781313 -0.29634443
0003c0 ca 83 15 be 70 ba 21 3e aa 8b fa 3d 89 fc f6 bd
       -0.14601055 0.15793777 0.1223367 -0.12059886
0003d0 76 39 f7 3d 43 27 48 bf d0 d3 96 be 63 36 f1 3d
       0.12071507 -0.7818491 -0.29458475 0.117779516
0003e0 19 6c 5f 3e de 9d 91 3e 0e 20 cd bd c0 8a ac 3d
       0.2181858 0.28440756 -0.100158796 0.08424902
0003f0 75 1d 0f 3e e2 73 e3 bc 2e 80 a5 be 28 d3 ab bd
       0.1397608 -0.027765218 -0.32324356 -0.08389884

actor.2.bias f4 [32]
000000 eb eb 27 3e 20 45 c9 bc db 88 97 be 7f 86 b3 3d
       0.1639859 -0.024569094 -0.295966 0.087658875
000010 ae a7 e1 bb 76 65 a6 3d 70 b5 74 3e d2 79 86 3d
       -0.006886444 0.08124821 0.23897338 0.06566204
000020 ab 6d dc 3d 74 8b 3d bb c9 4b 6c 3e a6 12 82 be
       0.10763105 -0.0028922232 0.23075785 -0.25404853
000030 86 99 b0 3d b4 6a 8f 3e 19 d7 6f be e7 61 b3 bd
       0.08623032 0.28011096 -0.23421897 -0.08758908
000040 1b bb b6 bd 49 e3 06 bc 2a ba 28 3c 4b 34 3d be
       -0.08922406 -0.0082329 0.010298291 -0.1847698
000050 3e 0c bb 3d 1b dc 47 bc c6 42 9b bc 51 31 8f be
       0.091331944 -0.012198473 -0.018952738 -0.27967313
000060 cc de fd bd 88 d0 1a 3e 1c af 2b be 67 24 d4 bb
       -0.12396011 0.15118611 -0.16766018 -0.006474066
000070 b3 87 75 bc 00 93 94 be 01 2c 38 3e 09 dc 69 3c
       -0.0149859665 -0.29018402 0.17985536 0.014273652

actor.4.weight f4 [2, 32]
000000 ea eb ae 3e ca 09 06 be 33 c7 57 be 7e ca 2b bf
       0.34164363 -0.13089672 -0.21072082 -0.67105854
000010 ae 96 99 3d 50 22 ae be 6e 82 29 3e 42 13 b2 3d
       0.07499443 -0.34010553 0.16553661 0.086950794
000020 d2 41 a0 be 46 06 f8 bc aa e2 16 bf 00 e5 60 be
       -0.31300217 -0.030276429 -0.5893961 -0.21962357
000030 df 25 f6 3e 1f a3 bb be f7 11 93 bd 8b 52 59 be
       0.48075768 -0.3664789 -0.07181161 -0.21222894
000040 cf aa 22 3e 3e 86 24 bf 77 50 ed bc c6 73 9a be
       0.15885471 -0.6426734 -0.028969033 -0.30166453
000050 7f 0a 68 3e e5 dd 0c 3f 45 5f 30 be 2d 6d b6 3e
       0.22660254 0.55026084 -0.17223842 0.3563017
000060 b2 fc 2e 3e bd 55 b9 3e cc 24 4c 3d e5 0a bb bc
       0.17088583 0.36198226 0.04983978 -0.022832343
000070 de 08 b0 bd f3 f0 dd be 5a 59 e3 3d 1d 91 ed 3e
       -0.08595441 -0.43347892 0.11101027 0.46399775
000080 c8 38 03 bf 90 90 a1 3e 40 cf 01 3f 78 39 b6 be
       -0.51258516 0.31555605 0.50706863 -0.3559072
000090 ef 03 14 3f 14 5d 2f bf 06 f2 07 bf 4a 46 0f 3f
       0.578185 -0.685014 -0.53103673 0.5596663
0000a0 b5 17 d0 be f3 a9 0e 3f 18 1d c1 be 58 d5 2c bf
       -0.40643087 0.5572807 -0.3771751 -0.67513037
0000b0 06 f7 54 3e 6e 3e d4 3d 87 aa 4d 3e 0a f7 01 3f
       0.20797357 0.1036347 0.20084582 0.50767577
0000c0 b0 6c d3 be d5 2e 3e 3f 91 e7 25 be 9c fa 10 3f
       -0.4129386 0.7429021 -0.16201617 0.566324
0000d0 8d 05 d1 3c fb 0e ef 3e 66 dd a2 be 2d 5f 21 3f
       0.025515342 0.46691117 -0.3180954 0.6303585
0000e0 94 8f dd 3d 46 80 30 bf 44 e6 df 3e 7c ff a3 be
       0.10818401 -0.6894573 0.43730366 -0.32030857
0000f0 82 8c d3 3e 87 15 4d be 62 3b 16 bf a2 6a 9f be
       0.41318136 -0.20027743 -0.5868436 -0.31136042

actor.4.bias f4 [2]
000000 d9 65 a2 3d bd 92 ac be
       0.07929582 -0.33705702
