results/SandingEnvEasy/ddpg/model/model_parameters_2.pt (torch, 30338 bytes, 22 tensors)

value.0.weight f4 [32, 8]
00000000: 035a ab3d cf0a f3bd c64f d93d ec16 10be
00000010: 73bc 1a3e 2a1e aebd 7269 26c0 ea73 91bf
00000020: f805 45be 10e9 1c3e c656 393d 6042 ba3c
00000030: 292b 53be 10c2 59bc e29b 763f 3c6c 1fbe
00000040: 6578 313d c947 c13d f8dd 1cbe 9505 81bd
00000050: d430 8abe 7aba 8d3d 8320 193e 58e7 8f3e
00000060: 3238 0cbe b239 ea3b 43fa 15bc db69 e4bd
00000070: 3d91 863e bb06 8b3e 5678 ca3d 79f3 a83f
00000080: ab4b 903d d931 9bbe caa8 303e 63c6 833d
00000090: 4742 a23e 3a18 633e ad49 5ebf da09 5f3f
000000a0: ff9c 1dbd a791 3bbd c554 423d cf05 a0bd
000000b0: 3675 8abe 731b 2f3e 5d3c ac3f 2118 d8be
000000c0: d5b3 ecbd 9909 f1bd 006a 93bd 1cb4 87bd
000000d0: 33f1 af3e c7ab 9cbe f58b 063e 66c8 2dbf
000000e0: b3e8 fd3d 5ec3 283b 101f 75be 8c76 d03c
000000f0: d618 48be 115c 263d 5897 45bf 6c4c 023f
00000100: f103 48be 3e8a f53d f163 07bd a3f4 1d3e
00000110: f57c a63e e279 223e f659 82bf c91b e43e
00000120: a775 44be 5b06 50be c017 7fbe e624 083d
00000130: e7ae 64be c1d5 9d3e 3b45 bf3e b652 883f
00000140: 6831 82bd 6932 1d3e 3e6f 8dbd 86e7 12be
00000150: 6d97 033d c7e6 583e 0261 c0bf a9cc 7a3f
00000160: 1c0f 8fbe 4bcb a3bd c9f1 40be daa0 843e
00000170: f550 993e 433e 913e 8c70 6f3f 42be 633f
00000180: 7428 e63d 53d8 80bd 6891 1d3e c0e1 b6bc
00000190: 97a4 a73c aef3 70be 2d0d 9cbe 7238 363f
000001a0: 3b6d 23be cb8c 93bd 70dd 1bbe af44 42be
000001b0: cebb 513e 538a b83d 5a5d 87bf dcf7 93bf
000001c0: a4f3 c8bc 1779 83bd f020 82be 9056 ac3d
000001d0: 5571 04be e470 c0bd 35ce a13d b1d5 00be
000001e0: 94ef 19be 34c5 5f3e c8b9 3abe 80dd 163e
000001f0: d17f 8f3e 109b 2a3e b49f 5abf 1d14 623f
00000200: 41c1 a43b e262 32be b85c d5bd e276 bebd
00000210: 05a7 973e 440b 0e3e 16cb 373f be18 4f3c
00000220: 0a41 26bd a39c 3abe 17ff d3bd 8099 b33d
00000230: b62c bcbd 8ca6 edbd 4825 1dbe 8725 9dbd
00000240: dd87 6abe eb6b 69be 9f59 1ebe c120 3dbe
00000250: 6f90 b23e 5696 d53e 52b6 12be 150c d73e
00000260: 5cb5 89be 6df9 9cbd f594 533e 0beb 9d3d
00000270: 0f51 df3d 8c40 2e3c 1d59 9dbf f479 0cbf
00000280: 57ff d73d 04e0 b6bd 91c8 0a3d 7d9a 723c
00000290: 8c68 64bd cc21 0a3d f338 1140 d4c6 12c0
000002a0: a608 60bd 051d 603e 20fb 53be d833 283e
000002b0: 02ba 6b3e feb8 7e3e ed73 e13e 1095 b2bf
000002c0: 4506 c7bc 9585 a63c a5b0 96be cf3d 66be
000002d0: 5497 00be 2aa5 8ebe d4e3 1d3e 4434 d93c
000002e0: 0534 babc 34f3 95be 44f6 ccbd 8333 8e3e
000002f0: b404 db3e c660 f2bd 39fa e4bf d070 13be
00000300: ef51 2c3c 8180 16bd 624d 13be 1fc5 8d3e
00000310: dc0d 933e 02fb fbbd b32c 263f 7071 b5be
00000320: ffc7 1bbd bbb6 fbbd 7ad3 24be ac80 843e
00000330: 4b18 3fbe 4e77 4cbc f75e 0bbe b0ba cbbd
00000340: fb17 58bb 2b2d 36be a5d2 b13b 889e 72be
00000350: 2b7e 0cbc 6480 65be b807 ac3e c2d4 093d
00000360: ad00 543d 366e 4dbe 3556 96be 0c90 8f3e
00000370: 95fc c3bd a18a 43be be20 0abf 2f58 373e
00000380: 68e6 2fbd 04c7 5c3c 6655 413e 1d9e 7c3e
00000390: 55a6 18be 0877 003e a375 ccbe 3d6e 8b3f
000003a0: 4fc8 9cbd fbcd c5bd 7a1c 6abe c92a 67be
000003b0: 23c1 9e3e 8654 10be 9428 ac3d 5e73 75be
000003c0: 0fa9 873e 06b5 583d 134e 0abe 46fc 233e
000003d0: 65d9 5cbe 7696 8e3d faf7 2fbe 0667 80bd
000003e0: c74f 123e 574d 0e3e a9f5 243e 793d 59be
000003f0: 0817 113e 35a8 36bd fc27 a73e 2c0e 8b3e
0.08366778 -0.11867296 0.10610919 -0.14071244 0.1511095 -0.08501847 -2.6001859 -1.1363499
-0.19240558 0.15323281 0.04524877 0.022736728 -0.20621933 -0.013290897 0.9633161 -0.15568632
0.043327708 0.0943752 -0.1531905 -0.06299893 -0.26990378 0.06920333 0.14953808 0.2810619
-0.13693312 0.007147991 -0.009153905 -0.11153003 0.26282683 0.27153572 0.098862335 1.3199302
0.070456825 -0.30311468 0.17251888 0.06434324 0.3169119 0.2217721 -0.8683117 0.8712441
-0.0384798 -0.0457932 0.047444124 -0.07813608 -0.2704255 0.17100315 1.3455921 -0.4220591
-0.11557738 -0.11769409 -0.07197952 -0.0662615 0.34363708 -0.30599806 0.13139327 -0.6788391
0.123978995 0.0025751214 -0.2393763 0.025447153 -0.19540724 0.040615145 -0.7718406 0.5089786
-0.19532754 0.11989258 -0.033054296 0.15425353 0.3251721 0.15866807 -1.0183704 0.44552448
-0.19185506 -0.20314924 -0.24911404 0.033238314 -0.22332345 0.30827144 0.37357506 1.0650241
-0.0635708 0.15351261 -0.069059834 -0.14346132 0.032126833 0.21181785 -1.5029604 0.97968537
-0.27941215 -0.079977594 -0.18842234 0.2590397 0.29944578 0.28367814 0.9353111 0.88962185
0.112381846 -0.062912606 0.153875 -0.022324443 0.020464225 -0.23530456 -0.30478802 0.7117988
-0.15959637 -0.072045885 -0.1522119 -0.18971513 0.20481798 0.09010758 -1.0575364 -1.1560016
-0.02453024 -0.064195804 -0.25415754 0.08414948 -0.12933858 -0.09396532 0.07900659 -0.12581517
-0.15032798 0.21852571 -0.18234932 0.14732933 0.28027204 0.16660714 -0.8539994 0.8831194
0.0050279205 -0.17420533 -0.10418075 -0.09300019 0.29619613 0.13871485 0.7179426 0.012640176
-0.04058937 -0.18223815 -0.10351389 0.08769512 -0.091882154 -0.11604032 -0.15346253 -0.076731734
-0.2290339 -0.22795074 -0.15463875 -0.18469526 0.3487582 0.4171626 -0.14327362 0.42001405
-0.2689618 -0.07664762 0.20662291 0.077108465 0.109041326 0.010635506 -1.229282 -0.54873586
0.10546749 -0.08929446 0.03388268 0.014807341 -0.055763766 0.033723637 2.269101 -2.2933855
-0.054695748 0.2188607 -0.20701265 0.16426027 0.23020175 0.24875256 0.44033757 -1.395174
-0.024294982 0.020327369 -0.29431644 -0.22484516 -0.12557727 -0.27860385 0.15418941 0.02651418
-0.022729883 -0.29287112 -0.10007909 0.27773675 0.42777026 -0.11834864 -1.7888862 -0.14398503
0.010517581 -0.036743645 -0.14384988 0.27689454 0.2872151 -0.12303735 0.64911956 -0.35438108
-0.038032528 -0.122907124 -0.16096297 0.2587942 -0.18661611 -0.012479616 -0.13610445 -0.09947717
-0.0032973278 -0.17790668 0.005426722 -0.23693287 -0.008575003 -0.22412258 0.3359964 0.033650167
0.051758457 -0.20061573 -0.29362646 0.28039587 -0.095696606 -0.19095851 -0.5395621 0.17904733
-0.042944342 0.013475183 0.18880233 0.2466969 -0.149072 0.12545407 -0.399335 1.0893017
-0.07655393 -0.09658428 -0.22862425 -0.22574915 0.31006727 -0.14094743 0.08406177 -0.2396979
0.2649617 0.052907012 -0.13506345 0.16014203 -0.21567304 0.06962292 -0.1718444 -0.0626965
0.14288245 0.1389669 0.16109337 -0.21214856 0.14168942 -0.04459401 0.32647693 0.2715925

value.0.bias f4 [32]
00000000: e4f5 a53e 6834 18bf cd3b 773c d809 e5bd
00000010: b4fe 6cbe 080a 6bbe 41c9 b2bd 37f8 97be
00000020: f8c1 ea3e 1a54 0fbd 71e2 83bc 6916 edbe
00000030: b090 3abf 7ce0 6d3e d63f c5bd 3951 e33e
00000040: 6010 a3bd ae52 f8be ab14 ecbe 3731 e13e
00000050: 06e3 d7bd 39ac 54bf c6b5 02bf f3ac 033e
00000060: eca6 d1be 6941 20bd 7e5c 203f baca 4e3e
00000070: 65a1 09be 1dba fa3d 2d00 c7bd 736c 76be
0.32414162 -0.59454966 0.015089941 -0.11183518 -0.23144037 -0.22953045 -0.087297924 -0.2968156
0.4585111 -0.034992315 -0.016099187 -0.4630616 -0.72877026 0.23230165 -0.09631316 0.44397905
-0.07962108 -0.4850058 -0.46109518 0.4398286 -0.10541348 -0.8307529 -0.51058614 0.12858944
-0.40947664 -0.03912488 0.6264113 0.20194522 -0.13440473 0.122425295 -0.097168304 -0.24064808

value.2.weight f4 [32, 32]
00000000: ebf8 8cbd d587 1abd 9cfe afbe 14a9 cdbe
00000010: 7041 cd3d 1a32 9abe 1bd5 11bc 7e81 06be
00000020: d588 6fbc a205 5e3d f822 d7bd 4a17 2bbd
00000030: dad9 2d3d bd96 1ebf 8bd7 2b3e 47be cabd
00000040: 8efa 7c3e ebac 86be 5dae 1abf 0940 7e3e
00000050: ecae 32be 4dd8 893e e047 063e 7f49 56be
00000060: 6d04 aa3d edb3 063d 8ef0 463d 6011 85bd
00000070: 255e c3bd 4a72 45bf 0970 933d ae51 a6bc
00000080: 2f76 8d3d c99c 4fbe f311 1fbd f63c 1abe
00000090: 4d68 b83d a787 eabc 75ed 353e 045c d63d
000000a0: 25ba e3bd 1965 043e 1f80 89be 1e8b 0b3e
000000b0: 8c74 95be cfbe 24be 1144 44bc 5e83 f73d
000000c0: 9da5 98be f91a 40be 5a1f 7b3d ae6a d63d
000000d0: 8e9d 83be e729 373e f8f4 a3be 7816 11be
000000e0: a1c5 60bd fbbe 8e3d 47b5 85be 79d4 2cbe
000000f0: 3174 0c3d 3e61 1b3e 2aff e2bd f13f 323e
00000100: 0bc5 6a3c 656a bc3b 5d9e 973d a607 d2bd
00000110: 6a07 f2be 8291 cf3d 7c46 cc3c 91d3 a5bc
00000120: 66b5 c6be 76f1 bd3d fbd4 24bd 0518 153e
00000130: 8ada 4dbe 7619 bd3d e17c 083e b4f8 2d3c
00000140: 124c 12bd 9157 043e f973 74bd 8213 5cc0
00000150: 3785 343d 6539 bebc eac1 043e 9a1f 5bbe
00000160: 8205 14be 3c86 39be 4ecf 29be fc26 4cbe
00000170: 2776 1dbe c4e6 3a3e 9d9f 563e 3b43 6bbd
00000180: 6ef5 d43d a09e 89be cc5f adbd e665 14be
00000190: 798e a43d 0872 04be 3cf6 28be d078 5f3e
000001a0: 5153 00bf 32eb 0b3e 74a7 823c 56f1 7fbd
000001b0: a523 cabd 3110 8fbd 3c99 eebd 24bd 6bbe
000001c0: 4b86 0c3e da68 acbd 5864 94bd 996e babf
000001d0: 276d 52bc e17b 51bc 9a85 e93d b7d7 533d
000001e0: 4327 8d3d 1c04 ae3d 091f 8dbd e8da c33d
000001f0: db59 16be a2c2 1a3e 63f4 773d d363 79bd
00000200: 6bcf 4a3f 6c08 c83d 8045 e23d a4ef 9dbc
00000210: a682 7cbf 6a83 9bbd 4c37 87be 1276 27bd
00000220: 6925 5abd 753e 023a 144e 3e3e 66fb 7ebc
00000230: dbee 963d d089 42bd 369b 3b3e 5414 3e3e
00000240: 872e e23d 02f4 8bbe eb87 94bd 4729 a2bd
00000250: 6ac7 43bf 078d 87bc d4f3 dd3c f442 813e
00000260: 3efe edbe aff3 203d c4d2 f6bd 2cff 09be
00000270: 239c 943d 8063 c53c 955e e7bd bda9 9ebd
00000280: 7f69 f8bd 5e66 aebd 49db 103e 7fe2 bdbd
00000290: 128b 063e 0799 1ebe 7e20 23be 8b98 2bbe
000002a0: deb3 26be 2b4b 0bbe b9b8 40be b31e 113c
000002b0: 1c18 45be 12c8 94bd 2e4f 0a3e f533 15be
000002c0: 56b5 073e 36ac 04be 2cc8 17be 6f34 013e
000002d0: 8244 c23d 303c febd 2f9c a6bc 75db eabd
000002e0: a022 213e b2e1 67bd 7eaa 823b 960c 8c3d
000002f0: ac4a c4bd ae66 19be 8cb5 10be 6a21 903c
00000300: 8bbe 153e 205a 423e a42d 833d b3c7 11ba
00000310: c01f 403e 49b3 7bbe d7cc 7abd b3fd c9bc
00000320: 255f 2dbd 7b39 0b3e 7cfb e0bd 03ff d2bd
00000330: ed24 0fbd b22b b63a 5014 10bd 38a8 b3bd
00000340: 1fc1 113e 03d7 cebd 1389 68bd 3786 4c3d
00000350: cc0b f6bd 8230 9d3c 3169 78bd 79e8 0d3d
00000360: 5073 8dbc 9232 20bd 7503 e93c 7fab 6a3d
00000370: c2a6 c1bc 234e 32bd 823d e33c 60bb 63be
00000380: 8dc8 c8bd e07d 9ebd e142 273e 0a10 fe3c
00000390: 1cd6 ecbd be9e 29be 37d6 0c3e de12 033e
000003a0: ccc2 163e fac6 003e 97e5 e7bd 5854 aebc
000003b0: d509 b1bc e623 2fbc 1cbf 69bd e5b6 0e3e
000003c0: f691 a23d 2ce4 dd3c ccf3 cc3d 9a7d 82bd
000003d0: 54ae 06be 3641 123d 994d bfbd c51b e9bd
000003e0: 1652 24be 5bb1 9abd 1453 203e 4db8 433e
000003f0: 74dc 6b3e c362 45bc ec17 e2bd 30ca f2bc
-0.06883415 -0.037727196 -0.3437394 -0.4016806 0.10022247 -0.3011635 -0.008900906 -0.13135335
-0.014620026 0.05420459 -0.10504717 -0.041770257 0.042444088 -0.6194876 0.16781442 -0.09899574
0.24704954 -0.263038 -0.6042231 0.24829115 -0.1744954 0.26922837 0.13113356 -0.20926474
0.083016254 0.032886434 0.048569255 -0.06497455 -0.09539441 -0.77127516 0.071991034 -0.02030262
0.06907307 -0.20274653 -0.038835477 -0.15062317 0.09004269 -0.028629137 0.17766364 0.10466769
-0.111194886 0.1292919 -0.2685556 0.13627288 -0.2919048 -0.16088413 -0.011979119 0.12085603
-0.29813853 -0.18760289 0.061309196 0.10469566 -0.25706142 0.17887078 -0.32022834 -0.14168727
-0.054875974 0.069700204 -0.26114866 -0.16877927 0.034290496 0.15173814 -0.11083825 0.17407204
0.014329205 0.005749988 0.07403252 -0.10255365 -0.4727128 0.10135175 0.024935953 -0.020242484
-0.3881027 0.09274571 -0.040242177 0.14559944 -0.20102897 0.09233372 0.13328888 0.0106183775
-0.035717078 0.12924029 -0.059680913 -3.4386907 0.044072356 -0.023220727 0.12964597 -0.21398774
-0.14455226 -0.18117613 -0.16582987 -0.19936746 -0.15377103 0.18252093 0.20959325 -0.057437163
0.103983745 -0.26878834 -0.084655374 -0.14491996 0.08034987 -0.12934124 -0.16500181 0.2182343
-0.5012713 0.13663939 0.015948988 -0.062486015 -0.0987008 -0.0698551 -0.11650321 -0.2302137
0.13723104 -0.08418436 -0.072457016 -1.4565002 -0.012843407 -0.012785883 0.114024356 0.051719394
0.06892254 0.084968776 -0.06890685 0.095632374 -0.14682715 0.15113309 0.0605358 -0.060886215
0.79222745 0.09767231 0.11048412 -0.019279309 -0.98636854 -0.075934246 -0.26409376 -0.040884085
-0.053258333 0.0004968413 0.18584472 -0.015562868 0.07369777 -0.04749471 0.18320927 0.18562442
0.11044031 -0.273346 -0.07252487 -0.07918029 -0.76476157 -0.01654674 0.027093805 0.25246394
-0.46483034 0.039294895 -0.12051919 -0.13476247 0.07256343 0.024095297 -0.11297337 -0.07747219
-0.12129497 -0.08515619 0.1414615 -0.09271716 0.13138989 -0.15488063 -0.15930364 -0.1675741
-0.16279551 -0.13602893 -0.18820466 0.008857417 -0.19247478 -0.07264723 0.13506767 -0.14570601
0.13252768 -0.12956318 -0.14822453 0.12617658 0.09485723 -0.124138236 -0.020338146 -0.11467639
0.15735865 -0.056611724 0.0039876094 0.06838338 -0.09584555 -0.14980575 -0.14131755 0.017594058
0.14623468 0.18979692 0.0640519 -0.00055610685 0.18762112 -0.2458011 -0.061230507 -0.024657106
-0.042327065 0.13596146 -0.10985467 -0.10302546 -0.034947325 0.001389852 -0.03517562 -0.087723196
0.14233826 -0.10099604 -0.05677135 0.049932685 -0.12013969 0.01918817 -0.060647193 0.03464553
-0.0172669 -0.039110728 0.028444031 0.057292458 -0.023639087 -0.04353155 0.02773929 -0.22239447
-0.09803877 -0.077388525 0.16334106 0.031013507 -0.115642756 -0.16564462 0.13753591 0.12800166
0.14722747 0.12575904 -0.11323088 -0.021280453 -0.021611134 -0.010689711 -0.05706702 0.13936956
0.07937996 0.02708634 0.10007438 -0.06371613 -0.13152438 0.03570672 -0.093409725 -0.1138225
-0.16046938 -0.07553359 0.15656692 0.19113274 0.23033315 -0.012047472 -0.11039719 -0.029637426

value.2.bias f4 [32]
00000000: 0e6c 1fbe 8e19 a23e fd73 1d3e c5d5 5a3b
00000010: 1611 05be d9b6 15be 0932 873d 38e1 2abd
00000020: 9ac3 14be ea5f 5abe 785b 4a3e 77aa 9d3d
00000030: b9b6 83be 4967 bfbd 088f 853e df0f 8ebe
00000040: 9871 23be af89 263d 69b4 7e3c cbe2 c83d
00000050: bd5e 363c 79db d73c 3515 98bb 5935 9b3e
00000060: 00f5 a7bd 6b39 ccbd b71b 153e e466 2b3e
00000070: 0da3 cebd 177e b1be e47f 21be 4587 8d3e
-0.15568563 0.31660122 0.15376277 0.0033391577 -0.12994799 -0.14620532 0.0660134 -0.04171869
-0.14527741 -0.21325651 0.19761455 0.07698529 -0.25725344 -0.09345872 0.26085687 -0.27746484
-0.15961301 0.04065865 0.015545943 0.09808882 0.011130986 0.02634977 -0.0046412 0.3031414
-0.08201027 -0.09971889 0.14561354 0.16738468 -0.10089693 -0.3466651 -0.15771443 0.27642265

value.4.weight f4 [1, 32]
00000000: 8c60 b6be c6ae da3d 1e88 a8bd 4053 75bd
00000010: 1a84 67bd fa13 0cbc 3bb6 6cbd 7723 f0bc
00000020: 824d 23be 2451 0e3e c140 203d c744 8bbd
00000030: e332 c2bd 0bf4 ddbc 228f d03d 3745 81bd
00000040: 3f39 d1bd 7653 aa3d dc8d 9a3d 0845 4a3d
00000050: 643f b0bd c524 8e3d deee c0bc ce6d 793d
00000060: 6119 c7bb c932 893d 8268 983d fbda 043e
00000070: 1ef6 863d b10f 58bd 73d0 02be 968e 613d
-0.35620534 0.10677867 -0.08229087 -0.059893847 -0.056522466 -0.008549685 -0.057790976 -0.029313786
-0.15947536 0.1389814 0.039124254 -0.068002276 -0.09482362 -0.027093908 0.101835504 -0.0631203
-0.10215997 0.083167 0.07546589 0.04938224 -0.08605841 0.06940607 -0.0235514 0.060895734
-0.0060760234 0.066991396 0.07441808 0.1297416 0.06589912 -0.05274934 -0.1277483 0.05506762

value.0.weight f4 [32, 8]
00000000: dac9 ae3d 5fd6 f4bd bcc1 d73d 4819 11be
00000010: 613c 1c3e 571e abbd f610 26c0 9803 91bf
00000020: cdb6 44be b5c2 1c3e 47e5 363d c886 c63c
00000030: 6bc5 51be 8766 43bc bc47 763f 8116 1ebe
00000040: 1b7a 343d 21d3 c43d d04b 1cbe 1d37 7fbd
00000050: 7572 8abe 0db4 8c3d 7c2e 1b3e bb3d 903e
00000060: f4be 0bbe d5c9 e83b c2c6 1ebc 0ef8 e5bd
00000070: 3d91 863e bb06 8b3e 52cd cb3d 687a a83f
00000080: c9bc 8e3d f0d4 9abe 49e7 303e f90c 883d
00000090: 4742 a23e 3a18 633e ee11 5dbf 4757 5f3f
000000a0: e3c6 21bd ba02 3bbd ce12 443d 44ab a0bd
000000b0: 2e5d 8abe 864b 2f3e cff5 ab3f 384c d7be
000000c0: cda2 ecbd 6d0b f1bd f379 92bd dc3b 87bd
000000d0: 02e3 af3e f8b9 9cbe 2ad3 083e c45e 2ebf
000000e0: 3a5c ff3d 0aa8 133b fa53 76be 15f0 da3c
000000f0: fecb 47be 628f 273d 726e 45bf 881c 023f
00000100: 7029 48be 7dbf f23d e576 0cbd 5c18 1f3e
00000110: f57c a63e e279 223e fe1d 82bf ea4b e33e
00000120: 56d4 43be f3a1 50be 9b5d 7fbe 34bf 083d
00000130: 73e0 66be 05bd 9c3e e312 be3e 7346 883f
00000140: 012b 80bd 714f 1e3e b813 8ebd 85a7 11be
00000150: 9a44 f13c 8129 563e d288 c0bf caa4 7a3f
00000160: 8be2 8ebe 04b9 a3bd 70bf 40be c3eb 833e
00000170: f550 993e 433e 913e 61f7 6e3f 0170 633f
00000180: 4191 e93d 1293 83bd 6f23 1c3e 83de a6bc
00000190: 8a72 9f3c e9f9 71be 8023 9cbe 7112 363f
000001a0: e804 24be 3f89 92bd cb6f 1cbe 3531 41be
000001b0: a3d1 523e f7b5 ba3d 5f0d 87bf c2d7 93bf
000001c0: eaf7 bbbc cc50 80bd b433 82be 5dda ac3d
000001d0: 7c5d 04be 3949 c0bd 5439 a73d 4d2f 02be
000001e0: 4314 19be f412 623e 51de 3abe 1226 173e
000001f0: 6d7f 8f3e ac9a 2a3e 7b86 59bf 0b46 623f
00000200: d902 a73b 7eda 33be 2075 d4bd 32c6 bfbd
00000210: 05a7 973e 440b 0e3e 2354 373f 872e 8a3c
00000220: d6cf 29bd 0b04 3abe 7503 d5bd 5320 b53d
00000230: 9941 bbbd 6fbb ecbd 1ad4 1dbe a3e7 a0bd
00000240: 8fbb 6bbe 7db7 68be bd15 1ebe 4e34 3cbe
00000250: 0b90 b23e f295 d53e 26cc 11be 6f05 d73e
00000260: c965 8abe 10ba 9bbd 2085 533e be44 a23d
00000270: 06fc df3d 3998 333c df61 9dbf 9ed1 0cbf
00000280: c5b8 d43d bdcb b4bd 4237 063d e3b8 7b3c
00000290: ab5b 65bd ad2e 093d 4c43 1140 b6a5 12c0
000002a0: 41be 6cbd 42d5 5e3e 47e2 53be e525 273e
000002b0: 02ba 6b3e feb8 7e3e 47b6 e03e caa4 b2bf
000002c0: 59a8 c0bc ea6c ae3c f8e6 96be 11e1 65be
000002d0: 284c 00be 917f 8ebe a279 203e bce6 e03c
000002e0: de2c babc 05c8 95be 87d7 cebd 68fc 8e3e
000002f0: 098c da3e 6e43 f4bd 6712 e5bf 633d 0fbe
00000300: 0b94 243c ed85 15bd 8d2b 12be 4968 8d3e
00000310: 9157 933e 22d4 fabd d6bb 263f 1101 b5be
00000320: 687b 23bd 2589 fcbd a53f 24be 8cfa 833e
00000330: 7a8c 3fbe acba 53bc 844a 0abe 9125 c1bd
00000340: 5a8d 80bb 55c8 36be db1a b93b bfb5 72be
00000350: 5e0e 0cbc 6979 65be ebc3 ab3e 2810 133d
00000360: 7918 583d 112d 4ebe cd39 95be ad6f 8f3e
00000370: 0b75 c4bd dfc6 43be 1331 0bbf d788 3b3e
00000380: 2ec0 27bd edb1 743c 7176 413e 03d2 7c3e
00000390: 92c1 19be 88b7 fe3d 7dde cabe 6b50 8b3f
000003a0: 43f9 9fbd 9d91 c3bd 1f57 6abe 6cdb 66be
000003b0: 2443 9f3e 7e50 0fbe d94a ad3d cff6 73be
000003c0: c7ac 873e 8e40 593d 3b98 07be bc77 223e
000003d0: d558 5bbe 8f97 913d 0aeb 30be d146 8abd
000003e0: e72d 123e 5daf 0e3e 06a0 243e 3a59 59be
000003f0: d5bb 123e fa14 30bd b652 a73e de7c 8b3e
0.08534594 -0.119549505 0.10534999 -0.141698 0.15257408 -0.08355396 -2.5947852 -1.1329222
-0.19210358 0.1530865 0.04465225 0.02423419 -0.20485465 -0.0119263 0.9620321 -0.15438272
0.04406176 0.09610582 -0.15263295 -0.06230842 -0.2704045 0.068702795 0.15154451 0.28172097
-0.13647062 0.0071041384 -0.009690942 -0.11228953 0.26282683 0.27153572 0.09951271 1.3162355
0.06969602 -0.30240583 0.17275728 0.06643099 0.3169119 0.2217721 -0.86355484 0.8724255
-0.039496314 -0.045656897 0.047869496 -0.07845166 -0.27024215 0.17118654 1.343439 -0.42050338
-0.11554489 -0.117697574 -0.07152166 -0.06603214 0.3435288 -0.30610633 0.13361803 -0.6811335
0.12468763 0.002253058 -0.24055472 0.026725808 -0.1951141 0.040908225 -0.7712165 0.50824785
-0.19547057 0.1185293 -0.034293074 0.15536636 0.3251721 0.15866807 -1.0165403 0.44393855
-0.19123968 -0.20374279 -0.24938051 0.03338547 -0.22546558 0.3061296 0.37123784 1.0646499
-0.06258202 0.15459992 -0.06937355 -0.1422406 0.029451657 0.2091427 -1.5041754 0.979077
-0.27907214 -0.07994273 -0.18823028 0.2576581 0.29944578 0.28367814 0.9334622 0.8884278
0.11404658 -0.06424536 0.15247892 -0.020369774 0.019463796 -0.2363049 -0.30495834 0.7112189
-0.16017497 -0.07155084 -0.1527702 -0.18866427 0.20587783 0.09116738 -1.0550956 -1.1550219
-0.022945363 -0.06265411 -0.2543007 0.08440087 -0.12926286 -0.09388966 0.08165231 -0.12713356
-0.14949135 0.22077543 -0.1824887 0.14760616 0.28026906 0.16660565 -0.84970826 0.8838813
0.005096775 -0.17563817 -0.10373902 -0.09363975 0.29619613 0.13871485 0.7161276 0.01686789
-0.041457973 -0.18165605 -0.1040105 0.08844056 -0.09143371 -0.115591876 -0.15412942 -0.07856681
-0.23020767 -0.22726245 -0.1543798 -0.18379328 0.3487552 0.41715962 -0.14238033 0.41996333
-0.2703078 -0.07603848 0.20656252 0.07923268 0.109367415 0.010961586 -1.2295493 -0.5500735
0.103868045 -0.088279225 0.03276754 0.015363905 -0.055995625 0.03349178 2.2697325 -2.2913642
-0.057798628 0.21761039 -0.20691787 0.1632305 0.23020175 0.24875256 0.43889067 -1.395654
-0.023517774 0.021292169 -0.2947309 -0.22449137 -0.12529051 -0.278317 0.15671399 0.027453773
-0.022726472 -0.29254165 -0.10099702 0.27926946 0.42684963 -0.11926924 -1.7896241 -0.13988261
0.010045062 -0.036504675 -0.14274426 0.27618626 0.28777745 -0.122474924 0.65130365 -0.35352376
-0.03991261 -0.12330846 -0.16039903 0.2577709 -0.18705931 -0.012922924 -0.13504988 -0.09430993
-0.0039231004 -0.17849858 0.0056489534 -0.23702143 -0.008548347 -0.22409596 0.3354791 0.03590408
0.052757714 -0.20134379 -0.2914566 0.2801489 -0.09592637 -0.19118832 -0.54371756 0.18313919
-0.04095476 0.014934999 0.18892838 0.24689488 -0.15015247 0.124373496 -0.3962287 1.0883917
-0.07811215 -0.09549258 -0.22884797 -0.2254464 0.31105912 -0.13995549 0.08461542 -0.23824619
0.26499006 0.05304008 -0.13241665 0.15865988 -0.21420605 0.07108986 -0.1727716 -0.067517884
0.14275323 0.13934083 0.16076669 -0.21225443 0.14329465 -0.042988755 0.3268029 0.27243704

value.0.bias f4 [32]
00000000: e01b a83e 8bbc 17bf 3c50 8b3c bd82 e6bd
00000010: d7d4 6dbe cac2 69be 3133 b0bd c7c4 95be
00000020: 46c6 ea3e d1f0 0fbd fe97 7cbc ab22 edbe
00000030: 0bdb 39bf af98 6c3e a37f c1bd 8b93 e43e
00000040: 1107 a2bd 97d1 f7be ff26 ecbe 2c4a e03e
00000050: a1a8 d4bd 7edb 54bf dbdd 01bf 44b3 043e
00000060: 5117 d1be 49e5 25bd 0e80 203f 38c2 4e3e
00000070: b794 07be cfd1 fa3d 2729 c9bd 9066 76be
0.32833767 -0.5927207 0.017006032 -0.11255405 -0.23225723 -0.22828212 -0.08603514 -0.29251692
0.45854396 -0.03514177 -0.015417097 -0.46315512 -0.7259986 0.23105119 -0.09448173 0.44643816
-0.07911504 -0.48402092 -0.46123502 0.4380659 -0.10383726 -0.8314742 -0.5072915 0.1295901
-0.40838102 -0.040501866 0.62695396 0.20191276 -0.13240324 0.12247049 -0.09822302 -0.24062562

value.2.weight f4 [32, 32]
00000000: 2445 85bd b66d 17bd a023 b2be f722 cdbe
00000010: 1e65 d43d 83c5 99be 83da 3ebc f83a 08be
00000020: 2c45 66bc 82ee 5d3d 1668 d6bd 796b 26bd
00000030: 7c2e 383d 79f1 1bbf ad70 2c3e e716 ccbd
00000040: 1f6a 7e3e 0232 87be 39ba 19bf 89c6 7f3e
00000050: feed 31be fd0c 893e 32bb 083e fb04 55be
00000060: 8817 a53d 674a 083d f861 4d3d 878a 87bd
00000070: fbde c2bd edad 44bf be8d 8c3d 70d8 a3bc
00000080: e438 8c3d cdcc 4ebe b080 22bd 21aa 1bbe
00000090: 4988 b53d 6650 f0bc 4491 353e 0bd3 d63d
000000a0: eaa8 e4bd e735 043e b0be 89be 7b55 0b3e
000000b0: 272c 95be 483c 24be cee4 39bc 677b f73d
000000c0: 1d95 99be 619f 40be 38d1 773d 80fa d43d
000000d0: ebf0 82be 1557 373e b8db a3be 5fbd 11be
000000e0: f61c 5ebd b85b 8e3d c557 87be bf94 2cbe
000000f0: 4f5c 0b3d f7ab 1d3e d4c4 e2bd 20f0 313e
00000100: 9666 7a3c c63f a63b 7681 973d 84fa d1bd
00000110: 831c efbe cbd9 d03d 6054 cc3c 6dc8 a4bc
00000120: 4fe7 c6be d257 be3d 57ef 25bd 0263 153e
00000130: 8a77 4dbe 5a14 bd3d 0b8c 083e f879 313c
00000140: 9838 11bd 61bb 043e 400f 74bd c3b5 5bc0
00000150: 6122 3d3d fe36 bdbc efb9 043e 4c2a 5abe
00000160: a256 12be cb14 3abe 6090 29be 2980 4bbe
00000170: d5da 1dbe 4204 3b3e 0651 573e 8a3b 6abd
00000180: 345b d33d d33f 8abe 1d47 aebd 343f 14be
00000190: d441 a53d 5f4b 05be 7e9f 29be fa31 5f3e
000001a0: ab87 00bf 2cfd 0b3e b0d4 7d3c ecee 7fbd
000001b0: 47ad cabd 211d 90bd 710f efbd ea90 6bbe
000001c0: 1662 0c3e 5b15 acbd db8e 94bd b13d babf
000001d0: 6f0e 58bc 2059 54bc d59b e83d 4f1f 533d
000001e0: a9e3 8b3d ac29 ad3d 8fcc 8dbd b96b c33d
000001f0: 14ba 16be 455c 1a3e 6288 753d 3775 7dbd
00000200: 9438 4a3f af27 cb3d 73f9 e13d b529 9dbc
00000210: d1b5 7bbf e70f 99bd cc4f 87be 7d81 27bd
00000220: cdc0 56bd a95d 0e39 f840 3e3e 338e 77bc
00000230: 1717 943d 8566 43bd 617c 3b3e fdb6 3e3e
00000240: 52f4 e23d 3fcd 8bbe 6038 95bd 6c6b a0bd
00000250: 76ee 42bf c7e4 85bc 6b6c dd3c ced8 803e
00000260: 71bb edbe bae7 243d 4685 f6bd 8d7a 0abe
00000270: fa1e 983d 44d5 c53c 5241 e8bd 13cb 9fbd
00000280: 1b69 f8bd fa65 aebd addb 103e 7fe2 bdbd
00000290: 768b 063e a398 1ebe 1a20 23be 2798 2bbe
000002a0: 7ab3 26be c74a 0bbe 55b8 40be 171f 113c
000002b0: b817 45be aec7 94bd 924f 0a3e f533 15be
000002c0: bab5 073e d2ab 04be c8c7 17be d334 013e
000002d0: e644 c23d cc3b febd cb9b a6bc 11db eabd
000002e0: 0423 213e 4ee1 67bd e2aa 823b fa0c 8c3d
000002f0: 484a c4bd 1267 19be f0b5 10be 0621 903c
00000300: 0715 163e fbfa 413e 9487 833d 88e8 eeba
00000310: ad17 413e 0349 7bbe 95f7 7cbd dd8d cbbc
00000320: 90f5 2abd 4ade 0a3e 6b1c e3bd 7584 d1bd
00000330: 83f1 0abd 7739 1839 fb23 10bd ae5f b1bd
00000340: 4316 123e 462e cebd fbd7 6abd a6a4 4c3d
00000350: 14f3 f5bd a339 a63c 95cf 79bd 7d20 103d
00000360: 515b 83bc d2b1 1dbd 08e3 e93c 0a49 6b3d
00000370: b9d9 b6bc 7f6f 38bd c168 de3c d8bc 62be
00000380: f5f4 c7bd 237f 9fbd ed38 273e 8ed1 ff3c
00000390: 6b59 eabd 2ad2 29be c20a 0d3e ef5d 033e
000003a0: b0b8 163e cc0d 013e bd4a e7bd 88a6 abbc
000003b0: 4248 afbc c7e6 2fbc db2d 6abd 0198 0e3e
000003c0: ce0c a33d 3063 e23c 47ba cd3d 5621 81bd
000003d0: c78b 08be be71 133d c24b bfbd 7b4c e7bd
000003e0: 7f30 24be c3a4 9abd a757 203e 122e 443e
000003f0: 1a02 6d3e fb86 47bc f70d e1bd 9eb1 edbc
-0.06507328 -0.036969863 -0.34792805 -0.4006574 0.10370849 -0.30033502 -0.011648777 -0.13303745
-0.014054578 0.054182537 -0.104690716 -0.040629838 0.044966206 -0.60915333 0.16839857 -0.09965306
0.2484517 -0.2640534 -0.6004978 0.24978079 -0.17375943 0.26767722 0.1335266 -0.20802681
0.08061129 0.03327408 0.05014226 -0.06618219 -0.095151864 -0.7682789 0.06862973 -0.020000666
0.068467885 -0.20195313 -0.039673507 -0.15201618 0.08863885 -0.029335212 0.17731196 0.10489472
-0.1116503 0.12911187 -0.26903296 0.13606827 -0.29135248 -0.1603862 -0.011346055 0.12084084
-0.29996577 -0.18810798 0.06050226 0.103993416 -0.2557443 0.17904313 -0.3200357 -0.14232396
-0.054226838 0.06951088 -0.2643415 -0.16853617 0.03402358 0.1539763 -0.11072698 0.17376757
0.015283247 0.0050735204 0.073977396 -0.1025286 -0.4670144 0.10197791 0.024942577 -0.020115102
-0.3884835 0.09294094 -0.040511455 0.1458855 -0.20065132 0.092323974 0.13334672 0.010832302
-0.035454363 0.12962104 -0.059584856 -3.4329689 0.046175364 -0.023097511 0.12961553 -0.21305197
-0.1429086 -0.18171994 -0.16558981 -0.19873108 -0.15415509 0.18263343 0.21027002 -0.057185687
0.1032013 -0.2700182 -0.085096575 -0.14477235 0.08069196 -0.13017033 -0.16564748 0.21796408
-0.5020701 0.13670796 0.015492603 -0.062483713 -0.09896331 -0.07036806 -0.11672867 -0.23004499
0.13709292 -0.08402511 -0.0725381 -1.4550077 -0.013187035 -0.012960702 0.113578476 0.05154353
0.06830532 0.08455214 -0.06923782 0.09542031 -0.1471942 0.1507426 0.059944518 -0.061879363
0.7899258 0.099196784 0.11033907 -0.019184927 -0.98324305 -0.07473736 -0.26428068 -0.040894974
-0.052429963 0.00013577066 0.18579471 -0.0151095865 0.072309665 -0.047705192 0.18309166 0.18624492
0.11081757 -0.27305028 -0.07286143 -0.07832989 -0.7614511 -0.016344441 0.027029237 0.2516541
-0.4643207 0.040260054 -0.12037139 -0.13523312 0.07427783 0.024149545 -0.11340584 -0.07802405
-0.12129422 -0.08515544 0.141463 -0.09271716 0.13139138 -0.15487914 -0.15930215 -0.1675726
-0.16279402 -0.13602744 -0.18820317 0.00885751 -0.19247329 -0.072646484 0.13506916 -0.14570601
0.13252917 -0.12956169 -0.14822304 0.12617807 0.094857976 -0.12413749 -0.02033796 -0.11467565
0.15736014 -0.05661135 0.003987656 0.068384126 -0.095844805 -0.14980724 -0.14131904 0.017593872
0.14656459 0.18943398 0.06422344 -0.0018227259 0.18856688 -0.2453957 -0.06175955 -0.02484792
-0.041738093 0.13561359 -0.11089405 -0.10230342 -0.03392173 0.00014517257 -0.035190564 -0.086608276
0.14266305 -0.1006742 -0.05733488 0.04996171 -0.12009254 0.020291155 -0.06098898 0.035187233
-0.016034754 -0.03849966 0.02855064 0.057442702 -0.022320615 -0.045028206 0.02714956 -0.2214235
-0.09763519 -0.07787921 0.16330309 0.031227853 -0.114428364 -0.16584077 0.13773635 0.12828802
0.1471889 0.1260292 -0.11293552 -0.020953432 -0.02139676 -0.010736174 -0.057172637 0.13925172
0.07961427 0.027635187 0.10045295 -0.063051865 -0.13334571 0.035997145 -0.093406215 -0.11293884
-0.16034125 -0.07550957 0.15658437 0.191582 0.23145333 -0.012178178 -0.10988992 -0.029015359

value.2.bias f4 [32]
00000000: 08a9 1fbe 3eb6 a13e ea08 1e3e 3fc9 323b
00000010: f86d 04be 75b6 15be 0f98 863d b6d5 27bd
00000020: 5587 15be 865f 5abe 8a43 4a3e a964 9e3d
00000030: 52d2 83be 247b bfbd 4a43 853e 2e3b 8ebe
00000040: 360f 23be 7160 283d 5125 803c 34ce c63d
00000050: 6957 253c efec d83c f43a 8bbb dcfb 9a3e
00000060: dcb3 a5bd 2176 cdbd d555 153e 0619 2c3e
00000070: 6bfb cfbd 8ed8 b1be 8bcb 20be 7887 8d3e
-0.15591824 0.31584352 0.15433088 0.0027280597 -0.12932575 -0.14620383 0.065719716 -0.040975295
-0.14602406 -0.21325502 0.19752327 0.07734043 -0.257464 -0.09349659 0.260279 -0.27779526
-0.15923771 0.0411076 0.015642794 0.09707299 0.010091641 0.026480166 -0.004248971 0.30270278
-0.08090946 -0.10032297 0.14583524 0.1680642 -0.10155376 -0.3473553 -0.15702645 0.27642417

value.4.weight f4 [1, 32]
00000000: a5bc b6be 544e dc3d 7fae a8bd 90e2 74bd
00000010: 8c0d 67bd 5e14 0cbc a0a4 6fbd 9a70 f2bc
00000020: 36a9 25be 8851 0e3e 72c3 203d b465 8bbd
00000030: 96c5 c0bd 3227 e1bc 95de d03d 4bd7 80bd
00000040: eba2 d1bd 0cde a93d 6a0e 9a3d 43fe 4b3d
00000050: 7c99 afbd 12a8 8d3d 2e64 bfbc 6402 793d
00000060: 0f2e babb 0a90 893d 649b 983d 6602 053e
00000070: 08c0 863d 288a 4ebd 5233 03be 2509 613d
-0.356908 0.107571274 -0.082364075 -0.05978638 -0.056409404 -0.008549778 -0.058506608 -0.029594708
-0.1617783 0.13898289 0.03924889 -0.06806508 -0.094126865 -0.02748451 0.10198704 -0.06291064
-0.10236152 0.08294305 0.075222805 0.04980303 -0.08574197 0.069168225 -0.0233632 0.060793296
-0.00568176 0.067169264 0.074515134 0.12989196 0.06579596 -0.050424725 -0.12812546 0.05494036

actor.0.weight f4 [32, 6]
00000000: 38c5 77bd f4cd 803e 44f4 d83e f50f 6d3e
00000010: 1493 c3bd e344 e7bd 7345 ff3e 7857 973e
00000020: e777 30be 418f 6a3c 76f2 a2be eb64 1dbe
00000030: 3e3b 93bd fc09 fbbe b17c c7bd d3a2 d2be
00000040: 448b a0be 62dd 67bc 2521 e7be 08b7 bbbe
00000050: aca2 623d 7881 71ba 1e17 0d3e 7f4d 08bf
00000060: 808c 46bd e24f acbd d0bb 80be a53a 773d
00000070: 5dcf 103e f811 d33e 9d9f be3e 1226 c53d
00000080: 3d05 213e 2bb8 3a3e f1c8 b9be e3b0 b73e
00000090: b47c 09be a519 e2bd 7df0 273e 7b40 abbe
000000a0: 7d2b ebbd 9038 e9be 0171 d3be dda7 01bf
000000b0: 20eb 233f dadc bd3e 496d a2be f350 13bd
000000c0: 7de3 933e 98f3 b73d 1a99 c5be ad8d 8fbe
000000d0: 4762 ffbe 346b 683e 72af 57be 44c8 8dbd
000000e0: 3c04 66be 9973 2ebe 0000 c8bd d1f7 0dbf
000000f0: 1da6 85be 5913 9cbe a580 09bf d5a3 56bc
00000100: c386 10bc ee7a 323e 7491 ee3e 0f87 9c3d
00000110: 406f 6dbe 6414 62be 756b ce3e deb1 9f3e
00000120: 0e2d 38be 29b1 56bc 87bb 5bbe 3151 12bd
00000130: e2af a4be f106 96be 8cca bf3e d726 27bf
00000140: 569f 233e 6e0f 99bd 915a 92be e91a 11bf
00000150: 507b d1be f77b 9b3b 7961 94be cd3f 6cbe
00000160: 6ae1 033e 02c5 bdbe 6d23 99be c7ce 8f3e
00000170: 4265 ecbe 07be c33e 48bd 44ba 09ad 02be
00000180: 219d 16bf 07ea 033e aecf 80bd 5076 d43e
00000190: 3f36 823e 0306 073d 5d50 fbbe 9c13 82be
000001a0: 9772 2d3d 167e ddbc 89f6 e03d 74f5 32bd
000001b0: 2f5b 31bb d5ea 033f e3ca 2ebe b8a0 95be
000001c0: 995c 4f3e c105 173e c9da 09bf ace1 5a3e
000001d0: 6d6a c2be b75a 0b3e a394 5dbc 34b2 90be
000001e0: e391 693e 138f babd 8771 aa3d 1e67 fcbe
000001f0: 4974 babe b937 833e b84f 953e ca8e 1ebe
00000200: 8340 b1be bb6a 123d 0632 ecbd db49 9a3e
00000210: a66d 02bf a70d bd3e e72f 433e 795f 09bf
00000220: f111 653e 1470 083f ee31 bf3e d58e 53be
00000230: d159 2fbe 2f0f 4abe 3063 1c3e 0b71 8c3e
00000240: a541 e83e 1f94 4e3e a54a 77be ed4d 91be
00000250: 3214 c83d 1961 97be fc71 47be b147 8d3e
00000260: a0af 00bf 2253 28be 5bea 2fbe c2ab c9bd
00000270: 3052 01bf 5387 0b3e 080f 083e 8652 4fbe
00000280: fe13 ab3e 2f08 afbd f815 81be e782 aabe
00000290: 4fa6 b73e 7242 53bd 08dc a43e d66f b73e
000002a0: 1797 053e af99 5fbe dbba a8be ad2a 503e
000002b0: 5d70 bc3e 3875 2c3e 1b3c 22be c175 dd3e
000002c0: 255f a63e c0c8 9bbd ad41 61be 86c2 9b3e
000002d0: 35fd 29be 0bc8 9ebc 1a31 cdbd a591 ce3d
000002e0: 4651 acbe 6f24 a1be d852 62be 26cb 243d
000002f0: 03aa cf3e ce84 19be 1f9d 9c3e d88e ca3c
-0.060490817 0.2515713 0.4237386 0.23150618 -0.09549537 -0.11292436 0.49857673 0.2955892
-0.17233239 0.014316381 -0.31825608 -0.15370528 -0.07189034 -0.49031055 -0.0974058 -0.4113985
-0.3135625 -0.014151903 -0.45142475 -0.3666308 0.055330917 -0.0009212713 0.1377835 -0.5324325
-0.048473835 -0.08413674 -0.2514329 0.060358662 0.14141603 0.41224647 0.3723115 0.09626402
0.15724654 0.18234317 -0.3628612 0.3587714 -0.13426477 -0.110400476 0.16400333 -0.33447632
-0.11482904 -0.45550966 -0.41297153 -0.50646764 0.6403065 0.3708256 -0.31724003 -0.03596587
0.28884497 0.08982009 -0.3859337 -0.28037778 -0.49879667 0.22697145 -0.21063021 -0.06922963
-0.22462553 -0.17036285 -0.09765625 -0.5545626 -0.26103297 -0.3048351 -0.5371192 -0.013100584
-0.008821192 0.17429706 0.46595347 0.07642948 -0.2318697 -0.22078091 0.40316358 0.3119039
-0.17985937 -0.013103762 -0.21458255 -0.03572196 -0.32165438 -0.2930217 0.37459219 -0.6529364
0.1597875 -0.07473646 -0.28584722 -0.56681687 -0.40914392 0.0047450024 -0.28980616 -0.23071213
0.12878957 -0.37064368 -0.2990984 0.28087446 -0.46171004 0.38230917 -0.0007505012 -0.1276132
-0.5883351 0.12882243 -0.06289612 0.41496515 0.2543201 0.032964718 -0.4908475 -0.25405586
0.04234561 -0.027037662 0.10984523 -0.043691114 -0.0027062406 0.515302 -0.17069583 -0.2922418
0.20250167 0.14748289 -0.53849465 0.2137515 -0.3797182 0.13608824 -0.013524207 -0.28260958
0.22809558 -0.091093205 0.08322435 -0.49297422 -0.36416844 0.2562845 0.29162383 -0.15484157
-0.3461953 0.035746317 -0.11532979 0.30134472 -0.5094856 0.36924478 0.19061242 -0.53661305
0.22370125 0.5329602 0.3734278 -0.20659955 -0.17124106 -0.19732355 0.15272212 0.27429995
0.45362583 0.20173691 -0.24149568 -0.28379765 0.09769477 -0.29566267 -0.19477075 0.2759376
-0.5026798 -0.16437963 -0.17179243 -0.09847213 -0.50516033 0.13625841 0.13286984 -0.20246324
0.3341369 -0.08546483 -0.25212073 -0.33302996 0.3586907 -0.05157704 0.3219912 0.35827512
0.13045917 -0.2183597 -0.3295506 0.2032878 0.36804476 0.1684159 -0.15843241 0.43253902
0.32494465 -0.076066494 -0.2199771 0.30421847 -0.16600497 -0.019382497 -0.10019131 0.10086373
-0.33655757 -0.3147311 -0.22101915 0.0402328 0.40559396 -0.14992067 0.30588624 0.024726316

actor.0.bias f4 [32]
00000000: bd42 04be e57a bfbd a20b 103e ac68 05bd
00000010: 78dd 323e b3fc fa3e b2b6 90be 0f70 f73d
00000020: 716d c13d d571 36bd 37d2 f7be 2720 b338
00000030: 4f2d 1cbe 7fe4 9abd 50ea 28bf 5bf5 0cbf
00000040: d21e 863e d471 cf3d 469c 63bd 319a 36bf
00000050: 154e 843d 80f5 07bd 4238 e33d f9c5 643e
00000060: 159a 2b3f 15c9 b13d 8db7 babe 8af8 2b3f
00000070: cc74 ca3d c72a d4bd 86d6 3bbe aab9 0a3e
-0.12916084 -0.09349612 0.14066938 -0.032570526 0.17467296 0.4902092 -0.28264385 0.1208192
0.094447024 -0.044542152 -0.4840257 8.541374e-05 -0.15251659 -0.075631134 -0.6598253 -0.5506188
0.2619539 0.10129133 -0.055568956 -0.7132903 0.064602055 -0.03319311 0.11094715 0.22341146
0.67031986 0.086809315 -0.36468163 0.67176116 0.098855585 -0.10359722 -0.18343553 0.13547388

actor.2.weight f4 [32, 32]
00000000: 7f8c d7be ffe0 8b3e 9a65 eb3c 4085 ecbc
00000010: 18b3 4b3e 1000 e63c c92b a0be 814e 993e
00000020: 1788 bebd 2be3 193d 8672 aa3d af3e a23d
00000030: 626a 07bd e56c 25bf 36cd 773d d078 943d
00000040: 5df7 943c 1c9e 4a3e a0a3 863e 1f5a 9bbd
00000050: fe96 dcbe 32ed 4fbe cb2b dc3d cc7f 0cbd
00000060: 1e75 973d d229 c3bd 7ef0 d03d 636d e93e
00000070: 894f 263f fa9b 2a3e 5597 623d a84e 72bf
00000080: c4b8 05bd bedc 293d e3b0 973d cba8 12be
00000090: 6259 3fbe 1ed1 033e bff6 87bc c08d 06bc
000000a0: 54c0 193e eae4 01be c4b9 153e af82 1f3d
000000b0: dfd1 1d3e 6fec 243e 6884 88bd 2cf1 c1bd
000000c0: 8d38 87be e5dc d0bc 256b 873d fd79 e03d
000000d0: e598 3a3e 51a9 003e 4c84 143e be05 953d
000000e0: c9a8 15be d5a5 223e 5bd8 9ebe 149d 613d
000000f0: 1f04 3bbe 8c06 d13d 410e 98bd 3348 8d3e
00000100: 45f3 433d d58e 703d c873 5d3c e21f c43d
00000110: 4897 a9bc 5d4d b13d 3c26 9b3e 3785 61be
00000120: 2e40 fabb f7f3 9cbe a115 7b3d 897b 3d3d
00000130: 3062 8abe 54a7 823e 4b27 c6be 1a79 9bbd
00000140: e4e8 9f3e 535f 923e d9ee 93bd 9238 18be
00000150: 3c38 d63c 8189 b23d 8a5b a23d a6c8 6a3e
00000160: 7c81 323e 62e0 b13e 6070 90be ac7e 32be
00000170: a3cf 963e 6154 223e 3ded bebd 1c5e 743e
00000180: af86 77bd a17d 2cbe ba80 b73d 09ab edb3
00000190: 60cd 053e 4e99 513e 4e12 38bd fcc3 a1bd
000001a0: 0105 323e b3a5 123e a0c8 bbbd c13c 1fbd
000001b0: bf15 1b3e 2de3 0d3e 9d11 e73d eeee d83c
000001c0: 155e 29be 78d4 4b3d e775 c3bc 4f8d 37be
000001d0: a20f 7e3c c25f 73bd 87f2 723c 250f 76bd
000001e0: da0e a13d d8d8 683e aecf 98bd bab2 9bbe
000001f0: ccde f33d a90c 183e 3657 513e f02c 793e
00000200: b9f9 193e ed1f 143d 074a 12bc c4a9 923e
00000210: 2813 0bbe 611b ca3d dd79 393e f200 a2bd
00000220: 3e46 a3bd dfb0 c6be 9590 42bd 3c29 8c3d
00000230: db68 32bf f627 863e 0837 a7bf 6ba1 a6be
00000240: 280c a4be 6b37 6b3e 3300 f63c 8aec dabc
00000250: 1279 363e 3c6a 0b3d 1e71 493e 0921 103e
00000260: 7b6c cbbd 02e2 073e 18f7 1cbe 3fd6 79bd
00000270: a3c3 903c 166d bf3e 990e 8e3d 91cd 053e
00000280: 8895 31bf 4b99 25be 6d25 26be a9ba 81be
00000290: bcf7 773e cd13 1bbe 8c22 b7be 099c 9a3e
000002a0: 401e 3dbd 462c e3bd bfbf 413e 284d 183e
000002b0: 63b5 4cbc 12be 64bc 9ce7 2f3e b927 663e
000002c0: 074d 50be 1225 063d 8f26 a33e 4aff f73d
000002d0: 7029 173e 0dfb 7a3e 5d9b df3e 352c d5bc
000002e0: b369 543d d097 f03d 72a6 3fbd 8c3d 0ebf
000002f0: 867f 463e 710c 96be a2bc 49be bef5 1b3e
00000300: fab8 3fbf 86f0 8ebd 78bb 823d 681d da3d
00000310: 4354 42be 1362 b2be caa3 ec3c d354 0abe
00000320: dd23 803e c173 0a3e 921d f63d 0c49 d6bd
00000330: b81f 96bd a357 edbe b783 023e 375b 813e
00000340: 9b53 bd3d 7b22 583d f1a2 243e ce79 a7bd
00000350: 64d7 28bd fee8 5f3d 987c a7bd 5840 f73d
00000360: 09df 3c3e 79eb 56bd f8d5 50bd 40cd 5e3d
00000370: 8962 5e3d 4786 203c ea28 bbbc 10b4 63be
00000380: 3edf b2be df38 233e a8c2 153e cbda 5b3d
00000390: 17ba d8bd 5bf8 60be f891 5abd f8f7 aabd
000003a0: c53b 9f3d 9dd1 65be 438c 413e a0d4 5b3e
000003b0: 8ccd 35bb d138 063e 530f 46bc 7f61 823b
000003c0: 676c c0be 68eb f93d 25f2 3b3e 7276 93be
000003d0: d8e4 743d 9bb3 2d3e dfb2 aabe 5da5 6a3d
000003e0: f73a ffbd 3a64 673e a331 f4be 137f d6bd
000003f0: 61c2 b5bd ec0b 9c3e 45fb bcbd 00c6 eabe
-0.42099378 0.27320096 0.02873497 -0.028872132 0.19892538 0.028076202 -0.31283405 0.29942706
-0.09303301 0.03757016 0.08322625 0.07922112 -0.03306044 -0.64619285 0.06049844 0.07249606
0.018184358 0.19786876 0.2629671 -0.075855486 -0.43083948 -0.20305327 0.1075054 -0.034301564
0.07395385 -0.09529461 0.1020212 0.45591268 0.6496511 0.16661063 0.055320103 -0.9465127
-0.03264691 0.04147028 0.07406785 -0.14322202 -0.1868644 0.1287274 -0.01659715 -0.008212507
0.15014774 -0.1268498 0.14621645 0.03894299 0.1541209 0.16105817 -0.066658795 -0.09469828
-0.26410332 -0.025495956 0.06612233 0.109607674 0.18222387 0.12564589 0.14503592 0.07276486
-0.14615168 0.15883572 -0.3102444 0.055081442 -0.18263291 0.10206327 -0.07424594 0.27594146
0.04783942 0.058729965 0.013516374 0.09576394 -0.02070202 0.08657334 0.30302608 -0.22023474
-0.0076370453 -0.3065488 0.061299924 0.04626039 -0.27028036 0.25518286 -0.38701853 -0.07591458
0.3123237 0.28588352 -0.07223291 -0.1486533 0.026149862 0.08717633 0.07927616 0.22928104
0.17432207 0.34741503 -0.28210735 -0.17431134 0.2945529 0.158525 -0.09322593 0.23864025
-0.06043118 -0.16844799 0.089600995 -1.10672836e-07 0.13066626 0.20468637 -0.04493933 -0.07898709
0.17384721 0.14321022 -0.091691256 -0.0388763 0.15145014 0.13856192 0.11282656 0.026481118
-0.16539796 0.049763173 -0.023859931 -0.17924999 0.015506657 -0.059417494 0.014828331 -0.060073037
0.07864161 0.2273897 -0.07461487 -0.30409795 0.119077295 0.1484858 0.20443425 0.24333549
0.15036668 0.03616326 -0.008928782 0.28645146 -0.13581526 0.09868503 0.18112893 -0.079103366
-0.07972382 -0.38806817 -0.047501165 0.06843802 -0.69691247 0.26202363 -1.3063669 -0.32545027
-0.32040524 0.22970359 0.030029392 -0.026724119 0.17819622 0.03403686 0.19672057 0.14075102
-0.099328004 0.13269809 -0.15328634 -0.060995337 0.017671412 0.37387913 0.06936378 0.13066699
-0.6936879 -0.16171758 -0.16225214 -0.25337723 0.24215597 -0.15144272 -0.35768545 0.3019717
-0.046171427 -0.11092429 0.18920802 0.14873183 -0.012494418 -0.013961332 0.17178196 0.2247609
-0.20341884 0.032750197 0.31865355 0.121092394 0.14761901 0.24509831 0.4367322 -0.026022056
0.051858615 0.11747706 -0.046789594 -0.55562663 0.19384584 -0.29306367 -0.19700864 0.15230462
-0.74891627 -0.0697947 0.06383413 0.1065014 -0.18977456 -0.3484045 0.028886694 -0.1350892
0.25027362 0.13520719 0.12017359 -0.10463151 -0.073302686 -0.46355924 0.12745558 0.25264904
0.09244462 0.05276726 0.16077782 -0.08177529 -0.041221038 0.054665558 -0.08178061 0.120728195
0.18444456 -0.052470658 -0.050985307 0.05439496 0.05429319 0.009797639 -0.022846658 -0.22236657
-0.34935945 0.15939663 0.14625037 0.053675454 -0.10582369 -0.2196974 -0.053361863 -0.083480775
0.07775072 -0.22443242 0.18901162 0.21467829 -0.0027740924 0.13107611 -0.0120886145 0.0039789076
-0.37582704 0.12203103 0.1835409 -0.28801304 0.059788555 0.16963045 -0.33339593 0.05728661
-0.124624185 0.22596827 -0.4769412 -0.10473456 -0.088749655 0.30477846 -0.09227613 -0.45854187

actor.2.bias f4 [32]
00000000: ab44 e0bd 644c 29be daf3 5c3e 82e8 93be
00000010: b9d4 193e 49f7 2b3e 7789 59bd a499 82bd
00000020: 6127 d53d f7e3 0d3e 60cc bbbc e1c1 7bbd
00000030: 036e 12be d1c2 4c3d 17eb 57be 0aad 953e
00000040: c1be 0fbe 8c92 713e 76ff 8cbc 6cc0 023d
00000050: 70e9 8a3d ab22 1c3e 8689 e2bd 2b07 403d
00000060: caf2 d4bc 5e40 0b3e a58a 633e 8c0e 9abd
00000070: b267 ffbd a116 473d 2b4d c4bd d8eb b73d
-0.109505974 -0.16533047 0.21577397 -0.28888327 0.15022554 0.1679355 -0.053109612 -0.06376961
0.104079016 0.13856493 -0.022924602 -0.061464194 -0.14299779 0.04999048 -0.21085773 0.2923358
-0.1403761 0.2359106 -0.017211657 0.03192179 0.06782806 0.152476 -0.11061387 0.046881836
-0.025994677 0.13598773 0.22220857 -0.07522306 -0.1247095 0.048605565 -0.09585031 0.089805305

actor.4.weight f4 [2, 32]
00000000: 4dd4 c2be 1511 013e c78e f6bd 4a56 db3d
00000010: e8b0 24bd 8db4 d0bd 99af c1be 1a99 9a3e
00000020: 34fb b8bd 5c33 75bd eade 74be d88b 183e
00000030: 191b 5b3d d859 f03e 232e cd3e e441 22be
00000040: 5569 d7be 9494 b1be 606a c3be cc51 52bd
00000050: 53ef 6abe fb69 ae3e 6642 2a3e c64e f4be
00000060: 0600 2d3e 2517 2b3e 789b 0ebe d598 853b
00000070: 3fac 8ebe aa89 523e f3fa 933e 0956 ebbe
00000080: 5e3e 943d dc98 b9bd 12cf d7be 287e 1ebe
00000090: 389e a6be 9a0c 333f ed3b c5be 2783 c7be
000000a0: 6072 8a3e 9856 64bd 6696 8f3e cad3 0d3e
000000b0: 6a63 a2be b895 b7be c9e0 1abe c44f a23b
000000c0: 0dfb 823d 94eb d9be f69b a5be a67e aebd
000000d0: 5740 a83d 36fb 2fbf 94a5 d33e 9c1d a8bc
000000e0: 025a e03e f4d5 b73e 3007 28bd db62 403e
000000f0: b8bb e83b 6076 b13d 8999 ca3e 6d78 633e
-0.38052598 0.12604173 -0.12038951 0.10709818 -0.040207773 -0.10190687 -0.37829283 0.30194932
-0.09032288 -0.059863433 -0.2391316 0.14897096 0.05349264 0.46943545 0.40074262 -0.15845448
-0.4207255 -0.3468367 -0.38167095 -0.05134754 -0.22942857 0.34065232 0.16626891 -0.4771635
0.1689454 0.16708048 -0.13926494 0.004077057 -0.27865788 0.20560327 0.28902397 -0.45964077
0.07238458 -0.09062359 -0.4215017 -0.15477812 -0.32542586 0.69941103 -0.38522282 -0.3896725
0.27040386 -0.055746645 0.28044432 0.13850322 -0.31716472 -0.35856414 -0.15124811 0.0049533565
0.063955404 -0.42562544 -0.3234555 -0.0852025 0.08215397 -0.6874269 0.41337264 -0.020521931
0.4381867 0.3590542 -0.04102248 0.1878771 0.007102456 0.08665156 0.39570263 0.22213908

actor.4.bias f4 [2]
00000000: aca1 31bd 3d62 113d
-0.043367073 0.035494078

actor.0.weight f4 [32, 6]
00000000: 6ec2 80bd f60e 803e f071 db3e d0f5 6e3e
00000010: 57be c3bd 2670 e7bd 67fc fe3e 9408 973e
00000020: 68e5 30be 21f7 573c 1a20 a2be 33c0 1bbe
00000030: 9398 95bd 5b00 fbbe 3816 c8bd 67bb d2be
00000040: 3b8a a0be b2bb 67bc 782b e8be 7ffd bbbe
00000050: abcc 5d3d 97e9 13bb fb1e 0f3e 84cb 07bf
00000060: 8d81 51bd f7ca b0bd fa63 7dbe 5f03 703d
00000070: f9ce 103e 9411 d33e c78e be3e 8a7c bc3d
00000080: 722e 233e 9924 3b3e 2e3a b8be a63f b93e
00000090: 1113 09be 8e87 e4bd 6ad8 273e 0f36 abbe
000000a0: fd9d ebbd 2c55 e9be a306 d4be 63bd 01bf
000000b0: 4c5f 233f b124 bd3e 2a28 a0be ba27 01bd
000000c0: 645c 943e 23a1 ba3d 4419 c5be 8f43 8ebe
000000d0: 771c ffbe ddf6 683e 27dc 57be 80b1 8dbd
000000e0: 8298 65be bbbb 2ebe 37cb cabd 3351 0ebf
000000f0: 3393 85be 7d0c 9cbe bf96 09bf fcfa 36bc
00000100: 4f64 e9bb 3538 343e cabc ee3e ed37 9d3d
00000110: 7ec4 6dbe dd13 62be 116b ce3e 7ab1 9f3e
00000120: c599 3cbe 4319 8bbc 7831 5abe 69ba 12bd
00000130: 50ba a4be 5f11 96be 9ce0 bf3e 095b 27bf
00000140: 9ca2 233e b752 9abd 1425 92be 2d00 11bf
00000150: 698d d1be 3d7d c83b c524 94be beca 6cbe
00000160: f34a 033e 4010 bebe 6d0f 98be 032b 903e
00000170: e244 ecbe 76c1 c33e 868d 6fba d1d7 02be
00000180: e040 16bf bab9 ff3d fd79 78bd 25e2 d33e
00000190: d9e4 813e da7a 043d 6f14 fdbe 34e3 82be
000001a0: bfb5 273d f70f e3bc db20 de3d caa0 38bd
000001b0: c8f4 03bb b706 043f 81d9 2ebe 40e1 95be
000001c0: c8a7 4f3e f050 173e 8be9 09bf 99c3 553e
000001d0: 8e56 c2be 2a30 093e 9ae8 58bc d88c 90be
000001e0: 0388 693e a173 bbbd 265d aa3d 1371 fcbe
000001f0: 46ed babe bcbe 823e 740a 953e b374 1ebe
00000200: 4a23 b2be 93a2 0b3d bf07 e5bd 6814 9c3e
00000210: 2342 02bf 887c bd3e 57b4 433e b86a 09bf
00000220: dcc1 633e 131c 083f ddbb be3e 050c 55be
00000230: 3570 2ebe e424 49be 5f9f 1d3e 2c0f 8d3e
00000240: f945 e83e 70f6 4f3e 6d7f 76be fc0f 91be
00000250: db44 c73d e994 97be d872 45be c86a 8f3e
00000260: 151f 00bf ecf0 25be 58dc 2ebe c18f c7bd
00000270: bbf4 00bf e41d 0a3e aa6e 073e 59a0 52be
00000280: 3db1 a83e 1f93 b8bd f699 81be 2cfb a9be
00000290: 6889 b63e 12be 5abd a4db a43e 726f b73e
000002a0: d427 063e 9471 5ebe 22ca a8be ef94 503e
000002b0: f96f bc3e d474 2c3e 77ab 23be ca25 dd3e
000002c0: a18e a63e 1ce1 99bd 6241 5fbe adc2 9c3e
000002d0: 1809 2abe 12a1 98bc 4e32 cdbd 43c3 cf3d
000002e0: ee68 acbe 173c a1be bc26 62be 120c 1f3d
000002f0: 1e9e cf3e d9ef 17be 839d 9c3e af90 ca3c
-0.062870845 0.25011414 0.42860365 0.23335958 -0.09557789 -0.113006875 0.49801943 0.29498732
-0.17275012 0.013181479 -0.31665117 -0.15210037 -0.07304492 -0.4902371 -0.09769863 -0.41158602
-0.3135546 -0.014143871 -0.45345664 -0.3671684 0.054150265 -0.002256965 0.13976662 -0.53044915
-0.05114894 -0.086324625 -0.2474517 0.058596965 0.14141454 0.4122435 0.37218305 0.092034414
0.15935686 0.1827568 -0.35981888 0.36181372 -0.1338618 -0.111586675 0.16391149 -0.3343968
-0.11504743 -0.45572793 -0.41411313 -0.50679606 0.63817286 0.36942056 -0.31280643 -0.031532027
0.28976738 0.09112766 -0.3849584 -0.27785918 -0.49826404 0.22750421 -0.21080075 -0.06918621
-0.22421458 -0.17063801 -0.099020414 -0.5559265 -0.26088867 -0.30478278 -0.53745645 -0.011168238
-0.0071225534 0.17599566 0.4662841 0.076766826 -0.23219487 -0.2207789 0.4031606 0.3119009
-0.18418033 -0.01697982 -0.21307933 -0.035822306 -0.32173395 -0.29310128 0.3747605 -0.65373284
0.1598 -0.07535308 -0.28543913 -0.56640893 -0.409282 0.006118445 -0.28934303 -0.23124215
0.1282156 -0.37121773 -0.2969927 0.28157815 -0.46146303 0.38233536 -0.0009138215 -0.1277764
-0.5869274 0.124865964 -0.060663212 0.41383472 0.2536991 0.032343723 -0.49429652 -0.25563967
0.04094481 -0.027717574 0.108461104 -0.045075215 -0.0020134915 0.51572746 -0.17075159 -0.29273415
0.20278847 0.14776969 -0.53871983 0.20875396 -0.3795666 0.1339728 -0.01323905 -0.28232455
0.2280579 -0.09152914 0.08318548 -0.4930502 -0.3650915 0.25536144 0.29109538 -0.15474205
-0.34792548 0.03409059 -0.11183118 0.3048432 -0.50882167 0.37009072 0.19111763 -0.53678465
0.2224192 0.5316784 0.37252703 -0.20805366 -0.17034991 -0.19642979 0.15392826 0.27550638
0.45365885 0.20308852 -0.24072047 -0.28332508 0.0972993 -0.29605797 -0.1928209 0.28011155
-0.5004743 -0.16205186 -0.17076242 -0.09744216 -0.5037343 0.13487965 0.13225809 -0.2056898
0.32947722 -0.09012436 -0.25312775 -0.3319944 0.35651708 -0.05340392 0.32198822 0.35827214
0.1310113 -0.21723014 -0.32966715 0.20369314 0.36804178 0.16841441 -0.15983377 0.43192893
0.32530692 -0.07513639 -0.21802285 0.30617276 -0.16605031 -0.018631492 -0.100193605 0.10144665
-0.33673805 -0.31491157 -0.22085088 0.03882987 0.4055032 -0.14837588 0.30588922 0.024727194

actor.0.bias f4 [32]
00000000: 927d 06be a168 c2bd afe6 0e3e 66c5 fabc
00000010: a54e 2d3e 1dea f93e 72d3 90be 74f8 ef3d
00000020: 1839 c43d 26f2 38bd 4476 f7be 3fc7 643a
00000030: 8f61 20be aa0e 97bd 5f87 28bf eb21 0dbf
00000040: 6d93 813e 3789 d63d c07f 5cbd 2ccf 37bf
00000050: fec0 833d ab93 03bd 589a e63d ad57 623e
00000060: be46 2b3f 8bf7 ba3d d1a6 babe acc1 2b3f
00000070: 92e1 c93d c7a8 d5bd ef69 3bbe 8ca7 0b3e
-0.13133839 -0.09492613 0.13955186 -0.030611705 0.16924532 0.48811427 -0.2828632 0.117173105
0.09581202 -0.045152806 -0.48332417 0.00087272 -0.15662216 -0.07375844 -0.6583156 -0.5512988
0.2530779 0.104753904 -0.05383277 -0.71800494 0.06433295 -0.03212325 0.112599075 0.22103758
0.6690482 0.09129246 -0.36455396 0.67092395 0.09857477 -0.10432582 -0.18302129 0.13638133
