results/SandingEnvEasy/ddpg/model/model_parameters_1.pt (torch, 30338 bytes, 22 tensors)

value.0.weight f4 [32, 8]
00000000: 38f0 adbd db6e 93be af3c 1b3e 389e 453e
00000010: 983d ea3d 704d bbbc ecb0 5c3f 81fa d5bd
00000020: 8ee8 b1bb 61ae 8abc f590 9e3d d4dc 6e3e
00000030: b935 823c 4e20 2bbe 9dc5 6a3f 5679 52bd
00000040: f09a d1bc 29b0 2a3d 714f 673e 6ccb 2f3e
00000050: 10c2 fe3d 4ea6 80be fb4b 79bd 4024 143f
00000060: 7a77 2cbe a620 cfbd a421 0c3e 1b5b 49be
00000070: 114b 8bbe 437b 443e b2b1 06be 2f74 9f3e
00000080: cc1b a13d 712b f03a 86f7 233e 8a16 6abe
00000090: 260e 92be 7964 3fbd fa9d 843f 91c1 c0bf
000000a0: 89a6 a0bd 12fd 853e e6f9 6cbe 5df2 0f3d
000000b0: 6cc6 c9bd 0920 623c 46e7 4ebf 75ff 01bf
000000c0: 1741 2cbe 3fd0 4bbd d938 f13d 77dd e53d
000000d0: e69c 303e 5a0d 9a3d 7bc2 89bf 0353 90be
000000e0: c67a a2bd 074e 3dbe fdaf 93be 3f78 913e
000000f0: 8717 283e b60d 9c3d f73f 88bf d5de 92be
00000100: 975b 983e 5ab4 2fbe 049c 983e 5220 3cbe
00000110: f6a0 1fbe cf0c dd3e d835 1fc0 0d1c c93c
00000120: 1941 9d3d 6ad8 933c d15c 9ebe 4fdd 09be
00000130: 0fc0 87be 20d9 90be a6bf 7cbb 7c8f 263f
00000140: 744b af3a f7ca 0d3e 5063 413e 12f3 19be
00000150: 7f4f 453e 2725 42be 453a babf a1d0 213f
00000160: b98c 7cbe 2bb5 c7be c00e 813c 92c1 bd3e
00000170: d6da 463e 0d38 24be baf2 b73e 6b14 093f
00000180: 2752 8b3b d816 2ebe a7d3 ef3d cbb3 8e3e
00000190: 60d6 73bc 31dd 903e 8834 c4be d872 edbe
000001a0: a2f4 6dbc 56af 033d 7712 f83d e546 6c3d
000001b0: 28f2 073d 7fe2 893e c959 9ebf bd43 9dbe
000001c0: b2a7 52be c96b d13d af3a 39be 5fcb 0c3e
000001d0: 75bd 62bd 08b0 6e3d e1a6 55bf df74 de3e
000001e0: 98d2 4dbe 2fee db3d 3787 e1bd 67de 363e
000001f0: c8a7 5fbe a615 1abe 5761 3a3f 1bd9 803f
00000200: 0d49 f9bd 6d76 cd3d dfb0 513e 03b4 153e
00000210: 0444 d5bd d404 42be 11f4 10bf d434 46bf
00000220: c1c6 853c 52b9 633e ccd2 af3c d2c7 81bd
00000230: caf8 0abe 7b68 5c3e 3f40 8a3e 7a79 09bf
00000240: bb52 643e 7dba b8ba dfd0 143c 5f9e 713e
00000250: 3333 8dbe bcec a83d f600 eabe 7a56 1abf
00000260: 1d18 173e b445 b0bd b2d8 24be b864 553c
00000270: cca0 1ebd 34d8 03be 3dd0 2940 cbac 283f
00000280: f0ba a1bd 4cee d33d be11 743d bf88 3c3c
00000290: eaa5 4e3d 5d28 32be 288a 9a3f 211d 61bf
000002a0: bdb7 98bd dbb5 a43d de62 52be 3998 543e
000002b0: 011c 08be 9bdd 06be 005b 3cbf 5fac 433f
000002c0: e573 01bd 1bf1 dabd 1743 a13d 9e15 59be
000002d0: 5f76 57bd cb6b 153e bddd 0f3f 7ea9 a23f
000002e0: 0023 593e 4d85 2b3e 445e 0cbe 20ad a43e
000002f0: 680b 8a3d 8c4c 0cbe 86a6 4e3f 6b03 86be
00000300: f852 b9bd 0bc7 02be 37a0 813e e949 bbbd
00000310: b7fe 7a3e 9000 85bc 9795 34bf 984a 173f
00000320: abf5 083d 8c10 44be 381a 62be 2e77 8fbd
00000330: 122d 233e 5749 42be 0dbe e33f 9f39 823f
00000340: 3bb0 cabd 726f cfbc 7fcf 283e 6b73 b23c
00000350: 4aba 023e e71b 813e e387 c53f 09fc b8bd
00000360: 82bf 85bb 204b d5bd e416 cdbd 034b d83d
00000370: 0ac7 6bbe e423 4d3e 5f47 1c40 87c6 64bf
00000380: 2c69 14be c0ac b6bc 509c 5abe a09f 9cbd
00000390: 37cb 803d bb6a 443e ba12 24be 65d4 40bf
000003a0: 67f9 bf3e ad24 b6bd 79a4 19be d409 433e
000003b0: c655 a83e 4c21 f7bc 2fcc e23e 9971 38be
000003c0: 0c0d 113e 6f3e 0ebe 29c6 8f3e 44d1 d93c
000003d0: 4b6e afbe 971b 00be a7c4 86be da33 b2be
000003e0: eb67 153e e986 3d3e f8e3 633d 930b f8bd
000003f0: 392b b43e 13d4 43be e01c 21bf ac2b f33d
-0.08493084 -0.28795514 0.15159868 0.19298637 0.11437529 -0.022864074 0.8620746 -0.104481705
-0.005429334 -0.016928853 0.07742492 0.23326427 0.015894758 -0.16711542 0.91707784 -0.051385246
-0.025586575 0.041671906 0.22588898 0.17167443 0.12439358 -0.2512688 -0.060863476 0.57867813
-0.16842452 -0.10113649 0.13684708 -0.1966366 -0.2720571 0.19187646 -0.13153723 0.3114333
0.0786663 0.0018323493 0.16012391 -0.2286016 -0.2852642 -0.046726678 1.0360711 -1.5059072
-0.07844264 0.2616964 -0.23142204 0.035143245 -0.09852299 0.013801583 -0.80821645 -0.5078042
-0.16821705 -0.049759146 0.11778421 0.11223882 0.17247352 0.07522078 -1.0762476 -0.28188333
-0.079335734 -0.18486796 -0.28845206 0.28412053 0.16415225 0.07619803 -1.064452 -0.28685632
0.29757378 -0.17158642 0.2980653 -0.18371704 -0.15588745 0.43173835 -2.4876614 0.024549508
0.07678432 0.01804753 -0.30930188 -0.13463329 -0.26513717 -0.28290653 -0.003856638 0.6506269
0.0013373927 0.13846956 0.18885541 -0.1503413 0.19268607 -0.18959485 -1.4549032 0.6320897
-0.24663056 -0.39005408 0.015754104 0.37061745 0.19419417 -0.16037007 0.35927373 0.5354678
0.0042517367 -0.17000902 0.11710291 0.27871546 -0.014882654 0.28293756 -0.38321328 -0.4637668
-0.014523657 0.032149635 0.12112897 0.057684798 0.033189923 0.26930615 -1.237115 -0.30715743
-0.20571783 0.102256365 -0.18088792 0.13749455 -0.05535646 0.058273345 -0.8345776 0.4344854
-0.20099866 0.10738789 -0.11012118 0.17858277 -0.21841347 -0.1504732 0.7280478 1.0066255
-0.121721365 0.100323536 0.20477627 0.1461945 -0.104133636 -0.18947154 -0.56622416 -0.7742436
0.016330125 0.22238663 0.02146282 -0.06336941 -0.13571468 0.21524231 0.2700214 -0.53700984
0.22297184 -0.0014093664 0.009083002 0.2359557 -0.27578124 0.082482785 -0.45703858 -0.602882
0.14755292 -0.08607045 -0.16098288 0.0130245015 -0.038727567 -0.12875444 2.6533349 0.6588866
-0.078969836 0.10348186 0.059587233 0.011507212 0.050451197 -0.1739821 1.2073412 -0.8793507
-0.0745692 0.08042499 -0.20545527 0.20761193 -0.13291933 -0.13170473 -0.73576355 0.7643489
-0.031604666 -0.106905185 0.078741245 -0.21199653 -0.05260312 0.14591901 0.5619772 1.2707975
0.21204758 0.16750069 -0.13707834 0.32163334 0.06740457 -0.13701075 0.80722845 -0.26174483
-0.09049028 -0.12771241 0.25317547 -0.091449566 0.24511229 -0.01623562 -0.70540756 0.59098196
0.033437412 -0.19146937 -0.22080314 -0.070051536 0.15935162 -0.1897329 1.7792374 1.0173835
-0.098968945 -0.025321696 0.16485403 0.021783551 0.12766376 0.252166 1.5432094 -0.09032447
-0.0040816674 -0.104147196 -0.10014132 0.10561182 -0.23025146 0.20033222 2.4418561 -0.8936543
-0.14493245 -0.02229917 -0.21348691 -0.076476336 0.0628876 0.1918134 -0.16022769 -0.7532409
0.37494966 -0.08893714 -0.15004148 0.19046718 0.3287794 -0.030167244 0.44296405 -0.18012084
0.14165133 -0.13891004 0.28080872 0.026589043 -0.34263834 -0.12510525 -0.2632191 -0.34805185
0.14590423 0.18508495 0.05563733 -0.121115826 0.35189226 -0.19123869 -0.62934685 0.11873564

value.0.bias f4 [32]
00000000: 1d1b 073f 73f7 8bbe 913d 8c3e 9c87 20be
00000010: 6abb 203e 7657 b8be 4935 c33e fb03 e13e
00000020: 34e9 a0be 040c e9be 5903 813d d671 4a3f
00000030: a3bb d73d dac5 b03e bc91 7f3d 1636 b03c
00000040: 12aa fcbb 8511 253e 2dc2 b0bd e867 2ebf
00000050: fc7e 6dbd 7238 1dbc c7c6 5bbe 7ea0 3bbf
00000060: 29ed 973e 1a85 0abf 4467 35be 261f 3fbe
00000070: 9492 da3d 0305 713d fa47 ae3e ccf3 8dbe
0.52775747 -0.27337226 0.2739072 -0.15676731 0.15696493 -0.36004227 0.3812659 0.4394835
-0.3142792 -0.4551698 0.06299467 0.7907995 0.10533836 0.3452595 0.062394843 0.021510165
-0.0077107036 0.16119964 -0.08630786 -0.681273 -0.05798243 -0.009595977 -0.21462546 -0.73291767
0.29673126 -0.54109347 -0.17715174 -0.18664226 0.10672489 0.05884267 0.3403929 -0.27725065

value.2.weight f4 [32, 32]
00000000: e810 8f3d 3f2a 14be ebda b6bd 224a 1ebd
00000010: e76e 7a3c ae64 82bd 6a20 043e 30c5 153c
00000020: 56b2 503d aac6 133e 5b24 223e a35d 0bbe
00000030: 0416 16bd 4c0b 073e 1752 a63c 8f33 cb3d
00000040: 397b 213e 4841 9d3d b4dc e3bb 9445 74bd
00000050: a9e4 0b3d b6da dfbd c810 d43d 4340 c83d
00000060: 9581 9cbd bc39 dcbd 0fb4 193e c85b 9cbe
00000070: 0f4b d83d e95d 363e 0c58 04be c950 023e
00000080: 3d63 173e b007 74be bca3 41be 8e4f ae3d
00000090: bb8e 23be 21a2 333e 7124 27bd 0753 353e
000000a0: d0e5 4b3e 2704 d7bd 7adf d73d 76af 33bd
000000b0: 556f 943c cf70 c3bc 14aa 37bc bf1c cfbd
000000c0: 9498 d4bd d5c4 d4bc b202 0a3e 2978 2fbe
000000d0: 6231 6abe f5b0 e13d 2b01 f63d bd98 6cbd
000000e0: 14d8 613d 3a96 1abe f989 96bd 04cb a3be
000000f0: 812c a9bd 8737 903c b674 60bc f8f0 c43d
00000100: 235e a43e c9ec 563d 6061 f63d 526a 8cbe
00000110: 10b4 b6bd 4aa0 afbd fc5a fc3c eb5b 59be
00000120: c173 0e3b 0947 303e 81f5 cb3d b3bc f13c
00000130: f67e b3bd 7cfd dcbd 18e3 dabc 6935 6dbe
00000140: fb90 403d 170a f8bd 8898 9fbb 3fef 10be
00000150: 026a 33bc 4096 cfbc 4cb7 06be cee8 123e
00000160: c72e 0bbe 663b a73d c4ef ec3d a443 d13c
00000170: faca acbe 0b43 edba 96ee f53d a99d 02be
00000180: 95bf 0e3c b049 9abd 0d96 563d 8d92 edbd
00000190: dfb9 57be 86db bebd fcc7 ba3d f991 b43d
000001a0: 1e88 3f3d 39a3 a2be 7225 2abe 928e e13d
000001b0: 168e a13d 4239 65be d553 e03d d243 3a3e
000001c0: 61fc ac3c 9a86 3b3e 253d 20bc 1f1c 5e3e
000001d0: 5bda 65bd faf9 de3b df39 dcbd aa1b 49be
000001e0: 7e46 213d 6a90 b6bd 510b 69be c30a c53d
000001f0: 0f55 36bd e7c8 a33e fb1b c9bd b191 b3bd
00000200: 3d9c 143e 7a47 8c3d e2aa fdbd 488c 6bbe
00000210: 95c4 83bd b6b3 15be 50e0 e73d e845 b03d
00000220: 5495 b5bd 4251 9b3d e5de b03d 74bd 873c
00000230: 4759 35be 1303 a93d 2189 2b3e cc32 e4bd
00000240: eff6 be3d 3a3d f23d c0c3 d23d b23f 9cbd
00000250: 303d 08be b1ee 0e3e 41a3 973d 0184 12be
00000260: 819e d8bd 78b4 d6bc 7467 3fbd 9b5a 67be
00000270: 6f56 47be 4783 583c 4840 e23d fe62 1a3e
00000280: 1476 4e3e b5b7 583d 5116 abbc 2d64 063e
00000290: 21d8 5cbe d83c 083d 3c67 d9bd 1506 02be
000002a0: ece0 d3bd 5c47 eebc 8827 013e 7f42 4b3d
000002b0: 1d49 c53d a92c 96be 3b74 e73d 5f9b 443c
000002c0: 8dc9 1abb fa00 ddbd 03b8 24bd a148 283e
000002d0: f692 07be b65a c93d d527 783c dd4d 013d
000002e0: d966 9f3c 5fa5 0a3e 2c64 1abd 1de9 af3d
000002f0: b3e6 1cbe a561 bfbd 65b4 45bd 0873 1b3e
00000300: 3050 bfbd 90f8 6cbe ec27 a2bd a6a5 003e
00000310: b49c e3be f5ac a8bd 76bc f9bd 4316 393d
00000320: 73d3 923d d11c f73d 6ba6 343d 5ba7 07be
00000330: 0092 3abe c137 16bd e864 a23d 5958 1b3e
00000340: bd45 903d 4685 103e a0c6 8cbb 00f1 853e
00000350: 5663 d4bd 99fe 64be 5ef0 a43d 2378 67be
00000360: d879 463d 8f52 c7be 2fdb 6a3d 531b ffbe
00000370: 5952 543d 3fdf 83be 71c4 d5bb 6252 a83d
00000380: 4eea 723e 7b3b 323d 151e 7d3d ce3f 04bd
00000390: c970 f8bd 5750 1cbe 7c7b cc3d 0cab 613d
000003a0: ee80 c4bd 3bb5 94bd 6aba cebd b3ba 0ebe
000003b0: 296b 003e c751 fd3d 59a4 d83d bdec ccbd
000003c0: 0675 aa3d 9647 d63d 6126 cabd 8f65 31bd
000003d0: 22fd 96bd 7d0f 2a3e 8726 593e b0e1 453d
000003e0: 0d1c efbd 025f b53d 79a6 2e3e 954b e0bc
000003f0: 4626 f9bd 9be4 513e d7e4 a23c be2f 73be
0.069856465 -0.1446924 -0.08928474 -0.038644917 0.01528523 -0.063668594 0.1290299 0.009141251
0.050951324 0.14431253 0.15834181 -0.13609938 -0.03664209 0.13187903 0.020302815 0.099219434
0.15769662 0.07678467 -0.0069538 -0.059636667 0.034153614 -0.10930388 0.10354763 0.09777882
-0.07641903 -0.107531995 0.15010093 -0.30538774 0.10561191 0.17809261 -0.12924212 0.1272613
0.1478395 -0.23831058 -0.18910116 0.085112676 -0.15972416 0.17542316 -0.040806238 0.17707454
0.19911885 -0.10498839 0.10540672 -0.043868504 0.018119493 -0.023857502 -0.011209983 -0.10112905
-0.103806645 -0.025972763 0.1347759 -0.17135681 -0.228704 0.1102008 0.120119415 -0.05776285
0.05513771 -0.1509637 -0.07350535 -0.31990826 -0.082604416 0.017604603 -0.013699701 0.09616274
0.3210307 0.05247191 0.120302916 -0.27424866 -0.08921063 -0.085754946 0.030805103 -0.2122647
0.0021736475 0.17214598 0.099589355 0.029508924 -0.0876445 -0.10790536 -0.026719615 -0.23164906
0.047013264 -0.121112995 -0.004870478 -0.14153765 -0.010950567 -0.0253402 -0.1315586 0.1434662
-0.13592063 0.08165626 0.11569169 0.025544949 -0.3374861 -0.0018101645 0.12008397 -0.12755455
0.008712669 -0.07533586 0.052389193 -0.11600218 -0.21066998 -0.093192145 0.09120175 0.088169046
0.04676067 -0.31765154 -0.16615847 0.11013521 0.07888429 -0.22385123 0.1095349 0.18189934
0.021116437 0.18313065 -0.009780203 0.21690415 -0.056116443 0.006804702 -0.107532255 -0.19639459
0.039373867 -0.089142635 -0.22758223 0.09621193 -0.044514712 0.31989214 -0.0981979 -0.08768023
0.14512725 0.068495706 -0.12386109 -0.23002732 -0.064339794 -0.14619336 0.11322081 0.086070836
-0.08866373 0.07583858 0.08636264 0.01656983 -0.17709838 0.082525395 0.1675153 -0.11142501
0.093244426 0.11828084 0.102912426 -0.076293364 -0.13304591 0.13958241 0.07404185 -0.14308168
-0.10577107 -0.026209101 -0.04672952 -0.22593157 -0.19466566 0.013214893 0.11047417 0.15076825
0.2016223 0.05290957 -0.020884665 0.13124152 -0.21566822 0.03326115 -0.106153935 -0.12697633
-0.10345635 -0.029086761 0.12612736 0.049623962 0.09633086 -0.29330948 0.11301466 0.011999934
-0.0023618669 -0.10791202 -0.04021455 0.16433956 -0.13239655 0.09831755 0.015146215 0.031568397
0.019458221 0.13539647 -0.037693188 0.08589385 -0.1532238 -0.09344796 -0.04826774 0.151806
-0.093414664 -0.23141694 -0.07917771 0.1256319 -0.44455492 -0.08236114 -0.12194149 0.045187246
0.07169237 0.12066043 0.04410402 -0.13247435 -0.18219757 -0.036674265 0.079294026 0.1517042
0.070445515 0.1411334 -0.004296139 0.2616043 -0.10370509 -0.22362746 0.08053659 -0.22604422
0.048456043 -0.38930175 0.057337936 -0.49825534 0.051836345 -0.2575626 -0.006523662 0.08218838
0.23722193 0.043513756 0.061796267 -0.03228741 -0.12130887 -0.15265022 0.0998449 0.055094764
-0.09594904 -0.072611295 -0.100941494 -0.13938408 0.12540878 0.123691134 0.10578222 -0.10006092
0.08323102 0.10462873 -0.098706014 -0.043309744 -0.073725 0.16607471 0.21206103 0.048310935
-0.11675272 0.08856012 0.17055692 -0.02737979 -0.12165503 0.20497362 0.01988451 -0.23748681

value.2.bias f4 [32]
00000000: b6cd 9abd b351 68be 2a98 a93c 7192 523e
00000010: 111e 423b 84a7 9dbe 2789 6d3d ea06 053d
00000020: c3d3 9b3d 3c80 943d 3876 053e 9a9c e2bc
00000030: 49e9 9a3e f679 29be 21dc 36be e408 cfbd
00000040: 7ad9 273d b83c 943c 2932 ba3e d8c3 f9be
00000050: 0b12 68be 8072 323e c132 eb3c 9a04 35bd
00000060: 9f0f 91bd b95e 613d 4a0e 323e 028f a0be
00000070: 1a39 0a3d 9eaf f03d 604c b4be 79c5 91be
-0.075587675 -0.22687416 0.02070244 0.20563675 0.0029619972 -0.30791867 0.057992127 0.032477297
0.0760875 0.07251021 0.13033378 -0.027662564 0.30256107 -0.1655043 -0.1785741 -0.101091176
0.040978886 0.01809536 0.36366394 -0.4878223 -0.22663133 0.17426491 0.028710725 -0.04419384
-0.070830576 0.055021975 0.17388263 -0.31359106 0.033745863 0.11752246 -0.3521452 -0.28470972

value.4.weight f4 [1, 32]
00000000: 358e 66bd 5976 95bd a5b7 0dbd a3a0 28bd
00000010: f5ef 423d 2cc7 98bd 3218 d23d 9e64 7c3d
00000020: e7bc cdbe 5130 a13d 1241 6c3d 98f1 babd
00000030: 314d c13d 4108 15bd 2523 b03d 4fb7 863d
00000040: b9be 23bd c344 a0bd d6fe bd3d bfed b3bd
00000050: ce0c 423d 2302 063e 16a3 e6bc e9b0 b8bd
00000060: c18c a03d b32e 533d 3a3a 923d e35d 94bc
00000070: 1ddb ad3d cbf7 6a3d 6a6d 87bd 3cac 8dbd
-0.056287963 -0.07297964 -0.034598965 -0.04116882 0.047592122 -0.07459864 0.10258521 0.061619394
-0.40183184 0.07870544 0.057679243 -0.091281116 0.09438551 -0.036384825 0.08600453 0.06577932
-0.03997681 -0.07825615 0.09277122 -0.08785581 0.047375493 0.13086753 -0.028153937 -0.09018118
0.07839347 0.051558208 0.07140012 -0.018111175 0.08489058 0.05736522 -0.06612666 -0.06917617

value.0.weight f4 [32, 8]
00000000: c62d acbd 3388 93be 2b99 1b3e 8ea6 463e
00000010: 21a8 eb3d 53a3 b5bc d4ab 5c3f 9a3e d3bd
00000020: 3114 c7bb cf1b 8fbc 8653 9d3d 82f6 6c3e
00000030: 3809 973c de85 28be 4f34 6b3f 53f4 3fbd
00000040: 3cd4 d4bc c03f 263d bcf4 663e ee75 303e
00000050: 305c fe3d bfbf 80be fa04 78bd c721 143f
00000060: 1ab9 2cbe 8b87 cbbd 510c 0c3e 7430 4abe
00000070: c5b9 8bbe cf9d 433e 623e 02be e3a6 9d3e
00000080: 1caf a03d a440 0b3b 56e9 243e 7201 6abe
00000090: bf0c 92be 3759 3fbd 5ee1 833f a727 c0bf
000000a0: ae01 a1bd 6912 863e db6f 6cbe eb6f 103d
000000b0: df0c cabd 46ec 5f3c 7e3e 4fbf 3101 02bf
000000c0: 1bc4 2abe 5794 4abd ac0e ed3d 1f6d ea3d
000000d0: 829c 303e f60c 9a3d 1a22 8abf ce00 90be
000000e0: e6c6 a2bd 75da 3cbe 5631 94be 1811 913e
000000f0: 3414 293e 1707 9e3d 47e4 87bf 7ed9 91be
00000100: 5048 9a3e dbb7 2cbe d910 973e ff8a 3bbe
00000110: d970 22be d9a4 db3e 5f5c 1fc0 4086 a93c
00000120: ef18 9d3d 629d 8e3c e593 9ebe 0255 09be
00000130: d3fc 87be e415 91be 330d 21bb dc9e 253f
00000140: 546a 3a3b afea 0d3e 9f4c 413e a557 1abe
00000150: 1b87 433e 8bed 43be 1a0b babf 1935 203f
00000160: 2131 7dbe 4679 c7be 17cd 6e3c 5d38 be3e
00000170: 3565 473e aead 23be cf35 b93e 79b6 083f
00000180: a961 993b 6101 2fbe 6954 ec3d 6dbe 8e3e
00000190: 60d6 73bc 31dd 903e b5ab c4be dd2a edbe
000001a0: 41dc 58bc b9fa 073d 7428 f53d 74e9 6f3d
000001b0: 28f2 073d 7fe2 893e e060 9ebf 41e3 9bbe
000001c0: ab48 52be b881 d03d 3684 3bbe d18a 0b3e
000001d0: 33a2 59bd 4acb 773d 730f 56bf 43bc dc3e
000001e0: e816 4ebe d029 dc3d 7c91 e2bd 8fee 363e
000001f0: 210f 5fbe ff7c 19be 14dc 393f f16d 803f
00000200: 2622 f9bd 770f cb3d f50c 4f3e ceb7 183e
00000210: 24d1 d4bd 61cb 41be 7578 10bf 14c7 46bf
00000220: a5ad 833c 4b4d 643e 56d3 ae3c bdf2 82bd
00000230: 96e9 09be af77 5d3e b08c 8c3e 0abc 09bf
00000240: fb01 653e 5a30 8d36 9465 123c fa72 703e
00000250: c05f 8dbe 8f3a a83d a41c e9be 3f4e 1abf
00000260: fce1 173e c944 b0bd c833 25be 4871 2a3c
00000270: 9205 1bbd 68f1 02be 637f 2940 3a51 283f
00000280: fbdc a0bd 9208 d23d f623 733d a889 4b3c
00000290: a42f 4e3d f245 32be 0f9f 993f 6495 60bf
000002a0: 32ab 98bd 96fc a43d 106b 52be 835e 553e
000002b0: 2aec 07be c4ad 06be 7b3a 3cbf 96ad 423f
000002c0: d95d 02bd 2cbe dabd f743 a33d 609f 58be
000002d0: b962 5abd b6b0 143e 5961 0f3f e040 a33f
000002e0: 3bba 583e 89fa 2b3e 681e 0cbe 3691 a53e
000002f0: 9cc8 893d f26d 0cbe c6ed 4c3f 70c6 83be
00000300: f6fe babd 797e 02be 18d5 813e f381 babd
00000310: 7180 7b3e 94f2 80bc abc3 34bf 94e2 163f
00000320: e2e2 033d ca08 43be b84e 62be 5fd7 8fbd
00000330: c0bb 223e a9ba 42be eea0 e33f 38da 813f
00000340: 7092 cdbd 9354 d0bc 649d 293e a2d9 b23c
00000350: 4aba 023e e71b 813e 80a8 c53f 9fa7 b5bd
00000360: 5b77 45bb c532 d3bd 215c c9bd 1083 d93d
00000370: c586 6dbe 2964 4b3e 4e64 1c40 6212 65bf
00000380: 485e 14be c3ae b4bc 0c60 59be a62e 9dbd
00000390: cb37 7f3d 13d3 433e ab0e 20be 23fe 40bf
000003a0: 7c9e bf3e e738 b8bd cc40 1abe 1d5b 433e
000003b0: 87ab a93e 12c5 e1bc 6065 e53e ba6d 39be
000003c0: 86f8 0f3e f03c 0fbe 449e 8f3e c685 d53c
000003d0: c649 afbe 1aa5 ffbd f03c 87be 66a7 b2be
000003e0: b87b 153e 7b19 3e3e a146 683d a930 f8bd
000003f0: e97f b43e c12a 43be da23 21bf 8298 ee3d
-0.08407168 -0.2881485 0.15195148 0.19399473 0.115066774 -0.022172606 0.8619969 -0.10314675
-0.006075405 -0.017469315 0.076819465 0.2314091 0.018437013 -0.16457316 0.9187669 -0.046863865
-0.025980107 0.04058814 0.22554296 0.17232487 0.12419927 -0.2514629 -0.06055162 0.5786404
-0.16867486 -0.09937962 0.13676573 -0.19745046 -0.27290168 0.19103168 -0.1271911 0.30791387
0.078458995 0.0021248246 0.16104636 -0.22852114 -0.2852535 -0.04671594 1.0303152 -1.5012101
-0.078616485 0.2618592 -0.23089544 0.035262983 -0.09865736 0.013667172 -0.8095473 -0.5078307
-0.16676371 -0.049457874 0.11575064 0.114465944 0.17247203 0.07522003 -1.0791657 -0.28125614
-0.07948093 -0.1844271 -0.2894389 0.28333354 0.16511613 0.07716196 -1.061654 -0.28486246
0.30133295 -0.1686701 0.2950504 -0.18314742 -0.1586336 0.42899206 -2.490013 0.020693898
0.07670771 0.01740903 -0.3097221 -0.13411334 -0.26560077 -0.28337014 -0.0024574518 0.64695525
0.0028444724 0.13859056 0.18876885 -0.15072496 0.19094507 -0.19133584 -1.4534638 0.6258102
-0.24725772 -0.38959712 0.014575264 0.37152377 0.19472201 -0.15984222 0.36173865 0.5340343
0.0046808315 -0.1709037 0.115395375 0.27879658 -0.014882654 0.28293756 -0.38412252 -0.46321765
-0.013236106 0.033198092 0.119706064 0.058572248 0.033189923 0.26930615 -1.2373314 -0.30446818
-0.20535533 0.10180992 -0.18312153 0.13627173 -0.0531332 0.060496606 -0.83617324 0.43112382
-0.20125926 0.107501626 -0.11062905 0.1786444 -0.21783115 -0.14989088 0.7260144 1.0033551
-0.121647164 0.09915059 0.20219786 0.14913866 -0.10391453 -0.18925239 -0.564338 -0.7764752
0.016074011 0.2229511 0.021341007 -0.06393955 -0.13468012 0.21627687 0.27451086 -0.5380255
0.22364037 4.2077563e-06 0.008935351 0.2348136 -0.27612114 0.08214294 -0.45529664 -0.60275644
0.148323 -0.0860687 -0.16133034 0.010402985 -0.03784711 -0.12787402 2.6484 0.6574894
-0.07854649 0.10255541 0.059360467 0.0124229565 0.050338402 -0.17409495 1.2001666 -0.8772795
-0.07454528 0.080559894 -0.20548654 0.20836835 -0.13273683 -0.13152224 -0.73526734 0.7604612
-0.03182778 -0.10680804 0.07971948 -0.21154547 -0.053316806 0.14520535 0.56007916 1.2754173
0.21164791 0.1679479 -0.13683474 0.3233735 0.06727716 -0.13713816 0.80050313 -0.25737333
-0.09130661 -0.12743558 0.2535789 -0.09106817 0.24560715 -0.01574067 -0.70611066 0.5893948
0.032198794 -0.19046322 -0.22100341 -0.07023501 0.15891933 -0.19016518 1.7783487 1.014472
-0.10037696 -0.025430953 0.16563946 0.021832291 0.12766376 0.252166 1.5442047 -0.08869862
-0.0030130956 -0.10312418 -0.09832025 0.10620701 -0.23195942 0.19862427 2.443622 -0.89481175
-0.1448909 -0.02205599 -0.21228045 -0.07674913 0.062309068 0.19123487 -0.15630595 -0.7538778
0.374256 -0.08995228 -0.1506378 0.19077726 0.33138677 -0.02755979 0.44803905 -0.18108264
0.14059648 -0.1398809 0.28050435 0.026064765 -0.34235972 -0.124826625 -0.2641368 -0.3489334
0.14597976 0.18564408 0.056707982 -0.12118656 0.35253838 -0.19059278 -0.6294533 0.11650182

value.0.bias f4 [32]
00000000: 3102 073f c116 8cbe 2cda 8b3e 856f 20be
00000010: 58fe 203e a032 b8be c260 c23e 3434 e13e
00000020: f0c2 a1be 5f61 e9be a1fd 7d3d 95c6 493f
00000030: 6ba7 d73d 7765 b13e 8a43 7d3d e75a ba3c
00000040: b7c8 12bc e1d6 253e 8f4c afbd 20ab 2ebf
00000050: 9714 6dbd b2cf 24bc 6364 5bbe c082 3bbf
00000060: 8aed 973e 844a 0abf cdaa 32be b783 40be
00000070: 9a7b db3d e2e2 6d3d a4ca ad3e ee8b 8ebe
0.5273772 -0.2736111 0.2731489 -0.15667541 0.15722024 -0.35976124 0.37964445 0.4398514
-0.31594038 -0.455821 0.062009457 0.7881864 0.10529979 0.34647724 0.06183199 0.022748424
-0.008958987 0.16195251 -0.08559524 -0.68229866 -0.057880964 -0.010059284 -0.21425013 -0.73246384
0.29673415 -0.5401995 -0.17447968 -0.18800245 0.107169345 0.0580777 0.33943665 -0.27841133

value.2.weight f4 [32, 32]
00000000: 60ad 8e3d 18eb 13be 5f37 b6bd 5333 20bd
00000010: f02d 803c 8527 82bd 34d6 033e 6cc3 0a3c
00000020: bffb 4b3d 73f9 133e b3b3 213e 926f 0cbe
00000030: 25fa 15bd c10e 073e 00cc a43c fce6 ca3d
00000040: 1086 213e 2c46 9d3d 9b57 00bc 6c26 73bd
00000050: 2870 0b3d 25e4 dfbd fd36 d33d 56ae c73d
00000060: c116 9dbd 98d8 dbbd 5894 193e 104c 9cbe
00000070: 7c32 d83d ba49 363e 982a 04be 2bd2 013e
00000080: 4647 173e 38fa 70be adc3 40be ab0f ae3d
00000090: 9ce8 23be a452 333e c4a0 25bd 8504 363e
000000a0: 661e 4b3e ae7f d9bd 3048 d83d 11c4 32bd
000000b0: 7cf2 923c e25c bbbc b47a 3bbc 8209 cdbd
000000c0: 892d d0bd 7851 d4bc b772 0a3e e7fa 2ebe
000000d0: 5174 68be cc9b e13d aa61 f53d ecfd 67bd
000000e0: 54d2 603d 9860 1bbe 588b 93bd 3adb a3be
000000f0: 67c7 abbd ee3b 953c 6795 58bc a5a8 c43d
00000100: 3a90 a43e bc13 5a3d 61c0 f93d 4eac 8bbe
00000110: 36b3 b6bd 1aa6 adbd c7bd 023d fe06 59be
00000120: ace6 123b da7c 2f3e 7d0c d23d 947f f23c
00000130: 682c b2bd f9a3 d8bd 5359 cfbc d9d6 6cbe
00000140: d0c3 473d 47de f2bd d46d 9dbb dcb3 12be
00000150: f534 0fbc 8293 d4bc 49fa 06be cca5 133e
00000160: 6f46 0abe d563 a63d 03d3 ef3d f23c cd3c
00000170: 88dd aabe f0ed 3bba e440 f63d f90f 01be
00000180: 976d 133c 5882 9abd 88ee 573d 4f29 edbd
00000190: f2ce 58be c530 bdbd 4708 bc3d b23c b53d
000001a0: 739f 383d 0d2d a2be db17 29be b1cc e13d
000001b0: 8ad8 a23d 4b62 64be 92e6 e03d 9141 3a3e
000001c0: 59fc af3c 3725 3c3e 7743 19bc 5f43 5d3e
000001d0: a0dc 65bd b5e4 eb3b c107 debd 97c5 47be
000001e0: 61a8 213d 49bd b7bd ffc9 68be bb70 c43d
000001f0: 26b7 35bd 44de a33e 2b8b cabd 088a b3bd
00000200: efe2 133e d84b 8b3d 909f febd 3346 6bbe
00000210: 8205 82bd 8507 16be 2444 e63d 564f ae3d
00000220: 26fe b1bd dd80 9b3d 96b4 af3d d804 813c
00000230: 598e 36be c794 a83d aff0 2a3e beca e5bd
00000240: 5183 bd3d 5062 f23d 1e2f d33d 849a 99bd
00000250: 4456 09be 0e98 0d3e d8ca 9a3d 85ff 11be
00000260: b954 d7bd eb98 cdbc 98b9 41bd 0edc 68be
00000270: aad0 46be a641 6e3c e384 e13d 7a29 1b3e
00000280: 0956 4e3e a2f9 573d 002b acbc fb07 073e
00000290: 52f0 5cbe 9de0 073d 7aa0 dabd db96 01be
000002a0: 912f d7bd 2e9b edbc df4e 023e b7a7 4a3d
000002b0: 9f28 c53d 9cf1 96be 4696 e63d 4902 383c
000002c0: ed80 3bbb dcfc ddbd f292 2ebd 954b 263e
000002d0: 5be1 07be 78d5 c83d fc64 773c 3ba9 f93c
000002e0: b28c 9a3c 4c43 0a3e 5e11 1abd 8b42 b13d
000002f0: 156b 1cbe 1c7d c0bd 6179 4cbd 1436 1b3e
00000300: 6f23 b7bd 0dc6 6abe e672 a0bd e751 003e
00000310: c724 e3be 059a a8bd cf25 f8bd 5fd7 263d
00000320: bbc7 963d 5605 f53d 0594 353d a4f9 05be
00000330: be9e 39be 9e70 13bd c605 a33d 4b6b 1c3e
00000340: d279 923d 973c 113e 9dc4 8fbb efda 883e
00000350: f246 d2bd b3dd 63be ceec a23d 7827 65be
00000360: aef4 473d 0c8b c7be 93aa 6d3d 05d3 ffbe
00000370: 05bd 503d abee 81be 2f12 c0bb 7d7e a83d
00000380: 131e 723e 5df7 313d 1dfc 7a3d abae 0bbd
00000390: 9eb4 fcbd d20e 1cbe ce08 cb3d 272c 613d
000003a0: cbcc c5bd 8293 94bd a931 d2bd be20 0fbe
000003b0: ba3f 003e f1ae fb3d cc79 d93d a68e ccbd
000003c0: 1378 a93d 11c7 d53d a425 c9bd 48e1 31bd
000003d0: 5708 98bd 3aba 2a3e 6015 573e f4c0 463d
000003e0: d924 f3bd 2bca b33d 041b 2e3e 27a2 dfbc
000003f0: 9f95 f9bd 84a5 513e c608 a13c 1bda 72be
0.069666624 -0.1444515 -0.0889728 -0.039111447 0.015646905 -0.06355194 0.12874681 0.008469444
0.04980063 0.14450626 0.15791206 -0.13714436 -0.03661551 0.13189222 0.020116806 0.09907338
0.15773797 0.076794 -0.007833387 -0.059362814 0.034042507 -0.10932187 0.103132226 0.09750049
-0.076703556 -0.10734671 0.14997995 -0.3052678 0.10556504 0.17801562 -0.12906873 0.12677829
0.14773282 -0.23532951 -0.18824644 0.08499082 -0.16006702 0.17511994 -0.04043652 0.17775162
0.19835815 -0.10620056 0.10560644 -0.043644015 0.017937891 -0.022871438 -0.011442829 -0.10011579
-0.10164935 -0.025917754 0.13520323 -0.17087899 -0.22700621 0.11016044 0.119815186 -0.056638643
0.054888085 -0.15173566 -0.07204312 -0.32003194 -0.08387642 0.018217053 -0.013219214 0.09602479
0.32141286 0.053241476 0.121948965 -0.27279896 -0.089209005 -0.08478947 0.031919267 -0.21194074
0.0022415323 0.17137471 0.10256288 0.02960185 -0.08699876 -0.1057815 -0.025311148 -0.23128833
0.048770726 -0.11858802 -0.0048043523 -0.14326423 -0.008740653 -0.025949243 -0.13181414 0.14418715
-0.13503431 0.0812451 0.11710169 0.025053475 -0.3337214 -0.00071689393 0.12024096 -0.1260375
0.008998296 -0.07544392 0.052717716 -0.115801446 -0.21172693 -0.09237818 0.09181266 0.08849467
0.045073938 -0.31674996 -0.16513006 0.1102537 0.07951458 -0.22303121 0.10981478 0.18189074
0.021482633 0.18373571 -0.009354464 0.21607731 -0.056118608 0.007198895 -0.10841323 -0.19508968
0.03946722 -0.0897165 -0.22733305 0.09591814 -0.044364117 0.32005513 -0.098898254 -0.08766562
0.14442037 0.068015754 -0.12432778 -0.22975998 -0.06348707 -0.14651306 0.112434655 0.08511226
-0.08691053 0.07592938 0.08579366 0.01574938 -0.17827739 0.08231502 0.16693376 -0.11220311
0.09253562 0.11835158 0.10311721 -0.07500175 -0.13411814 0.13827536 0.075582206 -0.14257629
-0.105142064 -0.025097331 -0.047296137 -0.22740194 -0.19415537 0.014542019 0.11011674 0.15152541
0.20150007 0.052728303 -0.021016598 0.13186638 -0.2157605 0.033173192 -0.1067514 -0.12655203
-0.105071194 -0.02900466 0.127254 0.04947635 0.096268885 -0.29481208 0.11259131 0.011231014
-0.0028610781 -0.10839245 -0.042620607 0.1623977 -0.1326956 0.09806341 0.01509976 0.030476203
0.018865917 0.13502234 -0.03761422 0.0865527 -0.15275224 -0.09398863 -0.049920443 0.15157348
-0.08942305 -0.22927113 -0.07834415 0.12531243 -0.44363996 -0.08232502 -0.121165864 0.040732738
0.07362314 0.119639084 0.044330616 -0.13083512 -0.18126962 -0.035996072 0.079600856 0.15275304
0.07152142 0.1418327 -0.004387452 0.26729533 -0.10267438 -0.2225254 0.07955323 -0.22378337
0.04881733 -0.38973272 0.058024 -0.49965683 0.050961513 -0.25377402 -0.0058615427 0.08227251
0.23644285 0.043448795 0.06127559 -0.034102123 -0.123391375 -0.15240029 0.09913789 0.054973748
-0.09658202 -0.072546974 -0.10263378 -0.13977334 0.1252431 0.12289227 0.10618934 -0.099881455
0.082748555 0.104383595 -0.098216325 -0.043427736 -0.07423466 0.16672602 0.21004248 0.04852386
-0.118722625 0.08778795 0.17002493 -0.027299 -0.12186741 0.20473295 0.019657504 -0.23716013

value.2.bias f4 [32]
00000000: c558 9abd f2db 68be b114 b33c 2831 523e
00000010: a300 363b 7b97 9dbe c9b3 6e3d ddff 013d
00000020: 7347 9c3d 24d5 933d 2a9a 043e 66e2 e7bc
00000030: d19c 9a3e 9279 29be 2914 37be f2b3 d0bd
00000040: 8080 273d 2b6e 903c 0dda b93e f77c f9be
00000050: b092 68be 6260 323e 7ef0 ef3c 5bdf 31bd
00000060: d010 91bd f96e 633d 5973 323e fbfd 9fbe
00000070: 10c5 103d eaac ee3d c30b b4be 8245 91be
-0.07536463 -0.22740152 0.021860452 0.20526564 0.0027771376 -0.30779633 0.058276925 0.03173815
0.07630815 0.07218388 0.12949434 -0.028306197 0.30197766 -0.16550282 -0.17878784 -0.10190572
0.04089403 0.017630657 0.36299172 -0.48728153 -0.22712207 0.1741958 0.02928948 -0.0434259
-0.07083285 0.055525754 0.17426814 -0.3124846 0.035344183 0.116540745 -0.35165223 -0.28373343

value.4.weight f4 [1, 32]
00000000: abc2 65bd cedc 93bd bbe4 0bbd eee0 27bd
00000010: 44d0 3d3d 2d56 97bd 67e6 d03d 2c4b 7c3d
00000020: 05f6 cdbe 6762 a23d 9e6c 6b3d 043e bbbd
00000030: faf0 c03d dd07 15bd da70 b43d cbe2 863d
00000040: 24f9 21bd fcd7 9fbd 47e6 be3d 9e34 b4bd
00000050: 7052 3e3d d559 063e 9dca e4bc c30a b6bd
00000060: 3086 9f3d 48f0 533d fa89 923d a5b0 95bc
00000070: 5fb6 ad3d 3019 6b3d 202d 88bd 80c3 8ebd
-0.056093853 -0.072198495 -0.03415368 -0.040985994 0.046341196 -0.073894836 0.10200196 0.061595127
-0.4022676 0.07928925 0.057476632 -0.09142688 0.09420963 -0.036384452 0.08810587 0.06586226
-0.03954424 -0.078048676 0.09321266 -0.087990984 0.046465337 0.13120206 -0.027928645 -0.088887714
0.07789266 0.051742822 0.07155223 -0.018272707 0.0848205 0.057397068 -0.06649232 -0.069708824

actor.0.weight f4 [32, 6]
00000000: 10ad 1bbe 9214 253c 73ee 003f 7afc cabe
00000010: 6c70 933e 1032 8e3e f58f 56be 9910 6abd
00000020: 8866 f33e f5e0 343f 65f3 66be 15c2 00bf
00000030: 3bf1 14bf 26f6 833e 7dba b13e d351 6cbc
00000040: eb50 e6bd 69f1 4cbe eba8 44be 61c7 5a3e
00000050: 585b dbbe 76f5 cc3c ecef bd3e 6d99 0abe
00000060: e0c5 83be 4a51 593e 810e bcbe 47c8 a93e
00000070: e91a 763e 29e3 823e c2df eebc 472e 943e
00000080: aa47 b63e 2ab1 d43e c57f afbe 7d86 b1be
00000090: 799c 223e 5218 263e 1063 663e 4c6d af3e
000000a0: 7ffc a83d 153a 1cbe 791f b3be dec9 71be
000000b0: 8650 7bbe 1014 30be 12ac 8abe 609b 583e
000000c0: c000 423e 7074 0d3e 512a 8ebe e66f 013d
000000d0: 6a84 473e 5a88 cdbe 8bd0 333e c0bb 5f3e
000000e0: 7be1 ad3e db62 f0bd e9a8 46be 2b13 51be
000000f0: 7fbc ec3e c18d 45be b469 9e3d ce2a 8abc
00000100: eeb4 023c 59f7 f83e 69e0 2a3e 10b9 f73e
00000110: e834 a6be 9908 21bc ee05 8f3e c82a 85be
00000120: b740 e2be 1a75 1ebe 0d42 003f 4ba5 bb3e
00000130: 2b98 16be d39b 523e 31cd 993d 05f5 753e
00000140: feca ccbe 7b9a d93e 5460 e3bd 2311 ab3e
00000150: 1ae9 943e b7ca 84be 6edf 1a3f 8046 cabe
00000160: e57c c63e 3d2e 433e 30c7 273e 2c4b c33d
00000170: 6c8e 343e 8129 7f3e 72be 05be e89f e53d
00000180: 4f4c 17bd db25 32be 930d c2be 6cba d83e
00000190: e5e3 0ebd 4676 9ebd 3f28 b73e b11d 763e
000001a0: 299d 983e bde9 793d 1130 f93e a7ca d63d
000001b0: 2374 0a3e a3c7 963d 380a 173f 4cb1 8bbe
000001c0: 158b 13be 0ff6 8dbd fd28 e63e 3d40 1cbf
000001d0: c753 1d3e 4273 16be fdc3 cabb 16ee 0cbd
000001e0: 8fb5 8abe caa5 19bf a91c 7bbe b8b6 be3c
000001f0: ec84 a93e 864e 953e a8c7 703e d727 4d3e
00000200: 3d78 783e 9658 49bd 98b1 04be 3a9f bd3d
00000210: 0d13 c53e 2cdb 0f3e 577d 113f 76b0 b7bd
00000220: 3a79 8e3e c673 293e dd7e cd3e ce79 26be
00000230: 7138 393c 3e98 babe 8bea 42bd 92b9 153f
00000240: 79a0 503e 4f07 92be a629 483f dbe9 2abe
00000250: 98f5 cc3d 51e9 8f3e 40e3 fb3e 9736 92be
00000260: 10b3 90be 8176 a23e 263b 92be 0b26 dfbd
00000270: 6483 9f3e f040 b93d 219b 0fbf f74e a1bd
00000280: 4876 2dbd 3bb3 9b3c a8a4 50be 2a97 01bf
00000290: 4b5f 66be ee21 fb3e 2806 6bbe f1ec 2a3e
000002a0: d843 6d3e ccb5 f63e 4e0f dfbe 5647 8dbe
000002b0: d836 913d a5f9 7a3e 65a2 b6be 7d29 483d
000002c0: 691f 9d3d 0a34 f6be 8eba a73e 1735 fb3e
000002d0: 197c 383d 4ee0 d9be 8992 e3bd 39ce a2be
000002e0: 6d04 8ebc f394 f53e 56b4 d5bd 59f3 c0be
000002f0: 6e4c 273f 66cf b2bc c903 1e3e 1a83 9abe
-0.15202737 0.010075705 0.50363845 -0.3964575 0.2879671 0.2777257 -0.20953353 -0.057144735
0.47539163 0.7065576 -0.22553785 -0.50296146 -0.5818059 0.25773734 0.34712592 -0.014423805
-0.11245903 -0.20013966 -0.19205062 0.2136512 -0.42843127 0.025019389 0.37097108 -0.1353509
-0.25736904 0.21222416 -0.36729816 0.33160612 0.24033703 0.25563934 -0.02915943 0.28941557
0.3560155 0.41541415 -0.34277168 -0.3467292 0.15880002 0.16220215 0.22498727 0.34263074
0.08251285 -0.15256532 -0.3498495 -0.23612162 -0.24542436 -0.17195153 -0.27084404 0.21153021
0.18945599 0.13813949 -0.2776666 0.031600855 0.19484106 -0.4014309 0.17560022 0.21848965
0.3396109 -0.11737605 -0.19400372 -0.20417468 0.4623756 -0.19292356 0.07735005 -0.016866114
0.007977707 0.4862621 0.16687168 0.4838338 -0.3246224 -0.00982871 0.27934211 -0.26009202
-0.44189999 -0.15474358 0.50100785 0.36649546 -0.14706485 0.20567255 0.0750984 0.24019249
-0.3999862 0.42500672 -0.111023575 0.33411512 0.29084092 -0.2593591 0.60497177 -0.39506912
0.38767162 0.19060607 0.16384578 0.09535822 0.17632455 0.24918176 -0.1306093 0.1121214
-0.036938008 -0.17397253 -0.3790098 0.4232973 -0.034885306 -0.077374026 0.35772893 0.24034764
0.29807404 0.061013926 0.48669484 0.104878716 0.13520865 0.073622964 0.5899997 -0.27283704
-0.14408524 -0.069316976 0.44953147 -0.6103552 0.1536399 -0.14692405 -0.0061879144 -0.034406744
-0.27091643 -0.600186 -0.24522652 0.023280486 0.33109224 0.2916147 0.23513663 0.20034729
0.24264617 -0.049156748 -0.12958372 0.09258886 0.38491097 0.14048451 0.5683188 -0.08969204
0.27826864 0.1654807 0.40135852 -0.16257402 0.011304961 -0.36444277 -0.04758696 0.5848628
0.20373715 -0.285212 0.7818855 -0.16690771 0.10007781 0.28107694 0.49196815 -0.28557274
-0.28261614 0.31731036 -0.28560752 -0.10895928 0.3115493 0.09045589 -0.5609608 -0.078763895
-0.04234913 0.019006362 -0.20375311 -0.50621283 -0.22497289 0.49049324 -0.22951567 0.16691948
0.23170412 0.48185575 -0.43566364 -0.27593488 0.07090539 0.24509294 -0.35670772 0.04886769
0.07672007 -0.48086578 0.32759517 0.49063942 0.045040224 -0.42553943 -0.11111934 -0.3179796
-0.017336095 0.47965202 -0.10434787 -0.3768566 0.65351 -0.02182741 0.15431131 -0.30178148

actor.0.bias f4 [32]
00000000: 555a a6be 4612 9a3e 1be9 b83e f6f4 03bd
00000010: de87 f33e 09ea b83d 916a a2be c38d 88bd
00000020: 9b9d 0abe e1f1 8f3d 6158 af3e e257 3fbe
00000030: a5c8 cb3e 7848 9a3d d93b dbbe fbd2 0ebe
00000040: 65f5 a83e 78f4 f23d d0b9 f13e 4c42 d4bb
00000050: ee4c c3be 42cf 773d 6d78 98be 09d5 833e
00000060: 88d3 29bd b00c 5fbe 6b2b aebe 55e1 14bf
00000070: 1169 9dbe 0778 3d3e 75d8 cc3e 4f02 58bc
-0.32490793 0.30092067 0.36115345 -0.032216035 0.47564596 0.09029014 -0.3172193 -0.06667664
-0.13536684 0.070285566 0.34247115 -0.18685868 0.39801517 0.075333536 -0.42819098 -0.1394767
0.3299972 0.11863035 0.47212076 -0.0064776298 -0.3814463 0.06050039 -0.29779378 0.2574847
-0.041461498 -0.21782184 -0.340175 -0.5815633 -0.30744222 0.18502818 0.40008894 -0.013184144

actor.2.weight f4 [32, 32]
00000000: 1758 f1bd 31d2 4e3e cdce 293e 14fb 593d
00000010: 4357 e4bd 784d 41bd cde4 1c3c eb94 04be
00000020: 085f 3fbe 3839 be3b 6000 b13e 7132 86bd
00000030: 5e1c e1bd eec1 09bd e9f6 0e3d c48f 8a3e
00000040: 4e11 993e c49a ca3e 8e67 28be 9176 513e
00000050: 5a62 7fbd e1d0 21bd 6212 eabd ef30 d33e
00000060: 2655 e13d cb6f ad3e fcdb c5ba 88d8 003e
00000070: a58a 643e 26d2 39be 2815 043e 3f74 fdbc
00000080: 6b69 f93d fc1d b63e 9270 233e 892c 493e
00000090: 0770 1fbf ce13 f5be 1950 24be 3a1d 36bd
000000a0: cb5f 6abe cd83 de3d 9f46 93bd a339 debd
000000b0: 152f 0ebd 3814 9d3d bff0 92be 0a2e 8fbd
000000c0: cad8 49be 3cca 5b3d 8eca ac3d 8503 e33d
000000d0: fa10 953e d3ea 82bd d39a be3e c295 d73e
000000e0: 62a0 813d 5ca4 643d 6c08 e83d 2fdc 233e
000000f0: d7ac f7bd 6c71 963c e184 e5bd 80d3 993e
00000100: 10f8 1f3e f7af 3ebe df14 2b3e 873c 113c
00000110: 0b5d a03e 9be3 0fbd e888 f3bd b43b b03c
00000120: 229f 16be 219a 41be f736 dabe a390 943d
00000130: 0968 3d3e 3a84 ed3d 7d46 1b3e a9f0 113c
00000140: 79f3 93be 83ab 3abf f9cd 033e 9902 963e
00000150: c7c1 14be 9fd8 693e b8b6 a7be af47 fbbc
00000160: e5d7 2e3d 01f1 6dbe e842 0e3e 494c 79bd
00000170: 4f60 13be 81ca 6c3e 11e7 563e 1ce1 4c3d
00000180: c6f3 343e 40c2 e2bd f385 2ebe b6f1 363d
00000190: f1ba 08bd ded0 bfbe 3536 d23d 0908 52bd
000001a0: b3c6 843d 7410 753e 23e0 adbe 7025 493d
000001b0: 2dd7 6ebd 6298 d13d 91f4 4bbe 8ef3 2b3d
000001c0: 989f a7be abfc 1a3e 66aa 18bf cbf0 0d3e
000001d0: 6e65 533e 28b1 d8bc 876b 3bbe 7ebe 893e
000001e0: 10ff c5bf cf09 eb3d efe6 653e 5168 f83d
000001f0: c1a6 7b3e 9027 06be 768d 2f3e f7f2 323e
00000200: 0d08 8abe 53f5 1e3e ab21 bc3e 7efd 0bbf
00000210: 982a babe d7f8 bfbc 747f f3bc b732 a9be
00000220: eaed 273e 9ee4 4f3e 6433 983d 7f34 f6bd
00000230: 5e33 a93e 3a2e 44bd f758 5dbe 83b0 423d
00000240: e96f 843d e8a9 8b3e c518 49be 9403 a23c
00000250: 359d 6b3e 1cc8 b3bc 1be0 223e d7ed 7d3b
00000260: 35e9 7cbc 2a53 583c 245a 703d eb33 8cbe
00000270: fa5c 49be e87a cabe bbb7 39bd 1463 f13d
00000280: c8bd 123e 18bc 3ebd 1146 38be 9ce9 29bd
00000290: e281 0bbe ddc4 e7bd e8dc f03c cbee 7bbd
000002a0: 4725 173e ee0d 12be 39f6 1e3e e276 0abe
000002b0: 92bc 03be e843 eb3c a56a c03d 5de2 23be
000002c0: dc1d 29bc dcf1 733d 7820 39be ec0d 38be
000002d0: 003b 5abc 10d4 e2bc 4029 52bc fd12 27be
000002e0: 8d3b e4bc 1963 213c 80f8 2b3d 2a8f 213c
000002f0: 342c 1abe fba6 fc3d 086a e7bc 08a2 3abd
00000300: 62ce 233e bef7 dfbe 65f1 2c3d 9baf 8ebd
00000310: 124d c83d 0294 33bd 2742 37be c753 b63d
00000320: b5c3 07bf 9669 d4be 2da2 0c3e 46bf 59bd
00000330: 1d07 8f3c 7f18 73bc beb3 463f cfe0 92be
00000340: 462f 29bf 4989 cebe f69b 803e 4a0d 1dbf
00000350: b03b e03d 372c fabe cce8 dfbe af8d b8be
00000360: e7a1 413e 8f68 17bf d965 11be 0a7e 08bf
00000370: 9fc3 60be 5ae5 743e 469f 703d b046 8bbe
00000380: e5a7 89be dd37 c23e e2ba e73d ae95 77bd
00000390: c439 70be 2550 193d 115f 8abe 4242 49bd
000003a0: d800 5ebd 77d6 0cbd 0244 cebe 2545 823e
000003b0: 2c4e 82ba 6ebc 9fbc 1982 9dbe 736a 55be
000003c0: d513 1cbe 21e3 c5be d171 e73e b309 a4bf
000003d0: 1d0e d23d 7203 f43c 4d58 3e3d 1161 693d
000003e0: d2c2 cfbe 6ada f7be 0d72 08be 6884 a3bc
000003f0: 23c7 b33d be2a 8f3e 3a81 5dbe e625 eebe
-0.1178438 0.20197369 0.16582794 0.053217962 -0.11149456 -0.04719302 0.009576035 -0.12947433
-0.18688595 0.005805161 0.345706 -0.0655259 -0.10991739 -0.03363221 0.03490344 0.2706281
0.29896015 0.39571202 -0.16445753 0.20455386 -0.062349655 -0.039505843 -0.114292875 0.4124827
0.11002569 0.33874354 -0.0015095468 0.125826 0.22318514 -0.18146572 0.12898695 -0.03093922
0.1217831 0.3556975 0.15960911 0.19645895 -0.62280315 -0.47866672 -0.1604618 -0.044461466
-0.22888105 0.10864983 -0.07191204 -0.10850837 -0.03471287 0.07669872 -0.286993 -0.06991203
-0.19711605 0.053659663 0.08437072 0.11084656 0.29114515 -0.063924454 0.37227497 0.42106444
0.06329419 0.055820808 0.11329731 0.16001962 -0.120935135 0.01836463 -0.11206985 0.30044174
0.15621972 -0.18621813 0.1670718 0.0088645285 0.31320986 -0.03512917 -0.11891347 0.021512844
-0.14709142 -0.18906452 -0.4262006 0.0725415 0.18496718 0.11597486 0.15163608 0.0089074755
-0.28896692 -0.72917956 0.12871541 0.29298857 -0.14527045 0.2283654 -0.3275659 -0.03067383
0.04268636 -0.23236467 0.1389271 -0.060863767 -0.14392208 0.23124124 0.20986582 0.05001937
0.17671117 -0.110722065 -0.17043285 0.044664107 -0.033381406 -0.3746404 0.102642454 -0.051277194
0.06483211 0.23932058 -0.33960065 0.04910797 -0.058310676 0.10234143 -0.19917513 0.04198032
-0.32738948 0.15135448 -0.5963501 0.13861386 0.20644161 -0.026451662 -0.18302737 0.26903147
-1.5468464 0.1147648 0.22451375 0.12129272 0.2457533 -0.1310103 0.17143807 0.17475496
-0.26959267 0.15523271 0.36744437 -0.54683673 -0.3636062 -0.023434086 -0.02972386 -0.33046505
0.16399351 0.20302054 0.07431677 -0.120217316 0.33047003 -0.047895648 -0.21615969 0.047531616
0.06466658 0.27278066 -0.19638355 0.019777097 0.23009188 -0.021946006 0.15905802 0.00387465
-0.01543646 0.013203422 0.058679715 -0.2738336 -0.19664374 -0.39546895 -0.045341235 0.11786476
0.14330208 -0.0465661 -0.17995478 -0.041482553 -0.13623765 -0.113168456 0.029402211 -0.061507028
0.14760314 -0.14263126 0.15523614 -0.13521913 -0.12864903 0.028718904 0.09395341 -0.1600432
-0.01032206 0.059556827 -0.18078792 -0.17974061 -0.013319731 -0.02768901 -0.012827218 -0.16315837
-0.027860427 0.009850287 0.041985035 0.009860793 -0.15055925 0.123365365 -0.028248802 -0.04556468
0.15996698 -0.437437 0.0422224 -0.06967088 0.09780325 -0.043842323 -0.17896329 0.08902698
-0.53033 -0.41486806 0.1373374 -0.05316093 0.017459447 -0.014837383 0.77618015 -0.2868714
-0.6608776 -0.40339115 0.2511899 -0.613484 0.109488845 -0.48861858 -0.43732297 -0.36045596
0.18909417 -0.5914392 -0.14199008 -0.5331732 -0.21949624 0.23915616 0.058745645 -0.27202368
-0.26885906 0.37933245 0.11314942 -0.06044548 -0.23459536 0.037429947 -0.27025655 -0.049135454
-0.054200023 -0.034384217 -0.4028626 0.25443378 -0.000994151 -0.01949903 -0.3076332 -0.20841388
-0.1524194 -0.38649848 0.45204023 -1.281546 0.10256598 0.0297868 0.04647093 0.056977335
-0.40578324 -0.48408824 -0.13324757 -0.019960597 0.08778217 0.27962297 -0.21631327 -0.4651329

actor.2.bias f4 [32]
00000000: 9426 d4bb 0ef9 90bd 6d17 b7bd 4cba 24bd
00000010: afce 2ebe a63e c0bc dacf b43d c27d e93d
00000020: 90b4 1cbe e5d0 4a39 c315 503e 8d3c 5dbe
00000030: 4729 3e3e 9e49 9a3c d671 46be 1230 48be
00000040: 58ca 54bd 6a8f e4bc 2d6a fabb 2ce8 0bbe
00000050: dca9 e13d e28c 0b3e 5025 2cbe 8592 bd3d
00000060: 915f 05be 6248 64bd 3a9c 8c3e a1f5 933d
00000070: fb59 833e 5ca9 533e 4621 b1bc c5fa 363c
-0.0064743254 -0.070787534 -0.08940015 -0.04021673 -0.17071031 -0.023467373 0.08828707 0.114009395
-0.15303254 0.0001934204 0.20320801 -0.2160513 0.18570434 0.018833932 -0.19379362 -0.19549587
-0.051950783 -0.027900416 -0.0076420517 -0.13662785 0.11018726 0.13627961 -0.16811109 0.09256462
-0.13024737 -0.055733092 0.2746294 0.07224584 0.25654587 0.20670074 -0.021622311 0.011168187

actor.4.weight f4 [2, 32]
00000000: 5e1e 12be acbc 03bd 8a1b 7f3d 7fd6 c63e
00000010: dfc5 aa3e 9bb8 0e3e 3cb2 20be 658f 0bbd
00000020: 60af e83d 7f94 213e ea78 26bd 7a98 163f
00000030: d159 dd3d b1fd de3e 9ba7 39bd dd5b b4be
00000040: b767 68be 8193 023e fc9c f5bc bf46 31bd
00000050: a7fb ffbe 876d 98be 559b 6b3e c882 113e
00000060: 6f13 efbe 43b7 9abe cd43 623d a8ba 76bd
00000070: 4701 b73e 7edd 11be 23e0 e8bd d743 20bd
00000080: 6eae f4be d159 d2be c4ee a73e f229 68be
00000090: 0216 693f 0904 2ebe 8828 8c3f 2dc0 ef3f
000000a0: 9ae4 90bd df75 c1bd 66af 3d3f 5e7b 15bd
000000b0: 620c 9a3e 6a38 30be 9509 ebbe 2ef1 bcbd
000000c0: f179 1d3e ecbc 10bd 0c18 0fbf 7abf 303f
000000d0: dfdd dfbe 5e7f 8cbe 0a45 f83d 70bb 623c
000000e0: 3124 66bc fcf1 0b3e eaf5 443f 1d3b e23d
000000f0: 9c21 513e 1cc4 da3e cc21 29bd 512f f6bd
-0.14269397 -0.032162353 0.062282123 0.38835523 0.3335409 0.13937609 -0.15692991 -0.0340723
0.11361575 0.15779303 -0.040642656 0.5882641 0.10808147 0.43552926 -0.045325857 -0.35226336
-0.22695814 0.12751581 -0.029982083 -0.04328036 -0.49996683 -0.29771063 0.23008473 0.14210045
-0.46694514 -0.30217943 0.05524044 -0.060236603 0.35743162 -0.14244649 -0.11370876 -0.039127197
-0.4778933 -0.4108415 0.3279935 -0.22672251 0.91049206 -0.16993727 1.0949869 1.8730522
-0.07074852 -0.0944631 0.7409576 -0.036494605 0.30087572 -0.1720902 -0.45905748 -0.09225689
0.15378548 -0.03533642 -0.5589607 0.6904217 -0.43723962 -0.27440923 0.12122543 0.013838634
-0.014046715 0.13666528 0.76937735 0.11046431 0.20422977 0.42727745 -0.041291997 -0.12020744

actor.4.bias f4 [2]
00000000: c4b6 67bc 2593 97bd
-0.014142696 -0.074011125

actor.0.weight f4 [32, 6]
00000000: 035b 1cbe fd71 213c d71e 003f a55f cabe
00000010: 1c4f 973e c010 923e 33a6 57be 2fdf 69bd
00000020: 4a84 f33e a6e2 343f 1e9a 68be ca2b 01bf
00000030: 015e 14bf 11bc 843e 7b0c b33e de28 4ebc
00000040: be4b d6bd d1ee 44be 9509 41be ba8c 5c3e
00000050: 62e8 dabe 326e c03c 18bd bd3e 12ff 0abe
00000060: a6a3 83be 6f5a 593e d8a9 bbbe 5649 aa3e
00000070: 9d37 6f3e 00e3 7e3e 674a dfbc e81a 933e
00000080: 7b3e b73e dcad d73e 0bf6 acbe c3fc aebe
00000090: 1618 223e 50db 263e 8e76 653e 0c9e ad3e
000000a0: f8be aa3d db58 1bbe c1fa b2be 367a 70be
000000b0: c27e 7bbe 2740 2fbe 57c4 89be c86a 5a3e
000000c0: 8de3 403e 4ea5 0d3e 7dc8 8ebe 31ed f63c
000000d0: af29 433e bab5 cfbe 3a36 323e 6de8 603e
000000e0: 5c5f ad3e eedb f2bd 7180 47be b3ea 51be
000000f0: 4b60 ed3e 9096 44be 6c0c 993d c02f 91bc
00000100: dcad 023c f5f6 f83e c17c 2b3e 9c35 f73e
00000110: 1884 a4be bfc7 e7bb 2ee4 903e 884c 83be
00000120: 3e2c e2be 71e0 1ebe 6f2d 003f 1e78 bb3e
00000130: a76e 0abe 57c5 5e3e 3db2 9b3d 0d92 763e
00000140: 3b1c ccbe daff db3e 79b6 e1bd 937b ab3e
00000150: 61a2 963e ea35 83be bfe8 1a3f 3b59 c9be
00000160: 2d61 c53e cff6 403e c1a3 283e 0c0e c73d
00000170: d798 323e 3e4d 7f3e 8520 08be bddb e03d
00000180: 7357 17bd 8a33 32be 93fc c1be b27d d83e
00000190: 6f82 11bd 8dc5 9fbd dff3 b63e 957f 763e
000001a0: e4ae 983e 4fa5 713d ad2f f93e 43ca d63d
000001b0: ea2f 0a3e 0a99 923d b676 173f 3a84 8bbe
000001c0: c849 16be 7673 93bd c78f e53e af93 1cbf
000001d0: 85f9 1c3e 8402 17be 3fd4 80ba 7138 efbc
000001e0: 8a12 8bbe e1b8 19bf e648 7cbe b444 cc3c
000001f0: de39 aa3e 7803 963e 1b26 6f3e 182c 4d3e
00000200: 48b9 783e 052b 52bd 3516 01be 08d6 c43d
00000210: 50ee c43e 3452 0f3e 7f95 113f 6ead b6bd
00000220: ebcc 8d3e 361b 283e 6c52 cc3e 3906 28be
00000230: 73df 3b3c 69cb bbbe 2b13 41bd 07d7 153f
00000240: c09a 533e 65b4 90be 9329 483f 3720 23be
00000250: f0aa d13d a316 913e 737b fc3e 26ab 92be
00000260: 2ad1 92be 29b2 a03e a5ce 93be 1974 e5bd
00000270: 54bd 9e3e 7408 b63d f738 10bf 0c3d acbd
00000280: 2b8a 3fbd d416 6f3c 562b 51be 5cd1 01bf
00000290: 382f 67be 8846 fa3e 84ac 68be 9546 2d3e
000002a0: 5916 6e3e 610c f63e 9cfb ddbe b551 8dbe
000002b0: 29b1 a03d 645b 813e c982 b6be 89da 4e3d
000002c0: f382 a33d c23e f5be 2aba a73e b334 fb3e
000002d0: a3ad 383d cbed d9be 9d55 e6bd 3028 a3be
000002e0: 181f 91bc 4a63 f53e 5b2f ddbd 45b9 c1be
000002f0: cea5 263f d153 d4bc a9f3 213e 298b 98be
-0.15269093 0.009853837 0.5004706 -0.39526096 0.29552543 0.28528404 -0.21059494 -0.05709761
0.47561866 0.7065834 -0.22715041 -0.5045744 -0.5795594 0.25924733 0.3497046 -0.012582986
-0.104636654 -0.19231726 -0.18851312 0.21538058 -0.4275542 0.023490045 0.3705833 -0.13573864
-0.2571079 0.21225904 -0.36653018 0.33259076 0.23361059 0.24891281 -0.027257157 0.28731465
0.35789856 0.42124832 -0.33781466 -0.34177217 0.158295 0.16294599 0.22408506 0.33909643
0.08337206 -0.15170614 -0.34956935 -0.2348412 -0.24560073 -0.17114316 -0.26907608 0.21329796
0.18836804 0.1383259 -0.27887335 0.030142399 0.1905887 -0.40568334 0.17403498 0.21963663
0.33861816 -0.118583545 -0.1948259 -0.20499687 0.46362528 -0.1919806 0.074730724 -0.017722964
0.007976022 0.48625913 0.16746809 0.48283088 -0.3213203 -0.007073372 0.28299087 -0.25644326
-0.4417438 -0.15515305 0.50069326 0.3661508 -0.13518773 0.21754967 0.07602356 0.24079151
-0.39865288 0.42968637 -0.11021132 0.33492717 0.2942076 -0.2562707 0.6051139 -0.3932589
0.38550702 0.1884415 0.16468717 0.09719476 0.17441116 0.2493181 -0.13293655 0.10979412
-0.036948632 -0.17402473 -0.3788801 0.42283398 -0.03552478 -0.07801352 0.35732934 0.24072106
0.2982093 0.05899554 0.48669186 0.10487797 0.1349484 0.07158096 0.59165514 -0.27249318
-0.14676583 -0.07199757 0.44836256 -0.6116285 0.15329559 -0.14747053 -0.0009828879 -0.029201718
-0.27162582 -0.6004773 -0.24637184 0.024935104 0.33247274 0.2929952 0.2335438 0.20036352
0.24289429 -0.051310558 -0.12606128 0.09611136 0.38463068 0.13996202 0.5686874 -0.08919798
0.27695403 0.1641663 0.39906633 -0.16408624 0.011466849 -0.36678627 -0.04713742 0.5853123
0.20664501 -0.2826263 0.7818844 -0.15930258 0.10237682 0.28337583 0.49312934 -0.286462
-0.28675205 0.31385925 -0.28868595 -0.112037845 0.3100382 0.08888331 -0.5633692 -0.08410081
-0.046762627 0.014592845 -0.20426688 -0.5071008 -0.22576606 0.48881936 -0.2272206 0.16921456
0.23250712 0.4805632 -0.43356025 -0.276014 0.078462906 0.25265038 -0.35646656 0.05050138
0.07983961 -0.47899443 0.3275922 0.49063644 0.045087468 -0.42564234 -0.11246798 -0.31866598
-0.017715022 0.47927314 -0.10800048 -0.37836662 0.6509675 -0.025918873 0.15815605 -0.2979367

actor.0.bias f4 [32]
00000000: 24f4 a6be cf51 993e 3aca b63e 132a ffbc
00000010: 94a5 f33e 1e32 b83d d719 a2be 207a 8cbd
00000020: 2a8a 0abe fd55 8f3d 7257 b03e 3ceb 40be
00000030: 645d cb3e 2968 9b3d 6547 dbbe c4ab 0cbe
00000040: 6376 a93e b47a f33d f70d f13e 105f b3bb
00000050: 751e c3be 5109 723d 2be8 98be c152 833e
00000060: 709a 45bd f233 5bbe 8df6 adbe ceeb 14bf
00000070: 862e 9ebe 7ee5 3c3e eb43 cd3e d42b 40bc
-0.3260814 0.29945228 0.35701162 -0.031147992 0.47587264 0.08993934 -0.3166034 -0.06859231
-0.13529268 0.06998823 0.34441715 -0.18839735 0.3971969 0.07588226 -0.42827907 -0.13737398
0.33098134 0.11888638 0.47080967 -0.005473979 -0.38109174 0.059090916 -0.2986463 0.25649074
-0.048242986 -0.21406534 -0.33977166 -0.5817231 -0.3089487 0.1844692 0.4009088 -0.011729199
