results/SandingEnvMiddle/ddpg_extension/model/model_parameters_0.pt (torch, 32386 bytes, 22 tensors)

value.0.weight f4 [32, 12]
-0.089051396 -0.101719886 -0.08035316 0.10838798 -0.1265891 0.09038637 0.26367205 -0.24962053
0.13842587 0.12566313 -0.5527287 -0.48512188 -0.036852036 0.10377058 -0.01889146 -0.014720942
0.11501082 0.056728773 0.10730004 -0.20172624 0.03355211 0.14768226 -2.0224805 -2.0939283
0.10419795 -0.019681972 -0.13177341 -0.16298454 -0.0074011865 0.03351606 0.104876585 -0.14862305
-0.032243375 -0.1995222 0.3112944 0.62311774 -0.1639326 -0.1315269 0.05117014 -0.091839164
0.05695751 0.07191276 0.16638319 0.14282179 -0.22386278 0.18774192 0.078464925 -1.6554252
0.03332913 -0.039187644 0.032860547 -0.057357654 -0.13006994 -0.023473928 0.105643265 0.01694395
0.13239987 0.003783169 -0.23253173 1.5971699 0.074073836 0.022135967 -0.13391542 -0.025567733
0.043702926 -0.07284894 0.22176354 0.11471977 0.057937834 0.073679194 -2.2403169 1.4759675
-0.060997576 0.21510227 0.0016181855 0.10872078 0.013919013 -0.012785367 0.20357443 0.16545847
0.20142043 0.32215574 1.8637904 1.890136 0.12901995 0.15656522 0.036064357 -0.107418835
0.13128892 0.024566855 0.2281788 -0.1087903 0.02585635 0.21763824 2.5236988 1.4554642
0.13506624 -0.22719626 0.01573462 -0.052797988 -0.03927402 -0.084188916 0.061680466 0.1721419
-0.20268878 -0.20731679 -0.932979 1.2838323 -0.021994483 -0.08607339 -0.064453565 0.004201234
0.1915368 0.00041703734 -0.091135606 -0.00019355609 0.17490932 -0.20836404 1.0295867 -0.54986876
0.072748125 0.22495961 0.07459937 -0.054653324 -0.068479 -0.11470797 0.22925086 0.06520064
0.20335795 -0.10942181 2.6190655 0.7095332 -0.16133289 -0.09227389 -0.0066216122 -0.030372938
0.027937004 -0.086754724 -0.057755608 0.20569512 -0.16625315 0.2174475 0.6348388 -1.0635083
0.044977944 -0.041913506 -0.14184174 -0.0829553 -0.04951791 -0.062113784 -0.27658942 0.23685883
0.029284565 -0.17660941 0.9072527 -0.5418717 -0.31115282 -0.12691952 -0.041924972 0.14014283
0.04263908 -0.0061509847 0.20277172 0.32405853 -0.24321887 0.2639722 -0.07029454 -0.7559511
-0.059663948 -0.1408517 0.020145936 -0.045629304 -0.0955082 0.0016015295 0.014432734 -0.15032695
-0.18265423 -0.14494629 0.1748145 -0.97779036 -0.18248087 0.1443695 -0.0064802053 0.044773676
-0.016771905 -0.16388562 0.157479 -0.043023393 -0.10872863 -0.113526456 0.58840716 -0.1760965
0.07939313 0.18025106 0.16970266 0.24805108 -0.12496775 0.09376022 0.044411916 0.24428378
0.12523328 -0.03387295 -1.6759131 -1.6033683 -0.044080094 0.06747831 0.0151927965 -0.10195675
0.052709635 -0.09438139 -0.11779714 0.22841865 0.10366687 -0.110511415 0.5254831 3.0409386
-0.07337541 -0.11493391 0.055051807 0.084948465 0.110895224 0.024575239 -0.1516494 -0.08851071
-0.24595557 -0.03297805 -0.53546 -0.0883249 -0.102343805 -0.09450335 -0.14510612 0.01910123
-0.14400065 -0.15275869 0.23987864 0.12900181 0.15932034 -0.17974065 -0.67378926 -1.4735996
0.084086 0.25443485 0.02960575 0.05691914 0.17701295 0.2032707 0.4863975 0.0017763278
0.09613008 0.1458085 -1.7934691 -0.35937148 0.16235724 0.15346262 0.020905852 -0.008892857
00000000: 9460 b6bd 8452 d0bd 3390 a4bd 84fa dd3d
00000010: 93a0 01be 7d1c b93d 0600 873e 869c 7fbe
00000020: 83bf 0d3e d6ad 003e a17f 0dbf e561 f8be
00000030: 29f2 16bd ab85 d43d 43c2 9abc 1b30 71bc
00000040: cb8a eb3d 6e5c 683d 20c0 db3d 5391 4ebe
00000050: f06d 093d 053a 173e 5270 01c0 ec02 06c0
00000060: bc65 d53d 163c a1bc 9cef 06be 6be5 26be
00000070: a785 f2bb 2348 093d 89c9 d63d a430 18be
00000080: a111 04bd 8c4f 4cbe fb61 9f3e a584 1f3f
00000090: f3dd 27be fdae 06be c897 513d 2c16 bcbd
000000a0: 474c 693d ff46 933d 5b60 2a3e e03f 123e
000000b0: 493c 65be 6b3f 403e 38b2 a03d f9e4 d3bf
000000c0: 2084 083d 3983 20bd c898 063d dcef 6abd
000000d0: 0e31 05be 654c c0bc 7f5b d83d 0ace 8a3c
000000e0: d593 073e 0bef 773b cc1c 6ebe 1070 cc3f
000000f0: 06b4 973d 7d56 b53c 2021 09be 6c73 d1bc
00000100: d701 333d d331 95bd fb15 633e 33f2 ea3d
00000110: 3950 6d3d 1ee5 963d 5a61 0fc0 81ec bc3f
00000120: 98d8 79bd c543 5c3e 4c19 d43a 00a9 de3d
00000130: 920c 643c b779 51bc d175 503e f26d 293e
00000140: 2841 4e3e 99f1 a43e af90 ee3f faef f13f
00000150: ce1d 043e a252 203e 38b8 133d 68fe dbbd
00000160: 9a70 063e 6e40 c93c b4a7 693e 73cd debd
00000170: b2d0 d33c 8fdc 5e3e 4884 2140 a74c ba3f
00000180: ce4e 0a3e 23a6 68be e4e5 803c b442 58bd
00000190: cbdd 20bd 3d6b acbd a8a4 7c3d f745 303e
000001a0: a68d 4fbe da4a 54be b6d7 6ebf 9e54 a43f
000001b0: c62d b4bc 3f47 b0bd 3b00 84bd 81aa 893b
000001c0: 3922 443e cea5 da39 4ea5 babd 51f5 4ab9
000001d0: 6e1b 333e 625d 55be 7fc9 833f 33c4 0cbf
000001e0: f8fc 943d d05b 663e 8ec7 983d 2adc 5fbd
000001f0: b83e 8cbd 03ec eabd bdc0 6a3e ea87 853d
00000200: 113d 503e 8b18 e0bd c59e 2740 f8a3 353f
00000210: 7334 25be 18fa bcbd 1cfa d8bb abd0 f8bc
00000220: 25dc e43c 76ac b1bd 2591 6cbd bea1 523e
00000230: 443e 2abe 8faa 5e3e cc84 223f 0a21 88bf
00000240: cb3a 383d 7fad 2bbd f63e 11be 78e4 a9bd
00000250: 4bd3 4abd 066b 7ebd 219d 8dbe 1f8b 723e
00000260: 2fe6 ef3c 19d9 34be b741 683f 1bb8 0abf
00000270: 6c4f 9fbe 31f7 01be 85b9 2bbd 9a81 0f3e
00000280: 51a6 2e3d 338e c9bb 64a3 4f3e 00eb a53e
00000290: 5e0e 79be 5d27 873e 95f6 8fbd 0386 41bf
000002a0: 2f62 74bd 6e3b 10be 1709 a53c cbe5 3abd
000002b0: ce99 c3bd 6aea d13a 4677 6c3c 4fef 19be
000002c0: b609 3bbe cd6c 14be 9302 333e 7850 7abf
000002d0: 44dc 3abe 99d5 133e e757 d4bb 9a64 373d
000002e0: 3c65 89bc a2d1 27be 2d42 213e 4c39 30bd
000002f0: 1ead debd 8f80 e8bd daa1 163f a452 34be
00000300: de98 a23d bc93 383e 89c6 2d3e 1a01 7e3e
00000310: 17ef ffbd 5c05 c03d 45e9 353d 8725 7a3e
00000320: 273d 003e 5dbe 0abd 5284 d6bf 2c3b cdbf
00000330: 548d 34bd 1132 8a3d 35eb 783c b3ce d0bd
00000340: 0fe6 573d 084b c1bd a03f f1bd 94e6 693e
00000350: 4c4f d43d cf53 e2bd 0f86 063f bd9e 4240
00000360: d945 96bd 7862 ebbd 017e 613d 76f9 ad3d
00000370: 091d e33d 0352 c93c fb49 1bbe 1a45 b5bd
00000380: c7db 7bbe fe13 07bd e813 09bf afe3 b4bd
00000390: a199 d1bd f98a c1bd b396 14be 2f7a 9c3c
000003a0: e874 13be c66c 1cbe bfa2 753e 0d19 043e
000003b0: df24 233e ef0d 38be 747d 2cbf e99e bcbf
000003c0: 4835 ac3d 4945 823e c287 f23c 0b24 693d
000003d0: e242 353e 3226 503e 1809 f93e acd3 e83a
000003e0: d9df c43d d34e 153e 6590 e5bf 8aff b7be
000003f0: fa40 263e 4e25 1d3e c042 ab3c 58b3 11bc

value.0.bias f4 [32]
-0.11889471 0.24915569 -0.088368334 0.043547824 -0.37004888 0.0024898052 -0.068549804 0.014646586
-0.3091146 -0.124671854 0.36248696 -0.16456737 0.13751683 0.033591624 -0.34950694 -0.49786928
-0.929318 -0.65905094 0.14831688 0.42530388 -0.3168895 0.18041569 -0.2825702 -0.013273831
-0.16582054 -0.18557535 0.11355261 0.33123296 0.16171782 -0.18201427 0.010560712 -0.024010448
00000000: 127f f3bd ab22 7f3e 75fa b4bd 345f 323d
00000010: 0c77 bdbe 002c 233b d763 8cbd 3cf8 6f3c
00000020: 4544 9ebe f553 ffbd e497 b93e 5984 28be
00000030: 36d1 0c3e 5f97 093d 93f2 b2be b9e8 febe
00000040: c9e7 6dbf 90b7 28bf 61e0 173e 6ec1 d93e
00000050: 573f a2be e4be 383e 0bad 90be 7c7a 59bc
00000060: dccc 29be 7707 3ebe 458e e83d 5e97 a93e
00000070: 5b99 253e f361 3abe d606 2d3c 8fb1 c4bc

value.2.weight f4 [32, 32]
0.067602694 0.06761038 -0.9266409 -0.18582578 0.046596684 -0.81858146 -0.14682744 -0.18887573
-0.19852483 -0.112144075 0.22340229 0.017638976 -0.029656738 -0.19605006 -0.07438654 -0.057856914
-0.17737909 -0.1330534 0.03718649 0.03746584 0.18252426 0.18588522 -0.013529788 -0.19149332
-0.04106125 0.0964362 -0.007943312 -0.00323142 0.14197733 -0.016439484 0.111947864 -0.18245836
0.12247011 0.028396856 0.018343491 0.0846647 -0.025335737 -0.19215621 0.12800035 -0.13340643
-0.07861078 -0.003223991 -0.07354714 -0.11967534 -0.08698491 0.012687913 0.039393418 0.07492669
-0.10898231 -0.301421 -0.069608144 0.05013463 -0.50381047 -0.063720286 0.11227899 -0.057918724
0.09066006 -0.014109048 0.2836626 -0.080109626 0.002877562 0.17581128 -0.11705863 0.22795984
0.025447622 -0.045796663 0.14972521 -0.10965305 0.14917968 -0.05676796 0.06636606 -0.03012741
-0.18578587 -0.090616144 -0.07842937 -0.024536649 -0.0013360853 0.121463284 0.044590246 0.09105485
0.1154304 0.1999232 -0.045277286 -0.18238531 0.06400915 -0.07515934 -0.03459738 -0.024854064
-0.0056666704 0.13829207 0.0075843614 0.008213493 0.11060035 -0.043372158 0.08672021 -0.043919895
0.051824696 0.15768793 -0.07289569 0.0925132 0.09190911 0.1343076 0.12033868 -0.054809686
0.13505055 -0.15781792 -0.036156736 0.0385665 0.03813889 -0.28538427 -0.053507045 0.11802798
0.12604758 -0.064099714 -0.13354038 -0.21145353 0.0601442 0.09374932 -0.18162435 0.17709976
-0.0042015924 -0.06556649 0.063938625 -0.27943724 -0.008477022 0.0049139718 0.0732521 0.030803824
-0.120466486 -0.18186879 0.13964847 0.066719964 0.002276768 0.07018855 0.06880411 0.060869634
0.08713886 -0.21391828 0.03790679 -0.24201381 -0.14135648 0.06372151 0.12557568 0.0035712938
-0.11106422 0.3057678 -0.016268738 -0.05921825 -0.00027152957 0.016443795 0.13983187 -0.04683143
0.1365624 0.044469714 0.066508904 -0.14311604 -0.15251003 0.17341661 -0.11579073 -0.079553135
0.11321402 -0.056214403 -0.0017906576 -0.23210466 0.09620433 -0.12781046 -0.23377708 0.16351101
-0.07294109 -0.042010035 0.14129785 0.08491296 0.11358239 -0.06161491 -0.11810358 0.06570737
0.030725198 0.17796923 -0.13234156 -0.026015475 -0.13607621 -0.008573728 0.13374281 -0.018024655
0.105888955 0.239654 -0.3799515 0.015572008 -0.1862306 0.098734714 -0.03784519 -0.06740674
0.19772294 0.08578679 -0.049936995 -0.087707356 -0.04748911 -0.12676291 -0.0263644 0.041137066
-0.12951359 -0.08134602 -0.19810799 0.05851219 0.08075095 0.0038805504 0.08178216 -0.2166682
-0.07855648 -0.17223747 -0.16771191 -0.06803504 -0.28178453 -0.24526417 -0.1473743 0.06359547
0.065535896 0.023136133 0.061719082 0.15937339 0.13446575 -0.14854169 0.013714535 0.0928422
0.054751042 -0.0023576089 -0.01408545 0.10975885 0.15483063 0.012781075 0.1550853 -0.103128254
0.09640404 -0.07688415 0.086072 -0.13872199 -0.047201633 -0.09408541 0.10337343 0.0667447
-0.15078762 0.30021104 0.044188146 -0.059185717 -0.18652381 0.100951724 0.09903256 0.116298564
-0.19204807 -0.09284892 -0.08391345 -0.06637042 0.028134583 -0.15166949 0.04630026 0.0029643034
00000000: 4873 8a3d 5077 8a3d 5738 6dbf 1d49 3ebe
00000010: 2adc 3e3d 8e8e 51bf ef59 16be a468 41be
00000020: 184a 4bbe cbab e5bd 92c3 643e 9d7f 903c
00000030: b0f2 f2bc 59c1 48be f857 98bd 5ffb 6cbd
00000040: dda2 35be 273f 08be dc50 183d c875 193d
00000050: a4e7 3a3e b258 3e3e 0bac 5dbc d316 44be
00000060: d72f 28bd 5880 c53d aa24 02bc 3bc6 53bb
00000070: 8162 113e 19ac 86bc ec44 e53d 5dd6 3abe
00000080: 9cd1 fa3d 86a0 e83c 1745 963c b064 ad3d
00000090: e48c cfbc 99c4 44be 8612 033e b29b 08be
000000a0: b0fe a0bd 9849 53bb e29f 96bd 5818 f5bd
000000b0: 2525 b2bd f7e0 4f3c fe5a 213d 2a73 993d
000000c0: 1e32 dfbd da53 9abe b78e 8ebd f859 4d3d
000000d0: b9f9 00bf c87f 82bd 87f2 e53d 2f3c 6dbd
000000e0: fbab b93d a329 67bc 393c 913e 8410 a4bd
000000f0: 7b95 3c3b df07 343e 6fbc efbd 4e6e 693e
00000100: 8877 d03c 4895 3bbd 9151 193e c791 e0bd
00000110: 8fc2 183e 8585 68bd eeea 873d c2cd f6bc
00000120: a73e 3ebe f594 b9bd 949f a0bd 1501 c9bc
00000130: 951f afba bec1 f83d 43a4 363d f77a ba3d
00000140: c666 ec3d abb8 4c3e ad74 39bd 37c3 3abe
00000150: 3b17 833d 24ed 99bd fbb5 0dbd c09a cbbc
00000160: 7aaf b9bb 709c 0d3e 3c86 f83b e391 063c
00000170: 7082 e23d 01a7 31bd 5e9a b13d 59e5 33bd
00000180: 2246 543d f278 213e 564a 95bd 9077 bd3d
00000190: d83a bc3d ee87 093e 2074 f63d 1f80 60bd
000001a0: b14a 0a3e 059b 21be 1619 14bd e8f7 1d3d
000001b0: 8637 1c3d e31d 92be 342a 5bbd a7b8 f13d
000001c0: 9e12 013e b646 83bd cfbe 08be 4687 58be
000001d0: c459 763d a5ff bf3d bcfb 39be a459 353e
000001e0: 83ad 89bb b947 86bd 41f2 823d 6612 8fbe
000001f0: 35e3 0abc 6205 a13b 3205 963d 4d58 fc3c
00000200: 22b7 f6bd d03b 3abe 0200 0f3e 7aa4 883d
00000210: d435 153b 04bf 8f3d 2be9 8c3d 7052 793d
00000220: dc75 b23d 650d 5bbe 2644 1b3d 78d2 77be
00000230: c1bf 10be 6c80 823d e996 003e 5e0c 6a3b
00000240: a375 e3bd 998d 9c3e 0446 85bc d68e 72bd
00000250: 155c 8eb9 23b5 863c 1630 0f3e 50d2 3fbd
00000260: 04d7 0b3e e025 363d d235 883d 038d 12be
00000270: 972b 1cbe 2094 313e b123 edbd c1ec a2bd
00000280: c1dc e73d 1341 66bd 80b4 eaba d8ac 6dbe
00000290: c706 c53d bfe0 02be 4263 6fbe 6e6f 273e
000002a0: 2362 95bd b712 2cbd 62b0 103e d9e6 ad3d
000002b0: e29d e83d ea5f 7cbd 4ae0 f1bd 9691 863d
000002c0: 69b3 fb3c 913d 363e 8c84 07be 681e d5bc
000002d0: 9057 0bbe d278 0cbc e0f3 083e 71a8 93bc
000002e0: 4fdc d83d dc67 753e 0189 c2be bc21 7f3c
000002f0: 3cb3 3ebe 6d35 ca3d 8f03 1bbd 8b0c 8abd
00000300: e277 4a3e fcb0 af3d bc8a 4cbd ea9f b3bd
00000310: f183 42bd 23ce 01be 27fa d7bc 577f 283d
00000320: 369f 04be be98 a6bd d2dc 4abe 7aaa 6f3d
00000330: c160 a53d d550 7e3b 687d a73d 45de 5dbe
00000340: 38e2 a0bd 055f 30be acbc 2bbe f455 8bbd
00000350: 1046 90be 8826 7bbe 4ae9 16be 573e 823d
00000360: af37 863d fd87 bd3c 26cd 7c3d c732 233e
00000370: 64b1 093e 501b 18be eeb2 603c 0d24 be3d
00000380: a142 603d 1d82 1abb a9c6 66bc 3fc9 e03d
00000390: ec8b 1e3e b767 513c aece 1e3e e834 d3bd
000003a0: 7b6f c53d 7075 9dbd 8446 b03d 230d 0ebe
000003b0: 8056 41bd daaf c0bd 73b5 d33d 72b1 883d
000003c0: 1268 1abe 43b5 993e a1fe 343d b96c 72bd
000003d0: 1900 3fbe c7bf ce3d 95d1 ca3d f12d ee3d
000003e0: 40a8 44be 9327 bebd d1da abbd 37ed 87bd
000003f0: 7f7a e63c 3f4f 1bbe 57a5 3d3d c244 423b

value.2.bias f4 [32]
0.123586774 -0.03221235 -0.15931779 -0.08310626 0.09289128 0.04527766 0.17812687 0.08789885
-0.0015181015 -0.21171089 0.08107965 0.08512935 0.07505814 0.05205266 0.0751182 -0.017321814
0.20512982 -0.2757594 0.10806675 0.08126252 -0.074476846 0.090279974 -0.05250873 0.18359874
0.12151462 -0.04448198 -0.04964829 0.001367604 -0.16656166 -0.052156147 -0.13876341 -0.21263428
00000000: 101b fd3d 19f1 03bd 3424 23be 9d33 aabd
00000010: c93d be3d 1175 393d e466 363e 5004 b43d
00000020: 09fb c6ba bdca 58be 160d a63d 4c58 ae3d
00000030: 15b8 993d 2c35 553d 92d7 993d 7ae6 8dbc
00000040: 8d0d 523e 5630 8dbe 1a52 dd3d f76c a63d
00000050: 5187 98bd b5e4 b83d 6513 57bd 4f01 3c3e
00000060: a8dc f83d bd32 36bd 015c 4bbd 2d41 b33a
00000070: 248f 2abe afa1 55bd ff17 0ebe cdbc 59be

value.4.weight f4 [1, 32]
-0.043733563 -0.03108393 -0.028551757 0.04096271 0.041050818 -0.04042351 0.039493952 0.05189145
0.028019076 -0.044695437 0.038690098 0.034623977 0.049503688 -0.016278166 0.06157749 -0.055292346
0.07447661 -0.063949086 0.046057876 -0.03266906 0.069878615 0.024424603 -0.09630764 0.033713553
0.03716236 -0.04158752 -0.018882697 -0.02967114 -0.05231395 0.05712631 -0.045754693 -0.039297298
00000000: f721 33bd baa3 febc 60e5 e9bc 84c8 273d
00000010: e724 283d 1f93 25bd 69c4 213d 218c 543d
00000020: 4388 e53c 9012 37bd 8279 1e3d dfd1 0d3d
00000030: 61c4 4a3d ca59 85bc ae38 7c3d 3a7a 62bd
00000040: 3187 983d bdf7 82bd 2fa7 3c3d fecf 05bd
00000050: 851c 8f3d 1b16 c83c f13c c5bd 3917 0a3d
00000060: 8f37 183d ad57 2abd e3af 9abc e410 f3bc
00000070: 2747 56bd 47fd 693d 4669 3bbd 34f6 20bd

value.0.weight f4 [32, 12]
-0.08998269 -0.1012461 -0.0762996 0.10680352 -0.13089061 0.092238754 0.26388022 -0.24941233
0.13814095 0.12537824 -0.5516919 -0.48476955 -0.037668668 0.103027984 -0.01922882 -0.014808277
0.11278016 0.055217803 0.10708229 -0.20194408 0.035567217 0.14969748 -2.0214584 -2.0935152
0.104569204 -0.018652461 -0.12997273 -0.16116701 -0.012509082 0.030274618 0.1066195 -0.14688013
-0.032601222 -0.19988002 0.31361026 0.6210714 -0.16447297 -0.13168103 0.049875583 -0.09237948
0.057088263 0.0707948 0.16586325 0.14230184 -0.22394131 0.18766339 0.0808158 -1.65592
0.034915373 -0.040213484 0.034732424 -0.058077127 -0.13007197 -0.023157617 0.106221445 0.017522061
0.13146378 0.0028470168 -0.23798625 1.5976304 0.07608617 0.021134768 -0.13028117 -0.024178144
0.040647358 -0.07589754 0.2201827 0.113138996 0.059332047 0.07507335 -2.2402422 1.476809
-0.057557605 0.21588957 0.005791301 0.107874796 0.014475429 -0.011005808 0.20350505 0.16538909
0.20122279 0.321958 1.8637191 1.8893694 0.12752585 0.15908477 0.03122551 -0.10661489
0.13023779 0.024976762 0.22971888 -0.10725013 0.024706762 0.21648873 2.522255 1.4552755
0.1355082 -0.22749817 0.017040333 -0.055145264 -0.04001977 -0.08419509 0.06138882 0.1718503
-0.20222887 -0.20685688 -0.93430984 1.2836015 -0.021984365 -0.08560467 -0.06829262 0.0030367584
0.1900588 0.002592071 -0.093326166 -0.0023841385 0.17788316 -0.2053902 1.027547 -0.5469316
0.073732235 0.22423293 0.07190158 -0.05743778 -0.07043497 -0.116294965 0.22636183 0.062311392
0.2023822 -0.11039758 2.6142488 0.70898825 -0.16142881 -0.092219174 -0.009785572 -0.032500785
0.028761735 -0.084233664 -0.057847742 0.20560288 -0.16600724 0.21769342 0.63485307 -1.0638798
0.048014786 -0.041927062 -0.14283796 -0.08281878 -0.049678236 -0.06376939 -0.2760599 0.23738818
0.030550245 -0.17534356 0.90146 -0.53842187 -0.3108641 -0.12749162 -0.04157359 0.14010243
0.04224338 -0.0038846552 0.20292932 0.32421616 -0.24335632 0.26383457 -0.06632695 -0.75222653
-0.059984393 -0.14094284 0.01796123 -0.045057684 -0.09577023 0.0005211848 0.013835986 -0.15092376
-0.18316483 -0.1454569 0.17567524 -0.9775429 -0.1843437 0.14306876 -0.0069367797 0.046201173
-0.015426325 -0.16478132 0.15777525 -0.04272709 -0.10894787 -0.1137457 0.59100485 -0.17874889
0.08396093 0.1816316 0.16512313 0.25007227 -0.12557647 0.09420297 0.04258289 0.24245457
0.12515856 -0.033947572 -1.6712308 -1.5995061 -0.04165344 0.06772483 0.016026769 -0.101227306
0.052125078 -0.09200866 -0.1162146 0.23000106 0.102383204 -0.11179508 0.52330625 3.0401835
-0.07373576 -0.115855955 0.05706881 0.0833921 0.11386375 0.02235909 -0.15109417 -0.08795544
-0.24498309 -0.032005448 -0.5331387 -0.08742529 -0.100679785 -0.09355356 -0.14504196 0.021614466
-0.14364941 -0.15372173 0.24079105 0.12991422 0.1584428 -0.1806182 -0.6755603 -1.468656
0.08660295 0.25282413 0.02798384 0.057596903 0.17838389 0.2027799 0.48620656 0.0015853473
0.09585275 0.14553101 -1.7907645 -0.3570518 0.16380098 0.15152968 0.022860248 -0.010609436
00000000: d848 b8bd 1e5a cfbd f742 9cbd cebb da3d
00000010: 3008 06be ace7 bc3d 4f1b 873e f265 7fbe
00000020: d274 0d3e 2763 003e ae3b 0dbf b733 f8be
00000030: 764a 1abd 5600 d33d c285 9dbc 6a9e 72bc
00000040: 49f9 e63d 102c 623d f64d db3d 6eca 4ebe
00000050: eeae 113d 4c4a 193e 935f 01c0 27fc 05c0
00000060: 6128 d63d 0ccd 98bc 9217 05be f708 25be
00000070: e5f2 4cbc 7a02 f83c 535b da3d bf67 16be
00000080: dc88 05bd 59ad 4cbe 8691 a03e 89fe 1e3f
00000090: 9a6b 28be 64d7 06be 574a 4c3d 7431 bdbd
000000a0: 62d5 693d ddfc 903d 0ed8 293e 93b7 113e
000000b0: df50 65be d52a 403e c182 a53d 30f5 d3bf
000000c0: 6c03 0f3d e5b6 24bd 9643 0e3d 48e2 6dbd
000000d0: 9631 05be 0bb5 bdbc a18a d93d 6d8a 8f3c
000000e0: 719e 063e 0495 3a3b abb2 73be 277f cc3f
000000f0: 11d3 9b3d d222 ad3c 6d68 05be 3e11 c6bc
00000100: d87d 263d 2b70 9bbd 9377 613e 6bb5 e73d
00000110: 2906 733d 0ec0 993d 2160 0fc0 1408 bd3f
00000120: 86c1 6bbd 2812 5d3e f4c4 bd3b 76ed dc3d
00000130: 5a2a 6d3c b451 34bc a163 503e c25b 293e
00000140: 590d 4e3e aed7 a43e 598e ee3f dbd6 f13f
00000150: 2396 023e 1ee7 223e a4cc ff3c e858 dabd
00000160: 0e5d 053e 119c cc3c 6d3b 6b3e f5a5 dbbd
00000170: d665 ca3c 39af 5d3e a06c 2140 7846 ba3f
00000180: a9c2 0a3e 48f5 68be 2b98 8b3c 00e0 61bd
00000190: c5eb 23bd 7a6e acbd d872 7b3d 86f9 2f3e
000001a0: 1615 4fbe 4ad2 53be ee2e 6fbf 0e4d a43f
000001b0: 8e18 b4bc 8051 afbd 00dd 8bbd 5a04 473b
000001c0: c69e 423e bcdf 293b ca21 bfbd 353f 1cbb
000001d0: 0127 363e cf51 52be a986 833f b603 0cbf
000001e0: ed00 973d 519d 653e 2341 933d e143 6bbd
000001f0: 3640 90bd 0e2c eebd 65cb 673e 3b3a 7f3d
00000200: 483d 4f3e 2018 e2bd da4f 2740 4180 353f
00000210: 984d 25be 68dd bcbd aa53 20bc 8b1f 05bd
00000220: bb9d eb3c b382 acbd c1f1 6cbd 9089 523e
00000230: cdfd 29be 06eb 5e3e bb85 223f 372d 88bf
00000240: 27ab 443d b6bb 2bbd 1d44 12be e49c a9bd
00000250: 687b 4bbd 8799 82bd b957 8dbe e315 733e
00000260: 8244 fa3c 438d 33be 15c6 663f 04d6 09bf
00000270: 9429 9fbe 2a8d 02be 1249 2abd 0377 0f3e
00000280: 6507 2d3d b395 7ebb b4cc 4f3e a9ff a53e
00000290: 6632 79be 5315 873e 6dd6 87bd eb91 40bf
000002a0: 32b2 75bd 5253 10be 6e23 933c 688e 38bd
000002b0: 2f23 c4bd 1fa0 083a 55b0 623c c28b 1abe
000002c0: 908f 3bbe a7f2 14be 36e4 333e 4040 7abf
000002d0: 98c4 3cbe 9e80 123e ed4d e3bb 713d 3d3d
000002e0: b2be 7cbc 6fbc 28be d68f 213e 9a02 2fbd
000002f0: 1020 dfbd 81f3 e8bd 184c 173f f309 37be
00000300: b5f3 ab3d a2fd 393e 0a16 293e 7909 803e
00000310: 1e97 00be 7ded c03d 656b 2e3d 0346 783e
00000320: 9129 003e 9c0c 0bbd e4ea d5bf 9ebc ccbf
00000330: cc9c 2abd 51b3 8a3d 924a 833c 4350 cfbd
00000340: 1b81 553d 096f bcbd ec01 eebd 6685 6b3e
00000350: 49ae d13d d2f4 e4bd 66f7 053f 5e92 4240
00000360: c602 97bd e345 edbd fcc0 693d 7ac9 aa3d
00000370: 6631 e93d 692a b73c 6eb8 1abe fb21 b4bd
00000380: d9dc 7abe 2518 03bd c77b 08bf 080c b3bd
00000390: 3431 cebd 0299 bfbd e185 14be d210 b13c
000003a0: d518 13be 3b69 1dbe ee91 763e 3c08 053e
000003b0: d43e 223e faf3 38be 85f1 2cbf ebfc bbbf
000003c0: e35c b13d 2a72 813e 5e3e e53c bbea 6b3d
000003d0: 44aa 363e 89a5 4f3e 11f0 f83e 6ecb cf3a
000003e0: 724e c43d 1506 153e c537 e5bf 7ecf b6be
000003f0: 72bb 273e 992a 1b3e 6a45 bb3c 33d3 2dbc

value.0.bias f4 [32]
-0.11954189 0.24884139 -0.08856676 0.04404647 -0.37106872 0.0040705465 -0.06874752 0.013843609
-0.30813462 -0.12414141 0.36398634 -0.16442358 0.13675112 0.03343416 -0.34872136 -0.49650016
-0.92769605 -0.65992665 0.14907797 0.42332616 -0.31669867 0.18179534 -0.2811691 -0.012662408
-0.1652761 -0.18631369 0.11287458 0.33011496 0.16203329 -0.18229021 0.010492913 -0.02318696
00000000: 61d2 f4bd 47d0 7e3e 7d62 b5bd 126a 343d
00000010: b8fc bdbe 3862 853b 80cb 8cbd 4ed0 623c
00000020: d2c3 9dbe da3d febd 6b5c ba3e a85e 28be
00000030: 7c08 0c3e 42f2 083d 9b8b b2be 4535 febe
00000040: 7d7d 6dbf f4f0 28bf e5a7 183e 35be d83e
00000050: 5426 a2be 8f28 3a3e 65f5 8fbe fd75 4fbc
00000060: 233e 29be 04c9 3ebe ca2a e73d d404 a93e
00000070: 0eec 253e 49aa 3abe 78ea 2b3c 94f2 bdbc

value.2.weight f4 [32, 32]
0.06810748 0.06946197 -0.92954737 -0.18531598 0.047504056 -0.8156459 -0.1486741 -0.18773529
-0.19364144 -0.10894254 0.22225355 0.01532379 -0.033556677 -0.2002387 -0.0747793 -0.057778746
-0.17682557 -0.13454634 0.040228996 0.03545074 0.17930686 0.18879175 -0.010504447 -0.19146834
-0.03966375 0.092374794 -0.008192749 -9.84014e-05 0.14169331 -0.015794368 0.11032848 -0.18161547
0.12343102 0.028422195 0.019993035 0.08426859 -0.023795312 -0.18962339 0.12959123 -0.13237578
-0.07498461 -0.0026991921 -0.072520696 -0.11959582 -0.08643397 0.012978605 0.03977899 0.07571738
-0.10666036 -0.2991659 -0.06969901 0.05040748 -0.50078636 -0.06230131 0.1121918 -0.05792704
0.09148432 -0.015406621 0.2851826 -0.078822084 0.0034859544 0.17683057 -0.11581001 0.22847109
0.025861101 -0.046072025 0.14927092 -0.10876083 0.1496566 -0.057202205 0.06672294 -0.030090353
-0.18600759 -0.09051748 -0.07817433 -0.0239579 -0.0020196629 0.12146446 0.044428222 0.09073929
0.11603894 0.19930272 -0.045369737 -0.18262742 0.06413118 -0.07486169 -0.034124546 -0.024846142
-0.006400037 0.13747473 0.007967192 0.009289322 0.11145171 -0.04254298 0.08745851 -0.043410346
0.052162174 0.1569128 -0.07306859 0.091358535 0.0925079 0.13342753 0.12012602 -0.054889403
0.13597715 -0.15841998 -0.03620882 0.03985831 0.03869487 -0.2834107 -0.053147577 0.11867121
0.12596159 -0.06346558 -0.13341394 -0.21030231 0.06059184 0.09387258 -0.18207482 0.17640068
-0.0041097132 -0.06584771 0.061591234 -0.27931318 -0.009340206 0.004601583 0.07258149 0.030731097
-0.121509835 -0.18286039 0.13877228 0.063902006 0.0013180494 0.06970164 0.068742916 0.061531097
0.086854585 -0.21420847 0.03723429 -0.24469404 -0.14264114 0.06261849 0.1246281 0.0039003086
-0.1115253 0.30508187 -0.015684798 -0.05939662 -0.00065821834 0.016973136 0.14010754 -0.0462094
0.13671716 0.04496352 0.06523281 -0.14272714 -0.15298527 0.17267944 -0.11706465 -0.081304766
0.11297976 -0.05575924 -0.002290359 -0.23179947 0.09622521 -0.12774047 -0.23384656 0.16295108
-0.073156394 -0.043929122 0.14142334 0.08344178 0.1132107 -0.06165116 -0.11823317 0.065096416
0.030405277 0.17783546 -0.13304512 -0.026712384 -0.1338447 -0.008862495 0.13365889 -0.018435096
0.10573798 0.23919944 -0.3800658 0.016434474 -0.18617462 0.099062584 -0.038187325 -0.06697484
0.19691156 0.085662216 -0.050698485 -0.08766401 -0.048578095 -0.12744021 -0.024628684 0.04162326
-0.12888236 -0.082975015 -0.19951627 0.057725485 0.08108143 0.0029342265 0.08201354 -0.21720569
-0.07699498 -0.17144209 -0.16851702 -0.06907531 -0.27800247 -0.2490949 -0.14803408 0.064437434
0.06427427 0.02529696 0.059829086 0.15829213 0.13411708 -0.15370697 0.01298471 0.091843486
0.05541447 -0.0025090908 -0.014052386 0.11086187 0.15490955 0.01245048 0.15449357 -0.104223
0.09661264 -0.076357156 0.085665345 -0.13652834 -0.04689517 -0.09227731 0.10444818 0.06726624
-0.15152647 0.30069232 0.04469033 -0.0577263 -0.18832521 0.10015852 0.09942942 0.11650907
-0.19047733 -0.09270607 -0.08484012 -0.06760436 0.029337851 -0.1512671 0.047302444 0.003580002
00000000: ef7b 8b3d 1442 8e3d d1f6 6dbf 79c3 3dbe
00000010: 9d93 423d 2bce 50bf 063e 18be ae3d 40be
00000020: f149 46be 441d dfbd 6f96 633e a210 7b3c
00000030: ba72 09bd 600b 4dbe e425 99bd 68a9 6cbd
00000040: c311 35be 84c6 09be 29c7 243d cc34 113d
00000050: 389c 373e a052 413e d81a 2cbc 4710 44be
00000060: 7576 22bd ff2e bd3d e13a 06bc d95c ceb8
00000070: 0d18 113e 3163 81bc e6f3 e13d 68f9 39be
00000080: 67c9 fc3d aad5 e83c 6fc8 a33c 0395 ac3d
00000090: 63ee c2bc a22c 42be 90b3 043e 848d 07be
000000a0: 8891 99bd eee4 30bb bb85 94bd a7ee f4bd
000000b0: 4b04 b1bd 37a4 543c 4bef 223d b711 9b3d
000000c0: bf70 dabd 462c 99be 5bbe 8ebd 1378 4e3d
000000d0: 8933 00bf a92f 7fbd d0c4 e53d e744 6dbd
000000e0: 225c bb3d 0d6c 7cbc 7403 923e 796d a1bd
000000f0: 9c74 643b 1313 353e cc2d edbd 53f4 693e
00000100: a9da d33c 05b6 3cbd 7ada 183e ffbd debd
00000110: 943f 193e dc4c 6abd 09a6 883d 0b80 f6bc
00000120: c678 3ebe 3b61 b9bd dd19 a0bd 5c43 c4bc
00000130: 525c 04bb 5cc2 f83d 5efa 353d 85d5 b93d
00000140: d3a5 ed3d 0316 4c3e 9ed5 39bd af02 3bbe
00000150: 3557 833d 1651 99bd 2ec6 0bbd 238a cbbc
00000160: 67b7 d1bb 2dc6 0c3e d388 023c 3e32 183c
00000170: cb40 e43d 8c41 2ebd 731d b33d 0ccf 31bd
00000180: 01a8 553d c0ad 203e fca4 95bd 2f1a bb3d
00000190: c874 bd3d 3aa1 083e a104 f63d b6d3 60bd
000001a0: 983d 0b3e d938 22be b34f 14bd 7842 233d
000001b0: 837e 1e3d 351b 91be 46b1 59bd e409 f33d
000001c0: 13fc 003e 3efa 81bd aa9d 08be 7d59 57be
000001d0: 262f 783d 4440 c03d d271 3abe 61a2 343e
000001e0: c6aa 86bb 2adb 86bd 1747 7c3d 2302 8fbe
000001f0: aa07 19bc e0c8 963b 9ba5 943d c8bf fb3c
00000200: 26da f8bd c13f 3bbe 521a 0e3e 0edf 823d
00000210: 66c2 ac3a bcbf 8e3d 16c9 8c3d 0808 7c3d
00000220: d1e0 b13d 7759 5bbe fc82 183d 1391 7abe
00000230: 8510 12be 1f3e 803d 043d ff3d 529c 7f3b
00000240: 6067 e4bd b133 9c3e 687d 80bc df49 73bd
00000250: 498c 2cba 3f0b 8b3c 5a78 0f3e 1146 3dbd
00000260: 95ff 0b3e ab2b 383d c898 853d 1027 12be
00000270: 2ca8 1cbe e1d2 303e 97bf efbd 1d83 a6bd
00000280: ef61 e73d cd63 64bd d919 16bb d75c 6dbe
00000290: b911 c53d 66ce 02be 7975 6fbe a6dc 263e
000002a0: 05d3 95bd 06ef 33bd 48d1 103e 86e3 aa3d
000002b0: 03db e73d ed85 7cbd 3b24 f2bd 4551 853d
000002c0: 7d14 f93c 801a 363e fb3c 08be eed3 dabc
000002d0: 960e 09be 0034 11bc e0dd 083e 3305 97bc
000002e0: 278d d83d b3f0 743e fc97 c2be 97a1 863c
000002f0: 8fa4 3ebe 53e1 ca3d 506a 1cbd 1b2a 89bd
00000300: 2fa3 493e ac6f af3d 37a9 4fbd 3089 b3bd
00000310: d3f9 46bd b07f 02be 18c2 c9bc 277d 2a3d
00000320: bdf9 03be ceee a9bd fe4d 4cbe 8f71 6c3d
00000330: 050e a63d 274c 403b b7f6 a73d 2b6b 5ebe
00000340: 8baf 9dbd 848e 2fbe ba8f 2cbe 5b77 8dbd
00000350: 5756 8ebe bc12 7fbe 3f96 17be c6f7 833d
00000360: 3aa2 833d 923b cf3c 580f 753d 5517 223e
00000370: fd55 093e 5c65 1dbe d2bd 543c 7018 bc3d
00000380: 49fa 623d 8f6f 24bb fb3b 66bc 8c0b e33d
00000390: 9ca0 1e3e 19fd 4b3c 9033 1e3e de72 d5bd
000003a0: d9dc c53d 2461 9cbd 5071 af3d 16ce 0bbe
000003b0: 2615 40bd e3fb bcbd ede8 d53d e2c2 893d
000003c0: c129 1bbe 58f4 993e 350d 373d 6a72 6cbd
000003d0: 53d8 40be e91f cd3d a7a1 cb3d 4f9c ee3d
000003e0: 7d0c 43be aedc bdbd a8c0 adbd 2874 8abd
000003f0: ef55 f03c c3e5 1abe 35c0 413d 789e 6a3b

value.2.bias f4 [32]
0.1249407 -0.031242725 -0.15888572 -0.08258497 0.09277828 0.04468367 0.17692688 0.08830658
-0.0018873449 -0.2123039 0.08141004 0.08517369 0.075324595 0.052167647 0.075455196 -0.017108357
0.20488523 -0.2758033 0.10899182 0.0808541 -0.073824994 0.090154506 -0.05303099 0.18418638
0.121553205 -0.045009334 -0.049737122 0.0004920691 -0.16644788 -0.051916745 -0.13927543 -0.21233766
00000000: e9e0 ff3d bef0 ffbc f0b2 22be 4f22 a9bd
00000010: 8a02 be3d 3906 373d 522c 353e 15da b43d
00000020: c960 f7ba 3266 59be 4fba a63d 8b6f ae3d
00000030: c843 9a3d bead 553d 4188 9a3d d326 8cbc
00000040: 6fcd 513e 1736 8dbe 1a37 df3d d696 a53d
00000050: 8f31 97bd eda2 b83d 0637 59bd 5b9b 3c3e
00000060: e3f0 f83d b55b 38bd 27b9 4bbd 33fe 003a
00000070: 5071 2abe a7a6 54bd 389e 0ebe 0b6f 59be

value.4.weight f4 [1, 32]
-0.04447603 -0.030870283 -0.02878035 0.040690962 0.041049965 -0.040116016 0.040194593 0.052087232
0.028320648 -0.044922102 0.038993895 0.034487855 0.050459433 -0.01631222 0.061196227 -0.055163346
0.07452342 -0.06412525 0.046817668 -0.033339746 0.07212044 0.024336526 -0.095394425 0.03398016
0.037880283 -0.04170376 -0.018300861 -0.029637594 -0.050929666 0.05723836 -0.045671843 -0.03961704
00000000: 7f2c 36bd ade3 fcbc c5c4 ebbc 91ab 263d
00000010: 0224 283d b150 24bd 16a3 243d 6c59 553d
00000020: b400 e83c 3d00 38bd 10b8 1f3d 2343 0d3d
00000030: 8dae 4e3d 34a1 85bc e5a8 7a3d f6f2 61bd
00000040: bc9f 983d 1954 83bd e2c3 3f3d 428f 08bd
00000050: e2b3 933d 655d c73c 275e c3bd c82e 0b3d
00000060: 5b28 1b3d 90d1 2abd b0eb 95bc 8aca f2bc
00000070: a09b 50bd c572 6a3d 6612 3bbd 7a45 22bd

actor.0.weight f4 [32, 10]
0.23176935 -0.035310447 -0.10921854 0.40416706 -0.2547001 0.3705039 0.09587126 -0.09560497
0.17919812 -0.24922696 -0.50028074 -0.09638882 -0.105793655 -0.25656796 0.029679488 0.31318298
-0.4243965 -0.34353754 0.4166469 0.14813001 0.2999859 0.070421055 0.06267118 -0.069926694
-0.02058474 0.19003868 -0.23868059 -0.5479031 -0.24854253 0.28778848 0.27917936 0.12466866
0.25952327 0.14477071 0.09069243 0.5570707 -0.27400318 -0.12130985 -0.18208915 0.10612308
-0.2554674 0.12148867 -0.46772575 -0.021268368 -0.4260955 0.28412104 -0.07277823 -0.10208707
-0.068490975 0.30758747 -0.45873857 0.33411166 0.022850886 0.44414395 -0.019361632 -0.16983329
-0.3517393 -0.2603123 -0.22676729 -0.2803583 0.35512143 0.17588536 -0.085544296 -0.40145728
0.1026629 -0.19040579 -0.02117735 -0.06449062 -0.0718819 -0.050628003 0.23783998 -0.09501523
-0.15696578 -0.074094675 0.41788182 -0.44797635 -0.3795756 -0.16065435 0.3939719 -0.018028073
0.15614703 -0.42165604 0.060745705 -0.26873273 -0.2601182 -0.4359242 -0.24052127 0.13756208
0.25611565 0.26055664 -0.27358824 -0.23019896 0.47194487 0.36573136 -0.23773065 0.113534845
0.3133822 0.31103414 0.26871228 0.19301829 0.14963007 -0.14267446 -0.30708706 -0.38773197
0.032920226 0.21117869 0.030016495 -0.31487352 -0.18295738 -0.018372307 0.10228503 0.20658763
-0.051816415 0.022059951 -0.34068492 0.18617167 -0.3679327 -0.12446863 0.10026288 0.47827607
-0.28337258 -0.3657987 -0.3331115 0.14868183 -0.36650026 0.05172016 0.35596487 0.16127492
-0.09349939 -0.3028406 0.4645554 0.4401154 0.052869383 -0.017611818 0.36958015 -0.27967834
-0.11016881 -0.13157941 0.10527854 -0.074480265 -0.35501307 -0.62795216 -0.28748274 0.04862786
-0.33119065 0.07438698 0.02839448 0.17143817 0.29881802 0.12104814 0.14812446 0.22635213
0.08371795 0.2848339 0.21679197 -0.50352275 0.01457635 0.09113918 0.0051032826 0.13912408
0.06911483 -0.24858907 -0.10095588 0.35558188 -0.21060996 -0.17186736 0.33147103 0.21390347
-0.36381033 -0.09474902 -0.34093872 0.026625246 0.3359474 -0.03861775 0.4138618 -0.3551836
-0.36244166 -0.22239156 -0.20361638 -0.08419717 -0.3248044 0.044148427 0.22962876 -0.45565653
0.15097636 -0.173978 -0.22863233 -0.17455025 0.21636732 -0.02549125 -0.11777693 0.24874914
0.10218909 -0.22957516 -0.33898038 -0.42187992 0.42706707 0.28475586 0.23798132 0.28766254
0.40967864 0.5148255 -0.11102861 -0.39811805 -0.105360195 -0.17380446 0.099366166 0.14528629
0.09475767 0.44993544 0.07074786 0.06885673 0.27423194 -0.05349089 0.00039548034 0.4385006
-0.09462916 -0.19871879 -0.36809066 -0.43232238 0.1608904 -0.27537093 0.16184847 0.2883263
-0.057972975 -0.3756042 0.25499058 0.16024268 -0.20829903 -0.19462112 -0.11888691 -0.09262171
0.47613505 -0.14901067 0.5530058 0.26522473 0.22325416 -0.056617375 0.4063338 0.10080988
-0.34805006 -0.47149858 0.29471204 0.44520327 0.0013898141 -0.04322749 -0.45532966 -0.18111221
0.018535336 -0.15033466 0.086544044 0.41481918 0.035970803 -0.10918837 -0.03590545 -0.26927692
00000000: f254 6d3e b0a1 10bd f8ad dfbd fcee ce3e
00000010: 0d68 82be b0b2 bd3e 2758 c43d 8acc c3bd
00000020: b67f 373e 5a35 7fbe 6612 00bf 8067 c5bd
00000030: 58aa d8bd e05c 83be 6622 f33c 8559 a03e
00000040: 804a d9be 27e4 afbe be52 d53e 65af 173e
00000050: c097 993e ea38 903d bf59 803d ba35 8fbd
00000060: 54a1 a8bc 8099 423e af68 74be 6143 0cbf
00000070: ef81 7ebe 0359 933e 99f0 8e3e 4852 ff3d
00000080: 3ce0 843e c63e 143e f4bc b93d 2f9c 0e3f
00000090: 254a 8cbe 4c71 f8bd 9475 3abe 0f57 d93d
000000a0: a0cc 82be 0dcf f83d c079 efbe 003b aebc
000000b0: 3029 dabe 5078 913e c10c 95bd 0713 d1bd
000000c0: ff44 8cbd 1b7c 9d3e c8df eabe af10 ab3e
000000d0: c831 bb3c d666 e33e 499c 9ebc c7e8 2dbe
000000e0: 2c17 b4be a747 85be af35 68be 208b 8fbe
000000f0: 7ad2 b53e 4b1b 343e d931 afbd cf8b cdbe
00000100: ed40 d23d bcf9 42be 1f7c adbc a813 84bd
00000110: d136 93bd 4f5f 4fbd 538c 733e 5897 c2bd
00000120: a3bb 20be f3be 97bd 9bf4 d53e 285d e5be
00000130: bc57 c2be 9382 24be afb6 c93e 9caf 93bc
00000140: 02e5 1f3e 4de3 d7be 7dd0 783d 5697 89be
00000150: 362e 85be 7531 dfbe 354b 76be 13dd 0c3e
00000160: 9721 833e ae67 853e c213 8cbe 47b9 6bbe
00000170: c2a2 f13e 2441 bb3e aa6f 73be f584 e83d
00000180: a273 a03e de3f 9f3e a894 893e 96a6 453e
00000190: a038 193e 4119 12be 843a 9dbe ce84 c6be
000001a0: 5cd7 063d 3a3f 583e 27e5 f53c 1a37 a1be
000001b0: 2e59 3bbe 8581 96bc d07a d13d b58b 533e
000001c0: 733d 54bd 12b7 b43c 416e aebe c9a3 3e3e
000001d0: ad61 bcbe 69e9 febd a056 cd3d 9ae0 f43e
000001e0: 3616 91be f849 bbbe 978d aabe 0d40 183e
000001f0: eca5 bbbe 85d8 533d 0741 b63e 4125 253e
00000200: 9c7c bfbd ec0d 9bbe 35da ed3e ce56 e13e
00000210: 918d 583d a946 90bc 9c39 bd3e 0032 8fbe
00000220: 2fa0 e1bd c1bc 06be 469c d73d 1c89 98bd
00000230: 46c4 b5be 79c1 20bf f030 93be 022e 473d
00000240: d291 a9be 3358 983d 8a9b e83c 7d8d 2f3e
00000250: adfe 983e 16e8 f73d f0ad 173e dac8 673e
00000260: 5174 ab3d c0d5 913e b7fe 5d3e dee6 00bf
00000270: a5d1 6e3c 2ea7 ba3d 7039 a73b 8b76 0e3e
00000280: 138c 8d3d 228e 7ebe f5c1 cebd d40e b63e
00000290: 23aa 57be fffd 2fbe 92b6 a93e 8309 5b3e
000002a0: 5945 babe c60b c2bd 858f aebe 301d da3c
000002b0: 4c01 ac3e a52d 1ebd b2e5 d33e a0da b5be
000002c0: f491 b9be 9dba 63be d080 50be 916f acbd
000002d0: c34c a6be fbd4 343d cd23 6b3e d04b e9be
000002e0: 8c99 1a3e 4a27 32be 981e 6abe 4dbd 32be
000002f0: 658f 5d3e 07d3 d0bc 0835 f1bd 18b8 7e3e
00000300: 8348 d13d c015 6bbe d68e adbe a500 d8be
00000310: 89a8 da3e 85cb 913e 60b1 733e 8148 933e
00000320: 66c1 d13e 9bcb 033f f862 e3bd 21d6 cbbe
00000330: 16c7 d7bd ccf9 31be 7d80 cb3d eec5 143e
00000340: 4f10 c23d f05d e63e 41e4 903d c204 8d3d
00000350: 2168 8c3e 4319 5bbd 7958 cf39 2783 e03e
00000360: efcc c1bd f07c 4bbe 6176 bcbe 5c59 ddbe
00000370: 74c0 243e 6bfd 8cbe 9bbb 253e 819f 933e
00000380: 1275 6dbd 324f c0be 208e 823e a816 243e
00000390: 574c 55be c24a 47be fb7a f3bd 73b0 bdbd
000003a0: f9c7 f33e 4196 18be ca91 0d3f 89cb 873e
000003b0: bd9c 643e 9fe7 67bd fc0a d03e 6975 ce3d
000003c0: 9e33 b2be 4368 f1be 7fe4 963e aff1 e33e
000003d0: 6c2a b63a 4f0f 31bd f820 e9be 7b75 39be
000003e0: 6bd7 973c 54f1 19be 013e b13d 2e63 d43e
000003f0: 1f56 133d 279e dfbd 9811 13bd aade 89be

actor.0.bias f4 [32]
0.25109336 0.45681328 -0.2070332 0.42826694 0.5135219 0.35559827 0.17000198 0.28835776
-0.27062207 0.22775339 0.11047303 0.06594805 -0.33444983 0.020540511 0.50271636 -0.39894044
-0.1652728 -0.088728115 0.24080113 -0.18413666 0.24214445 -0.4517496 0.33408564 -0.23930556
0.12727901 -0.019259674 -0.13009354 -0.40403 -0.1441856 -0.43285295 0.021755397 -0.23346488
00000000: 4f8f 803e 6ee3 e93e 8300 54be ce45 db3e
00000010: 2c76 033f fa10 b63e 0015 2e3e a1a3 933e
00000020: fa8e 8abe 2f38 693e af3f e23d c50f 873d
00000030: 023d abbe 9344 a83c 05b2 003f ec41 ccbe
00000040: 463d 29be 16b7 b5bd 9294 763e 528e 3cbe
00000050: b7f4 773e b94b e7be 460d ab3e 840c 75be
00000060: 6e55 023e 77c6 9dbc 3e37 05be 05dd cebe
00000070: 64a5 13be e79e ddbe 6038 b23c 6b11 6fbe

actor.2.weight f4 [32, 32]
0.0008721395 0.029839633 -0.10568003 -0.49868873 -0.0940349 0.18088359 0.040191434 -0.1539449
-0.053060617 0.12888406 0.17134234 -0.4823024 0.06436193 -0.15182723 0.19325441 0.26078954
0.13556038 0.26917967 -0.11415628 0.135603 -0.20057619 0.20416647 -0.14246176 -0.31426784
0.3169556 0.26934204 0.082536526 -0.050693937 -0.076325886 0.14918756 0.18975656 -0.18626525
0.23488864 -0.09574156 -0.1393949 0.28169742 0.11185919 0.011526845 -0.08544639 -0.24892004
-0.06717724 -0.072271384 0.07062853 0.11744397 0.10888964 -0.4310326 -0.19602212 0.1245255
0.40096176 -0.19046381 -0.3230922 -0.10621191 -0.19842844 -0.1592313 -0.011640447 -0.21664308
-0.13354634 0.21752648 0.07050715 0.04278079 -0.5148042 -0.0094326595 -0.39814952 -0.07550224
0.048888303 -0.27102548 -0.0797028 0.017228572 -0.007561032 0.0051591364 0.20651804 0.07209766
0.11553388 -0.41365933 0.26468664 -0.19101536 0.18121104 0.13239926 0.015358926 -0.023995994
0.087507226 -0.29079047 -0.6265965 -0.0031334022 0.12451827 -0.015992766 -0.020483695 -0.38638225
0.07963885 -0.5089865 0.06198724 -0.48157004 0.07203733 -0.17842159 0.023442244 0.2875495
0.04297662 0.2985374 -0.082456015 0.17571416 0.07229191 0.17686564 -0.18814828 -0.15545131
-0.29229277 0.165434 0.0441351 0.20349438 0.25260302 0.21699008 0.21006824 -0.14839289
0.15104032 0.09063943 0.28455925 0.24835932 0.0032826567 -0.5538663 -0.009881388 0.17014346
-0.3681918 0.16907397 -0.25188482 -0.008517099 -0.14305836 0.04017552 -0.3536187 -0.043259252
0.14794154 0.11075902 0.035088856 -0.027070371 0.18034817 0.16488416 -0.2547426 0.2677562
-0.10294789 -0.6330286 -0.006025736 0.10065647 -0.016861262 -0.08685727 0.18211952 0.13200091
0.27756023 -0.022169584 -0.09684366 0.24173415 0.10333778 -0.024494354 -0.14167683 0.10800928
-0.2757128 -0.24043392 0.029102484 0.12847026 0.09311553 0.005337775 0.16683833 0.3100121
-0.38261965 -0.07640393 -0.094104685 -0.46576065 0.22717856 0.14736563 0.105952546 0.16606803
0.15040986 0.26159966 0.06160251 -0.15803659 0.15770924 -0.079067126 -0.03529049 -0.042753723
0.20367081 -0.2592915 -0.026622111 0.009550758 0.30632937 -0.1343793 -0.058483314 0.013980749
-0.41439945 0.179093 0.117360294 0.15355434 -0.17471568 0.13779685 0.23082012 -0.0048341276
-0.0022253522 -0.34086186 -0.11604902 -0.1601814 -0.07119146 0.08810618 0.07071116 -0.070976175
0.2556249 -0.47108394 0.05093187 0.039475627 0.21739252 0.24928899 -0.048045 -0.019094989
0.12320029 0.21446802 0.25898322 -0.14697988 0.312034 0.17738071 0.16556236 -0.097479306
-0.07439562 0.026936037 0.2949832 -0.19817656 -0.06982543 -0.0571758 0.2119434 0.08003645
0.066932514 0.035826575 -0.14607407 0.25891742 0.003321714 -0.23994575 -0.35010386 0.016189838
0.052933626 -0.0032646426 -0.16845436 -0.15483646 0.10833591 -0.05784217 0.29806986 0.042439386
-0.06882839 0.08679358 -0.0013136928 0.33503497 -0.34840026 0.05776317 -0.04103912 0.386291
0.13747759 -0.60021365 -0.10369102 0.10537662 -0.03120534 0.13745455 0.00766126 0.23299463
00000000: 4ba0 643a 3f72 f43c c66e d8bd 2154 ffbe
00000010: 5f95 c0bd 8c39 393e c69f 243d bba3 1dbe
00000020: 1756 59bd 2ffa 033e 5e74 2f3e 57f0 f6be
00000030: 30d0 833d 9978 1bbe 7ce4 453e 3586 853e
00000040: 57d0 0a3e ebd1 893e c5ca e9bd 83db 0a3e
00000050: d863 4dbe 0411 513e 7fe1 11be b7e7 a0be
00000060: 0148 a23e 33e7 893e e908 a93d 72a4 4fbd
00000070: bf50 9cbd a0c4 183e 8b4f 423e 51bc 3ebe
00000080: a686 703e 2714 c4bd 89bd 0ebe a53a 903e
00000090: 6e16 e53d 18db 3c3c 84fe aebd e5e4 7ebe
000000a0: 3994 89bd 0503 94bd b1a5 903d 7786 f03d
000000b0: 8801 df3d 4eb0 dcbe 06ba 48be 3a07 ff3d
000000c0: dc4a cd3e f208 43be 576c a5be a185 d9bd
000000d0: d330 4bbe 880d 23be 93b7 3ebc afd7 5dbe
000000e0: 5fc0 08be 43bf 5e3e 0d66 903d e93a 2f3d
000000f0: 35ca 03bf 718b 1abc 41da cbbe eba0 9abd
00000100: 1a3f 483d dac3 8abe 393b a3bd ef22 8d3c
00000110: 89c2 f7bb f90d a93b 7779 533e f0a7 933d
00000120: 079d ec3d 28cb d3be 0285 873e 8899 43be
00000130: 638f 393e ac93 073e 01a4 7b3c 3f93 c4bc
00000140: fd36 b33d 7de2 94be a168 20bf c459 4dbb
00000150: 6f03 ff3d 4303 83bc 6ccd a7bc e5d3 c5be
00000160: b219 a33d f04c 02bf 55e6 7d3d 5990 f6be
00000170: 4f88 933d 26b4 36be f309 c03c b039 933e
00000180: 4108 303d e5d9 983e b3de a8bd 6aee 333e
00000190: c80d 943d 441c 353e f1a9 40be a12e 1fbe
000001a0: 66a7 95be 8867 293e 02c7 343d d560 503e
000001b0: 2f55 813e a632 5e3e 211c 573e 4ef4 17be
000001c0: 50aa 1a3e 2aa1 b93d c0b1 913e e851 7e3e
000001d0: d721 573b 2fca 0dbf 8ce5 21bc 163a 2e3e
000001e0: a383 bcbe ba21 2d3e 0cf7 80be 4d8b 0bbc
000001f0: e47d 12be 168f 243d 830d b5be 9d30 31bd
00000200: fd7d 173e a0d5 e23d 55b9 0f3d afc2 ddbc
00000210: 31ad 383e 65d7 283e 9f6d 82be 5717 893e
00000220: 58d6 d2bd 2a0e 22bf 8a73 c5bb fb24 ce3d
00000230: a120 8abc 39e2 b1bd 8a7d 3a3e 3f2b 073e
00000240: 601c 8e3e fd9c b5bc f855 c6bd 2889 773e
00000250: c2a2 d33d 62a8 c8bc bb13 11be f833 dd3d
00000260: 3a2a 8dbe 4f34 76be 5568 ee3c b58d 033e
00000270: 5bb3 be3d 81e8 ae3b abd7 2a3e e8b9 9e3e
00000280: b9e6 c3be aa79 9cbd f5b9 c0bd 2e78 eebe
00000290: 7fa1 683e 04e7 163e a6fd d83d bd0d 2a3e
000002a0: 0b05 1a3e 64f0 853e ea52 7c3d 58d4 21be
000002b0: 887e 213e f2ed a1bd c38c 10bd 871e 2fbd
000002c0: 158f 503e dbc1 84be 9d16 dabc c87a 1c3c
000002d0: 34d7 9c3e ba9a 09be 338c 6fbd 830f 653c
000002e0: 2a2c d4be 2864 373e 985a f03d 593d 1d3e
000002f0: abe8 32be 9e1a 0d3e 1c5c 6c3e 9a67 9ebb
00000300: 37d7 11bb 7285 aebe 1cab edbd 9806 24be
00000310: d4cc 91bd 0371 b43d 03d1 903d f55b 91bd
00000320: 44e1 823e ea31 f1be f09d 503d 32b1 213d
00000330: 259c 5e3e 9d45 7f3e d5ca 44bd 186d 9cbc
00000340: 6f50 fc3d 819d 5b3e 7399 843e e581 16be
00000350: ecc2 9f3e 4aa3 353e 2e89 293e 3ba3 c7bd
00000360: bb5c 98bd f7a8 dc3c 0a08 973e ccee 4abe
00000370: a300 8fbd 2c31 6abd b107 593e 26ea a33d
00000380: ea13 893d e3be 123d 7194 15be d390 843e
00000390: 1db1 593b 57b4 75be d040 b3be 8da0 843c
000003a0: eed0 583d 9df3 55bb 4d7f 2cbe 738d 1ebe
000003b0: 38df dd3d e9eb 6cbd 9d9c 983e ecd4 2d3d
000003c0: e6f5 8cbd d5c0 b13d 3730 acba b489 ab3e
000003d0: 8561 b2be 1399 6c3d a318 28bd efc7 c53e
000003e0: edc6 0c3e 9aa7 19bf f55b d4bd b3cf d73d
000003f0: 57a2 ffbc e3c0 0c3e 4f0b fb3b 2596 6e3e

actor.2.bias f4 [32]
0.053887412 0.110295065 -0.017495133 0.12322407 0.012708434 0.18398087 -0.082044035 -0.046054505
-0.1859981 -0.018433092 0.02051916 -0.09647775 -0.05163725 0.005203853 0.05066902 -0.00687973
-0.02978244 -0.009740064 0.093126655 -0.023229815 -0.05151921 0.21431811 0.10847856 0.09377839
0.049621273 -0.024101242 0.15748136 -0.10363842 0.20550157 0.21089391 -0.027621515 -0.041863102
00000000: 0cb9 5c3d 61e2 e13d f451 8fbc e75c fc3d
00000010: 0937 503c 7b65 3c3e b406 a8bd a6a3 3cbd
00000020: 4976 3ebe ff00 97bc cc17 a83c 2096 c5bd
00000030: 9581 53bd 1585 aa3b 518a 4f3d 5c6f e1bb
00000040: 4efa f3bc ca94 1fbc 30b9 be3d 744c bebc
00000050: cf05 53bd 3576 5b3e 022a de3d e20e c03d
00000060: ad3f 4b3d f86f c5bc cb42 213e 6140 d4bd
00000070: 016f 523e 93f4 573e 8446 e2bc a578 2bbd

actor.4.weight f4 [2, 32]
0.5324431 0.6764399 -0.3882638 -0.7026602 -0.2486683 0.05946381 -0.31681684 0.6114044
0.8265447 -0.050758064 -0.36591864 0.15692814 0.45590144 0.2711433 0.02087901 0.025542108
0.100643 0.37432465 -0.09060953 -0.32554668 0.21083122 -0.15616256 -0.4721698 -0.4709365
0.5131887 -0.16668405 -0.070641644 0.54941696 0.33255497 -0.0126514565 0.5732226 -0.60097015
0.31187165 0.68814254 0.5735957 0.14161828 0.18574499 -0.25142658 0.16953664 -0.16736637
-0.53881985 0.3373685 -0.10807434 -0.08568173 -0.010268069 0.19224954 0.2378161 0.5390685
0.23756789 -0.19423807 0.27396533 0.067513995 -0.42648882 -0.0437978 -0.3651122 0.31439406
-0.17533384 -0.0785389 -0.18839295 0.43179846 -0.34687108 -0.65620756 -0.051278383 -0.38677078
00000000: 314e 083f 2a2b 2d3f 83ca c6be 8ae1 33bf
00000010: e7a2 7ebe 5390 733d d135 a2be 0085 1c3f
00000020: 6f98 533f b0e7 4fbd b059 bbbe c5b1 203e
00000030: ea6b e93e 4bd3 8a3e 750a ab3c af3d d13c
00000040: eb1d ce3d 7ba7 bf3e 7d91 b9bd 0eae a6be
00000050: 24e4 573e 14e9 1fbe 3dc0 f1be 971e f1be
00000060: 5660 033f 39af 2abe 91ac 90bd 97a6 0c3f
00000070: a544 aa3e 0e48 4fbc b7be 123f 2ed9 19bf
00000080: a4ad 9f3e 1c2a 303f 2bd7 123f 6204 113e
00000090: ef33 3e3e fcba 80be 039b 2d3e 1762 2bbe
000000a0: 19f0 09bf 90bb ac3e 1456 ddbd e779 afbd
000000b0: 673b 28bc 10dd 443e 1086 733e 6500 0a3f
000000c0: ff44 733e 58e6 46be 2f45 8c3e c744 8a3d
000000d0: be5c dabe 5265 33bd fcef babe 42f8 a03e
000000e0: b78a 33be 01d9 a0bd 15ea 40be b014 dd3e
000000f0: 1699 b1be 38fd 27bf 4809 52bd d206 c6be

actor.4.bias f4 [2]
-0.19293885 0.091120526
00000000: c391 45be 669d ba3d
