results/SandingEnvMiddle/ddpg_extension/model/model_parameters_1.pt (torch, 32386 bytes, 22 tensors)

value.0.weight f4 [32, 12]
00000000: a743 ce3d 1ca3 9f3d dd88 87bd d4f6 b43b
00000010: a2a1 abbd 0282 bebd 8467 8b3d 0da3 81be
00000020: fe35 08bd dc7b 963c 12c2 c83d 3535 e83f
00000030: e3fa b43c c860 51bd 03ef 5d3d ae0c f0bc
00000040: 7c10 75be 9dc4 c5bb f80a 0f3e ad70 26be
00000050: b55d c9bd 86d1 bf3c e308 75bf 5a93 6fbe
00000060: fc9f 7f3d 86ea 2f3e 39d9 16be f40f 22be
00000070: 759d 8fbd 2e44 fe3a 5265 2ebd b776 783e
00000080: 25dd 223e 2376 83bc ca21 8a3e f60c 013f
00000090: 6bd1 debc c3ea e6bd 93a4 87bd 672c 57bd
000000a0: 37fd a2bb 4c58 66bb 3b8a a8bd 1912 28bd
000000b0: 9279 3bbe 2591 d0bc 2708 40bf 573d e4be
000000c0: dfc0 f4bc 837f 223e d3bf a4bd 96ae 65be
000000d0: 9a8c a73d fd1f e3bd af38 f23c 461c f23b
000000e0: 55e6 ecbd 1e94 303d efc1 693f 1b59 963f
000000f0: 66f0 9e3d 7691 8b3d 54e9 9b3b 49f6 2ebb
00000100: 99e5 a7bd 59a8 a5bd 3d38 473e 38cc 02bc
00000110: 40c2 993e 30ad 59be 050a 293f 8036 8b3f
00000120: f26c 2dbd a7a3 93bc 1298 a13c 6e3b c0bb
00000130: 732c b53d 99cc 1b3d b977 053e 360d 01be
00000140: 75e2 bb3d 3303 babd ee18 eebf 0cab dabe
00000150: a632 f4bc d17d f1bb b62e 84bd 7aa1 12be
00000160: 5149 af3d 9a78 d2bd 9f03 933e 721e 6dbd
00000170: 371d 213d a618 d1bd 217c 9e3f 330b cbbf
00000180: 5119 19be e6c2 3fbe 8ba4 19bd f453 f23c
00000190: e369 e93c c3af 323e d390 053e ec15 25be
000001a0: 3e1e 3cbe 7950 ed3d 9bc6 c6be 4d97 a83d
000001b0: 6fbb 7abd 571c d93b 3990 af3d 3c24 f9bd
000001c0: a63f 383e 6f90 82bd f6ae 1b3e 4d76 9a3e
000001d0: 029d 75be fc2e 9d3d 46c8 66bf 9cda bebc
000001e0: 701d 583d e32d 0e3c 9756 d2bd c77b 5e3d
000001f0: 804e 36bb 3e8b 9ebd 943e 39be ca46 7cbd
00000200: 4c1d 343e a6cf 48be 9aa9 2e3f 81db c73e
00000210: d563 773d c144 0dbe d753 4c3d 6700 cabc
00000220: 496b 64bd f8e7 6dbd 5bf6 323e 6cc4 19be
00000230: a25d 6d3d 3685 04be 4429 d4bf f6b4 083f
00000240: dd66 acbc 847d c7bd 36de 483d c392 b13b
00000250: 88ea 0d3e d944 f83d ac91 9d3e 6203 58be
00000260: 20bc e1bd d1ad cf3d e8a4 983f cc33 893f
00000270: a365 19be a29d 61bd 0152 dabc d913 d8bd
00000280: 7315 553d d58f 063e de29 8fba 620f 8c3a
00000290: 914f 78be d172 a13d b47c 373f e352 e6be
000002a0: 3c48 8ebd 46b3 6c3d 22cf 113e 6ea9 31bd
000002b0: 3240 1bbe 9723 763d 09c9 95bc 5895 033e
000002c0: 77e6 1abe d615 10be e555 80bf d56d 2c3f
000002d0: 58f3 b13d 790c e1bd eea3 a83c 75ed 963d
000002e0: 781c 0e3e 5c06 1b3e 8577 78bd 10c5 853e
000002f0: 846d b03c c272 aa3d aaae abbf 6bba 693e
00000300: 2ed0 d13d 5ab9 adbc eb42 3cbd ad47 f4bb
00000310: 6f2b 95bc dd13 48bd e161 b13d a434 80bd
00000320: 1c7e 603e 821f 53be 42a1 533e 15c1 acbf
00000330: e31e b83d 68a7 0ebd 9703 6dbd 7f37 31bd
00000340: 2a2e 13bc e458 a23d 9d24 aabd e218 bcbd
00000350: 6fad 903d 188f a5bd c410 943f 38ed 5c3f
00000360: 8f06 243d ccb7 e4bd 898b 8b3d 2edf b5bd
00000370: aeee 56bd 1866 003d 8615 a53d 3b01 2ebe
00000380: ef71 bbbd 848f 2abd ed17 d33f ca86 06bf
00000390: f953 c63d 7744 64bd d161 c43d 5df5 96bc
000003a0: c683 9e3d a561 e93c 6cad 14be 977d 33bb
000003b0: 600b 15be 3424 32be 22bf b7bf 3a26 2dbf
000003c0: 9a43 153d b0b1 21bd 1b0e 83bc b5f6 a4bc
000003d0: 3bdc abbd 9615 da3d ec83 23bd 2387 74bd
000003e0: 457c f43c 3ddc 253e 0f97 f53e 8a1d 3abf
000003f0: ca65 c33d e1d6 c8bd 9388 eebb 4439 89bd
0.100714974 0.077947825 -0.066179015 0.0055225883 -0.083804384 -0.09302141 0.068068534 -0.2531971
-0.033254616 0.018369608 0.09802641 1.8141237 0.022092288 -0.05111769 0.054183017 -0.029302921
-0.2393207 -0.006035401 0.13969028 -0.1625392 -0.09832326 0.023415338 -0.95716685 -0.23396054
0.062408432 0.17179307 -0.14731301 -0.15826398 -0.070124544 0.0019398981 -0.042577095 0.24264036
0.15904672 -0.016047543 0.26978904 0.504104 -0.027199468 -0.11275246 -0.06623187 -0.05253258
-0.004974033 -0.0035147844 -0.0822949 -0.041032884 -0.18308094 -0.025459835 -0.7501244 -0.4457805
-0.029877124 0.15868954 -0.080444 -0.2242988 0.081811145 -0.11090086 0.029568044 0.0073886244
-0.1156737 0.043110006 0.91311544 1.1745943 0.07760696 0.06814854 0.0047580395 -0.002669709
-0.08198089 -0.080887504 0.19455047 -0.00798326 0.30031013 -0.21257472 0.66030914 1.0876007
-0.042340226 -0.018022371 0.019725833 -0.0058664596 0.08846369 0.038036916 0.13033952 -0.12602696
0.091740526 -0.090826415 -1.8601358 -0.42708623 -0.029809307 -0.007369735 -0.06454222 -0.14319411
0.08558906 -0.10276909 0.287137 -0.057890363 0.039334502 -0.102097794 1.2381631 -1.5862793
-0.14951064 -0.18726692 -0.037510436 0.029581048 0.028492874 0.1744986 0.13043527 -0.16121644
-0.18370911 0.115876146 -0.388234 0.08231983 -0.061213907 0.006625693 0.0857243 -0.12165114
0.1799303 -0.06375205 0.15203461 0.3016838 -0.23985675 0.07674977 -0.90149343 -0.0232976
0.05276245 0.008677932 -0.10270422 0.054317262 -0.0027817786 -0.07741402 -0.18090278 -0.061590947
0.17589301 -0.19610462 0.6822754 0.39034656 0.06039794 -0.13795759 0.049884643 -0.024658395
-0.055766378 -0.05808255 0.1747679 -0.15016335 0.057950623 -0.12941441 -1.6575093 0.53401124
-0.021045143 -0.09740737 0.049040042 0.0054191067 0.13858998 0.12122507 0.307752 -0.2109504
-0.1102221 0.10140575 1.1925325 1.0718932 -0.14980178 -0.05508197 -0.02665043 -0.10550661
0.05202241 0.13140805 -0.0010922512 0.0010685737 -0.24249102 0.078832276 0.71674657 -0.44985113
-0.06947371 0.057788156 0.14239171 -0.04337447 -0.15161207 0.060092535 -0.018284338 0.12849939
-0.15126978 -0.1407083 -1.0026213 0.6735509 0.08688992 -0.10988707 0.02058598 0.0736951
0.13878047 0.15139145 -0.060660858 0.2612691 0.021536596 0.083226696 -1.3412678 0.22825019
0.10244785 -0.021206547 -0.045962255 -0.0074548335 -0.018209187 -0.048847068 0.08661247 -0.062600404
0.21923107 -0.20617488 0.20666984 -1.3496424 0.08990266 -0.03482762 -0.05786475 -0.043265816
-0.008983174 0.07927111 -0.08307765 -0.091844335 0.0706433 -0.080839336 1.1567616 0.8629947
0.040045317 -0.11167869 0.068137236 -0.08880459 -0.052473716 0.031347364 0.08060746 -0.16992657
-0.091525905 -0.041640773 1.6491677 -0.5254942 0.09683985 -0.055729356 0.095889695 -0.018427545
0.077399775 0.028488943 -0.1451928 -0.002738809 -0.1455512 -0.17396623 -1.4355204 -0.67636454
0.036441423 -0.039476097 -0.015997937 -0.02013717 -0.08391615 0.106486484 -0.039920732 -0.05969919
0.029844413 0.16197295 0.4796681 -0.72701323 0.09540899 -0.0980661 -0.0072794645 -0.06700376

value.0.bias f4 [32]
00000000: 5d48 29be a3b5 3ebd f724 34be 5c1b c4be
00000010: 5a6f 793d b0b0 e03e f8fa 16bd 4434 17be
00000020: 53ae 113e 4ea1 d2be ec74 2dbe 1a88 8abe
00000030: 84b3 c3be e428 bb3d 17d5 49bd f8b8 9ebe
00000040: e6d3 c13e b18d 943e 05ac 59be 6d2b 823e
00000050: 72ec 33be 3b07 cfbb 1053 77bc a55d 663d
00000060: 76d9 1cbe 5484 bc3d 7789 16be d077 31be
00000070: 0ad2 90ba f650 c03e a886 7bbe 21a9 1bbe
-0.1653151 -0.04655994 -0.17592226 -0.38302124 0.06089721 0.43884802 -0.036860436 -0.14766032
0.14226656 -0.4113869 -0.16939133 -0.27056962 -0.38222897 0.09138659 -0.049275484 -0.31000495
0.37856978 0.29014352 -0.21257026 0.25423756 -0.17570665 -0.0063180006 -0.015095487 0.05624165
-0.1531733 0.09204927 -0.14700876 -0.17330861 -0.0011048925 0.37561768 -0.24563086 -0.15201236

value.2.weight f4 [32, 32]
00000000: 4f01 45bc adef bfbc d8d2 143e 5758 483e
00000010: e3d3 893d a1aa 96bd 0057 3a3e 377e d43c
00000020: a4ae 2dbe e265 f23d ca14 60bd 605d b93c
00000030: 654a 96bd d19c 363e 356e 0f3b 01ee 1d3d
00000040: 6160 89bd 26f1 86bd f0f6 9fbd 606b 94b8
00000050: bd8a 16be ad3b 963d 2dd5 4d3d 7096 2bbc
00000060: 4cc1 91bd 28d9 6abc fa00 363d aa30 82be
00000070: 6f76 503d 904d 23be 32a6 333d 71c6 5c3e
00000080: 5c50 acbd c9b4 153e 8937 a1bd 1008 4cbd
00000090: a0e1 eb3d c992 60be aa68 c2be aa3f a1be
000000a0: 213c 06be 9eb6 01bf b039 933c a9c9 ca3d
000000b0: edb8 973e 4e11 87bc 4eea bdbe 1b86 a03c
000000c0: 3273 85be 2dfc fc3d 9a44 a6bd db49 63bd
000000d0: 3e4f 90bd 61a2 1bbd 0b3e b2bd 9789 0e3e
000000e0: c05a 16bd e413 573e e8c8 c23a b9ad dabd
000000f0: 9b0c 863d ab4b 943b 6341 1fbe ce60 573e
00000100: d305 ed3d c353 afbd 556c bc3d e30a 2c3d
00000110: 77d6 29bc 22b1 64bd b1d5 0f3d 9cd8 8b3d
00000120: cb90 213e 2433 3bbc e342 38bd cb52 14bd
00000130: 4dab 153d ee63 22be 7d6d ef3d 148e b3bc
00000140: 1144 8b3d b739 c7bb 2b51 f1bc 68f2 653c
00000150: 06ee 83bb 9638 68bd f3df 33bc 5f9a f4bd
00000160: df8a 1dbd 93f0 043e 00a2 2d3c 7e60 273e
00000170: e66a 543d fc83 b93c e8d6 dc3d 1fdc 263e
00000180: 3ea4 53be 2bab b2bd fac6 4e3d c9c9 853c
00000190: 2056 2a3d 52e8 523e c9bc 80be d468 93be
000001a0: acaa 52bd 063d b4be 306c 4b3e afa2 473e
000001b0: 285a 89bd 22e2 063e 550d debd 693d 59bd
000001c0: 8f61 173e cb21 883d ddf1 db3d eea8 60be
000001d0: 02be b9bd c9c1 73bd dce7 b0bd 0a65 06bf
000001e0: 9966 c53c a871 ba3d 06bd 91bd b664 523d
000001f0: 04fd 953c 52b5 c2be c436 80bd fd17 0dbf
00000200: 2f3e 91bc dddd 03be 9d6c 443e 05d1 a33d
00000210: 421b 293e f847 ddbd bceb ba3c b35f a2bd
00000220: 0f7b 553a 5f37 403d 5854 483d 7103 b3bd
00000230: 273e 3dbc b960 d33c 66a5 2a3e ed9b b33d
00000240: 8e9e 04be bef4 82bd fae3 31be 9412 e7bd
00000250: c158 5abe 98c5 ac3d 2954 a73d 16f6 cbbd
00000260: ede9 1a3e c3dc 16be f599 503d e716 b03d
00000270: ccdc b83b 455b afbd 9533 45be 5f55 e2bd
00000280: a62a 6ebe 21b3 b0bc 070f 5fbd 21dc 0cbe
00000290: 5151 0fbe 9a5d f4bd b873 c1bd 1d73 073e
000002a0: 9f45 303d 733d ddbd 02fd 013e 4391 db3c
000002b0: 3054 85bd a293 35be 0ec9 943e 002e d0be
000002c0: 7d69 e0bc 1c6e 10be d8c7 6dbe 277a e7bd
000002d0: a3db 42be e5b0 a43d 07eb 59bd 090f 48be
000002e0: 8ebc b03d c6a6 acbe 9b4b 993c 2d0a 723d
000002f0: 0985 0a3e 4b3f 983e a190 cb3d 0572 aabe
00000300: 7aca 013e 05e5 8c3c d29e e4bc 3a4b ee3d
00000310: 69ae 9ebd 4899 5c3c d3f4 023d 1c9d 363e
00000320: ac60 a0bd d651 8b3e e3b2 a9bd bb85 12be
00000330: 3dfd 70be b867 233d a2db 6d3d da1a 363e
00000340: d751 fb3d 91be 83bd 10d7 27bd 3016 263e
00000350: 3a33 443c daab 833c 085b 233e 8801 35be
00000360: 0426 0cbe 51a3 3c3e 6c24 95bd b768 8dbd
00000370: 1154 8dbd 65b0 253e 2651 9fbd 060a 633d
00000380: 52c8 a9bd 1fcd 023e 2222 103e a6b0 82bd
00000390: 76ac f1bc 908a a23d 9dd9 2a3e 23fe 0fbd
000003a0: 217e b3bd 3fe8 e9bd 1c19 1c3e 3ea3 663c
000003b0: a183 fc3d bf5c c53d 7d9b 6cbd 7cff ecbd
000003c0: d611 e7bc 922b f2bd 3fd1 f1bd 5592 83bd
000003d0: 3014 b13d 3a8a 0a3e ec63 03be 9154 96bd
000003e0: 3aae c43c ca9a 89bc ecb1 3fbd 321d ab3d
000003f0: 73a4 503d 90ec c23d 03d4 9d3d 5f58 bd3d
-0.012024238 -0.023429716 0.14533556 0.19564949 0.06729867 -0.07356764 0.1819725 0.02593909
-0.16961151 0.11835839 -0.054707326 0.022627532 -0.073384084 0.17833258 0.0021885757 0.038557056
-0.06707836 -0.06588964 -0.078107715 -7.07719e-05 -0.14701362 0.07335601 0.05025213 -0.010472879
-0.071169466 -0.014334001 0.044434525 -0.25427753 0.050894197 -0.15947556 0.043859668 0.21560074
-0.08413765 0.14619745 -0.078719206 -0.049812376 0.11517644 -0.21930994 -0.37970477 -0.31493884
-0.13108875 -0.50669277 0.017971843 0.09901745 0.29633275 -0.016487744 -0.37092823 0.019595196
-0.2606445 0.12352786 -0.081185535 -0.055490356 -0.07046364 -0.037996653 -0.0870324 0.13919674
-0.03670764 0.21003681 0.00148609 -0.10677666 0.06545373 0.004525622 -0.15552287 0.21033022
0.115733765 -0.08560898 0.0920035 0.04200257 -0.010366074 -0.05583299 0.0351159 0.06828424
0.1577789 -0.011425767 -0.044985663 -0.03621177 0.03654032 -0.15858433 0.11690805 -0.021918334
0.06800092 -0.006079878 -0.02945765 0.014034845 -0.0040261773 -0.05669459 -0.010978687 -0.119435064
-0.038462516 0.12982397 0.010597706 0.16345403 0.05185976 0.022645943 0.107831776 0.16294907
-0.20668122 -0.08724054 0.050482728 0.01633157 0.04158604 0.20596436 -0.25144032 -0.28790915
-0.051432297 -0.35202807 0.19865489 0.19495653 -0.06706649 0.131722 -0.10842387 -0.05303708
0.1478331 0.066470705 0.10739491 -0.21939442 -0.09069444 -0.05951098 -0.08637974 -0.52497923
0.024096774 0.091037095 -0.071161315 0.051365577 0.018309124 -0.3802896 -0.06260446 -0.5511473
-0.017729847 -0.12877603 0.19182058 0.07998852 0.16514304 -0.108047426 0.022817485 -0.079284094
0.00081436423 0.046927806 0.04890856 -0.08740891 -0.011550463 0.025802957 0.16664657 0.08769975
-0.12951109 -0.06394337 -0.17372122 -0.1128284 -0.2132292 0.084361255 0.08170349 -0.099590465
0.15128298 -0.14732651 0.050928075 0.08598118 0.0056415554 -0.0856233 -0.19257958 -0.110514395
-0.23258457 -0.02156979 -0.05445769 -0.13755848 -0.13995863 -0.119319156 -0.094459 0.13227506
0.043035146 -0.10802736 0.12694171 0.026802665 -0.06510198 -0.17732099 0.29059643 -0.40660095
-0.02739405 -0.14104503 -0.23220766 -0.113025956 -0.19029097 0.080415525 -0.053202655 -0.19536985
0.08629714 -0.33720988 0.01871281 0.059091736 0.13527311 0.2973579 0.09939695 -0.33290115
0.12674895 0.017199049 -0.027907763 0.11635442 -0.0774811 0.0134642795 0.031971764 0.1783337
-0.07830939 0.27210873 -0.08286073 -0.14308827 -0.23534103 0.039893836 0.058070786 0.1778368
0.12271469 -0.06432832 -0.040976584 0.16219401 0.011975104 0.016073156 0.15952694 -0.17676365
-0.13686377 0.18421675 -0.072823375 -0.069047384 -0.069008 0.1618057 -0.0777915 0.05542948
-0.08290161 0.1277356 0.1407552 -0.06381349 -0.029501181 0.07936585 0.16684575 -0.035154473
-0.087642916 -0.114212506 0.15243953 0.014077006 0.12329794 0.096368305 -0.057765473 -0.11572167
-0.028206747 -0.11824717 -0.11807489 -0.06424395 0.086464286 0.13529292 -0.12831086 -0.073403485
0.024008859 -0.016797442 -0.04680054 0.08355178 0.05093808 0.09517777 0.07706454 0.09245371

value.2.bias f4 [32]
00000000: 4592 8c3d 7c23 d1bd 50c8 293d 2aa1 db3d
00000010: ad74 b33d eb34 c63d a135 b8bd 952d 933c
00000020: 27ed 03bd 7a75 94bd c605 86bd d4a6 b13d
00000030: 6411 803d 90ba 663d a665 bb3c 80e5 8dbd
00000040: 0620 8e3d 2206 acbd 5cb2 27be 2f9f 1dbe
00000050: 7414 39be 9a9a 86bd 5cf5 02be e23a a4bd
00000060: 4421 c53d 986c 01bc c95f b8bb f56c 5f3c
00000070: 43de 843d 9a9c 143e e61c b53b 11ec a33d
0.06863836 -0.10211846 0.0414508 0.10724099 0.087624885 0.09678062 -0.08994604 0.017966071
-0.032208588 -0.072489694 -0.0654407 0.08674398 0.06253317 0.056330264 0.022875618 -0.06928539
0.06939702 -0.08399607 -0.16376632 -0.15392755 -0.18074208 -0.06572457 -0.1278891 -0.080190435
0.096254855 -0.007899426 -0.005626653 0.013636817 0.064877056 0.14512864 0.0055271266 0.080040105

value.4.weight f4 [1, 32]
00000000: c323 10bd 9f8d 5d3d 028e cc3d c532 bc3d
00000010: ce87 2cbd fb06 623d ced2 d6bc 95c0 9cbd
00000020: 2aa2 493d 9b79 be3c 1729 c6bd b313 d1bc
00000030: f124 023d 87b7 6f3d 0bf0 3cbd 18b3 c0bc
00000040: 0533 05bd 9e9d f83d 26bf 3b3d 845c c83c
00000050: 67aa 85bd 5c37 203d e33f 5d3d 93ac 963d
00000060: 904e 8abc 3416 82bd ab9c c13d cb40 2f3d
00000070: ab08 9cbd 16e3 dc3c efd5 773d 3bce 5a3d
-0.035190355 0.05409014 0.09988023 0.09189371 -0.0421217 0.05518244 -0.026223566 -0.076539196
0.049226917 0.023251345 -0.09675806 -0.025522089 0.03177351 0.058524635 -0.04612736 -0.023522899
-0.03251936 0.12139438 0.04583659 0.024458177 -0.06526642 0.039115295 0.054016005 0.07357135
-0.016883165 -0.06351891 0.0945371 0.0427864 -0.07618841 0.026963752 0.060506757 0.053419333

value.0.weight f4 [32, 12]
00000000: 76ee d03d 86de 9d3d 8795 86bd 5356 913b
00000010: 6640 abbd 9134 bcbd ade7 893d fe02 82be
00000020: 101b 0bbd beb1 903c ed39 ce3d e4e8 e73f
00000030: 8c33 b93c 54cf 45bd 90e7 593d 01ab fcbc
00000040: e813 75be 0280 b6bb a87c 123e fdfe 22be
00000050: 950d cebd e911 ad3c 1084 76bf 71db 70be
00000060: 41eb 823d e70a 313e 6c49 16be 2a57 22be
00000070: 8975 92bd acc0 403b f3ac 2dbd d5a4 783e
00000080: a1df 213e 2362 8bbc 8511 883e 57f7 013f
00000090: 66de dfbc 5c36 e4bd 2880 86bd e237 55bd
000000a0: 30ee cabb 15fa 1bbb aadc a8bd 01b7 28bd
000000b0: a300 3dbe dec9 dcbc 7451 3ebf 6f8d e3be
000000c0: f050 e8bc 92f5 213e 6dfb a3bd d3ac 66be
000000d0: 39b3 a23d 032f e9bd 587e fc3c 8199 0d3c
000000e0: 994c f2bd 98c7 253d 5b8b 693f 0094 953f
000000f0: 7337 9b3d f0e7 8b3d bbb9 6f3b f533 54bb
00000100: cb72 a5bd e579 a2bd 8ba3 493e 282e b8bb
00000110: c82b 9a3e 19da 58be 2fa8 273f 7c86 8b3f
00000120: 7a78 28bd f243 8bbc c0bd 7d3c d93b c4bb
00000130: e7ad b43d a783 173d 65c4 053e 89c0 00be
00000140: ea80 ba3d be64 bbbd 7b2a eebf d88d dbbe
00000150: accb fabc efe6 edbb 7ede 84bd 7187 13be
00000160: 06bb ad3d 5c21 d1bd cb3a 923e fb64 73bd
00000170: 9ff8 213d eeaa d0bd 4b87 9e3f 5bd0 cabf
00000180: cbca 1abe dbaf 3ebe e136 24bd 3769 f23c
00000190: e096 e03c 9d4c 333e ceec 073e f1b9 22be
000001a0: 4b26 3abe 5140 f13d 584f c8be 4f54 af3d
000001b0: c87e 7bbd a597 dc3b 5825 af3d 95c7 fabd
000001c0: a2e3 3a3e 97b1 85bd e738 1a3e 4abb 993e
000001d0: 7ac1 74be 1fe6 9e3d e1a8 64bf 4ef9 c1bc
000001e0: ae35 573d 3646 0f3c 086d d5bd 733b 5d3d
000001f0: b528 8ebb 58c7 a0bd c16a 37be 85f7 74bd
00000200: e37d 333e 0f6f 49be fccf 2d3f 8c9f c73e
00000210: 015f 743d 4b35 0dbe 0408 4c3d 4fc5 d0bc
00000220: 4bd2 67bd b4b6 6fbd 7b0e 343e 4cac 18be
00000230: b461 6f3d 2f04 04be 3eeb d2bf 191e 083f
00000240: ef5b a2bc 49d6 c4bd 1723 443d ef3c c63b
00000250: 21e8 0f3e d1fc fd3d 8672 9d3e a941 58be
00000260: 2c75 e6bd c5f4 ca3d 5d84 983f 9f36 893f
00000270: 5a5d 19be 993f 5ebd 05e0 d8bc 5262 dabd
00000280: c447 4d3d 635f 063e b8b6 7dba eb5d 9c3a
00000290: fadf 79be f351 9e3d b567 373f db20 e5be
000002a0: d607 8ebd 8ad3 723d 35e3 103e 794a 38bd
000002b0: 1baa 1bbe 044d 6e3d 988a a8bc 223d 013e
000002c0: cec5 1cbe 2df5 11be 21da 7fbf ebf7 2c3f
000002d0: b105 b23d f2f2 e1bd 4555 b63c fdeb 973d
000002e0: bdcd 0b3e c7a9 1c3e 42bf 76bd 0efc 853e
000002f0: 45fb ad3c 34d6 a93d e08f abbf 8222 693e
00000300: 8432 cf3d 173c adbc 9b8e 36bd 3ea2 99bb
00000310: 6778 97bc e7d0 4abd ae2d b13d d868 80bd
00000320: d2be 603e ccde 52be 45bd 543e d3a1 acbf
00000330: dc4b b13d d1b8 0fbd 2b65 6abd 4332 2cbd
00000340: 3932 0cbc 8887 a03d ba2c aebd ff20 c0bd
00000350: 6540 8f3d 22fc a6bd db27 933f 5a6f 5d3f
00000360: a85d 273d 1834 e3bd 8dbc 8b3d b2c3 b6bd
00000370: 1bb3 50bd c2ef 083d a4bf a33d 2eac 2ebe
00000380: 3306 babd 10b8 27bd b1b8 d23f 601e 06bf
00000390: 4ae5 c33d 82ce 67bd 1188 c63d e9ac a2bc
000003a0: 9c18 9d3d 2ab3 ef3c ab77 15be 820f 66bb
000003b0: c8fb 13be 9c14 31be ae56 b7bf 7c09 2ebf
000003c0: 0404 163d cb09 24bd 77b6 83bc 9625 96bc
000003d0: 57ab adbd d275 dd3d 23ce 27bd 5bd1 78bd
000003e0: 4e4c f03c 4356 253e 1b47 f53e d1f1 39bf
000003f0: 35d1 c23d aadf c8bd c6e6 f4bb 23f7 8dbd
0.10201733 0.077084586 -0.06571489 0.0044353395 -0.083618924 -0.09189714 0.06733642 -0.25392908
-0.033961356 0.01766288 0.10069642 1.8117948 0.022607587 -0.048293427 0.05319935 -0.03084326
-0.23933375 -0.005569459 0.14305365 -0.15917583 -0.10061184 0.021126704 -0.9629526 -0.2352121
0.06392527 0.17289315 -0.14676446 -0.15853563 -0.07151324 0.0029411716 -0.042401265 0.24281628
0.15807964 -0.017014569 0.26575866 0.50768036 -0.027327728 -0.11143181 -0.065674126 -0.052055247
-0.006192945 -0.0023800184 -0.08245213 -0.04119015 -0.18457274 -0.026951727 -0.7434304 -0.44443843
-0.028358907 0.15816334 -0.0800694 -0.22526865 0.0794434 -0.1138592 0.030821964 0.008642555
-0.11831016 0.04047355 0.91228265 1.1685791 0.075789355 0.06831348 0.003657921 -0.0032379602
-0.08078536 -0.07933406 0.19691293 -0.0056207366 0.30111527 -0.21176948 0.65491 1.0900416
-0.04113052 -0.017000172 0.015487134 -0.0059885797 0.08822232 0.036990788 0.130632 -0.12573446
0.0910662 -0.091500744 -1.8606714 -0.42881656 -0.030614696 -0.0072601954 -0.064877495 -0.14407136
0.084829375 -0.10211441 0.2856048 -0.059422474 0.039543744 -0.10188852 1.2385038 -1.5844835
-0.15116422 -0.18621771 -0.0400914 0.029591186 0.027415693 0.17509694 0.13273928 -0.15891244
-0.1817867 0.117798455 -0.39123034 0.085610025 -0.061400205 0.0067319446 0.08552045 -0.122450985
0.18250898 -0.06528013 0.15060769 0.30025703 -0.2390193 0.07758736 -0.8932019 -0.023678448
0.052541427 0.008744767 -0.10421187 0.054011773 -0.0043383488 -0.07850522 -0.17911817 -0.059806366
0.1752849 -0.19671272 0.67895484 0.38988912 0.059660915 -0.13789861 0.04981233 -0.02548471
-0.056597035 -0.05852385 0.17583649 -0.14909476 0.058442786 -0.12892221 -1.647804 0.53170925
-0.019819228 -0.09611184 0.047885027 0.0060497443 0.14053394 0.124017365 0.30751437 -0.21118797
-0.112528175 0.09909967 1.1915394 1.0719794 -0.14977017 -0.05425987 -0.026474008 -0.10663284
0.05011727 0.13122325 -0.00096784113 0.0011929845 -0.24401847 0.07730474 0.7164262 -0.4475163
-0.06935088 0.05928377 0.14149173 -0.044992898 -0.15201609 0.058178917 -0.0205739 0.12620977
-0.15309832 -0.14253683 -0.99942213 0.6756579 0.08692492 -0.11032666 0.022257457 0.07418058
0.13652702 0.1529914 -0.06024099 0.26168865 0.021237979 0.08292809 -1.3403282 0.2276707
0.10117057 -0.021146817 -0.044569593 -0.00468853 -0.01849003 -0.04951563 0.08651291 -0.06269997
0.21947792 -0.20592803 0.20775326 -1.3486885 0.08657047 -0.035088364 -0.057225388 -0.04204012
-0.008556896 0.078383505 -0.08504625 -0.093812935 0.06994704 -0.08153559 1.1496538 0.86498034
0.040860802 -0.110939205 0.068230726 -0.08924045 -0.05095206 0.033431776 0.07995537 -0.17057869
-0.09083214 -0.04094702 1.6462613 -0.523901 0.09565218 -0.056593426 0.09693921 -0.01985784
0.076707095 0.029260237 -0.14596431 -0.0035104458 -0.14451516 -0.17293018 -1.4323328 -0.6798322
0.036624923 -0.0400484 -0.016078217 -0.01832847 -0.08479946 0.10813488 -0.04096807 -0.060746532
0.02933326 0.16146187 0.47905812 -0.7263461 0.09512559 -0.098082855 -0.0074737994 -0.06931903

value.0.bias f4 [32]
00000000: 68f7 27be 1a6d 51bd 2f3f 34be 5120 c4be
00000010: 5df7 7d3d f820 e03e bb46 15bd 8055 16be
00000020: 36eb 0e3e 51e6 d1be 78e2 2dbe 5a1d 8bbe
00000030: 7891 c3be 580b bb3d 174e 4cbd 33f3 9ebe
00000040: f6b6 c13e 85c3 943e 7a4f 5bbe 6441 823e
00000050: bf18 34be cbfb adbb b6b4 9abc a754 663d
00000060: b2f3 1bbe fa4f bd3d 64e3 17be 65ac 31be
00000070: 6253 3abb b3fe bf3e 5b9e 7dbe 62ba 1abe
-0.16402972 -0.051129438 -0.17602228 -0.38305905 0.062003482 0.43775153 -0.036444407 -0.14681053
0.13956913 -0.4099603 -0.16980922 -0.2717083 -0.3819692 0.09133023 -0.04987916 -0.3104492
0.378349 0.2905542 -0.21417037 0.25440514 -0.17587565 -0.005309557 -0.018884998 0.056233075
-0.15229681 0.0924377 -0.14832836 -0.1735092 -0.0028431048 0.37499008 -0.24767439 -0.15110162

value.2.weight f4 [32, 32]
00000000: b0e7 45bc d12b bfbc e0d8 143e cc4e 483e
00000010: 168f 893d 0140 96bd 44dd 383e af09 d13c
00000020: a839 2ebe 19cf f33d 5334 60bd dc14 be3c
00000030: 4645 98bd 5b5c 373e 143e 2c3b 56f1 1e3d
00000040: a773 89bd a204 86bd c5fd 9ebd 9b4c 5f39
00000050: 8a9e 15be ad91 963d 4e36 473d f848 35bc
00000060: cc9e 93bd afe0 60bc 15ad 3b3d 7803 82be
00000070: 9936 4f3d 6a58 23be 8ba9 343d f7c1 5c3e
00000080: 1583 aabd 6924 163e f170 a1bd be8a 4abd
00000090: 29c9 eb3d 6333 5ebe 083b c2be bc3c a1be
000000a0: 8be5 04be c065 02bf bc8f 963c feb1 c53d
000000b0: 4a54 983e 77d3 8abc 32fb bcbe 3d7a a23c
000000c0: 3a86 85be 0659 fc3d 4c6d a6bd c741 5cbd
000000d0: b969 90bd 64d1 1cbd 42d6 afbd 554a 0f3e
000000e0: 8061 13bd 6051 573e 5117 5f3a b4f0 dabd
000000f0: e9be 883d 7f67 993b d99c 1ebe 3368 573e
00000100: f06e ed3d c9ab aebd b7f3 bc3d 94ac 2b3d
00000110: 6c6f 26bc c761 63bd 4e9d 183d f8a5 8c3d
00000120: e5d4 213e 1003 4fbc 0559 39bd 444f 14bd
00000130: 8859 183d 575e 22be 6ef6 ee3d ab4e b2bc
00000140: 2a34 8b3d d065 c3bb 030c f1bc 3a6f 6a3c
00000150: 998e 7ebb 9264 68bd 46a0 38bc 7da3 f1bd
00000160: 1e21 1ebd 2ecb 043e 1663 253c 0e7e 273e
00000170: f8ed 543d 99b9 b93c 60a1 dc3d 42ca 263e
00000180: 40a6 53be 1a59 b3bd 77e0 523d 31ff 903c
00000190: e290 303d e45f 523e 79cb 80be fbd9 92be
000001a0: cc6d 55bd e1b0 b3be 034e 4b3e 9886 473e
000001b0: f571 86bd 26e7 083e e7be dcbd 78e9 51bd
000001c0: ac82 163e e988 883d 14ac dc3d 06fa 5fbe
000001d0: f2b0 b7bd da70 72bd d02c afbd c785 06bf
000001e0: 46e0 bd3c 8ed6 bd3d 23fd 91bd b97c 523d
000001f0: 1b32 943c e083 c2be 983b 7fbd d0a2 0cbf
00000200: 58a3 92bc c5c5 02be 8332 443e 2c00 a23d
00000210: a48b 293e f931 dbbd 38ff ad3c fa3e a2bd
00000220: bb3a c138 6e7f 433d 6691 483d db3b b4bd
00000230: 0edc 25bc 0119 d43c 1e75 2b3e cb9f bb3d
00000240: c410 03be 4cac 83bd 5a8d 31be a37a e1bd
00000250: 7dbf 5abe f7d8 ac3d 9a0c a83d 04b0 cdbd
00000260: b476 1a3e 92a1 15be 7e58 543d 754a b03d
00000270: 2e66 c63b 7a23 aebd 6449 42be 46c9 e1bd
00000280: 8ec1 6ebe 9a57 9fbc e939 70bd 8ede 09be
00000290: cfbf 0ebe a708 f5bd 8b29 bebd d072 0a3e
000002a0: 5b29 343d 31df debd d1da 023e d1f9 f73c
000002b0: 71b3 84bd 1a0c 32be 0294 933e 8aed ccbe
000002c0: 3932 c7bc ab41 15be ec92 6abe 4131 dbbd
000002d0: c515 42be dae3 a83d 2fad 59bd 4819 43be
000002e0: 72a3 b23d 168a acbe 701b 933c c819 6d3d
000002f0: aadc 0a3e 2255 983e c6dc d03d 625b abbe
00000300: 5846 013e eed6 803c b97c e4bc 5707 ef3d
00000310: 8647 9ebd 26fe 4c3c ff19 043d c357 373e
00000320: 0a4c 9dbd bf0f 8c3e 9a52 a9bd 5592 12be
00000330: 6b4e 6fbe 5dc2 2d3d 064c 6f3d 3bc9 373e
00000340: 85bb fa3d 4953 82bd 123f 24bd 8268 263e
00000350: 3b58 4d3c 3daf 883c 771b 243e 51b8 32be
00000360: fd6b 09be 26ee 3d3e ef7d 94bd 0fe4 8cbd
00000370: b355 91bd 2a8d 253e 8640 9fbd 1e46 623d
00000380: 1746 aabd 5d8d 023e 5ef2 0f3e 664d 82bd
00000390: 2c6c f4bc f717 a23d dfc3 293e af91 11bd
000003a0: cd0d b3bd 7477 e8bd 6457 1c3e f08d 673c
000003b0: f390 fc3d dad2 c53d 7501 6dbd 0271 ecbd
000003c0: d343 e6bc 84ff f1bd 9bda f1bd 56ff 84bd
000003d0: 5728 b13d 3e9c 0a3e e94e 03be c131 97bd
000003e0: 3193 c33c 5030 86bc 8d49 3dbd c805 ab3d
000003f0: 8168 4e3d 5813 c33d 652a 9e3d 424b bd3d
-0.012079164 -0.023336323 0.14535856 0.19561309 0.067167446 -0.073364265 0.18053156 0.025517313
-0.17014182 0.11904735 -0.0547374 0.023203306 -0.07435088 0.17906325 0.0026282119 0.038804375
-0.06711512 -0.065438524 -0.077632464 0.00021295475 -0.14611259 0.07352004 0.048635773 -0.01106476
-0.072080225 -0.013725444 0.04581936 -0.2539327 0.050589178 -0.15951696 0.044107 0.21558367
-0.08325783 0.14662327 -0.0788287 -0.04944872 0.11512978 -0.2169929 -0.37935662 -0.3149165
-0.12978189 -0.5093651 0.018379085 0.0965309 0.29751807 -0.016946537 -0.36910397 0.019833678
-0.2607897 0.123216674 -0.081263155 -0.053773668 -0.07051415 -0.038285628 -0.08585788 0.13993199
-0.035981655 0.21027136 0.00085102493 -0.10690442 0.06677038 0.004681527 -0.1548952 0.21035843
0.11593425 -0.08528859 0.092261724 0.04191263 -0.010158401 -0.05551317 0.037259392 0.068675935
0.15803869 -0.0126350075 -0.04525091 -0.036208406 0.03719476 -0.158563 0.116680965 -0.021766027
0.06797059 -0.0059630647 -0.029424673 0.014308745 -0.003884232 -0.056736536 -0.011268681 -0.11798761
-0.0386058 0.12968132 0.010094425 0.1635668 0.051984757 0.022671508 0.10772967 0.16288093
-0.20668888 -0.08757229 0.051483598 0.01769981 0.04310692 0.20544392 -0.25155237 -0.2868193
-0.052106664 -0.35095885 0.19853978 0.19484937 -0.06564704 0.13369426 -0.10778599 -0.051248044
0.14698285 0.066667385 0.10775009 -0.2187272 -0.089692965 -0.059189655 -0.08553469 -0.5254788
0.023178231 0.09269439 -0.0712836 0.051388476 0.018090298 -0.37991238 -0.062312692 -0.5493593
-0.017900154 -0.12770756 0.19159894 0.07910189 0.16557175 -0.10702891 0.021239862 -0.07922168
9.2138966e-05 0.04772895 0.048966788 -0.08800479 -0.010123266 0.025890829 0.16743895 0.091613375
-0.12799364 -0.064293474 -0.17339078 -0.11009719 -0.2136211 0.0843982 0.082055286 -0.10043338
0.15084344 -0.14612415 0.051842205 0.086079516 0.0060546612 -0.0850286 -0.18973309 -0.11024718
-0.23316023 -0.019450951 -0.058648977 -0.13463804 -0.13940357 -0.11964541 -0.092852674 0.1352036
0.043984752 -0.10882414 0.12778784 0.030270489 -0.06479538 -0.17387429 0.28823858 -0.40024978
-0.02431594 -0.14575832 -0.22907609 -0.10702754 -0.18953617 0.08246584 -0.053143676 -0.19052613
0.08722581 -0.336991 0.01795742 0.057885915 0.13560739 0.2975245 0.10198359 -0.33468157
0.1262449 0.015727486 -0.027891504 0.11671322 -0.07728486 0.012511766 0.032251354 0.17904572
-0.07680519 0.27355763 -0.08267708 -0.14313634 -0.23369758 0.042421687 0.05842211 0.17947857
0.12242798 -0.06363542 -0.04009921 0.16250804 0.012533243 0.016685123 0.16026102 -0.17453124
-0.134201 0.18547878 -0.072505824 -0.06879436 -0.07096424 0.16167131 -0.07775979 0.05524265
-0.0831415 0.12749238 0.140573 -0.06362419 -0.029836737 0.07914727 0.16578625 -0.035539325
-0.08742867 -0.11350909 0.15267712 0.014132962 0.12332334 0.09659357 -0.057862718 -0.11544992
-0.028108513 -0.11816314 -0.11809274 -0.06494014 0.08650272 0.13536164 -0.1282307 -0.07382537
0.023873897 -0.01638046 -0.04621272 0.08350712 0.05039263 0.09525174 0.0772293 0.0924287

value.2.bias f4 [32]
00000000: 82f2 8c3d 8ec8 d0bd d454 293d 4eb1 db3d
00000010: 9156 b33d 33fa c73d 5a47 b6bd 0d5a 933c
00000020: 911a 03bd f2ab 94bd ddbc 85bd 9617 b13d
00000030: a57f 803d cfad 663d e427 cd3c 07ea 8cbd
00000040: 60f0 8d3d 6de8 abbd 962a 27be 7bef 1cbe
00000050: db20 39be 7b48 86bd bbdc 02be 8540 a2bd
00000060: f576 c43d 36cd 03bc c259 e1bb 8a81 5c3c
00000070: 68d8 843d 0056 143e 9ee6 b63b 57af a23d
0.06882192 -0.10194503 0.041340664 0.107271776 0.087567456 0.097645186 -0.08900328 0.017987275
-0.032007758 -0.072593585 -0.065301634 0.08647077 0.06274346 0.0563181 0.025043435 -0.06880575
0.069306135 -0.08393941 -0.16324839 -0.1532573 -0.1807894 -0.06556793 -0.12779514 -0.079224624
0.09593002 -0.008044532 -0.006877155 0.013458619 0.06486589 0.14485931 0.005581691 0.079436

value.4.weight f4 [1, 32]
00000000: 743a 10bd 0cdd 5c3d f9cc cc3d c232 b93d
00000010: b81a 29bd 3dde 613d 61de d8bc 38bd 9cbd
00000020: 9c00 4a3d eb7f bb3c 0a48 c6bd fde6 d2bc
00000030: afcf 033d 8b85 703d c666 3abd e7af c3bc
00000040: 4397 03bd cfba f83d 6183 3d3d d80d cb3c
00000050: 3cb2 85bd 8be8 1f3d 3c83 5d3d 918e 983d
00000060: 9a61 8abc 80b4 81bd 8855 c43d 8fad 303d
00000070: b1cd 9bbd 9078 dd3c 4fd2 783d 9913 593d
-0.035211995 0.053921744 0.10000033 0.090428844 -0.041285247 0.055143584 -0.026473226 -0.07653278
0.049316987 0.022888144 -0.09681709 -0.02574491 0.032180484 0.058721106 -0.04550817 -0.023887588
-0.032126676 0.12145006 0.04626787 0.024786875 -0.06528136 0.03904013 0.054080233 0.074490674
-0.016892243 -0.06333256 0.09586626 0.04313427 -0.07607592 0.027035028 0.06074744 0.052997205

actor.0.weight f4 [32, 10]
00000000: a3a0 b1bc b5f3 1e3e 7e27 103e f204 143e
00000010: 7b81 02be b58f 70bd 6b67 cc3c b672 ce3e
00000020: ac74 a9be e4b7 a0be b59c 82bd c626 f1bd
00000030: 537e d73d 8acc 30be b72b a93d 76e7 b0be
00000040: 3486 95be c091 61be d96c 7a3e ff59 a33e
00000050: 5a1d 87be 1810 eb3e b5c2 12be 12e4 b4bd
00000060: a6d0 173f af0a c0bd 74b5 9abd fc7d 7e3e
00000070: b72d 4c3e e545 04be f73f 9c3e 29d9 263e
00000080: a9a4 ea3e 84cc 473e 9236 12bc 0d96 a33d
00000090: c246 9cbd 6f23 c3bc ae3e 4a3e 4e61 6f3c
000000a0: 4a26 a2bd ad75 fc3d 2636 d13c 03a9 223e
000000b0: b699 923e 1b4e bc3e f2dc 8e3e 73d5 5b3e
000000c0: 1527 333b 39a2 d43e 1b46 e2bd 60b3 91be
000000d0: 9650 ae3e 6589 e03d af17 c5be cba8 14bd
000000e0: a164 cf3e f53e 103f cf04 3b3e d86b a1bd
000000f0: d6df 313e bb46 0b3d 517c f53d 82a5 c53e
00000100: 75e6 b23c c0d8 92bd af33 94be 75ac 80bc
00000110: 8584 4e3e e33e abbe ba8d f7be 586f 723e
00000120: 963b d73e 20e3 013e 0cfd 173d 6e4e b53e
00000130: 50a3 dabe 1982 12bf ed93 3cbd 51c8 20bd
00000140: dc39 fbbe 9712 cb3e 93e1 5f3e 5389 78be
00000150: 5b75 d3be b1c1 b83e 7ebd 913d c79e c63e
00000160: 3d27 3cbc dc56 963d ed31 c6be 30b2 8cbd
00000170: 302e efbd bde6 1b3e 9d59 7cbd 2a8d 9ebe
00000180: 96db 11be 97fe 823e 96d5 843e d556 afbd
00000190: 0bed 64be 367d 973e 646d 76be ce68 e1be
000001a0: 59ab 973d af9c 8f3e 4cb7 443e 2ecd 5a3e
000001b0: fa4a e53e aa04 d4bd d974 c33d 6be6 b2be
000001c0: fce8 46bc 03de 2fbe 1f98 973c d1ba eebd
000001d0: d323 a3bd dbde 313d bfad a03e a892 8b3e
000001e0: d5b4 68be 1b17 82be 0c54 77be 7219 a73e
000001f0: 00f9 b33d 8120 7e3e 61a6 90be 1e2d c13d
00000200: 6737 9ebe f690 dbbd 6d9e 803e 3552 883e
00000210: adbc a4bd ae88 ddbd a587 023e 45bd c93c
00000220: 7dad e5be a89b 07be d95c 993d 214c 4d3d
00000230: a002 d03d 7bff 433e c2f5 663e d7ef 293e
00000240: f41e a83e bd0b f5be 7c70 1f3e 0236 263e
00000250: 70cf f23e df03 f8bd 0d10 a23e 931f 983e
00000260: 0515 38be f009 d73d 856f 8f3e 85c4 29be
00000270: 3bbf 2dbc 4743 57bd 0ff9 23bb 41fa c9be
00000280: 24e2 0ebe 1861 3ebe a47a 60be 4dfe 043e
00000290: 30dd 983e aa8b 603e 23ca e63d cf0a c3be
000002a0: 89b4 bbbd c948 5abe 54dd 803d 9745 8d3d
000002b0: bcdc 69be cfcf 043e f0b1 c7be 8c06 56be
000002c0: 3d85 84be 9cc9 2dbe 4f12 2f3e 3856 853d
000002d0: 4fe5 913d f20a efbd 21eb 15bd 48c9 33be
000002e0: fa69 ee3e 20b8 56bd 8b88 b4bc 1d95 283c
000002f0: a366 8ebe 61ea edbd 6810 12bf c582 11be
00000300: 3632 dabd e939 9abe a700 123e 29bd b6be
00000310: c432 62be 863d 87bc da49 733c ddd8 3dbe
00000320: 0261 f03d d638 5bbd e79b 44be 6d4f c0be
00000330: e3ce c83e 75fd 3ebe 5d52 9e3e 02f9 04be
00000340: 1450 9abe 8a19 0abe 2e1e 193d 503d 90be
00000350: ebd3 8d3e a981 18be cc52 ad3e e742 d93e
00000360: 5ce7 18bd 406d 7bbe 2a46 6dbd f928 083e
00000370: 263a b9bd 70d7 903e 0b7a c1bd 92c6 c3be
00000380: b611 2c3e fa62 c9be 305e 2fbd 22f2 babd
00000390: 5367 783e f347 97bd d423 e9be a84d c0bd
000003a0: 6005 8ebd bf71 ac3c dc72 5ebd c423 bebe
000003b0: a12b 863e 7946 b03e 4b37 acbd 84e4 53be
000003c0: 3efa efbe 847b 35be 42f9 6c3e af8f 8ebe
000003d0: 0eb5 d03c a9cf e73d 786e 993d baf6 a13e
000003e0: d8f5 a83e 9035 cf3d 59cb f2be 6dfd 2dbe
000003f0: 4dd8 863d 88e3 903e e1aa 303c 3fae 003f
-0.021683043 0.15522654 0.14077565 0.14455011 -0.12744705 -0.0587308 0.024951657 0.40321892
-0.33096826 -0.31390297 -0.06377546 -0.117749736 0.10522141 -0.17265525 0.08260291 -0.3455159
-0.2920395 -0.22028255 0.24455585 0.319046 -0.2638958 0.45910716 -0.14332087 -0.088325635
0.5930275 -0.09377038 -0.07554141 0.24852747 0.19939314 -0.12917288 0.3051755 0.16293778
0.4582875 0.1951161 -0.008924143 0.07987604 -0.076306835 -0.023820607 0.19750473 0.014610602
-0.07917459 0.123271324 0.025538515 0.15884785 0.28632897 0.3677834 0.27902943 0.21468143
0.0027336527 0.41530016 -0.11048528 -0.28457165 0.34045857 0.10963706 -0.38494632 -0.036293786
0.4050646 0.56346065 0.18263553 -0.07881898 0.17370543 0.034003 0.11986602 0.38602835
0.021838406 -0.07170248 -0.2894568 -0.015707234 0.2016774 -0.33446416 -0.48350316 0.23675287
0.42037648 0.12684298 0.03710656 0.354114 -0.42702723 -0.57229763 -0.04603951 -0.039253537
-0.4906758 0.3966262 0.21863393 -0.24271135 -0.41300473 0.36085275 0.07116221 0.38793012
-0.0114839645 0.07340786 -0.38709965 -0.06869924 -0.116787314 0.15224738 -0.0616089 -0.30967075
-0.14243922 0.25584862 0.25944203 -0.08561484 -0.2235605 0.29587716 -0.24065167 -0.44025272
0.07405729 0.28049228 0.19210547 0.21367332 0.44783765 -0.10352452 0.09543771 -0.3494142
-0.012140509 -0.17174534 0.018505154 -0.11656726 -0.07965817 0.043425422 0.31382558 0.27260327
-0.22725232 -0.25408253 -0.24153155 0.326366 0.08787727 0.24817087 -0.28251937 0.094324335
-0.30901644 -0.107210085 0.2512087 0.2662522 -0.080437995 -0.10817085 0.12747057 0.024626384
-0.44858924 -0.13242972 0.074884124 0.05012143 0.10156751 0.19140427 0.22554687 0.16595398
0.32836115 -0.47860518 0.15570253 0.1623154 0.47423887 -0.12110113 0.3165287 0.2971159
-0.17976768 0.10499942 0.2801477 -0.16578873 -0.010604675 -0.052554395 -0.0025020277 -0.3944874
-0.13953453 -0.18591726 -0.21921784 0.12987633 0.29856253 0.21928278 0.11269023 -0.38094184
-0.09165294 -0.21316828 0.06292215 0.06898039 -0.2283811 0.12969898 -0.39002943 -0.20900935
-0.25882903 -0.16971439 0.17096828 0.065105855 0.07123815 -0.116720095 -0.03660119 -0.17557251
0.4656523 -0.05242169 -0.022037765 0.010289458 -0.2781268 -0.1161697 -0.57056284 -0.14210041
-0.10654108 -0.30122307 0.14258061 -0.35691193 -0.22089678 -0.016508829 0.014849151 -0.18539758
0.11737253 -0.053521 -0.19200097 -0.37560597 0.39220342 -0.18651374 0.30922213 -0.12985614
-0.3013922 -0.13486305 0.037382297 -0.28171778 0.27700743 -0.14893211 0.33852232 0.42433855
-0.037330016 -0.24553394 -0.05792824 0.1329688 -0.09044294 0.28289366 -0.09447106 -0.38237435
0.16803631 -0.39333326 -0.042814434 -0.091282144 0.24258165 -0.0738677 -0.45535147 -0.09389812
-0.06934619 0.021050332 -0.054308757 -0.37136662 0.2620516 0.34428766 -0.08408984 -0.2069264
-0.46870607 -0.17722899 0.2314196 -0.27843997 0.025476959 0.11318905 0.07491773 0.3163355
0.33000064 0.10117638 -0.47420767 -0.16991206 0.06584225 0.28298593 0.010782928 0.5026588

actor.0.bias f4 [32]
00000000: fe21 5c3e 7783 f0bd 357e 22bf cabd 7bbe
00000010: adf9 18be 66ac a8be 8566 393e 74d3 883e
00000020: 7fd0 a73d b98f 58be 2bcc 60bd 0092 57be
00000030: f23a 9c3e ed86 e23d 1840 1a3d 54f7 37be
00000040: 225c c03e 3fdd 38bd f71c 9cbe 0888 26be
00000050: 8582 823d 638a 18be 83c3 8fbe 1e22 903e
00000060: 40a8 893e 6031 82be 5757 c73e 3493 043e
00000070: d935 8cbd 6c99 223e f9d0 9f3e 419a 003e
0.21497342 -0.11743825 -0.63473827 -0.24584118 -0.14938994 -0.3294403 0.18105514 0.26723826
0.08194064 -0.21148576 -0.05488221 -0.21051788 0.30513722 0.11060891 0.03765878 -0.17965442
0.37570292 -0.04513287 -0.30490848 -0.1626283 0.06372551 -0.1489654 -0.2807885 0.2815103
0.26886177 -0.25428295 0.38933823 0.12946779 -0.06846208 0.15878838 0.3121412 0.12558843

actor.2.weight f4 [32, 32]
00000000: 6d8d 7c3e a08f a83b 79f4 4d3e b359 2a3e
00000010: 1ff9 203e c6c5 84be 23c9 a3bd 2d83 adbc
00000020: 10ed f6bd 8c0c 17be 2618 fc3c 7788 34be
00000030: 6c38 493e 0d44 12bf 6bc4 a0be 3d77 a8be
00000040: e864 a53d 7cb7 f0bd 0fb5 613d 3087 9c3e
00000050: 61d2 e33c 2b02 8fbd 8fc7 00bd 8fde 85bd
00000060: f916 b23e f30b 943e e93d 0f3e 0120 b63d
00000070: 4a44 b13e 4ab6 22be 29f2 9d3e 29c6 9f3d
00000080: e00a b53d cc9c 02be 3eb4 92be b189 1f3d
00000090: eea8 91be 4420 003f d680 d03c acbb 56be
000000a0: c9d7 18be 4bea 8e3c a93c aa3c bac0 9e3e
000000b0: 3395 463d 336f 23be b90a 46be f932 733d
000000c0: 72df 7dbd e279 e3bd 4d30 863d 92bb 9f3d
000000d0: ff08 bf3d fdf1 f73d eaaa b4be b779 563d
000000e0: 4406 42be 0397 0b3d b001 41be 8ed9 163e
000000f0: 4727 da3e 68ed a33d c33c 67be 46bc ad3d
00000100: a130 bfbd 3b79 713d 309f 233e a91a 0abe
00000110: a7df 1bbe e875 d23d cb0f f3bc 8beb dc3d
00000120: 7be1 6c3d 9360 4e3e 6231 cbbc 658a b2be
00000130: 9a8c 623c 15a9 5dbd 2876 163e ca85 103e
00000140: c107 073e 61f0 00be d3a8 243d d6ff 543d
00000150: b51e a23e cc4c 52be 34a8 b8bc c8e8 ad3e
00000160: f358 e03e 0166 b0bc cbc8 27be 0f77 86bd
00000170: 2e41 8c3e 39d2 afbe 82c4 f23d d99d 683d
00000180: 3dbb 3dbe 9716 05be 1ba8 083d 96b6 873d
00000190: 2761 993e 7514 a03d 7a58 af3e 3a7d 9d3d
000001a0: f722 5abe 7229 893e 68b0 79be fdf0 f7bc
000001b0: 3793 023e de31 1f3c 9e9d 193e f723 86bb
000001c0: 7395 043e b482 1f3d a0ca a93b 013f 30be
000001d0: 111a 703e a24f 1fbe f7af ee3d 28fe 4a3d
000001e0: a6a9 23bf 15ed f5be aff2 2abe a48c 303e
000001f0: e509 6e3d a54e 20be 4d6f a13d 9761 623d
00000200: e034 e8be f78f 803e 496d 5abe 3646 3e3c
00000210: ab32 13be d29d 2dbe e332 4c3d 8835 843e
00000220: d013 6b3e 55be e83d 9a14 52be 38f9 babc
00000230: 78be 713e 39ed 43bd e587 6b3e 23d1 b73d
00000240: dcaf 3f3d 5612 a43d 91ca 8dbe 94b2 b43b
00000250: 384e 403e f552 30be 3b94 0cbd ee63 873e
00000260: 5b95 5a3e b48d 64be c18b e7bc 20f5 0ebe
00000270: dc8a 3ebd 34a0 06bf 70d8 5b3e 4a86 02bf
00000280: 4d48 e13d e2b1 60be a15a 03bd ad8c 993c
00000290: 0835 983d 2136 77bd d326 21be 0920 be3e
000002a0: 6eb0 853e 243d 8bbe 6b0e 6c3d e380 96be
000002b0: 9852 e3be dddd 2dbc 55ba cc3d eb45 b03d
000002c0: ddf0 833c b6ed eebe f01b 3abe bece 11be
000002d0: f2e2 14bb 5fe6 9e3d bce1 3e3e 3577 edbe
000002e0: e5eb 7fbe cbda 1dbd cd49 50bd 052a 163e
000002f0: 41dd e73d 1dbf 993d e80d 61bf ae48 53be
00000300: b98c ecbd 847a 09bd ec52 32be ae1c 3cbe
00000310: 9206 073d c4a4 a03e 8fab 753d bd49 273e
00000320: 4c37 35bd c6dd a43b bb8f 8e3e 037b a3bd
00000330: 8ccb 0e3c 0874 9c3d 2d70 423d 9443 a23c
00000340: 4c9b b1bc 1e5d 61be 5461 c63d 631e 973d
00000350: f31a 003e ca30 503e 3268 a23e 814b 07bf
00000360: afb0 27be a348 353e 0b9a 13be f231 60bd
00000370: 817d 8f3e ddf2 ff3a fb39 693d 65d9 86bc
00000380: 6314 1cbf adea 2cbe 807f 383e c1f0 753e
00000390: 1f51 1b3e bc9f 463e df7d 0b3e 9123 883e
000003a0: 4b8d 5a3e 0acd 393b 5921 263e 14a8 8dbd
000003b0: b0c0 1abe 811a bbbe 2add 9abd b735 62bf
000003c0: 1cfd d0bd 5751 acbd f5af 83be 2961 d0be
000003d0: 6aad 22bd 5469 99be e4bb 0a3e 58a2 2fbe
000003e0: 1de8 0bbf 9247 b4bc 22ac 11be fd07 0abf
000003f0: 0a98 c43b 488a 8abd 0e95 503e 1993 993d
0.24663325 0.0051440746 0.2011279 0.1663578 0.15720032 -0.2593214 -0.07997348 -0.021180714
-0.12056935 -0.1475088 0.030773234 -0.17630182 0.1965043 -0.5713509 -0.31399855 -0.32903472
0.08075887 -0.11753747 0.05510431 0.3057189 0.027810277 -0.069828354 -0.031440314 -0.0653659
0.34783152 0.28915367 0.1398846 0.08892823 0.34622413 -0.1588985 0.30848816 0.07801468
0.08839965 -0.12755126 -0.2865314 0.038949672 -0.28449196 0.50049233 0.025452059 -0.20970029
-0.14926066 0.017445704 0.020780878 0.31006414 0.04848213 -0.15960388 -0.19340028 0.059374783
-0.061980672 -0.11107232 0.065521814 0.07799448 0.09327888 0.121067025 -0.35286647 0.05236217
-0.18947703 0.034079563 -0.188483 0.14731428 0.4260809 0.08004266 -0.22581773 0.08483176
-0.09335447 0.058953505 0.15978694 -0.13486733 -0.15222035 0.10276395 -0.029670617 0.10787114
0.057832222 0.20154028 -0.024803821 -0.34871212 0.013827467 -0.054116327 0.1469351 0.14113536
0.13186552 -0.12591697 0.040200066 0.052001797 0.31664053 -0.20537108 -0.022541143 0.3396666
0.43817863 -0.021533014 -0.1638519 -0.065656774 0.27393478 -0.34340075 0.11853887 0.05679116
-0.18528457 -0.12996899 0.033363443 0.066266224 0.29956934 0.07816402 0.3424719 0.07689901
-0.213024 0.26789433 -0.243837 -0.03026628 0.1275147 0.009716479 0.15001532 -0.004093643
0.12947635 0.038943008 0.0051816255 -0.17211534 0.23447444 -0.15557721 0.116546564 0.04955879
-0.6393074 -0.48032442 -0.16694139 0.1724115 0.058114905 -0.15655 0.07882557 0.05526885
-0.4535284 0.25109836 -0.21330751 0.011613419 -0.14374797 -0.16954735 0.049853217 0.2582209
0.22956777 0.11364428 -0.20515671 -0.022823915 0.23607814 -0.047833655 0.23001058 0.089754365
0.046798572 0.0801131 -0.27693608 0.0055144522 0.18779838 -0.17219146 -0.03432105 0.26443428
0.21346037 -0.2231968 -0.028264882 -0.13960695 -0.046519145 -0.525882 0.21469283 -0.5098616
0.110001184 -0.21942857 -0.032068852 0.018743837 0.0743199 -0.060354356 -0.15737467 0.37133816
0.26111168 -0.27195084 0.057630938 -0.29395208 -0.44398952 -0.010611978 0.099964775 0.08607086
0.016106064 -0.46665734 -0.1817472 -0.14239022 -0.0022718278 0.077587835 0.18640798 -0.4638001
-0.2499233 -0.038538735 -0.050851632 0.14664467 0.11321498 0.07507155 -0.87911844 -0.20633194
-0.11550278 -0.033564106 -0.17414445 -0.18370315 0.03296525 0.31375706 0.059978064 0.16336723
-0.04424219 0.0050313203 0.27844033 -0.07982447 0.008715522 0.07639319 0.04747026 0.019807614
-0.021680497 -0.22008178 0.096865326 0.07378843 0.1251028 0.20331112 0.3172012 -0.52849585
-0.16375993 0.1770349 -0.14414231 -0.05473513 0.2802544 0.0019527335 0.05694006 -0.016461084
-0.6096861 -0.16886397 0.18017387 0.24017622 0.15167664 0.19396871 0.13622235 0.26589635
0.21342961 0.0028350973 0.16223659 -0.06916824 -0.15112567 -0.36543658 -0.07561715 -0.8836321
-0.10204527 -0.08413952 -0.25720182 -0.40699127 -0.03971616 -0.2996317 0.13548237 -0.17151773
-0.5465105 -0.022006784 -0.1422582 -0.5391844 0.00599957 -0.06764656 0.2036936 0.0749876

actor.2.bias f4 [32]
00000000: a514 b5bd 22be 16be 5476 ed3c ac63 783d
00000010: 61b5 123e dfc6 213e 5755 f5bb 0169 09be
00000020: 6814 ca3d a614 9dbd d638 bcbb 2ed2 79be
00000030: 230a 31be aaa2 d43b 9d82 18be 59f1 223c
00000040: d80e 05bd ca35 94be a3b5 0cbc 935d 273e
00000050: 22ee 25bb 9ad7 29be ed32 8c3d c370 c03e
00000060: 5ebf 97be ede6 bfbc 4969 3fb9 f597 2c3d
00000070: ae6d cc3d 5f6a aa3d d3be 87be e448 8b3e
-0.08841828 -0.14720967 0.028987087 0.06064193 0.14327003 0.1579852 -0.00748698 -0.13418962
0.098671734 -0.07669954 -0.00574408 -0.24396583 -0.17289023 0.0064891176 -0.14893575 0.009945237
-0.03248486 -0.28947288 -0.008588227 0.1634429 -0.002531894 -0.16586152 0.06845651 0.3758603
-0.2963819 -0.023425544 -0.00018254401 0.042137105 0.09981857 0.0832107 -0.26512775 0.2720405

actor.4.weight f4 [2, 32]
00000000: c93d 1d3f 0a32 183b 3a2f da3d 1f5c 903e
00000010: b42a 883e 40a9 4fbe a4aa 49be ca7b 0f3f
00000020: f1f4 093f 38be aabe 7280 493e 5637 eabd
00000030: da69 6c3e c077 3f3e 1246 0d3f a689 50be
00000040: 6afe debd 3cb3 6bbd 762c 25be ddf9 7abe
00000050: 384e 053f d11c a03c a4d0 24be cb53 e4be
00000060: 7fb2 933e 5893 a33e df9f a0be c150 23be
00000070: 94a2 30bc d3d6 b6be ea30 843e e5d1 98be
00000080: dcf0 9cbe 9671 f63e a9de 9abe cec6 eabd
00000090: cc1d 02bf 4acd ad3e a920 793e 2953 a8be
000000a0: fc6c a6be 4174 7bbe e7f3 9cbe c8fc 503f
000000b0: 00ff 9dbd 26d5 9a3e 013e 88bd 6cb5 25bf
000000c0: 166b 283f 4636 293d 7d0f a63e 935f 753d
000000d0: 14b0 babe 73ca 073e a2ac d8be 8e17 683e
000000e0: 74e7 133e 3eb7 22be ea57 503c 6dbd 893e
000000f0: 3bdf 593e fbef 8d3e ceb3 7ebe 1140 a1be
0.614224 0.0023223185 0.10653539 0.28195283 0.2659508 -0.20279408 -0.19694 0.5604826
0.53889376 -0.3334825 0.19677904 -0.11436336 0.23087254 0.18698025 0.55185044 -0.20365009
-0.108883694 -0.057543978 -0.16130242 -0.24509378 0.5207248 0.01954499 -0.16095215 -0.4459518
0.2884712 0.31948352 -0.31371972 -0.15948774 -0.010780949 -0.35710773 0.25818568 -0.29847637
-0.3065251 0.48133534 -0.30248 -0.114637 -0.50826716 0.33945686 0.24328865 -0.32875946
-0.32505023 -0.24556066 -0.30654833 0.81635714 -0.07714653 0.30240744 -0.06652451 -0.6472995
0.657884 0.041311525 0.32433692 0.0599056 -0.36462462 0.13260822 -0.42319208 0.22665235
0.14443761 -0.15890214 0.012716273 0.26902333 0.21276562 0.27722153 -0.24873278 -0.3149419

actor.4.bias f4 [2]
00000000: ff8d d1be c525 f4bd
-0.40928647 -0.119212665
