results/SandingEnvMiddle/ddpg_extension/model/model_parameters_2.pt (torch, 32386 bytes, 22 tensors)

value.0.weight f4 [32, 12]
00000000: 1a78 fc3c f56b 2b3d ac49 b4bb 1b9d ea3d
00000010: 2429 e3bc 7771 39bd 2025 b33b fdd2 ab3b
00000020: 89fb b0bd ce6f 3b3e fed3 c1bf 0c5d 19c0
00000030: fd40 873e 398c 18be be37 8e3b dff3 3a3d
00000040: cbd2 333c c9c5 503e f577 763e 87ad 693d
00000050: fc5f 55be 987d 823e dc85 f53c 5255 8abf
00000060: 5e4e a73d 8a1a 213e 0c2b 7fbb 963c 3bbe
00000070: 3601 a2bb b382 88bd 19f3 e93c a3b6 f5bd
00000080: 5b0e 49be df43 8dbc c621 e73e 143a a3be
00000090: 6727 c83c 63cd b4bd d1be 5d3d 7453 87bd
000000a0: 40c1 22bd 1302 7ebd 6a2e 113c 0cef 743d
000000b0: 60b5 c93d 9c6c 8dbe 008e fa3f ba87 90be
000000c0: b9bb 21bd 5f1b 55be 69f8 953e 3f12 cc3c
000000d0: 7591 803b 4087 7f3b f3c0 263e 302c 49bd
000000e0: 7a08 4dbe 0049 313e 3f51 6cbf e6b4 05bf
000000f0: c8bf 1f3d ed6c 8a3d 311d 81bd 1bb2 f4bc
00000100: 1c9f bc3d 10fe 113e b369 033e 66ad 42be
00000110: c63f 2c3e 89e8 16be 3faf e93e 44a5 823e
00000120: 7e9e 5b3a 0001 3cbe 3881 20bd 1dd8 acbd
00000130: 6c67 69bd 4fd3 ab3d 6f18 913e d371 a03e
00000140: 14e0 2bbd bb64 0bbe 2e1f b3bf 7a4d a63c
00000150: bf9d 1fbc 714c 733d 5fdc e03d ceac 873d
00000160: 5c5a c63d dbde dcbd 1b61 9b3c 5f31 2fbe
00000170: ccf8 babc 2d2e 303e 75d2 3a3f 407b 53bc
00000180: c7b9 9bbc 7942 673e 6893 bb3c 4414 17bd
00000190: 7d7a dbbb 83bd 753e 92f7 e6bc 1a46 5d3e
000001a0: 36c8 15bd 50b7 ec3c e672 2e3f 23b8 80be
000001b0: 5897 0dbe 15be a13c fa9c 643d df05 63bd
000001c0: 9d92 113e 7b7a d33c 3287 e23d ab0f af3d
000001d0: f60b edbb 8b23 8b3e 938d 0dc0 ac46 ac3e
000001e0: beb5 f0bd 089e 07be beba a13d 7ecd b83d
000001f0: cf72 033d caf6 b4bc 2e79 773c 5cc4 a7bd
00000200: e59f 3abd 618e d3bd d5a1 c83f ff90 f7be
00000210: d6dc 913d 6fa4 9b3c a2e3 ca3a 716b 09be
00000220: ea69 07bd b70e 4bbd cab5 5e3d 9dc9 553d
00000230: 1626 97bb 2ef6 fbbd 103c 433e 5808 1cbf
00000240: 209d 13bc 3ad7 0fbe 266c 20bb d0af eebc
00000250: 07e2 10be 9670 c33c 7cb4 8fbe 35ad 3c3e
00000260: 0e4c 67be 64c0 5e3e 8f87 f3bf 0989 25bd
00000270: 0d93 403e 3d29 6bbc 1a96 04bc f617 013c
00000280: 8eec d5bd 3d22 c3bd c803 11be c2f4 b13d
00000290: 4d83 1bbe 1954 0dbc e7bc 44bf a90e ba3f
000002a0: 307a 0c3b 7ff6 7dbd d8f7 3e3c 70ab a1bc
000002b0: 52af 73be db2c 1f3e 8a02 51be f3a6 9c3e
000002c0: b93e 133e bcb8 6ebe 3080 f53f 4830 bebe
000002d0: 78f6 123e 2013 10bd 47d8 8fbd d453 b1bd
000002e0: dc9c 41bd 26c1 c6bb d047 23be 4ff0 ff3c
000002f0: 9a88 5bbe ac76 803e 4654 dd3f 33ff 823e
00000300: d6c7 d0bd 8a33 08be 3212 383d 0735 aa3c
00000310: e3aa ca3d 51f1 bd3c bffa 213e a7c3 683e
00000320: f3ad 44be e32e 853e 0cac 0bc0 d59e a73e
00000330: f965 e03d 255d dfbd 8688 65bd ea36 0b3e
00000340: 9284 ad3c 3553 a8bd 04b2 d83d d2d6 19be
00000350: a41f 113e 2fc6 8c3b 1035 0b3f 3ac2 de3e
00000360: 8741 48bb b94f b33d 3571 c4bc 9a68 be3c
00000370: 058a a0bd 6f7d 9d3d 23ea 0cbe 2fe3 78bc
00000380: b228 33be 4ed1 00be efdc ddbf 4610 18bf
00000390: e55d 7dba b8c6 ec3d f717 b83c 94c9 f83d
000003a0: fb8d 0cbe 24d9 d73d 7e8b 09bd e1d1 f23d
000003b0: 432c b93d 679c 683d c853 6b3e 944b a13f
000003c0: 8c5b 9ebb b8b8 55bc c93b 6f3b b352 f03c
000003d0: dbfc 07be 61e6 3cbd 66d6 27bd 50c2 353e
000003e0: 1f98 47be a6ac 6e3e 479b e13f bc55 283f
000003f0: da8d 8d3d d58b 393e f99d 523d f719 743d
0.030818988 0.041851003 -0.0055019464 0.11455747 -0.027729578 -0.045274224 0.005467072 0.0052436576
-0.086417265 0.18304369 -1.514282 -2.3963041 0.2641677 -0.1489724 0.004340141 0.04564273
0.01097555 0.20387949 0.24069197 0.057050254 -0.20837396 0.25486445 0.029971056 -1.0807288
0.08169244 0.1573278 -0.003893557 -0.1828483 -0.004943992 -0.06665554 0.0285583 -0.11997726
-0.19634382 -0.017244278 0.45142955 -0.31880248 0.024432851 -0.08828237 0.054137055 -0.06607714
-0.03973508 -0.062013697 0.008861164 0.059798285 0.09849048 -0.27621925 1.9574585 -0.2822855
-0.039485667 -0.20811222 0.29291084 0.024911044 0.00392359 0.0038990527 0.16284542 -0.049114406
-0.20022765 0.17313004 -0.9231147 -0.52229154 0.039001256 0.06759057 -0.06304396 -0.029870084
0.09210035 0.14257073 0.1283329 -0.19011459 0.16821203 -0.14737143 0.45641515 0.25516713
0.0008377804 -0.18359756 -0.039185733 -0.08439658 -0.056983396 0.08389913 0.28338954 0.3133684
-0.041961744 -0.13612644 -1.399389 0.020300616 -0.009742199 0.059399072 0.109795325 0.06624757
0.096852034 -0.10784694 0.018967202 -0.17108677 -0.022823714 0.17205115 0.7297738 -0.012907803
-0.019009484 0.22583951 0.022897437 -0.03688456 -0.0066979514 0.23998074 -0.028194223 0.21608773
-0.03656789 0.028896004 0.6814407 -0.25140485 -0.13827264 0.019743958 0.055813767 -0.05542552
0.14216085 0.02581524 0.11060943 0.0854791 -0.007234092 0.27175555 -2.211766 0.33647668
-0.117534146 -0.13243878 0.07896946 0.090235695 0.032091912 -0.022090334 0.015104575 -0.081917495
-0.045562644 -0.10329891 1.5674387 -0.4835281 0.07122199 0.018999306 0.0015479217 -0.13419892
-0.033059992 -0.04957458 0.054372586 0.052194227 -0.0046126945 -0.123028144 0.19065881 -0.6095023
-0.0090096295 -0.14046946 -0.0024478524 -0.029136568 -0.14148723 0.023857396 -0.28067386 0.18425448
-0.22587606 0.21753079 -1.9025744 -0.04041389 0.18806095 -0.014353094 -0.008092428 0.007879248
-0.1044551 -0.09528015 -0.14161599 0.08689262 -0.15186806 -0.0086260075 -0.7685074 1.4535724
0.0021435134 -0.062002655 0.01165577 -0.019735068 -0.23797348 0.15544455 -0.20411125 0.30596122
0.14379396 -0.23312658 1.9179745 -0.3714621 0.14351833 -0.03517449 -0.070236735 -0.08658567
-0.047268733 -0.0060655056 -0.15945363 0.031242518 -0.21438828 0.2509054 1.7291343 0.25585327
-0.10194366 -0.1330091 0.044939227 0.020777239 0.09895875 0.023186358 0.15818308 0.22730885
-0.19206981 0.26012334 -2.182376 0.32738367 0.1095695 -0.10906438 -0.056038402 0.13595167
0.021181379 -0.082189955 0.10580829 -0.15023354 0.14172226 0.0042960863 0.5437784 0.43507558
-0.0030556635 0.0875544 -0.023979763 0.023243237 -0.07838825 0.0768994 -0.13761191 -0.015190884
-0.17495993 -0.12579843 -1.7333049 -0.5939983 -0.00096651755 0.1156134 0.022472365 0.12147823
-0.13726036 0.10539463 -0.033580296 0.118564375 0.090416454 0.056789782 0.22981179 1.260119
-0.0048326906 -0.013044529 0.003650414 0.029336309 -0.1328005 -0.046118144 -0.04097595 0.17749906
-0.19491623 0.23308048 1.7625512 0.6575582 0.06911822 0.18119748 0.051420186 0.059595075

value.0.bias f4 [32]
00000000: c558 2fbe 6ef8 65be 59b5 8abe f584 95be
00000010: 42af 64be 4f76 8c3e 2a82 3a3e 64db 1cbf
00000020: 409f 50bc 7af4 9e3c 795e 2f3e c5d0 cb3d
00000030: 633d 753d 3a91 7fbd 38f8 b6be 3ff5 9dbe
00000040: b35a 863e 116a cebe 3aef 07be ff13 6ebe
00000050: 5e83 5fbe 2fd4 50be 3fd3 c9be 314d cbbc
00000060: 6153 06bd e2d7 f2bd 596c 1e3e b058 ba3b
00000070: f8f8 bfb9 0792 f9bd 7857 283e 2f45 01bd
-0.17123707 -0.2245805 -0.27091482 -0.29203 -0.2233248 0.27434012 0.18213716 -0.61272264
-0.012733281 0.019403685 0.17125882 0.09951929 0.059872996 -0.06239436 -0.3573625 -0.3085117
0.26241073 -0.40315297 -0.13274851 -0.23249815 -0.21827456 -0.20393442 -0.3941898 -0.024817081
-0.03279436 -0.11857583 0.15471019 0.005686842 -0.00036615855 -0.12186056 0.16439617 -0.03156012

value.2.weight f4 [32, 32]
00000000: d094 d8bc e1b0 35be e679 e1bd acb8 d6bd
00000010: 820a 55bd 047a 533d 6293 3ebe 12b6 953c
00000020: fb34 813d 6bdb 1f3e b743 bdbd dca4 e3bc
00000030: 192d 8ebd a13e 783d 6b3e e73c 0931 ce3c
00000040: d27a 8d3d db50 823d 3eed 6f3c d82f b73d
00000050: a7ea 1cbd 83ce 083c b0ef 06be f8b0 a2bd
00000060: b6df 443e ee8b eb3b 2687 79be eeec d53d
00000070: bfc9 d6bb 337f 12bc 4cad 2abd 8419 2fbb
00000080: dc54 a73c 95d5 87bd 3a7a e4bd a143 e4bd
00000090: d32c 45bd f508 453d 5e7f 583d 34b7 50bc
000000a0: 8c40 8bbc 14ec f1bc 20c6 9c3c 5148 b5bd
000000b0: f6eb 9a3d acaf 813d e9a2 753c 55dc b73d
000000c0: f7d4 503c 6e9d 08be d283 bf3d 2c86 d4bd
000000d0: 8e33 b73d 4dc9 0f3e 008b c73d 519d 9d3d
000000e0: 8308 a13c 091c b93d ecd2 833d 7d59 9fbd
000000f0: da72 8bbe 47a0 373e ae05 c63d d554 7dbd
00000100: 568f f5bc 9c3f 533e 6fd4 f9bd a9ed 473d
00000110: f4ab 24bd 3554 80bd ac73 e6be ef0c 803d
00000120: 2331 6f3e 2ff7 8dbc d542 bdbc 26e1 8d3d
00000130: ca02 6bbe ae5b 3cbd b21a d6be dbeb 4cbd
00000140: 6f33 17bc db40 d93d dee8 9abd 56f1 66bd
00000150: e34c 873d ff58 583d fa04 9d3d 34d1 0bbe
00000160: 3b78 e53d b36f 1cbe 437a 5cbf 4d8d 31bd
00000170: fa7b cbbd 3aa4 973d 222b 963d 807f c7bd
00000180: 59d3 c4bd 5464 f93d 6e9e 3bbe 03b8 4cbd
00000190: f34d e2bd 9db7 0c3d 7a97 d5be f1a6 6e3d
000001a0: 3f73 12be 35bd 43be 1546 29bd 1c82 843d
000001b0: 2b84 7abe c920 89be 02a0 1d3d e815 a33d
000001c0: 3b58 3a3e 266a bcbd 7298 c03d ff7b 253d
000001d0: 1dbb 753e 7635 70bd 4284 c4bc 6590 fd3d
000001e0: 5a1f 1abf b9e4 09bd 1286 d33d 028c d6be
000001f0: a08d 6b3d 61bf d13e 1bcb 2cbf b8aa ac3d
00000200: 8cdb 77be 957b 51be ed30 c13d 5e36 00be
00000210: f1ed a9bc abd2 16be c998 e23d 1f69 643c
00000220: d515 a73a 172e 08bd f3c0 cc3d 34db dbbc
00000230: a33b 183e 7064 55be b960 03be af2a e1bc
00000240: 2489 ad3d 1fed c0bd 8865 033e a0ed abbb
00000250: fbc5 bebe 9786 6e3e 7e05 5e3d dcd6 e3bc
00000260: ab89 db3c 0ceb a3bd fcbe d6bd 6c71 90bd
00000270: 8090 d2bc d7cd 23be 4b9b 1bbe 4e9e 053d
00000280: c1ed f23d 164f 1c3e d3d3 f93c 94cc df3d
00000290: ac4e 9b3d 4639 02be 81ed 253d b0b9 6f3d
000002a0: e156 093d a5e5 1bbe a57e 28be d5db 33bb
000002b0: a1e0 f0bd 7698 043e 358e b4bd b008 ce3d
000002c0: a2b7 0a3e 73c0 283d 8c47 2f3e 5a9f cabd
000002d0: ce92 043e 855c 943c 5f84 523d 33a0 cf3d
000002e0: b316 a7bd 289d 8c3d f93c 713e 0ed1 f7bd
000002f0: 0ea5 a2bd e085 e03d 5bf2 f43d 1bd7 133e
00000300: e57f fb3d 0759 8ebc e812 78bd 7064 90bd
00000310: 02ae ea3c 088b 033e a997 643c eb60 a5bd
00000320: 0a21 0bbe 565a f2bd 12e4 cdbc 28ec a83d
00000330: 2236 51bc 2b92 e53d 9b1e a9bd 6353 8a3d
00000340: 5766 a23d cb5e 653d 800e bfbd a228 10bd
00000350: b120 7fbd 7498 dabb 4019 283e da5a 98bd
00000360: 6393 073e f2e3 98bd 0826 45be ca23 cf3d
00000370: 0338 0a3d 8836 bcbc 0787 063d 98c7 b33d
00000380: 1ac0 ec3c 2d86 8a3d 87f0 163e a642 afbd
00000390: 916a 2abd e99f 88bb c8fc 2c3e 3e89 f73d
000003a0: 491c e53d e988 7c3c d407 32be 6a97 373e
000003b0: f212 ad3d a025 ee3d cef6 11be 8ecc 12be
000003c0: c344 223d 7916 103e 7beb c23d cbd5 20bd
000003d0: 772c 973d e259 ecbd 0b06 84bd 6efa 1c3b
000003e0: 9087 ac3d f2d2 08bd 4b04 8cbd a9d2 223d
000003f0: 4c55 5cbe 76d4 ddbd e0a2 36bc a447 e33d
-0.026438147 -0.17743255 -0.110095784 -0.10484442 -0.052011974 0.051630035 -0.1861091 0.018275294
0.06308933 0.15611045 -0.09241431 -0.027788572 -0.069421954 0.060606603 0.028228005 0.025169866
0.06908192 0.06363078 0.014643965 0.08944672 -0.03830972 0.0083500175 -0.13177371 -0.0794391
0.19225964 0.007188312 -0.24367961 0.104455814 -0.0065548117 -0.0089414595 -0.041669175 -0.002671809
0.020426206 -0.066325344 -0.11156125 -0.11145712 -0.04813845 0.048104245 0.05285584 -0.0127389915
-0.016998552 -0.029531516 0.019137442 -0.08851684 0.07564537 0.06332335 0.014992454 0.08977572
0.012746087 -0.13341305 0.093513146 -0.10377154 0.0894538 0.14041634 0.09743309 0.07696021
0.019657379 0.090385504 0.064367145 -0.077807404 -0.27236062 0.17932235 0.09669052 -0.06184848
-0.029975574 0.20629734 -0.121987216 0.048810635 -0.04020305 -0.06266061 -0.45010126 0.06252467
0.23358588 -0.01732978 -0.023103157 0.06927709 -0.22950283 -0.04598587 -0.41817242 -0.050029617
-0.009228571 0.10608073 -0.07563947 -0.0563825 0.06606462 0.05281925 0.07666965 -0.13654023
0.11204573 -0.15276985 -0.86124057 -0.043347646 -0.09935756 0.074043706 0.07332446 -0.097411156
-0.09610624 0.12177339 -0.18322155 -0.049980175 -0.11050024 0.034354795 -0.4171713 0.058264676
-0.14301775 -0.19115146 -0.0413266 0.06470129 -0.2446448 -0.26782826 0.038482673 0.07963163
0.1819772 -0.09199934 0.09404077 0.040401455 0.2399716 -0.058644734 -0.023988847 0.12381057
-0.6020409 -0.033665393 0.10328306 -0.41903692 0.05750811 0.40966323 -0.67497414 0.084309995
-0.24204844 -0.20457299 0.0943316 -0.1252074 -0.020743342 -0.14728801 0.11064298 0.013941078
0.0012747595 -0.03324708 0.0999774 -0.026837923 0.148665 -0.20839095 -0.12829866 -0.027486173
0.08473423 -0.09420227 0.128317 -0.005246833 -0.37260422 0.2329353 0.054204457 -0.027812414
0.026799044 -0.08003816 -0.10485646 -0.070528835 -0.025703669 -0.1599649 -0.15195958 0.032621674
0.11861754 0.15264544 0.030496513 0.10927692 0.07583365 -0.1271716 0.040509705 0.058526695
0.03353012 -0.15224321 -0.16454561 -0.0027444263 -0.117615946 0.12948784 -0.08816186 0.10060251
0.13546613 0.04119916 0.17117137 -0.09893675 0.12946627 0.018110523 0.05139577 0.101379775
-0.081586264 0.06865913 0.23558415 -0.12100421 -0.07941638 0.10963035 0.11960288 0.14437525
0.12280253 -0.017376436 -0.060564905 -0.07050407 0.028647427 0.12846005 0.013952174 -0.08075126
-0.13586822 -0.118336365 -0.025133166 0.08248168 -0.012769254 0.1120952 -0.08257791 0.06754186
0.07929676 0.055998605 -0.093289375 -0.035195 -0.062287036 -0.006671006 0.16415882 -0.074392036
0.13239817 -0.07465352 -0.19252789 0.10114248 0.033744823 -0.022975221 0.032843616 0.08778304
0.028900195 0.06763873 0.14740191 -0.08557634 -0.041605536 -0.0041694534 0.16893303 0.12086724
0.111870356 0.015413501 -0.17385799 0.17928854 0.08450879 0.1162827 -0.14254305 -0.14335844
0.039616358 0.14071073 0.095175706 -0.03926639 0.07381528 -0.11540581 -0.06446465 0.0023952979
0.08424294 -0.033404298 -0.06836756 0.039751682 -0.21516913 -0.10831539 -0.011147231 0.11097649

value.2.bias f4 [32]
00000000: bba3 893d 83ab 193e 06b6 9abd 2707 31bd
00000010: 7a85 933d cc15 2a3e feff b4bd c970 7bbc
00000020: d766 073e edb8 36be 32ac 803d 436c 70bd
00000030: 92bd 613c 1444 ce3d 5d14 d7bc 0cc4 e5bd
00000040: 0fdc 6f3c 5fc5 7fbd 59ed bcbc cd3b 30be
00000050: 2704 bbbd 112a e73d 2191 a63d f038 983d
00000060: 7b2b 2c3d 209b 3d3e 85ed f4bc eebb 6dbd
00000070: 1894 cabc 280d bf3e 6659 dbbc 1de7 e9bd
0.06720682 0.15006833 -0.075542495 -0.04321971 0.07203193 0.16609877 -0.08837889 -0.015346714
0.13222824 -0.17843981 0.06282844 -0.058696996 0.013778107 0.100715786 -0.026254827 -0.112190336
0.014639868 -0.062444087 -0.023062395 -0.17210312 -0.09131651 0.112873204 0.0813315 0.07432735
0.042033654 0.18516207 -0.029898414 -0.05804055 -0.02472882 0.37314725 -0.026776027 -0.114210345

value.4.weight f4 [1, 32]
00000000: ddf5 4c3c a911 18bd 5f47 5a3c 684b 273d
00000010: 72b1 aebc 9c8f 1f3d eb9e 35bd 9110 77bd
00000020: 5c41 cabb c194 e43c a9cf 173d cb0f c83c
00000030: 693d 64bc 865e 7bbc 7b9a 643d 6fb7 ae3c
00000040: 6463 6a3d c923 96bc 13d6 d4bc f8a8 1a3d
00000050: 9c5b 953d b338 eb3c ed1e 1d3d 8712 063c
00000060: d915 23bc a492 763d 6b3c 853d c324 3b3d
00000070: 93fc afbd 9646 c2bd adb3 39bd 7e62 47bc
0.01250979 -0.037126217 0.01332268 0.040843397 -0.021324847 0.038955316 -0.04434101 -0.060318533
-0.006172342 0.027902963 0.037063275 0.024421593 -0.013930657 -0.01534236 0.055811387 0.021327702
0.057223693 -0.01832761 -0.025980985 0.037758797 0.07292864 0.02871356 0.03835957 0.008183128
-0.009953939 0.06019844 0.065056644 0.045689356 -0.085930966 -0.094861194 -0.045337368 -0.012169478

value.0.weight f4 [32, 12]
00000000: 7e5e e03c 345b 283d 901c 64bb 9f8f f13d
00000010: f458 f6bc d9b6 4dbd ba8a da3b 9738 d33b
00000020: 9adb adbd bfff 3c3e 4d71 c1bf 7729 19c0
00000030: 94f0 853e 3266 18be 0663 2d3b 8f12 423d
00000040: 3c49 293c 6308 553e 385c 763e ad3e 693d
00000050: 8d34 55be 5693 823e 5bca fe3c 9278 89bf
00000060: c946 a43d fd22 1c3e 3a25 b5bb 144c 3cbe
00000070: affd aebb a2dd 85bd eb8f ec3c 740f f5bd
00000080: e4b2 4bbe d367 a2bc f974 e73e b73c a4be
00000090: c3b4 c43c 20cd b8bd f4a0 663d 7286 83bd
000000a0: 1588 26bd 5323 75bd 4fd3 ff3b dd9d 703d
000000b0: d35b ca3d 0543 8dbe 58b3 f93f 3eec 8ebe
000000c0: f25d 21bd a5d0 55be 1b9f 953e 7496 d23c
000000d0: 41e6 e23b fa5a 783b b783 263e 2e21 4abd
000000e0: 1f14 4dbe 5b3d 313e ad4d 6cbf 218e 05bf
000000f0: d4c2 1e3d 235a 883d 667a 79bd 200f ddbc
00000100: 28ac b83d 8f6d 113e d57b 013e 479b 44be
00000110: d40c 2d3e 7b1b 16be c654 e83e c7b9 823e
00000120: 89b8 da3a 66d4 3cbe d100 1abd 5b27 abbd
00000130: d634 6fbd dc69 aa3d 3dbb 903e a114 a03e
00000140: 719f 31bd 8dd4 0cbe 1bf9 b2bf c303 ad3c
00000150: 0049 0abc 5894 793d 6968 e33d 231f 853d
00000160: d51f bb3d 25b3 d8bd b138 983c 6f96 2fbe
00000170: c798 cabc 353a 2e3e 8402 3b3f 41a1 6dbc
00000180: 4df8 b0bc 3704 673e 65cd b63c 9be5 13bd
00000190: 12a0 a0bb eb05 773e 4ef4 f5bc 7a66 5b3e
000001a0: 88d4 16bd b59e ea3c 5416 2e3f 2d55 80be
000001b0: bc61 0dbe 2d14 a73c 5cc6 613d e123 5cbd
000001c0: b048 113e e84a c83c 902b e23d 09b4 ae3d
000001d0: 4093 02bc 21c3 8a3e a277 0dc0 70a9 ab3e
000001e0: 40b5 f0bd d6d9 06be fddb a53d 09e0 bc3d
000001f0: 5429 fd3c 75ab a3bc 94f3 6c3c 1115 a9bd
00000200: 9dd0 3abd bca6 d3bd b68c c83f 72ff f5be
00000210: 1783 8a3d 34eb 9c3c ea79 beba 2966 0bbe
00000220: dd15 11bd 927d 47bd 2c46 573d ff59 4e3d
00000230: 69cc d3bb 8ec0 ffbd d827 473e f369 1abf
00000240: 95ef 14bc a702 11be 440e dcba 7355 00bd
00000250: e669 12be 0fe1 c63c 08d8 8fbe 2166 3c3e
00000260: 1d77 66be 5595 5f3e ee78 f3bf d117 27bd
00000270: 06f0 3f3e cd4f 8cbc e6c2 00bc 60e5 403b
00000280: 671b d7bd 0c4e c1bd d911 13be a4d8 ad3d
00000290: 80fd 1abe e0f6 04bc 238b 45bf 0f54 ba3f
000002a0: e402 713b b17e 84bd fc19 803c 1e07 a0bc
000002b0: 34ef 73be 361c 1c3e 049b 4fbe ba5a 9d3e
000002c0: 3e0b 133e 37ec 6ebe 2735 f53f 6146 bfbe
000002d0: fe18 133e 0b2f 0ebd 43d0 90bd a275 aabd
000002e0: 6b9f 47bd 4e1c 91bb 202b 23be e26a 003d
000002f0: 30bf 59be 5f5b 813e d294 dc3f 7f82 833e
00000300: 63df d3bd 3b79 06be 8c26 313d 6beb b83c
00000310: eb50 d23d a58e af3c a7ae 203e 8f77 673e
00000320: db61 43be fbd4 853e ab88 0bc0 4956 a73e
00000330: da0a e03d 069c e8bd 9a00 6dbd ca0d 0a3e
00000340: 5329 b23c 817c a9bd 288b d73d 3c6a 1abe
00000350: 93a1 113e 6204 9d3b 4f44 0a3f 7e3d de3e
00000360: 11a5 22bb 36a5 b43d 8c49 c6bc c8ea b93c
00000370: 3557 a6bd b4f7 9c3d 342a 0cbe 7ae4 6cbc
00000380: 12a4 33be af4c 01be 25f7 ddbf 1ed1 17bf
00000390: dad1 3abb 57d4 ec3d 57fc ba3c 3120 f93d
000003a0: 5576 0dbe 5473 dc3d 24fc 0ebd 9219 f03d
000003b0: 4afb bb3d 743a 6e3d c812 6c3e 7b8b a13f
000003c0: 277f b8bb 31b2 6dbc 26ac 5c3b b12c 023d
000003d0: 2d10 06be 57e9 43bd e551 2abd 7723 353e
000003e0: 3074 47be 95d0 6e3e 4c64 e13f 0156 283f
000003f0: 7e29 8e3d 3967 393e d762 4f3d 05e6 6a3d
0.027388807 0.041102603 -0.0034807064 0.11794972 -0.030071713 -0.050223205 0.0066693695 0.006445955
-0.08489151 0.18456934 -1.5112702 -2.3931558 0.2616011 -0.14882734 0.0026456728 0.04738098
0.010332402 0.2080398 0.24058616 0.056944538 -0.20820828 0.25503033 0.03110235 -1.073992
0.08021314 0.15247722 -0.0055281194 -0.18388397 -0.0053403 -0.06536414 0.02887722 -0.11965838
-0.1989246 -0.019824898 0.4520643 -0.32077572 0.024011975 -0.090234995 0.05630584 -0.06422128
-0.04065712 -0.05984814 0.0078071724 0.0587443 0.09880795 -0.27590194 1.9507856 -0.27914613
-0.039396234 -0.20880373 0.2922295 0.025706507 0.006924421 0.0037896023 0.16261183 -0.04934805
-0.20027207 0.17308562 -0.92306024 -0.52169997 0.03876002 0.06657817 -0.060907744 -0.026984751
0.09017211 0.1420195 0.12644894 -0.19199859 0.16899425 -0.1465892 0.45377177 0.25532362
0.0016687076 -0.18440399 -0.037598435 -0.08357116 -0.058399998 0.08320972 0.2826785 0.3126574
-0.043364946 -0.13752957 -1.3982271 0.021119958 -0.008440256 0.060932487 0.11103899 0.065000795
0.09136931 -0.10581044 0.01858172 -0.1714723 -0.024731053 0.17014392 0.73050714 -0.014503778
-0.021602774 0.22560202 0.022314737 -0.03610764 -0.0049018944 0.24123351 -0.03002372 0.2142581
-0.03682378 0.02864013 0.6800282 -0.25064984 -0.13806814 0.020395363 0.05512081 -0.053745154
0.14187884 0.02444978 0.11043465 0.08530433 -0.007969677 0.27101997 -2.2104268 0.33527708
-0.11753321 -0.13169035 0.080986 0.09222419 0.030903496 -0.019979218 0.01446237 -0.08255971
-0.045609105 -0.103345364 1.5667942 -0.48046452 0.06763285 0.019155122 -0.0014532183 -0.1361319
-0.03542124 -0.048703738 0.052557155 0.050378796 -0.0064635766 -0.12487899 0.19448793 -0.60317916
-0.009090324 -0.14161168 -0.001678892 -0.03133149 -0.1429821 0.024277238 -0.28094506 0.18398334
-0.22506376 0.2183431 -1.902128 -0.040794197 0.18743905 -0.017127896 -0.007858967 0.0029433593
-0.105032735 -0.094387144 -0.14362277 0.084885865 -0.15135765 -0.0081155 -0.7716543 1.4556903
0.0036775405 -0.06469477 0.01563739 -0.019534644 -0.23821718 0.15245137 -0.20273978 0.3073328
0.14359757 -0.23332296 1.9156846 -0.37358382 0.14365003 -0.034712832 -0.07070973 -0.08323218
-0.048736017 -0.004428423 -0.1593442 0.03135193 -0.21264338 0.25265023 1.7232916 0.25685498
-0.10345342 -0.13132183 0.04324965 0.022573194 0.1026934 0.021430323 0.15691625 0.22604202
-0.19080298 0.26139054 -2.1802166 0.32683018 0.1093957 -0.11357884 -0.0578619 0.13481823
0.02174822 -0.082757 0.10524589 -0.15079588 0.14221792 0.0047917822 0.5401048 0.4340629
-0.0024817626 0.08820574 -0.024204992 0.02269496 -0.08122102 0.07664433 -0.13687974 -0.01445877
-0.17543057 -0.12626909 -1.7341048 -0.5930346 -0.002850643 0.11563938 0.022825403 0.12164343
-0.13814671 0.107641846 -0.03490843 0.11723627 0.09178789 0.058161214 0.2305404 1.2620691
-0.005630392 -0.014507816 0.0033671944 0.031780902 -0.13092108 -0.047829952 -0.041582007 0.1768931
-0.19477916 0.23321755 1.7608733 0.6575623 0.06941508 0.18105783 0.05063137 0.05734827

value.0.bias f4 [32]
00000000: e2af 2dbe 06af 62be e546 8cbe e687 95be
00000010: 3899 64be be15 8d3e 793c 3b3e a359 1dbf
00000020: 39a6 38bc ffed 983c f7aa 2f3e 5ceb cc3d
00000030: 2ed5 743d 2373 75bd f3a6 b7be 97a8 9dbe
00000040: ba00 873e a210 cebe 1c05 08be eaa4 6cbe
00000050: 2816 5fbe 63aa 51be 7af0 c8be 3be5 c1bc
00000060: 592e 01bd b8df f4bd 180d 1c3e 780d 233c
00000070: b08f 3bbb e207 fdbd 57b5 2a3e b979 e8bc
-0.16961625 -0.22137079 -0.27397838 -0.29205245 -0.22324073 0.2755565 0.18284787 -0.614649
-0.011270099 0.018668173 0.17155062 0.10005829 0.059773616 -0.059924256 -0.3586956 -0.30792686
0.26367742 -0.40247065 -0.13283199 -0.23109785 -0.21785796 -0.20475154 -0.3924597 -0.023668876
-0.03153834 -0.119567335 0.1523937 0.009951942 -0.002861958 -0.12355019 0.16670738 -0.028378354

value.2.weight f4 [32, 32]
00000000: 2dc1 dabc 59b1 36be 4375 e0bd b63e d2bd
00000010: 3d0e 5fbd 1465 533d 11e7 3dbe 1729 933c
00000020: 70ad 813d d116 203e 0a37 bebd 17c2 debc
00000030: 12ff 8fbd fd25 7c3d 905b d83c d115 cb3c
00000040: 5905 8d3d 37f4 813d 50f1 663c 4dce b63d
00000050: af62 1dbd eae7 193c 61b9 06be 4c66 a2bd
00000060: 390d 453e 3a56 ee3b 68ec 78be 40a7 d53d
00000070: 5237 bfbb 8a1d 0cbc 8dfa 2abd c0ec 59bb
00000080: 7e12 ac3c 4817 89bd d9cc e4bd 6240 e1bd
00000090: cc7b 43bd bf7d 473d aa65 4d3d c96d 36bc
000000a0: e9b4 87bc cc40 efbc b8fa 9f3c 8feb b4bd
000000b0: 2137 9a3d 4400 813d e0d3 6b3c 83f3 b73d
000000c0: cf58 4c3c f67c 08be 788a c03d 0fd8 d2bd
000000d0: e3d8 b83d 8f94 0f3e b241 c73d 967b 9d3d
000000e0: 460b a23c 7b41 ba3d 8e1e 823d db8d 9fbd
000000f0: 0460 8abe d667 373e 32b1 c73d 41cd 80bd
00000100: 5d0d 03bd 86a8 523e 3553 f6bd 9458 383d
00000110: 0026 1ebd f330 7dbd ba71 e6be 288f 7e3d
00000120: 0708 703e 6627 88bc a543 b2bc 9e7c 8e3d
00000130: 8015 6abe d53a 44bd 16bc d6be bfb0 4bbd
00000140: f371 0ebc a6e8 d43d afa9 9cbd da4d 67bd
00000150: 8a14 873d e4a5 553d d33c a03d 485b 0abe
00000160: 53eb e63d 2447 1cbe 1f6f 5bbf 7832 33bd
00000170: baf3 c9bd 53e1 9a3d 9ffe 963d 0e73 cabd
00000180: f0c6 c9bd b0eb f83d 59de 3bbe 1e20 42bd
00000190: b459 e3bd 9d0e 173d 3502 d6be 8a92 6f3d
000001a0: 0b72 12be 8d51 40be 5f19 1fbd b881 843d
000001b0: 55b8 76be dd0d 88be 8a8d 203d cb98 aa3d
000001c0: 3f0d 3d3e 45a2 b7bd 05d4 bf3d 9373 2d3d
000001d0: 067c 743e 1235 70bd 6cf5 a9bc 0c3a 023e
000001e0: 46ad 1abf 0e42 01bd ed4b db3d e711 d5be
000001f0: 15a4 6f3d 7e15 d23e 39d8 2cbf bcb5 b13d
00000200: bd83 79be 442b 55be c4a6 c23d a5c0 fabd
00000210: c6d5 a9bc 083b 19be 0e17 d93d 132f a03c
00000220: b053 f83a 4fa7 08bd 4eed cd3d 112c d1bc
00000230: 387d 143e a384 54be 63e2 08be 8ec9 fcbc
00000240: 4cd5 ac3d 3590 bbbd e220 023e eb28 33bc
00000250: ab8f c0be 9563 713e 7a86 573d a375 cabc
00000260: e281 d23c 2cf4 a4bd 4529 debd 98b8 91bd
00000270: 0155 9cbc 038f 24be ae7e 1bbe dc73 fd3c
00000280: 0bd4 f33d 7960 1c3e 0b77 fb3c 8a1d dd3d
00000290: b7fa 923d 483a 03be d3ae 243d 407d 6c3d
000002a0: 0516 073d 0087 1dbe 048c 29be 50d4 53bb
000002b0: d323 f5bd b8d1 043e 6a38 b8bd 47d8 cc3d
000002c0: 00e8 073e 34bb 283d 0803 2f3e 5702 ccbd
000002d0: 312d 043e 2246 9b3c 69b9 4d3d 46c3 cf3d
000002e0: cee9 a6bd 7ca9 8a3d 029a 6e3e d8a9 f7bd
000002f0: 608c a1bd c1ab e13d 7be9 f33d 2d05 133e
00000300: be26 fb3d 4ce6 82bc 5421 78bd dbb1 8dbd
00000310: 046e 013d 0912 043e 7cf5 503c 6df9 a3bd
00000320: 9bea 0abe edb0 f2bd b55d c0bc f29c a93d
00000330: 40f4 44bc f8a4 e53d 8b52 a5bd c4e6 8a3d
00000340: 92d1 a23d 3b45 693d c932 bfbd 489b 11bd
00000350: 39db 7dbd 289a fabb 32c2 273e a800 99bd
00000360: 1c90 073e bb16 9abd a52f 43be 9a04 cf3d
00000370: 8554 133d 49c3 bebc 176d 053d 66aa b13d
00000380: 0b54 ef3c ff61 8a3d 4ce4 163e 32cc acbd
00000390: b6c4 20bd 2cb6 84bb a967 2d3e 13a0 f83d
000003a0: aa36 e53d c4f2 7b3c 6cdc 31be f6cd 373e
000003b0: 04b9 ad3d 45a4 ed3d 482b 10be acce 11be
000003c0: 5994 213d be5b 103e 3000 c43d 8dd5 1fbd
000003d0: 50ce 963d 44d7 eebd 92d1 83bd 9044 183b
000003e0: a6af ac3d a500 08bd 00d5 8abd b043 233d
000003f0: 31d5 5cbe fff8 ddbd 1f68 36bc 96d6 e23d
-0.026703442 -0.1784109 -0.10959866 -0.102658674 -0.054456938 0.051610067 -0.18545176 0.01796393
0.06331909 0.15633704 -0.092878416 -0.027192159 -0.07031073 0.061559666 0.026410848 0.024790676
0.068857856 0.063454084 0.014095619 0.089260675 -0.03842419 0.0093936715 -0.13156654 -0.07929668
0.19243325 0.0072734626 -0.24308932 0.10432291 -0.005835452 -0.008551965 -0.04174285 -0.0033252686
0.021004912 -0.06693894 -0.11171884 -0.10998608 -0.047725484 0.048703905 0.050145783 -0.011134573
-0.016565757 -0.029205702 0.019528732 -0.08833992 0.07530046 0.06298879 0.014393777 0.08981993
0.0124723455 -0.13328919 0.09401411 -0.10295116 0.09025743 0.14021514 0.09729327 0.07689588
0.019780766 0.09094521 0.06353484 -0.07790729 -0.2702638 0.17910704 0.09750594 -0.06289149
-0.031995166 0.20572099 -0.12027589 0.04500635 -0.03861046 -0.06181426 -0.4500864 0.062148243
0.23440562 -0.01662035 -0.021760771 0.069573626 -0.22859764 -0.04790767 -0.41940373 -0.049729105
-0.00869416 0.10395937 -0.07649552 -0.05647073 0.065957144 0.05216016 0.07824101 -0.13511384
0.11275353 -0.15261513 -0.8571643 -0.043749303 -0.0986094 0.075625084 0.07372784 -0.09885226
-0.098523974 0.12154329 -0.18346538 -0.04739391 -0.11101094 0.03687917 -0.4179856 0.05848936
-0.14301316 -0.18781109 -0.038842555 0.064700544 -0.24093755 -0.26573077 0.039197482 0.08329924
0.18462084 -0.08966497 0.093666114 0.04234655 0.23875436 -0.05864436 -0.02074691 0.12717456
-0.60420644 -0.031557135 0.10707841 -0.4161522 0.05850609 0.41032022 -0.6751743 0.08677241
-0.2436666 -0.20817286 0.09504464 -0.12243775 -0.020731818 -0.14963925 0.106001005 0.019553697
0.0018945839 -0.033362683 0.10055028 -0.025533708 0.14500892 -0.20753722 -0.1336761 -0.030857828
0.08439121 -0.09158365 0.12707856 -0.010935049 -0.3760961 0.23573144 0.05261848 -0.024714297
0.025696699 -0.080543846 -0.10847715 -0.071152866 -0.019083502 -0.1607018 -0.15185043 0.030939035
0.11905678 0.15271176 0.030696413 0.1079665 0.07176726 -0.12815201 0.040205788 0.057736635
0.032979984 -0.1538353 -0.16557318 -0.0032322593 -0.119697236 0.12970626 -0.08995135 0.10002189
0.13272095 0.041194156 0.17091 -0.09961384 0.12907864 0.01895434 0.05022565 0.10144667
-0.081500635 0.06770608 0.23300937 -0.12092942 -0.078881025 0.110190876 0.11909767 0.14357443
0.12263249 -0.015978955 -0.06057866 -0.06918689 0.03159906 0.12897505 0.012753841 -0.080065586
-0.13566057 -0.11850152 -0.023482183 0.08281888 -0.012021124 0.11213106 -0.080723844 0.06782296
0.079501286 0.05695079 -0.093358584 -0.03554848 -0.061976645 -0.0076477714 0.16382673 -0.07470828
0.13238567 -0.07523867 -0.19061144 0.101082996 0.035969276 -0.023286479 0.03257474 0.08675079
0.02921488 0.067569725 0.14735526 -0.08437385 -0.0392501 -0.004050037 0.16934074 0.12139907
0.11192067 0.015377704 -0.1736924 0.17949662 0.084825546 0.116035976 -0.1407901 -0.14238995
0.039448116 0.14097497 0.09570348 -0.039022017 0.0736357 -0.116621524 -0.06436457 0.0023234226
0.0843194 -0.03320374 -0.06778908 0.039859474 -0.21565701 -0.10838508 -0.011133223 0.11076085

value.2.bias f4 [32]
00000000: 7049 893d c42c 1a3e 0fef 99bd 1a57 23bd
00000010: 1262 903d 4bdc 283e 6cf3 b3bd ec35 75bc
00000020: 5520 083e 9e3d 36be 420c 813d 7330 6fbd
00000030: 5283 6f3c 1348 d13d 5c53 c1bc 2f7e e4bd
00000040: 2129 6d3c 1175 78bd 9c27 bebc f2a0 30be
00000050: 252d babd 99aa e63d 566b a63d 3e0b 9a3d
00000060: 88bc 2f3d 78ac 3d3e 0641 f5bc 4751 6fbd
00000070: 04b4 cdbc 13e9 bd3e 3d0a debc ebce eabd
0.0670346 0.15056139 -0.075163 -0.03987799 0.070499554 0.16490285 -0.087866634 -0.014966469
0.13293584 -0.17796943 0.06301166 -0.058395814 0.014618712 0.10218825 -0.02359932 -0.1115688
0.014475138 -0.06065852 -0.023212247 -0.17248896 -0.09090642 0.11263008 0.081259415 0.075216755
0.042904407 0.18522823 -0.029938232 -0.05842712 -0.025110252 0.37091884 -0.027104491 -0.11465248

value.4.weight f4 [1, 32]
00000000: c242 4e3c f68d 17bd 7541 653c baea 2a3d
00000010: 01b4 adbc 0014 203d 1e2d 36bd dbb9 77bd
00000020: d070 d5bb 2e98 e63c 8d09 1a3d 41f3 cf3c
00000030: 0375 6fbc 5366 8abc 4167 6b3d 7478 b33c
00000040: 4b66 6f3d 328f 92bc 07c5 d4bc 812c 1b3d
00000050: 2424 963d 1fa1 ed3c a142 1e3d 1c5f 0e3c
00000060: 3e0f 53bc 7ffb 773d 7a7d 853d bc3a 393d
00000070: fdbd b3bd cdd8 c3bd 6d16 3bbd a175 40bc
0.0125891585 -0.03700062 0.013992657 0.04172776 -0.021203997 0.039081573 -0.04447662 -0.06047998
-0.0065136924 0.028148737 0.037606765 0.025384547 -0.0146153 -0.016894495 0.057471517 0.021908022
0.058447164 -0.017890546 -0.025972856 0.03788424 0.07331112 0.029007493 0.03863776 0.008689668
-0.012882052 0.06054258 0.065180734 0.04522203 -0.08776472 -0.09562836 -0.045675684 -0.011746795

actor.0.weight f4 [32, 10]
00000000: 5907 b33e 67ea 24bd 9bf4 b03d 34bc bbbd
00000010: 4476 373e 67c0 863e fe82 a0be 42d9 81be
00000020: 8903 183e c685 9c3e ad0f d1be 2e96 de3d
00000030: 5b64 883e 623c 003f 6098 aebe 7e4e 1b3e
00000040: 18b6 173e 76a8 8e3e 43d3 da3d f43b babd
00000050: 0c6f 053d cf85 cfbe 824a 8ebd 8543 c8be
00000060: 8eef ebbd 9239 56be 2ad7 b83d 63d1 b33e
00000070: 937f 1c3e 6d9e a1bd c3c5 0d3e 287b 6ebd
00000080: 1b24 d9bd 4569 f0be c2fa 723e 96cf d5be
00000090: bd7f 2f3e 40ec 0c3e 5334 91bb 2cb6 8dbd
000000a0: eece 08be e27e 583e 0878 793e ae1e 503d
000000b0: 3bba 51be a002 b83e ef6d 8e3e 7583 b5bd
000000c0: 217b eb3d beed 42be cfde 80be f3c0 833d
000000d0: 0f93 ed3e 2630 25be 2450 2d3d 13c3 2bbd
000000e0: 744d 1f3e 7343 223e 7219 25bc 2485 9dbe
000000f0: 1a89 d5be e7b4 83bd 0be1 02be d6cd 263e
00000100: 18f1 80bd aa46 f13e 546c 943d ada7 35be
00000110: acb4 b3be dc10 adbe da32 053e 6342 863e
00000120: e376 e5bd a7d2 de3d 475c 43be 296a 96be
00000130: 58e0 42be b8aa 683e cd5b 423e 16cf 85be
00000140: d676 11be e09b c4bd 48b8 57bd 12d7 153e
00000150: 65a1 66be 32f1 1abd 39c3 bfbd 501f ee3d
00000160: 4804 5ebe 814d ccbd bf8b 64be ef85 88bb
00000170: d303 0fbf 50fb 643e 0a96 1bbe f6c7 513e
00000180: 52cd e8bd ff01 c63e 0ad1 e83d 9086 8d3d
00000190: 446f 1f3e f234 92be d545 593d 0931 eabc
000001a0: 06de 29bf bd9c e13e 02ca 133d 8821 e3be
000001b0: 1dc7 a1bc 4b60 b93d fac7 fd3d 21be 703e
000001c0: 9894 633e d99c 38be 0f5f 433e a89a 903d
000001d0: 09c5 48bb 18f4 febd 4f07 6bbe 38cd 89bd
000001e0: 4b0f 83be ee4c 073e 7168 2d3e 92ea 233f
000001f0: 0ecd 7c3e f7ef 823e 541f a3bd 752c 76be
00000200: 7c05 85be b30a 2d3e 73fa d33e fd60 153e
00000210: 4494 983e 1116 4d3d 81f5 403e 01a2 7c3e
00000220: a926 f53d d37b 873e 0129 eebd 474a c7bd
00000230: 9d23 adbe 14e6 9a3e b3c7 a43e a4f5 cc3d
00000240: e484 c83e 3a04 763e d9a9 b93d 1ab7 95bc
00000250: 8990 3cbe 8cc0 c13e 92c7 c8be 79f9 80bd
00000260: 6122 cebe 5cf6 c1bd e004 f03d 16e5 48be
00000270: f187 403d ce73 38bc bc6f 31be 4c54 563d
00000280: e323 f23d 0260 6cbe fd14 27be c2e7 c3be
00000290: 18b4 bebe 3091 d53d 4885 5abd 36e0 a0bc
000002a0: a0e4 ee3d 8a31 82be 4d68 583e 4708 8b3e
000002b0: 1330 2abe 11b8 d4bd dbce 20be 50ad 853e
000002c0: 4f51 f13c ad38 073d 9cd3 823e f35f 953d
000002d0: aed7 56be e52b 833c d16e 3bbe bed0 89bd
000002e0: d49e 763e ac39 893e 805d c23d e6cc da3e
000002f0: de9a 183e 4d1b 773e b857 12be 593f 803d
00000300: a014 35be 9040 703e fe3d 7bbe 8d1f bb3d
00000310: f765 e23e 7f4c 1f3d 6e29 bdbe fa4f 86be
00000320: 4718 7ebd 6677 bb3d 1d4a 82be 6088 a6be
00000330: 28bb 2b3e f6cb d6be a1ec 433e 77d2 683d
00000340: 22cb a9be fe6c 843d 8d94 52be 5cdb 4cbe
00000350: 0010 32be 2db2 693e afc1 95bd d60e 5cbe
00000360: 18ac 93be 5230 96be 6fa3 bf3e c2d3 ba3e
00000370: 1a5d a83d 0663 a43e 92a9 c1be 4817 fcbd
00000380: 160a c33e 5ef2 6abc b03c 53be a33b 953d
00000390: 71fd 503d 6f98 a7be f287 ebbd 5d37 a73c
000003a0: 82e0 8a3d 0d50 eebe 5722 953e 6151 a23e
000003b0: 0142 a7be 51e3 4cbe 4a76 98bd b5d3 edbd
000003c0: 90bd 80be c8d3 2fbe 338c 85be cd52 473e
000003d0: e45e f53e 1788 ca3e b760 e6be c10c d9bd
000003e0: 3a29 ecbe 986f cbbe 296b 70be 8f32 10bc
000003f0: d955 68bd 3da1 08bf 3f99 ae3e 92d4 d83e
0.34966543 -0.040262606 0.08640405 -0.09166756 0.17916209 0.26318666 -0.3134994 -0.25361067
0.14845099 0.3057081 -0.40832272 0.10868488 0.26639065 0.50092137 -0.34100628 0.15166661
0.14815557 0.278629 0.10684826 -0.090934664 0.032576606 -0.40531775 -0.06947805 -0.39114013
-0.11520301 -0.20920399 0.09025414 0.35120687 0.1528304 -0.078915454 0.13844971 -0.05822292
-0.1060259 -0.46955314 0.23728469 -0.41759938 0.17138572 0.13761997 -0.0044312864 -0.06919512
-0.13360187 0.21142152 0.24362195 0.05081051 -0.20481198 0.35939503 0.27818248 -0.08862964
0.11498094 -0.19036004 -0.2516999 0.064332865 0.4640126 -0.16131648 0.042312756 -0.041934084
0.1555689 0.15846042 -0.010076867 -0.3076564 -0.41706163 -0.06430989 -0.1278116 0.16289458
-0.06295985 0.47124225 0.072472245 -0.17739744 -0.3509878 -0.33801925 0.1300768 0.26222524
-0.112043165 0.108800225 -0.1907817 -0.2937787 -0.19030893 0.22721374 0.18980332 -0.26134557
-0.14205489 -0.09600043 -0.05266598 0.14632824 -0.22522505 -0.037827678 -0.09363408 0.11627066
-0.2168132 -0.0997572 -0.22318934 -0.0041663568 -0.5586521 0.22361493 -0.15193954 0.20486435
-0.11367287 0.38673398 0.11367996 0.069104314 0.15569788 -0.2855602 0.053045113 -0.028587835
-0.66354406 0.44064894 0.03608132 -0.4436152 -0.019748265 0.090515696 0.12391658 0.23510028
0.22224653 -0.18028583 0.1907923 0.07060748 -0.003063502 -0.12448901 -0.22952007 -0.067285955
-0.25597605 0.1321294 0.16934372 0.640298 0.24687597 0.25573704 -0.0796496 -0.24040397
-0.25980747 0.16898613 0.41402015 0.1458778 0.29800618 0.050069872 0.18843652 0.24671175
0.119702645 0.26461658 -0.116289146 -0.09730964 -0.33816233 0.3025366 0.32183608 0.1000779
0.39163888 0.2402505 0.09065599 -0.018275786 -0.18414511 0.37842214 -0.3921476 -0.06297583
-0.40260604 -0.094708174 0.1171968 -0.1961864 0.047004644 -0.011258079 -0.1732778 0.052326486
0.11823251 -0.23083499 -0.163166 -0.38262755 -0.37246776 0.10428083 -0.053349763 -0.019638162
0.116647005 -0.2542842 0.21133538 0.27154753 -0.16619901 -0.103866704 -0.15703909 0.2610879
0.029457716 0.033013035 0.2555207 0.072936915 -0.20980713 0.016012141 -0.18303992 -0.067292675
0.24084026 0.26801813 0.0949049 0.4273445 0.14902827 0.24131508 -0.14291275 0.062620826
-0.17683649 0.23462129 -0.24535367 0.09136877 0.44218418 0.03889131 -0.3694567 -0.26232892
-0.06203487 0.09153633 -0.2544717 -0.3252592 0.16770613 -0.41952485 0.19133236 0.05684134
-0.3316279 0.06466101 -0.2056448 -0.20005554 -0.17388916 0.22821875 -0.07312333 -0.21490034
-0.28842235 -0.2933374 0.37429377 0.36489683 0.08220883 0.321068 -0.37824684 -0.12309128
0.38093632 -0.014340011 -0.20628619 0.072867654 0.05102295 -0.32733485 -0.11500539 0.020412141
0.06781103 -0.4654545 0.29127762 0.31702712 -0.32667544 -0.2000859 -0.07444437 -0.116126455
-0.25144625 -0.17170632 -0.26083526 0.1946518 0.47923958 0.39556953 -0.44995663 -0.10598136
-0.46125203 -0.39733577 -0.23478378 -0.008801117 -0.056722496 -0.5337103 0.34101292 0.42349678

actor.0.bias f4 [32]
00000000: d49b 903d 3301 613e 7a33 bbbe 4cc0 1b3e
00000010: fbf3 303e de3e 5ebe b717 c0bd 1a22 2ebe
00000020: f1b6 453e 7a01 483e b09c d53e f054 7abe
00000030: 9a16 9a3c d472 fbbc d15d df3c 62c0 703e
00000040: f18d 163e 8c86 6c3e ec86 2bbe 350a 81be
00000050: 15e1 a7bd bd35 2a3e 5f04 4ebe 7801 143e
00000060: b199 9c37 e090 3bbd d66f 603e 37c0 80bd
00000070: fb7a 9e3c c866 1e3d 4ac1 b43e beaf 4dbe
0.07060972 0.21973114 -0.3656271 0.15210074 0.17280571 -0.2170367 -0.09379523 -0.17005196
0.19308068 0.19531813 0.41721106 -0.24446464 0.018809605 -0.030694403 0.027266415 0.23510888
0.14702584 0.230982 -0.16750687 -0.252031 -0.08197228 0.16622062 -0.20118855 0.14453685
1.8668217e-05 -0.04579246 0.21917662 -0.06286662 0.019345751 0.03867224 0.35303718 -0.20086572

actor.2.weight f4 [32, 32]
00000000: a70d 0abe e6cb 50be 39cf debe b094 1bbe
00000010: 36b6 813c 24a9 08bc b50a dabc ff5f c83d
00000020: b81b 27be 2182 793e d1b6 3bbe bb14 0abb
00000030: a6a9 103e 1bc6 86bd 4aca 443e 7190 23bd
00000040: 3d3c e2be ef8a e63d 5253 273e 42e3 72be
00000050: bcf9 b3be 9f13 a0bd da83 7c3d 56bf 2c3e
00000060: 39ca a83e 6354 8d3e a2a7 bcbe 2911 3e3d
00000070: a342 19bd d409 bf3e cf10 673e f237 e2bd
00000080: c17d aabd 3bc2 b0bc 3d96 d83c 3e0d 953d
00000090: 0970 fa3d 9e0c a0bd 2803 2c3e 9516 0d3e
000000a0: 3cba bc3d 6746 7f3b ea96 34be e8f5 3f3e
000000b0: f78e 753d 7696 12bd e1f3 753e 822a 83be
000000c0: 0a97 db3b 5310 343e 02e0 443d b12b 3c3e
000000d0: 8ebd 82be c156 f53d 93d9 b8bd 5405 03be
000000e0: 948b 033e 1480 6c3e fc16 13be 46b3 df3d
000000f0: 39ea 5fbe 255d cb3d 6b67 bdbe 192b 85bd
00000100: 940c 863d b1cc 3bbf 5ac6 1cbd 32d2 f33d
00000110: a8b2 5dbc 82e0 e9be c2f1 e53d a856 303e
00000120: f8de 203e a5ba b1be 9b3a b7be 1b2e 06be
00000130: e3b0 43bf 42fe cebe d5f3 d2ba e049 513e
00000140: 133c d23d 7e5a 1fbd ac27 9cbe c6e7 ef3d
00000150: 34ba 6c3e 001f 5fbd 0d51 81be 8718 2fbe
00000160: e1ed 173e 60f9 8dbe 21a1 e7ba aa65 bc3d
00000170: 0d73 4b3d 22f4 203e 2c1e 23bf 0f6b 9fbe
00000180: 3cbe 7cbd 06ca 8e3d 9868 053f 84ac 89be
00000190: d52b aebd 969d 873d cbb5 a2be ae25 51bd
000001a0: 9a02 92bd 255e 403e 13e8 a3bb ddf5 233e
000001b0: 82c6 5f3e 3693 f6bd 81c0 923e da89 19bd
000001c0: feda 7a3e 10ea 17be 2d4f 2bbe 598e 703e
000001d0: 682c 4d3d 79be 45be 0dae 9b3e e88a 023d
000001e0: 12c2 813e faa0 46be c0b4 8e3c 6425 9fbe
000001f0: eb46 993e fcd6 6abe 2d2c 453e c0a1 d73d
00000200: 0cd0 63be 0ce6 fabb 0a7d df3d a190 623c
00000210: f437 b6bd 2066 d73d 40d1 dfbe a23a 1b3d
00000220: 2c5f c3bd 4de5 533d e643 d93e 6d00 9fbd
00000230: 0e52 7d3e d498 7bbf 79b4 8c3d 0905 803e
00000240: 174e a83d fbd3 753d b358 653d 17a4 22be
00000250: cc21 e03c fb28 413e 97f5 023e c464 8cbd
00000260: 11b4 67be 6dc2 b1be f92d 35bc c45a 5b3d
00000270: e2bb 84bd 8dac 8abe 6e0f c93e 8779 f03d
00000280: 3193 0cbe c021 ad3c 64fb c9bd 2d4e 193e
00000290: 7332 0cbe 7a8b c83b 9e5f 67bd a31c dfbd
000002a0: a620 b4bc 4f4f ddbc 9046 b53d 9d42 cf3d
000002b0: 4196 26be c25a 24be 9b7c 2f3d ca99 843c
000002c0: 96ed ebbd 74a3 28bc 5167 4f3d db5f 623c
000002d0: 139f 923c e5ff d8bd fff4 0abc d83f 8bbd
000002e0: 1bf2 cebd 8195 0ebe bd19 13be 8816 3dbe
000002f0: 4a04 99bd e6e5 ffbd 7a92 61bd bbc9 bf3c
00000300: 448e 3dbe 94d5 95bd bdc8 c63d f340 d2bd
00000310: f2c4 8bbd 8672 f3be 4cb0 5d3e 3428 0c3d
00000320: 455c b7be addd 833d 92c1 c9bd aed1 05be
00000330: e0ff 293e c150 be3e e01b 6c3e c50f e03c
00000340: 255d 973e 58cb 3c3b 9286 b5bc 7746 dfbd
00000350: 01f0 993b 19aa be3d 193e ecbd 0a4f 683d
00000360: 2b22 d63e 3df4 54be 17ee b6be 475e ddbd
00000370: f01b c4bd b193 1d3d b7fa 72be fdb8 9cbd
00000380: 050b 373e c74e bcbc 396f e93d a0a3 d9bd
00000390: b1d1 2c3d ca6a 0dbe b921 a03c aa57 95be
000003a0: 0bed 58bc a05f 393d 4722 393e 9db9 01bd
000003b0: 85a5 ef3b 1d85 c3bd e3d5 b33d acf8 c5bd
000003c0: adc1 b63e ea56 b7be 06cf f3bd 15fa cb3d
000003d0: 8516 9d3d a060 6b3e 2444 7d3e 50e0 db3d
000003e0: 7bf1 263e 9349 8abe c611 e3bc 92fb 7cbe
000003f0: b992 503e 2cfb 843d 0465 653e 82ee 853e
-0.1348177 -0.20390281 -0.43517473 -0.15193439 0.015833955 -0.0083411075 -0.026616434 0.09783935
-0.16319168 0.24366046 -0.18331458 -0.0021069485 0.14127216 -0.06580754 0.19217792 -0.039932672
-0.44186583 0.11256968 0.16340378 -0.23719504 -0.3515147 -0.078162424 0.06164918 0.16869864
0.32966784 0.27603444 -0.36846644 0.046403084 -0.037417065 0.37312186 0.22565006 -0.11045827
-0.08324767 -0.021576991 0.026438827 0.07277916 0.122284 -0.078149065 0.16798079 0.13778146
0.09215209 0.0038951875 -0.17635694 0.1874615 0.059950795 -0.035788022 0.24018814 -0.25618368
0.006701355 0.17584352 0.048065193 0.18376042 -0.25535244 0.119794376 -0.09025874 -0.12795001
0.12846214 0.23095733 -0.14364237 0.109228656 -0.21866693 0.09929875 -0.36992964 -0.06502361
0.06545368 -0.7335921 -0.0382751 0.11905326 -0.0135313645 -0.45679098 0.11227752 0.17220557
0.15710056 -0.3471271 -0.357869 -0.13103525 -0.7644178 -0.40428358 -0.0016094396 0.20438337
0.102653645 -0.03890466 -0.30499017 0.11714129 0.23117906 -0.054472923 -0.2525715 -0.170992
0.14836837 -0.2772932 -0.0017671922 0.091990784 0.049670268 0.1571813 -0.63717914 -0.31136367
-0.06170486 0.06972127 0.5211272 -0.2688943 -0.08504454 0.06621854 -0.31779322 -0.051061325
-0.071294025 0.18785913 -0.0050020306 0.16011758 0.21853068 -0.12039797 0.28662494 -0.03748498
0.24497601 -0.14835382 -0.16729422 0.23491801 0.050091177 -0.19310941 0.30406228 0.031870753
0.25343376 -0.19397345 0.017420173 -0.31083214 0.2993692 -0.22933573 0.19255133 0.10528898
-0.22247332 -0.0076568183 0.10912521 0.0138284275 -0.08897391 0.10517526 -0.43714333 0.037897713
-0.09539637 0.05173235 0.42434615 -0.07763753 0.24738333 -0.9828007 0.0687036 0.25003842
0.082180195 0.060016613 0.055992793 -0.15882908 0.027359866 0.18863289 0.12788998 -0.06855157
-0.22627284 -0.34718648 -0.011058324 0.053553358 -0.06481148 -0.2708477 0.39269584 0.117419295
-0.13728024 0.021134257 -0.09862402 0.14971228 -0.1369112 0.0061201425 -0.056487672 -0.10894134
-0.021988224 -0.027015356 0.08851349 0.10120127 -0.16268255 -0.16050246 0.042843442 0.016186614
-0.11519925 -0.0102928765 0.05063564 0.013816799 0.017898118 -0.10595683 -0.008481263 -0.067992866
-0.10104772 -0.13924219 -0.14365287 -0.18465626 -0.07471521 -0.124950215 -0.05507133 0.023411622
-0.18511301 -0.073161274 0.097062565 -0.10266294 -0.06824674 -0.47548312 0.21649283 0.03421803
-0.35812584 0.06438766 -0.09851374 -0.13068268 0.16601515 0.37170985 0.23057508 0.02735127
0.2956325 0.0028807726 -0.022158895 -0.10902112 0.0046978 0.09309787 -0.11535282 0.056716003
0.41822943 -0.20796295 -0.35728523 -0.108089976 -0.09575641 0.038470928 -0.23728453 -0.07652471
0.17875297 -0.022986783 0.11398167 -0.10626912 0.042192165 -0.13810268 0.01954733 -0.29168445
-0.013240109 0.04525721 0.18079482 -0.031671155 0.0073134326 -0.09546874 0.0878103 -0.09666571
0.35694638 -0.35808498 -0.11904721 0.09959809 0.07670311 0.22986078 0.24733025 0.107361436
0.16303055 -0.27009258 -0.027718436 -0.24705341 0.2036847 0.0649322 0.22401816 0.2615853

actor.2.bias f4 [32]
00000000: 6fbe 943d a78b 833d 4cc3 fdbd 06ba 92bd
00000010: 3888 d8bd 4c93 0ebd 91ec 6f3d e642 803d
00000020: 1024 2e3e 4d1b 353e 688d 423e 63c6 19be
00000030: 43e3 693e e94d 6a3d 99e4 7fbe 8b3a 36be
00000040: 759e 813e d12a 503e 2c3b 54bd 3fd5 10bd
00000050: ca40 62bd 36e1 66be 10bd a1bd 9f0e 2d3d
00000060: 3b7c 1fbd efa7 45be 7ca2 863d dce5 033d
00000070: fee8 6cbe dac0 94bd 3cba 333e 9d81 9b3e
0.07262885 0.06423121 -0.123907655 -0.071643874 -0.10572857 -0.034808442 0.058575217 0.0626276
0.17005944 0.17686196 0.18999255 -0.15017085 0.228406 0.057203207 -0.24989547 -0.1779577
0.25316206 0.20328833 -0.051814243 -0.035359617 -0.05523757 -0.22546849 -0.07897389 0.042250272
-0.038936835 -0.19302343 0.0657396 0.032201633 -0.23135754 -0.07263346 0.17551512 0.30372325

actor.4.weight f4 [2, 32]
00000000: c0ff 9d3e eddd 023e 1a3c 033f a49f 7dbe
00000010: 568a 6ebe 3456 b2bd ed37 df3e 9e72 5fbe
00000020: a387 93be 2113 013d aadb 87bd 651d 313f
00000030: 837b 98be a3f4 28be d786 edbe dc57 cfbe
00000040: 03a3 703e b10c 033d cf58 a7be 2134 623e
00000050: 28b2 3bbe 18c9 283e 4a18 783d d9be 0b3d
00000060: 486b a93e bf74 00bf 93d9 083e ac3f d83e
00000070: ed5c 8ebd 1868 d93e ef24 8bbd d12a 813e
00000080: 5da5 363e e920 223e f72d fb3e 88a5 2c3b
00000090: 9c54 3dbe a4e3 03bd 437c 83bd 6a7a 5dbe
000000a0: bbc9 c93c ec0d 3a3e 7557 6d3e ed0d 243e
000000b0: 814a 063d 7103 57be d5f0 aabc f08a 8d3d
000000c0: 5449 5a3e 9940 ea3e 46c7 adbd a003 bfbc
000000d0: 8fad bc3d 7286 0bbf a27c 53bd f7b8 fc3e
000000e0: 2c3f 3bbe bbb4 f9bd e08d a53e 8edb 133f
000000f0: dbe2 0fbf 4ef7 8ebe 5774 613e 75a5 033f
0.30859184 0.1277997 0.5126358 -0.2476793 -0.23294958 -0.08707848 0.43597355 -0.21821067
-0.2881442 0.031512383 -0.066336945 0.6918548 -0.29781732 -0.16499572 -0.46391937 -0.4049672
0.23499684 0.031994525 -0.32684943 0.22090198 -0.1832968 0.16482961 0.06057004 0.034117553
0.33089662 -0.5017814 0.13364248 0.42236078 -0.06951318 0.4246223 -0.06794154 0.2522798
0.17836519 0.15832867 0.49058506 0.0026343782 -0.18489307 -0.032199517 -0.064201854 -0.21628729
0.024632325 0.18169373 0.23177893 0.16020937 0.032785896 -0.20997407 -0.02086679 0.06911266
0.21317035 0.4575241 -0.08485274 -0.023317158 0.09212791 -0.5450202 -0.05163253 0.49359867
-0.18285817 -0.12192675 0.32334805 0.5775689 -0.5620553 -0.27923054 0.22017036 0.5142434

actor.4.bias f4 [2]
00000000: a6f0 92bd f665 ec3d
-0.07174806 0.11542885
